#NCHW = affine_map<(d0, d1, d2, d3) -> (d0, d1, d2, d3)>
#NHWC = affine_map<(d0, d1, d2, d3) -> (d0, d2, d3, d1)>
#NWCH = affine_map<(d0, d1, d2, d3) -> (d0, d3, d1, d2)>
#loc = loc(unknown)
#loc1 = loc("profiling_result")
module @age_gender attributes {VPU.arch = #VPU.arch_kind<VPUX37XX>, VPU.compilationMode = #VPU.compilation_mode<DefaultHW>} {
  module @UsedMemory {
    IE.MemoryResource 123008 bytes of @DDR loc(#loc)
  } loc(#loc)
  VPURT.SW.Runtime entryPoint : @VPU.SW::@runtime stack_configuration : [4096, 4096, 4096, 4096] loc(#loc)
  module @VPU.SW {
    func.func private @builtin_Convert(memref<*xf32, [@CMX_NN, 0]>, memref<*xf16, [@CMX_NN, 0]>) attributes {VPU.kernel_code = "single_shave_convert.cpp", VPU.kernel_entry = "single_shave_convert", VPU.task_type = @COMPUTE} loc(#loc)
    func.func private @runtime() attributes {VPU.kernel_code = "nnActEntry"} loc(#loc)
  } loc(#loc)
  IE.TileResource {activity_factor = 0.18763111907664831 : f64} 2 of @NCE at 1.300000e+03 MHz {
    builtin.module @UsedMemory {
      IE.MemoryResource 311296 bytes of @CMX_NN loc(#loc)
    } loc(#loc)
    builtin.module @ReservedMemory {
      module @DmaProfilingReservedMemory {
        IE.MemoryResource 512 bytes of @CMX_NN offset 0 loc(#loc)
      } loc(#loc)
    } loc(#loc)
    IE.MemoryResource 1784217 bytes of @CMX_NN_FragmentationAware loc(#loc)
    IE.MemoryResource 1982464 bytes of @CMX_NN {VPU.bandwidth = 32 : i64, VPU.derateFactor = 1.000000e+00 : f64} loc(#loc)
    IE.ExecutorResource 2 of @SHAVE_ACT loc(#loc)
    IE.ExecutorResource 1 of @SHAVE_NN loc(#loc)
    IE.ExecutorResource 1 of @DPU loc(#loc)
  } loc(#loc)
  IE.ExecutorResource 2 of @DMA_NN loc(#loc)
  IE.MemoryResource 2306867200 bytes of @DDR {VPU.bandwidth = 8 : i64, VPU.derateFactor = 6.000000e-01 : f64} loc(#loc)
  IE.CNNNetwork {inferenceTiming = 94410 : i64} entryPoint : @main inputsInfo : {
    DataInfo "data" : tensor<1x3x62x62xf32> loc(#loc)
  } outputsInfo : {
    DataInfo "prob" : tensor<1x64x14x14xf32> loc(#loc)
  } profilingOutputsInfo : {
    DataInfo "profilingOutput" {
      VPUIP.ProfilingSection type 1 : 192 bytes from 0 loc(#loc)
      VPUIP.ProfilingSection type 3 : 128 bytes from 192 loc(#loc)
      VPUIP.ProfilingSection type 4 : 368 bytes from 320 loc(#loc)
      VPUIP.ProfilingSection type 5 : 64 bytes from 704 loc(#loc)
    } : tensor<192xui32> loc(#loc)
  } loc(#loc)
  func.func @main(%arg0: memref<1x3x62x62xf32, @DDR> loc(unknown), %arg1: memref<1x64x14x14xf32, @DDR> loc(unknown), %arg2: memref<192xui32> loc("profiling_result")) -> (memref<1x64x14x14xf32, @DDR>, memref<192xui32>) {
    %0 = VPURT.DeclareBuffer <Register> <537403424> -> memref<1xui32, @Register> loc(#loc2)
    %1 = VPURT.DeclareBuffer <ProfilingOutput> [0] <704> -> memref<1xui32> loc(#loc2)
    %2 = VPURT.ConfigureBarrier<0> -> !VPURT.Barrier loc(#loc41)
    %3 = VPURT.ConfigureBarrier<1> -> !VPURT.Barrier loc(#loc42)
    %4 = VPURT.ConfigureBarrier<2> -> !VPURT.Barrier loc(#loc41)
    %5 = VPURT.ConfigureBarrier<3> -> !VPURT.Barrier loc(#loc41)
    %6 = VPURT.ConfigureBarrier<4> -> !VPURT.Barrier loc(#loc41)
    %7 = VPURT.ConfigureBarrier<5> -> !VPURT.Barrier loc(#loc41)
    %8 = VPURT.ConfigureBarrier<6> -> !VPURT.Barrier loc(#loc43)
    %9 = VPURT.ConfigureBarrier<7> -> !VPURT.Barrier loc(#loc41)
    %10 = VPURT.ConfigureBarrier<8> -> !VPURT.Barrier loc(#loc44)
    %11 = VPURT.ConfigureBarrier<9> -> !VPURT.Barrier loc(#loc45)
    %12 = VPURT.ConfigureBarrier<10> -> !VPURT.Barrier loc(#loc46)
    %13 = VPURT.ConfigureBarrier<11> -> !VPURT.Barrier loc(#loc46)
    %14 = VPURT.ConfigureBarrier<12> -> !VPURT.Barrier loc(#loc9)
    %15 = VPURT.ConfigureBarrier<13> -> !VPURT.Barrier loc(#loc47)
    %16 = VPURT.ConfigureBarrier<14> {isFinalBarrier} -> !VPURT.Barrier loc(#loc11)
    %cst = const.Declare memref<1x1x1x28160xf16> = dense<"…"> : tensor<1x1x1x28160xf16> loc(#loc48)
    %cst_0 = const.Declare memref<1x1x1x2688xf16> = dense<"…"> : tensor<1x1x1x2688xf16> loc(#loc49)
    %cst_1 = const.Declare memref<1x3x62x2xf16> = dense<0.000000e+00> : tensor<1x3x62x2xf16> loc(#loc50)
    %17 = VPURT.DeclareBuffer <NetworkInput> [0] <0> -> memref<1x3x62x62xf32, @DDR> loc(#loc50)
    %18 = VPURT.DeclareBuffer <ProfilingOutput> [0] <0> -> memref<12xui64, @DDR> loc(#loc9)
    %19 = VPURT.DeclareBuffer <ProfilingOutput> [0] <96> -> memref<12xui64, @DDR> loc(#loc9)
    %20 = VPURT.DeclareBuffer <ProfilingOutput> [0] <192> -> memref<16xui32, @DDR> loc(#loc13)
    %21 = VPURT.DeclareBuffer <ProfilingOutput> [0] <256> -> memref<16xui32, @DDR> loc(#loc13)
    %22 = VPURT.DeclareBuffer <CMX_NN> [0] <512> -> memref<16xui32, [@CMX_NN, 0]> loc(#loc13)
    %23 = VPURT.DeclareBuffer <CMX_NN> [1] <512> -> memref<16xui32, [@CMX_NN, 1]> loc(#loc13)
    %24 = VPURT.DeclareBuffer <CMX_NN> [0] <576> -> memref<12xui64, [@CMX_NN, 0]> loc(#loc9)
    %25 = VPURT.DeclareBuffer <CMX_NN> [1] <576> -> memref<12xui64, [@CMX_NN, 1]> loc(#loc9)
    %26 = VPURT.DeclareBuffer <CMX_NN> [0] <23680> -> memref<1x3x62x62xf32, [@CMX_NN, 0]> loc(#loc41)
    %27 = VPURT.DeclareBuffer <CMX_NN> [0] <576> -> memref<1x3x62x62xf16, [@CMX_NN, 0]> loc(#loc41)
    %28 = VPURT.DeclareBuffer <DDR> <0> -> memref<1x3x31x64xf16, {order = #NCHW, strides = [11904, 3968, 64, 1]}, @DDR> loc(#loc41)
    %29 = VPURT.DeclareBuffer <DDR> <3968> -> memref<1x3x31x64xf16, {order = #NCHW, strides = [11904, 3968, 64, 1]}, @DDR> loc(#loc41)
    %30 = VPURT.DeclareBuffer <CMX_NN> [0] <64192> -> memref<1x3x31x64xf16, [@CMX_NN, 0]> loc(#loc41)
    %31 = VPURT.DeclareBuffer <CMX_NN> [1] <64192> -> memref<1x3x31x64xf16, [@CMX_NN, 1]> loc(#loc41)
    %32 = VPURT.DeclareBuffer <CMX_NN> <704> -> !VPUIP.DistributedBuffer<1x64x16x62xf16, #NWCH, @CMX_NN, {mode = "SEGMENTED", num_tiles = [1, 1, 1, 2], num_clusters = 2 : i64}> loc(#loc41)
    %33 = VPURT.DeclareBuffer <CMX_NN> [0] <704> -> memref<1x64x16x31xf16, #NWCH, [@CMX_NN, 0]> loc(#loc51)
    %34 = VPURT.DeclareBuffer <CMX_NN> [1] <704> -> memref<1x64x16x31xf16, #NWCH, [@CMX_NN, 1]> loc(#loc52)
    %35 = VPURT.DeclareBuffer <DDR> <0> -> memref<1x16x32x62xf16, #NHWC, @DDR> loc(#loc41)
    %36 = VPURT.DeclareBuffer <DDR> <63488> -> memref<1x16x30x62xf16, #NHWC, @DDR> loc(#loc41)
    %37 = VPURT.DeclareBuffer <DDR> <0> -> memref<1x16x31x62xf16, #NHWC, @DDR> loc(#loc41)
    %38 = VPURT.DeclareBuffer <DDR> <61504> -> memref<1x16x31x62xf16, #NHWC, @DDR> loc(#loc41)
    %39 = VPURT.DeclareBuffer <CMX_NN> <704> -> !VPUIP.DistributedBuffer<1x16x62x62xf16, #NHWC, @CMX_NN, {mode = "SEGMENTED", num_tiles = [1, 1, 2, 1], num_clusters = 2 : i64, alignment = [1, 1, 2, 1]}> loc(#loc41)
    %40 = VPURT.DeclareBuffer <CMX_NN> [0] <704> -> memref<1x16x32x62xf16, #NHWC, [@CMX_NN, 0]> loc(#loc53)
    %41 = VPURT.DeclareBuffer <CMX_NN> [1] <704> -> memref<1x16x30x62xf16, #NHWC, [@CMX_NN, 1]> loc(#loc54)
    %42 = VPURT.DeclareBuffer <CMX_NN> [0] <704> -> memref<1x16x32x62xf16, #NHWC, [@CMX_NN, 0]> loc(#loc41)
    %43 = VPURT.DeclareBuffer <CMX_NN> [1] <704> -> memref<1x16x30x62xf16, #NHWC, [@CMX_NN, 1]> loc(#loc41)
    %44 = VPURT.DeclareBuffer <CMX_NN> <81920> {swizzlingKey = 5 : i64} -> !VPUIP.DistributedBuffer<1x48x60x60xf16, {order = #NHWC, swizzlingScheme = #VPUIP.SwizzlingSchemeAttr<key = 5 : i64, sizeAlignment = 512 : i64>}, @CMX_NN, {mode = "SEGMENTED", num_tiles = [1, 1, 2, 1], num_clusters = 2 : i64}> loc(#loc55)
    %45 = VPURT.DeclareBuffer <CMX_NN> [0] <81920> {swizzlingKey = 5 : i64} -> memref<1x48x30x60xf16, {order = #NHWC, swizzlingScheme = #VPUIP.SwizzlingSchemeAttr<key = 5 : i64, sizeAlignment = 512 : i64>}, [@CMX_NN, 0]> loc(#loc56)
    %46 = VPURT.DeclareBuffer <CMX_NN> [1] <81920> {swizzlingKey = 5 : i64} -> memref<1x48x30x60xf16, {order = #NHWC, swizzlingScheme = #VPUIP.SwizzlingSchemeAttr<key = 5 : i64, sizeAlignment = 512 : i64>}, [@CMX_NN, 1]> loc(#loc57)
    %47 = VPURT.DeclareBuffer <CMX_NN> [0] <81920> {swizzlingKey = 5 : i64} -> memref<1x48x30x60xf16, {order = #NHWC, swizzlingScheme = #VPUIP.SwizzlingSchemeAttr<key = 5 : i64, sizeAlignment = 512 : i64>}, [@CMX_NN, 0]> loc(#loc58)
    %48 = VPURT.DeclareBuffer <CMX_NN> [1] <81920> {swizzlingKey = 5 : i64} -> memref<1x48x30x60xf16, {order = #NHWC, swizzlingScheme = #VPUIP.SwizzlingSchemeAttr<key = 5 : i64, sizeAlignment = 512 : i64>}, [@CMX_NN, 1]> loc(#loc59)
    %49 = VPURT.DeclareBuffer <CMX_NN> [0, 1] <76096> -> !VPUIP.DistributedBuffer<1x1x1x2688xf16, {order = #NCHW, strides = [2688, 2688, 2688, 1]}, @CMX_NN, {mode = "DUPLICATED", num_clusters = 2 : i64}> loc(#loc43)
    %50 = VPURT.DeclareBuffer <CMX_NN> <16384> {swizzlingKey = 5 : i64} -> !VPUIP.DistributedBuffer<1x48x30x30xf16, {order = #NHWC, swizzlingScheme = #VPUIP.SwizzlingSchemeAttr<key = 5 : i64, sizeAlignment = 512 : i64>}, @CMX_NN, {mode = "SEGMENTED", num_tiles = [1, 1, 2, 1], num_clusters = 2 : i64, alignment = [1, 1, 2, 1]}> loc(#loc60)
    %51 = VPURT.DeclareBuffer <CMX_NN> [0] <16384> {swizzlingKey = 5 : i64} -> memref<1x48x16x30xf16, {order = #NHWC, swizzlingScheme = #VPUIP.SwizzlingSchemeAttr<key = 5 : i64, sizeAlignment = 512 : i64>}, [@CMX_NN, 0]> loc(#loc61)
    %52 = VPURT.DeclareBuffer <CMX_NN> [1] <16384> {swizzlingKey = 5 : i64} -> memref<1x48x14x30xf16, {order = #NHWC, swizzlingScheme = #VPUIP.SwizzlingSchemeAttr<key = 5 : i64, sizeAlignment = 512 : i64>}, [@CMX_NN, 1]> loc(#loc62)
    %53 = VPURT.DeclareBuffer <CMX_NN> [0] <16384> {swizzlingKey = 5 : i64} -> memref<1x48x16x30xf16, {order = #NHWC, swizzlingScheme = #VPUIP.SwizzlingSchemeAttr<key = 5 : i64, sizeAlignment = 512 : i64>}, [@CMX_NN, 0]> loc(#loc63)
    %54 = VPURT.DeclareBuffer <CMX_NN> [1] <16384> {swizzlingKey = 5 : i64} -> memref<1x48x14x30xf16, {order = #NHWC, swizzlingScheme = #VPUIP.SwizzlingSchemeAttr<key = 5 : i64, sizeAlignment = 512 : i64>}, [@CMX_NN, 1]> loc(#loc64)
    %55 = VPURT.DeclareBuffer <CMX_NN> <65536> {swizzlingKey = 5 : i64} -> !VPUIP.DistributedBuffer<1x64x28x28xf16, {order = #NHWC, swizzlingScheme = #VPUIP.SwizzlingSchemeAttr<key = 5 : i64, sizeAlignment = 512 : i64>}, @CMX_NN, {mode = "SEGMENTED", num_tiles = [1, 1, 2, 1], num_clusters = 2 : i64}> loc(#loc65)
    %56 = VPURT.DeclareBuffer <CMX_NN> [0] <65536> {swizzlingKey = 5 : i64} -> memref<1x64x14x28xf16, {order = #NHWC, swizzlingScheme = #VPUIP.SwizzlingSchemeAttr<key = 5 : i64, sizeAlignment = 512 : i64>}, [@CMX_NN, 0]> loc(#loc66)
    %57 = VPURT.DeclareBuffer <CMX_NN> [1] <65536> {swizzlingKey = 5 : i64} -> memref<1x64x14x28xf16, {order = #NHWC, swizzlingScheme = #VPUIP.SwizzlingSchemeAttr<key = 5 : i64, sizeAlignment = 512 : i64>}, [@CMX_NN, 1]> loc(#loc67)
    %58 = VPURT.DeclareBuffer <CMX_NN> [0] <65536> {swizzlingKey = 5 : i64} -> memref<1x64x14x28xf16, {order = #NHWC, swizzlingScheme = #VPUIP.SwizzlingSchemeAttr<key = 5 : i64, sizeAlignment = 512 : i64>}, [@CMX_NN, 0]> loc(#loc68)
    %59 = VPURT.DeclareBuffer <CMX_NN> [1] <65536> {swizzlingKey = 5 : i64} -> memref<1x64x14x28xf16, {order = #NHWC, swizzlingScheme = #VPUIP.SwizzlingSchemeAttr<key = 5 : i64, sizeAlignment = 512 : i64>}, [@CMX_NN, 1]> loc(#loc69)
    %60 = VPURT.DeclareBuffer <CMX_NN> [0, 1] <254976> -> !VPUIP.DistributedBuffer<1x1x1x28160xf16, {order = #NCHW, strides = [28160, 28160, 28160, 1]}, @CMX_NN, {mode = "DUPLICATED", num_clusters = 2 : i64}> loc(#loc44)
    %61 = VPURT.DeclareBuffer <CMX_NN> <704> -> !VPUIP.DistributedBuffer<1x64x14x14xf16, #NCHW, @CMX_NN, {mode = "SEGMENTED", num_tiles = [1, 1, 2, 1], num_clusters = 2 : i64}> loc(#loc46)
    %62 = VPURT.DeclareBuffer <CMX_NN> [0] <704> -> memref<1x64x7x14xf16, [@CMX_NN, 0]> loc(#loc46)
    %63 = VPURT.DeclareBuffer <CMX_NN> [1] <704> -> memref<1x64x7x14xf16, [@CMX_NN, 1]> loc(#loc46)
    %64 = VPURT.DeclareBuffer <CMX_NN> [0] <704> -> memref<1x64x7x14xf16, [@CMX_NN, 0]> loc(#loc46)
    %65 = VPURT.DeclareBuffer <CMX_NN> [1] <704> -> memref<1x64x7x14xf16, [@CMX_NN, 1]> loc(#loc46)
    %66 = VPURT.DeclareBuffer <CMX_NN> [0] <704> -> memref<1x64x7x14xf16, [@CMX_NN, 0]> loc(#loc70)
    %67 = VPURT.DeclareBuffer <CMX_NN> [1] <704> -> memref<1x64x7x14xf16, [@CMX_NN, 1]> loc(#loc71)
    %68 = VPURT.DeclareBuffer <DDR> <0> -> memref<1x64x7x14xf16, {order = #NCHW, strides = [12544, 196, 14, 1]}, @DDR> loc(#loc46)
    %69 = VPURT.DeclareBuffer <DDR> <196> -> memref<1x64x7x14xf16, {order = #NCHW, strides = [12544, 196, 14, 1]}, @DDR> loc(#loc46)
    %70 = VPURT.DeclareBuffer <CMX_NN> [0] <32832> -> memref<1x64x3x14xf16, [@CMX_NN, 0]> loc(#loc72)
    %71 = VPURT.DeclareBuffer <CMX_NN> [1] <32832> -> memref<1x64x3x14xf16, [@CMX_NN, 1]> loc(#loc73)
    %72 = VPURT.DeclareBuffer <CMX_NN> [0] <32832> -> memref<1x64x3x14xf16, [@CMX_NN, 0]> loc(#loc46)
    %73 = VPURT.DeclareBuffer <CMX_NN> [1] <32832> -> memref<1x64x3x14xf16, [@CMX_NN, 1]> loc(#loc46)
    %74 = VPURT.DeclareBuffer <DDR> <25088> -> memref<1x64x7x14xf16, {order = #NCHW, strides = [12544, 196, 14, 1]}, @DDR> loc(#loc46)
    %75 = VPURT.DeclareBuffer <DDR> <25284> -> memref<1x64x7x14xf16, {order = #NCHW, strides = [12544, 196, 14, 1]}, @DDR> loc(#loc46)
    %76 = VPURT.DeclareBuffer <CMX_NN> [0] <25664> -> memref<1x64x4x14xf16, [@CMX_NN, 0]> loc(#loc74)
    %77 = VPURT.DeclareBuffer <CMX_NN> [1] <25664> -> memref<1x64x4x14xf16, [@CMX_NN, 1]> loc(#loc75)
    %78 = VPURT.DeclareBuffer <CMX_NN> [0] <25664> -> memref<1x64x4x14xf16, [@CMX_NN, 0]> loc(#loc46)
    %79 = VPURT.DeclareBuffer <CMX_NN> [1] <25664> -> memref<1x64x4x14xf16, [@CMX_NN, 1]> loc(#loc46)
    %80 = VPURT.DeclareBuffer <CMX_NN> [0] <14912> -> memref<1x64x3x14xf32, [@CMX_NN, 0]> loc(#loc47)
    %81 = VPURT.DeclareBuffer <CMX_NN> [1] <14912> -> memref<1x64x3x14xf32, [@CMX_NN, 1]> loc(#loc47)
    %82 = VPURT.DeclareBuffer <CMX_NN> [0] <14912> -> memref<1x64x3x14xf32, [@CMX_NN, 0]> loc(#loc76)
    %83 = VPURT.DeclareBuffer <CMX_NN> [1] <14912> -> memref<1x64x3x14xf32, [@CMX_NN, 1]> loc(#loc77)
    %84 = VPURT.DeclareBuffer <CMX_NN> [0] <576> -> memref<1x64x4x14xf32, [@CMX_NN, 0]> loc(#loc47)
    %85 = VPURT.DeclareBuffer <CMX_NN> [1] <576> -> memref<1x64x4x14xf32, [@CMX_NN, 1]> loc(#loc47)
    %86 = VPURT.DeclareBuffer <CMX_NN> [0] <576> -> memref<1x64x4x14xf32, [@CMX_NN, 0]> loc(#loc78)
    %87 = VPURT.DeclareBuffer <CMX_NN> [1] <576> -> memref<1x64x4x14xf32, [@CMX_NN, 1]> loc(#loc79)
    %88 = VPURT.DeclareBuffer <DDR> <124> -> memref<1x3x62x2xf16, {order = #NCHW, strides = [11904, 3968, 64, 1]}, @DDR> loc(#loc80)
    %89 = VPURT.DeclareBuffer <CMX_NN> [0] <23680> -> memref<1x2x62x62xf32, {order = #NCHW, strides = [11532, 3844, 62, 1]}, [@CMX_NN, 0]> loc(#loc41)
    %90 = VPURT.DeclareBuffer <CMX_NN> [0] <576> -> memref<1x2x62x62xf16, {order = #NCHW, strides = [11532, 3844, 62, 1]}, [@CMX_NN, 0]> loc(#loc41)
    %91 = VPURT.DeclareBuffer <CMX_NN> [0] <54432> -> memref<1x1x62x62xf32, {order = #NCHW, strides = [11532, 3844, 62, 1]}, [@CMX_NN, 0]> loc(#loc41)
    %92 = VPURT.DeclareBuffer <CMX_NN> [0] <15952> -> memref<1x1x62x62xf16, {order = #NCHW, strides = [11532, 3844, 62, 1]}, [@CMX_NN, 0]> loc(#loc41)
    %93 = VPURT.DeclareBuffer <DDR> <0> -> memref<1x3x62x62xf16, {order = #NCHW, strides = [11904, 3968, 64, 1]}, @DDR> loc(#loc41)
    %94 = VPURT.DeclareBuffer <CMX_NN> <64192> -> !VPUIP.DistributedBuffer<1x64x3x62xf16, #NHWC, @CMX_NN, {mode = "SEGMENTED", num_tiles = [1, 1, 1, 2], num_clusters = 2 : i64}> loc(#loc81)
    %95 = VPURT.DeclareBuffer <CMX_NN> [0] <64192> -> memref<1x64x3x31xf16, #NHWC, [@CMX_NN, 0]> loc(#loc82)
    %96 = VPURT.DeclareBuffer <CMX_NN> [1] <64192> -> memref<1x64x3x31xf16, #NHWC, [@CMX_NN, 1]> loc(#loc83)
    %97 = VPURT.DeclareBuffer <CMX_NN> [0] <64192> -> memref<1x64x3x31xf16, #NHWC, [@CMX_NN, 0]> loc(#loc84)
    %98 = VPURT.DeclareBuffer <CMX_NN> [1] <64192> -> memref<1x64x3x31xf16, #NHWC, [@CMX_NN, 1]> loc(#loc85)
    %99 = VPURT.DeclareBuffer <CMX_NN> [0] <576> -> memref<2xui64, [@CMX_NN, 0]> loc(#loc86)
    %100 = VPURT.DeclareBuffer <CMX_NN> [1] <576> -> memref<2xui64, [@CMX_NN, 1]> loc(#loc87)
    %101 = VPURT.DeclareBuffer <CMX_NN> [0] <704> -> memref<1x16x31x62xf16, {order = #NHWC, strides = [63488, 1, 1024, 16]}, [@CMX_NN, 0]> loc(#loc41)
    %102 = VPURT.DeclareBuffer <CMX_NN> [1] <704> -> memref<1x16x31x62xf16, {order = #NHWC, strides = [63488, 1, 1024, 16]}, [@CMX_NN, 1]> loc(#loc41)
    %103 = VPURT.DeclareBuffer <CMX_NN> [0] <76096> -> memref<48x1x1x4xsi32, [@CMX_NN, 0]> loc(#loc88)
    %104 = VPURT.DeclareBuffer <CMX_NN> [1] <76096> -> memref<48x1x1x4xsi32, [@CMX_NN, 1]> loc(#loc89)
    %105 = VPURT.DeclareBuffer <CMX_NN> [0] <76864> -> memref<48x16x3x3xf16, {compressionScheme = #VPUIP.CompressionSchemeAttr<axis = 0 : i64, numElems = dense<27> : tensor<48xi64>, alignment = 16 : i64>, order = #NHWC}, [@CMX_NN, 0]> loc(#loc90)
    %106 = VPURT.DeclareBuffer <CMX_NN> [1] <76864> -> memref<48x16x3x3xf16, {compressionScheme = #VPUIP.CompressionSchemeAttr<axis = 0 : i64, numElems = dense<27> : tensor<48xi64>, alignment = 16 : i64>, order = #NHWC}, [@CMX_NN, 1]> loc(#loc91)
    %107 = VPURT.DeclareBuffer <CMX_NN> [0] <79936> -> memref<48x1x1x256xi1, [@CMX_NN, 0]> loc(#loc92)
    %108 = VPURT.DeclareBuffer <CMX_NN> [1] <79936> -> memref<48x1x1x256xi1, [@CMX_NN, 1]> loc(#loc93)
    %109 = VPURT.DeclareBuffer <CMX_NN> [0] <592> -> memref<2xui64, [@CMX_NN, 0]> loc(#loc94)
    %110 = VPURT.DeclareBuffer <CMX_NN> [1] <592> -> memref<2xui64, [@CMX_NN, 1]> loc(#loc95)
    %111 = VPURT.DeclareBuffer <CMX_NN> [0] <608> -> memref<4xui64, [@CMX_NN, 0]> loc(#loc96)
    %112 = VPURT.DeclareBuffer <CMX_NN> [1] <608> -> memref<4xui64, [@CMX_NN, 1]> loc(#loc97)
    %113 = VPURT.DeclareBuffer <CMX_NN> [0] <254976> -> memref<64x1x1x4xsi32, [@CMX_NN, 0]> loc(#loc98)
    %114 = VPURT.DeclareBuffer <CMX_NN> [1] <254976> -> memref<64x1x1x4xsi32, [@CMX_NN, 1]> loc(#loc99)
    %115 = VPURT.DeclareBuffer <CMX_NN> [0] <256000> -> memref<64x48x3x3xf16, #NHWC, [@CMX_NN, 0]> loc(#loc100)
    %116 = VPURT.DeclareBuffer <CMX_NN> [1] <256000> -> memref<64x48x3x3xf16, #NHWC, [@CMX_NN, 1]> loc(#loc101)
    %117 = VPURT.DeclareBuffer <CMX_NN> [0] <640> -> memref<2xui64, [@CMX_NN, 0]> loc(#loc102)
    %118 = VPURT.DeclareBuffer <CMX_NN> [1] <640> -> memref<2xui64, [@CMX_NN, 1]> loc(#loc103)
    %119 = VPURT.DeclareBuffer <CMX_NN> [0] <656> -> memref<2xui64, [@CMX_NN, 0]> loc(#loc104)
    %120 = VPURT.DeclareBuffer <CMX_NN> [1] <656> -> memref<2xui64, [@CMX_NN, 1]> loc(#loc105)
    %121 = VPURT.DeclareBuffer <DDR> <224> -> memref<1x64x3x14xf16, {order = #NCHW, strides = [12544, 196, 14, 1]}, @DDR> loc(#loc46)
    %122 = VPURT.DeclareBuffer <DDR> <308> -> memref<1x64x3x14xf16, {order = #NCHW, strides = [12544, 196, 14, 1]}, @DDR> loc(#loc46)
    %123 = VPURT.DeclareBuffer <DDR> <25088> -> memref<1x64x4x14xf16, {order = #NCHW, strides = [12544, 196, 14, 1]}, @DDR> loc(#loc46)
    %124 = VPURT.DeclareBuffer <DDR> <25200> -> memref<1x64x4x14xf16, {order = #NCHW, strides = [12544, 196, 14, 1]}, @DDR> loc(#loc46)
    %125 = VPURT.DeclareBuffer <NetworkOutput> [0] <0> -> memref<1x64x4x14xf32, {order = #NCHW, strides = [12544, 196, 14, 1]}, @DDR> loc(#loc47)
    %126 = VPURT.DeclareBuffer <NetworkOutput> [0] <224> -> memref<1x64x4x14xf32, {order = #NCHW, strides = [12544, 196, 14, 1]}, @DDR> loc(#loc47)
    %127 = VPURT.DeclareBuffer <NetworkOutput> [0] <448> -> memref<1x64x3x14xf32, {order = #NCHW, strides = [12544, 196, 14, 1]}, @DDR> loc(#loc47)
    %128 = VPURT.DeclareBuffer <NetworkOutput> [0] <616> -> memref<1x64x3x14xf32, {order = #NCHW, strides = [12544, 196, 14, 1]}, @DDR> loc(#loc47)
    %129 = VPURT.DeclareBuffer <CMX_NN> [0] <512> -> memref<4xui32, [@CMX_NN, 0]> loc(#loc106)
    %130 = VPURT.DeclareBuffer <CMX_NN> [0] <528> -> memref<4xui32, [@CMX_NN, 0]> loc(#loc106)
    %131 = VPURT.DeclareBuffer <CMX_NN> [0] <544> -> memref<4xui32, [@CMX_NN, 0]> loc(#loc107)
    %132 = VPURT.DeclareBuffer <CMX_NN> [1] <544> -> memref<4xui32, [@CMX_NN, 1]> loc(#loc108)
    %133 = VPURT.DeclareBuffer <CMX_NN> [0] <560> -> memref<4xui32, [@CMX_NN, 0]> loc(#loc109)
    %134 = VPURT.DeclareBuffer <CMX_NN> [1] <560> -> memref<4xui32, [@CMX_NN, 1]> loc(#loc110)
    %135 = VPURT.DeclareBuffer <Register> <637702144> -> memref<1xui64, @Register> loc(#loc41)
    %136 = VPURT.DeclareBuffer <CMX_NN> [0] <0> -> memref<1xui64, [@CMX_NN, 0]> loc(#loc41)
    %137 = VPURT.DeclareBuffer <Register> <637702144> -> memref<1xui64, @Register> loc(#loc41)
    %138 = VPURT.DeclareBuffer <CMX_NN> [0] <8> -> memref<1xui64, [@CMX_NN, 0]> loc(#loc41)
    %139 = VPURT.DeclareBuffer <Register> <637702144> -> memref<1xui64, @Register> loc(#loc42)
    %140 = VPURT.DeclareBuffer <CMX_NN> [0] <256> -> memref<1xui64, [@CMX_NN, 0]> loc(#loc42)
    %141 = VPURT.DeclareBuffer <Register> <637702144> -> memref<1xui64, @Register> loc(#loc42)
    %142 = VPURT.DeclareBuffer <CMX_NN> [0] <264> -> memref<1xui64, [@CMX_NN, 0]> loc(#loc42)
    %143 = VPURT.DeclareBuffer <Register> <637702144> -> memref<1xui64, @Register> loc(#loc41)
    %144 = VPURT.DeclareBuffer <CMX_NN> [0] <16> -> memref<1xui64, [@CMX_NN, 0]> loc(#loc41)
    %145 = VPURT.DeclareBuffer <Register> <637702144> -> memref<1xui64, @Register> loc(#loc41)
    %146 = VPURT.DeclareBuffer <CMX_NN> [0] <24> -> memref<1xui64, [@CMX_NN, 0]> loc(#loc41)
    %147 = VPURT.DeclareBuffer <Register> <637702144> -> memref<1xui64, @Register> loc(#loc111)
    %148 = VPURT.DeclareBuffer <CMX_NN> [0] <32> -> memref<1xui64, [@CMX_NN, 0]> loc(#loc111)
    %149 = VPURT.DeclareBuffer <Register> <637702144> -> memref<1xui64, @Register> loc(#loc111)
    %150 = VPURT.DeclareBuffer <CMX_NN> [0] <40> -> memref<1xui64, [@CMX_NN, 0]> loc(#loc111)
    %151 = VPURT.DeclareBuffer <Register> <637702144> -> memref<1xui64, @Register> loc(#loc112)
    %152 = VPURT.DeclareBuffer <CMX_NN> [0] <272> -> memref<1xui64, [@CMX_NN, 0]> loc(#loc112)
    %153 = VPURT.DeclareBuffer <Register> <637702144> -> memref<1xui64, @Register> loc(#loc112)
    %154 = VPURT.DeclareBuffer <CMX_NN> [0] <280> -> memref<1xui64, [@CMX_NN, 0]> loc(#loc112)
    %155 = VPURT.DeclareBuffer <Register> <637702144> -> memref<1xui64, @Register> loc(#loc43)
    %156 = VPURT.DeclareBuffer <CMX_NN> [0] <48> -> memref<1xui64, [@CMX_NN, 0]> loc(#loc43)
    %157 = VPURT.DeclareBuffer <Register> <637702144> -> memref<1xui64, @Register> loc(#loc43)
    %158 = VPURT.DeclareBuffer <CMX_NN> [0] <56> -> memref<1xui64, [@CMX_NN, 0]> loc(#loc43)
    %159 = VPURT.DeclareBuffer <Register> <637702144> -> memref<1xui64, @Register> loc(#loc111)
    %160 = VPURT.DeclareBuffer <CMX_NN> [0] <64> -> memref<1xui64, [@CMX_NN, 0]> loc(#loc111)
    %161 = VPURT.DeclareBuffer <Register> <637702144> -> memref<1xui64, @Register> loc(#loc111)
    %162 = VPURT.DeclareBuffer <CMX_NN> [0] <72> -> memref<1xui64, [@CMX_NN, 0]> loc(#loc111)
    %163 = VPURT.DeclareBuffer <Register> <637702144> -> memref<1xui64, @Register> loc(#loc112)
    %164 = VPURT.DeclareBuffer <CMX_NN> [0] <288> -> memref<1xui64, [@CMX_NN, 0]> loc(#loc112)
    %165 = VPURT.DeclareBuffer <Register> <637702144> -> memref<1xui64, @Register> loc(#loc112)
    %166 = VPURT.DeclareBuffer <CMX_NN> [0] <296> -> memref<1xui64, [@CMX_NN, 0]> loc(#loc112)
    %167 = VPURT.DeclareBuffer <Register> <637702144> -> memref<1xui64, @Register> loc(#loc111)
    %168 = VPURT.DeclareBuffer <CMX_NN> [0] <80> -> memref<1xui64, [@CMX_NN, 0]> loc(#loc111)
    %169 = VPURT.DeclareBuffer <Register> <637702144> -> memref<1xui64, @Register> loc(#loc111)
    %170 = VPURT.DeclareBuffer <CMX_NN> [0] <88> -> memref<1xui64, [@CMX_NN, 0]> loc(#loc111)
    %171 = VPURT.DeclareBuffer <Register> <637702144> -> memref<1xui64, @Register> loc(#loc112)
    %172 = VPURT.DeclareBuffer <CMX_NN> [0] <304> -> memref<1xui64, [@CMX_NN, 0]> loc(#loc112)
    %173 = VPURT.DeclareBuffer <Register> <637702144> -> memref<1xui64, @Register> loc(#loc112)
    %174 = VPURT.DeclareBuffer <CMX_NN> [0] <312> -> memref<1xui64, [@CMX_NN, 0]> loc(#loc112)
    %175 = VPURT.DeclareBuffer <Register> <637702144> -> memref<1xui64, @Register> loc(#loc44)
    %176 = VPURT.DeclareBuffer <CMX_NN> [0] <96> -> memref<1xui64, [@CMX_NN, 0]> loc(#loc44)
    %177 = VPURT.DeclareBuffer <Register> <637702144> -> memref<1xui64, @Register> loc(#loc44)
    %178 = VPURT.DeclareBuffer <CMX_NN> [0] <104> -> memref<1xui64, [@CMX_NN, 0]> loc(#loc44)
    %179 = VPURT.DeclareBuffer <Register> <637702144> -> memref<1xui64, @Register> loc(#loc113)
    %180 = VPURT.DeclareBuffer <CMX_NN> [0] <112> -> memref<1xui64, [@CMX_NN, 0]> loc(#loc113)
    %181 = VPURT.DeclareBuffer <Register> <637702144> -> memref<1xui64, @Register> loc(#loc113)
    %182 = VPURT.DeclareBuffer <CMX_NN> [0] <120> -> memref<1xui64, [@CMX_NN, 0]> loc(#loc113)
    %183 = VPURT.DeclareBuffer <Register> <637702144> -> memref<1xui64, @Register> loc(#loc114)
    %184 = VPURT.DeclareBuffer <CMX_NN> [0] <320> -> memref<1xui64, [@CMX_NN, 0]> loc(#loc114)
    %185 = VPURT.DeclareBuffer <Register> <637702144> -> memref<1xui64, @Register> loc(#loc114)
    %186 = VPURT.DeclareBuffer <CMX_NN> [0] <328> -> memref<1xui64, [@CMX_NN, 0]> loc(#loc114)
    %187 = VPURT.DeclareBuffer <Register> <637702144> -> memref<1xui64, @Register> loc(#loc113)
    %188 = VPURT.DeclareBuffer <CMX_NN> [0] <128> -> memref<1xui64, [@CMX_NN, 0]> loc(#loc113)
    %189 = VPURT.DeclareBuffer <Register> <637702144> -> memref<1xui64, @Register> loc(#loc113)
    %190 = VPURT.DeclareBuffer <CMX_NN> [0] <136> -> memref<1xui64, [@CMX_NN, 0]> loc(#loc113)
    %191 = VPURT.DeclareBuffer <Register> <637702144> -> memref<1xui64, @Register> loc(#loc114)
    %192 = VPURT.DeclareBuffer <CMX_NN> [0] <336> -> memref<1xui64, [@CMX_NN, 0]> loc(#loc114)
    %193 = VPURT.DeclareBuffer <Register> <637702144> -> memref<1xui64, @Register> loc(#loc114)
    %194 = VPURT.DeclareBuffer <CMX_NN> [0] <344> -> memref<1xui64, [@CMX_NN, 0]> loc(#loc114)
    %195 = VPURT.DeclareBuffer <Register> <637702144> -> memref<1xui64, @Register> loc(#loc113)
    %196 = VPURT.DeclareBuffer <CMX_NN> [0] <144> -> memref<1xui64, [@CMX_NN, 0]> loc(#loc113)
    %197 = VPURT.DeclareBuffer <Register> <637702144> -> memref<1xui64, @Register> loc(#loc113)
    %198 = VPURT.DeclareBuffer <CMX_NN> [0] <152> -> memref<1xui64, [@CMX_NN, 0]> loc(#loc113)
    %199 = VPURT.DeclareBuffer <Register> <637702144> -> memref<1xui64, @Register> loc(#loc114)
    %200 = VPURT.DeclareBuffer <CMX_NN> [0] <352> -> memref<1xui64, [@CMX_NN, 0]> loc(#loc114)
    %201 = VPURT.DeclareBuffer <Register> <637702144> -> memref<1xui64, @Register> loc(#loc114)
    %202 = VPURT.DeclareBuffer <CMX_NN> [0] <360> -> memref<1xui64, [@CMX_NN, 0]> loc(#loc114)
    %203 = VPURT.DeclareBuffer <Register> <637702144> -> memref<1xui64, @Register> loc(#loc113)
    %204 = VPURT.DeclareBuffer <CMX_NN> [0] <160> -> memref<1xui64, [@CMX_NN, 0]> loc(#loc113)
    %205 = VPURT.DeclareBuffer <Register> <637702144> -> memref<1xui64, @Register> loc(#loc113)
    %206 = VPURT.DeclareBuffer <CMX_NN> [0] <168> -> memref<1xui64, [@CMX_NN, 0]> loc(#loc113)
    %207 = VPURT.DeclareBuffer <Register> <637702144> -> memref<1xui64, @Register> loc(#loc114)
    %208 = VPURT.DeclareBuffer <CMX_NN> [0] <368> -> memref<1xui64, [@CMX_NN, 0]> loc(#loc114)
    %209 = VPURT.DeclareBuffer <Register> <637702144> -> memref<1xui64, @Register> loc(#loc114)
    %210 = VPURT.DeclareBuffer <CMX_NN> [0] <376> -> memref<1xui64, [@CMX_NN, 0]> loc(#loc114)
    %211 = VPURT.DeclareBuffer <Register> <637702144> -> memref<1xui64, @Register> loc(#loc115)
    %212 = VPURT.DeclareBuffer <CMX_NN> [0] <176> -> memref<1xui64, [@CMX_NN, 0]> loc(#loc115)
    %213 = VPURT.DeclareBuffer <Register> <637702144> -> memref<1xui64, @Register> loc(#loc115)
    %214 = VPURT.DeclareBuffer <CMX_NN> [0] <184> -> memref<1xui64, [@CMX_NN, 0]> loc(#loc115)
    %215 = VPURT.DeclareBuffer <Register> <637702144> -> memref<1xui64, @Register> loc(#loc116)
    %216 = VPURT.DeclareBuffer <CMX_NN> [0] <384> -> memref<1xui64, [@CMX_NN, 0]> loc(#loc116)
    %217 = VPURT.DeclareBuffer <Register> <637702144> -> memref<1xui64, @Register> loc(#loc116)
    %218 = VPURT.DeclareBuffer <CMX_NN> [0] <392> -> memref<1xui64, [@CMX_NN, 0]> loc(#loc116)
    %219 = VPURT.DeclareBuffer <Register> <637702144> -> memref<1xui64, @Register> loc(#loc115)
    %220 = VPURT.DeclareBuffer <CMX_NN> [0] <192> -> memref<1xui64, [@CMX_NN, 0]> loc(#loc115)
    %221 = VPURT.DeclareBuffer <Register> <637702144> -> memref<1xui64, @Register> loc(#loc115)
    %222 = VPURT.DeclareBuffer <CMX_NN> [0] <200> -> memref<1xui64, [@CMX_NN, 0]> loc(#loc115)
    %223 = VPURT.DeclareBuffer <CMX_NN> [0] <0> -> memref<26xui64, [@CMX_NN, 0]> loc(#loc36)
    %224 = VPURT.DeclareBuffer <ProfilingOutput> [0] <320> -> memref<26xui64> loc(#loc36)
    %225 = VPURT.DeclareBuffer <Register> <637702144> -> memref<1xui64, @Register> loc(#loc116)
    %226 = VPURT.DeclareBuffer <CMX_NN> [0] <400> -> memref<1xui64, [@CMX_NN, 0]> loc(#loc116)
    %227 = VPURT.DeclareBuffer <Register> <637702144> -> memref<1xui64, @Register> loc(#loc116)
    %228 = VPURT.DeclareBuffer <CMX_NN> [0] <408> -> memref<1xui64, [@CMX_NN, 0]> loc(#loc116)
    %229 = VPURT.DeclareBuffer <CMX_NN> [0] <256> -> memref<20xui64, [@CMX_NN, 0]> loc(#loc37)
    %230 = VPURT.DeclareBuffer <ProfilingOutput> [0] <528> -> memref<20xui64> loc(#loc37)
    %231 = VPURT.DeclareBuffer <Register> <537403424> -> memref<1xui32, @Register> loc(#loc2)
    %232 = VPURT.DeclareBuffer <ProfilingOutput> [0] <708> -> memref<1xui32> loc(#loc2)
    %233 = VPURT.DeclareBuffer <ProfilingOutput> [0] <0> -> memref<24xui64> loc(#loc38)
    %234 = VPURT.DeclareBuffer <ProfilingOutput> [0] <192> -> memref<32xui32> loc(#loc38)
    %235 = VPURT.DeclareBuffer <ProfilingOutput> [0] <320> -> memref<46xui64> loc(#loc38)
    %236 = VPURT.DeclareBuffer <ProfilingOutput> [0] <704> -> memref<16xui32> loc(#loc38)
    VPURT.Task {
      %237 = VPUIP.NNDMA {is_out_of_order, port = 0 : i64} inputs(%0 : memref<1xui32, @Register>) outputs(%1 : memref<1xui32>) -> memref<1xui32> loc(#loc2)
    } loc(#loc2)
    VPURT.Task {
      %237 = VPUIP.NNDMA {is_out_of_order, port = 0 : i64, profilingMetadata = #VPUIP.DmaProfilingMetadataAttr<profBeginFlag unit>} inputs(%135 : memref<1xui64, @Register>) outputs(%136 : memref<1xui64, [@CMX_NN, 0]>) -> memref<1xui64, [@CMX_NN, 0]> loc(#loc41)
    } loc(#loc41)
    VPURT.Task {
      %237 = VPUIP.NNDMA {is_out_of_order, port = 0 : i64} inputs(%17 : memref<1x3x62x62xf32, @DDR>) outputs(%26 : memref<1x3x62x62xf32, [@CMX_NN, 0]>) -> memref<1x3x62x62xf32, [@CMX_NN, 0]> loc(#loc41)
    } loc(#loc41)
    VPURT.Task updates(%2 : !VPURT.Barrier) {
      %237 = VPUIP.NNDMA {port = 0 : i64, profilingMetadata = #VPUIP.DmaProfilingMetadataAttr<dataIndex = 0 : i64>} inputs(%137 : memref<1xui64, @Register>) outputs(%138 : memref<1xui64, [@CMX_NN, 0]>) -> memref<1xui64, [@CMX_NN, 0]> loc(#loc41)
    } loc(#loc41)
    VPURT.Task {
      %237 = VPUIP.NNDMA {is_out_of_order, port = 1 : i64, profilingMetadata = #VPUIP.DmaProfilingMetadataAttr<profBeginFlag unit>} inputs(%139 : memref<1xui64, @Register>) outputs(%140 : memref<1xui64, [@CMX_NN, 0]>) -> memref<1xui64, [@CMX_NN, 0]> loc(#loc42)
    } loc(#loc42)
    VPURT.Task {
      %237 = VPUIP.NNDMA {is_out_of_order, port = 1 : i64} inputs(%cst_1 : memref<1x3x62x2xf16>) outputs(%88 : memref<1x3x62x2xf16, {order = #NCHW, strides = [11904, 3968, 64, 1]}, @DDR>) -> memref<1x3x62x2xf16, {order = #NCHW, strides = [11904, 3968, 64, 1]}, @DDR> loc(#loc42)
    } loc(#loc42)
    VPURT.Task updates(%3 : !VPURT.Barrier) {
      %237 = VPUIP.NNDMA {port = 1 : i64, profilingMetadata = #VPUIP.DmaProfilingMetadataAttr<dataIndex = 13 : i64>} inputs(%141 : memref<1xui64, @Register>) outputs(%142 : memref<1xui64, [@CMX_NN, 0]>) -> memref<1xui64, [@CMX_NN, 0]> loc(#loc42)
    } loc(#loc42)
    VPURT.Task waits(%2 : !VPURT.Barrier) updates(%3 : !VPURT.Barrier) {
      %results, %profiling_output = VPUIP.SW.Kernel {profilingMetadata = #VPUIP.SwProfilingMetadataAttr<bufferId = 0 : i64, bufferOffset = 0 : i64, clusterSize = 4 : i64, dataIndex = 0 : i64, tileId = 0 : i64, clusterId = 0 : i64>, resultSegmentSizes = array<i32: 1, 1>} @VPU.SW::@builtin_Convert inputs(%89 as %arg3: memref<1x2x62x62xf32, {order = #NCHW, strides = [11532, 3844, 62, 1]}, [@CMX_NN, 0]>) outputs(%90 as %arg4: memref<1x2x62x62xf16, {order = #NCHW, strides = [11532, 3844, 62, 1]}, [@CMX_NN, 0]>) profiling_data(%129 : memref<4xui32, [@CMX_NN, 0]>) on tile 0 -> (memref<1x2x62x62xf16, {order = #NCHW, strides = [11532, 3844, 62, 1]}, [@CMX_NN, 0]>, memref<4xui32, [@CMX_NN, 0]>){
        VPUIP.SW.Kernel.run {attrs = []}(%arg3, %arg4) : memref<1x2x62x62xf32, {order = #NCHW, strides = [11532, 3844, 62, 1]}, [@CMX_NN, 0]>, memref<1x2x62x62xf16, {order = #NCHW, strides = [11532, 3844, 62, 1]}, [@CMX_NN, 0]> loc(#loc)
      } loc(#loc118)
    } loc(#loc117)
    VPURT.Task waits(%2 : !VPURT.Barrier) updates(%3 : !VPURT.Barrier) {
      %results, %profiling_output = VPUIP.SW.Kernel {profilingMetadata = #VPUIP.SwProfilingMetadataAttr<bufferId = 0 : i64, bufferOffset = 0 : i64, clusterSize = 4 : i64, dataIndex = 1 : i64, tileId = 1 : i64, clusterId = 0 : i64>, resultSegmentSizes = array<i32: 1, 1>} @VPU.SW::@builtin_Convert inputs(%91 as %arg3: memref<1x1x62x62xf32, {order = #NCHW, strides = [11532, 3844, 62, 1]}, [@CMX_NN, 0]>) outputs(%92 as %arg4: memref<1x1x62x62xf16, {order = #NCHW, strides = [11532, 3844, 62, 1]}, [@CMX_NN, 0]>) profiling_data(%130 : memref<4xui32, [@CMX_NN, 0]>) on tile 0 -> (memref<1x1x62x62xf16, {order = #NCHW, strides = [11532, 3844, 62, 1]}, [@CMX_NN, 0]>, memref<4xui32, [@CMX_NN, 0]>){
        VPUIP.SW.Kernel.run {attrs = []}(%arg3, %arg4) : memref<1x1x62x62xf32, {order = #NCHW, strides = [11532, 3844, 62, 1]}, [@CMX_NN, 0]>, memref<1x1x62x62xf16, {order = #NCHW, strides = [11532, 3844, 62, 1]}, [@CMX_NN, 0]> loc(#loc)
      } loc(#loc120)
    } loc(#loc119)
    VPURT.Task waits(%3 : !VPURT.Barrier) {
      %237 = VPUIP.NNDMA {is_out_of_order, port = 0 : i64, profilingMetadata = #VPUIP.DmaProfilingMetadataAttr<profBeginFlag unit>} inputs(%143 : memref<1xui64, @Register>) outputs(%144 : memref<1xui64, [@CMX_NN, 0]>) -> memref<1xui64, [@CMX_NN, 0]> loc(#loc41)
    } loc(#loc41)
    VPURT.Task {
      %237 = VPUIP.NNDMA {is_out_of_order, port = 0 : i64} inputs(%27 : memref<1x3x62x62xf16, [@CMX_NN, 0]>) outputs(%93 : memref<1x3x62x62xf16, {order = #NCHW, strides = [11904, 3968, 64, 1]}, @DDR>) -> memref<1x3x62x62xf16, {order = #NCHW, strides = [11904, 3968, 64, 1]}, @DDR> loc(#loc41)
    } loc(#loc41)
    VPURT.Task updates(%4 : !VPURT.Barrier) {
      %237 = VPUIP.NNDMA {port = 0 : i64, profilingMetadata = #VPUIP.DmaProfilingMetadataAttr<dataIndex = 1 : i64>} inputs(%145 : memref<1xui64, @Register>) outputs(%146 : memref<1xui64, [@CMX_NN, 0]>) -> memref<1xui64, [@CMX_NN, 0]> loc(#loc41)
    } loc(#loc41)
    VPURT.Task waits(%4 : !VPURT.Barrier) {
      %237 = VPUIP.NNDMA {is_out_of_order, port = 0 : i64, profilingMetadata = #VPUIP.DmaProfilingMetadataAttr<profBeginFlag unit>} inputs(%147 : memref<1xui64, @Register>) outputs(%148 : memref<1xui64, [@CMX_NN, 0]>) -> memref<1xui64, [@CMX_NN, 0]> loc(#loc111)
    } loc(#loc111)
    VPURT.Task {
      %237 = VPUIP.NNDMA {is_out_of_order, port = 0 : i64} inputs(%28 : memref<1x3x31x64xf16, {order = #NCHW, strides = [11904, 3968, 64, 1]}, @DDR>) outputs(%30 : memref<1x3x31x64xf16, [@CMX_NN, 0]>) -> memref<1x3x31x64xf16, [@CMX_NN, 0]> loc(#loc111)
    } loc(#loc111)
    VPURT.Task updates(%5 : !VPURT.Barrier) {
      %237 = VPUIP.NNDMA {port = 0 : i64, profilingMetadata = #VPUIP.DmaProfilingMetadataAttr<dataIndex = 2 : i64>} inputs(%149 : memref<1xui64, @Register>) outputs(%150 : memref<1xui64, [@CMX_NN, 0]>) -> memref<1xui64, [@CMX_NN, 0]> loc(#loc111)
    } loc(#loc111)
    VPURT.Task waits(%4 : !VPURT.Barrier) {
      %237 = VPUIP.NNDMA {is_out_of_order, port = 1 : i64, profilingMetadata = #VPUIP.DmaProfilingMetadataAttr<profBeginFlag unit>} inputs(%151 : memref<1xui64, @Register>) outputs(%152 : memref<1xui64, [@CMX_NN, 0]>) -> memref<1xui64, [@CMX_NN, 0]> loc(#loc112)
    } loc(#loc112)
    VPURT.Task {
      %237 = VPUIP.NNDMA {is_out_of_order, port = 1 : i64} inputs(%29 : memref<1x3x31x64xf16, {order = #NCHW, strides = [11904, 3968, 64, 1]}, @DDR>) outputs(%31 : memref<1x3x31x64xf16, [@CMX_NN, 1]>) -> memref<1x3x31x64xf16, [@CMX_NN, 1]> loc(#loc112)
    } loc(#loc112)
    VPURT.Task updates(%5 : !VPURT.Barrier) {
      %237 = VPUIP.NNDMA {port = 1 : i64, profilingMetadata = #VPUIP.DmaProfilingMetadataAttr<dataIndex = 14 : i64>} inputs(%153 : memref<1xui64, @Register>) outputs(%154 : memref<1xui64, [@CMX_NN, 0]>) -> memref<1xui64, [@CMX_NN, 0]> loc(#loc112)
    } loc(#loc112)
    VPURT.Task waits(%4 : !VPURT.Barrier) {
      %237 = VPUIP.NNDMA {is_out_of_order, port = 0 : i64, profilingMetadata = #VPUIP.DmaProfilingMetadataAttr<profBeginFlag unit>} inputs(%155 : memref<1xui64, @Register>) outputs(%156 : memref<1xui64, [@CMX_NN, 0]>) -> memref<1xui64, [@CMX_NN, 0]> loc(#loc43)
    } loc(#loc43)
    VPURT.Task {
      %237 = VPUIP.NNDMA {is_out_of_order, port = 0 : i64} inputs(%cst_0 : memref<1x1x1x2688xf16>) outputs(%49 : !VPUIP.DistributedBuffer<1x1x1x2688xf16, {order = #NCHW, strides = [2688, 2688, 2688, 1]}, @CMX_NN, {mode = "DUPLICATED", num_clusters = 2 : i64}>) -> !VPUIP.DistributedBuffer<1x1x1x2688xf16, {order = #NCHW, strides = [2688, 2688, 2688, 1]}, @CMX_NN, {mode = "DUPLICATED", num_clusters = 2 : i64}> loc(#loc43)
    } loc(#loc43)
    VPURT.Task updates(%7 : !VPURT.Barrier) {
      %237 = VPUIP.NNDMA {port = 0 : i64, profilingMetadata = #VPUIP.DmaProfilingMetadataAttr<dataIndex = 3 : i64>} inputs(%157 : memref<1xui64, @Register>) outputs(%158 : memref<1xui64, [@CMX_NN, 0]>) -> memref<1xui64, [@CMX_NN, 0]> loc(#loc43)
    } loc(#loc43)
    VPURT.Task waits(%5 : !VPURT.Barrier) updates(%6 : !VPURT.Barrier) {
      %237:2 = VPUIP.NCEClusterTask {activation_window_channel_length = 0 : i64, is_permute_quantize, profilingMetadata = #VPUIP.DpuProfilingMetadataAttr<bufferId = 0 : i64, taskId = 1 : i64, maxVariants = 1 : i64, numVariants = 1 : i64, clusterId = 0 : i64>, task_type = #VPUIP.nce_task_type<ELTWISE>} input(%97 : memref<1x64x3x31xf16, #NHWC, [@CMX_NN, 0]>) weights(%95 : memref<1x64x3x31xf16, #NHWC, [@CMX_NN, 0]>) parent_input(%94 : !VPUIP.DistributedBuffer<1x64x3x62xf16, #NHWC, @CMX_NN, {mode = "SEGMENTED", num_tiles = [1, 1, 1, 2], num_clusters = 2 : i64}>) parent_output(%32 : !VPUIP.DistributedBuffer<1x64x16x62xf16, #NWCH, @CMX_NN, {mode = "SEGMENTED", num_tiles = [1, 1, 1, 2], num_clusters = 2 : i64}>) outputs(%33 : memref<1x64x16x31xf16, #NWCH, [@CMX_NN, 0]>) profiling_data(%99 : memref<2xui64, [@CMX_NN, 0]>) -> memref<1x64x16x31xf16, #NWCH, [@CMX_NN, 0]>, memref<2xui64, [@CMX_NN, 0]> variants : {
        DPUTask {cluster_id = 0 : i64, mpe_mode = #VPU.mpe_mode<CUBOID_16x16>, outEnd = [30, 2, 63], outStart = [0, 0, 0], pad = #VPU.Padding<left = 0 : i64, right = 0 : i64, top = 0 : i64, bottom = 0 : i64>, workload_id = 0 : i64} loc(#loc41)
      } PPE : {
        PPETask <ADD> {clamp_high = 2147483647 : i64, clamp_low = -2147483648 : i64, lrelu_mult = 1 : i64, lrelu_shift = 0 : i64, quant_scale = [5.000000e-01]} loc(#loc41)
      } loc(#loc121)
    } loc(#loc121)
    VPURT.Task waits(%5 : !VPURT.Barrier) updates(%6 : !VPURT.Barrier) {
      %237:2 = VPUIP.NCEClusterTask {activation_window_channel_length = 0 : i64, is_permute_quantize, profilingMetadata = #VPUIP.DpuProfilingMetadataAttr<bufferId = 0 : i64, taskId = 1 : i64, maxVariants = 1 : i64, numVariants = 1 : i64, clusterId = 1 : i64>, task_type = #VPUIP.nce_task_type<ELTWISE>} input(%98 : memref<1x64x3x31xf16, #NHWC, [@CMX_NN, 1]>) weights(%96 : memref<1x64x3x31xf16, #NHWC, [@CMX_NN, 1]>) parent_input(%94 : !VPUIP.DistributedBuffer<1x64x3x62xf16, #NHWC, @CMX_NN, {mode = "SEGMENTED", num_tiles = [1, 1, 1, 2], num_clusters = 2 : i64}>) parent_output(%32 : !VPUIP.DistributedBuffer<1x64x16x62xf16, #NWCH, @CMX_NN, {mode = "SEGMENTED", num_tiles = [1, 1, 1, 2], num_clusters = 2 : i64}>) outputs(%34 : memref<1x64x16x31xf16, #NWCH, [@CMX_NN, 1]>) profiling_data(%100 : memref<2xui64, [@CMX_NN, 1]>) -> memref<1x64x16x31xf16, #NWCH, [@CMX_NN, 1]>, memref<2xui64, [@CMX_NN, 1]> variants : {
        DPUTask {cluster_id = 1 : i64, mpe_mode = #VPU.mpe_mode<CUBOID_16x16>, outEnd = [30, 2, 63], outStart = [0, 0, 0], pad = #VPU.Padding<left = 0 : i64, right = 0 : i64, top = 0 : i64, bottom = 0 : i64>, workload_id = 0 : i64} loc(#loc41)
      } PPE : {
        PPETask <ADD> {clamp_high = 2147483647 : i64, clamp_low = -2147483648 : i64, lrelu_mult = 1 : i64, lrelu_shift = 0 : i64, quant_scale = [5.000000e-01]} loc(#loc41)
      } loc(#loc122)
    } loc(#loc122)
    VPURT.Task waits(%6 : !VPURT.Barrier) {
      %237 = VPUIP.NNDMA {is_out_of_order, port = 0 : i64, profilingMetadata = #VPUIP.DmaProfilingMetadataAttr<profBeginFlag unit>} inputs(%159 : memref<1xui64, @Register>) outputs(%160 : memref<1xui64, [@CMX_NN, 0]>) -> memref<1xui64, [@CMX_NN, 0]> loc(#loc111)
    } loc(#loc111)
    VPURT.Task {
      %237 = VPUIP.NNDMA {is_out_of_order, port = 0 : i64} inputs(%101 : memref<1x16x31x62xf16, {order = #NHWC, strides = [63488, 1, 1024, 16]}, [@CMX_NN, 0]>) outputs(%37 : memref<1x16x31x62xf16, #NHWC, @DDR>) -> memref<1x16x31x62xf16, #NHWC, @DDR> loc(#loc111)
    } loc(#loc111)
    VPURT.Task updates(%7 : !VPURT.Barrier) {
      %237 = VPUIP.NNDMA {port = 0 : i64, profilingMetadata = #VPUIP.DmaProfilingMetadataAttr<dataIndex = 4 : i64>} inputs(%161 : memref<1xui64, @Register>) outputs(%162 : memref<1xui64, [@CMX_NN, 0]>) -> memref<1xui64, [@CMX_NN, 0]> loc(#loc111)
    } loc(#loc111)
    VPURT.Task waits(%6 : !VPURT.Barrier) {
      %237 = VPUIP.NNDMA {is_out_of_order, port = 1 : i64, profilingMetadata = #VPUIP.DmaProfilingMetadataAttr<profBeginFlag unit>} inputs(%163 : memref<1xui64, @Register>) outputs(%164 : memref<1xui64, [@CMX_NN, 0]>) -> memref<1xui64, [@CMX_NN, 0]> loc(#loc112)
    } loc(#loc112)
    VPURT.Task {
      %237 = VPUIP.NNDMA {is_out_of_order, port = 1 : i64} inputs(%102 : memref<1x16x31x62xf16, {order = #NHWC, strides = [63488, 1, 1024, 16]}, [@CMX_NN, 1]>) outputs(%38 : memref<1x16x31x62xf16, #NHWC, @DDR>) -> memref<1x16x31x62xf16, #NHWC, @DDR> loc(#loc112)
    } loc(#loc112)
    VPURT.Task updates(%7 : !VPURT.Barrier) {
      %237 = VPUIP.NNDMA {port = 1 : i64, profilingMetadata = #VPUIP.DmaProfilingMetadataAttr<dataIndex = 15 : i64>} inputs(%165 : memref<1xui64, @Register>) outputs(%166 : memref<1xui64, [@CMX_NN, 0]>) -> memref<1xui64, [@CMX_NN, 0]> loc(#loc112)
    } loc(#loc112)
    VPURT.Task waits(%7 : !VPURT.Barrier) {
      %237 = VPUIP.NNDMA {is_out_of_order, port = 0 : i64, profilingMetadata = #VPUIP.DmaProfilingMetadataAttr<profBeginFlag unit>} inputs(%167 : memref<1xui64, @Register>) outputs(%168 : memref<1xui64, [@CMX_NN, 0]>) -> memref<1xui64, [@CMX_NN, 0]> loc(#loc111)
    } loc(#loc111)
    VPURT.Task {
      %237 = VPUIP.NNDMA {is_out_of_order, port = 0 : i64} inputs(%35 : memref<1x16x32x62xf16, #NHWC, @DDR>) outputs(%42 : memref<1x16x32x62xf16, #NHWC, [@CMX_NN, 0]>) -> memref<1x16x32x62xf16, #NHWC, [@CMX_NN, 0]> loc(#loc111)
    } loc(#loc111)
    VPURT.Task updates(%8 : !VPURT.Barrier) {
      %237 = VPUIP.NNDMA {port = 0 : i64, profilingMetadata = #VPUIP.DmaProfilingMetadataAttr<dataIndex = 5 : i64>} inputs(%169 : memref<1xui64, @Register>) outputs(%170 : memref<1xui64, [@CMX_NN, 0]>) -> memref<1xui64, [@CMX_NN, 0]> loc(#loc111)
    } loc(#loc111)
    VPURT.Task waits(%7 : !VPURT.Barrier) {
      %237 = VPUIP.NNDMA {is_out_of_order, port = 1 : i64, profilingMetadata = #VPUIP.DmaProfilingMetadataAttr<profBeginFlag unit>} inputs(%171 : memref<1xui64, @Register>) outputs(%172 : memref<1xui64, [@CMX_NN, 0]>) -> memref<1xui64, [@CMX_NN, 0]> loc(#loc112)
    } loc(#loc112)
    VPURT.Task {
      %237 = VPUIP.NNDMA {is_out_of_order, port = 1 : i64} inputs(%36 : memref<1x16x30x62xf16, #NHWC, @DDR>) outputs(%43 : memref<1x16x30x62xf16, #NHWC, [@CMX_NN, 1]>) -> memref<1x16x30x62xf16, #NHWC, [@CMX_NN, 1]> loc(#loc112)
    } loc(#loc112)
    VPURT.Task updates(%8 : !VPURT.Barrier) {
      %237 = VPUIP.NNDMA {port = 1 : i64, profilingMetadata = #VPUIP.DmaProfilingMetadataAttr<dataIndex = 16 : i64>} inputs(%173 : memref<1xui64, @Register>) outputs(%174 : memref<1xui64, [@CMX_NN, 0]>) -> memref<1xui64, [@CMX_NN, 0]> loc(#loc112)
    } loc(#loc112)
    VPURT.Task waits(%7 : !VPURT.Barrier) {
      %237 = VPUIP.NNDMA {is_out_of_order, port = 0 : i64, profilingMetadata = #VPUIP.DmaProfilingMetadataAttr<profBeginFlag unit>} inputs(%175 : memref<1xui64, @Register>) outputs(%176 : memref<1xui64, [@CMX_NN, 0]>) -> memref<1xui64, [@CMX_NN, 0]> loc(#loc44)
    } loc(#loc44)
    VPURT.Task {
      %237 = VPUIP.NNDMA {is_out_of_order, port = 0 : i64} inputs(%cst : memref<1x1x1x28160xf16>) outputs(%60 : !VPUIP.DistributedBuffer<1x1x1x28160xf16, {order = #NCHW, strides = [28160, 28160, 28160, 1]}, @CMX_NN, {mode = "DUPLICATED", num_clusters = 2 : i64}>) -> !VPUIP.DistributedBuffer<1x1x1x28160xf16, {order = #NCHW, strides = [28160, 28160, 28160, 1]}, @CMX_NN, {mode = "DUPLICATED", num_clusters = 2 : i64}> loc(#loc44)
    } loc(#loc44)
    VPURT.Task updates(%10 : !VPURT.Barrier) {
      %237 = VPUIP.NNDMA {port = 0 : i64, profilingMetadata = #VPUIP.DmaProfilingMetadataAttr<dataIndex = 6 : i64>} inputs(%177 : memref<1xui64, @Register>) outputs(%178 : memref<1xui64, [@CMX_NN, 0]>) -> memref<1xui64, [@CMX_NN, 0]> loc(#loc44)
    } loc(#loc44)
    VPURT.Task waits(%8 : !VPURT.Barrier) updates(%9 : !VPURT.Barrier) {
      %237:2 = VPUIP.NCEClusterTask {is_segmented, kernel_padding = #VPU.Padding<left = 0 : i64, right = 0 : i64, top = 0 : i64, bottom = 0 : i64>, kernel_size = [3, 3], kernel_strides = [1, 1], profilingMetadata = #VPUIP.DpuProfilingMetadataAttr<bufferId = 0 : i64, taskId = 2 : i64, maxVariants = 1 : i64, numVariants = 1 : i64, clusterId = 0 : i64>, task_type = #VPUIP.nce_task_type<CONV>} input(%40 : memref<1x16x32x62xf16, #NHWC, [@CMX_NN, 0]>) weights(%105 : memref<48x16x3x3xf16, {compressionScheme = #VPUIP.CompressionSchemeAttr<axis = 0 : i64, numElems = dense<27> : tensor<48xi64>, alignment = 16 : i64>, order = #NHWC}, [@CMX_NN, 0]>) weights_sparsity_map(%107 : memref<48x1x1x256xi1, [@CMX_NN, 0]>) weight_table(%103 : memref<48x1x1x4xsi32, [@CMX_NN, 0]>) parent_input(%39 : !VPUIP.DistributedBuffer<1x16x62x62xf16, #NHWC, @CMX_NN, {mode = "SEGMENTED", num_tiles = [1, 1, 2, 1], num_clusters = 2 : i64, alignment = [1, 1, 2, 1]}>) parent_output(%44 : !VPUIP.DistributedBuffer<1x48x60x60xf16, {order = #NHWC, swizzlingScheme = #VPUIP.SwizzlingSchemeAttr<key = 5 : i64, sizeAlignment = 512 : i64>}, @CMX_NN, {mode = "SEGMENTED", num_tiles = [1, 1, 2, 1], num_clusters = 2 : i64}>) outputs(%47 : memref<1x48x30x60xf16, {order = #NHWC, swizzlingScheme = #VPUIP.SwizzlingSchemeAttr<key = 5 : i64, sizeAlignment = 512 : i64>}, [@CMX_NN, 0]>) profiling_data(%109 : memref<2xui64, [@CMX_NN, 0]>) -> memref<1x48x30x60xf16, {order = #NHWC, swizzlingScheme = #VPUIP.SwizzlingSchemeAttr<key = 5 : i64, sizeAlignment = 512 : i64>}, [@CMX_NN, 0]>, memref<2xui64, [@CMX_NN, 0]> variants : {
        DPUTask {cluster_id = 0 : i64, mpe_mode = #VPU.mpe_mode<CUBOID_16x16>, outEnd = [59, 29, 47], outStart = [0, 0, 0], pad = #VPU.Padding<left = 0 : i64, right = 0 : i64, top = 0 : i64, bottom = 0 : i64>, workload_id = 0 : i64} loc(#loc41)
      } PPE : {
        PPETask <LRELU> {clamp_high = 2147483647 : i64, clamp_low = -2147483648 : i64, fp_prelu_alpha = 1.000000e+00 : f64, lrelu_mult = 1 : i64, lrelu_shift = 0 : i64} loc(#loc41)
      } loc(#loc123)
    } loc(#loc123)
    VPURT.Task waits(%8 : !VPURT.Barrier) updates(%9 : !VPURT.Barrier) {
      %237:2 = VPUIP.NCEClusterTask {is_segmented, kernel_padding = #VPU.Padding<left = 0 : i64, right = 0 : i64, top = 0 : i64, bottom = 0 : i64>, kernel_size = [3, 3], kernel_strides = [1, 1], profilingMetadata = #VPUIP.DpuProfilingMetadataAttr<bufferId = 0 : i64, taskId = 2 : i64, maxVariants = 1 : i64, numVariants = 1 : i64, clusterId = 1 : i64>, task_type = #VPUIP.nce_task_type<CONV>} input(%41 : memref<1x16x30x62xf16, #NHWC, [@CMX_NN, 1]>) weights(%106 : memref<48x16x3x3xf16, {compressionScheme = #VPUIP.CompressionSchemeAttr<axis = 0 : i64, numElems = dense<27> : tensor<48xi64>, alignment = 16 : i64>, order = #NHWC}, [@CMX_NN, 1]>) weights_sparsity_map(%108 : memref<48x1x1x256xi1, [@CMX_NN, 1]>) weight_table(%104 : memref<48x1x1x4xsi32, [@CMX_NN, 1]>) parent_input(%39 : !VPUIP.DistributedBuffer<1x16x62x62xf16, #NHWC, @CMX_NN, {mode = "SEGMENTED", num_tiles = [1, 1, 2, 1], num_clusters = 2 : i64, alignment = [1, 1, 2, 1]}>) parent_output(%44 : !VPUIP.DistributedBuffer<1x48x60x60xf16, {order = #NHWC, swizzlingScheme = #VPUIP.SwizzlingSchemeAttr<key = 5 : i64, sizeAlignment = 512 : i64>}, @CMX_NN, {mode = "SEGMENTED", num_tiles = [1, 1, 2, 1], num_clusters = 2 : i64}>) outputs(%48 : memref<1x48x30x60xf16, {order = #NHWC, swizzlingScheme = #VPUIP.SwizzlingSchemeAttr<key = 5 : i64, sizeAlignment = 512 : i64>}, [@CMX_NN, 1]>) profiling_data(%110 : memref<2xui64, [@CMX_NN, 1]>) -> memref<1x48x30x60xf16, {order = #NHWC, swizzlingScheme = #VPUIP.SwizzlingSchemeAttr<key = 5 : i64, sizeAlignment = 512 : i64>}, [@CMX_NN, 1]>, memref<2xui64, [@CMX_NN, 1]> variants : {
        DPUTask {cluster_id = 1 : i64, mpe_mode = #VPU.mpe_mode<CUBOID_16x16>, outEnd = [59, 59, 47], outStart = [0, 30, 0], pad = #VPU.Padding<left = 0 : i64, right = 0 : i64, top = 0 : i64, bottom = 0 : i64>, workload_id = 0 : i64} loc(#loc41)
      } PPE : {
        PPETask <LRELU> {clamp_high = 2147483647 : i64, clamp_low = -2147483648 : i64, fp_prelu_alpha = 1.000000e+00 : f64, lrelu_mult = 1 : i64, lrelu_shift = 0 : i64} loc(#loc41)
      } loc(#loc124)
    } loc(#loc124)
    VPURT.Task waits(%9 : !VPURT.Barrier) updates(%10 : !VPURT.Barrier) {
      %237:2 = VPUIP.NCEClusterTask {is_segmented, kernel_padding = #VPU.Padding<left = 0 : i64, right = 1 : i64, top = 0 : i64, bottom = 1 : i64>, kernel_size = [3, 3], kernel_strides = [2, 2], profilingMetadata = #VPUIP.DpuProfilingMetadataAttr<bufferId = 0 : i64, taskId = 3 : i64, maxVariants = 2 : i64, numVariants = 2 : i64, clusterId = 0 : i64>, task_type = #VPUIP.nce_task_type<MAXPOOL>} input(%45 : memref<1x48x30x60xf16, {order = #NHWC, swizzlingScheme = #VPUIP.SwizzlingSchemeAttr<key = 5 : i64, sizeAlignment = 512 : i64>}, [@CMX_NN, 0]>) parent_input(%44 : !VPUIP.DistributedBuffer<1x48x60x60xf16, {order = #NHWC, swizzlingScheme = #VPUIP.SwizzlingSchemeAttr<key = 5 : i64, sizeAlignment = 512 : i64>}, @CMX_NN, {mode = "SEGMENTED", num_tiles = [1, 1, 2, 1], num_clusters = 2 : i64}>) parent_output(%50 : !VPUIP.DistributedBuffer<1x48x30x30xf16, {order = #NHWC, swizzlingScheme = #VPUIP.SwizzlingSchemeAttr<key = 5 : i64, sizeAlignment = 512 : i64>}, @CMX_NN, {mode = "SEGMENTED", num_tiles = [1, 1, 2, 1], num_clusters = 2 : i64, alignment = [1, 1, 2, 1]}>) outputs(%53 : memref<1x48x16x30xf16, {order = #NHWC, swizzlingScheme = #VPUIP.SwizzlingSchemeAttr<key = 5 : i64, sizeAlignment = 512 : i64>}, [@CMX_NN, 0]>) profiling_data(%111 : memref<4xui64, [@CMX_NN, 0]>) -> memref<1x48x16x30xf16, {order = #NHWC, swizzlingScheme = #VPUIP.SwizzlingSchemeAttr<key = 5 : i64, sizeAlignment = 512 : i64>}, [@CMX_NN, 0]>, memref<4xui64, [@CMX_NN, 0]> variants : {
        DPUTask {cluster_id = 0 : i64, mpe_mode = #VPU.mpe_mode<CUBOID_16x16>, outEnd = [29, 15, 31], outStart = [0, 0, 0], pad = #VPU.Padding<left = 0 : i64, right = 1 : i64, top = 0 : i64, bottom = 0 : i64>, workload_id = 0 : i64} loc(#loc126)
        DPUTask {cluster_id = 0 : i64, mpe_mode = #VPU.mpe_mode<CUBOID_16x16>, outEnd = [29, 15, 47], outStart = [0, 0, 32], pad = #VPU.Padding<left = 0 : i64, right = 1 : i64, top = 0 : i64, bottom = 0 : i64>, workload_id = 1 : i64} loc(#loc126)
      } PPE : {
        PPETask <NOOP> {clamp_high = 2147483647 : i64, clamp_low = -2147483648 : i64, fp_prelu_alpha = 1.000000e+00 : f64, lrelu_mult = 1 : i64, lrelu_shift = 0 : i64} loc(#loc126)
      } loc(#loc125)
    } loc(#loc125)
    VPURT.Task waits(%9 : !VPURT.Barrier) updates(%10 : !VPURT.Barrier) {
      %237:2 = VPUIP.NCEClusterTask {is_segmented, kernel_padding = #VPU.Padding<left = 0 : i64, right = 1 : i64, top = 0 : i64, bottom = 1 : i64>, kernel_size = [3, 3], kernel_strides = [2, 2], profilingMetadata = #VPUIP.DpuProfilingMetadataAttr<bufferId = 0 : i64, taskId = 3 : i64, maxVariants = 2 : i64, numVariants = 2 : i64, clusterId = 1 : i64>, task_type = #VPUIP.nce_task_type<MAXPOOL>} input(%46 : memref<1x48x30x60xf16, {order = #NHWC, swizzlingScheme = #VPUIP.SwizzlingSchemeAttr<key = 5 : i64, sizeAlignment = 512 : i64>}, [@CMX_NN, 1]>) parent_input(%44 : !VPUIP.DistributedBuffer<1x48x60x60xf16, {order = #NHWC, swizzlingScheme = #VPUIP.SwizzlingSchemeAttr<key = 5 : i64, sizeAlignment = 512 : i64>}, @CMX_NN, {mode = "SEGMENTED", num_tiles = [1, 1, 2, 1], num_clusters = 2 : i64}>) parent_output(%50 : !VPUIP.DistributedBuffer<1x48x30x30xf16, {order = #NHWC, swizzlingScheme = #VPUIP.SwizzlingSchemeAttr<key = 5 : i64, sizeAlignment = 512 : i64>}, @CMX_NN, {mode = "SEGMENTED", num_tiles = [1, 1, 2, 1], num_clusters = 2 : i64, alignment = [1, 1, 2, 1]}>) outputs(%54 : memref<1x48x14x30xf16, {order = #NHWC, swizzlingScheme = #VPUIP.SwizzlingSchemeAttr<key = 5 : i64, sizeAlignment = 512 : i64>}, [@CMX_NN, 1]>) profiling_data(%112 : memref<4xui64, [@CMX_NN, 1]>) -> memref<1x48x14x30xf16, {order = #NHWC, swizzlingScheme = #VPUIP.SwizzlingSchemeAttr<key = 5 : i64, sizeAlignment = 512 : i64>}, [@CMX_NN, 1]>, memref<4xui64, [@CMX_NN, 1]> variants : {
        DPUTask {cluster_id = 1 : i64, mpe_mode = #VPU.mpe_mode<CUBOID_16x16>, outEnd = [29, 29, 31], outStart = [0, 16, 0], pad = #VPU.Padding<left = 0 : i64, right = 1 : i64, top = 0 : i64, bottom = 1 : i64>, workload_id = 0 : i64} loc(#loc126)
        DPUTask {cluster_id = 1 : i64, mpe_mode = #VPU.mpe_mode<CUBOID_16x16>, outEnd = [29, 29, 47], outStart = [0, 16, 32], pad = #VPU.Padding<left = 0 : i64, right = 1 : i64, top = 0 : i64, bottom = 1 : i64>, workload_id = 1 : i64} loc(#loc126)
      } PPE : {
        PPETask <NOOP> {clamp_high = 2147483647 : i64, clamp_low = -2147483648 : i64, fp_prelu_alpha = 1.000000e+00 : f64, lrelu_mult = 1 : i64, lrelu_shift = 0 : i64} loc(#loc126)
      } loc(#loc127)
    } loc(#loc127)
    VPURT.Task waits(%10 : !VPURT.Barrier) updates(%11 : !VPURT.Barrier) {
      %237:2 = VPUIP.NCEClusterTask {is_segmented, kernel_padding = #VPU.Padding<left = 0 : i64, right = 0 : i64, top = 0 : i64, bottom = 0 : i64>, kernel_size = [3, 3], kernel_strides = [1, 1], profilingMetadata = #VPUIP.DpuProfilingMetadataAttr<bufferId = 0 : i64, taskId = 4 : i64, maxVariants = 1 : i64, numVariants = 1 : i64, clusterId = 0 : i64>, task_type = #VPUIP.nce_task_type<CONV>} input(%51 : memref<1x48x16x30xf16, {order = #NHWC, swizzlingScheme = #VPUIP.SwizzlingSchemeAttr<key = 5 : i64, sizeAlignment = 512 : i64>}, [@CMX_NN, 0]>) weights(%115 : memref<64x48x3x3xf16, #NHWC, [@CMX_NN, 0]>) weight_table(%113 : memref<64x1x1x4xsi32, [@CMX_NN, 0]>) parent_input(%50 : !VPUIP.DistributedBuffer<1x48x30x30xf16, {order = #NHWC, swizzlingScheme = #VPUIP.SwizzlingSchemeAttr<key = 5 : i64, sizeAlignment = 512 : i64>}, @CMX_NN, {mode = "SEGMENTED", num_tiles = [1, 1, 2, 1], num_clusters = 2 : i64, alignment = [1, 1, 2, 1]}>) parent_output(%55 : !VPUIP.DistributedBuffer<1x64x28x28xf16, {order = #NHWC, swizzlingScheme = #VPUIP.SwizzlingSchemeAttr<key = 5 : i64, sizeAlignment = 512 : i64>}, @CMX_NN, {mode = "SEGMENTED", num_tiles = [1, 1, 2, 1], num_clusters = 2 : i64}>) outputs(%58 : memref<1x64x14x28xf16, {order = #NHWC, swizzlingScheme = #VPUIP.SwizzlingSchemeAttr<key = 5 : i64, sizeAlignment = 512 : i64>}, [@CMX_NN, 0]>) profiling_data(%117 : memref<2xui64, [@CMX_NN, 0]>) -> memref<1x64x14x28xf16, {order = #NHWC, swizzlingScheme = #VPUIP.SwizzlingSchemeAttr<key = 5 : i64, sizeAlignment = 512 : i64>}, [@CMX_NN, 0]>, memref<2xui64, [@CMX_NN, 0]> variants : {
        DPUTask {cluster_id = 0 : i64, mpe_mode = #VPU.mpe_mode<CUBOID_16x16>, outEnd = [27, 13, 63], outStart = [0, 0, 0], pad = #VPU.Padding<left = 0 : i64, right = 0 : i64, top = 0 : i64, bottom = 0 : i64>, workload_id = 0 : i64} loc(#loc45)
      } PPE : {
        PPETask <LRELU> {clamp_high = 2147483647 : i64, clamp_low = -2147483648 : i64, fp_prelu_alpha = 1.000000e+00 : f64, lrelu_mult = 1 : i64, lrelu_shift = 0 : i64} loc(#loc45)
      } loc(#loc128)
    } loc(#loc128)
    VPURT.Task waits(%10 : !VPURT.Barrier) updates(%11 : !VPURT.Barrier) {
      %237:2 = VPUIP.NCEClusterTask {is_segmented, kernel_padding = #VPU.Padding<left = 0 : i64, right = 0 : i64, top = 0 : i64, bottom = 0 : i64>, kernel_size = [3, 3], kernel_strides = [1, 1], profilingMetadata = #VPUIP.DpuProfilingMetadataAttr<bufferId = 0 : i64, taskId = 4 : i64, maxVariants = 1 : i64, numVariants = 1 : i64, clusterId = 1 : i64>, task_type = #VPUIP.nce_task_type<CONV>} input(%52 : memref<1x48x14x30xf16, {order = #NHWC, swizzlingScheme = #VPUIP.SwizzlingSchemeAttr<key = 5 : i64, sizeAlignment = 512 : i64>}, [@CMX_NN, 1]>) weights(%116 : memref<64x48x3x3xf16, #NHWC, [@CMX_NN, 1]>) weight_table(%114 : memref<64x1x1x4xsi32, [@CMX_NN, 1]>) parent_input(%50 : !VPUIP.DistributedBuffer<1x48x30x30xf16, {order = #NHWC, swizzlingScheme = #VPUIP.SwizzlingSchemeAttr<key = 5 : i64, sizeAlignment = 512 : i64>}, @CMX_NN, {mode = "SEGMENTED", num_tiles = [1, 1, 2, 1], num_clusters = 2 : i64, alignment = [1, 1, 2, 1]}>) parent_output(%55 : !VPUIP.DistributedBuffer<1x64x28x28xf16, {order = #NHWC, swizzlingScheme = #VPUIP.SwizzlingSchemeAttr<key = 5 : i64, sizeAlignment = 512 : i64>}, @CMX_NN, {mode = "SEGMENTED", num_tiles = [1, 1, 2, 1], num_clusters = 2 : i64}>) outputs(%59 : memref<1x64x14x28xf16, {order = #NHWC, swizzlingScheme = #VPUIP.SwizzlingSchemeAttr<key = 5 : i64, sizeAlignment = 512 : i64>}, [@CMX_NN, 1]>) profiling_data(%118 : memref<2xui64, [@CMX_NN, 1]>) -> memref<1x64x14x28xf16, {order = #NHWC, swizzlingScheme = #VPUIP.SwizzlingSchemeAttr<key = 5 : i64, sizeAlignment = 512 : i64>}, [@CMX_NN, 1]>, memref<2xui64, [@CMX_NN, 1]> variants : {
        DPUTask {cluster_id = 1 : i64, mpe_mode = #VPU.mpe_mode<CUBOID_16x16>, outEnd = [27, 27, 63], outStart = [0, 14, 0], pad = #VPU.Padding<left = 0 : i64, right = 0 : i64, top = 0 : i64, bottom = 0 : i64>, workload_id = 0 : i64} loc(#loc45)
      } PPE : {
        PPETask <LRELU> {clamp_high = 2147483647 : i64, clamp_low = -2147483648 : i64, fp_prelu_alpha = 1.000000e+00 : f64, lrelu_mult = 1 : i64, lrelu_shift = 0 : i64} loc(#loc45)
      } loc(#loc129)
    } loc(#loc129)
    VPURT.Task waits(%11 : !VPURT.Barrier) updates(%12 : !VPURT.Barrier) {
      %237:2 = VPUIP.NCEClusterTask {is_segmented, is_superdense, kernel_padding = #VPU.Padding<left = 0 : i64, right = 1 : i64, top = 0 : i64, bottom = 1 : i64>, kernel_size = [3, 3], kernel_strides = [2, 2], profilingMetadata = #VPUIP.DpuProfilingMetadataAttr<bufferId = 0 : i64, taskId = 5 : i64, maxVariants = 1 : i64, numVariants = 1 : i64, clusterId = 0 : i64>, task_type = #VPUIP.nce_task_type<MAXPOOL>} input(%56 : memref<1x64x14x28xf16, {order = #NHWC, swizzlingScheme = #VPUIP.SwizzlingSchemeAttr<key = 5 : i64, sizeAlignment = 512 : i64>}, [@CMX_NN, 0]>) parent_input(%55 : !VPUIP.DistributedBuffer<1x64x28x28xf16, {order = #NHWC, swizzlingScheme = #VPUIP.SwizzlingSchemeAttr<key = 5 : i64, sizeAlignment = 512 : i64>}, @CMX_NN, {mode = "SEGMENTED", num_tiles = [1, 1, 2, 1], num_clusters = 2 : i64}>) parent_output(%61 : !VPUIP.DistributedBuffer<1x64x14x14xf16, #NCHW, @CMX_NN, {mode = "SEGMENTED", num_tiles = [1, 1, 2, 1], num_clusters = 2 : i64}>) outputs(%66 : memref<1x64x7x14xf16, [@CMX_NN, 0]>) profiling_data(%119 : memref<2xui64, [@CMX_NN, 0]>) -> memref<1x64x7x14xf16, [@CMX_NN, 0]>, memref<2xui64, [@CMX_NN, 0]> variants : {
        DPUTask {cluster_id = 0 : i64, mpe_mode = #VPU.mpe_mode<CUBOID_16x16>, outEnd = [13, 6, 63], outStart = [0, 0, 0], pad = #VPU.Padding<left = 0 : i64, right = 1 : i64, top = 0 : i64, bottom = 0 : i64>, workload_id = 0 : i64} loc(#loc46)
      } PPE : {
        PPETask <NOOP> {clamp_high = 2147483647 : i64, clamp_low = -2147483648 : i64, fp_prelu_alpha = 1.000000e+00 : f64, lrelu_mult = 1 : i64, lrelu_shift = 0 : i64} loc(#loc46)
      } loc(#loc130)
    } loc(#loc130)
    VPURT.Task waits(%11 : !VPURT.Barrier) updates(%12 : !VPURT.Barrier) {
      %237:2 = VPUIP.NCEClusterTask {is_segmented, is_superdense, kernel_padding = #VPU.Padding<left = 0 : i64, right = 1 : i64, top = 0 : i64, bottom = 1 : i64>, kernel_size = [3, 3], kernel_strides = [2, 2], profilingMetadata = #VPUIP.DpuProfilingMetadataAttr<bufferId = 0 : i64, taskId = 5 : i64, maxVariants = 1 : i64, numVariants = 1 : i64, clusterId = 1 : i64>, task_type = #VPUIP.nce_task_type<MAXPOOL>} input(%57 : memref<1x64x14x28xf16, {order = #NHWC, swizzlingScheme = #VPUIP.SwizzlingSchemeAttr<key = 5 : i64, sizeAlignment = 512 : i64>}, [@CMX_NN, 1]>) parent_input(%55 : !VPUIP.DistributedBuffer<1x64x28x28xf16, {order = #NHWC, swizzlingScheme = #VPUIP.SwizzlingSchemeAttr<key = 5 : i64, sizeAlignment = 512 : i64>}, @CMX_NN, {mode = "SEGMENTED", num_tiles = [1, 1, 2, 1], num_clusters = 2 : i64}>) parent_output(%61 : !VPUIP.DistributedBuffer<1x64x14x14xf16, #NCHW, @CMX_NN, {mode = "SEGMENTED", num_tiles = [1, 1, 2, 1], num_clusters = 2 : i64}>) outputs(%67 : memref<1x64x7x14xf16, [@CMX_NN, 1]>) profiling_data(%120 : memref<2xui64, [@CMX_NN, 1]>) -> memref<1x64x7x14xf16, [@CMX_NN, 1]>, memref<2xui64, [@CMX_NN, 1]> variants : {
        DPUTask {cluster_id = 1 : i64, mpe_mode = #VPU.mpe_mode<CUBOID_16x16>, outEnd = [13, 13, 63], outStart = [0, 7, 0], pad = #VPU.Padding<left = 0 : i64, right = 1 : i64, top = 0 : i64, bottom = 1 : i64>, workload_id = 0 : i64} loc(#loc46)
      } PPE : {
        PPETask <NOOP> {clamp_high = 2147483647 : i64, clamp_low = -2147483648 : i64, fp_prelu_alpha = 1.000000e+00 : f64, lrelu_mult = 1 : i64, lrelu_shift = 0 : i64} loc(#loc46)
      } loc(#loc131)
    } loc(#loc131)
    VPURT.Task waits(%12 : !VPURT.Barrier) updates(%13 : !VPURT.Barrier) {
      %237 = VPUIP.NNDMA {port = 0 : i64} inputs(%24 : memref<12xui64, [@CMX_NN, 0]>) outputs(%18 : memref<12xui64, @DDR>) -> memref<12xui64, @DDR> loc(#loc132)
    } loc(#loc132)
    VPURT.Task waits(%12 : !VPURT.Barrier) updates(%13 : !VPURT.Barrier) {
      %237 = VPUIP.NNDMA {port = 1 : i64} inputs(%25 : memref<12xui64, [@CMX_NN, 1]>) outputs(%19 : memref<12xui64, @DDR>) -> memref<12xui64, @DDR> loc(#loc133)
    } loc(#loc133)
    VPURT.Task waits(%12 : !VPURT.Barrier) {
      %237 = VPUIP.NNDMA {is_out_of_order, port = 0 : i64, profilingMetadata = #VPUIP.DmaProfilingMetadataAttr<profBeginFlag unit>} inputs(%179 : memref<1xui64, @Register>) outputs(%180 : memref<1xui64, [@CMX_NN, 0]>) -> memref<1xui64, [@CMX_NN, 0]> loc(#loc113)
    } loc(#loc113)
    VPURT.Task {
      %237 = VPUIP.NNDMA {is_out_of_order, port = 0 : i64} inputs(%64 : memref<1x64x7x14xf16, [@CMX_NN, 0]>) outputs(%68 : memref<1x64x7x14xf16, {order = #NCHW, strides = [12544, 196, 14, 1]}, @DDR>) -> memref<1x64x7x14xf16, {order = #NCHW, strides = [12544, 196, 14, 1]}, @DDR> loc(#loc113)
    } loc(#loc113)
    VPURT.Task updates(%13 : !VPURT.Barrier) {
      %237 = VPUIP.NNDMA {port = 0 : i64, profilingMetadata = #VPUIP.DmaProfilingMetadataAttr<dataIndex = 7 : i64>} inputs(%181 : memref<1xui64, @Register>) outputs(%182 : memref<1xui64, [@CMX_NN, 0]>) -> memref<1xui64, [@CMX_NN, 0]> loc(#loc113)
    } loc(#loc113)
    VPURT.Task waits(%12 : !VPURT.Barrier) {
      %237 = VPUIP.NNDMA {is_out_of_order, port = 1 : i64, profilingMetadata = #VPUIP.DmaProfilingMetadataAttr<profBeginFlag unit>} inputs(%183 : memref<1xui64, @Register>) outputs(%184 : memref<1xui64, [@CMX_NN, 0]>) -> memref<1xui64, [@CMX_NN, 0]> loc(#loc114)
    } loc(#loc114)
    VPURT.Task {
      %237 = VPUIP.NNDMA {is_out_of_order, port = 1 : i64} inputs(%65 : memref<1x64x7x14xf16, [@CMX_NN, 1]>) outputs(%69 : memref<1x64x7x14xf16, {order = #NCHW, strides = [12544, 196, 14, 1]}, @DDR>) -> memref<1x64x7x14xf16, {order = #NCHW, strides = [12544, 196, 14, 1]}, @DDR> loc(#loc114)
    } loc(#loc114)
    VPURT.Task updates(%13 : !VPURT.Barrier) {
      %237 = VPUIP.NNDMA {port = 1 : i64, profilingMetadata = #VPUIP.DmaProfilingMetadataAttr<dataIndex = 17 : i64>} inputs(%185 : memref<1xui64, @Register>) outputs(%186 : memref<1xui64, [@CMX_NN, 0]>) -> memref<1xui64, [@CMX_NN, 0]> loc(#loc114)
    } loc(#loc114)
    VPURT.Task waits(%12 : !VPURT.Barrier) {
      %237 = VPUIP.NNDMA {is_out_of_order, port = 0 : i64, profilingMetadata = #VPUIP.DmaProfilingMetadataAttr<profBeginFlag unit>} inputs(%187 : memref<1xui64, @Register>) outputs(%188 : memref<1xui64, [@CMX_NN, 0]>) -> memref<1xui64, [@CMX_NN, 0]> loc(#loc113)
    } loc(#loc113)
    VPURT.Task {
      %237 = VPUIP.NNDMA {is_out_of_order, port = 0 : i64} inputs(%62 : memref<1x64x7x14xf16, [@CMX_NN, 0]>) outputs(%74 : memref<1x64x7x14xf16, {order = #NCHW, strides = [12544, 196, 14, 1]}, @DDR>) -> memref<1x64x7x14xf16, {order = #NCHW, strides = [12544, 196, 14, 1]}, @DDR> loc(#loc113)
    } loc(#loc113)
    VPURT.Task updates(%13 : !VPURT.Barrier) {
      %237 = VPUIP.NNDMA {port = 0 : i64, profilingMetadata = #VPUIP.DmaProfilingMetadataAttr<dataIndex = 8 : i64>} inputs(%189 : memref<1xui64, @Register>) outputs(%190 : memref<1xui64, [@CMX_NN, 0]>) -> memref<1xui64, [@CMX_NN, 0]> loc(#loc113)
    } loc(#loc113)
    VPURT.Task waits(%12 : !VPURT.Barrier) {
      %237 = VPUIP.NNDMA {is_out_of_order, port = 1 : i64, profilingMetadata = #VPUIP.DmaProfilingMetadataAttr<profBeginFlag unit>} inputs(%191 : memref<1xui64, @Register>) outputs(%192 : memref<1xui64, [@CMX_NN, 0]>) -> memref<1xui64, [@CMX_NN, 0]> loc(#loc114)
    } loc(#loc114)
    VPURT.Task {
      %237 = VPUIP.NNDMA {is_out_of_order, port = 1 : i64} inputs(%63 : memref<1x64x7x14xf16, [@CMX_NN, 1]>) outputs(%75 : memref<1x64x7x14xf16, {order = #NCHW, strides = [12544, 196, 14, 1]}, @DDR>) -> memref<1x64x7x14xf16, {order = #NCHW, strides = [12544, 196, 14, 1]}, @DDR> loc(#loc114)
    } loc(#loc114)
    VPURT.Task updates(%13 : !VPURT.Barrier) {
      %237 = VPUIP.NNDMA {port = 1 : i64, profilingMetadata = #VPUIP.DmaProfilingMetadataAttr<dataIndex = 18 : i64>} inputs(%193 : memref<1xui64, @Register>) outputs(%194 : memref<1xui64, [@CMX_NN, 0]>) -> memref<1xui64, [@CMX_NN, 0]> loc(#loc114)
    } loc(#loc114)
    VPURT.Task waits(%13 : !VPURT.Barrier) {
      %237 = VPUIP.NNDMA {is_out_of_order, port = 0 : i64, profilingMetadata = #VPUIP.DmaProfilingMetadataAttr<profBeginFlag unit>} inputs(%195 : memref<1xui64, @Register>) outputs(%196 : memref<1xui64, [@CMX_NN, 0]>) -> memref<1xui64, [@CMX_NN, 0]> loc(#loc113)
    } loc(#loc113)
    VPURT.Task {
      %237 = VPUIP.NNDMA {is_out_of_order, port = 0 : i64} inputs(%121 : memref<1x64x3x14xf16, {order = #NCHW, strides = [12544, 196, 14, 1]}, @DDR>) outputs(%72 : memref<1x64x3x14xf16, [@CMX_NN, 0]>) -> memref<1x64x3x14xf16, [@CMX_NN, 0]> loc(#loc113)
    } loc(#loc113)
    VPURT.Task updates(%14 : !VPURT.Barrier) {
      %237 = VPUIP.NNDMA {port = 0 : i64, profilingMetadata = #VPUIP.DmaProfilingMetadataAttr<dataIndex = 9 : i64>} inputs(%197 : memref<1xui64, @Register>) outputs(%198 : memref<1xui64, [@CMX_NN, 0]>) -> memref<1xui64, [@CMX_NN, 0]> loc(#loc113)
    } loc(#loc113)
    VPURT.Task waits(%13 : !VPURT.Barrier) {
      %237 = VPUIP.NNDMA {is_out_of_order, port = 1 : i64, profilingMetadata = #VPUIP.DmaProfilingMetadataAttr<profBeginFlag unit>} inputs(%199 : memref<1xui64, @Register>) outputs(%200 : memref<1xui64, [@CMX_NN, 0]>) -> memref<1xui64, [@CMX_NN, 0]> loc(#loc114)
    } loc(#loc114)
    VPURT.Task {
      %237 = VPUIP.NNDMA {is_out_of_order, port = 1 : i64} inputs(%122 : memref<1x64x3x14xf16, {order = #NCHW, strides = [12544, 196, 14, 1]}, @DDR>) outputs(%73 : memref<1x64x3x14xf16, [@CMX_NN, 1]>) -> memref<1x64x3x14xf16, [@CMX_NN, 1]> loc(#loc114)
    } loc(#loc114)
    VPURT.Task updates(%14 : !VPURT.Barrier) {
      %237 = VPUIP.NNDMA {port = 1 : i64, profilingMetadata = #VPUIP.DmaProfilingMetadataAttr<dataIndex = 19 : i64>} inputs(%201 : memref<1xui64, @Register>) outputs(%202 : memref<1xui64, [@CMX_NN, 0]>) -> memref<1xui64, [@CMX_NN, 0]> loc(#loc114)
    } loc(#loc114)
    VPURT.Task waits(%13 : !VPURT.Barrier) {
      %237 = VPUIP.NNDMA {is_out_of_order, port = 0 : i64, profilingMetadata = #VPUIP.DmaProfilingMetadataAttr<profBeginFlag unit>} inputs(%203 : memref<1xui64, @Register>) outputs(%204 : memref<1xui64, [@CMX_NN, 0]>) -> memref<1xui64, [@CMX_NN, 0]> loc(#loc113)
    } loc(#loc113)
    VPURT.Task {
      %237 = VPUIP.NNDMA {is_out_of_order, port = 0 : i64} inputs(%123 : memref<1x64x4x14xf16, {order = #NCHW, strides = [12544, 196, 14, 1]}, @DDR>) outputs(%78 : memref<1x64x4x14xf16, [@CMX_NN, 0]>) -> memref<1x64x4x14xf16, [@CMX_NN, 0]> loc(#loc113)
    } loc(#loc113)
    VPURT.Task updates(%14 : !VPURT.Barrier) {
      %237 = VPUIP.NNDMA {port = 0 : i64, profilingMetadata = #VPUIP.DmaProfilingMetadataAttr<dataIndex = 10 : i64>} inputs(%205 : memref<1xui64, @Register>) outputs(%206 : memref<1xui64, [@CMX_NN, 0]>) -> memref<1xui64, [@CMX_NN, 0]> loc(#loc113)
    } loc(#loc113)
    VPURT.Task waits(%13 : !VPURT.Barrier) {
      %237 = VPUIP.NNDMA {is_out_of_order, port = 1 : i64, profilingMetadata = #VPUIP.DmaProfilingMetadataAttr<profBeginFlag unit>} inputs(%207 : memref<1xui64, @Register>) outputs(%208 : memref<1xui64, [@CMX_NN, 0]>) -> memref<1xui64, [@CMX_NN, 0]> loc(#loc114)
    } loc(#loc114)
    VPURT.Task {
      %237 = VPUIP.NNDMA {is_out_of_order, port = 1 : i64} inputs(%124 : memref<1x64x4x14xf16, {order = #NCHW, strides = [12544, 196, 14, 1]}, @DDR>) outputs(%79 : memref<1x64x4x14xf16, [@CMX_NN, 1]>) -> memref<1x64x4x14xf16, [@CMX_NN, 1]> loc(#loc114)
    } loc(#loc114)
    VPURT.Task updates(%14 : !VPURT.Barrier) {
      %237 = VPUIP.NNDMA {port = 1 : i64, profilingMetadata = #VPUIP.DmaProfilingMetadataAttr<dataIndex = 20 : i64>} inputs(%209 : memref<1xui64, @Register>) outputs(%210 : memref<1xui64, [@CMX_NN, 0]>) -> memref<1xui64, [@CMX_NN, 0]> loc(#loc114)
    } loc(#loc114)
    VPURT.Task waits(%14 : !VPURT.Barrier) updates(%15 : !VPURT.Barrier) {
      %results, %profiling_output = VPUIP.SW.Kernel {profilingMetadata = #VPUIP.SwProfilingMetadataAttr<bufferId = 0 : i64, bufferOffset = 0 : i64, clusterSize = 4 : i64, dataIndex = 2 : i64, tileId = 0 : i64, clusterId = 0 : i64>, resultSegmentSizes = array<i32: 1, 1>} @VPU.SW::@builtin_Convert inputs(%76 as %arg3: memref<1x64x4x14xf16, [@CMX_NN, 0]>) outputs(%86 as %arg4: memref<1x64x4x14xf32, [@CMX_NN, 0]>) profiling_data(%131 : memref<4xui32, [@CMX_NN, 0]>) on tile 0 -> (memref<1x64x4x14xf32, [@CMX_NN, 0]>, memref<4xui32, [@CMX_NN, 0]>){
        VPUIP.SW.Kernel.run(%arg3, %arg4) : memref<1x64x4x14xf16, [@CMX_NN, 0]>, memref<1x64x4x14xf32, [@CMX_NN, 0]> loc(#loc)
      } loc(#loc134)
    } loc(#loc134)
    VPURT.Task waits(%14 : !VPURT.Barrier) updates(%15 : !VPURT.Barrier) {
      %results, %profiling_output = VPUIP.SW.Kernel {profilingMetadata = #VPUIP.SwProfilingMetadataAttr<bufferId = 0 : i64, bufferOffset = 0 : i64, clusterSize = 4 : i64, dataIndex = 2 : i64, tileId = 0 : i64, clusterId = 1 : i64>, resultSegmentSizes = array<i32: 1, 1>} @VPU.SW::@builtin_Convert inputs(%77 as %arg3: memref<1x64x4x14xf16, [@CMX_NN, 1]>) outputs(%87 as %arg4: memref<1x64x4x14xf32, [@CMX_NN, 1]>) profiling_data(%132 : memref<4xui32, [@CMX_NN, 1]>) on tile 1 -> (memref<1x64x4x14xf32, [@CMX_NN, 1]>, memref<4xui32, [@CMX_NN, 1]>){
        VPUIP.SW.Kernel.run(%arg3, %arg4) : memref<1x64x4x14xf16, [@CMX_NN, 1]>, memref<1x64x4x14xf32, [@CMX_NN, 1]> loc(#loc)
      } loc(#loc135)
    } loc(#loc135)
    VPURT.Task waits(%14 : !VPURT.Barrier) updates(%15 : !VPURT.Barrier) {
      %results, %profiling_output = VPUIP.SW.Kernel {profilingMetadata = #VPUIP.SwProfilingMetadataAttr<bufferId = 0 : i64, bufferOffset = 0 : i64, clusterSize = 4 : i64, dataIndex = 3 : i64, tileId = 1 : i64, clusterId = 0 : i64>, resultSegmentSizes = array<i32: 1, 1>} @VPU.SW::@builtin_Convert inputs(%70 as %arg3: memref<1x64x3x14xf16, [@CMX_NN, 0]>) outputs(%82 as %arg4: memref<1x64x3x14xf32, [@CMX_NN, 0]>) profiling_data(%133 : memref<4xui32, [@CMX_NN, 0]>) on tile 0 -> (memref<1x64x3x14xf32, [@CMX_NN, 0]>, memref<4xui32, [@CMX_NN, 0]>){
        VPUIP.SW.Kernel.run(%arg3, %arg4) : memref<1x64x3x14xf16, [@CMX_NN, 0]>, memref<1x64x3x14xf32, [@CMX_NN, 0]> loc(#loc)
      } loc(#loc136)
    } loc(#loc136)
    VPURT.Task waits(%14 : !VPURT.Barrier) updates(%15 : !VPURT.Barrier) {
      %results, %profiling_output = VPUIP.SW.Kernel {profilingMetadata = #VPUIP.SwProfilingMetadataAttr<bufferId = 0 : i64, bufferOffset = 0 : i64, clusterSize = 4 : i64, dataIndex = 3 : i64, tileId = 1 : i64, clusterId = 1 : i64>, resultSegmentSizes = array<i32: 1, 1>} @VPU.SW::@builtin_Convert inputs(%71 as %arg3: memref<1x64x3x14xf16, [@CMX_NN, 1]>) outputs(%83 as %arg4: memref<1x64x3x14xf32, [@CMX_NN, 1]>) profiling_data(%134 : memref<4xui32, [@CMX_NN, 1]>) on tile 1 -> (memref<1x64x3x14xf32, [@CMX_NN, 1]>, memref<4xui32, [@CMX_NN, 1]>){
        VPUIP.SW.Kernel.run(%arg3, %arg4) : memref<1x64x3x14xf16, [@CMX_NN, 1]>, memref<1x64x3x14xf32, [@CMX_NN, 1]> loc(#loc)
      } loc(#loc137)
    } loc(#loc137)
    VPURT.Task waits(%15 : !VPURT.Barrier) {
      %237 = VPUIP.NNDMA {port = 0 : i64} inputs(%22 : memref<16xui32, [@CMX_NN, 0]>) outputs(%20 : memref<16xui32, @DDR>) -> memref<16xui32, @DDR> loc(#loc138)
    } loc(#loc138)
    VPURT.Task waits(%15 : !VPURT.Barrier) {
      %237 = VPUIP.NNDMA {port = 1 : i64} inputs(%23 : memref<16xui32, [@CMX_NN, 1]>) outputs(%21 : memref<16xui32, @DDR>) -> memref<16xui32, @DDR> loc(#loc139)
    } loc(#loc139)
    VPURT.Task waits(%15 : !VPURT.Barrier) {
      %237 = VPUIP.NNDMA {is_out_of_order, port = 0 : i64, profilingMetadata = #VPUIP.DmaProfilingMetadataAttr<profBeginFlag unit>} inputs(%211 : memref<1xui64, @Register>) outputs(%212 : memref<1xui64, [@CMX_NN, 0]>) -> memref<1xui64, [@CMX_NN, 0]> loc(#loc115)
    } loc(#loc115)
    VPURT.Task {
      %237 = VPUIP.NNDMA {is_out_of_order, port = 0 : i64} inputs(%84 : memref<1x64x4x14xf32, [@CMX_NN, 0]>) outputs(%125 : memref<1x64x4x14xf32, {order = #NCHW, strides = [12544, 196, 14, 1]}, @DDR>) -> memref<1x64x4x14xf32, {order = #NCHW, strides = [12544, 196, 14, 1]}, @DDR> loc(#loc115)
    } loc(#loc115)
    VPURT.Task {
      %237 = VPUIP.NNDMA {port = 0 : i64, profilingMetadata = #VPUIP.DmaProfilingMetadataAttr<dataIndex = 11 : i64>} inputs(%213 : memref<1xui64, @Register>) outputs(%214 : memref<1xui64, [@CMX_NN, 0]>) -> memref<1xui64, [@CMX_NN, 0]> loc(#loc115)
    } loc(#loc115)
    VPURT.Task waits(%15 : !VPURT.Barrier) {
      %237 = VPUIP.NNDMA {is_out_of_order, port = 1 : i64, profilingMetadata = #VPUIP.DmaProfilingMetadataAttr<profBeginFlag unit>} inputs(%215 : memref<1xui64, @Register>) outputs(%216 : memref<1xui64, [@CMX_NN, 0]>) -> memref<1xui64, [@CMX_NN, 0]> loc(#loc116)
    } loc(#loc116)
    VPURT.Task {
      %237 = VPUIP.NNDMA {is_out_of_order, port = 1 : i64} inputs(%85 : memref<1x64x4x14xf32, [@CMX_NN, 1]>) outputs(%126 : memref<1x64x4x14xf32, {order = #NCHW, strides = [12544, 196, 14, 1]}, @DDR>) -> memref<1x64x4x14xf32, {order = #NCHW, strides = [12544, 196, 14, 1]}, @DDR> loc(#loc116)
    } loc(#loc116)
    VPURT.Task {
      %237 = VPUIP.NNDMA {port = 1 : i64, profilingMetadata = #VPUIP.DmaProfilingMetadataAttr<dataIndex = 21 : i64>} inputs(%217 : memref<1xui64, @Register>) outputs(%218 : memref<1xui64, [@CMX_NN, 0]>) -> memref<1xui64, [@CMX_NN, 0]> loc(#loc116)
    } loc(#loc116)
    VPURT.Task waits(%15 : !VPURT.Barrier) {
      %237 = VPUIP.NNDMA {is_out_of_order, port = 0 : i64, profilingMetadata = #VPUIP.DmaProfilingMetadataAttr<profBeginFlag unit>} inputs(%219 : memref<1xui64, @Register>) outputs(%220 : memref<1xui64, [@CMX_NN, 0]>) -> memref<1xui64, [@CMX_NN, 0]> loc(#loc115)
    } loc(#loc115)
    VPURT.Task {
      %237 = VPUIP.NNDMA {is_out_of_order, port = 0 : i64} inputs(%80 : memref<1x64x3x14xf32, [@CMX_NN, 0]>) outputs(%127 : memref<1x64x3x14xf32, {order = #NCHW, strides = [12544, 196, 14, 1]}, @DDR>) -> memref<1x64x3x14xf32, {order = #NCHW, strides = [12544, 196, 14, 1]}, @DDR> loc(#loc115)
    } loc(#loc115)
    VPURT.Task {
      %237 = VPUIP.NNDMA {port = 0 : i64, profilingMetadata = #VPUIP.DmaProfilingMetadataAttr<dataIndex = 12 : i64>} inputs(%221 : memref<1xui64, @Register>) outputs(%222 : memref<1xui64, [@CMX_NN, 0]>) -> memref<1xui64, [@CMX_NN, 0]> loc(#loc115)
    } loc(#loc115)
    VPURT.Task updates(%16 : !VPURT.Barrier) {
      %237 = VPUIP.NNDMA {port = 0 : i64} inputs(%223 : memref<26xui64, [@CMX_NN, 0]>) outputs(%224 : memref<26xui64>) -> memref<26xui64> loc(#loc36)
    } loc(#loc36)
    VPURT.Task waits(%15 : !VPURT.Barrier) {
      %237 = VPUIP.NNDMA {is_out_of_order, port = 1 : i64, profilingMetadata = #VPUIP.DmaProfilingMetadataAttr<profBeginFlag unit>} inputs(%225 : memref<1xui64, @Register>) outputs(%226 : memref<1xui64, [@CMX_NN, 0]>) -> memref<1xui64, [@CMX_NN, 0]> loc(#loc116)
    } loc(#loc116)
    VPURT.Task {
      %237 = VPUIP.NNDMA {is_out_of_order, port = 1 : i64} inputs(%81 : memref<1x64x3x14xf32, [@CMX_NN, 1]>) outputs(%128 : memref<1x64x3x14xf32, {order = #NCHW, strides = [12544, 196, 14, 1]}, @DDR>) -> memref<1x64x3x14xf32, {order = #NCHW, strides = [12544, 196, 14, 1]}, @DDR> loc(#loc116)
    } loc(#loc116)
    VPURT.Task {
      %237 = VPUIP.NNDMA {port = 1 : i64, profilingMetadata = #VPUIP.DmaProfilingMetadataAttr<dataIndex = 22 : i64>} inputs(%227 : memref<1xui64, @Register>) outputs(%228 : memref<1xui64, [@CMX_NN, 0]>) -> memref<1xui64, [@CMX_NN, 0]> loc(#loc116)
    } loc(#loc116)
    VPURT.Task updates(%16 : !VPURT.Barrier) {
      %237 = VPUIP.NNDMA {port = 1 : i64} inputs(%229 : memref<20xui64, [@CMX_NN, 0]>) outputs(%230 : memref<20xui64>) -> memref<20xui64> loc(#loc37)
    } loc(#loc37)
    VPURT.Task {
      %237 = VPUIP.NNDMA {is_out_of_order, port = 0 : i64} inputs(%231 : memref<1xui32, @Register>) outputs(%232 : memref<1xui32>) -> memref<1xui32> loc(#loc2)
    } loc(#loc2)
    return %arg1, %arg2 : memref<1x64x14x14xf32, @DDR>, memref<192xui32> loc(#loc47)
  } loc(#loc)
} loc(#loc)
#loc2 = loc("PROFWORKPOINT_READ")
#loc3 = loc("conv1/WithoutBiases")
#loc4 = loc("_expand_copy_3_2")
#loc5 = loc("_fused_constant")
#loc6 = loc("_fused_tile")
#loc7 = loc("conv2/WithoutBiases")
#loc8 = loc("relu2")
#loc9 = loc("dpuProfilingCMX2DDR0")
#loc10 = loc("output")
#loc11 = loc("finishing_barrier")
#loc12 = loc("_constant_permute_3_2")
#loc13 = loc("actshaveProfilingCMX2DDR0")
#loc14 = loc("_outputBuff_cluster_0")
#loc15 = loc("_outputBuff_cluster_1")
#loc16 = loc("Duplicated_2")
#loc17 = loc("_input_cluster_0")
#loc18 = loc("_input_cluster_1")
#loc19 = loc("_alloc_swizzling")
#loc20 = loc("relu1")
#loc21 = loc("tile_1")
#loc22 = loc("tile_0")
#loc23 = loc("_expand_subview_3_2")
#loc24 = loc("cast number of input tiles")
#loc25 = loc("_weights_cluster_0")
#loc26 = loc("_weights_cluster_1")
#loc27 = loc("_profilingBuff_cluster_0")
#loc28 = loc("_profilingBuff_cluster_1")
#loc29 = loc("_weightTable_cluster_0")
#loc30 = loc("_weightTable_cluster_1")
#loc31 = loc("_weightsSparsityMap_cluster_0")
#loc32 = loc("_weightsSparsityMap_cluster_1")
#loc33 = loc("_view_cast")
#loc34 = loc("_cluster_0")
#loc35 = loc("_cluster_1")
#loc36 = loc("dmaProfilingCMX2DDR0")
#loc37 = loc("dmaProfilingCMX2DDR208")
#loc38 = loc("newProfilingBuffer")
#loc39 = loc("cluster_0")
#loc40 = loc("cluster_1")
#loc41 = loc(fused<{name = "conv1/WithoutBiases", type = "Convolution"}>[#loc3])
#loc42 = loc(fused<{name = "conv1/WithoutBiases", type = "Convolution"}>[#loc3, #loc4])
#loc43 = loc(fused<{name = "conv1/WithoutBiases", type = "Convolution"}>[#loc3, #loc5, #loc6])
#loc44 = loc(fused<{name = "conv2/WithoutBiases", type = "Convolution"}>[#loc7, #loc5, #loc6])
#loc45 = loc(fused<{name = "conv2/WithoutBiases", type = "Convolution"}>[#loc7])
#loc46 = loc(fused<{name = "relu2", type = "Relu"}>[#loc8])
#loc47 = loc(fused<{name = "output", type = "Output"}>[#loc10])
#loc48 = loc(fused<{name = "conv2/WithoutBiases", type = "Convolution"}>[#loc7, #loc5])
#loc49 = loc(fused<{name = "conv1/WithoutBiases", type = "Convolution"}>[#loc3, #loc5])
#loc50 = loc(fused<{name = "conv1/WithoutBiases", type = "Convolution"}>[#loc3, #loc12])
#loc51 = loc(fused<{name = "conv1/WithoutBiases", type = "Convolution"}>[#loc3, #loc14])
#loc52 = loc(fused<{name = "conv1/WithoutBiases", type = "Convolution"}>[#loc3, #loc15])
#loc53 = loc(fused<{name = "conv1/WithoutBiases", type = "Convolution"}>[#loc3, #loc16, #loc17])
#loc54 = loc(fused<{name = "conv1/WithoutBiases", type = "Convolution"}>[#loc3, #loc16, #loc18])
#loc55 = loc(fused<{name = "conv1/WithoutBiases", type = "Convolution"}>[#loc3, #loc19])
#loc56 = loc(fused<{name = "relu1", type = "Relu"}>[#loc20, #loc17])
#loc57 = loc(fused<{name = "relu1", type = "Relu"}>[#loc20, #loc18])
#loc58 = loc(fused<{name = "conv1/WithoutBiases", type = "Convolution"}>[#loc3, #loc16, #loc14])
#loc59 = loc(fused<{name = "conv1/WithoutBiases", type = "Convolution"}>[#loc3, #loc16, #loc15])
#loc60 = loc(fused<{name = "relu1", type = "Relu"}>[#loc20, #loc19])
#loc61 = loc(fused<{name = "conv2/WithoutBiases", type = "Convolution"}>[#loc7, #loc17])
#loc62 = loc(fused<{name = "conv2/WithoutBiases", type = "Convolution"}>[#loc7, #loc18])
#loc63 = loc(fused<{name = "relu1", type = "Relu"}>[#loc20, #loc14])
#loc64 = loc(fused<{name = "relu1", type = "Relu"}>[#loc20, #loc15])
#loc65 = loc(fused<{name = "conv2/WithoutBiases", type = "Convolution"}>[#loc7, #loc19])
#loc66 = loc(fused<{name = "relu2", type = "Relu"}>[#loc8, #loc17])
#loc67 = loc(fused<{name = "relu2", type = "Relu"}>[#loc8, #loc18])
#loc68 = loc(fused<{name = "conv2/WithoutBiases", type = "Convolution"}>[#loc7, #loc14])
#loc69 = loc(fused<{name = "conv2/WithoutBiases", type = "Convolution"}>[#loc7, #loc15])
#loc70 = loc(fused<{name = "relu2", type = "Relu"}>[#loc8, #loc14])
#loc71 = loc(fused<{name = "relu2", type = "Relu"}>[#loc8, #loc15])
#loc72 = loc(fused<{name = "output", type = "Output"}>[#loc10, #loc21, #loc17])
#loc73 = loc(fused<{name = "output", type = "Output"}>[#loc10, #loc21, #loc18])
#loc74 = loc(fused<{name = "output", type = "Output"}>[#loc10, #loc22, #loc17])
#loc75 = loc(fused<{name = "output", type = "Output"}>[#loc10, #loc22, #loc18])
#loc76 = loc(fused<{name = "output", type = "Output"}>[#loc10, #loc21, #loc14])
#loc77 = loc(fused<{name = "output", type = "Output"}>[#loc10, #loc21, #loc15])
#loc78 = loc(fused<{name = "output", type = "Output"}>[#loc10, #loc22, #loc14])
#loc79 = loc(fused<{name = "output", type = "Output"}>[#loc10, #loc22, #loc15])
#loc80 = loc(fused<{name = "conv1/WithoutBiases", type = "Convolution"}>[#loc3, #loc23])
#loc81 = loc(fused<{name = "conv1/WithoutBiases", type = "Convolution"}>[#loc3, #loc24])
#loc82 = loc(fused<{name = "conv1/WithoutBiases", type = "Convolution"}>[#loc3, #loc25])
#loc83 = loc(fused<{name = "conv1/WithoutBiases", type = "Convolution"}>[#loc3, #loc26])
#loc84 = loc(fused<{name = "conv1/WithoutBiases", type = "Convolution"}>[#loc3, #loc17])
#loc85 = loc(fused<{name = "conv1/WithoutBiases", type = "Convolution"}>[#loc3, #loc18])
#loc86 = loc(fused<{name = "conv1/WithoutBiases", type = "Convolution"}>[#loc3, #loc27])
#loc87 = loc(fused<{name = "conv1/WithoutBiases", type = "Convolution"}>[#loc3, #loc28])
#loc88 = loc(fused<{name = "conv1/WithoutBiases", type = "Convolution"}>[#loc3, #loc16, #loc29])
#loc89 = loc(fused<{name = "conv1/WithoutBiases", type = "Convolution"}>[#loc3, #loc16, #loc30])
#loc90 = loc(fused<{name = "conv1/WithoutBiases", type = "Convolution"}>[#loc3, #loc16, #loc25])
#loc91 = loc(fused<{name = "conv1/WithoutBiases", type = "Convolution"}>[#loc3, #loc16, #loc26])
#loc92 = loc(fused<{name = "conv1/WithoutBiases", type = "Convolution"}>[#loc3, #loc16, #loc31])
#loc93 = loc(fused<{name = "conv1/WithoutBiases", type = "Convolution"}>[#loc3, #loc16, #loc32])
#loc94 = loc(fused<{name = "conv1/WithoutBiases", type = "Convolution"}>[#loc3, #loc16, #loc27])
#loc95 = loc(fused<{name = "conv1/WithoutBiases", type = "Convolution"}>[#loc3, #loc16, #loc28])
#loc96 = loc(fused<{name = "relu1", type = "Relu"}>[#loc20, #loc27])
#loc97 = loc(fused<{name = "relu1", type = "Relu"}>[#loc20, #loc28])
#loc98 = loc(fused<{name = "conv2/WithoutBiases", type = "Convolution"}>[#loc7, #loc29])
#loc99 = loc(fused<{name = "conv2/WithoutBiases", type = "Convolution"}>[#loc7, #loc30])
#loc100 = loc(fused<{name = "conv2/WithoutBiases", type = "Convolution"}>[#loc7, #loc25])
#loc101 = loc(fused<{name = "conv2/WithoutBiases", type = "Convolution"}>[#loc7, #loc26])
#loc102 = loc(fused<{name = "conv2/WithoutBiases", type = "Convolution"}>[#loc7, #loc27])
#loc103 = loc(fused<{name = "conv2/WithoutBiases", type = "Convolution"}>[#loc7, #loc28])
#loc104 = loc(fused<{name = "relu2", type = "Relu"}>[#loc8, #loc27])
#loc105 = loc(fused<{name = "relu2", type = "Relu"}>[#loc8, #loc28])
#loc106 = loc(fused<{name = "conv1/WithoutBiases", type = "Convolution"}>[#loc3, #loc33])
#loc107 = loc(fused<{name = "output", type = "Output"}>[#loc10, #loc22, #loc27])
#loc108 = loc(fused<{name = "output", type = "Output"}>[#loc10, #loc22, #loc28])
#loc109 = loc(fused<{name = "output", type = "Output"}>[#loc10, #loc21, #loc27])
#loc110 = loc(fused<{name = "output", type = "Output"}>[#loc10, #loc21, #loc28])
#loc111 = loc(fused<{name = "conv1/WithoutBiases", type = "Convolution"}>[#loc3, #loc34])
#loc112 = loc(fused<{name = "conv1/WithoutBiases", type = "Convolution"}>[#loc3, #loc35])
#loc113 = loc(fused<{name = "relu2", type = "Relu"}>[#loc8, #loc34])
#loc114 = loc(fused<{name = "relu2", type = "Relu"}>[#loc8, #loc35])
#loc115 = loc(fused<{name = "output", type = "Output"}>[#loc10, #loc34])
#loc116 = loc(fused<{name = "output", type = "Output"}>[#loc10, #loc35])
#loc117 = loc(fused<{name = "conv1/WithoutBiases", type = "Convolution"}>[#loc3, #loc22])
#loc118 = loc(fused<{name = "conv1/WithoutBiases", type = "Convolution"}>[#loc3, #loc22, #loc39])
#loc119 = loc(fused<{name = "conv1/WithoutBiases", type = "Convolution"}>[#loc3, #loc21])
#loc120 = loc(fused<{name = "conv1/WithoutBiases", type = "Convolution"}>[#loc3, #loc21, #loc39])
#loc121 = loc(fused<{name = "conv1/WithoutBiases", type = "Convolution"}>[#loc3, #loc39])
#loc122 = loc(fused<{name = "conv1/WithoutBiases", type = "Convolution"}>[#loc3, #loc40])
#loc123 = loc(fused<{name = "conv1/WithoutBiases", type = "Convolution"}>[#loc3, #loc16, #loc39])
#loc124 = loc(fused<{name = "conv1/WithoutBiases", type = "Convolution"}>[#loc3, #loc16, #loc40])
#loc125 = loc(fused<{name = "relu1", type = "Relu"}>[#loc20, #loc39])
#loc126 = loc(fused<{name = "relu1", type = "Relu"}>[#loc20])
#loc127 = loc(fused<{name = "relu1", type = "Relu"}>[#loc20, #loc40])
#loc128 = loc(fused<{name = "conv2/WithoutBiases", type = "Convolution"}>[#loc7, #loc39])
#loc129 = loc(fused<{name = "conv2/WithoutBiases", type = "Convolution"}>[#loc7, #loc40])
#loc130 = loc(fused<{name = "relu2", type = "Relu"}>[#loc8, #loc39])
#loc131 = loc(fused<{name = "relu2", type = "Relu"}>[#loc8, #loc40])
#loc132 = loc(fused[#loc9, #loc34])
#loc133 = loc(fused[#loc9, #loc35])
#loc134 = loc(fused<{name = "output", type = "Output"}>[#loc10, #loc22, #loc39])
#loc135 = loc(fused<{name = "output", type = "Output"}>[#loc10, #loc22, #loc40])
#loc136 = loc(fused<{name = "output", type = "Output"}>[#loc10, #loc21, #loc39])
#loc137 = loc(fused<{name = "output", type = "Output"}>[#loc10, #loc21, #loc40])
#loc138 = loc(fused[#loc13, #loc34])
#loc139 = loc(fused[#loc13, #loc35])

