//
// Copyright (C) 2022-2023 Intel Corporation.
// SPDX-License-Identifier: Apache 2.0
//

#NCHW = affine_map<(d0, d1, d2, d3) -> (d0, d1, d2, d3)>
#NHWC = affine_map<(d0, d1, d2, d3) -> (d0, d2, d3, d1)>
#loc0 = loc(unknown)
#loc2 = loc("profiling_result")
module @age_gender attributes {VPU.arch = "VPUX30XX", VPU.compilationMode = "DefaultHW"} {
  module @UsedMemory {
    IE.MemoryResource 269120 bytes of @DDR loc(#loc0)
    IE.MemoryResource 173056 bytes of @CMX_NN loc(#loc0)
  } loc(#loc0)
  module @DmaProfilingReservedMemory {
    IE.MemoryResource 256 bytes of @CMX_NN offset 0 loc(#loc0)
  } loc(#loc0)
  IE.ExecutorResource 4 of @NCE at 7.000000e+02 MHz {
    IE.ExecutorResource 5 of @DPU  loc(#loc0)
  } loc(#loc0)
  IE.ExecutorResource 16 of @SHAVE_UPA  loc(#loc0)
  IE.ExecutorResource 1 of @DMA_NN  loc(#loc0)
  IE.MemoryResource 825753 bytes of @CMX_NN_FragmentationAware loc(#loc0)
  IE.MemoryResource 917504 bytes of @CMX_NN {VPU.bandwidth = 32 : i64, VPU.derateFactor = 1.000000e+00 : f64} loc(#loc0)
  IE.MemoryResource 524288000 bytes of @DDR {VPU.bandwidth = 8 : i64, VPU.derateFactor = 6.000000e-01 : f64} loc(#loc0)
  IE.CNNNetwork entryPoint : @main inputsInfo : {
    DataInfo "data" : tensor<1x3x62x62xf32> loc(#loc0)
  } outputsInfo : {
    DataInfo "age_conv3" : tensor<1x48x30x30xf32> loc(#loc0)
  } profilingOutputsInfo : {
    DataInfo "0_dpu_2048_upa_2120_dma" : tensor<566xui32> loc(#loc1)
  } loc(#loc0)
  func.func @main(%arg0: memref<1x3x62x62xf32, @DDR> loc(unknown), %arg1: memref<1x48x30x30xf32, @DDR> loc(unknown), %arg2: memref<566xui32> loc("profiling_result")) -> (memref<1x48x30x30xf32, @DDR>, memref<566xui32>) {
    %cst = const.Declare memref<1x1x1x784xui8> = dense<"…"> : tensor<1x1x1x784xui8> loc(#loc3)
    %cst_0 = const.Declare memref<1x1x1x14592xui8> = dense<"…"> : tensor<1x1x1x14592xui8> loc(#loc4)
    %cst_1 = const.Declare memref<1x13x62x62xf16> = dense<0.000000e+00> : tensor<1x13x62x62xf16> loc(#loc5)
    %0 = VPURT.ConfigureBarrier<0> -> !VPURT.Barrier loc(#loc6)
    %1 = VPURT.ConfigureBarrier<1> -> !VPURT.Barrier loc(#loc6)
    %2 = VPURT.ConfigureBarrier<2> -> !VPURT.Barrier loc(#loc6)
    %3 = VPURT.ConfigureBarrier<3> -> !VPURT.Barrier loc(#loc6)
    %4 = VPURT.ConfigureBarrier<4> -> !VPURT.Barrier loc(#loc6)
    %5 = VPURT.ConfigureBarrier<5> -> !VPURT.Barrier loc(#loc6)
    %6 = VPURT.ConfigureBarrier<6> -> !VPURT.Barrier loc(#loc6)
    %7 = VPURT.DeclareBuffer "NetworkInput" [0] <0> -> memref<1x3x62x62xf32, @DDR> loc(#loc3)
    %8 = VPURT.DeclareBuffer "NetworkOutput" [0] <0> -> memref<1x48x30x30xf32, @DDR> loc(#loc3)
    %9 = VPURT.DeclareBuffer "ProfilingOutput" [0] <0> -> memref<64xui64, @DDR> loc(#loc7)
    %10 = VPURT.DeclareBuffer "ProfilingOutput" [0] <512> -> memref<64xui64, @DDR> loc(#loc7)
    %11 = VPURT.DeclareBuffer "ProfilingOutput" [0] <1024> -> memref<64xui64, @DDR> loc(#loc7)
    %12 = VPURT.DeclareBuffer "ProfilingOutput" [0] <1536> -> memref<64xui64, @DDR> loc(#loc7)
    %13 = VPURT.DeclareBuffer "CMX_NN" [0] <133776> -> memref<64xui64, [@CMX_NN, 0]> loc(#loc7)
    %14 = VPURT.DeclareBuffer "CMX_NN" [1] <133776> -> memref<64xui64, [@CMX_NN, 1]> loc(#loc7)
    %15 = VPURT.DeclareBuffer "CMX_NN" [2] <133776> -> memref<64xui64, [@CMX_NN, 2]> loc(#loc7)
    %16 = VPURT.DeclareBuffer "CMX_NN" [3] <133776> -> memref<64xui64, [@CMX_NN, 3]> loc(#loc7)
    %17 = VPURT.DeclareBuffer "DDR" <0> -> memref<1x3x62x62xf16, @DDR> loc(#loc8)
    %18 = VPURT.DeclareBuffer "DDR" <23104> -> memref<1x16x62x62xf16, @DDR> loc(#loc8)
    %19 = VPURT.DeclareBuffer "DDR" <146112> -> memref<1x16x62x62xf16, #NHWC, @DDR> loc(#loc8)
    %20 = VPURT.DeclareBuffer "DDR" <146112> -> memref<1x16x16x62xf16, #NHWC, @DDR> loc(#loc8)
    %21 = VPURT.DeclareBuffer "DDR" <177856> -> memref<1x16x16x62xf16, #NHWC, @DDR> loc(#loc8)
    %22 = VPURT.DeclareBuffer "DDR" <209600> -> memref<1x16x16x62xf16, #NHWC, @DDR> loc(#loc8)
    %23 = VPURT.DeclareBuffer "DDR" <241344> -> memref<1x16x14x62xf16, #NHWC, @DDR> loc(#loc8)
    %24 = VPURT.DeclareBuffer "CMX_NN" <256> -> !VPUIP.DistributedBuffer<1x16x62x62xf16, #NHWC, @CMX_NN, {mode = "SEGMENTED", num_tiles = [1, 1, 4, 1], num_clusters = 4 : i64}> loc(#loc8)
    %25 = VPURT.DeclareBuffer "CMX_NN" [0] <256> -> memref<1x16x16x62xf16, #NHWC, [@CMX_NN, 0]> loc(#loc9)
    %26 = VPURT.DeclareBuffer "CMX_NN" [1] <256> -> memref<1x16x16x62xf16, #NHWC, [@CMX_NN, 1]> loc(#loc10)
    %27 = VPURT.DeclareBuffer "CMX_NN" [2] <256> -> memref<1x16x16x62xf16, #NHWC, [@CMX_NN, 2]> loc(#loc11)
    %28 = VPURT.DeclareBuffer "CMX_NN" [3] <256> -> memref<1x16x14x62xf16, #NHWC, [@CMX_NN, 3]> loc(#loc12)
    %29 = VPURT.DeclareBuffer "CMX_NN" [0] <256> -> memref<1x16x16x62xf16, #NHWC, [@CMX_NN, 0]> loc(#loc8)
    %30 = VPURT.DeclareBuffer "CMX_NN" [1] <256> -> memref<1x16x16x62xf16, #NHWC, [@CMX_NN, 1]> loc(#loc8)
    %31 = VPURT.DeclareBuffer "CMX_NN" [2] <256> -> memref<1x16x16x62xf16, #NHWC, [@CMX_NN, 2]> loc(#loc8)
    %32 = VPURT.DeclareBuffer "CMX_NN" [3] <256> -> memref<1x16x14x62xf16, #NHWC, [@CMX_NN, 3]> loc(#loc8)
    %33 = VPURT.DeclareBuffer "CMX_NN" <46592> -> !VPUIP.DistributedBuffer<1x48x60x60xf16, #NHWC, @CMX_NN, {mode = "SEGMENTED", num_tiles = [1, 1, 4, 1], num_clusters = 4 : i64}> loc(#loc8)
    %34 = VPURT.DeclareBuffer "CMX_NN" [0] <46592> -> memref<1x48x15x60xf16, #NHWC, [@CMX_NN, 0]> loc(#loc13)
    %35 = VPURT.DeclareBuffer "CMX_NN" [1] <46592> -> memref<1x48x15x60xf16, #NHWC, [@CMX_NN, 1]> loc(#loc14)
    %36 = VPURT.DeclareBuffer "CMX_NN" [2] <46592> -> memref<1x48x15x60xf16, #NHWC, [@CMX_NN, 2]> loc(#loc15)
    %37 = VPURT.DeclareBuffer "CMX_NN" [3] <46592> -> memref<1x48x15x60xf16, #NHWC, [@CMX_NN, 3]> loc(#loc16)
    %38 = VPURT.DeclareBuffer "CMX_NN" [0] <46592> -> memref<1x48x15x60xf16, #NHWC, [@CMX_NN, 0]> loc(#loc17)
    %39 = VPURT.DeclareBuffer "CMX_NN" [1] <46592> -> memref<1x48x15x60xf16, #NHWC, [@CMX_NN, 1]> loc(#loc18)
    %40 = VPURT.DeclareBuffer "CMX_NN" [2] <46592> -> memref<1x48x15x60xf16, #NHWC, [@CMX_NN, 2]> loc(#loc19)
    %41 = VPURT.DeclareBuffer "CMX_NN" [3] <46592> -> memref<1x48x15x60xf16, #NHWC, [@CMX_NN, 3]> loc(#loc20)
    %42 = VPURT.DeclareBuffer "CMX_NN" [0, 1, 2, 3] <32000> -> !VPUIP.DistributedBuffer<1x1x1x14592xui8, {order = #NCHW, strides = [14592, 14592, 14592, 1]}, @CMX_NN, {mode = "DUPLICATED", num_clusters = 4 : i64}> loc(#loc21)
    %43 = VPURT.DeclareBuffer "CMX_NN" <256> -> !VPUIP.DistributedBuffer<1x48x30x30xf16, #NHWC, @CMX_NN, {mode = "SEGMENTED", num_tiles = [1, 1, 4, 1], num_clusters = 4 : i64}> loc(#loc22)
    %44 = VPURT.DeclareBuffer "CMX_NN" [0] <256> -> memref<1x48x8x30xf16, #NHWC, [@CMX_NN, 0]> loc(#loc22)
    %45 = VPURT.DeclareBuffer "CMX_NN" [1] <256> -> memref<1x48x8x30xf16, #NHWC, [@CMX_NN, 1]> loc(#loc22)
    %46 = VPURT.DeclareBuffer "CMX_NN" [2] <256> -> memref<1x48x8x30xf16, #NHWC, [@CMX_NN, 2]> loc(#loc22)
    %47 = VPURT.DeclareBuffer "CMX_NN" [3] <256> -> memref<1x48x6x30xf16, #NHWC, [@CMX_NN, 3]> loc(#loc22)
    %48 = VPURT.DeclareBuffer "CMX_NN" [0] <256> -> memref<1x48x8x30xf16, #NHWC, [@CMX_NN, 0]> loc(#loc23)
    %49 = VPURT.DeclareBuffer "CMX_NN" [1] <256> -> memref<1x48x8x30xf16, #NHWC, [@CMX_NN, 1]> loc(#loc24)
    %50 = VPURT.DeclareBuffer "CMX_NN" [2] <256> -> memref<1x48x8x30xf16, #NHWC, [@CMX_NN, 2]> loc(#loc25)
    %51 = VPURT.DeclareBuffer "CMX_NN" [3] <256> -> memref<1x48x6x30xf16, #NHWC, [@CMX_NN, 3]> loc(#loc26)
    %52 = VPURT.DeclareBuffer "CMX_NN" [0, 1, 2, 3] <132992> -> !VPUIP.DistributedBuffer<1x1x1x784xui8, {order = #NCHW, strides = [784, 784, 784, 1]}, @CMX_NN, {mode = "DUPLICATED", num_clusters = 4 : i64}> loc(#loc27)
    %53 = VPURT.DeclareBuffer "DDR" <0> -> memref<1x48x30x30xf16, #NHWC, @DDR> loc(#loc22)
    %54 = VPURT.DeclareBuffer "DDR" <0> -> memref<1x48x8x30xf16, #NHWC, @DDR> loc(#loc22)
    %55 = VPURT.DeclareBuffer "DDR" <23040> -> memref<1x48x8x30xf16, #NHWC, @DDR> loc(#loc22)
    %56 = VPURT.DeclareBuffer "DDR" <46080> -> memref<1x48x8x30xf16, #NHWC, @DDR> loc(#loc22)
    %57 = VPURT.DeclareBuffer "DDR" <69120> -> memref<1x48x6x30xf16, #NHWC, @DDR> loc(#loc22)
    %58 = VPURT.DeclareBuffer "CMX_NN" [0] <256> -> memref<1x48x30x30xf16, #NHWC, [@CMX_NN, 0]> loc(#loc28)
    %59 = VPURT.DeclareBuffer "CMX_NN" [0] <73984> -> memref<132x48xf16, [@CMX_NN, 0]> loc(#loc28)
    %60 = VPURT.DeclareBuffer "CMX_NN" [0] <49408> -> memref<256x48xf16, [@CMX_NN, 0]> loc(#loc28)
    %61 = VPURT.DeclareBuffer "CMX_NN" [0] <24832> -> memref<256x48xf16, [@CMX_NN, 0]> loc(#loc28)
    %62 = VPURT.DeclareBuffer "CMX_NN" [0] <256> -> memref<256x48xf16, [@CMX_NN, 0]> loc(#loc28)
    %63 = VPURT.DeclareBuffer "CMX_NN" [0] <86656> -> memref<1x48x30x30xf16, [@CMX_NN, 0]> loc(#loc28)
    %64 = VPURT.DeclareBuffer "CMX_NN" [0] <88192> -> memref<48x132xf16, [@CMX_NN, 0]> loc(#loc28)
    %65 = VPURT.DeclareBuffer "CMX_NN" [0] <87680> -> memref<48x256xf16, [@CMX_NN, 0]> loc(#loc28)
    %66 = VPURT.DeclareBuffer "CMX_NN" [0] <87168> -> memref<48x256xf16, [@CMX_NN, 0]> loc(#loc28)
    %67 = VPURT.DeclareBuffer "CMX_NN" [0] <86656> -> memref<48x256xf16, [@CMX_NN, 0]> loc(#loc28)
    %68 = VPURT.DeclareBuffer "DDR" <0> -> memref<1x48x30x30xf16, @DDR> loc(#loc28)
    %69 = VPURT.DeclareBuffer "DDR" <46168> -> memref<1x13x62x62xf16, {order = #NCHW, strides = [61504, 3844, 62, 1]}, @DDR> loc(#loc29)
    %70 = VPURT.DeclareBuffer "DDR" <23104> -> memref<1x3x62x62xf16, {order = #NCHW, strides = [61504, 3844, 62, 1]}, @DDR> loc(#loc8)
    %71 = VPURT.DeclareBuffer "CMX_NN" [0] <32000> -> memref<48x1x1x4xsi32, [@CMX_NN, 0]> loc(#loc30)
    %72 = VPURT.DeclareBuffer "CMX_NN" [1] <32000> -> memref<48x1x1x4xsi32, [@CMX_NN, 1]> loc(#loc31)
    %73 = VPURT.DeclareBuffer "CMX_NN" [2] <32000> -> memref<48x1x1x4xsi32, [@CMX_NN, 2]> loc(#loc32)
    %74 = VPURT.DeclareBuffer "CMX_NN" [3] <32000> -> memref<48x1x1x4xsi32, [@CMX_NN, 3]> loc(#loc33)
    %75 = VPURT.DeclareBuffer "CMX_NN" [0] <32768> -> memref<48x16x3x3xf16, #NHWC, [@CMX_NN, 0]> loc(#loc34)
    %76 = VPURT.DeclareBuffer "CMX_NN" [1] <32768> -> memref<48x16x3x3xf16, #NHWC, [@CMX_NN, 1]> loc(#loc35)
    %77 = VPURT.DeclareBuffer "CMX_NN" [2] <32768> -> memref<48x16x3x3xf16, #NHWC, [@CMX_NN, 2]> loc(#loc36)
    %78 = VPURT.DeclareBuffer "CMX_NN" [3] <32768> -> memref<48x16x3x3xf16, #NHWC, [@CMX_NN, 3]> loc(#loc37)
    %79 = VPURT.DeclareBuffer "CMX_NN" [0] <133776> -> memref<40xui64, [@CMX_NN, 0]> loc(#loc38)
    %80 = VPURT.DeclareBuffer "CMX_NN" [1] <133776> -> memref<40xui64, [@CMX_NN, 1]> loc(#loc39)
    %81 = VPURT.DeclareBuffer "CMX_NN" [2] <133776> -> memref<40xui64, [@CMX_NN, 2]> loc(#loc40)
    %82 = VPURT.DeclareBuffer "CMX_NN" [3] <133776> -> memref<40xui64, [@CMX_NN, 3]> loc(#loc41)
    %83 = VPURT.DeclareBuffer "CMX_NN" [0] <132992> -> memref<48x1x1x4xsi32, [@CMX_NN, 0]> loc(#loc42)
    %84 = VPURT.DeclareBuffer "CMX_NN" [1] <132992> -> memref<48x1x1x4xsi32, [@CMX_NN, 1]> loc(#loc43)
    %85 = VPURT.DeclareBuffer "CMX_NN" [2] <132992> -> memref<48x1x1x4xsi32, [@CMX_NN, 2]> loc(#loc44)
    %86 = VPURT.DeclareBuffer "CMX_NN" [3] <132992> -> memref<48x1x1x4xsi32, [@CMX_NN, 3]> loc(#loc45)
    %87 = VPURT.DeclareBuffer "CMX_NN" [0] <133760> -> memref<1x1x1x16xui8, [@CMX_NN, 0]> loc(#loc46)
    %88 = VPURT.DeclareBuffer "CMX_NN" [1] <133760> -> memref<1x1x1x16xui8, [@CMX_NN, 1]> loc(#loc47)
    %89 = VPURT.DeclareBuffer "CMX_NN" [2] <133760> -> memref<1x1x1x16xui8, [@CMX_NN, 2]> loc(#loc48)
    %90 = VPURT.DeclareBuffer "CMX_NN" [3] <133760> -> memref<1x1x1x16xui8, [@CMX_NN, 3]> loc(#loc49)
    %91 = VPURT.DeclareBuffer "CMX_NN" [0] <134096> -> memref<24xui64, [@CMX_NN, 0]> loc(#loc50)
    %92 = VPURT.DeclareBuffer "CMX_NN" [1] <134096> -> memref<24xui64, [@CMX_NN, 1]> loc(#loc51)
    %93 = VPURT.DeclareBuffer "CMX_NN" [2] <134096> -> memref<24xui64, [@CMX_NN, 2]> loc(#loc52)
    %94 = VPURT.DeclareBuffer "CMX_NN" [3] <134096> -> memref<24xui64, [@CMX_NN, 3]> loc(#loc53)
    %95 = VPURT.DeclareBuffer "ProfilingOutput" [0] <2048> -> memref<6xui32> loc(#loc54)
    %96 = VPURT.DeclareBuffer "ProfilingOutput" [0] <2072> -> memref<6xui32> loc(#loc54)
    %97 = VPURT.DeclareBuffer "ProfilingOutput" [0] <2096> -> memref<6xui32> loc(#loc54)
    %98 = VPURT.DeclareBuffer "Register" <545390780> -> memref<1xui32, @Register> loc(#loc55)
    %99 = VPURT.DeclareBuffer "CMX_NN" [0] <0> -> memref<1xui32, [@CMX_NN, 0]> loc(#loc55)
    %100 = VPURT.DeclareBuffer "Register" <545390780> -> memref<1xui32, @Register> loc(#loc56)
    %101 = VPURT.DeclareBuffer "CMX_NN" [0] <4> -> memref<1xui32, [@CMX_NN, 0]> loc(#loc56)
    %102 = VPURT.DeclareBuffer "Register" <545390780> -> memref<1xui32, @Register> loc(#loc57)
    %103 = VPURT.DeclareBuffer "CMX_NN" [0] <8> -> memref<1xui32, [@CMX_NN, 0]> loc(#loc57)
    %104 = VPURT.DeclareBuffer "Register" <545390780> -> memref<1xui32, @Register> loc(#loc58)
    %105 = VPURT.DeclareBuffer "CMX_NN" [0] <12> -> memref<1xui32, [@CMX_NN, 0]> loc(#loc58)
    %106 = VPURT.DeclareBuffer "Register" <545390780> -> memref<1xui32, @Register> loc(#loc59)
    %107 = VPURT.DeclareBuffer "CMX_NN" [0] <16> -> memref<1xui32, [@CMX_NN, 0]> loc(#loc59)
    %108 = VPURT.DeclareBuffer "Register" <545390780> -> memref<1xui32, @Register> loc(#loc60)
    %109 = VPURT.DeclareBuffer "CMX_NN" [0] <20> -> memref<1xui32, [@CMX_NN, 0]> loc(#loc60)
    %110 = VPURT.DeclareBuffer "Register" <545390780> -> memref<1xui32, @Register> loc(#loc61)
    %111 = VPURT.DeclareBuffer "CMX_NN" [0] <24> -> memref<1xui32, [@CMX_NN, 0]> loc(#loc61)
    %112 = VPURT.DeclareBuffer "Register" <545390780> -> memref<1xui32, @Register> loc(#loc62)
    %113 = VPURT.DeclareBuffer "CMX_NN" [0] <28> -> memref<1xui32, [@CMX_NN, 0]> loc(#loc62)
    %114 = VPURT.DeclareBuffer "Register" <545390780> -> memref<1xui32, @Register> loc(#loc63)
    %115 = VPURT.DeclareBuffer "CMX_NN" [0] <32> -> memref<1xui32, [@CMX_NN, 0]> loc(#loc63)
    %116 = VPURT.DeclareBuffer "Register" <545390780> -> memref<1xui32, @Register> loc(#loc64)
    %117 = VPURT.DeclareBuffer "CMX_NN" [0] <36> -> memref<1xui32, [@CMX_NN, 0]> loc(#loc64)
    %118 = VPURT.DeclareBuffer "Register" <545390780> -> memref<1xui32, @Register> loc(#loc65)
    %119 = VPURT.DeclareBuffer "CMX_NN" [0] <40> -> memref<1xui32, [@CMX_NN, 0]> loc(#loc65)
    %120 = VPURT.DeclareBuffer "Register" <545390780> -> memref<1xui32, @Register> loc(#loc66)
    %121 = VPURT.DeclareBuffer "CMX_NN" [0] <44> -> memref<1xui32, [@CMX_NN, 0]> loc(#loc66)
    %122 = VPURT.DeclareBuffer "Register" <545390780> -> memref<1xui32, @Register> loc(#loc67)
    %123 = VPURT.DeclareBuffer "CMX_NN" [0] <48> -> memref<1xui32, [@CMX_NN, 0]> loc(#loc67)
    %124 = VPURT.DeclareBuffer "Register" <545390780> -> memref<1xui32, @Register> loc(#loc68)
    %125 = VPURT.DeclareBuffer "CMX_NN" [0] <52> -> memref<1xui32, [@CMX_NN, 0]> loc(#loc68)
    %126 = VPURT.DeclareBuffer "Register" <545390780> -> memref<1xui32, @Register> loc(#loc69)
    %127 = VPURT.DeclareBuffer "CMX_NN" [0] <56> -> memref<1xui32, [@CMX_NN, 0]> loc(#loc69)
    %128 = VPURT.DeclareBuffer "Register" <545390780> -> memref<1xui32, @Register> loc(#loc70)
    %129 = VPURT.DeclareBuffer "CMX_NN" [0] <60> -> memref<1xui32, [@CMX_NN, 0]> loc(#loc70)
    %130 = VPURT.DeclareBuffer "Register" <545390780> -> memref<1xui32, @Register> loc(#loc71)
    %131 = VPURT.DeclareBuffer "CMX_NN" [0] <64> -> memref<1xui32, [@CMX_NN, 0]> loc(#loc71)
    %132 = VPURT.DeclareBuffer "Register" <545390780> -> memref<1xui32, @Register> loc(#loc72)
    %133 = VPURT.DeclareBuffer "CMX_NN" [0] <68> -> memref<1xui32, [@CMX_NN, 0]> loc(#loc72)
    %134 = VPURT.DeclareBuffer "Register" <545390780> -> memref<1xui32, @Register> loc(#loc73)
    %135 = VPURT.DeclareBuffer "CMX_NN" [0] <72> -> memref<1xui32, [@CMX_NN, 0]> loc(#loc73)
    %136 = VPURT.DeclareBuffer "Register" <545390780> -> memref<1xui32, @Register> loc(#loc74)
    %137 = VPURT.DeclareBuffer "CMX_NN" [0] <76> -> memref<1xui32, [@CMX_NN, 0]> loc(#loc74)
    %138 = VPURT.DeclareBuffer "Register" <545390780> -> memref<1xui32, @Register> loc(#loc75)
    %139 = VPURT.DeclareBuffer "CMX_NN" [0] <80> -> memref<1xui32, [@CMX_NN, 0]> loc(#loc75)
    %140 = VPURT.DeclareBuffer "Register" <545390780> -> memref<1xui32, @Register> loc(#loc76)
    %141 = VPURT.DeclareBuffer "CMX_NN" [0] <84> -> memref<1xui32, [@CMX_NN, 0]> loc(#loc76)
    %142 = VPURT.DeclareBuffer "Register" <545390780> -> memref<1xui32, @Register> loc(#loc77)
    %143 = VPURT.DeclareBuffer "CMX_NN" [0] <88> -> memref<1xui32, [@CMX_NN, 0]> loc(#loc77)
    %144 = VPURT.DeclareBuffer "Register" <545390780> -> memref<1xui32, @Register> loc(#loc78)
    %145 = VPURT.DeclareBuffer "CMX_NN" [0] <92> -> memref<1xui32, [@CMX_NN, 0]> loc(#loc78)
    %146 = VPURT.DeclareBuffer "Register" <545390780> -> memref<1xui32, @Register> loc(#loc79)
    %147 = VPURT.DeclareBuffer "CMX_NN" [0] <96> -> memref<1xui32, [@CMX_NN, 0]> loc(#loc79)
    %148 = VPURT.DeclareBuffer "Register" <545390780> -> memref<1xui32, @Register> loc(#loc80)
    %149 = VPURT.DeclareBuffer "CMX_NN" [0] <100> -> memref<1xui32, [@CMX_NN, 0]> loc(#loc80)
    %150 = VPURT.DeclareBuffer "Register" <545390780> -> memref<1xui32, @Register> loc(#loc81)
    %151 = VPURT.DeclareBuffer "CMX_NN" [0] <104> -> memref<1xui32, [@CMX_NN, 0]> loc(#loc81)
    %152 = VPURT.DeclareBuffer "Register" <545390780> -> memref<1xui32, @Register> loc(#loc82)
    %153 = VPURT.DeclareBuffer "CMX_NN" [0] <108> -> memref<1xui32, [@CMX_NN, 0]> loc(#loc82)
    %154 = VPURT.DeclareBuffer "Register" <545390780> -> memref<1xui32, @Register> loc(#loc81)
    %155 = VPURT.DeclareBuffer "CMX_NN" [0] <112> -> memref<1xui32, [@CMX_NN, 0]> loc(#loc81)
    %156 = VPURT.DeclareBuffer "Register" <545390780> -> memref<1xui32, @Register> loc(#loc83)
    %157 = VPURT.DeclareBuffer "CMX_NN" [0] <116> -> memref<1xui32, [@CMX_NN, 0]> loc(#loc83)
    %158 = VPURT.DeclareBuffer "Register" <545390780> -> memref<1xui32, @Register> loc(#loc81)
    %159 = VPURT.DeclareBuffer "CMX_NN" [0] <120> -> memref<1xui32, [@CMX_NN, 0]> loc(#loc81)
    %160 = VPURT.DeclareBuffer "Register" <545390780> -> memref<1xui32, @Register> loc(#loc84)
    %161 = VPURT.DeclareBuffer "CMX_NN" [0] <124> -> memref<1xui32, [@CMX_NN, 0]> loc(#loc84)
    %162 = VPURT.DeclareBuffer "Register" <545390780> -> memref<1xui32, @Register> loc(#loc81)
    %163 = VPURT.DeclareBuffer "CMX_NN" [0] <128> -> memref<1xui32, [@CMX_NN, 0]> loc(#loc81)
    %164 = VPURT.DeclareBuffer "Register" <545390780> -> memref<1xui32, @Register> loc(#loc85)
    %165 = VPURT.DeclareBuffer "CMX_NN" [0] <132> -> memref<1xui32, [@CMX_NN, 0]> loc(#loc85)
    %166 = VPURT.DeclareBuffer "Register" <545390780> -> memref<1xui32, @Register> loc(#loc79)
    %167 = VPURT.DeclareBuffer "CMX_NN" [0] <136> -> memref<1xui32, [@CMX_NN, 0]> loc(#loc79)
    %168 = VPURT.DeclareBuffer "Register" <545390780> -> memref<1xui32, @Register> loc(#loc86)
    %169 = VPURT.DeclareBuffer "CMX_NN" [0] <140> -> memref<1xui32, [@CMX_NN, 0]> loc(#loc86)
    %170 = VPURT.DeclareBuffer "CMX_NN" [0] <0> -> memref<36xui32, [@CMX_NN, 0]> loc(#loc87)
    %171 = VPURT.DeclareBuffer "ProfilingOutput" [0] <2120> -> memref<36xui32> loc(#loc87)
    %172 = VPURT.DeclareBuffer "ProfilingOutput" [0] <0> -> memref<256xui64> loc(#loc88)
    %173 = VPURT.DeclareBuffer "ProfilingOutput" [0] <2048> -> memref<18xui32> loc(#loc88)
    %174 = VPURT.DeclareBuffer "ProfilingOutput" [0] <2120> -> memref<36xui32> loc(#loc88)
    VPURT.Task attributes {isTrailingSWLayer = false} {
      %175 = VPUIP.NNDMA {port = 0 : i64} inputs(%98 : memref<1xui32, @Register>) outputs(%99 : memref<1xui32, [@CMX_NN, 0]>) -> memref<1xui32, [@CMX_NN, 0]> loc(#loc55)
    } loc(#loc55)
    VPURT.Task attributes {cycleBegin = 0 : i64, cycleEnd = 3499 : i64, isTrailingSWLayer = false} {
      %175 = VPUIP.NNDMA {port = 0 : i64} inputs(%cst_1 : memref<1x13x62x62xf16>) outputs(%69 : memref<1x13x62x62xf16, {order = #NCHW, strides = [61504, 3844, 62, 1]}, @DDR>) -> memref<1x13x62x62xf16, {order = #NCHW, strides = [61504, 3844, 62, 1]}, @DDR> loc(#loc89)
    } loc(#loc89)
    VPURT.Task attributes {isTrailingSWLayer = false} {
      %175 = VPUIP.NNDMA {port = 0 : i64} inputs(%100 : memref<1xui32, @Register>) outputs(%101 : memref<1xui32, [@CMX_NN, 0]>) -> memref<1xui32, [@CMX_NN, 0]> loc(#loc56)
    } loc(#loc56)
    VPURT.Task profiling_data(%95 : memref<6xui32>) updates(%0 : !VPURT.Barrier) attributes {cycleBegin = 0 : i64, cycleEnd = 3499 : i64, isTrailingSWLayer = false} {
      %175 = VPUIP.ConvertUPA inputs(%7 : memref<1x3x62x62xf32, @DDR>) outputs(%17 : memref<1x3x62x62xf16, @DDR>) -> memref<1x3x62x62xf16, @DDR> loc(#loc8)
    } loc(#loc6)
    VPURT.Task waits(%0 : !VPURT.Barrier) attributes {isTrailingSWLayer = false} {
      %175 = VPUIP.NNDMA {port = 0 : i64} inputs(%102 : memref<1xui32, @Register>) outputs(%103 : memref<1xui32, [@CMX_NN, 0]>) -> memref<1xui32, [@CMX_NN, 0]> loc(#loc57)
    } loc(#loc57)
    VPURT.Task attributes {cycleBegin = 3499 : i64, cycleEnd = 4307 : i64, isTrailingSWLayer = false} {
      %175 = VPUIP.NNDMA {port = 0 : i64} inputs(%17 : memref<1x3x62x62xf16, @DDR>) outputs(%70 : memref<1x3x62x62xf16, {order = #NCHW, strides = [61504, 3844, 62, 1]}, @DDR>) -> memref<1x3x62x62xf16, {order = #NCHW, strides = [61504, 3844, 62, 1]}, @DDR> loc(#loc8)
    } loc(#loc8)
    VPURT.Task updates(%1 : !VPURT.Barrier) attributes {isTrailingSWLayer = false} {
      %175 = VPUIP.NNDMA {port = 0 : i64} inputs(%104 : memref<1xui32, @Register>) outputs(%105 : memref<1xui32, [@CMX_NN, 0]>) -> memref<1xui32, [@CMX_NN, 0]> loc(#loc58)
    } loc(#loc58)
    VPURT.Task profiling_data(%96 : memref<6xui32>) waits(%1 : !VPURT.Barrier) updates(%2 : !VPURT.Barrier) attributes {cycleBegin = 4307 : i64, cycleEnd = 4309 : i64, isTrailingSWLayer = false} {
      %175 = VPUIP.PermuteUPA {order_value = #NHWC} inputs(%18 : memref<1x16x62x62xf16, @DDR>) outputs(%19 : memref<1x16x62x62xf16, #NHWC, @DDR>) -> memref<1x16x62x62xf16, #NHWC, @DDR> loc(#loc8)
    } loc(#loc90)
    VPURT.Task waits(%2 : !VPURT.Barrier) attributes {isTrailingSWLayer = false} {
      %175 = VPUIP.NNDMA {port = 0 : i64} inputs(%106 : memref<1xui32, @Register>) outputs(%107 : memref<1xui32, [@CMX_NN, 0]>) -> memref<1xui32, [@CMX_NN, 0]> loc(#loc59)
    } loc(#loc59)
    VPURT.Task attributes {cycleBegin = 4309 : i64, cycleEnd = 5420 : i64, isTrailingSWLayer = false} {
      %175 = VPUIP.NNDMA {port = 0 : i64} inputs(%20 : memref<1x16x16x62xf16, #NHWC, @DDR>) outputs(%29 : memref<1x16x16x62xf16, #NHWC, [@CMX_NN, 0]>) -> memref<1x16x16x62xf16, #NHWC, [@CMX_NN, 0]> loc(#loc91)
    } loc(#loc91)
    VPURT.Task attributes {isTrailingSWLayer = false} {
      %175 = VPUIP.NNDMA {port = 0 : i64} inputs(%108 : memref<1xui32, @Register>) outputs(%109 : memref<1xui32, [@CMX_NN, 0]>) -> memref<1xui32, [@CMX_NN, 0]> loc(#loc60)
    } loc(#loc60)
    VPURT.Task attributes {isTrailingSWLayer = false} {
      %175 = VPUIP.NNDMA {port = 0 : i64} inputs(%110 : memref<1xui32, @Register>) outputs(%111 : memref<1xui32, [@CMX_NN, 0]>) -> memref<1xui32, [@CMX_NN, 0]> loc(#loc61)
    } loc(#loc61)
    VPURT.Task attributes {cycleBegin = 5420 : i64, cycleEnd = 6531 : i64, isTrailingSWLayer = false} {
      %175 = VPUIP.NNDMA {port = 0 : i64} inputs(%21 : memref<1x16x16x62xf16, #NHWC, @DDR>) outputs(%30 : memref<1x16x16x62xf16, #NHWC, [@CMX_NN, 1]>) -> memref<1x16x16x62xf16, #NHWC, [@CMX_NN, 1]> loc(#loc92)
    } loc(#loc92)
    VPURT.Task attributes {isTrailingSWLayer = false} {
      %175 = VPUIP.NNDMA {port = 0 : i64} inputs(%112 : memref<1xui32, @Register>) outputs(%113 : memref<1xui32, [@CMX_NN, 0]>) -> memref<1xui32, [@CMX_NN, 0]> loc(#loc62)
    } loc(#loc62)
    VPURT.Task attributes {isTrailingSWLayer = false} {
      %175 = VPUIP.NNDMA {port = 0 : i64} inputs(%114 : memref<1xui32, @Register>) outputs(%115 : memref<1xui32, [@CMX_NN, 0]>) -> memref<1xui32, [@CMX_NN, 0]> loc(#loc63)
    } loc(#loc63)
    VPURT.Task attributes {cycleBegin = 6531 : i64, cycleEnd = 7642 : i64, isTrailingSWLayer = false} {
      %175 = VPUIP.NNDMA {port = 0 : i64} inputs(%22 : memref<1x16x16x62xf16, #NHWC, @DDR>) outputs(%31 : memref<1x16x16x62xf16, #NHWC, [@CMX_NN, 2]>) -> memref<1x16x16x62xf16, #NHWC, [@CMX_NN, 2]> loc(#loc93)
    } loc(#loc93)
    VPURT.Task attributes {isTrailingSWLayer = false} {
      %175 = VPUIP.NNDMA {port = 0 : i64} inputs(%116 : memref<1xui32, @Register>) outputs(%117 : memref<1xui32, [@CMX_NN, 0]>) -> memref<1xui32, [@CMX_NN, 0]> loc(#loc64)
    } loc(#loc64)
    VPURT.Task attributes {isTrailingSWLayer = false} {
      %175 = VPUIP.NNDMA {port = 0 : i64} inputs(%118 : memref<1xui32, @Register>) outputs(%119 : memref<1xui32, [@CMX_NN, 0]>) -> memref<1xui32, [@CMX_NN, 0]> loc(#loc65)
    } loc(#loc65)
    VPURT.Task attributes {cycleBegin = 7642 : i64, cycleEnd = 8614 : i64, isTrailingSWLayer = false} {
      %175 = VPUIP.NNDMA {port = 0 : i64} inputs(%23 : memref<1x16x14x62xf16, #NHWC, @DDR>) outputs(%32 : memref<1x16x14x62xf16, #NHWC, [@CMX_NN, 3]>) -> memref<1x16x14x62xf16, #NHWC, [@CMX_NN, 3]> loc(#loc94)
    } loc(#loc94)
    VPURT.Task attributes {isTrailingSWLayer = false} {
      %175 = VPUIP.NNDMA {port = 0 : i64} inputs(%120 : memref<1xui32, @Register>) outputs(%121 : memref<1xui32, [@CMX_NN, 0]>) -> memref<1xui32, [@CMX_NN, 0]> loc(#loc66)
    } loc(#loc66)
    VPURT.Task attributes {isTrailingSWLayer = false} {
      %175 = VPUIP.NNDMA {port = 0 : i64} inputs(%122 : memref<1xui32, @Register>) outputs(%123 : memref<1xui32, [@CMX_NN, 0]>) -> memref<1xui32, [@CMX_NN, 0]> loc(#loc67)
    } loc(#loc67)
    VPURT.Task attributes {cycleBegin = 8615 : i64, cycleEnd = 9126 : i64, isTrailingSWLayer = false} {
      %175 = VPUIP.NNDMA {port = 0 : i64} inputs(%cst_0 : memref<1x1x1x14592xui8>) outputs(%42 : !VPUIP.DistributedBuffer<1x1x1x14592xui8, {order = #NCHW, strides = [14592, 14592, 14592, 1]}, @CMX_NN, {mode = "DUPLICATED", num_clusters = 4 : i64}>) -> !VPUIP.DistributedBuffer<1x1x1x14592xui8, {order = #NCHW, strides = [14592, 14592, 14592, 1]}, @CMX_NN, {mode = "DUPLICATED", num_clusters = 4 : i64}> loc(#loc95)
    } loc(#loc95)
    VPURT.Task updates(%3 : !VPURT.Barrier) attributes {isTrailingSWLayer = false} {
      %175 = VPUIP.NNDMA {port = 0 : i64} inputs(%124 : memref<1xui32, @Register>) outputs(%125 : memref<1xui32, [@CMX_NN, 0]>) -> memref<1xui32, [@CMX_NN, 0]> loc(#loc68)
    } loc(#loc68)
    VPURT.Task waits(%3 : !VPURT.Barrier) updates(%4 : !VPURT.Barrier) attributes {cycleBegin = 9126 : i64, cycleEnd = 20114 : i64, isTrailingSWLayer = false} {
      %175:2 = VPUIP.NCEClusterTask {is_segmented, kernel_padding = {bottom = 0 : i64, left = 0 : i64, right = 0 : i64, top = 0 : i64}, kernel_size = [3, 3], kernel_strides = [1, 1], task_type = "CONV"} input(%25 : memref<1x16x16x62xf16, #NHWC, [@CMX_NN, 0]>) weights(%75 : memref<48x16x3x3xf16, #NHWC, [@CMX_NN, 0]>) weight_table(%71 : memref<48x1x1x4xsi32, [@CMX_NN, 0]>) parent_input(%24 : !VPUIP.DistributedBuffer<1x16x62x62xf16, #NHWC, @CMX_NN, {mode = "SEGMENTED", num_tiles = [1, 1, 4, 1], num_clusters = 4 : i64}>) parent_output(%33 : !VPUIP.DistributedBuffer<1x48x60x60xf16, #NHWC, @CMX_NN, {mode = "SEGMENTED", num_tiles = [1, 1, 4, 1], num_clusters = 4 : i64}>) outputs(%38 : memref<1x48x15x60xf16, #NHWC, [@CMX_NN, 0]>) profiling_data(%79 : memref<40xui64, [@CMX_NN, 0]>) -> memref<1x48x15x60xf16, #NHWC, [@CMX_NN, 0]>, memref<40xui64, [@CMX_NN, 0]> variants : {
        DPUTask {cluster_id = 0 : i64, mpe_mode = "VECTOR_FP16", outEnd = [15, 2, 47], outStart = [0, 0, 0], pad = {bottom = 0 : i64, left = 0 : i64, right = 0 : i64, top = 0 : i64}} loc(#loc8)
        DPUTask {cluster_id = 0 : i64, mpe_mode = "VECTOR_FP16", outEnd = [31, 2, 47], outStart = [16, 0, 0], pad = {bottom = 0 : i64, left = 0 : i64, right = 0 : i64, top = 0 : i64}} loc(#loc8)
        DPUTask {cluster_id = 0 : i64, mpe_mode = "VECTOR_FP16", outEnd = [47, 2, 47], outStart = [32, 0, 0], pad = {bottom = 0 : i64, left = 0 : i64, right = 0 : i64, top = 0 : i64}} loc(#loc8)
        DPUTask {cluster_id = 0 : i64, mpe_mode = "VECTOR_FP16", outEnd = [59, 2, 47], outStart = [48, 0, 0], pad = {bottom = 0 : i64, left = 0 : i64, right = 0 : i64, top = 0 : i64}} loc(#loc8)
        DPUTask {cluster_id = 0 : i64, mpe_mode = "VECTOR_FP16", outEnd = [15, 5, 47], outStart = [0, 3, 0], pad = {bottom = 0 : i64, left = 0 : i64, right = 0 : i64, top = 0 : i64}} loc(#loc8)
        DPUTask {cluster_id = 0 : i64, mpe_mode = "VECTOR_FP16", outEnd = [31, 5, 47], outStart = [16, 3, 0], pad = {bottom = 0 : i64, left = 0 : i64, right = 0 : i64, top = 0 : i64}} loc(#loc8)
        DPUTask {cluster_id = 0 : i64, mpe_mode = "VECTOR_FP16", outEnd = [47, 5, 47], outStart = [32, 3, 0], pad = {bottom = 0 : i64, left = 0 : i64, right = 0 : i64, top = 0 : i64}} loc(#loc8)
        DPUTask {cluster_id = 0 : i64, mpe_mode = "VECTOR_FP16", outEnd = [59, 5, 47], outStart = [48, 3, 0], pad = {bottom = 0 : i64, left = 0 : i64, right = 0 : i64, top = 0 : i64}} loc(#loc8)
        DPUTask {cluster_id = 0 : i64, mpe_mode = "VECTOR_FP16", outEnd = [15, 8, 47], outStart = [0, 6, 0], pad = {bottom = 0 : i64, left = 0 : i64, right = 0 : i64, top = 0 : i64}} loc(#loc8)
        DPUTask {cluster_id = 0 : i64, mpe_mode = "VECTOR_FP16", outEnd = [31, 8, 47], outStart = [16, 6, 0], pad = {bottom = 0 : i64, left = 0 : i64, right = 0 : i64, top = 0 : i64}} loc(#loc8)
        DPUTask {cluster_id = 0 : i64, mpe_mode = "VECTOR_FP16", outEnd = [47, 8, 47], outStart = [32, 6, 0], pad = {bottom = 0 : i64, left = 0 : i64, right = 0 : i64, top = 0 : i64}} loc(#loc8)
        DPUTask {cluster_id = 0 : i64, mpe_mode = "VECTOR_FP16", outEnd = [59, 8, 47], outStart = [48, 6, 0], pad = {bottom = 0 : i64, left = 0 : i64, right = 0 : i64, top = 0 : i64}} loc(#loc8)
        DPUTask {cluster_id = 0 : i64, mpe_mode = "VECTOR_FP16", outEnd = [15, 11, 47], outStart = [0, 9, 0], pad = {bottom = 0 : i64, left = 0 : i64, right = 0 : i64, top = 0 : i64}} loc(#loc8)
        DPUTask {cluster_id = 0 : i64, mpe_mode = "VECTOR_FP16", outEnd = [31, 11, 47], outStart = [16, 9, 0], pad = {bottom = 0 : i64, left = 0 : i64, right = 0 : i64, top = 0 : i64}} loc(#loc8)
        DPUTask {cluster_id = 0 : i64, mpe_mode = "VECTOR_FP16", outEnd = [47, 11, 47], outStart = [32, 9, 0], pad = {bottom = 0 : i64, left = 0 : i64, right = 0 : i64, top = 0 : i64}} loc(#loc8)
        DPUTask {cluster_id = 0 : i64, mpe_mode = "VECTOR_FP16", outEnd = [59, 11, 47], outStart = [48, 9, 0], pad = {bottom = 0 : i64, left = 0 : i64, right = 0 : i64, top = 0 : i64}} loc(#loc8)
        DPUTask {cluster_id = 0 : i64, mpe_mode = "VECTOR_FP16", outEnd = [15, 14, 47], outStart = [0, 12, 0], pad = {bottom = 0 : i64, left = 0 : i64, right = 0 : i64, top = 0 : i64}} loc(#loc8)
        DPUTask {cluster_id = 0 : i64, mpe_mode = "VECTOR_FP16", outEnd = [31, 14, 47], outStart = [16, 12, 0], pad = {bottom = 0 : i64, left = 0 : i64, right = 0 : i64, top = 0 : i64}} loc(#loc8)
        DPUTask {cluster_id = 0 : i64, mpe_mode = "VECTOR_FP16", outEnd = [47, 14, 47], outStart = [32, 12, 0], pad = {bottom = 0 : i64, left = 0 : i64, right = 0 : i64, top = 0 : i64}} loc(#loc8)
        DPUTask {cluster_id = 0 : i64, mpe_mode = "VECTOR_FP16", outEnd = [59, 14, 47], outStart = [48, 12, 0], pad = {bottom = 0 : i64, left = 0 : i64, right = 0 : i64, top = 0 : i64}} loc(#loc8)
      } PPE : {
        PPETask "LRELU" {clamp_high = 2147483647 : i64, clamp_low = 0 : i64, lrelu_mult = 1 : i64, lrelu_shift = 0 : i64} loc(#loc8)
      } loc(#loc96)
    } loc(#loc96)
    VPURT.Task waits(%3 : !VPURT.Barrier) updates(%4 : !VPURT.Barrier) attributes {cycleBegin = 9126 : i64, cycleEnd = 20114 : i64, isTrailingSWLayer = false} {
      %175:2 = VPUIP.NCEClusterTask {is_segmented, kernel_padding = {bottom = 0 : i64, left = 0 : i64, right = 0 : i64, top = 0 : i64}, kernel_size = [3, 3], kernel_strides = [1, 1], task_type = "CONV"} input(%26 : memref<1x16x16x62xf16, #NHWC, [@CMX_NN, 1]>) weights(%76 : memref<48x16x3x3xf16, #NHWC, [@CMX_NN, 1]>) weight_table(%72 : memref<48x1x1x4xsi32, [@CMX_NN, 1]>) parent_input(%24 : !VPUIP.DistributedBuffer<1x16x62x62xf16, #NHWC, @CMX_NN, {mode = "SEGMENTED", num_tiles = [1, 1, 4, 1], num_clusters = 4 : i64}>) parent_output(%33 : !VPUIP.DistributedBuffer<1x48x60x60xf16, #NHWC, @CMX_NN, {mode = "SEGMENTED", num_tiles = [1, 1, 4, 1], num_clusters = 4 : i64}>) outputs(%39 : memref<1x48x15x60xf16, #NHWC, [@CMX_NN, 1]>) profiling_data(%80 : memref<40xui64, [@CMX_NN, 1]>) -> memref<1x48x15x60xf16, #NHWC, [@CMX_NN, 1]>, memref<40xui64, [@CMX_NN, 1]> variants : {
        DPUTask {cluster_id = 1 : i64, mpe_mode = "VECTOR_FP16", outEnd = [15, 17, 47], outStart = [0, 15, 0], pad = {bottom = 0 : i64, left = 0 : i64, right = 0 : i64, top = 0 : i64}} loc(#loc8)
        DPUTask {cluster_id = 1 : i64, mpe_mode = "VECTOR_FP16", outEnd = [31, 17, 47], outStart = [16, 15, 0], pad = {bottom = 0 : i64, left = 0 : i64, right = 0 : i64, top = 0 : i64}} loc(#loc8)
        DPUTask {cluster_id = 1 : i64, mpe_mode = "VECTOR_FP16", outEnd = [47, 17, 47], outStart = [32, 15, 0], pad = {bottom = 0 : i64, left = 0 : i64, right = 0 : i64, top = 0 : i64}} loc(#loc8)
        DPUTask {cluster_id = 1 : i64, mpe_mode = "VECTOR_FP16", outEnd = [59, 17, 47], outStart = [48, 15, 0], pad = {bottom = 0 : i64, left = 0 : i64, right = 0 : i64, top = 0 : i64}} loc(#loc8)
        DPUTask {cluster_id = 1 : i64, mpe_mode = "VECTOR_FP16", outEnd = [15, 20, 47], outStart = [0, 18, 0], pad = {bottom = 0 : i64, left = 0 : i64, right = 0 : i64, top = 0 : i64}} loc(#loc8)
        DPUTask {cluster_id = 1 : i64, mpe_mode = "VECTOR_FP16", outEnd = [31, 20, 47], outStart = [16, 18, 0], pad = {bottom = 0 : i64, left = 0 : i64, right = 0 : i64, top = 0 : i64}} loc(#loc8)
        DPUTask {cluster_id = 1 : i64, mpe_mode = "VECTOR_FP16", outEnd = [47, 20, 47], outStart = [32, 18, 0], pad = {bottom = 0 : i64, left = 0 : i64, right = 0 : i64, top = 0 : i64}} loc(#loc8)
        DPUTask {cluster_id = 1 : i64, mpe_mode = "VECTOR_FP16", outEnd = [59, 20, 47], outStart = [48, 18, 0], pad = {bottom = 0 : i64, left = 0 : i64, right = 0 : i64, top = 0 : i64}} loc(#loc8)
        DPUTask {cluster_id = 1 : i64, mpe_mode = "VECTOR_FP16", outEnd = [15, 23, 47], outStart = [0, 21, 0], pad = {bottom = 0 : i64, left = 0 : i64, right = 0 : i64, top = 0 : i64}} loc(#loc8)
        DPUTask {cluster_id = 1 : i64, mpe_mode = "VECTOR_FP16", outEnd = [31, 23, 47], outStart = [16, 21, 0], pad = {bottom = 0 : i64, left = 0 : i64, right = 0 : i64, top = 0 : i64}} loc(#loc8)
        DPUTask {cluster_id = 1 : i64, mpe_mode = "VECTOR_FP16", outEnd = [47, 23, 47], outStart = [32, 21, 0], pad = {bottom = 0 : i64, left = 0 : i64, right = 0 : i64, top = 0 : i64}} loc(#loc8)
        DPUTask {cluster_id = 1 : i64, mpe_mode = "VECTOR_FP16", outEnd = [59, 23, 47], outStart = [48, 21, 0], pad = {bottom = 0 : i64, left = 0 : i64, right = 0 : i64, top = 0 : i64}} loc(#loc8)
        DPUTask {cluster_id = 1 : i64, mpe_mode = "VECTOR_FP16", outEnd = [15, 26, 47], outStart = [0, 24, 0], pad = {bottom = 0 : i64, left = 0 : i64, right = 0 : i64, top = 0 : i64}} loc(#loc8)
        DPUTask {cluster_id = 1 : i64, mpe_mode = "VECTOR_FP16", outEnd = [31, 26, 47], outStart = [16, 24, 0], pad = {bottom = 0 : i64, left = 0 : i64, right = 0 : i64, top = 0 : i64}} loc(#loc8)
        DPUTask {cluster_id = 1 : i64, mpe_mode = "VECTOR_FP16", outEnd = [47, 26, 47], outStart = [32, 24, 0], pad = {bottom = 0 : i64, left = 0 : i64, right = 0 : i64, top = 0 : i64}} loc(#loc8)
        DPUTask {cluster_id = 1 : i64, mpe_mode = "VECTOR_FP16", outEnd = [59, 26, 47], outStart = [48, 24, 0], pad = {bottom = 0 : i64, left = 0 : i64, right = 0 : i64, top = 0 : i64}} loc(#loc8)
        DPUTask {cluster_id = 1 : i64, mpe_mode = "VECTOR_FP16", outEnd = [15, 29, 47], outStart = [0, 27, 0], pad = {bottom = 0 : i64, left = 0 : i64, right = 0 : i64, top = 0 : i64}} loc(#loc8)
        DPUTask {cluster_id = 1 : i64, mpe_mode = "VECTOR_FP16", outEnd = [31, 29, 47], outStart = [16, 27, 0], pad = {bottom = 0 : i64, left = 0 : i64, right = 0 : i64, top = 0 : i64}} loc(#loc8)
        DPUTask {cluster_id = 1 : i64, mpe_mode = "VECTOR_FP16", outEnd = [47, 29, 47], outStart = [32, 27, 0], pad = {bottom = 0 : i64, left = 0 : i64, right = 0 : i64, top = 0 : i64}} loc(#loc8)
        DPUTask {cluster_id = 1 : i64, mpe_mode = "VECTOR_FP16", outEnd = [59, 29, 47], outStart = [48, 27, 0], pad = {bottom = 0 : i64, left = 0 : i64, right = 0 : i64, top = 0 : i64}} loc(#loc8)
      } PPE : {
        PPETask "LRELU" {clamp_high = 2147483647 : i64, clamp_low = 0 : i64, lrelu_mult = 1 : i64, lrelu_shift = 0 : i64} loc(#loc8)
      } loc(#loc97)
    } loc(#loc97)
    VPURT.Task waits(%3 : !VPURT.Barrier) updates(%4 : !VPURT.Barrier) attributes {cycleBegin = 9126 : i64, cycleEnd = 20114 : i64, isTrailingSWLayer = false} {
      %175:2 = VPUIP.NCEClusterTask {is_segmented, kernel_padding = {bottom = 0 : i64, left = 0 : i64, right = 0 : i64, top = 0 : i64}, kernel_size = [3, 3], kernel_strides = [1, 1], task_type = "CONV"} input(%27 : memref<1x16x16x62xf16, #NHWC, [@CMX_NN, 2]>) weights(%77 : memref<48x16x3x3xf16, #NHWC, [@CMX_NN, 2]>) weight_table(%73 : memref<48x1x1x4xsi32, [@CMX_NN, 2]>) parent_input(%24 : !VPUIP.DistributedBuffer<1x16x62x62xf16, #NHWC, @CMX_NN, {mode = "SEGMENTED", num_tiles = [1, 1, 4, 1], num_clusters = 4 : i64}>) parent_output(%33 : !VPUIP.DistributedBuffer<1x48x60x60xf16, #NHWC, @CMX_NN, {mode = "SEGMENTED", num_tiles = [1, 1, 4, 1], num_clusters = 4 : i64}>) outputs(%40 : memref<1x48x15x60xf16, #NHWC, [@CMX_NN, 2]>) profiling_data(%81 : memref<40xui64, [@CMX_NN, 2]>) -> memref<1x48x15x60xf16, #NHWC, [@CMX_NN, 2]>, memref<40xui64, [@CMX_NN, 2]> variants : {
        DPUTask {cluster_id = 2 : i64, mpe_mode = "VECTOR_FP16", outEnd = [15, 32, 47], outStart = [0, 30, 0], pad = {bottom = 0 : i64, left = 0 : i64, right = 0 : i64, top = 0 : i64}} loc(#loc8)
        DPUTask {cluster_id = 2 : i64, mpe_mode = "VECTOR_FP16", outEnd = [31, 32, 47], outStart = [16, 30, 0], pad = {bottom = 0 : i64, left = 0 : i64, right = 0 : i64, top = 0 : i64}} loc(#loc8)
        DPUTask {cluster_id = 2 : i64, mpe_mode = "VECTOR_FP16", outEnd = [47, 32, 47], outStart = [32, 30, 0], pad = {bottom = 0 : i64, left = 0 : i64, right = 0 : i64, top = 0 : i64}} loc(#loc8)
        DPUTask {cluster_id = 2 : i64, mpe_mode = "VECTOR_FP16", outEnd = [59, 32, 47], outStart = [48, 30, 0], pad = {bottom = 0 : i64, left = 0 : i64, right = 0 : i64, top = 0 : i64}} loc(#loc8)
        DPUTask {cluster_id = 2 : i64, mpe_mode = "VECTOR_FP16", outEnd = [15, 35, 47], outStart = [0, 33, 0], pad = {bottom = 0 : i64, left = 0 : i64, right = 0 : i64, top = 0 : i64}} loc(#loc8)
        DPUTask {cluster_id = 2 : i64, mpe_mode = "VECTOR_FP16", outEnd = [31, 35, 47], outStart = [16, 33, 0], pad = {bottom = 0 : i64, left = 0 : i64, right = 0 : i64, top = 0 : i64}} loc(#loc8)
        DPUTask {cluster_id = 2 : i64, mpe_mode = "VECTOR_FP16", outEnd = [47, 35, 47], outStart = [32, 33, 0], pad = {bottom = 0 : i64, left = 0 : i64, right = 0 : i64, top = 0 : i64}} loc(#loc8)
        DPUTask {cluster_id = 2 : i64, mpe_mode = "VECTOR_FP16", outEnd = [59, 35, 47], outStart = [48, 33, 0], pad = {bottom = 0 : i64, left = 0 : i64, right = 0 : i64, top = 0 : i64}} loc(#loc8)
        DPUTask {cluster_id = 2 : i64, mpe_mode = "VECTOR_FP16", outEnd = [15, 38, 47], outStart = [0, 36, 0], pad = {bottom = 0 : i64, left = 0 : i64, right = 0 : i64, top = 0 : i64}} loc(#loc8)
        DPUTask {cluster_id = 2 : i64, mpe_mode = "VECTOR_FP16", outEnd = [31, 38, 47], outStart = [16, 36, 0], pad = {bottom = 0 : i64, left = 0 : i64, right = 0 : i64, top = 0 : i64}} loc(#loc8)
        DPUTask {cluster_id = 2 : i64, mpe_mode = "VECTOR_FP16", outEnd = [47, 38, 47], outStart = [32, 36, 0], pad = {bottom = 0 : i64, left = 0 : i64, right = 0 : i64, top = 0 : i64}} loc(#loc8)
        DPUTask {cluster_id = 2 : i64, mpe_mode = "VECTOR_FP16", outEnd = [59, 38, 47], outStart = [48, 36, 0], pad = {bottom = 0 : i64, left = 0 : i64, right = 0 : i64, top = 0 : i64}} loc(#loc8)
        DPUTask {cluster_id = 2 : i64, mpe_mode = "VECTOR_FP16", outEnd = [15, 41, 47], outStart = [0, 39, 0], pad = {bottom = 0 : i64, left = 0 : i64, right = 0 : i64, top = 0 : i64}} loc(#loc8)
        DPUTask {cluster_id = 2 : i64, mpe_mode = "VECTOR_FP16", outEnd = [31, 41, 47], outStart = [16, 39, 0], pad = {bottom = 0 : i64, left = 0 : i64, right = 0 : i64, top = 0 : i64}} loc(#loc8)
        DPUTask {cluster_id = 2 : i64, mpe_mode = "VECTOR_FP16", outEnd = [47, 41, 47], outStart = [32, 39, 0], pad = {bottom = 0 : i64, left = 0 : i64, right = 0 : i64, top = 0 : i64}} loc(#loc8)
        DPUTask {cluster_id = 2 : i64, mpe_mode = "VECTOR_FP16", outEnd = [59, 41, 47], outStart = [48, 39, 0], pad = {bottom = 0 : i64, left = 0 : i64, right = 0 : i64, top = 0 : i64}} loc(#loc8)
        DPUTask {cluster_id = 2 : i64, mpe_mode = "VECTOR_FP16", outEnd = [15, 44, 47], outStart = [0, 42, 0], pad = {bottom = 0 : i64, left = 0 : i64, right = 0 : i64, top = 0 : i64}} loc(#loc8)
        DPUTask {cluster_id = 2 : i64, mpe_mode = "VECTOR_FP16", outEnd = [31, 44, 47], outStart = [16, 42, 0], pad = {bottom = 0 : i64, left = 0 : i64, right = 0 : i64, top = 0 : i64}} loc(#loc8)
        DPUTask {cluster_id = 2 : i64, mpe_mode = "VECTOR_FP16", outEnd = [47, 44, 47], outStart = [32, 42, 0], pad = {bottom = 0 : i64, left = 0 : i64, right = 0 : i64, top = 0 : i64}} loc(#loc8)
        DPUTask {cluster_id = 2 : i64, mpe_mode = "VECTOR_FP16", outEnd = [59, 44, 47], outStart = [48, 42, 0], pad = {bottom = 0 : i64, left = 0 : i64, right = 0 : i64, top = 0 : i64}} loc(#loc8)
      } PPE : {
        PPETask "LRELU" {clamp_high = 2147483647 : i64, clamp_low = 0 : i64, lrelu_mult = 1 : i64, lrelu_shift = 0 : i64} loc(#loc8)
      } loc(#loc98)
    } loc(#loc98)
    VPURT.Task waits(%3 : !VPURT.Barrier) updates(%4 : !VPURT.Barrier) attributes {cycleBegin = 9126 : i64, cycleEnd = 20114 : i64, isTrailingSWLayer = false} {
      %175:2 = VPUIP.NCEClusterTask {is_segmented, kernel_padding = {bottom = 0 : i64, left = 0 : i64, right = 0 : i64, top = 0 : i64}, kernel_size = [3, 3], kernel_strides = [1, 1], task_type = "CONV"} input(%28 : memref<1x16x14x62xf16, #NHWC, [@CMX_NN, 3]>) weights(%78 : memref<48x16x3x3xf16, #NHWC, [@CMX_NN, 3]>) weight_table(%74 : memref<48x1x1x4xsi32, [@CMX_NN, 3]>) parent_input(%24 : !VPUIP.DistributedBuffer<1x16x62x62xf16, #NHWC, @CMX_NN, {mode = "SEGMENTED", num_tiles = [1, 1, 4, 1], num_clusters = 4 : i64}>) parent_output(%33 : !VPUIP.DistributedBuffer<1x48x60x60xf16, #NHWC, @CMX_NN, {mode = "SEGMENTED", num_tiles = [1, 1, 4, 1], num_clusters = 4 : i64}>) outputs(%41 : memref<1x48x15x60xf16, #NHWC, [@CMX_NN, 3]>) profiling_data(%82 : memref<40xui64, [@CMX_NN, 3]>) -> memref<1x48x15x60xf16, #NHWC, [@CMX_NN, 3]>, memref<40xui64, [@CMX_NN, 3]> variants : {
        DPUTask {cluster_id = 3 : i64, mpe_mode = "VECTOR_FP16", outEnd = [15, 47, 47], outStart = [0, 45, 0], pad = {bottom = 0 : i64, left = 0 : i64, right = 0 : i64, top = 0 : i64}} loc(#loc8)
        DPUTask {cluster_id = 3 : i64, mpe_mode = "VECTOR_FP16", outEnd = [31, 47, 47], outStart = [16, 45, 0], pad = {bottom = 0 : i64, left = 0 : i64, right = 0 : i64, top = 0 : i64}} loc(#loc8)
        DPUTask {cluster_id = 3 : i64, mpe_mode = "VECTOR_FP16", outEnd = [47, 47, 47], outStart = [32, 45, 0], pad = {bottom = 0 : i64, left = 0 : i64, right = 0 : i64, top = 0 : i64}} loc(#loc8)
        DPUTask {cluster_id = 3 : i64, mpe_mode = "VECTOR_FP16", outEnd = [59, 47, 47], outStart = [48, 45, 0], pad = {bottom = 0 : i64, left = 0 : i64, right = 0 : i64, top = 0 : i64}} loc(#loc8)
        DPUTask {cluster_id = 3 : i64, mpe_mode = "VECTOR_FP16", outEnd = [15, 50, 47], outStart = [0, 48, 0], pad = {bottom = 0 : i64, left = 0 : i64, right = 0 : i64, top = 0 : i64}} loc(#loc8)
        DPUTask {cluster_id = 3 : i64, mpe_mode = "VECTOR_FP16", outEnd = [31, 50, 47], outStart = [16, 48, 0], pad = {bottom = 0 : i64, left = 0 : i64, right = 0 : i64, top = 0 : i64}} loc(#loc8)
        DPUTask {cluster_id = 3 : i64, mpe_mode = "VECTOR_FP16", outEnd = [47, 50, 47], outStart = [32, 48, 0], pad = {bottom = 0 : i64, left = 0 : i64, right = 0 : i64, top = 0 : i64}} loc(#loc8)
        DPUTask {cluster_id = 3 : i64, mpe_mode = "VECTOR_FP16", outEnd = [59, 50, 47], outStart = [48, 48, 0], pad = {bottom = 0 : i64, left = 0 : i64, right = 0 : i64, top = 0 : i64}} loc(#loc8)
        DPUTask {cluster_id = 3 : i64, mpe_mode = "VECTOR_FP16", outEnd = [15, 53, 47], outStart = [0, 51, 0], pad = {bottom = 0 : i64, left = 0 : i64, right = 0 : i64, top = 0 : i64}} loc(#loc8)
        DPUTask {cluster_id = 3 : i64, mpe_mode = "VECTOR_FP16", outEnd = [31, 53, 47], outStart = [16, 51, 0], pad = {bottom = 0 : i64, left = 0 : i64, right = 0 : i64, top = 0 : i64}} loc(#loc8)
        DPUTask {cluster_id = 3 : i64, mpe_mode = "VECTOR_FP16", outEnd = [47, 53, 47], outStart = [32, 51, 0], pad = {bottom = 0 : i64, left = 0 : i64, right = 0 : i64, top = 0 : i64}} loc(#loc8)
        DPUTask {cluster_id = 3 : i64, mpe_mode = "VECTOR_FP16", outEnd = [59, 53, 47], outStart = [48, 51, 0], pad = {bottom = 0 : i64, left = 0 : i64, right = 0 : i64, top = 0 : i64}} loc(#loc8)
        DPUTask {cluster_id = 3 : i64, mpe_mode = "VECTOR_FP16", outEnd = [15, 56, 47], outStart = [0, 54, 0], pad = {bottom = 0 : i64, left = 0 : i64, right = 0 : i64, top = 0 : i64}} loc(#loc8)
        DPUTask {cluster_id = 3 : i64, mpe_mode = "VECTOR_FP16", outEnd = [31, 56, 47], outStart = [16, 54, 0], pad = {bottom = 0 : i64, left = 0 : i64, right = 0 : i64, top = 0 : i64}} loc(#loc8)
        DPUTask {cluster_id = 3 : i64, mpe_mode = "VECTOR_FP16", outEnd = [47, 56, 47], outStart = [32, 54, 0], pad = {bottom = 0 : i64, left = 0 : i64, right = 0 : i64, top = 0 : i64}} loc(#loc8)
        DPUTask {cluster_id = 3 : i64, mpe_mode = "VECTOR_FP16", outEnd = [59, 56, 47], outStart = [48, 54, 0], pad = {bottom = 0 : i64, left = 0 : i64, right = 0 : i64, top = 0 : i64}} loc(#loc8)
        DPUTask {cluster_id = 3 : i64, mpe_mode = "VECTOR_FP16", outEnd = [15, 59, 47], outStart = [0, 57, 0], pad = {bottom = 0 : i64, left = 0 : i64, right = 0 : i64, top = 0 : i64}} loc(#loc8)
        DPUTask {cluster_id = 3 : i64, mpe_mode = "VECTOR_FP16", outEnd = [31, 59, 47], outStart = [16, 57, 0], pad = {bottom = 0 : i64, left = 0 : i64, right = 0 : i64, top = 0 : i64}} loc(#loc8)
        DPUTask {cluster_id = 3 : i64, mpe_mode = "VECTOR_FP16", outEnd = [47, 59, 47], outStart = [32, 57, 0], pad = {bottom = 0 : i64, left = 0 : i64, right = 0 : i64, top = 0 : i64}} loc(#loc8)
        DPUTask {cluster_id = 3 : i64, mpe_mode = "VECTOR_FP16", outEnd = [59, 59, 47], outStart = [48, 57, 0], pad = {bottom = 0 : i64, left = 0 : i64, right = 0 : i64, top = 0 : i64}} loc(#loc8)
      } PPE : {
        PPETask "LRELU" {clamp_high = 2147483647 : i64, clamp_low = 0 : i64, lrelu_mult = 1 : i64, lrelu_shift = 0 : i64} loc(#loc8)
      } loc(#loc99)
    } loc(#loc99)
    VPURT.Task attributes {isTrailingSWLayer = false} {
      %175 = VPUIP.NNDMA {port = 0 : i64} inputs(%126 : memref<1xui32, @Register>) outputs(%127 : memref<1xui32, [@CMX_NN, 0]>) -> memref<1xui32, [@CMX_NN, 0]> loc(#loc69)
    } loc(#loc69)
    VPURT.Task attributes {cycleBegin = 9126 : i64, cycleEnd = 9154 : i64, isTrailingSWLayer = false} {
      %175 = VPUIP.NNDMA {port = 0 : i64} inputs(%cst : memref<1x1x1x784xui8>) outputs(%52 : !VPUIP.DistributedBuffer<1x1x1x784xui8, {order = #NCHW, strides = [784, 784, 784, 1]}, @CMX_NN, {mode = "DUPLICATED", num_clusters = 4 : i64}>) -> !VPUIP.DistributedBuffer<1x1x1x784xui8, {order = #NCHW, strides = [784, 784, 784, 1]}, @CMX_NN, {mode = "DUPLICATED", num_clusters = 4 : i64}> loc(#loc100)
    } loc(#loc100)
    VPURT.Task updates(%4 : !VPURT.Barrier) attributes {isTrailingSWLayer = false} {
      %175 = VPUIP.NNDMA {port = 0 : i64} inputs(%128 : memref<1xui32, @Register>) outputs(%129 : memref<1xui32, [@CMX_NN, 0]>) -> memref<1xui32, [@CMX_NN, 0]> loc(#loc70)
    } loc(#loc70)
    VPURT.Task waits(%4 : !VPURT.Barrier) updates(%5 : !VPURT.Barrier) attributes {cycleBegin = 20114 : i64, cycleEnd = 22019 : i64, isTrailingSWLayer = false} {
      %175:2 = VPUIP.NCEClusterTask {activation_window_channel_length = 27 : i64, is_segmented, kernel_padding = {bottom = 1 : i64, left = 0 : i64, right = 1 : i64, top = 0 : i64}, kernel_size = [3, 3], kernel_strides = [2, 2], task_type = "MAXPOOL"} input(%34 : memref<1x48x15x60xf16, #NHWC, [@CMX_NN, 0]>) weight_table(%83 : memref<48x1x1x4xsi32, [@CMX_NN, 0]>) activation_window(%87 : memref<1x1x1x16xui8, [@CMX_NN, 0]>) parent_input(%33 : !VPUIP.DistributedBuffer<1x48x60x60xf16, #NHWC, @CMX_NN, {mode = "SEGMENTED", num_tiles = [1, 1, 4, 1], num_clusters = 4 : i64}>) parent_output(%43 : !VPUIP.DistributedBuffer<1x48x30x30xf16, #NHWC, @CMX_NN, {mode = "SEGMENTED", num_tiles = [1, 1, 4, 1], num_clusters = 4 : i64}>) outputs(%48 : memref<1x48x8x30xf16, #NHWC, [@CMX_NN, 0]>) profiling_data(%91 : memref<24xui64, [@CMX_NN, 0]>) -> memref<1x48x8x30xf16, #NHWC, [@CMX_NN, 0]>, memref<24xui64, [@CMX_NN, 0]> variants : {
        DPUTask {cluster_id = 0 : i64, mpe_mode = "VECTOR_FP16", outEnd = [11, 1, 47], outStart = [0, 0, 0], pad = {bottom = 0 : i64, left = 0 : i64, right = 0 : i64, top = 0 : i64}} loc(#loc22)
        DPUTask {cluster_id = 0 : i64, mpe_mode = "VECTOR_FP16", outEnd = [23, 1, 47], outStart = [12, 0, 0], pad = {bottom = 0 : i64, left = 0 : i64, right = 0 : i64, top = 0 : i64}} loc(#loc22)
        DPUTask {cluster_id = 0 : i64, mpe_mode = "VECTOR_FP16", outEnd = [29, 1, 47], outStart = [24, 0, 0], pad = {bottom = 0 : i64, left = 0 : i64, right = 1 : i64, top = 0 : i64}} loc(#loc22)
        DPUTask {cluster_id = 0 : i64, mpe_mode = "VECTOR_FP16", outEnd = [11, 3, 47], outStart = [0, 2, 0], pad = {bottom = 0 : i64, left = 0 : i64, right = 0 : i64, top = 0 : i64}} loc(#loc22)
        DPUTask {cluster_id = 0 : i64, mpe_mode = "VECTOR_FP16", outEnd = [23, 3, 47], outStart = [12, 2, 0], pad = {bottom = 0 : i64, left = 0 : i64, right = 0 : i64, top = 0 : i64}} loc(#loc22)
        DPUTask {cluster_id = 0 : i64, mpe_mode = "VECTOR_FP16", outEnd = [29, 3, 47], outStart = [24, 2, 0], pad = {bottom = 0 : i64, left = 0 : i64, right = 1 : i64, top = 0 : i64}} loc(#loc22)
        DPUTask {cluster_id = 0 : i64, mpe_mode = "VECTOR_FP16", outEnd = [11, 5, 47], outStart = [0, 4, 0], pad = {bottom = 0 : i64, left = 0 : i64, right = 0 : i64, top = 0 : i64}} loc(#loc22)
        DPUTask {cluster_id = 0 : i64, mpe_mode = "VECTOR_FP16", outEnd = [23, 5, 47], outStart = [12, 4, 0], pad = {bottom = 0 : i64, left = 0 : i64, right = 0 : i64, top = 0 : i64}} loc(#loc22)
        DPUTask {cluster_id = 0 : i64, mpe_mode = "VECTOR_FP16", outEnd = [29, 5, 47], outStart = [24, 4, 0], pad = {bottom = 0 : i64, left = 0 : i64, right = 1 : i64, top = 0 : i64}} loc(#loc22)
        DPUTask {cluster_id = 0 : i64, mpe_mode = "VECTOR_FP16", outEnd = [11, 7, 47], outStart = [0, 6, 0], pad = {bottom = 0 : i64, left = 0 : i64, right = 0 : i64, top = 0 : i64}} loc(#loc22)
        DPUTask {cluster_id = 0 : i64, mpe_mode = "VECTOR_FP16", outEnd = [23, 7, 47], outStart = [12, 6, 0], pad = {bottom = 0 : i64, left = 0 : i64, right = 0 : i64, top = 0 : i64}} loc(#loc22)
        DPUTask {cluster_id = 0 : i64, mpe_mode = "VECTOR_FP16", outEnd = [29, 7, 47], outStart = [24, 6, 0], pad = {bottom = 0 : i64, left = 0 : i64, right = 1 : i64, top = 0 : i64}} loc(#loc22)
      } PPE : {
      } loc(#loc101)
    } loc(#loc101)
    VPURT.Task waits(%4 : !VPURT.Barrier) updates(%5 : !VPURT.Barrier) attributes {cycleBegin = 20114 : i64, cycleEnd = 22019 : i64, isTrailingSWLayer = false} {
      %175:2 = VPUIP.NCEClusterTask {activation_window_channel_length = 27 : i64, is_segmented, kernel_padding = {bottom = 1 : i64, left = 0 : i64, right = 1 : i64, top = 0 : i64}, kernel_size = [3, 3], kernel_strides = [2, 2], task_type = "MAXPOOL"} input(%35 : memref<1x48x15x60xf16, #NHWC, [@CMX_NN, 1]>) weight_table(%84 : memref<48x1x1x4xsi32, [@CMX_NN, 1]>) activation_window(%88 : memref<1x1x1x16xui8, [@CMX_NN, 1]>) parent_input(%33 : !VPUIP.DistributedBuffer<1x48x60x60xf16, #NHWC, @CMX_NN, {mode = "SEGMENTED", num_tiles = [1, 1, 4, 1], num_clusters = 4 : i64}>) parent_output(%43 : !VPUIP.DistributedBuffer<1x48x30x30xf16, #NHWC, @CMX_NN, {mode = "SEGMENTED", num_tiles = [1, 1, 4, 1], num_clusters = 4 : i64}>) outputs(%49 : memref<1x48x8x30xf16, #NHWC, [@CMX_NN, 1]>) profiling_data(%92 : memref<24xui64, [@CMX_NN, 1]>) -> memref<1x48x8x30xf16, #NHWC, [@CMX_NN, 1]>, memref<24xui64, [@CMX_NN, 1]> variants : {
        DPUTask {cluster_id = 1 : i64, mpe_mode = "VECTOR_FP16", outEnd = [11, 9, 47], outStart = [0, 8, 0], pad = {bottom = 0 : i64, left = 0 : i64, right = 0 : i64, top = 0 : i64}} loc(#loc22)
        DPUTask {cluster_id = 1 : i64, mpe_mode = "VECTOR_FP16", outEnd = [23, 9, 47], outStart = [12, 8, 0], pad = {bottom = 0 : i64, left = 0 : i64, right = 0 : i64, top = 0 : i64}} loc(#loc22)
        DPUTask {cluster_id = 1 : i64, mpe_mode = "VECTOR_FP16", outEnd = [29, 9, 47], outStart = [24, 8, 0], pad = {bottom = 0 : i64, left = 0 : i64, right = 1 : i64, top = 0 : i64}} loc(#loc22)
        DPUTask {cluster_id = 1 : i64, mpe_mode = "VECTOR_FP16", outEnd = [11, 11, 47], outStart = [0, 10, 0], pad = {bottom = 0 : i64, left = 0 : i64, right = 0 : i64, top = 0 : i64}} loc(#loc22)
        DPUTask {cluster_id = 1 : i64, mpe_mode = "VECTOR_FP16", outEnd = [23, 11, 47], outStart = [12, 10, 0], pad = {bottom = 0 : i64, left = 0 : i64, right = 0 : i64, top = 0 : i64}} loc(#loc22)
        DPUTask {cluster_id = 1 : i64, mpe_mode = "VECTOR_FP16", outEnd = [29, 11, 47], outStart = [24, 10, 0], pad = {bottom = 0 : i64, left = 0 : i64, right = 1 : i64, top = 0 : i64}} loc(#loc22)
        DPUTask {cluster_id = 1 : i64, mpe_mode = "VECTOR_FP16", outEnd = [11, 13, 47], outStart = [0, 12, 0], pad = {bottom = 0 : i64, left = 0 : i64, right = 0 : i64, top = 0 : i64}} loc(#loc22)
        DPUTask {cluster_id = 1 : i64, mpe_mode = "VECTOR_FP16", outEnd = [23, 13, 47], outStart = [12, 12, 0], pad = {bottom = 0 : i64, left = 0 : i64, right = 0 : i64, top = 0 : i64}} loc(#loc22)
        DPUTask {cluster_id = 1 : i64, mpe_mode = "VECTOR_FP16", outEnd = [29, 13, 47], outStart = [24, 12, 0], pad = {bottom = 0 : i64, left = 0 : i64, right = 1 : i64, top = 0 : i64}} loc(#loc22)
        DPUTask {cluster_id = 1 : i64, mpe_mode = "VECTOR_FP16", outEnd = [11, 15, 47], outStart = [0, 14, 0], pad = {bottom = 0 : i64, left = 0 : i64, right = 0 : i64, top = 0 : i64}} loc(#loc22)
        DPUTask {cluster_id = 1 : i64, mpe_mode = "VECTOR_FP16", outEnd = [23, 15, 47], outStart = [12, 14, 0], pad = {bottom = 0 : i64, left = 0 : i64, right = 0 : i64, top = 0 : i64}} loc(#loc22)
        DPUTask {cluster_id = 1 : i64, mpe_mode = "VECTOR_FP16", outEnd = [29, 15, 47], outStart = [24, 14, 0], pad = {bottom = 0 : i64, left = 0 : i64, right = 1 : i64, top = 0 : i64}} loc(#loc22)
      } PPE : {
      } loc(#loc102)
    } loc(#loc102)
    VPURT.Task waits(%4 : !VPURT.Barrier) updates(%5 : !VPURT.Barrier) attributes {cycleBegin = 20114 : i64, cycleEnd = 22019 : i64, isTrailingSWLayer = false} {
      %175:2 = VPUIP.NCEClusterTask {activation_window_channel_length = 27 : i64, is_segmented, kernel_padding = {bottom = 1 : i64, left = 0 : i64, right = 1 : i64, top = 0 : i64}, kernel_size = [3, 3], kernel_strides = [2, 2], task_type = "MAXPOOL"} input(%36 : memref<1x48x15x60xf16, #NHWC, [@CMX_NN, 2]>) weight_table(%85 : memref<48x1x1x4xsi32, [@CMX_NN, 2]>) activation_window(%89 : memref<1x1x1x16xui8, [@CMX_NN, 2]>) parent_input(%33 : !VPUIP.DistributedBuffer<1x48x60x60xf16, #NHWC, @CMX_NN, {mode = "SEGMENTED", num_tiles = [1, 1, 4, 1], num_clusters = 4 : i64}>) parent_output(%43 : !VPUIP.DistributedBuffer<1x48x30x30xf16, #NHWC, @CMX_NN, {mode = "SEGMENTED", num_tiles = [1, 1, 4, 1], num_clusters = 4 : i64}>) outputs(%50 : memref<1x48x8x30xf16, #NHWC, [@CMX_NN, 2]>) profiling_data(%93 : memref<24xui64, [@CMX_NN, 2]>) -> memref<1x48x8x30xf16, #NHWC, [@CMX_NN, 2]>, memref<24xui64, [@CMX_NN, 2]> variants : {
        DPUTask {cluster_id = 2 : i64, mpe_mode = "VECTOR_FP16", outEnd = [11, 17, 47], outStart = [0, 16, 0], pad = {bottom = 0 : i64, left = 0 : i64, right = 0 : i64, top = 0 : i64}} loc(#loc22)
        DPUTask {cluster_id = 2 : i64, mpe_mode = "VECTOR_FP16", outEnd = [23, 17, 47], outStart = [12, 16, 0], pad = {bottom = 0 : i64, left = 0 : i64, right = 0 : i64, top = 0 : i64}} loc(#loc22)
        DPUTask {cluster_id = 2 : i64, mpe_mode = "VECTOR_FP16", outEnd = [29, 17, 47], outStart = [24, 16, 0], pad = {bottom = 0 : i64, left = 0 : i64, right = 1 : i64, top = 0 : i64}} loc(#loc22)
        DPUTask {cluster_id = 2 : i64, mpe_mode = "VECTOR_FP16", outEnd = [11, 19, 47], outStart = [0, 18, 0], pad = {bottom = 0 : i64, left = 0 : i64, right = 0 : i64, top = 0 : i64}} loc(#loc22)
        DPUTask {cluster_id = 2 : i64, mpe_mode = "VECTOR_FP16", outEnd = [23, 19, 47], outStart = [12, 18, 0], pad = {bottom = 0 : i64, left = 0 : i64, right = 0 : i64, top = 0 : i64}} loc(#loc22)
        DPUTask {cluster_id = 2 : i64, mpe_mode = "VECTOR_FP16", outEnd = [29, 19, 47], outStart = [24, 18, 0], pad = {bottom = 0 : i64, left = 0 : i64, right = 1 : i64, top = 0 : i64}} loc(#loc22)
        DPUTask {cluster_id = 2 : i64, mpe_mode = "VECTOR_FP16", outEnd = [11, 21, 47], outStart = [0, 20, 0], pad = {bottom = 0 : i64, left = 0 : i64, right = 0 : i64, top = 0 : i64}} loc(#loc22)
        DPUTask {cluster_id = 2 : i64, mpe_mode = "VECTOR_FP16", outEnd = [23, 21, 47], outStart = [12, 20, 0], pad = {bottom = 0 : i64, left = 0 : i64, right = 0 : i64, top = 0 : i64}} loc(#loc22)
        DPUTask {cluster_id = 2 : i64, mpe_mode = "VECTOR_FP16", outEnd = [29, 21, 47], outStart = [24, 20, 0], pad = {bottom = 0 : i64, left = 0 : i64, right = 1 : i64, top = 0 : i64}} loc(#loc22)
        DPUTask {cluster_id = 2 : i64, mpe_mode = "VECTOR_FP16", outEnd = [11, 23, 47], outStart = [0, 22, 0], pad = {bottom = 0 : i64, left = 0 : i64, right = 0 : i64, top = 0 : i64}} loc(#loc22)
        DPUTask {cluster_id = 2 : i64, mpe_mode = "VECTOR_FP16", outEnd = [23, 23, 47], outStart = [12, 22, 0], pad = {bottom = 0 : i64, left = 0 : i64, right = 0 : i64, top = 0 : i64}} loc(#loc22)
        DPUTask {cluster_id = 2 : i64, mpe_mode = "VECTOR_FP16", outEnd = [29, 23, 47], outStart = [24, 22, 0], pad = {bottom = 0 : i64, left = 0 : i64, right = 1 : i64, top = 0 : i64}} loc(#loc22)
      } PPE : {
      } loc(#loc103)
    } loc(#loc103)
    VPURT.Task waits(%4 : !VPURT.Barrier) updates(%5 : !VPURT.Barrier) attributes {cycleBegin = 20114 : i64, cycleEnd = 22019 : i64, isTrailingSWLayer = false} {
      %175:2 = VPUIP.NCEClusterTask {activation_window_channel_length = 27 : i64, is_segmented, kernel_padding = {bottom = 1 : i64, left = 0 : i64, right = 1 : i64, top = 0 : i64}, kernel_size = [3, 3], kernel_strides = [2, 2], task_type = "MAXPOOL"} input(%37 : memref<1x48x15x60xf16, #NHWC, [@CMX_NN, 3]>) weight_table(%86 : memref<48x1x1x4xsi32, [@CMX_NN, 3]>) activation_window(%90 : memref<1x1x1x16xui8, [@CMX_NN, 3]>) parent_input(%33 : !VPUIP.DistributedBuffer<1x48x60x60xf16, #NHWC, @CMX_NN, {mode = "SEGMENTED", num_tiles = [1, 1, 4, 1], num_clusters = 4 : i64}>) parent_output(%43 : !VPUIP.DistributedBuffer<1x48x30x30xf16, #NHWC, @CMX_NN, {mode = "SEGMENTED", num_tiles = [1, 1, 4, 1], num_clusters = 4 : i64}>) outputs(%51 : memref<1x48x6x30xf16, #NHWC, [@CMX_NN, 3]>) profiling_data(%94 : memref<24xui64, [@CMX_NN, 3]>) -> memref<1x48x6x30xf16, #NHWC, [@CMX_NN, 3]>, memref<24xui64, [@CMX_NN, 3]> variants : {
        DPUTask {cluster_id = 3 : i64, mpe_mode = "VECTOR_FP16", outEnd = [11, 26, 47], outStart = [0, 24, 0], pad = {bottom = 0 : i64, left = 0 : i64, right = 0 : i64, top = 0 : i64}} loc(#loc22)
        DPUTask {cluster_id = 3 : i64, mpe_mode = "VECTOR_FP16", outEnd = [23, 26, 47], outStart = [12, 24, 0], pad = {bottom = 0 : i64, left = 0 : i64, right = 0 : i64, top = 0 : i64}} loc(#loc22)
        DPUTask {cluster_id = 3 : i64, mpe_mode = "VECTOR_FP16", outEnd = [29, 26, 47], outStart = [24, 24, 0], pad = {bottom = 0 : i64, left = 0 : i64, right = 1 : i64, top = 0 : i64}} loc(#loc22)
        DPUTask {cluster_id = 3 : i64, mpe_mode = "VECTOR_FP16", outEnd = [11, 29, 47], outStart = [0, 27, 0], pad = {bottom = 1 : i64, left = 0 : i64, right = 0 : i64, top = 0 : i64}} loc(#loc22)
        DPUTask {cluster_id = 3 : i64, mpe_mode = "VECTOR_FP16", outEnd = [23, 29, 47], outStart = [12, 27, 0], pad = {bottom = 1 : i64, left = 0 : i64, right = 0 : i64, top = 0 : i64}} loc(#loc22)
        DPUTask {cluster_id = 3 : i64, mpe_mode = "VECTOR_FP16", outEnd = [29, 29, 47], outStart = [24, 27, 0], pad = {bottom = 1 : i64, left = 0 : i64, right = 1 : i64, top = 0 : i64}} loc(#loc22)
      } PPE : {
      } loc(#loc104)
    } loc(#loc104)
    VPURT.Task waits(%5 : !VPURT.Barrier) attributes {cycleBegin = 22019 : i64, cycleEnd = 22023 : i64, isTrailingSWLayer = false} {
      %175 = VPUIP.NNDMA {port = 0 : i64} inputs(%13 : memref<64xui64, [@CMX_NN, 0]>) outputs(%9 : memref<64xui64, @DDR>) -> memref<64xui64, @DDR> loc(#loc105)
    } loc(#loc105)
    VPURT.Task attributes {cycleBegin = 22023 : i64, cycleEnd = 22027 : i64, isTrailingSWLayer = false} {
      %175 = VPUIP.NNDMA {port = 0 : i64} inputs(%14 : memref<64xui64, [@CMX_NN, 1]>) outputs(%10 : memref<64xui64, @DDR>) -> memref<64xui64, @DDR> loc(#loc106)
    } loc(#loc106)
    VPURT.Task attributes {cycleBegin = 22027 : i64, cycleEnd = 22031 : i64, isTrailingSWLayer = false} {
      %175 = VPUIP.NNDMA {port = 0 : i64} inputs(%15 : memref<64xui64, [@CMX_NN, 2]>) outputs(%11 : memref<64xui64, @DDR>) -> memref<64xui64, @DDR> loc(#loc107)
    } loc(#loc107)
    VPURT.Task attributes {cycleBegin = 22031 : i64, cycleEnd = 22035 : i64, isTrailingSWLayer = false} {
      %175 = VPUIP.NNDMA {port = 0 : i64} inputs(%16 : memref<64xui64, [@CMX_NN, 3]>) outputs(%12 : memref<64xui64, @DDR>) -> memref<64xui64, @DDR> loc(#loc108)
    } loc(#loc108)
    VPURT.Task attributes {isTrailingSWLayer = false} {
      %175 = VPUIP.NNDMA {port = 0 : i64} inputs(%130 : memref<1xui32, @Register>) outputs(%131 : memref<1xui32, [@CMX_NN, 0]>) -> memref<1xui32, [@CMX_NN, 0]> loc(#loc71)
    } loc(#loc71)
    VPURT.Task attributes {cycleBegin = 22037 : i64, cycleEnd = 22843 : i64, isTrailingSWLayer = false} {
      %175 = VPUIP.NNDMA {port = 0 : i64} inputs(%44 : memref<1x48x8x30xf16, #NHWC, [@CMX_NN, 0]>) outputs(%54 : memref<1x48x8x30xf16, #NHWC, @DDR>) -> memref<1x48x8x30xf16, #NHWC, @DDR> loc(#loc109)
    } loc(#loc109)
    VPURT.Task attributes {isTrailingSWLayer = false} {
      %175 = VPUIP.NNDMA {port = 0 : i64} inputs(%132 : memref<1xui32, @Register>) outputs(%133 : memref<1xui32, [@CMX_NN, 0]>) -> memref<1xui32, [@CMX_NN, 0]> loc(#loc72)
    } loc(#loc72)
    VPURT.Task attributes {isTrailingSWLayer = false} {
      %175 = VPUIP.NNDMA {port = 0 : i64} inputs(%134 : memref<1xui32, @Register>) outputs(%135 : memref<1xui32, [@CMX_NN, 0]>) -> memref<1xui32, [@CMX_NN, 0]> loc(#loc73)
    } loc(#loc73)
    VPURT.Task attributes {cycleBegin = 22843 : i64, cycleEnd = 23649 : i64, isTrailingSWLayer = false} {
      %175 = VPUIP.NNDMA {port = 0 : i64} inputs(%45 : memref<1x48x8x30xf16, #NHWC, [@CMX_NN, 1]>) outputs(%55 : memref<1x48x8x30xf16, #NHWC, @DDR>) -> memref<1x48x8x30xf16, #NHWC, @DDR> loc(#loc110)
    } loc(#loc110)
    VPURT.Task attributes {isTrailingSWLayer = false} {
      %175 = VPUIP.NNDMA {port = 0 : i64} inputs(%136 : memref<1xui32, @Register>) outputs(%137 : memref<1xui32, [@CMX_NN, 0]>) -> memref<1xui32, [@CMX_NN, 0]> loc(#loc74)
    } loc(#loc74)
    VPURT.Task attributes {isTrailingSWLayer = false} {
      %175 = VPUIP.NNDMA {port = 0 : i64} inputs(%138 : memref<1xui32, @Register>) outputs(%139 : memref<1xui32, [@CMX_NN, 0]>) -> memref<1xui32, [@CMX_NN, 0]> loc(#loc75)
    } loc(#loc75)
    VPURT.Task attributes {cycleBegin = 23649 : i64, cycleEnd = 24455 : i64, isTrailingSWLayer = false} {
      %175 = VPUIP.NNDMA {port = 0 : i64} inputs(%46 : memref<1x48x8x30xf16, #NHWC, [@CMX_NN, 2]>) outputs(%56 : memref<1x48x8x30xf16, #NHWC, @DDR>) -> memref<1x48x8x30xf16, #NHWC, @DDR> loc(#loc111)
    } loc(#loc111)
    VPURT.Task attributes {isTrailingSWLayer = false} {
      %175 = VPUIP.NNDMA {port = 0 : i64} inputs(%140 : memref<1xui32, @Register>) outputs(%141 : memref<1xui32, [@CMX_NN, 0]>) -> memref<1xui32, [@CMX_NN, 0]> loc(#loc76)
    } loc(#loc76)
    VPURT.Task attributes {isTrailingSWLayer = false} {
      %175 = VPUIP.NNDMA {port = 0 : i64} inputs(%142 : memref<1xui32, @Register>) outputs(%143 : memref<1xui32, [@CMX_NN, 0]>) -> memref<1xui32, [@CMX_NN, 0]> loc(#loc77)
    } loc(#loc77)
    VPURT.Task attributes {cycleBegin = 24455 : i64, cycleEnd = 25060 : i64, isTrailingSWLayer = false} {
      %175 = VPUIP.NNDMA {port = 0 : i64} inputs(%47 : memref<1x48x6x30xf16, #NHWC, [@CMX_NN, 3]>) outputs(%57 : memref<1x48x6x30xf16, #NHWC, @DDR>) -> memref<1x48x6x30xf16, #NHWC, @DDR> loc(#loc112)
    } loc(#loc112)
    VPURT.Task attributes {isTrailingSWLayer = false} {
      %175 = VPUIP.NNDMA {port = 0 : i64} inputs(%144 : memref<1xui32, @Register>) outputs(%145 : memref<1xui32, [@CMX_NN, 0]>) -> memref<1xui32, [@CMX_NN, 0]> loc(#loc78)
    } loc(#loc78)
    VPURT.Task attributes {isTrailingSWLayer = false} {
      %175 = VPUIP.NNDMA {port = 0 : i64} inputs(%146 : memref<1xui32, @Register>) outputs(%147 : memref<1xui32, [@CMX_NN, 0]>) -> memref<1xui32, [@CMX_NN, 0]> loc(#loc79)
    } loc(#loc79)
    VPURT.Task attributes {cycleBegin = 25062 : i64, cycleEnd = 28087 : i64, isTrailingSWLayer = false} {
      %175 = VPUIP.NNDMA {port = 0 : i64} inputs(%53 : memref<1x48x30x30xf16, #NHWC, @DDR>) outputs(%58 : memref<1x48x30x30xf16, #NHWC, [@CMX_NN, 0]>) -> memref<1x48x30x30xf16, #NHWC, [@CMX_NN, 0]> loc(#loc28)
    } loc(#loc28)
    VPURT.Task attributes {isTrailingSWLayer = false} {
      %175 = VPUIP.NNDMA {port = 0 : i64} inputs(%148 : memref<1xui32, @Register>) outputs(%149 : memref<1xui32, [@CMX_NN, 0]>) -> memref<1xui32, [@CMX_NN, 0]> loc(#loc80)
    } loc(#loc80)
    VPURT.Task attributes {isTrailingSWLayer = false} {
      %175 = VPUIP.NNDMA {port = 0 : i64} inputs(%150 : memref<1xui32, @Register>) outputs(%151 : memref<1xui32, [@CMX_NN, 0]>) -> memref<1xui32, [@CMX_NN, 0]> loc(#loc81)
    } loc(#loc81)
    VPURT.Task attributes {cycleBegin = 28087 : i64, cycleEnd = 31112 : i64, isTrailingSWLayer = false} {
      %175 = VPUIP.PermuteDMA {dma_descriptor = {dstPlaneStride = 2 : i64, dstStride = 1800 : i64, dstWidth = 2 : i64, len = 96 : i64, numPlanes = 256 : i64, srcPlaneStride = 96 : i64, srcStride = 2 : i64, srcWidth = 96 : i64}, port = 0 : i64} inputs(%62 : memref<256x48xf16, [@CMX_NN, 0]>) outputs(%67 : memref<48x256xf16, [@CMX_NN, 0]>) -> memref<48x256xf16, [@CMX_NN, 0]> loc(#loc113)
    } loc(#loc113)
    VPURT.Task attributes {isTrailingSWLayer = false} {
      %175 = VPUIP.NNDMA {port = 0 : i64} inputs(%152 : memref<1xui32, @Register>) outputs(%153 : memref<1xui32, [@CMX_NN, 0]>) -> memref<1xui32, [@CMX_NN, 0]> loc(#loc82)
    } loc(#loc82)
    VPURT.Task attributes {isTrailingSWLayer = false} {
      %175 = VPUIP.NNDMA {port = 0 : i64} inputs(%154 : memref<1xui32, @Register>) outputs(%155 : memref<1xui32, [@CMX_NN, 0]>) -> memref<1xui32, [@CMX_NN, 0]> loc(#loc81)
    } loc(#loc81)
    VPURT.Task attributes {cycleBegin = 28087 : i64, cycleEnd = 31112 : i64, isTrailingSWLayer = false} {
      %175 = VPUIP.PermuteDMA {dma_descriptor = {dstPlaneStride = 2 : i64, dstStride = 1800 : i64, dstWidth = 2 : i64, len = 96 : i64, numPlanes = 256 : i64, srcPlaneStride = 96 : i64, srcStride = 2 : i64, srcWidth = 96 : i64}, port = 0 : i64} inputs(%61 : memref<256x48xf16, [@CMX_NN, 0]>) outputs(%66 : memref<48x256xf16, [@CMX_NN, 0]>) -> memref<48x256xf16, [@CMX_NN, 0]> loc(#loc113)
    } loc(#loc113)
    VPURT.Task attributes {isTrailingSWLayer = false} {
      %175 = VPUIP.NNDMA {port = 0 : i64} inputs(%156 : memref<1xui32, @Register>) outputs(%157 : memref<1xui32, [@CMX_NN, 0]>) -> memref<1xui32, [@CMX_NN, 0]> loc(#loc83)
    } loc(#loc83)
    VPURT.Task attributes {isTrailingSWLayer = false} {
      %175 = VPUIP.NNDMA {port = 0 : i64} inputs(%158 : memref<1xui32, @Register>) outputs(%159 : memref<1xui32, [@CMX_NN, 0]>) -> memref<1xui32, [@CMX_NN, 0]> loc(#loc81)
    } loc(#loc81)
    VPURT.Task attributes {cycleBegin = 28087 : i64, cycleEnd = 31112 : i64, isTrailingSWLayer = false} {
      %175 = VPUIP.PermuteDMA {dma_descriptor = {dstPlaneStride = 2 : i64, dstStride = 1800 : i64, dstWidth = 2 : i64, len = 96 : i64, numPlanes = 256 : i64, srcPlaneStride = 96 : i64, srcStride = 2 : i64, srcWidth = 96 : i64}, port = 0 : i64} inputs(%60 : memref<256x48xf16, [@CMX_NN, 0]>) outputs(%65 : memref<48x256xf16, [@CMX_NN, 0]>) -> memref<48x256xf16, [@CMX_NN, 0]> loc(#loc113)
    } loc(#loc113)
    VPURT.Task attributes {isTrailingSWLayer = false} {
      %175 = VPUIP.NNDMA {port = 0 : i64} inputs(%160 : memref<1xui32, @Register>) outputs(%161 : memref<1xui32, [@CMX_NN, 0]>) -> memref<1xui32, [@CMX_NN, 0]> loc(#loc84)
    } loc(#loc84)
    VPURT.Task attributes {isTrailingSWLayer = false} {
      %175 = VPUIP.NNDMA {port = 0 : i64} inputs(%162 : memref<1xui32, @Register>) outputs(%163 : memref<1xui32, [@CMX_NN, 0]>) -> memref<1xui32, [@CMX_NN, 0]> loc(#loc81)
    } loc(#loc81)
    VPURT.Task attributes {cycleBegin = 28087 : i64, cycleEnd = 31112 : i64, isTrailingSWLayer = false} {
      %175 = VPUIP.PermuteDMA {dma_descriptor = {dstPlaneStride = 2 : i64, dstStride = 1800 : i64, dstWidth = 2 : i64, len = 96 : i64, numPlanes = 132 : i64, srcPlaneStride = 96 : i64, srcStride = 2 : i64, srcWidth = 96 : i64}, port = 0 : i64} inputs(%59 : memref<132x48xf16, [@CMX_NN, 0]>) outputs(%64 : memref<48x132xf16, [@CMX_NN, 0]>) -> memref<48x132xf16, [@CMX_NN, 0]> loc(#loc113)
    } loc(#loc113)
    VPURT.Task attributes {isTrailingSWLayer = false} {
      %175 = VPUIP.NNDMA {port = 0 : i64} inputs(%164 : memref<1xui32, @Register>) outputs(%165 : memref<1xui32, [@CMX_NN, 0]>) -> memref<1xui32, [@CMX_NN, 0]> loc(#loc85)
    } loc(#loc85)
    VPURT.Task attributes {isTrailingSWLayer = false} {
      %175 = VPUIP.NNDMA {port = 0 : i64} inputs(%166 : memref<1xui32, @Register>) outputs(%167 : memref<1xui32, [@CMX_NN, 0]>) -> memref<1xui32, [@CMX_NN, 0]> loc(#loc79)
    } loc(#loc79)
    VPURT.Task attributes {cycleBegin = 31112 : i64, cycleEnd = 34137 : i64, isTrailingSWLayer = false} {
      %175 = VPUIP.NNDMA {port = 0 : i64} inputs(%63 : memref<1x48x30x30xf16, [@CMX_NN, 0]>) outputs(%68 : memref<1x48x30x30xf16, @DDR>) -> memref<1x48x30x30xf16, @DDR> loc(#loc28)
    } loc(#loc28)
    VPURT.Task attributes {isTrailingSWLayer = false} {
      %175 = VPUIP.NNDMA {port = 0 : i64} inputs(%168 : memref<1xui32, @Register>) outputs(%169 : memref<1xui32, [@CMX_NN, 0]>) -> memref<1xui32, [@CMX_NN, 0]> loc(#loc86)
    } loc(#loc86)
    VPURT.Task updates(%6 : !VPURT.Barrier) attributes {isTrailingSWLayer = false} {
      %175 = VPUIP.NNDMA {port = 0 : i64} inputs(%170 : memref<36xui32, [@CMX_NN, 0]>) outputs(%171 : memref<36xui32>) -> memref<36xui32> loc(#loc87)
    } loc(#loc87)
    VPURT.Task profiling_data(%97 : memref<6xui32>) waits(%6 : !VPURT.Barrier) attributes {cycleBegin = 34137 : i64, cycleEnd = 34139 : i64, isTrailingSWLayer = false} {
      %175 = VPUIP.ConvertUPA inputs(%68 : memref<1x48x30x30xf16, @DDR>) outputs(%8 : memref<1x48x30x30xf32, @DDR>) -> memref<1x48x30x30xf32, @DDR> loc(#loc28)
    } loc(#loc114)
    return %arg1, %arg2 : memref<1x48x30x30xf32, @DDR>, memref<566xui32> loc(#loc28)
  } loc(#loc0)
} loc(#loc0)
#loc1 = loc("combinedProfilingDataOutputInfo")
#loc3 = loc(fused["pool1", "t_Convolution", "_fused_constant"])
#loc4 = loc(fused["conv1/WithoutBiases", "t_Convolution", "_fused_constant"])
#loc5 = loc(fused["conv1/WithoutBiases", "t_Convolution", "_constant_permute_1_13"])
#loc6 = loc(fused["conv1/WithoutBiases", "t_Convolution", "PROF_0"])
#loc7 = loc("dpuProfilingCMX2DDR0")
#loc8 = loc(fused["conv1/WithoutBiases", "t_Convolution"])
#loc9 = loc(fused["conv1/WithoutBiases", "t_Convolution", "PROF_0_0_4_20-20,20,20,20,", "_input_cluster_0"])
#loc10 = loc(fused["conv1/WithoutBiases", "t_Convolution", "PROF_0_0_4_20-20,20,20,20,", "_input_cluster_1"])
#loc11 = loc(fused["conv1/WithoutBiases", "t_Convolution", "PROF_0_0_4_20-20,20,20,20,", "_input_cluster_2"])
#loc12 = loc(fused["conv1/WithoutBiases", "t_Convolution", "PROF_0_0_4_20-20,20,20,20,", "_input_cluster_3"])
#loc13 = loc(fused["pool1", "t_Convolution", "PROF_1_0_4_12-12,12,12,6,", "_input_cluster_0"])
#loc14 = loc(fused["pool1", "t_Convolution", "PROF_1_0_4_12-12,12,12,6,", "_input_cluster_1"])
#loc15 = loc(fused["pool1", "t_Convolution", "PROF_1_0_4_12-12,12,12,6,", "_input_cluster_2"])
#loc16 = loc(fused["pool1", "t_Convolution", "PROF_1_0_4_12-12,12,12,6,", "_input_cluster_3"])
#loc17 = loc(fused["conv1/WithoutBiases", "t_Convolution", "PROF_0_0_4_20-20,20,20,20,", "_outputBuff_cluster_0"])
#loc18 = loc(fused["conv1/WithoutBiases", "t_Convolution", "PROF_0_0_4_20-20,20,20,20,", "_outputBuff_cluster_1"])
#loc19 = loc(fused["conv1/WithoutBiases", "t_Convolution", "PROF_0_0_4_20-20,20,20,20,", "_outputBuff_cluster_2"])
#loc20 = loc(fused["conv1/WithoutBiases", "t_Convolution", "PROF_0_0_4_20-20,20,20,20,", "_outputBuff_cluster_3"])
#loc21 = loc(fused["conv1/WithoutBiases", "t_Convolution", "_fused_constant", "_fused_tile"])
#loc22 = loc(fused["pool1", "t_Convolution"])
#loc23 = loc(fused["pool1", "t_Convolution", "PROF_1_0_4_12-12,12,12,6,", "_outputBuff_cluster_0"])
#loc24 = loc(fused["pool1", "t_Convolution", "PROF_1_0_4_12-12,12,12,6,", "_outputBuff_cluster_1"])
#loc25 = loc(fused["pool1", "t_Convolution", "PROF_1_0_4_12-12,12,12,6,", "_outputBuff_cluster_2"])
#loc26 = loc(fused["pool1", "t_Convolution", "PROF_1_0_4_12-12,12,12,6,", "_outputBuff_cluster_3"])
#loc27 = loc(fused["pool1", "t_Convolution", "_fused_constant", "_fused_tile"])
#loc28 = loc("output")
#loc29 = loc(fused["conv1/WithoutBiases", "t_Convolution", "_expand_subview_1_13"])
#loc30 = loc(fused["conv1/WithoutBiases", "t_Convolution", "PROF_0_0_4_20-20,20,20,20,", "_weightTable_cluster_0"])
#loc31 = loc(fused["conv1/WithoutBiases", "t_Convolution", "PROF_0_0_4_20-20,20,20,20,", "_weightTable_cluster_1"])
#loc32 = loc(fused["conv1/WithoutBiases", "t_Convolution", "PROF_0_0_4_20-20,20,20,20,", "_weightTable_cluster_2"])
#loc33 = loc(fused["conv1/WithoutBiases", "t_Convolution", "PROF_0_0_4_20-20,20,20,20,", "_weightTable_cluster_3"])
#loc34 = loc(fused["conv1/WithoutBiases", "t_Convolution", "PROF_0_0_4_20-20,20,20,20,", "_weights_cluster_0"])
#loc35 = loc(fused["conv1/WithoutBiases", "t_Convolution", "PROF_0_0_4_20-20,20,20,20,", "_weights_cluster_1"])
#loc36 = loc(fused["conv1/WithoutBiases", "t_Convolution", "PROF_0_0_4_20-20,20,20,20,", "_weights_cluster_2"])
#loc37 = loc(fused["conv1/WithoutBiases", "t_Convolution", "PROF_0_0_4_20-20,20,20,20,", "_weights_cluster_3"])
#loc38 = loc(fused["conv1/WithoutBiases", "t_Convolution", "PROF_0_0_4_20-20,20,20,20,", "_profilingBuff_cluster_0"])
#loc39 = loc(fused["conv1/WithoutBiases", "t_Convolution", "PROF_0_0_4_20-20,20,20,20,", "_profilingBuff_cluster_1"])
#loc40 = loc(fused["conv1/WithoutBiases", "t_Convolution", "PROF_0_0_4_20-20,20,20,20,", "_profilingBuff_cluster_2"])
#loc41 = loc(fused["conv1/WithoutBiases", "t_Convolution", "PROF_0_0_4_20-20,20,20,20,", "_profilingBuff_cluster_3"])
#loc42 = loc(fused["pool1", "t_Convolution", "PROF_1_0_4_12-12,12,12,6,", "_weightTable_cluster_0"])
#loc43 = loc(fused["pool1", "t_Convolution", "PROF_1_0_4_12-12,12,12,6,", "_weightTable_cluster_1"])
#loc44 = loc(fused["pool1", "t_Convolution", "PROF_1_0_4_12-12,12,12,6,", "_weightTable_cluster_2"])
#loc45 = loc(fused["pool1", "t_Convolution", "PROF_1_0_4_12-12,12,12,6,", "_weightTable_cluster_3"])
#loc46 = loc(fused["pool1", "t_Convolution", "PROF_1_0_4_12-12,12,12,6,", "_activationWindow_cluster_0"])
#loc47 = loc(fused["pool1", "t_Convolution", "PROF_1_0_4_12-12,12,12,6,", "_activationWindow_cluster_1"])
#loc48 = loc(fused["pool1", "t_Convolution", "PROF_1_0_4_12-12,12,12,6,", "_activationWindow_cluster_2"])
#loc49 = loc(fused["pool1", "t_Convolution", "PROF_1_0_4_12-12,12,12,6,", "_activationWindow_cluster_3"])
#loc50 = loc(fused["pool1", "t_Convolution", "PROF_1_0_4_12-12,12,12,6,", "_profilingBuff_cluster_0"])
#loc51 = loc(fused["pool1", "t_Convolution", "PROF_1_0_4_12-12,12,12,6,", "_profilingBuff_cluster_1"])
#loc52 = loc(fused["pool1", "t_Convolution", "PROF_1_0_4_12-12,12,12,6,", "_profilingBuff_cluster_2"])
#loc53 = loc(fused["pool1", "t_Convolution", "PROF_1_0_4_12-12,12,12,6,", "_profilingBuff_cluster_3"])
#loc54 = loc("declareProfilingBuffer")
#loc55 = loc(fused["conv1/WithoutBiases", "t_Convolution", "_expand_copy_1_13", "PROFTASKBEGIN"])
#loc56 = loc(fused["conv1/WithoutBiases", "t_Convolution", "_expand_copy_1_13", "PROFTASKEND_0"])
#loc57 = loc(fused["conv1/WithoutBiases", "t_Convolution", "PROFTASKBEGIN"])
#loc58 = loc(fused["conv1/WithoutBiases", "t_Convolution", "PROFTASKEND_1"])
#loc59 = loc(fused["conv1/WithoutBiases", "t_Convolution", "_cluster_0", "PROFTASKBEGIN"])
#loc60 = loc(fused["conv1/WithoutBiases", "t_Convolution", "_cluster_0", "PROFTASKEND_2"])
#loc61 = loc(fused["conv1/WithoutBiases", "t_Convolution", "_cluster_1", "PROFTASKBEGIN"])
#loc62 = loc(fused["conv1/WithoutBiases", "t_Convolution", "_cluster_1", "PROFTASKEND_3"])
#loc63 = loc(fused["conv1/WithoutBiases", "t_Convolution", "_cluster_2", "PROFTASKBEGIN"])
#loc64 = loc(fused["conv1/WithoutBiases", "t_Convolution", "_cluster_2", "PROFTASKEND_4"])
#loc65 = loc(fused["conv1/WithoutBiases", "t_Convolution", "_cluster_3", "PROFTASKBEGIN"])
#loc66 = loc(fused["conv1/WithoutBiases", "t_Convolution", "_cluster_3", "PROFTASKEND_5"])
#loc67 = loc(fused["conv1/WithoutBiases", "t_Convolution", "_fused_constant", "_fused_tile", "_broadcast_copy_to_CMX[0,3]", "PROFTASKBEGIN"])
#loc68 = loc(fused["conv1/WithoutBiases", "t_Convolution", "_fused_constant", "_fused_tile", "_broadcast_copy_to_CMX[0,3]", "PROFTASKEND_6"])
#loc69 = loc(fused["pool1", "t_Convolution", "_fused_constant", "_fused_tile", "_broadcast_copy_to_CMX[0,3]", "PROFTASKBEGIN"])
#loc70 = loc(fused["pool1", "t_Convolution", "_fused_constant", "_fused_tile", "_broadcast_copy_to_CMX[0,3]", "PROFTASKEND_7"])
#loc71 = loc(fused["pool1", "t_Convolution", "_cluster_0", "PROFTASKBEGIN"])
#loc72 = loc(fused["pool1", "t_Convolution", "_cluster_0", "PROFTASKEND_8"])
#loc73 = loc(fused["pool1", "t_Convolution", "_cluster_1", "PROFTASKBEGIN"])
#loc74 = loc(fused["pool1", "t_Convolution", "_cluster_1", "PROFTASKEND_9"])
#loc75 = loc(fused["pool1", "t_Convolution", "_cluster_2", "PROFTASKBEGIN"])
#loc76 = loc(fused["pool1", "t_Convolution", "_cluster_2", "PROFTASKEND_10"])
#loc77 = loc(fused["pool1", "t_Convolution", "_cluster_3", "PROFTASKBEGIN"])
#loc78 = loc(fused["pool1", "t_Convolution", "_cluster_3", "PROFTASKEND_11"])
#loc79 = loc(fused["output", "PROFTASKBEGIN"])
#loc80 = loc(fused["output", "PROFTASKEND_12"])
#loc81 = loc(fused["output", "_unrolled_permuteDMA", "PROFTASKBEGIN"])
#loc82 = loc(fused["output", "_unrolled_permuteDMA", "PROFTASKEND_13"])
#loc83 = loc(fused["output", "_unrolled_permuteDMA", "PROFTASKEND_14"])
#loc84 = loc(fused["output", "_unrolled_permuteDMA", "PROFTASKEND_15"])
#loc85 = loc(fused["output", "_unrolled_permuteDMA", "PROFTASKEND_16"])
#loc86 = loc(fused["output", "PROFTASKEND_17"])
#loc87 = loc("dmaProfilingCMX2DDR0")
#loc88 = loc("newProfilingBuffer")
#loc89 = loc(fused["conv1/WithoutBiases", "t_Convolution", "_expand_copy_1_13"])
#loc90 = loc(fused["conv1/WithoutBiases", "t_Convolution", "PROF_1"])
#loc91 = loc(fused["conv1/WithoutBiases", "t_Convolution", "_cluster_0"])
#loc92 = loc(fused["conv1/WithoutBiases", "t_Convolution", "_cluster_1"])
#loc93 = loc(fused["conv1/WithoutBiases", "t_Convolution", "_cluster_2"])
#loc94 = loc(fused["conv1/WithoutBiases", "t_Convolution", "_cluster_3"])
#loc95 = loc(fused["conv1/WithoutBiases", "t_Convolution", "_fused_constant", "_fused_tile", "_broadcast_copy_to_CMX[0,3]"])
#loc96 = loc(fused["conv1/WithoutBiases", "t_Convolution", "PROF_0_0_4_20-20,20,20,20,", "_cluster_0"])
#loc97 = loc(fused["conv1/WithoutBiases", "t_Convolution", "PROF_0_0_4_20-20,20,20,20,", "_cluster_1"])
#loc98 = loc(fused["conv1/WithoutBiases", "t_Convolution", "PROF_0_0_4_20-20,20,20,20,", "_cluster_2"])
#loc99 = loc(fused["conv1/WithoutBiases", "t_Convolution", "PROF_0_0_4_20-20,20,20,20,", "_cluster_3"])
#loc100 = loc(fused["pool1", "t_Convolution", "_fused_constant", "_fused_tile", "_broadcast_copy_to_CMX[0,3]"])
#loc101 = loc(fused["pool1", "t_Convolution", "PROF_1_0_4_12-12,12,12,6,", "_cluster_0"])
#loc102 = loc(fused["pool1", "t_Convolution", "PROF_1_0_4_12-12,12,12,6,", "_cluster_1"])
#loc103 = loc(fused["pool1", "t_Convolution", "PROF_1_0_4_12-12,12,12,6,", "_cluster_2"])
#loc104 = loc(fused["pool1", "t_Convolution", "PROF_1_0_4_12-12,12,12,6,", "_cluster_3"])
#loc105 = loc(fused["dpuProfilingCMX2DDR0", "_cluster_0"])
#loc106 = loc(fused["dpuProfilingCMX2DDR0", "_cluster_1"])
#loc107 = loc(fused["dpuProfilingCMX2DDR0", "_cluster_2"])
#loc108 = loc(fused["dpuProfilingCMX2DDR0", "_cluster_3"])
#loc109 = loc(fused["pool1", "t_Convolution", "_cluster_0"])
#loc110 = loc(fused["pool1", "t_Convolution", "_cluster_1"])
#loc111 = loc(fused["pool1", "t_Convolution", "_cluster_2"])
#loc112 = loc(fused["pool1", "t_Convolution", "_cluster_3"])
#loc113 = loc(fused["output", "_unrolled_permuteDMA"])
#loc114 = loc(fused["output", "PROF_2"])
