#loc0 = loc(unknown)
module @age_gender {
  IE.CNNNetwork entryPoint : @main inputsInfo : {
    DataInfo "data" : tensor<1x3x62x62xf32> loc(#loc0)
  } outputsInfo : {
    DataInfo "age_conv3" : tensor<1x48x30x30xf32>loc(#loc0)
  } profilingOutputsInfo : {
  } loc(#loc0)
  func.func @main(%arg0: tensor<1x3x62x62xf16> loc(unknown)) -> tensor<1x48x30x30xf32> {
    %0 = IE.Convert(%arg0) {dstElemType = f32} : tensor<1x3x62x62xf16> -> tensor<1x3x62x62xf32> loc(#loc1)
    %cst = const.Declare tensor<48x3x3x3xf32> = dense<"…"> : tensor<48x3x3x3xf32> loc(#loc2)
    %1 = IE.Convolution(%0, %cst) {dilations = [1, 1], pads_begin = [0, 0], pads_end = [0, 0], strides = [1, 1]} : tensor<1x3x62x62xf32>, tensor<48x3x3x3xf32> -> tensor<1x48x60x60xf32> loc(#loc3)
    %cst_0 = const.Declare tensor<1x48x1x1xf32> = dense<[[[[… > : tensor<1x48x1x1xf32> loc(#loc4)
    %2 = IE.Add(%1, %cst_0) {auto_broadcast = #IE.auto_broadcast_type<NUMPY>} : tensor<1x48x60x60xf32>, tensor<1x48x1x1xf32> -> tensor<1x48x60x60xf32> loc(#loc5)
    %3 = IE.MaxPool(%2) {kernel_size = [3, 3], pads_begin = [0, 0], pads_end = [0, 0], rounding_type = #IE.rounding_type<CEIL>, strides = [2, 2]} : tensor<1x48x60x60xf32> -> tensor<1x48x30x30xf32> loc(#loc6)
    %4 = IE.ReLU(%3) : tensor<1x48x30x30xf32> -> tensor<1x48x30x30xf32> loc(#loc7)
    return %4 : tensor<1x48x30x30xf32> loc(#loc59)
  } loc(#loc0)
} loc(#loc0)
#loc1 = loc("Convert_165")
#loc2 = loc("data/scale_copy")
#loc3 = loc("conv1/WithoutBiases")
#loc4 = loc("data_add_1242")
#loc5 = loc("conv1/Fused_Add_")
#loc6 = loc("pool1")
#loc7 = loc("relu1")
#loc59 = loc("output")