#NCHW = affine_map<(d0, d1, d2, d3) -> (d0, d1, d2, d3)>
#NHWC = affine_map<(d0, d1, d2, d3) -> (d0, d2, d3, d1)>
#loc0 = loc(unknown)
#loc2 = loc("profiling_result")
module @age_gender attributes {VPU.arch = "VPUX37XX", VPU.compilationMode = "DefaultHW"} {
  module @UsedMemory {
    IE.MemoryResource 123008 bytes of @DDR loc(#loc0)
    IE.MemoryResource 331840 bytes of @CMX_NN loc(#loc0)
  } loc(#loc0)
  module @DmaProfilingReservedMemory {
    IE.MemoryResource 256 bytes of @CMX_NN offset 0 loc(#loc0)
  } loc(#loc0)
  VPURT.SW.Runtime entryPoint : @VPU.SW::@runtime stack_configuration : [4096, 4096, 4096, 4096] loc(#loc0)
  module @VPU.SW {
    func.func private @builtin_MemPermute(memref<*xf16, [@CMX_NN, 0]>, memref<*xf16, [@CMX_NN, 0]>, none) attributes {VPU.kernel_code = "reorder_fp16.cpp", VPU.kernel_entry = "reorder_fp16"} loc(#loc0)
    func.func private @builtin_Convert(memref<*xf32, [@CMX_NN, 0]>, memref<*xf16, [@CMX_NN, 0]>) attributes {VPU.kernel_code = "single_shave_convert.cpp", VPU.kernel_entry = "single_shave_convert"} loc(#loc0)
    func.func private @runtime() attributes {VPU.kernel_code = "nnActEntry"} loc(#loc0)
  } loc(#loc0)
  IE.ExecutorResource 2 of @NCE at 1.300000e+03 MHz {
    IE.ExecutorResource 1 of @DPU  loc(#loc0)
  } loc(#loc0)
  IE.ExecutorResource 2 of @SHAVE_ACT  loc(#loc0)
  IE.ExecutorResource 1 of @SHAVE_NN  loc(#loc0)
  IE.ExecutorResource 2 of @DMA_NN  loc(#loc0)
  IE.MemoryResource 1982464 bytes of @CMX_NN {VPU.bandwidth = 32 : i64, VPU.derateFactor = 1.000000e+00 : f64} loc(#loc0)
  IE.MemoryResource 524288000 bytes of @DDR {VPU.bandwidth = 8 : i64, VPU.derateFactor = 6.000000e-01 : f64} loc(#loc0)
  IE.CNNNetwork entryPoint : @main inputsInfo : {
    DataInfo "data" : tensor<1x3x62x62xf32> loc(#loc0)
  } outputsInfo : {
    DataInfo "age_conv3" : tensor<1x48x30x30xf32> loc(#loc0)
  } profilingOutputsInfo : {
    DataInfo "0_dpu_96_actshave_128_dma_304_pll" : tensor<78xui32> loc(#loc1)
  } loc(#loc0)
  func.func @main(%arg0: memref<1x3x62x62xf32, @DDR> loc(unknown), %arg1: memref<1x48x30x30xf32, @DDR> loc(unknown), %arg2: memref<78xui32> loc("profiling_result")) -> (memref<1x48x30x30xf32, @DDR>, memref<78xui32>) {
    %pll_in0 = VPURT.DeclareBuffer "Register" <537403424> -> memref<1xui32, @Register> loc(#loc75)
    %pll_out0 = VPURT.DeclareBuffer "ProfilingOutput" [0] <304> -> memref<1xui32> loc(#loc75)
    %cst = const.Declare memref<1x1x1x784xui8> = dense<"…"> : tensor<1x1x1x784xui8> loc(#loc3)
    %cst_0 = const.Declare memref<48x3x3x3xf16, #NHWC> = dense<"…"> : tensor<48x3x3x3xf16, {order = #NHWC}> loc(#loc4)
    %cst_1 = const.Declare memref<48x1x1x4xsi32> = dense<"…"> : tensor<48x1x1x4xsi32> loc(#loc4)
    %cst_2 = const.Declare memref<1x13x62x62xf16> = dense<0.000000e+00> : tensor<1x13x62x62xf16> loc(#loc5)
    %0 = VPURT.ConfigureBarrier<0> -> !VPURT.Barrier loc(#loc4)
    %1 = VPURT.ConfigureBarrier<1> -> !VPURT.Barrier loc(#loc4)
    %2 = VPURT.ConfigureBarrier<2> -> !VPURT.Barrier loc(#loc4)
    %3 = VPURT.ConfigureBarrier<3> -> !VPURT.Barrier loc(#loc4)
    %4 = VPURT.ConfigureBarrier<4> -> !VPURT.Barrier loc(#loc4)
    %5 = VPURT.ConfigureBarrier<5> -> !VPURT.Barrier loc(#loc4)
    %6 = VPURT.ConfigureBarrier<6> -> !VPURT.Barrier loc(#loc4)
    %7 = VPURT.ConfigureBarrier<7> -> !VPURT.Barrier loc(#loc4)
    %8 = VPURT.DeclareBuffer "NetworkInput" [0] <0> -> memref<1x3x62x62xf32, @DDR> loc(#loc3)
    %9 = VPURT.DeclareBuffer "NetworkOutput" [0] <0> -> memref<1x48x30x30xf32, @DDR> loc(#loc3)
    %10 = VPURT.DeclareBuffer "ProfilingOutput" [0] <0> -> memref<6xui64, @DDR> loc(#loc6)
    %11 = VPURT.DeclareBuffer "ProfilingOutput" [0] <48> -> memref<6xui64, @DDR> loc(#loc6)
    %12 = VPURT.DeclareBuffer "ProfilingOutput" [0] <96> -> memref<8xui32> loc(#loc3)
    %13 = VPURT.DeclareBuffer "CMX_NN" [0] <72576> -> memref<8xui32, [@CMX_NN, 0]> loc(#loc7)
    %14 = VPURT.DeclareBuffer "CMX_NN" [0] <65344> -> memref<6xui64, [@CMX_NN, 0]> loc(#loc6)
    %15 = VPURT.DeclareBuffer "CMX_NN" [1] <65344> -> memref<6xui64, [@CMX_NN, 1]> loc(#loc6)
    %16 = VPURT.DeclareBuffer "CMX_NN" [0] <256> -> memref<1x3x62x62xf32, [@CMX_NN, 0]> loc(#loc4)
    %17 = VPURT.DeclareBuffer "CMX_NN" [0] <46400> -> memref<1x3x62x62xf16, [@CMX_NN, 0]> loc(#loc4)
    %18 = VPURT.DeclareBuffer "DDR" <0> -> memref<16x1984xf16, @DDR> loc(#loc8)
    %19 = VPURT.DeclareBuffer "DDR" <3968> -> memref<16x1860xf16, @DDR> loc(#loc9)
    %20 = VPURT.DeclareBuffer "CMX_NN" <256> -> !VPUIP.DistributedBuffer<1x16x62x62xf16, #NHWC, @CMX_NN, {mode = "SEGMENTED", num_tiles = [1, 1, 2, 1], num_clusters = 2 : i64, alignment = [1, 1, 2, 1]}> loc(#loc4)
    %21 = VPURT.DeclareBuffer "CMX_NN" [0] <256> -> memref<1984x16xf16, [@CMX_NN, 0]> loc(#loc8)
    %22 = VPURT.DeclareBuffer "CMX_NN" [1] <256> -> memref<1860x16xf16, [@CMX_NN, 1]> loc(#loc9)
    %23 = VPURT.DeclareBuffer "CMX_NN" [0] <256> -> memref<1x16x32x62xf16, #NHWC, [@CMX_NN, 0]> loc(#loc10)
    %24 = VPURT.DeclareBuffer "CMX_NN" [1] <256> -> memref<1x16x30x62xf16, #NHWC, [@CMX_NN, 1]> loc(#loc11)
    %25 = VPURT.DeclareBuffer "CMX_NN" [0] <63744> -> memref<48x1x1x4xsi32, [@CMX_NN, 0]> loc(#loc12)
    %26 = VPURT.DeclareBuffer "CMX_NN" [1] <63744> -> memref<48x1x1x4xsi32, [@CMX_NN, 1]> loc(#loc13)
    %27 = VPURT.DeclareBuffer "CMX_NN" [0, 1] <63744> -> !VPUIP.DistributedBuffer<48x1x1x4xsi32, #NCHW, @CMX_NN, {mode = "DUPLICATED", num_clusters = 2 : i64}> loc(#loc4)
    %28 = VPURT.DeclareBuffer "CMX_NN" <72640> -> !VPUIP.DistributedBuffer<1x48x60x60xf16, #NHWC, @CMX_NN, {mode = "SEGMENTED", num_tiles = [1, 1, 2, 1], num_clusters = 2 : i64}> loc(#loc4)
    %29 = VPURT.DeclareBuffer "CMX_NN" [0] <72640> -> memref<1x48x30x60xf16, #NHWC, [@CMX_NN, 0]> loc(#loc14)
    %30 = VPURT.DeclareBuffer "CMX_NN" [1] <72640> -> memref<1x48x30x60xf16, #NHWC, [@CMX_NN, 1]> loc(#loc15)
    %31 = VPURT.DeclareBuffer "CMX_NN" [0] <72640> -> memref<1x48x30x60xf16, #NHWC, [@CMX_NN, 0]> loc(#loc16)
    %32 = VPURT.DeclareBuffer "CMX_NN" [1] <72640> -> memref<1x48x30x60xf16, #NHWC, [@CMX_NN, 1]> loc(#loc17)
    %33 = VPURT.DeclareBuffer "CMX_NN" [0, 1] <69504> -> !VPUIP.DistributedBuffer<48x3x3x3xf16, {order = #NHWC, strides = [32, 1, 9, 3]}, @CMX_NN, {mode = "DUPLICATED", num_clusters = 2 : i64}> loc(#loc4)
    %34 = VPURT.DeclareBuffer "CMX_NN" <256> -> !VPUIP.DistributedBuffer<1x48x30x30xf16, #NCHW, @CMX_NN, {mode = "SEGMENTED", num_tiles = [1, 1, 2, 1], num_clusters = 2 : i64}> loc(#loc18)
    %35 = VPURT.DeclareBuffer "CMX_NN" [0] <256> -> memref<1x48x15x30xf16, [@CMX_NN, 0]> loc(#loc18)
    %36 = VPURT.DeclareBuffer "CMX_NN" [1] <256> -> memref<1x48x15x30xf16, [@CMX_NN, 1]> loc(#loc18)
    %37 = VPURT.DeclareBuffer "CMX_NN" [0] <256> -> memref<1x48x15x30xf16, [@CMX_NN, 0]> loc(#loc19)
    %38 = VPURT.DeclareBuffer "CMX_NN" [1] <256> -> memref<1x48x15x30xf16, [@CMX_NN, 1]> loc(#loc20)
    %39 = VPURT.DeclareBuffer "CMX_NN" [0, 1] <64512> -> !VPUIP.DistributedBuffer<1x1x1x784xui8, {order = #NCHW, strides = [784, 784, 784, 1]}, @CMX_NN, {mode = "DUPLICATED", num_clusters = 2 : i64}> loc(#loc21)
    %40 = VPURT.DeclareBuffer "CMX_NN" [0] <72640> -> memref<1x48x30x30xf16, [@CMX_NN, 0]> loc(#loc22)
    %41 = VPURT.DeclareBuffer "CMX_NN" [0] <72640> -> memref<1x48x15x30xf16, {order = #NCHW, strides = [43200, 900, 30, 1]}, [@CMX_NN, 0]> loc(#loc18)
    %42 = VPURT.DeclareBuffer "CMX_NN" [0] <73540> -> memref<1x48x15x30xf16, {order = #NCHW, strides = [43200, 900, 30, 1]}, [@CMX_NN, 0]> loc(#loc18)
    %43 = VPURT.DeclareBuffer "CMX_NN" [0] <159040> -> memref<1x48x30x30xf32, [@CMX_NN, 0]> loc(#loc22)
    %44 = VPURT.DeclareBuffer "DDR" <23064> -> memref<1x13x62x62xf16, {order = #NCHW, strides = [61504, 3844, 62, 1]}, @DDR> loc(#loc23)
    %45 = VPURT.DeclareBuffer "CMX_NN" [0] <72576> -> memref<4xui32, [@CMX_NN, 0]> loc(#loc24)
    %46 = VPURT.DeclareBuffer "DDR" <0> -> memref<1x3x62x62xf16, {order = #NCHW, strides = [61504, 3844, 62, 1]}, @DDR> loc(#loc4)
    %47 = VPURT.DeclareBuffer "CMX_NN" [0] <69504> -> memref<48x16x3x3xf16, #NHWC, [@CMX_NN, 0]> loc(#loc25)
    %48 = VPURT.DeclareBuffer "CMX_NN" [1] <69504> -> memref<48x16x3x3xf16, #NHWC, [@CMX_NN, 1]> loc(#loc26)
    %49 = VPURT.DeclareBuffer "CMX_NN" [0] <65344> -> memref<2xui64, [@CMX_NN, 0]> loc(#loc27)
    %50 = VPURT.DeclareBuffer "CMX_NN" [1] <65344> -> memref<2xui64, [@CMX_NN, 1]> loc(#loc28)
    %51 = VPURT.DeclareBuffer "CMX_NN" [0] <64512> -> memref<48x1x1x4xsi32, [@CMX_NN, 0]> loc(#loc29)
    %52 = VPURT.DeclareBuffer "CMX_NN" [1] <64512> -> memref<48x1x1x4xsi32, [@CMX_NN, 1]> loc(#loc30)
    %53 = VPURT.DeclareBuffer "CMX_NN" [0] <65280> -> memref<1x1x1x16xui8, [@CMX_NN, 0]> loc(#loc31)
    %54 = VPURT.DeclareBuffer "CMX_NN" [1] <65280> -> memref<1x1x1x16xui8, [@CMX_NN, 1]> loc(#loc32)
    %55 = VPURT.DeclareBuffer "CMX_NN" [0] <65360> -> memref<4xui64, [@CMX_NN, 0]> loc(#loc33)
    %56 = VPURT.DeclareBuffer "CMX_NN" [1] <65360> -> memref<4xui64, [@CMX_NN, 1]> loc(#loc34)
    %57 = VPURT.DeclareBuffer "CMX_NN" [0] <72592> -> memref<4xui32, [@CMX_NN, 0]> loc(#loc35)
    %58 = VPURT.DeclareBuffer "Register" <637702144> -> memref<1xui64, @Register> loc(#loc36)
    %59 = VPURT.DeclareBuffer "CMX_NN" [0] <0> -> memref<1xui64, [@CMX_NN, 0]> loc(#loc36)
    %60 = VPURT.DeclareBuffer "Register" <637702144> -> memref<1xui64, @Register> loc(#loc37)
    %61 = VPURT.DeclareBuffer "CMX_NN" [0] <8> -> memref<1xui64, [@CMX_NN, 0]> loc(#loc37)
    %62 = VPURT.DeclareBuffer "Register" <637702144> -> memref<1xui64, @Register> loc(#loc38)
    %63 = VPURT.DeclareBuffer "CMX_NN" [0] <128> -> memref<1xui64, [@CMX_NN, 0]> loc(#loc38)
    %64 = VPURT.DeclareBuffer "Register" <637702144> -> memref<1xui64, @Register> loc(#loc39)
    %65 = VPURT.DeclareBuffer "CMX_NN" [0] <136> -> memref<1xui64, [@CMX_NN, 0]> loc(#loc39)
    %66 = VPURT.DeclareBuffer "Register" <637702144> -> memref<1xui64, @Register> loc(#loc40)
    %67 = VPURT.DeclareBuffer "CMX_NN" [0] <144> -> memref<1xui64, [@CMX_NN, 0]> loc(#loc40)
    %68 = VPURT.DeclareBuffer "Register" <637702144> -> memref<1xui64, @Register> loc(#loc41)
    %69 = VPURT.DeclareBuffer "CMX_NN" [0] <152> -> memref<1xui64, [@CMX_NN, 0]> loc(#loc41)
    %70 = VPURT.DeclareBuffer "Register" <637702144> -> memref<1xui64, @Register> loc(#loc36)
    %71 = VPURT.DeclareBuffer "CMX_NN" [0] <16> -> memref<1xui64, [@CMX_NN, 0]> loc(#loc36)
    %72 = VPURT.DeclareBuffer "Register" <637702144> -> memref<1xui64, @Register> loc(#loc42)
    %73 = VPURT.DeclareBuffer "CMX_NN" [0] <24> -> memref<1xui64, [@CMX_NN, 0]> loc(#loc42)
    %74 = VPURT.DeclareBuffer "Register" <637702144> -> memref<1xui64, @Register> loc(#loc43)
    %75 = VPURT.DeclareBuffer "CMX_NN" [0] <32> -> memref<1xui64, [@CMX_NN, 0]> loc(#loc43)
    %76 = VPURT.DeclareBuffer "Register" <637702144> -> memref<1xui64, @Register> loc(#loc44)
    %77 = VPURT.DeclareBuffer "CMX_NN" [0] <40> -> memref<1xui64, [@CMX_NN, 0]> loc(#loc44)
    %78 = VPURT.DeclareBuffer "Register" <637702144> -> memref<1xui64, @Register> loc(#loc45)
    %79 = VPURT.DeclareBuffer "CMX_NN" [0] <160> -> memref<1xui64, [@CMX_NN, 0]> loc(#loc45)
    %80 = VPURT.DeclareBuffer "Register" <637702144> -> memref<1xui64, @Register> loc(#loc46)
    %81 = VPURT.DeclareBuffer "CMX_NN" [0] <168> -> memref<1xui64, [@CMX_NN, 0]> loc(#loc46)
    %82 = VPURT.DeclareBuffer "Register" <637702144> -> memref<1xui64, @Register> loc(#loc38)
    %83 = VPURT.DeclareBuffer "CMX_NN" [0] <48> -> memref<1xui64, [@CMX_NN, 0]> loc(#loc38)
    %84 = VPURT.DeclareBuffer "Register" <637702144> -> memref<1xui64, @Register> loc(#loc47)
    %85 = VPURT.DeclareBuffer "CMX_NN" [0] <56> -> memref<1xui64, [@CMX_NN, 0]> loc(#loc47)
    %86 = VPURT.DeclareBuffer "Register" <637702144> -> memref<1xui64, @Register> loc(#loc48)
    %87 = VPURT.DeclareBuffer "CMX_NN" [0] <176> -> memref<1xui64, [@CMX_NN, 0]> loc(#loc48)
    %88 = VPURT.DeclareBuffer "Register" <637702144> -> memref<1xui64, @Register> loc(#loc49)
    %89 = VPURT.DeclareBuffer "CMX_NN" [0] <184> -> memref<1xui64, [@CMX_NN, 0]> loc(#loc49)
    %90 = VPURT.DeclareBuffer "Register" <637702144> -> memref<1xui64, @Register> loc(#loc50)
    %91 = VPURT.DeclareBuffer "CMX_NN" [0] <64> -> memref<1xui64, [@CMX_NN, 0]> loc(#loc50)
    %92 = VPURT.DeclareBuffer "Register" <637702144> -> memref<1xui64, @Register> loc(#loc51)
    %93 = VPURT.DeclareBuffer "CMX_NN" [0] <72> -> memref<1xui64, [@CMX_NN, 0]> loc(#loc51)
    %94 = VPURT.DeclareBuffer "CMX_NN" [0] <0> -> memref<10xui64, [@CMX_NN, 0]> loc(#loc52)
    %95 = VPURT.DeclareBuffer "ProfilingOutput" [0] <128> -> memref<10xui64> loc(#loc52)
    %96 = VPURT.DeclareBuffer "Register" <637702144> -> memref<1xui64, @Register> loc(#loc53)
    %97 = VPURT.DeclareBuffer "CMX_NN" [0] <192> -> memref<1xui64, [@CMX_NN, 0]> loc(#loc53)
    %98 = VPURT.DeclareBuffer "Register" <637702144> -> memref<1xui64, @Register> loc(#loc54)
    %99 = VPURT.DeclareBuffer "CMX_NN" [0] <200> -> memref<1xui64, [@CMX_NN, 0]> loc(#loc54)
    %100 = VPURT.DeclareBuffer "Register" <637702144> -> memref<1xui64, @Register> loc(#loc55)
    %101 = VPURT.DeclareBuffer "CMX_NN" [0] <208> -> memref<1xui64, [@CMX_NN, 0]> loc(#loc55)
    %102 = VPURT.DeclareBuffer "Register" <637702144> -> memref<1xui64, @Register> loc(#loc56)
    %103 = VPURT.DeclareBuffer "CMX_NN" [0] <216> -> memref<1xui64, [@CMX_NN, 0]> loc(#loc56)
    %104 = VPURT.DeclareBuffer "CMX_NN" [0] <128> -> memref<12xui64, [@CMX_NN, 0]> loc(#loc57)
    %105 = VPURT.DeclareBuffer "ProfilingOutput" [0] <208> -> memref<12xui64> loc(#loc57)
    %106 = VPURT.DeclareBuffer "ProfilingOutput" [0] <0> -> memref<12xui64> loc(#loc58)
    %107 = VPURT.DeclareBuffer "ProfilingOutput" [0] <96> -> memref<8xui32> loc(#loc58)
    %108 = VPURT.DeclareBuffer "ProfilingOutput" [0] <128> -> memref<22xui64> loc(#loc58)
    %pll_in1 = VPURT.DeclareBuffer "Register" <537403424> -> memref<1xui32, @Register> loc(#loc75)
    %pll_out1 = VPURT.DeclareBuffer "ProfilingOutput" [0] <308> -> memref<1xui32> loc(#loc75)
    VPURT.Task attributes {isTrailingSWLayer = false} {
      %114 = VPUIP.NNDMA {port = 0 : i64} inputs(%pll_in0 : memref<1xui32, @Register>) outputs(%pll_out0 : memref<1xui32>) -> memref<1xui32> loc(#loc75)
    } loc(#loc75)
    VPURT.Task attributes {isTrailingSWLayer = false} {
      %109 = VPUIP.NNDMA {port = 0 : i64} inputs(%58 : memref<1xui64, @Register>) outputs(%59 : memref<1xui64, [@CMX_NN, 0]>) -> memref<1xui64, [@CMX_NN, 0]> loc(#loc36)
    } loc(#loc36)
    VPURT.Task attributes {cycleBegin = 0 : i64, cycleEnd = 2061 : i64, isTrailingSWLayer = false} {
      %109 = VPUIP.NNDMA {port = 0 : i64} inputs(%8 : memref<1x3x62x62xf32, @DDR>) outputs(%16 : memref<1x3x62x62xf32, [@CMX_NN, 0]>) -> memref<1x3x62x62xf32, [@CMX_NN, 0]> loc(#loc4)
    } loc(#loc4)
    VPURT.Task updates(%0 : !VPURT.Barrier) attributes {isTrailingSWLayer = false} {
      %109 = VPUIP.NNDMA {port = 0 : i64} inputs(%60 : memref<1xui64, @Register>) outputs(%61 : memref<1xui64, [@CMX_NN, 0]>) -> memref<1xui64, [@CMX_NN, 0]> loc(#loc37)
    } loc(#loc37)
    VPURT.Task attributes {isTrailingSWLayer = false} {
      %109 = VPUIP.NNDMA {port = 1 : i64} inputs(%62 : memref<1xui64, @Register>) outputs(%63 : memref<1xui64, [@CMX_NN, 0]>) -> memref<1xui64, [@CMX_NN, 0]> loc(#loc38)
    } loc(#loc38)
    VPURT.Task attributes {cycleBegin = 0 : i64, cycleEnd = 1075 : i64, isTrailingSWLayer = false} {
      %109 = VPUIP.NNDMA {port = 1 : i64} inputs(%cst_0 : memref<48x3x3x3xf16, #NHWC>) outputs(%33 : !VPUIP.DistributedBuffer<48x3x3x3xf16, {order = #NHWC, strides = [32, 1, 9, 3]}, @CMX_NN, {mode = "DUPLICATED", num_clusters = 2 : i64}>) -> !VPUIP.DistributedBuffer<48x3x3x3xf16, {order = #NHWC, strides = [32, 1, 9, 3]}, @CMX_NN, {mode = "DUPLICATED", num_clusters = 2 : i64}> loc(#loc59)
    } loc(#loc59)
    VPURT.Task attributes {isTrailingSWLayer = false} {
      %109 = VPUIP.NNDMA {port = 1 : i64} inputs(%64 : memref<1xui64, @Register>) outputs(%65 : memref<1xui64, [@CMX_NN, 0]>) -> memref<1xui64, [@CMX_NN, 0]> loc(#loc39)
    } loc(#loc39)
    VPURT.Task attributes {isTrailingSWLayer = false} {
      %109 = VPUIP.NNDMA {port = 1 : i64} inputs(%66 : memref<1xui64, @Register>) outputs(%67 : memref<1xui64, [@CMX_NN, 0]>) -> memref<1xui64, [@CMX_NN, 0]> loc(#loc40)
    } loc(#loc40)
    VPURT.Task attributes {cycleBegin = 1075 : i64, cycleEnd = 6838 : i64, isTrailingSWLayer = false} {
      %109 = VPUIP.NNDMA {port = 1 : i64} inputs(%cst_2 : memref<1x13x62x62xf16>) outputs(%44 : memref<1x13x62x62xf16, {order = #NCHW, strides = [61504, 3844, 62, 1]}, @DDR>) -> memref<1x13x62x62xf16, {order = #NCHW, strides = [61504, 3844, 62, 1]}, @DDR> loc(#loc60)
    } loc(#loc60)
    VPURT.Task updates(%1 : !VPURT.Barrier) attributes {isTrailingSWLayer = false} {
      %109 = VPUIP.NNDMA {port = 1 : i64} inputs(%68 : memref<1xui64, @Register>) outputs(%69 : memref<1xui64, [@CMX_NN, 0]>) -> memref<1xui64, [@CMX_NN, 0]> loc(#loc41)
    } loc(#loc41)
    VPURT.Task waits(%0 : !VPURT.Barrier) updates(%2 : !VPURT.Barrier) attributes {cycleBegin = 2061 : i64, cycleEnd = 2063 : i64, isTrailingSWLayer = false} {
      %results, %profiling_output = VPUIP.SW.Kernel {result_segment_sizes = dense<1> : vector<2xi32>} @VPU.SW::@builtin_Convert inputs(%16 as %arg3: memref<1x3x62x62xf32, [@CMX_NN, 0]>) outputs(%17 as %arg4: memref<1x3x62x62xf16, [@CMX_NN, 0]>) profiling_data(%45 : memref<4xui32, [@CMX_NN, 0]>) on tile 0 -> (memref<1x3x62x62xf16, [@CMX_NN, 0]>, memref<4xui32, [@CMX_NN, 0]>){
        VPUIP.SW.Kernel.run(%arg3, %arg4) : memref<1x3x62x62xf32, [@CMX_NN, 0]>, memref<1x3x62x62xf16, [@CMX_NN, 0]> loc(#loc0)
      } loc(#loc61)
    } loc(#loc61)
    VPURT.Task waits(%2 : !VPURT.Barrier) attributes {isTrailingSWLayer = false} {
      %109 = VPUIP.NNDMA {port = 0 : i64} inputs(%70 : memref<1xui64, @Register>) outputs(%71 : memref<1xui64, [@CMX_NN, 0]>) -> memref<1xui64, [@CMX_NN, 0]> loc(#loc36)
    } loc(#loc36)
    VPURT.Task attributes {cycleBegin = 2063 : i64, cycleEnd = 4124 : i64, isTrailingSWLayer = false} {
      %109 = VPUIP.NNDMA {port = 0 : i64} inputs(%17 : memref<1x3x62x62xf16, [@CMX_NN, 0]>) outputs(%46 : memref<1x3x62x62xf16, {order = #NCHW, strides = [61504, 3844, 62, 1]}, @DDR>) -> memref<1x3x62x62xf16, {order = #NCHW, strides = [61504, 3844, 62, 1]}, @DDR> loc(#loc4)
    } loc(#loc4)
    VPURT.Task updates(%1 : !VPURT.Barrier) attributes {isTrailingSWLayer = false} {
      %109 = VPUIP.NNDMA {port = 0 : i64} inputs(%72 : memref<1xui64, @Register>) outputs(%73 : memref<1xui64, [@CMX_NN, 0]>) -> memref<1xui64, [@CMX_NN, 0]> loc(#loc42)
    } loc(#loc42)
    VPURT.Task waits(%1 : !VPURT.Barrier) attributes {isTrailingSWLayer = false} {
      %109 = VPUIP.NNDMA {port = 0 : i64} inputs(%74 : memref<1xui64, @Register>) outputs(%75 : memref<1xui64, [@CMX_NN, 0]>) -> memref<1xui64, [@CMX_NN, 0]> loc(#loc43)
    } loc(#loc43)
    VPURT.Task attributes {cycleBegin = 6838 : i64, cycleEnd = 13711 : i64, isTrailingSWLayer = false} {
      %109 = VPUIP.PermuteDMA {dma_descriptor = {dstPlaneStride = 2 : i64, dstStride = 32 : i64, dstWidth = 2 : i64, len = 3968 : i64, numPlanes = 16 : i64, srcPlaneStride = 7688 : i64, srcStride = 2 : i64, srcWidth = 3968 : i64}, port = 0 : i64} inputs(%18 : memref<16x1984xf16, @DDR>) outputs(%21 : memref<1984x16xf16, [@CMX_NN, 0]>) -> memref<1984x16xf16, [@CMX_NN, 0]> loc(#loc62)
    } loc(#loc62)
    VPURT.Task attributes {isTrailingSWLayer = false} {
      %109 = VPUIP.NNDMA {port = 0 : i64} inputs(%76 : memref<1xui64, @Register>) outputs(%77 : memref<1xui64, [@CMX_NN, 0]>) -> memref<1xui64, [@CMX_NN, 0]> loc(#loc44)
    } loc(#loc44)
    VPURT.Task waits(%1 : !VPURT.Barrier) attributes {isTrailingSWLayer = false} {
      %109 = VPUIP.NNDMA {port = 1 : i64} inputs(%78 : memref<1xui64, @Register>) outputs(%79 : memref<1xui64, [@CMX_NN, 0]>) -> memref<1xui64, [@CMX_NN, 0]> loc(#loc45)
    } loc(#loc45)
    VPURT.Task attributes {cycleBegin = 6838 : i64, cycleEnd = 13711 : i64, isTrailingSWLayer = false} {
      %109 = VPUIP.PermuteDMA {dma_descriptor = {dstPlaneStride = 2 : i64, dstStride = 32 : i64, dstWidth = 2 : i64, len = 3720 : i64, numPlanes = 16 : i64, srcPlaneStride = 7688 : i64, srcStride = 2 : i64, srcWidth = 3720 : i64}, port = 1 : i64} inputs(%19 : memref<16x1860xf16, @DDR>) outputs(%22 : memref<1860x16xf16, [@CMX_NN, 1]>) -> memref<1860x16xf16, [@CMX_NN, 1]> loc(#loc63)
    } loc(#loc63)
    VPURT.Task updates(%3 : !VPURT.Barrier) attributes {isTrailingSWLayer = false} {
      %109 = VPUIP.NNDMA {port = 1 : i64} inputs(%80 : memref<1xui64, @Register>) outputs(%81 : memref<1xui64, [@CMX_NN, 0]>) -> memref<1xui64, [@CMX_NN, 0]> loc(#loc46)
    } loc(#loc46)
    VPURT.Task attributes {isTrailingSWLayer = false} {
      %109 = VPUIP.NNDMA {port = 0 : i64} inputs(%82 : memref<1xui64, @Register>) outputs(%83 : memref<1xui64, [@CMX_NN, 0]>) -> memref<1xui64, [@CMX_NN, 0]> loc(#loc38)
    } loc(#loc38)
    VPURT.Task attributes {cycleBegin = 13711 : i64, cycleEnd = 14680 : i64, isTrailingSWLayer = false} {
      %109 = VPUIP.NNDMA {port = 0 : i64} inputs(%cst_1 : memref<48x1x1x4xsi32>) outputs(%27 : !VPUIP.DistributedBuffer<48x1x1x4xsi32, #NCHW, @CMX_NN, {mode = "DUPLICATED", num_clusters = 2 : i64}>) -> !VPUIP.DistributedBuffer<48x1x1x4xsi32, #NCHW, @CMX_NN, {mode = "DUPLICATED", num_clusters = 2 : i64}> loc(#loc59)
    } loc(#loc59)
    VPURT.Task updates(%3 : !VPURT.Barrier) attributes {isTrailingSWLayer = false} {
      %109 = VPUIP.NNDMA {port = 0 : i64} inputs(%84 : memref<1xui64, @Register>) outputs(%85 : memref<1xui64, [@CMX_NN, 0]>) -> memref<1xui64, [@CMX_NN, 0]> loc(#loc47)
    } loc(#loc47)
    VPURT.Task attributes {isTrailingSWLayer = false} {
      %109 = VPUIP.NNDMA {port = 1 : i64} inputs(%86 : memref<1xui64, @Register>) outputs(%87 : memref<1xui64, [@CMX_NN, 0]>) -> memref<1xui64, [@CMX_NN, 0]> loc(#loc48)
    } loc(#loc48)
    VPURT.Task attributes {cycleBegin = 13711 : i64, cycleEnd = 14699 : i64, isTrailingSWLayer = false} {
      %109 = VPUIP.NNDMA {port = 1 : i64} inputs(%cst : memref<1x1x1x784xui8>) outputs(%39 : !VPUIP.DistributedBuffer<1x1x1x784xui8, {order = #NCHW, strides = [784, 784, 784, 1]}, @CMX_NN, {mode = "DUPLICATED", num_clusters = 2 : i64}>) -> !VPUIP.DistributedBuffer<1x1x1x784xui8, {order = #NCHW, strides = [784, 784, 784, 1]}, @CMX_NN, {mode = "DUPLICATED", num_clusters = 2 : i64}> loc(#loc64)
    } loc(#loc64)
    VPURT.Task updates(%4 : !VPURT.Barrier) attributes {isTrailingSWLayer = false} {
      %109 = VPUIP.NNDMA {port = 1 : i64} inputs(%88 : memref<1xui64, @Register>) outputs(%89 : memref<1xui64, [@CMX_NN, 0]>) -> memref<1xui64, [@CMX_NN, 0]> loc(#loc49)
    } loc(#loc49)
    VPURT.Task waits(%3 : !VPURT.Barrier) updates(%4 : !VPURT.Barrier) attributes {cycleBegin = 14680 : i64, cycleEnd = 28277 : i64, isTrailingSWLayer = false} {
      %109:2 = VPUIP.NCEClusterTask {cm_sp_pattern = 7 : i64, is_segmented, kernel_padding = {bottom = 0 : i64, left = 0 : i64, right = 0 : i64, top = 0 : i64}, kernel_size = [3, 3], kernel_strides = [1, 1], task_type = "CONV"} input(%23 : memref<1x16x32x62xf16, #NHWC, [@CMX_NN, 0]>) weights(%47 : memref<48x16x3x3xf16, #NHWC, [@CMX_NN, 0]>) weight_table(%25 : memref<48x1x1x4xsi32, [@CMX_NN, 0]>) parent_input(%20 : !VPUIP.DistributedBuffer<1x16x62x62xf16, #NHWC, @CMX_NN, {mode = "SEGMENTED", num_tiles = [1, 1, 2, 1], num_clusters = 2 : i64, alignment = [1, 1, 2, 1]}>) parent_output(%28 : !VPUIP.DistributedBuffer<1x48x60x60xf16, #NHWC, @CMX_NN, {mode = "SEGMENTED", num_tiles = [1, 1, 2, 1], num_clusters = 2 : i64}>) outputs(%31 : memref<1x48x30x60xf16, #NHWC, [@CMX_NN, 0]>) profiling_data(%49 : memref<2xui64, [@CMX_NN, 0]>) -> memref<1x48x30x60xf16, #NHWC, [@CMX_NN, 0]>, memref<2xui64, [@CMX_NN, 0]> variants : {
        DPUTask {cluster_id = 0 : i64, mpe_mode = "CUBOID_16x16", outEnd = [59, 29, 47], outStart = [0, 0, 0], pad = {bottom = 0 : i64, left = 0 : i64, right = 0 : i64, top = 0 : i64}, workload_id = 0} loc(#loc4)
      } PPE : {
        PPETask "LRELU" {clamp_high = 2147483647 : i64, clamp_low = -2147483648 : i64, fp_prelu_alpha = 1.000000e+00 : f64, lrelu_mult = 1 : i64, lrelu_shift = 0 : i64} loc(#loc4)
      } loc(#loc65)
    } loc(#loc65)
    VPURT.Task waits(%3 : !VPURT.Barrier) updates(%4 : !VPURT.Barrier) attributes {cycleBegin = 14680 : i64, cycleEnd = 28277 : i64, isTrailingSWLayer = false} {
      %109:2 = VPUIP.NCEClusterTask {cm_sp_pattern = 7 : i64, is_segmented, kernel_padding = {bottom = 0 : i64, left = 0 : i64, right = 0 : i64, top = 0 : i64}, kernel_size = [3, 3], kernel_strides = [1, 1], task_type = "CONV"} input(%24 : memref<1x16x30x62xf16, #NHWC, [@CMX_NN, 1]>) weights(%48 : memref<48x16x3x3xf16, #NHWC, [@CMX_NN, 1]>) weight_table(%26 : memref<48x1x1x4xsi32, [@CMX_NN, 1]>) parent_input(%20 : !VPUIP.DistributedBuffer<1x16x62x62xf16, #NHWC, @CMX_NN, {mode = "SEGMENTED", num_tiles = [1, 1, 2, 1], num_clusters = 2 : i64, alignment = [1, 1, 2, 1]}>) parent_output(%28 : !VPUIP.DistributedBuffer<1x48x60x60xf16, #NHWC, @CMX_NN, {mode = "SEGMENTED", num_tiles = [1, 1, 2, 1], num_clusters = 2 : i64}>) outputs(%32 : memref<1x48x30x60xf16, #NHWC, [@CMX_NN, 1]>) profiling_data(%50 : memref<2xui64, [@CMX_NN, 1]>) -> memref<1x48x30x60xf16, #NHWC, [@CMX_NN, 1]>, memref<2xui64, [@CMX_NN, 1]> variants : {
        DPUTask {cluster_id = 1 : i64, mpe_mode = "CUBOID_16x16", outEnd = [59, 59, 47], outStart = [0, 30, 0], pad = {bottom = 0 : i64, left = 0 : i64, right = 0 : i64, top = 0 : i64}, workload_id = 0} loc(#loc4)
      } PPE : {
        PPETask "LRELU" {clamp_high = 2147483647 : i64, clamp_low = -2147483648 : i64, fp_prelu_alpha = 1.000000e+00 : f64, lrelu_mult = 1 : i64, lrelu_shift = 0 : i64} loc(#loc4)
      } loc(#loc66)
    } loc(#loc66)
    VPURT.Task waits(%4 : !VPURT.Barrier) updates(%5 : !VPURT.Barrier) attributes {cycleBegin = 28277 : i64, cycleEnd = 33607 : i64, isTrailingSWLayer = false} {
      %109:2 = VPUIP.NCEClusterTask {activation_window_channel_length = 27 : i64, is_segmented, is_superdense, kernel_padding = {bottom = 1 : i64, left = 0 : i64, right = 1 : i64, top = 0 : i64}, kernel_size = [3, 3], kernel_strides = [2, 2], task_type = "MAXPOOL"} input(%29 : memref<1x48x30x60xf16, #NHWC, [@CMX_NN, 0]>) weight_table(%51 : memref<48x1x1x4xsi32, [@CMX_NN, 0]>) activation_window(%53 : memref<1x1x1x16xui8, [@CMX_NN, 0]>) parent_input(%28 : !VPUIP.DistributedBuffer<1x48x60x60xf16, #NHWC, @CMX_NN, {mode = "SEGMENTED", num_tiles = [1, 1, 2, 1], num_clusters = 2 : i64}>) parent_output(%34 : !VPUIP.DistributedBuffer<1x48x30x30xf16, #NCHW, @CMX_NN, {mode = "SEGMENTED", num_tiles = [1, 1, 2, 1], num_clusters = 2 : i64}>) outputs(%37 : memref<1x48x15x30xf16, [@CMX_NN, 0]>) profiling_data(%55 : memref<4xui64, [@CMX_NN, 0]>) -> memref<1x48x15x30xf16, [@CMX_NN, 0]>, memref<4xui64, [@CMX_NN, 0]> variants : {
        DPUTask {cluster_id = 0 : i64, mpe_mode = "CUBOID_16x16", outEnd = [29, 14, 31], outStart = [0, 0, 0], pad = {bottom = 0 : i64, left = 0 : i64, right = 1 : i64, top = 0 : i64}, workload_id = 0} loc(#loc18)
        DPUTask {cluster_id = 0 : i64, mpe_mode = "CUBOID_16x16", outEnd = [29, 14, 47], outStart = [0, 0, 32], pad = {bottom = 0 : i64, left = 0 : i64, right = 1 : i64, top = 0 : i64}, workload_id = 1} loc(#loc18)
      } PPE : {
        PPETask "NOOP" {clamp_high = 2147483647 : i64, clamp_low = -2147483648 : i64, fp_prelu_alpha = 1.000000e+00 : f64, lrelu_mult = 1 : i64, lrelu_shift = 0 : i64} loc(#loc18)
      } loc(#loc67)
    } loc(#loc67)
    VPURT.Task waits(%4 : !VPURT.Barrier) updates(%5 : !VPURT.Barrier) attributes {cycleBegin = 28277 : i64, cycleEnd = 33607 : i64, isTrailingSWLayer = false} {
      %109:2 = VPUIP.NCEClusterTask {activation_window_channel_length = 27 : i64, is_segmented, is_superdense, kernel_padding = {bottom = 1 : i64, left = 0 : i64, right = 1 : i64, top = 0 : i64}, kernel_size = [3, 3], kernel_strides = [2, 2], task_type = "MAXPOOL"} input(%30 : memref<1x48x30x60xf16, #NHWC, [@CMX_NN, 1]>) weight_table(%52 : memref<48x1x1x4xsi32, [@CMX_NN, 1]>) activation_window(%54 : memref<1x1x1x16xui8, [@CMX_NN, 1]>) parent_input(%28 : !VPUIP.DistributedBuffer<1x48x60x60xf16, #NHWC, @CMX_NN, {mode = "SEGMENTED", num_tiles = [1, 1, 2, 1], num_clusters = 2 : i64}>) parent_output(%34 : !VPUIP.DistributedBuffer<1x48x30x30xf16, #NCHW, @CMX_NN, {mode = "SEGMENTED", num_tiles = [1, 1, 2, 1], num_clusters = 2 : i64}>) outputs(%38 : memref<1x48x15x30xf16, [@CMX_NN, 1]>) profiling_data(%56 : memref<4xui64, [@CMX_NN, 1]>) -> memref<1x48x15x30xf16, [@CMX_NN, 1]>, memref<4xui64, [@CMX_NN, 1]> variants : {
        DPUTask {cluster_id = 1 : i64, mpe_mode = "CUBOID_16x16", outEnd = [29, 29, 31], outStart = [0, 15, 0], pad = {bottom = 1 : i64, left = 0 : i64, right = 1 : i64, top = 0 : i64}, workload_id = 0} loc(#loc18)
        DPUTask {cluster_id = 1 : i64, mpe_mode = "CUBOID_16x16", outEnd = [29, 29, 47], outStart = [0, 15, 32], pad = {bottom = 1 : i64, left = 0 : i64, right = 1 : i64, top = 0 : i64}, workload_id = 1} loc(#loc18)
      } PPE : {
        PPETask "NOOP" {clamp_high = 2147483647 : i64, clamp_low = -2147483648 : i64, fp_prelu_alpha = 1.000000e+00 : f64, lrelu_mult = 1 : i64, lrelu_shift = 0 : i64} loc(#loc18)
      } loc(#loc68)
    } loc(#loc68)
    VPURT.Task waits(%5 : !VPURT.Barrier) attributes {cycleBegin = 33607 : i64, cycleEnd = 34559 : i64, isTrailingSWLayer = false} {
      %109 = VPUIP.NNDMA {port = 0 : i64} inputs(%14 : memref<6xui64, [@CMX_NN, 0]>) outputs(%10 : memref<6xui64, @DDR>) -> memref<6xui64, @DDR> loc(#loc69)
    } loc(#loc69)
    VPURT.Task waits(%5 : !VPURT.Barrier) attributes {cycleBegin = 33607 : i64, cycleEnd = 34559 : i64, isTrailingSWLayer = false} {
      %109 = VPUIP.NNDMA {port = 1 : i64} inputs(%15 : memref<6xui64, [@CMX_NN, 1]>) outputs(%11 : memref<6xui64, @DDR>) -> memref<6xui64, @DDR> loc(#loc70)
    } loc(#loc70)
    VPURT.Task attributes {isTrailingSWLayer = false} {
      %109 = VPUIP.NNDMA {port = 0 : i64} inputs(%90 : memref<1xui64, @Register>) outputs(%91 : memref<1xui64, [@CMX_NN, 0]>) -> memref<1xui64, [@CMX_NN, 0]> loc(#loc50)
    } loc(#loc50)
    VPURT.Task attributes {cycleBegin = 34559 : i64, cycleEnd = 39669 : i64, isTrailingSWLayer = false} {
      %109 = VPUIP.NNDMA {port = 0 : i64} inputs(%35 : memref<1x48x15x30xf16, [@CMX_NN, 0]>) outputs(%41 : memref<1x48x15x30xf16, {order = #NCHW, strides = [43200, 900, 30, 1]}, [@CMX_NN, 0]>) -> memref<1x48x15x30xf16, {order = #NCHW, strides = [43200, 900, 30, 1]}, [@CMX_NN, 0]> loc(#loc71)
    } loc(#loc71)
    VPURT.Task attributes {isTrailingSWLayer = false} {
      %109 = VPUIP.NNDMA {port = 0 : i64} inputs(%92 : memref<1xui64, @Register>) outputs(%93 : memref<1xui64, [@CMX_NN, 0]>) -> memref<1xui64, [@CMX_NN, 0]> loc(#loc51)
    } loc(#loc51)
    VPURT.Task updates(%6 : !VPURT.Barrier) attributes {isTrailingSWLayer = false} {
      %109 = VPUIP.NNDMA {port = 0 : i64} inputs(%94 : memref<10xui64, [@CMX_NN, 0]>) outputs(%95 : memref<10xui64>) -> memref<10xui64> loc(#loc52)
    } loc(#loc52)
    VPURT.Task attributes {isTrailingSWLayer = false} {
      %109 = VPUIP.NNDMA {port = 1 : i64} inputs(%96 : memref<1xui64, @Register>) outputs(%97 : memref<1xui64, [@CMX_NN, 0]>) -> memref<1xui64, [@CMX_NN, 0]> loc(#loc53)
    } loc(#loc53)
    VPURT.Task attributes {cycleBegin = 34559 : i64, cycleEnd = 39669 : i64, isTrailingSWLayer = false} {
      %109 = VPUIP.NNDMA {port = 1 : i64} inputs(%36 : memref<1x48x15x30xf16, [@CMX_NN, 1]>) outputs(%42 : memref<1x48x15x30xf16, {order = #NCHW, strides = [43200, 900, 30, 1]}, [@CMX_NN, 0]>) -> memref<1x48x15x30xf16, {order = #NCHW, strides = [43200, 900, 30, 1]}, [@CMX_NN, 0]> loc(#loc72)
    } loc(#loc72)
    VPURT.Task updates(%6 : !VPURT.Barrier) attributes {isTrailingSWLayer = false} {
      %109 = VPUIP.NNDMA {port = 1 : i64} inputs(%98 : memref<1xui64, @Register>) outputs(%99 : memref<1xui64, [@CMX_NN, 0]>) -> memref<1xui64, [@CMX_NN, 0]> loc(#loc54)
    } loc(#loc54)
    VPURT.Task waits(%6 : !VPURT.Barrier) updates(%7 : !VPURT.Barrier) attributes {cycleBegin = 39669 : i64, cycleEnd = 39671 : i64, isTrailingSWLayer = false} {
      %results, %profiling_output = VPUIP.SW.Kernel {result_segment_sizes = dense<1> : vector<2xi32>} @VPU.SW::@builtin_Convert inputs(%40 as %arg3: memref<1x48x30x30xf16, [@CMX_NN, 0]>) outputs(%43 as %arg4: memref<1x48x30x30xf32, [@CMX_NN, 0]>) profiling_data(%57 : memref<4xui32, [@CMX_NN, 0]>) on tile 0 -> (memref<1x48x30x30xf32, [@CMX_NN, 0]>, memref<4xui32, [@CMX_NN, 0]>){
        VPUIP.SW.Kernel.run(%arg3, %arg4) : memref<1x48x30x30xf16, [@CMX_NN, 0]>, memref<1x48x30x30xf32, [@CMX_NN, 0]> loc(#loc0)
      } loc(#loc73)
    } loc(#loc73)
    VPURT.Task waits(%7 : !VPURT.Barrier) attributes {cycleBegin = 39671 : i64, cycleEnd = 40623 : i64, isTrailingSWLayer = false} {
      %109 = VPUIP.NNDMA {port = 0 : i64} inputs(%13 : memref<8xui32, [@CMX_NN, 0]>) outputs(%12 : memref<8xui32>) -> memref<8xui32> loc(#loc74)
    } loc(#loc74)
    VPURT.Task waits(%7 : !VPURT.Barrier) attributes {isTrailingSWLayer = false} {
      %109 = VPUIP.NNDMA {port = 1 : i64} inputs(%100 : memref<1xui64, @Register>) outputs(%101 : memref<1xui64, [@CMX_NN, 0]>) -> memref<1xui64, [@CMX_NN, 0]> loc(#loc55)
    } loc(#loc55)
    VPURT.Task attributes {cycleBegin = 39671 : i64, cycleEnd = 44781 : i64, isTrailingSWLayer = false} {
      %109 = VPUIP.NNDMA {port = 1 : i64} inputs(%43 : memref<1x48x30x30xf32, [@CMX_NN, 0]>) outputs(%9 : memref<1x48x30x30xf32, @DDR>) -> memref<1x48x30x30xf32, @DDR> loc(#loc22)
    } loc(#loc22)
    VPURT.Task attributes {isTrailingSWLayer = false} {
      %109 = VPUIP.NNDMA {port = 1 : i64} inputs(%102 : memref<1xui64, @Register>) outputs(%103 : memref<1xui64, [@CMX_NN, 0]>) -> memref<1xui64, [@CMX_NN, 0]> loc(#loc56)
    } loc(#loc56)
    VPURT.Task attributes {isTrailingSWLayer = false} {
      %109 = VPUIP.NNDMA {port = 1 : i64} inputs(%104 : memref<12xui64, [@CMX_NN, 0]>) outputs(%105 : memref<12xui64>) -> memref<12xui64> loc(#loc57)
    } loc(#loc57)
    VPURT.Task attributes {isTrailingSWLayer = false} {
      %114 = VPUIP.NNDMA {port = 0 : i64} inputs(%pll_in1 : memref<1xui32, @Register>) outputs(%pll_out1 : memref<1xui32>) -> memref<1xui32> loc(#loc75)
    } loc(#loc75)
    return %arg1, %arg2 : memref<1x48x30x30xf32, @DDR>, memref<78xui32> loc(#loc22)
  } loc(#loc0)
} loc(#loc0)
#loc1 = loc("combinedProfilingDataOutputInfo")
#loc3 = loc(fused["pool1", "t_Convolution", "_fused_constant"])
#loc4 = loc(fused["conv1/WithoutBiases", "t_Convolution"])
#loc5 = loc(fused["conv1/WithoutBiases", "t_Convolution", "_constant_permute_1_13"])
#loc6 = loc("dpuProfilingCMX2DDR0")
#loc7 = loc("1_actProfilingSubviewBuffer_0")
#loc8 = loc(fused["conv1/WithoutBiases", "t_Convolution", "_cluster_0"])
#loc9 = loc(fused["conv1/WithoutBiases", "t_Convolution", "_cluster_1"])
#loc10 = loc(fused["conv1/WithoutBiases", "t_Convolution", "PROF_0_0_2_1-1,1,", "_input_cluster_0"])
#loc11 = loc(fused["conv1/WithoutBiases", "t_Convolution", "PROF_0_0_2_1-1,1,", "_input_cluster_1"])
#loc12 = loc(fused["conv1/WithoutBiases", "t_Convolution", "PROF_0_0_2_1-1,1,", "_weightTable_cluster_0"])
#loc13 = loc(fused["conv1/WithoutBiases", "t_Convolution", "PROF_0_0_2_1-1,1,", "_weightTable_cluster_1"])
#loc14 = loc(fused["pool1", "t_Convolution", "PROF_1_0_2_2-2,2,", "_input_cluster_0"])
#loc15 = loc(fused["pool1", "t_Convolution", "PROF_1_0_2_2-2,2,", "_input_cluster_1"])
#loc16 = loc(fused["conv1/WithoutBiases", "t_Convolution", "PROF_0_0_2_1-1,1,", "_outputBuff_cluster_0"])
#loc17 = loc(fused["conv1/WithoutBiases", "t_Convolution", "PROF_0_0_2_1-1,1,", "_outputBuff_cluster_1"])
#loc18 = loc(fused["pool1", "t_Convolution"])
#loc19 = loc(fused["pool1", "t_Convolution", "PROF_1_0_2_2-2,2,", "_outputBuff_cluster_0"])
#loc20 = loc(fused["pool1", "t_Convolution", "PROF_1_0_2_2-2,2,", "_outputBuff_cluster_1"])
#loc21 = loc(fused["pool1", "t_Convolution", "_fused_constant", "_fused_tile"])
#loc22 = loc("output")
#loc23 = loc(fused["conv1/WithoutBiases", "t_Convolution", "_expand_subview_1_13"])
#loc24 = loc(fused["1_actProfilingSubviewBuffer_0", "_actshaveProfilingSubview_0"])
#loc25 = loc(fused["conv1/WithoutBiases", "t_Convolution", "PROF_0_0_2_1-1,1,", "_weights_cluster_0"])
#loc26 = loc(fused["conv1/WithoutBiases", "t_Convolution", "PROF_0_0_2_1-1,1,", "_weights_cluster_1"])
#loc27 = loc(fused["conv1/WithoutBiases", "t_Convolution", "PROF_0_0_2_1-1,1,", "_profilingBuff_cluster_0"])
#loc28 = loc(fused["conv1/WithoutBiases", "t_Convolution", "PROF_0_0_2_1-1,1,", "_profilingBuff_cluster_1"])
#loc29 = loc(fused["pool1", "t_Convolution", "PROF_1_0_2_2-2,2,", "_weightTable_cluster_0"])
#loc30 = loc(fused["pool1", "t_Convolution", "PROF_1_0_2_2-2,2,", "_weightTable_cluster_1"])
#loc31 = loc(fused["pool1", "t_Convolution", "PROF_1_0_2_2-2,2,", "_activationWindow_cluster_0"])
#loc32 = loc(fused["pool1", "t_Convolution", "PROF_1_0_2_2-2,2,", "_activationWindow_cluster_1"])
#loc33 = loc(fused["pool1", "t_Convolution", "PROF_1_0_2_2-2,2,", "_profilingBuff_cluster_0"])
#loc34 = loc(fused["pool1", "t_Convolution", "PROF_1_0_2_2-2,2,", "_profilingBuff_cluster_1"])
#loc35 = loc(fused["1_actProfilingSubviewBuffer_0", "_actshaveProfilingSubview_4"])
#loc36 = loc(fused["conv1/WithoutBiases", "t_Convolution", "PROFTASKBEGIN"])
#loc37 = loc(fused["conv1/WithoutBiases", "t_Convolution", "PROFTASKEND_0"])
#loc38 = loc(fused["conv1/WithoutBiases", "t_Convolution", "_broadcast_copy_to_CMX[0,1]", "PROFTASKBEGIN"])
#loc39 = loc(fused["conv1/WithoutBiases", "t_Convolution", "_broadcast_copy_to_CMX[0,1]", "PROFTASKEND_5"])
#loc40 = loc(fused["conv1/WithoutBiases", "t_Convolution", "_expand_copy_1_13", "PROFTASKBEGIN"])
#loc41 = loc(fused["conv1/WithoutBiases", "t_Convolution", "_expand_copy_1_13", "PROFTASKEND_6"])
#loc42 = loc(fused["conv1/WithoutBiases", "t_Convolution", "PROFTASKEND_1"])
#loc43 = loc(fused["conv1/WithoutBiases", "t_Convolution", "_cluster_0", "_unrolled_permuteDMA", "PROFTASKBEGIN"])
#loc44 = loc(fused["conv1/WithoutBiases", "t_Convolution", "_cluster_0", "_unrolled_permuteDMA", "PROFTASKEND_2"])
#loc45 = loc(fused["conv1/WithoutBiases", "t_Convolution", "_cluster_1", "_unrolled_permuteDMA", "PROFTASKBEGIN"])
#loc46 = loc(fused["conv1/WithoutBiases", "t_Convolution", "_cluster_1", "_unrolled_permuteDMA", "PROFTASKEND_7"])
#loc47 = loc(fused["conv1/WithoutBiases", "t_Convolution", "_broadcast_copy_to_CMX[0,1]", "PROFTASKEND_3"])
#loc48 = loc(fused["pool1", "t_Convolution", "t_Convolution", "_fused_constant", "_fused_tile", "_broadcast_copy_to_CMX[0,1]", "PROFTASKBEGIN"])
#loc49 = loc(fused["pool1", "t_Convolution", "t_Convolution", "_fused_constant", "_fused_tile", "_broadcast_copy_to_CMX[0,1]", "PROFTASKEND_8"])
#loc50 = loc(fused["pool1", "t_Convolution", "t_Convolution", "_cluster_0", "PROFTASKBEGIN"])
#loc51 = loc(fused["pool1", "t_Convolution", "t_Convolution", "_cluster_0", "PROFTASKEND_4"])
#loc52 = loc("dmaProfilingCMX2DDR0")
#loc53 = loc(fused["pool1", "t_Convolution", "_cluster_1", "PROFTASKBEGIN"])
#loc54 = loc(fused["pool1", "t_Convolution", "_cluster_1", "PROFTASKEND_9"])
#loc55 = loc(fused["output", "PROFTASKBEGIN"])
#loc56 = loc(fused["output", "PROFTASKEND_10"])
#loc57 = loc("dmaProfilingCMX2DDR80")
#loc58 = loc("newProfilingBuffer")
#loc59 = loc(fused["conv1/WithoutBiases", "t_Convolution", "_broadcast_copy_to_CMX[0,1]"])
#loc60 = loc(fused["conv1/WithoutBiases", "t_Convolution", "_expand_copy_1_13"])
#loc61 = loc(fused["conv1/WithoutBiases", "t_Convolution", "PROF_0_2_0_0"])
#loc62 = loc(fused["conv1/WithoutBiases", "t_Convolution", "_cluster_0", "_unrolled_permuteDMA"])
#loc63 = loc(fused["conv1/WithoutBiases", "t_Convolution", "_cluster_1", "_unrolled_permuteDMA"])
#loc64 = loc(fused["pool1", "t_Convolution", "_fused_constant", "_fused_tile", "_broadcast_copy_to_CMX[0,1]"])
#loc65 = loc(fused["conv1/WithoutBiases", "t_Convolution", "PROF_0_0_2_1-1,1,", "_cluster_0"])
#loc66 = loc(fused["conv1/WithoutBiases", "t_Convolution", "PROF_0_0_2_1-1,1,", "_cluster_1"])
#loc67 = loc(fused["pool1", "t_Convolution", "PROF_1_0_2_2-2,2,", "_cluster_0"])
#loc68 = loc(fused["pool1", "t_Convolution", "PROF_1_0_2_2-2,2,", "_cluster_1"])
#loc69 = loc(fused["dpuProfilingCMX2DDR0", "_cluster_0"])
#loc70 = loc(fused["dpuProfilingCMX2DDR0", "_cluster_1"])
#loc71 = loc(fused["pool1", "t_Convolution", "_cluster_0"])
#loc72 = loc(fused["pool1", "t_Convolution", "_cluster_1"])
#loc73 = loc(fused["output", "PROF_0_2_1_0"])
#loc74 = loc("actshaveProfilingCMX2DDR0")
#loc75 = loc("PROFWORKPOINT_READ")