#NCHW = affine_map<(d0, d1, d2, d3) -> (d0, d1, d2, d3)>
#NHWC = affine_map<(d0, d1, d2, d3) -> (d0, d2, d3, d1)>
#NWCH = affine_map<(d0, d1, d2, d3) -> (d0, d3, d1, d2)>
#loc0 = loc(unknown)
#loc2 = loc("profiling_result")
module @age_gender attributes {VPU.arch = #VPU.arch_kind<VPUX37XX>, VPU.compilationMode = #VPU.compilation_mode<DefaultHW>} {
  module @UsedMemory {
    IE.MemoryResource 172800 bytes of @DDR loc(#loc0)
  } loc(#loc0)
  module @ReservedMemory {
    module @DmaProfilingReservedMemory {
      IE.MemoryResource 512 bytes of @CMX_NN offset 0 loc(#loc0)
    } loc(#loc0)
  } loc(#loc0)
  VPURT.SW.Runtime entryPoint : @VPU.SW::@runtime stack_configuration : [4096, 4096, 4096, 4096] loc(#loc0)
  module @VPU.SW {
    func.func private @builtin_Convert(memref<*xf32, [@CMX_NN, 0]>, memref<*xf16, [@CMX_NN, 0]>) attributes {VPU.kernel_code = "single_shave_convert.cpp", VPU.kernel_entry = "single_shave_convert"} loc(#loc0)
    func.func private @runtime() attributes {VPU.kernel_code = "nnActEntry"} loc(#loc0)
  } loc(#loc0)
  IE.ExecutorResource 2 of @NCE at 1.300000e+03 MHz {
    builtin.module @UsedMemory {
      IE.MemoryResource 259968 bytes of @CMX_NN loc(#loc0)
    } loc(#loc0)
    IE.MemoryResource 1784217 bytes of @CMX_NN_FragmentationAware loc(#loc0)
    IE.MemoryResource 1982464 bytes of @CMX_NN {VPU.bandwidth = 32 : i64, VPU.derateFactor = 1.000000e+00 : f64} loc(#loc0)
    IE.ExecutorResource 2 of @SHAVE_ACT  loc(#loc0)
    IE.ExecutorResource 1 of @SHAVE_NN  loc(#loc0)
    IE.ExecutorResource 1 of @DPU  loc(#loc0)
  } loc(#loc0)
  IE.ExecutorResource 2 of @DMA_NN  loc(#loc0)
  IE.MemoryResource 2306867200 bytes of @DDR {VPU.bandwidth = 8 : i64, VPU.derateFactor = 6.000000e-01 : f64} loc(#loc0)
  IE.CNNNetwork entryPoint : @main inputsInfo : {
    DataInfo "data" : tensor<1x3x62x62xf32> loc(#loc0)
  } outputsInfo : {
    DataInfo "prob" : tensor<1x48x30x30xf32> loc(#loc0)
  } profilingOutputsInfo : {
    DataInfo "profilingOutput" {
      VPUIP.ProfilingSection type 1 : 128 bytes from 0 loc(#loc0)
      VPUIP.ProfilingSection type 3 : 128 bytes from 128 loc(#loc0)
      VPUIP.ProfilingSection type 4 : 368 bytes from 256 loc(#loc0)
      VPUIP.ProfilingSection type 5 : 64 bytes from 640 loc(#loc0)
    } : tensor<176xui32> loc(#loc1)
  } loc(#loc0)
  func.func @main(%arg0: memref<1x3x62x62xf32, @DDR> loc(unknown), %arg1: memref<1x48x30x30xf32, @DDR> loc(unknown), %arg2: memref<176xui32> loc("profiling_result")) -> (memref<1x48x30x30xf32, @DDR>, memref<176xui32>) {
    %0 = VPURT.DeclareBuffer <Register> <537403424> -> memref<1xui32, @Register> loc(#loc3)
    %1 = VPURT.DeclareBuffer <ProfilingOutput> [0] <640> -> memref<1xui32> loc(#loc3)
    %2 = VPURT.ConfigureBarrier<0> -> !VPURT.Barrier loc(#loc4)
    %3 = VPURT.ConfigureBarrier<1> -> !VPURT.Barrier loc(#loc5)
    %4 = VPURT.ConfigureBarrier<2> -> !VPURT.Barrier loc(#loc5)
    %5 = VPURT.ConfigureBarrier<3> -> !VPURT.Barrier loc(#loc5)
    %6 = VPURT.ConfigureBarrier<4> -> !VPURT.Barrier loc(#loc5)
    %7 = VPURT.ConfigureBarrier<5> -> !VPURT.Barrier loc(#loc5)
    %8 = VPURT.ConfigureBarrier<6> -> !VPURT.Barrier loc(#loc6)
    %9 = VPURT.ConfigureBarrier<7> -> !VPURT.Barrier loc(#loc7)
    %10 = VPURT.ConfigureBarrier<8> -> !VPURT.Barrier loc(#loc8)
    %11 = VPURT.ConfigureBarrier<9> -> !VPURT.Barrier loc(#loc9)
    %12 = VPURT.ConfigureBarrier<10> -> !VPURT.Barrier loc(#loc8)
    %13 = VPURT.ConfigureBarrier<11> -> !VPURT.Barrier loc(#loc10)
    %cst = const.Declare memref<1x1x1x784xui8> = dense<"…"> : tensor<1x1x1x784xui8> loc(#loc11)
    %cst_0 = const.Declare memref<1x1x1x5376xui8> = dense<"…"> : tensor<1x1x1x5376xui8> loc(#loc12)
    %cst_1 = const.Declare memref<1x3x62x2xf16> = dense<0.000000e+00> : tensor<1x3x62x2xf16> loc(#loc13)
    %14 = VPURT.DeclareBuffer <NetworkInput> [0] <0> -> memref<1x3x62x62xf32, @DDR> loc(#loc13)
    %15 = VPURT.DeclareBuffer <ProfilingOutput> [0] <0> -> memref<8xui64, @DDR> loc(#loc9)
    %16 = VPURT.DeclareBuffer <ProfilingOutput> [0] <64> -> memref<8xui64, @DDR> loc(#loc9)
    %17 = VPURT.DeclareBuffer <ProfilingOutput> [0] <128> -> memref<16xui32, @DDR> loc(#loc14)
    %18 = VPURT.DeclareBuffer <ProfilingOutput> [0] <192> -> memref<16xui32, @DDR> loc(#loc14)
    %19 = VPURT.DeclareBuffer <CMX_NN> [0] <23616> -> memref<16xui32, [@CMX_NN, 0]> loc(#loc14)
    %20 = VPURT.DeclareBuffer <CMX_NN> [1] <23616> -> memref<16xui32, [@CMX_NN, 1]> loc(#loc14)
    %21 = VPURT.DeclareBuffer <CMX_NN> [0] <512> -> memref<8xui64, [@CMX_NN, 0]> loc(#loc9)
    %22 = VPURT.DeclareBuffer <CMX_NN> [1] <512> -> memref<8xui64, [@CMX_NN, 1]> loc(#loc9)
    %23 = VPURT.DeclareBuffer <CMX_NN> [0] <23680> -> memref<1x3x62x62xf32, [@CMX_NN, 0]> loc(#loc5)
    %24 = VPURT.DeclareBuffer <CMX_NN> [0] <512> -> memref<1x3x62x62xf16, [@CMX_NN, 0]> loc(#loc5)
    %25 = VPURT.DeclareBuffer <DDR> <0> -> memref<1x3x31x64xf16, {order = #NCHW, strides = [11904, 3968, 64, 1]}, @DDR> loc(#loc5)
    %26 = VPURT.DeclareBuffer <DDR> <3968> -> memref<1x3x31x64xf16, {order = #NCHW, strides = [11904, 3968, 64, 1]}, @DDR> loc(#loc5)
    %27 = VPURT.DeclareBuffer <CMX_NN> [0] <576> -> memref<1x3x31x64xf16, [@CMX_NN, 0]> loc(#loc5)
    %28 = VPURT.DeclareBuffer <CMX_NN> [1] <576> -> memref<1x3x31x64xf16, [@CMX_NN, 1]> loc(#loc5)
    %29 = VPURT.DeclareBuffer <CMX_NN> <23680> -> !VPUIP.DistributedBuffer<1x64x16x62xf16, #NWCH, @CMX_NN, {mode = "SEGMENTED", num_tiles = [1, 1, 1, 2], kernel = [1, 1], pads = #VPU.Padding<left = 0 : i64, right = 0 : i64, top = 0 : i64, bottom = 0 : i64>, strides = [1, 1], num_clusters = 2 : i64, equal_memory_and_compute_view}> loc(#loc5)
    %30 = VPURT.DeclareBuffer <CMX_NN> [0] <23680> -> memref<1x64x16x31xf16, #NWCH, [@CMX_NN, 0]> loc(#loc15)
    %31 = VPURT.DeclareBuffer <CMX_NN> [1] <23680> -> memref<1x64x16x31xf16, #NWCH, [@CMX_NN, 1]> loc(#loc16)
    %32 = VPURT.DeclareBuffer <DDR> <0> -> memref<1x16x32x62xf16, #NHWC, @DDR> loc(#loc17)
    %33 = VPURT.DeclareBuffer <DDR> <63488> -> memref<1x16x30x62xf16, #NHWC, @DDR> loc(#loc17)
    %34 = VPURT.DeclareBuffer <DDR> <0> -> memref<1x16x31x62xf16, #NHWC, @DDR> loc(#loc5)
    %35 = VPURT.DeclareBuffer <DDR> <61504> -> memref<1x16x31x62xf16, #NHWC, @DDR> loc(#loc5)
    %36 = VPURT.DeclareBuffer <CMX_NN> <196480> -> !VPUIP.DistributedBuffer<1x16x62x62xf16, #NHWC, @CMX_NN, {mode = "SEGMENTED", num_tiles = [1, 1, 2, 1], num_clusters = 2 : i64, alignment = [1, 1, 2, 1]}> loc(#loc17)
    %37 = VPURT.DeclareBuffer <CMX_NN> [0] <196480> -> memref<1x16x32x62xf16, #NHWC, [@CMX_NN, 0]> loc(#loc18)
    %38 = VPURT.DeclareBuffer <CMX_NN> [1] <196480> -> memref<1x16x30x62xf16, #NHWC, [@CMX_NN, 1]> loc(#loc19)
    %39 = VPURT.DeclareBuffer <CMX_NN> [0] <196480> -> memref<1x16x32x62xf16, #NHWC, [@CMX_NN, 0]> loc(#loc17)
    %40 = VPURT.DeclareBuffer <CMX_NN> [1] <196480> -> memref<1x16x30x62xf16, #NHWC, [@CMX_NN, 1]> loc(#loc17)
    %41 = VPURT.DeclareBuffer <CMX_NN> <23680> -> !VPUIP.DistributedBuffer<1x48x60x60xf16, #NHWC, @CMX_NN, {mode = "SEGMENTED", num_tiles = [1, 1, 2, 1], num_clusters = 2 : i64}> loc(#loc17)
    %42 = VPURT.DeclareBuffer <CMX_NN> [0] <23680> -> memref<1x48x30x60xf16, #NHWC, [@CMX_NN, 0]> loc(#loc20)
    %43 = VPURT.DeclareBuffer <CMX_NN> [1] <23680> -> memref<1x48x30x60xf16, #NHWC, [@CMX_NN, 1]> loc(#loc21)
    %44 = VPURT.DeclareBuffer <CMX_NN> [0] <23680> -> memref<1x48x30x60xf16, #NHWC, [@CMX_NN, 0]> loc(#loc22)
    %45 = VPURT.DeclareBuffer <CMX_NN> [1] <23680> -> memref<1x48x30x60xf16, #NHWC, [@CMX_NN, 1]> loc(#loc23)
    %46 = VPURT.DeclareBuffer <CMX_NN> [0, 1] <12480> -> !VPUIP.DistributedBuffer<1x1x1x5376xui8, {order = #NCHW, strides = [5376, 5376, 5376, 1]}, @CMX_NN, {mode = "DUPLICATED", num_clusters = 2 : i64}> loc(#loc6)
    %47 = VPURT.DeclareBuffer <CMX_NN> <196480> -> !VPUIP.DistributedBuffer<1x48x30x30xf16, #NCHW, @CMX_NN, {mode = "SEGMENTED", num_tiles = [1, 1, 2, 1], num_clusters = 2 : i64}> loc(#loc8)
    %48 = VPURT.DeclareBuffer <CMX_NN> [0] <196480> -> memref<1x48x15x30xf16, [@CMX_NN, 0]> loc(#loc8)
    %49 = VPURT.DeclareBuffer <CMX_NN> [1] <196480> -> memref<1x48x15x30xf16, [@CMX_NN, 1]> loc(#loc8)
    %50 = VPURT.DeclareBuffer <CMX_NN> [0] <196480> -> memref<1x48x15x30xf16, [@CMX_NN, 0]> loc(#loc8)
    %51 = VPURT.DeclareBuffer <CMX_NN> [1] <196480> -> memref<1x48x15x30xf16, [@CMX_NN, 1]> loc(#loc8)
    %52 = VPURT.DeclareBuffer <CMX_NN> [0] <196480> -> memref<1x48x15x30xf16, [@CMX_NN, 0]> loc(#loc24)
    %53 = VPURT.DeclareBuffer <CMX_NN> [1] <196480> -> memref<1x48x15x30xf16, [@CMX_NN, 1]> loc(#loc25)
    %54 = VPURT.DeclareBuffer <CMX_NN> [0, 1] <17856> -> !VPUIP.DistributedBuffer<1x1x1x784xui8, {order = #NCHW, strides = [784, 784, 784, 1]}, @CMX_NN, {mode = "DUPLICATED", num_clusters = 2 : i64}> loc(#loc7)
    %55 = VPURT.DeclareBuffer <DDR> <0> -> memref<1x48x15x30xf16, {order = #NCHW, strides = [43200, 900, 30, 1]}, @DDR> loc(#loc8)
    %56 = VPURT.DeclareBuffer <DDR> <900> -> memref<1x48x15x30xf16, {order = #NCHW, strides = [43200, 900, 30, 1]}, @DDR> loc(#loc8)
    %57 = VPURT.DeclareBuffer <CMX_NN> [0] <110080> -> memref<1x48x7x30xf16, [@CMX_NN, 0]> loc(#loc26)
    %58 = VPURT.DeclareBuffer <CMX_NN> [1] <110080> -> memref<1x48x7x30xf16, [@CMX_NN, 1]> loc(#loc27)
    %59 = VPURT.DeclareBuffer <CMX_NN> [0] <110080> -> memref<1x48x7x30xf16, [@CMX_NN, 0]> loc(#loc8)
    %60 = VPURT.DeclareBuffer <CMX_NN> [1] <110080> -> memref<1x48x7x30xf16, [@CMX_NN, 1]> loc(#loc8)
    %61 = VPURT.DeclareBuffer <DDR> <86400> -> memref<1x48x15x30xf16, {order = #NCHW, strides = [43200, 900, 30, 1]}, @DDR> loc(#loc8)
    %62 = VPURT.DeclareBuffer <DDR> <87300> -> memref<1x48x15x30xf16, {order = #NCHW, strides = [43200, 900, 30, 1]}, @DDR> loc(#loc8)
    %63 = VPURT.DeclareBuffer <CMX_NN> [0] <512> -> memref<1x48x8x30xf16, [@CMX_NN, 0]> loc(#loc28)
    %64 = VPURT.DeclareBuffer <CMX_NN> [1] <512> -> memref<1x48x8x30xf16, [@CMX_NN, 1]> loc(#loc29)
    %65 = VPURT.DeclareBuffer <CMX_NN> [0] <512> -> memref<1x48x8x30xf16, [@CMX_NN, 0]> loc(#loc8)
    %66 = VPURT.DeclareBuffer <CMX_NN> [1] <512> -> memref<1x48x8x30xf16, [@CMX_NN, 1]> loc(#loc8)
    %67 = VPURT.DeclareBuffer <CMX_NN> [0] <69760> -> memref<1x48x7x30xf32, [@CMX_NN, 0]> loc(#loc10)
    %68 = VPURT.DeclareBuffer <CMX_NN> [1] <69760> -> memref<1x48x7x30xf32, [@CMX_NN, 1]> loc(#loc10)
    %69 = VPURT.DeclareBuffer <CMX_NN> [0] <69760> -> memref<1x48x7x30xf32, [@CMX_NN, 0]> loc(#loc30)
    %70 = VPURT.DeclareBuffer <CMX_NN> [1] <69760> -> memref<1x48x7x30xf32, [@CMX_NN, 1]> loc(#loc31)
    %71 = VPURT.DeclareBuffer <CMX_NN> [0] <23680> -> memref<1x48x8x30xf32, [@CMX_NN, 0]> loc(#loc10)
    %72 = VPURT.DeclareBuffer <CMX_NN> [1] <23680> -> memref<1x48x8x30xf32, [@CMX_NN, 1]> loc(#loc10)
    %73 = VPURT.DeclareBuffer <CMX_NN> [0] <23680> -> memref<1x48x8x30xf32, [@CMX_NN, 0]> loc(#loc32)
    %74 = VPURT.DeclareBuffer <CMX_NN> [1] <23680> -> memref<1x48x8x30xf32, [@CMX_NN, 1]> loc(#loc33)
    %75 = VPURT.DeclareBuffer <DDR> <124> -> memref<1x3x62x2xf16, {order = #NCHW, strides = [11904, 3968, 64, 1]}, @DDR> loc(#loc34)
    %76 = VPURT.DeclareBuffer <CMX_NN> [0] <23680> -> memref<1x2x62x62xf32, {order = #NCHW, strides = [11532, 3844, 62, 1]}, [@CMX_NN, 0]> loc(#loc5)
    %77 = VPURT.DeclareBuffer <CMX_NN> [0] <512> -> memref<1x2x62x62xf16, {order = #NCHW, strides = [11532, 3844, 62, 1]}, [@CMX_NN, 0]> loc(#loc5)
    %78 = VPURT.DeclareBuffer <CMX_NN> [0] <54432> -> memref<1x1x62x62xf32, {order = #NCHW, strides = [11532, 3844, 62, 1]}, [@CMX_NN, 0]> loc(#loc5)
    %79 = VPURT.DeclareBuffer <CMX_NN> [0] <15888> -> memref<1x1x62x62xf16, {order = #NCHW, strides = [11532, 3844, 62, 1]}, [@CMX_NN, 0]> loc(#loc5)
    %80 = VPURT.DeclareBuffer <DDR> <0> -> memref<1x3x62x62xf16, {order = #NCHW, strides = [11904, 3968, 64, 1]}, @DDR> loc(#loc5)
    %81 = VPURT.DeclareBuffer <CMX_NN> <576> -> !VPUIP.DistributedBuffer<1x64x3x62xf16, #NHWC, @CMX_NN, {mode = "SEGMENTED", num_tiles = [1, 1, 1, 2], kernel = [1, 1], pads = #VPU.Padding<left = 0 : i64, right = 0 : i64, top = 0 : i64, bottom = 0 : i64>, strides = [1, 1], num_clusters = 2 : i64}> loc(#loc35)
    %82 = VPURT.DeclareBuffer <CMX_NN> [0] <576> -> memref<1x64x3x31xf16, #NHWC, [@CMX_NN, 0]> loc(#loc36)
    %83 = VPURT.DeclareBuffer <CMX_NN> [1] <576> -> memref<1x64x3x31xf16, #NHWC, [@CMX_NN, 1]> loc(#loc37)
    %84 = VPURT.DeclareBuffer <CMX_NN> [0] <576> -> memref<1x64x3x31xf16, #NHWC, [@CMX_NN, 0]> loc(#loc38)
    %85 = VPURT.DeclareBuffer <CMX_NN> [1] <576> -> memref<1x64x3x31xf16, #NHWC, [@CMX_NN, 1]> loc(#loc39)
    %86 = VPURT.DeclareBuffer <CMX_NN> [0] <512> -> memref<2xui64, [@CMX_NN, 0]> loc(#loc40)
    %87 = VPURT.DeclareBuffer <CMX_NN> [1] <512> -> memref<2xui64, [@CMX_NN, 1]> loc(#loc41)
    %88 = VPURT.DeclareBuffer <CMX_NN> [0] <23680> -> memref<1x16x31x62xf16, {order = #NHWC, strides = [63488, 1, 1024, 16]}, [@CMX_NN, 0]> loc(#loc5)
    %89 = VPURT.DeclareBuffer <CMX_NN> [1] <23680> -> memref<1x16x31x62xf16, {order = #NHWC, strides = [63488, 1, 1024, 16]}, [@CMX_NN, 1]> loc(#loc5)
    %90 = VPURT.DeclareBuffer <CMX_NN> [0] <12480> -> memref<48x1x1x4xsi32, [@CMX_NN, 0]> loc(#loc42)
    %91 = VPURT.DeclareBuffer <CMX_NN> [1] <12480> -> memref<48x1x1x4xsi32, [@CMX_NN, 1]> loc(#loc43)
    %92 = VPURT.DeclareBuffer <CMX_NN> [0] <13248> -> memref<48x16x3x3xf16, {compressionScheme = #VPUIP.CompressionSchemeAttr<axis = 0 : i64, numElems = dense<27> : tensor<48xi64>, alignment = 16 : i64>, order = #NHWC}, [@CMX_NN, 0]> loc(#loc44)
    %93 = VPURT.DeclareBuffer <CMX_NN> [1] <13248> -> memref<48x16x3x3xf16, {compressionScheme = #VPUIP.CompressionSchemeAttr<axis = 0 : i64, numElems = dense<27> : tensor<48xi64>, alignment = 16 : i64>, order = #NHWC}, [@CMX_NN, 1]> loc(#loc45)
    %94 = VPURT.DeclareBuffer <CMX_NN> [0] <16320> -> memref<48x1x1x256xi1, [@CMX_NN, 0]> loc(#loc46)
    %95 = VPURT.DeclareBuffer <CMX_NN> [1] <16320> -> memref<48x1x1x256xi1, [@CMX_NN, 1]> loc(#loc47)
    %96 = VPURT.DeclareBuffer <CMX_NN> [0] <528> -> memref<2xui64, [@CMX_NN, 0]> loc(#loc48)
    %97 = VPURT.DeclareBuffer <CMX_NN> [1] <528> -> memref<2xui64, [@CMX_NN, 1]> loc(#loc49)
    %98 = VPURT.DeclareBuffer <CMX_NN> [0] <17856> -> memref<48x1x1x4xsi32, [@CMX_NN, 0]> loc(#loc50)
    %99 = VPURT.DeclareBuffer <CMX_NN> [1] <17856> -> memref<48x1x1x4xsi32, [@CMX_NN, 1]> loc(#loc51)
    %100 = VPURT.DeclareBuffer <CMX_NN> [0] <18624> -> memref<1x1x1x16xui8, [@CMX_NN, 0]> loc(#loc52)
    %101 = VPURT.DeclareBuffer <CMX_NN> [1] <18624> -> memref<1x1x1x16xui8, [@CMX_NN, 1]> loc(#loc53)
    %102 = VPURT.DeclareBuffer <CMX_NN> [0] <544> -> memref<4xui64, [@CMX_NN, 0]> loc(#loc54)
    %103 = VPURT.DeclareBuffer <CMX_NN> [1] <544> -> memref<4xui64, [@CMX_NN, 1]> loc(#loc55)
    %104 = VPURT.DeclareBuffer <DDR> <960> -> memref<1x48x7x30xf16, {order = #NCHW, strides = [43200, 900, 30, 1]}, @DDR> loc(#loc8)
    %105 = VPURT.DeclareBuffer <DDR> <1380> -> memref<1x48x7x30xf16, {order = #NCHW, strides = [43200, 900, 30, 1]}, @DDR> loc(#loc8)
    %106 = VPURT.DeclareBuffer <DDR> <86400> -> memref<1x48x8x30xf16, {order = #NCHW, strides = [43200, 900, 30, 1]}, @DDR> loc(#loc8)
    %107 = VPURT.DeclareBuffer <DDR> <86880> -> memref<1x48x8x30xf16, {order = #NCHW, strides = [43200, 900, 30, 1]}, @DDR> loc(#loc8)
    %108 = VPURT.DeclareBuffer <NetworkOutput> [0] <0> -> memref<1x48x8x30xf32, {order = #NCHW, strides = [43200, 900, 30, 1]}, @DDR> loc(#loc10)
    %109 = VPURT.DeclareBuffer <NetworkOutput> [0] <960> -> memref<1x48x8x30xf32, {order = #NCHW, strides = [43200, 900, 30, 1]}, @DDR> loc(#loc10)
    %110 = VPURT.DeclareBuffer <NetworkOutput> [0] <1920> -> memref<1x48x7x30xf32, {order = #NCHW, strides = [43200, 900, 30, 1]}, @DDR> loc(#loc10)
    %111 = VPURT.DeclareBuffer <NetworkOutput> [0] <2760> -> memref<1x48x7x30xf32, {order = #NCHW, strides = [43200, 900, 30, 1]}, @DDR> loc(#loc10)
    %112 = VPURT.DeclareBuffer <Register> <637702144> -> memref<1xui64, @Register> loc(#loc56)
    %113 = VPURT.DeclareBuffer <CMX_NN> [0] <256> -> memref<1xui64, [@CMX_NN, 0]> loc(#loc56)
    %114 = VPURT.DeclareBuffer <Register> <637702144> -> memref<1xui64, @Register> loc(#loc57)
    %115 = VPURT.DeclareBuffer <CMX_NN> [0] <264> -> memref<1xui64, [@CMX_NN, 0]> loc(#loc57)
    %116 = VPURT.DeclareBuffer <Register> <637702144> -> memref<1xui64, @Register> loc(#loc58)
    %117 = VPURT.DeclareBuffer <CMX_NN> [0] <0> -> memref<1xui64, [@CMX_NN, 0]> loc(#loc58)
    %118 = VPURT.DeclareBuffer <Register> <637702144> -> memref<1xui64, @Register> loc(#loc59)
    %119 = VPURT.DeclareBuffer <CMX_NN> [0] <8> -> memref<1xui64, [@CMX_NN, 0]> loc(#loc59)
    %120 = VPURT.DeclareBuffer <CMX_NN> [0] <23616> -> memref<4xui32, [@CMX_NN, 0]> loc(#loc60)
    %121 = VPURT.DeclareBuffer <CMX_NN> [0] <23632> -> memref<4xui32, [@CMX_NN, 0]> loc(#loc60)
    %122 = VPURT.DeclareBuffer <Register> <637702144> -> memref<1xui64, @Register> loc(#loc58)
    %123 = VPURT.DeclareBuffer <CMX_NN> [0] <16> -> memref<1xui64, [@CMX_NN, 0]> loc(#loc58)
    %124 = VPURT.DeclareBuffer <Register> <637702144> -> memref<1xui64, @Register> loc(#loc61)
    %125 = VPURT.DeclareBuffer <CMX_NN> [0] <24> -> memref<1xui64, [@CMX_NN, 0]> loc(#loc61)
    %126 = VPURT.DeclareBuffer <Register> <637702144> -> memref<1xui64, @Register> loc(#loc62)
    %127 = VPURT.DeclareBuffer <CMX_NN> [0] <32> -> memref<1xui64, [@CMX_NN, 0]> loc(#loc62)
    %128 = VPURT.DeclareBuffer <Register> <637702144> -> memref<1xui64, @Register> loc(#loc63)
    %129 = VPURT.DeclareBuffer <CMX_NN> [0] <40> -> memref<1xui64, [@CMX_NN, 0]> loc(#loc63)
    %130 = VPURT.DeclareBuffer <Register> <637702144> -> memref<1xui64, @Register> loc(#loc64)
    %131 = VPURT.DeclareBuffer <CMX_NN> [0] <272> -> memref<1xui64, [@CMX_NN, 0]> loc(#loc64)
    %132 = VPURT.DeclareBuffer <Register> <637702144> -> memref<1xui64, @Register> loc(#loc65)
    %133 = VPURT.DeclareBuffer <CMX_NN> [0] <280> -> memref<1xui64, [@CMX_NN, 0]> loc(#loc65)
    %134 = VPURT.DeclareBuffer <Register> <637702144> -> memref<1xui64, @Register> loc(#loc66)
    %135 = VPURT.DeclareBuffer <CMX_NN> [0] <48> -> memref<1xui64, [@CMX_NN, 0]> loc(#loc66)
    %136 = VPURT.DeclareBuffer <Register> <637702144> -> memref<1xui64, @Register> loc(#loc67)
    %137 = VPURT.DeclareBuffer <CMX_NN> [0] <56> -> memref<1xui64, [@CMX_NN, 0]> loc(#loc67)
    %138 = VPURT.DeclareBuffer <Register> <637702144> -> memref<1xui64, @Register> loc(#loc62)
    %139 = VPURT.DeclareBuffer <CMX_NN> [0] <64> -> memref<1xui64, [@CMX_NN, 0]> loc(#loc62)
    %140 = VPURT.DeclareBuffer <Register> <637702144> -> memref<1xui64, @Register> loc(#loc68)
    %141 = VPURT.DeclareBuffer <CMX_NN> [0] <72> -> memref<1xui64, [@CMX_NN, 0]> loc(#loc68)
    %142 = VPURT.DeclareBuffer <Register> <637702144> -> memref<1xui64, @Register> loc(#loc64)
    %143 = VPURT.DeclareBuffer <CMX_NN> [0] <288> -> memref<1xui64, [@CMX_NN, 0]> loc(#loc64)
    %144 = VPURT.DeclareBuffer <Register> <637702144> -> memref<1xui64, @Register> loc(#loc69)
    %145 = VPURT.DeclareBuffer <CMX_NN> [0] <296> -> memref<1xui64, [@CMX_NN, 0]> loc(#loc69)
    %146 = VPURT.DeclareBuffer <Register> <637702144> -> memref<1xui64, @Register> loc(#loc70)
    %147 = VPURT.DeclareBuffer <CMX_NN> [0] <80> -> memref<1xui64, [@CMX_NN, 0]> loc(#loc70)
    %148 = VPURT.DeclareBuffer <Register> <637702144> -> memref<1xui64, @Register> loc(#loc71)
    %149 = VPURT.DeclareBuffer <CMX_NN> [0] <88> -> memref<1xui64, [@CMX_NN, 0]> loc(#loc71)
    %150 = VPURT.DeclareBuffer <Register> <637702144> -> memref<1xui64, @Register> loc(#loc72)
    %151 = VPURT.DeclareBuffer <CMX_NN> [0] <304> -> memref<1xui64, [@CMX_NN, 0]> loc(#loc72)
    %152 = VPURT.DeclareBuffer <Register> <637702144> -> memref<1xui64, @Register> loc(#loc73)
    %153 = VPURT.DeclareBuffer <CMX_NN> [0] <312> -> memref<1xui64, [@CMX_NN, 0]> loc(#loc73)
    %154 = VPURT.DeclareBuffer <Register> <637702144> -> memref<1xui64, @Register> loc(#loc74)
    %155 = VPURT.DeclareBuffer <CMX_NN> [0] <96> -> memref<1xui64, [@CMX_NN, 0]> loc(#loc74)
    %156 = VPURT.DeclareBuffer <Register> <637702144> -> memref<1xui64, @Register> loc(#loc75)
    %157 = VPURT.DeclareBuffer <CMX_NN> [0] <104> -> memref<1xui64, [@CMX_NN, 0]> loc(#loc75)
    %158 = VPURT.DeclareBuffer <Register> <637702144> -> memref<1xui64, @Register> loc(#loc76)
    %159 = VPURT.DeclareBuffer <CMX_NN> [0] <112> -> memref<1xui64, [@CMX_NN, 0]> loc(#loc76)
    %160 = VPURT.DeclareBuffer <Register> <637702144> -> memref<1xui64, @Register> loc(#loc77)
    %161 = VPURT.DeclareBuffer <CMX_NN> [0] <120> -> memref<1xui64, [@CMX_NN, 0]> loc(#loc77)
    %162 = VPURT.DeclareBuffer <Register> <637702144> -> memref<1xui64, @Register> loc(#loc78)
    %163 = VPURT.DeclareBuffer <CMX_NN> [0] <320> -> memref<1xui64, [@CMX_NN, 0]> loc(#loc78)
    %164 = VPURT.DeclareBuffer <Register> <637702144> -> memref<1xui64, @Register> loc(#loc79)
    %165 = VPURT.DeclareBuffer <CMX_NN> [0] <328> -> memref<1xui64, [@CMX_NN, 0]> loc(#loc79)
    %166 = VPURT.DeclareBuffer <Register> <637702144> -> memref<1xui64, @Register> loc(#loc76)
    %167 = VPURT.DeclareBuffer <CMX_NN> [0] <128> -> memref<1xui64, [@CMX_NN, 0]> loc(#loc76)
    %168 = VPURT.DeclareBuffer <Register> <637702144> -> memref<1xui64, @Register> loc(#loc80)
    %169 = VPURT.DeclareBuffer <CMX_NN> [0] <136> -> memref<1xui64, [@CMX_NN, 0]> loc(#loc80)
    %170 = VPURT.DeclareBuffer <Register> <637702144> -> memref<1xui64, @Register> loc(#loc78)
    %171 = VPURT.DeclareBuffer <CMX_NN> [0] <336> -> memref<1xui64, [@CMX_NN, 0]> loc(#loc78)
    %172 = VPURT.DeclareBuffer <Register> <637702144> -> memref<1xui64, @Register> loc(#loc81)
    %173 = VPURT.DeclareBuffer <CMX_NN> [0] <344> -> memref<1xui64, [@CMX_NN, 0]> loc(#loc81)
    %174 = VPURT.DeclareBuffer <Register> <637702144> -> memref<1xui64, @Register> loc(#loc76)
    %175 = VPURT.DeclareBuffer <CMX_NN> [0] <144> -> memref<1xui64, [@CMX_NN, 0]> loc(#loc76)
    %176 = VPURT.DeclareBuffer <Register> <637702144> -> memref<1xui64, @Register> loc(#loc82)
    %177 = VPURT.DeclareBuffer <CMX_NN> [0] <152> -> memref<1xui64, [@CMX_NN, 0]> loc(#loc82)
    %178 = VPURT.DeclareBuffer <Register> <637702144> -> memref<1xui64, @Register> loc(#loc78)
    %179 = VPURT.DeclareBuffer <CMX_NN> [0] <352> -> memref<1xui64, [@CMX_NN, 0]> loc(#loc78)
    %180 = VPURT.DeclareBuffer <Register> <637702144> -> memref<1xui64, @Register> loc(#loc83)
    %181 = VPURT.DeclareBuffer <CMX_NN> [0] <360> -> memref<1xui64, [@CMX_NN, 0]> loc(#loc83)
    %182 = VPURT.DeclareBuffer <Register> <637702144> -> memref<1xui64, @Register> loc(#loc76)
    %183 = VPURT.DeclareBuffer <CMX_NN> [0] <160> -> memref<1xui64, [@CMX_NN, 0]> loc(#loc76)
    %184 = VPURT.DeclareBuffer <Register> <637702144> -> memref<1xui64, @Register> loc(#loc84)
    %185 = VPURT.DeclareBuffer <CMX_NN> [0] <168> -> memref<1xui64, [@CMX_NN, 0]> loc(#loc84)
    %186 = VPURT.DeclareBuffer <Register> <637702144> -> memref<1xui64, @Register> loc(#loc78)
    %187 = VPURT.DeclareBuffer <CMX_NN> [0] <368> -> memref<1xui64, [@CMX_NN, 0]> loc(#loc78)
    %188 = VPURT.DeclareBuffer <Register> <637702144> -> memref<1xui64, @Register> loc(#loc85)
    %189 = VPURT.DeclareBuffer <CMX_NN> [0] <376> -> memref<1xui64, [@CMX_NN, 0]> loc(#loc85)
    %190 = VPURT.DeclareBuffer <CMX_NN> [0] <23648> -> memref<4xui32, [@CMX_NN, 0]> loc(#loc86)
    %191 = VPURT.DeclareBuffer <CMX_NN> [1] <23648> -> memref<4xui32, [@CMX_NN, 1]> loc(#loc87)
    %192 = VPURT.DeclareBuffer <CMX_NN> [0] <23664> -> memref<4xui32, [@CMX_NN, 0]> loc(#loc88)
    %193 = VPURT.DeclareBuffer <CMX_NN> [1] <23664> -> memref<4xui32, [@CMX_NN, 1]> loc(#loc89)
    %194 = VPURT.DeclareBuffer <Register> <637702144> -> memref<1xui64, @Register> loc(#loc90)
    %195 = VPURT.DeclareBuffer <CMX_NN> [0] <176> -> memref<1xui64, [@CMX_NN, 0]> loc(#loc90)
    %196 = VPURT.DeclareBuffer <Register> <637702144> -> memref<1xui64, @Register> loc(#loc91)
    %197 = VPURT.DeclareBuffer <CMX_NN> [0] <184> -> memref<1xui64, [@CMX_NN, 0]> loc(#loc91)
    %198 = VPURT.DeclareBuffer <Register> <637702144> -> memref<1xui64, @Register> loc(#loc92)
    %199 = VPURT.DeclareBuffer <CMX_NN> [0] <384> -> memref<1xui64, [@CMX_NN, 0]> loc(#loc92)
    %200 = VPURT.DeclareBuffer <Register> <637702144> -> memref<1xui64, @Register> loc(#loc93)
    %201 = VPURT.DeclareBuffer <CMX_NN> [0] <392> -> memref<1xui64, [@CMX_NN, 0]> loc(#loc93)
    %202 = VPURT.DeclareBuffer <Register> <637702144> -> memref<1xui64, @Register> loc(#loc90)
    %203 = VPURT.DeclareBuffer <CMX_NN> [0] <192> -> memref<1xui64, [@CMX_NN, 0]> loc(#loc90)
    %204 = VPURT.DeclareBuffer <Register> <637702144> -> memref<1xui64, @Register> loc(#loc94)
    %205 = VPURT.DeclareBuffer <CMX_NN> [0] <200> -> memref<1xui64, [@CMX_NN, 0]> loc(#loc94)
    %206 = VPURT.DeclareBuffer <CMX_NN> [0] <0> -> memref<26xui64, [@CMX_NN, 0]> loc(#loc95)
    %207 = VPURT.DeclareBuffer <ProfilingOutput> [0] <256> -> memref<26xui64> loc(#loc95)
    %208 = VPURT.DeclareBuffer <Register> <637702144> -> memref<1xui64, @Register> loc(#loc92)
    %209 = VPURT.DeclareBuffer <CMX_NN> [0] <400> -> memref<1xui64, [@CMX_NN, 0]> loc(#loc92)
    %210 = VPURT.DeclareBuffer <Register> <637702144> -> memref<1xui64, @Register> loc(#loc96)
    %211 = VPURT.DeclareBuffer <CMX_NN> [0] <408> -> memref<1xui64, [@CMX_NN, 0]> loc(#loc96)
    %212 = VPURT.DeclareBuffer <CMX_NN> [0] <256> -> memref<20xui64, [@CMX_NN, 0]> loc(#loc97)
    %213 = VPURT.DeclareBuffer <ProfilingOutput> [0] <464> -> memref<20xui64> loc(#loc97)
    %214 = VPURT.DeclareBuffer <Register> <537403424> -> memref<1xui32, @Register> loc(#loc3)
    %215 = VPURT.DeclareBuffer <ProfilingOutput> [0] <644> -> memref<1xui32> loc(#loc3)
    %216 = VPURT.DeclareBuffer <ProfilingOutput> [0] <0> -> memref<16xui64> loc(#loc98)
    %217 = VPURT.DeclareBuffer <ProfilingOutput> [0] <128> -> memref<32xui32> loc(#loc98)
    %218 = VPURT.DeclareBuffer <ProfilingOutput> [0] <256> -> memref<46xui64> loc(#loc98)
    %219 = VPURT.DeclareBuffer <ProfilingOutput> [0] <640> -> memref<16xui32> loc(#loc98)
    VPURT.Task attributes {isTrailingSWLayer = false} {
      %220 = VPUIP.NNDMA {is_out_of_order, port = 0 : i64} inputs(%0 : memref<1xui32, @Register>) outputs(%1 : memref<1xui32>) -> memref<1xui32> loc(#loc3)
    } loc(#loc3)
    VPURT.Task attributes {isTrailingSWLayer = false} {
      %220 = VPUIP.NNDMA {is_out_of_order, port = 1 : i64} inputs(%112 : memref<1xui64, @Register>) outputs(%113 : memref<1xui64, [@CMX_NN, 0]>) -> memref<1xui64, [@CMX_NN, 0]> loc(#loc56)
    } loc(#loc56)
    VPURT.Task attributes {cycleBegin = 0 : i64, cycleEnd = 986 : i64, isTrailingSWLayer = false} {
      %220 = VPUIP.NNDMA {is_out_of_order, port = 1 : i64} inputs(%cst_1 : memref<1x3x62x2xf16>) outputs(%75 : memref<1x3x62x2xf16, {order = #NCHW, strides = [11904, 3968, 64, 1]}, @DDR>) -> memref<1x3x62x2xf16, {order = #NCHW, strides = [11904, 3968, 64, 1]}, @DDR> loc(#loc4)
    } loc(#loc4)
    VPURT.Task updates(%2 : !VPURT.Barrier) attributes {isTrailingSWLayer = false} {
      %220 = VPUIP.NNDMA {port = 1 : i64} inputs(%114 : memref<1xui64, @Register>) outputs(%115 : memref<1xui64, [@CMX_NN, 0]>) -> memref<1xui64, [@CMX_NN, 0]> loc(#loc57)
    } loc(#loc57)
    VPURT.Task attributes {isTrailingSWLayer = false} {
      %220 = VPUIP.NNDMA {is_out_of_order, port = 0 : i64} inputs(%116 : memref<1xui64, @Register>) outputs(%117 : memref<1xui64, [@CMX_NN, 0]>) -> memref<1xui64, [@CMX_NN, 0]> loc(#loc58)
    } loc(#loc58)
    VPURT.Task attributes {cycleBegin = 0 : i64, cycleEnd = 2061 : i64, isTrailingSWLayer = false} {
      %220 = VPUIP.NNDMA {is_out_of_order, port = 0 : i64} inputs(%14 : memref<1x3x62x62xf32, @DDR>) outputs(%23 : memref<1x3x62x62xf32, [@CMX_NN, 0]>) -> memref<1x3x62x62xf32, [@CMX_NN, 0]> loc(#loc5)
    } loc(#loc5)
    VPURT.Task updates(%3 : !VPURT.Barrier) attributes {isTrailingSWLayer = false} {
      %220 = VPUIP.NNDMA {port = 0 : i64} inputs(%118 : memref<1xui64, @Register>) outputs(%119 : memref<1xui64, [@CMX_NN, 0]>) -> memref<1xui64, [@CMX_NN, 0]> loc(#loc59)
    } loc(#loc59)
    VPURT.Task waits(%3 : !VPURT.Barrier) updates(%2 : !VPURT.Barrier) attributes {cycleBegin = 2061 : i64, cycleEnd = 2062 : i64, isTrailingSWLayer = false} {
      %results, %profiling_output = VPUIP.SW.Kernel {result_segment_sizes = dense<1> : vector<2xi32>} @VPU.SW::@builtin_Convert inputs(%76 as %arg3: memref<1x2x62x62xf32, {order = #NCHW, strides = [11532, 3844, 62, 1]}, [@CMX_NN, 0]>) outputs(%77 as %arg4: memref<1x2x62x62xf16, {order = #NCHW, strides = [11532, 3844, 62, 1]}, [@CMX_NN, 0]>) profiling_data(%120 : memref<4xui32, [@CMX_NN, 0]>) on tile 0 -> (memref<1x2x62x62xf16, {order = #NCHW, strides = [11532, 3844, 62, 1]}, [@CMX_NN, 0]>, memref<4xui32, [@CMX_NN, 0]>){
        VPUIP.SW.Kernel.run {attrs = []}(%arg3, %arg4) : memref<1x2x62x62xf32, {order = #NCHW, strides = [11532, 3844, 62, 1]}, [@CMX_NN, 0]>, memref<1x2x62x62xf16, {order = #NCHW, strides = [11532, 3844, 62, 1]}, [@CMX_NN, 0]> loc(#loc0)
      } loc(#loc99)
    } loc(#loc99)
    VPURT.Task waits(%3 : !VPURT.Barrier) updates(%2 : !VPURT.Barrier) attributes {cycleBegin = 2061 : i64, cycleEnd = 2062 : i64, isTrailingSWLayer = false} {
      %results, %profiling_output = VPUIP.SW.Kernel {result_segment_sizes = dense<1> : vector<2xi32>} @VPU.SW::@builtin_Convert inputs(%78 as %arg3: memref<1x1x62x62xf32, {order = #NCHW, strides = [11532, 3844, 62, 1]}, [@CMX_NN, 0]>) outputs(%79 as %arg4: memref<1x1x62x62xf16, {order = #NCHW, strides = [11532, 3844, 62, 1]}, [@CMX_NN, 0]>) profiling_data(%121 : memref<4xui32, [@CMX_NN, 0]>) on tile 0 -> (memref<1x1x62x62xf16, {order = #NCHW, strides = [11532, 3844, 62, 1]}, [@CMX_NN, 0]>, memref<4xui32, [@CMX_NN, 0]>){
        VPUIP.SW.Kernel.run {attrs = []}(%arg3, %arg4) : memref<1x1x62x62xf32, {order = #NCHW, strides = [11532, 3844, 62, 1]}, [@CMX_NN, 0]>, memref<1x1x62x62xf16, {order = #NCHW, strides = [11532, 3844, 62, 1]}, [@CMX_NN, 0]> loc(#loc0)
      } loc(#loc100)
    } loc(#loc100)
    VPURT.Task waits(%2 : !VPURT.Barrier) attributes {isTrailingSWLayer = false} {
      %220 = VPUIP.NNDMA {is_out_of_order, port = 0 : i64} inputs(%122 : memref<1xui64, @Register>) outputs(%123 : memref<1xui64, [@CMX_NN, 0]>) -> memref<1xui64, [@CMX_NN, 0]> loc(#loc58)
    } loc(#loc58)
    VPURT.Task attributes {cycleBegin = 2062 : i64, cycleEnd = 4123 : i64, isTrailingSWLayer = false} {
      %220 = VPUIP.NNDMA {is_out_of_order, port = 0 : i64} inputs(%24 : memref<1x3x62x62xf16, [@CMX_NN, 0]>) outputs(%80 : memref<1x3x62x62xf16, {order = #NCHW, strides = [11904, 3968, 64, 1]}, @DDR>) -> memref<1x3x62x62xf16, {order = #NCHW, strides = [11904, 3968, 64, 1]}, @DDR> loc(#loc5)
    } loc(#loc5)
    VPURT.Task updates(%4 : !VPURT.Barrier) attributes {isTrailingSWLayer = false} {
      %220 = VPUIP.NNDMA {port = 0 : i64} inputs(%124 : memref<1xui64, @Register>) outputs(%125 : memref<1xui64, [@CMX_NN, 0]>) -> memref<1xui64, [@CMX_NN, 0]> loc(#loc61)
    } loc(#loc61)
    VPURT.Task attributes {isTrailingSWLayer = false} {
      %220 = VPUIP.NNDMA {is_out_of_order, port = 0 : i64} inputs(%126 : memref<1xui64, @Register>) outputs(%127 : memref<1xui64, [@CMX_NN, 0]>) -> memref<1xui64, [@CMX_NN, 0]> loc(#loc62)
    } loc(#loc62)
    VPURT.Task attributes {cycleBegin = 4123 : i64, cycleEnd = 6220 : i64, isTrailingSWLayer = false} {
      %220 = VPUIP.NNDMA {is_out_of_order, port = 0 : i64} inputs(%25 : memref<1x3x31x64xf16, {order = #NCHW, strides = [11904, 3968, 64, 1]}, @DDR>) outputs(%27 : memref<1x3x31x64xf16, [@CMX_NN, 0]>) -> memref<1x3x31x64xf16, [@CMX_NN, 0]> loc(#loc101)
    } loc(#loc101)
    VPURT.Task updates(%5 : !VPURT.Barrier) attributes {isTrailingSWLayer = false} {
      %220 = VPUIP.NNDMA {port = 0 : i64} inputs(%128 : memref<1xui64, @Register>) outputs(%129 : memref<1xui64, [@CMX_NN, 0]>) -> memref<1xui64, [@CMX_NN, 0]> loc(#loc63)
    } loc(#loc63)
    VPURT.Task waits(%4 : !VPURT.Barrier) attributes {isTrailingSWLayer = false} {
      %220 = VPUIP.NNDMA {is_out_of_order, port = 1 : i64} inputs(%130 : memref<1xui64, @Register>) outputs(%131 : memref<1xui64, [@CMX_NN, 0]>) -> memref<1xui64, [@CMX_NN, 0]> loc(#loc64)
    } loc(#loc64)
    VPURT.Task attributes {cycleBegin = 4123 : i64, cycleEnd = 6220 : i64, isTrailingSWLayer = false} {
      %220 = VPUIP.NNDMA {is_out_of_order, port = 1 : i64} inputs(%26 : memref<1x3x31x64xf16, {order = #NCHW, strides = [11904, 3968, 64, 1]}, @DDR>) outputs(%28 : memref<1x3x31x64xf16, [@CMX_NN, 1]>) -> memref<1x3x31x64xf16, [@CMX_NN, 1]> loc(#loc102)
    } loc(#loc102)
    VPURT.Task updates(%5 : !VPURT.Barrier) attributes {isTrailingSWLayer = false} {
      %220 = VPUIP.NNDMA {port = 1 : i64} inputs(%132 : memref<1xui64, @Register>) outputs(%133 : memref<1xui64, [@CMX_NN, 0]>) -> memref<1xui64, [@CMX_NN, 0]> loc(#loc65)
    } loc(#loc65)
    VPURT.Task attributes {isTrailingSWLayer = false} {
      %220 = VPUIP.NNDMA {is_out_of_order, port = 0 : i64} inputs(%134 : memref<1xui64, @Register>) outputs(%135 : memref<1xui64, [@CMX_NN, 0]>) -> memref<1xui64, [@CMX_NN, 0]> loc(#loc66)
    } loc(#loc66)
    VPURT.Task attributes {cycleBegin = 6220 : i64, cycleEnd = 7429 : i64, isTrailingSWLayer = false} {
      %220 = VPUIP.NNDMA {is_out_of_order, port = 0 : i64} inputs(%cst_0 : memref<1x1x1x5376xui8>) outputs(%46 : !VPUIP.DistributedBuffer<1x1x1x5376xui8, {order = #NCHW, strides = [5376, 5376, 5376, 1]}, @CMX_NN, {mode = "DUPLICATED", num_clusters = 2 : i64}>) -> !VPUIP.DistributedBuffer<1x1x1x5376xui8, {order = #NCHW, strides = [5376, 5376, 5376, 1]}, @CMX_NN, {mode = "DUPLICATED", num_clusters = 2 : i64}> loc(#loc103)
    } loc(#loc103)
    VPURT.Task attributes {isTrailingSWLayer = false} {
      %220 = VPUIP.NNDMA {port = 0 : i64} inputs(%136 : memref<1xui64, @Register>) outputs(%137 : memref<1xui64, [@CMX_NN, 0]>) -> memref<1xui64, [@CMX_NN, 0]> loc(#loc67)
    } loc(#loc67)
    VPURT.Task waits(%5 : !VPURT.Barrier) updates(%6 : !VPURT.Barrier) attributes {cycleBegin = 6220 : i64, cycleEnd = 4294973520 : i64, isTrailingSWLayer = false} {
      %220:2 = VPUIP.NCEClusterTask {activation_window_channel_length = 0 : i64, is_permute_quantize, profilingMetadata = #VPUIP.DpuProfilingMetadataAttr<bufferId = 0 : i64, taskId = 1 : i64, maxVariants = 1 : i64, numVariants = 1 : i64, clusterId = 0 : i64>, task_type = #VPUIP.nce_task_type<ELTWISE>} input(%84 : memref<1x64x3x31xf16, #NHWC, [@CMX_NN, 0]>) weights(%82 : memref<1x64x3x31xf16, #NHWC, [@CMX_NN, 0]>) parent_input(%81 : !VPUIP.DistributedBuffer<1x64x3x62xf16, #NHWC, @CMX_NN, {mode = "SEGMENTED", num_tiles = [1, 1, 1, 2], kernel = [1, 1], pads = #VPU.Padding<left = 0 : i64, right = 0 : i64, top = 0 : i64, bottom = 0 : i64>, strides = [1, 1], num_clusters = 2 : i64}>) parent_output(%29 : !VPUIP.DistributedBuffer<1x64x16x62xf16, #NWCH, @CMX_NN, {mode = "SEGMENTED", num_tiles = [1, 1, 1, 2], kernel = [1, 1], pads = #VPU.Padding<left = 0 : i64, right = 0 : i64, top = 0 : i64, bottom = 0 : i64>, strides = [1, 1], num_clusters = 2 : i64, equal_memory_and_compute_view}>) outputs(%30 : memref<1x64x16x31xf16, #NWCH, [@CMX_NN, 0]>) profiling_data(%86 : memref<2xui64, [@CMX_NN, 0]>) -> memref<1x64x16x31xf16, #NWCH, [@CMX_NN, 0]>, memref<2xui64, [@CMX_NN, 0]> variants : {
        DPUTask {cluster_id = 0 : i64, mpe_mode = #VPU.mpe_mode<CUBOID_16x16>, outEnd = [30, 2, 63], outStart = [0, 0, 0], pad = #VPU.Padding<left = 0 : i64, right = 0 : i64, top = 0 : i64, bottom = 0 : i64>, workload_id = 0 : i64} loc(#loc5)
      } PPE : {
        PPETask <ADD> {clamp_high = 2147483647 : i64, clamp_low = -2147483648 : i64, lrelu_mult = 1 : i64, lrelu_shift = 0 : i64, quant_scale = [5.000000e-01]} loc(#loc5)
      } loc(#loc104)
    } loc(#loc104)
    VPURT.Task waits(%5 : !VPURT.Barrier) updates(%6 : !VPURT.Barrier) attributes {cycleBegin = 6220 : i64, cycleEnd = 4294973520 : i64, isTrailingSWLayer = false} {
      %220:2 = VPUIP.NCEClusterTask {activation_window_channel_length = 0 : i64, is_permute_quantize, profilingMetadata = #VPUIP.DpuProfilingMetadataAttr<bufferId = 0 : i64, taskId = 1 : i64, maxVariants = 1 : i64, numVariants = 1 : i64, clusterId = 1 : i64>, task_type = #VPUIP.nce_task_type<ELTWISE>} input(%85 : memref<1x64x3x31xf16, #NHWC, [@CMX_NN, 1]>) weights(%83 : memref<1x64x3x31xf16, #NHWC, [@CMX_NN, 1]>) parent_input(%81 : !VPUIP.DistributedBuffer<1x64x3x62xf16, #NHWC, @CMX_NN, {mode = "SEGMENTED", num_tiles = [1, 1, 1, 2], kernel = [1, 1], pads = #VPU.Padding<left = 0 : i64, right = 0 : i64, top = 0 : i64, bottom = 0 : i64>, strides = [1, 1], num_clusters = 2 : i64}>) parent_output(%29 : !VPUIP.DistributedBuffer<1x64x16x62xf16, #NWCH, @CMX_NN, {mode = "SEGMENTED", num_tiles = [1, 1, 1, 2], kernel = [1, 1], pads = #VPU.Padding<left = 0 : i64, right = 0 : i64, top = 0 : i64, bottom = 0 : i64>, strides = [1, 1], num_clusters = 2 : i64, equal_memory_and_compute_view}>) outputs(%31 : memref<1x64x16x31xf16, #NWCH, [@CMX_NN, 1]>) profiling_data(%87 : memref<2xui64, [@CMX_NN, 1]>) -> memref<1x64x16x31xf16, #NWCH, [@CMX_NN, 1]>, memref<2xui64, [@CMX_NN, 1]> variants : {
        DPUTask {cluster_id = 1 : i64, mpe_mode = #VPU.mpe_mode<CUBOID_16x16>, outEnd = [30, 2, 63], outStart = [0, 0, 0], pad = #VPU.Padding<left = 0 : i64, right = 0 : i64, top = 0 : i64, bottom = 0 : i64>, workload_id = 0 : i64} loc(#loc5)
      } PPE : {
        PPETask <ADD> {clamp_high = 2147483647 : i64, clamp_low = -2147483648 : i64, lrelu_mult = 1 : i64, lrelu_shift = 0 : i64, quant_scale = [5.000000e-01]} loc(#loc5)
      } loc(#loc105)
    } loc(#loc105)
    VPURT.Task waits(%6 : !VPURT.Barrier) attributes {isTrailingSWLayer = false} {
      %220 = VPUIP.NNDMA {is_out_of_order, port = 0 : i64} inputs(%138 : memref<1xui64, @Register>) outputs(%139 : memref<1xui64, [@CMX_NN, 0]>) -> memref<1xui64, [@CMX_NN, 0]> loc(#loc62)
    } loc(#loc62)
    VPURT.Task attributes {cycleBegin = 4294973520 : i64, cycleEnd = 4294980393 : i64, isTrailingSWLayer = false} {
      %220 = VPUIP.NNDMA {is_out_of_order, port = 0 : i64} inputs(%88 : memref<1x16x31x62xf16, {order = #NHWC, strides = [63488, 1, 1024, 16]}, [@CMX_NN, 0]>) outputs(%34 : memref<1x16x31x62xf16, #NHWC, @DDR>) -> memref<1x16x31x62xf16, #NHWC, @DDR> loc(#loc101)
    } loc(#loc101)
    VPURT.Task updates(%7 : !VPURT.Barrier) attributes {isTrailingSWLayer = false} {
      %220 = VPUIP.NNDMA {port = 0 : i64} inputs(%140 : memref<1xui64, @Register>) outputs(%141 : memref<1xui64, [@CMX_NN, 0]>) -> memref<1xui64, [@CMX_NN, 0]> loc(#loc68)
    } loc(#loc68)
    VPURT.Task waits(%6 : !VPURT.Barrier) attributes {isTrailingSWLayer = false} {
      %220 = VPUIP.NNDMA {is_out_of_order, port = 1 : i64} inputs(%142 : memref<1xui64, @Register>) outputs(%143 : memref<1xui64, [@CMX_NN, 0]>) -> memref<1xui64, [@CMX_NN, 0]> loc(#loc64)
    } loc(#loc64)
    VPURT.Task attributes {cycleBegin = 4294973520 : i64, cycleEnd = 4294980393 : i64, isTrailingSWLayer = false} {
      %220 = VPUIP.NNDMA {is_out_of_order, port = 1 : i64} inputs(%89 : memref<1x16x31x62xf16, {order = #NHWC, strides = [63488, 1, 1024, 16]}, [@CMX_NN, 1]>) outputs(%35 : memref<1x16x31x62xf16, #NHWC, @DDR>) -> memref<1x16x31x62xf16, #NHWC, @DDR> loc(#loc102)
    } loc(#loc102)
    VPURT.Task updates(%7 : !VPURT.Barrier) attributes {isTrailingSWLayer = false} {
      %220 = VPUIP.NNDMA {port = 1 : i64} inputs(%144 : memref<1xui64, @Register>) outputs(%145 : memref<1xui64, [@CMX_NN, 0]>) -> memref<1xui64, [@CMX_NN, 0]> loc(#loc69)
    } loc(#loc69)
    VPURT.Task waits(%7 : !VPURT.Barrier) attributes {isTrailingSWLayer = false} {
      %220 = VPUIP.NNDMA {is_out_of_order, port = 0 : i64} inputs(%146 : memref<1xui64, @Register>) outputs(%147 : memref<1xui64, [@CMX_NN, 0]>) -> memref<1xui64, [@CMX_NN, 0]> loc(#loc70)
    } loc(#loc70)
    VPURT.Task attributes {cycleBegin = 4294980393 : i64, cycleEnd = 4294987266 : i64, isTrailingSWLayer = false} {
      %220 = VPUIP.NNDMA {is_out_of_order, port = 0 : i64} inputs(%32 : memref<1x16x32x62xf16, #NHWC, @DDR>) outputs(%39 : memref<1x16x32x62xf16, #NHWC, [@CMX_NN, 0]>) -> memref<1x16x32x62xf16, #NHWC, [@CMX_NN, 0]> loc(#loc106)
    } loc(#loc106)
    VPURT.Task updates(%8 : !VPURT.Barrier) attributes {isTrailingSWLayer = false} {
      %220 = VPUIP.NNDMA {port = 0 : i64} inputs(%148 : memref<1xui64, @Register>) outputs(%149 : memref<1xui64, [@CMX_NN, 0]>) -> memref<1xui64, [@CMX_NN, 0]> loc(#loc71)
    } loc(#loc71)
    VPURT.Task waits(%7 : !VPURT.Barrier) attributes {isTrailingSWLayer = false} {
      %220 = VPUIP.NNDMA {is_out_of_order, port = 1 : i64} inputs(%150 : memref<1xui64, @Register>) outputs(%151 : memref<1xui64, [@CMX_NN, 0]>) -> memref<1xui64, [@CMX_NN, 0]> loc(#loc72)
    } loc(#loc72)
    VPURT.Task attributes {cycleBegin = 4294980393 : i64, cycleEnd = 4294987266 : i64, isTrailingSWLayer = false} {
      %220 = VPUIP.NNDMA {is_out_of_order, port = 1 : i64} inputs(%33 : memref<1x16x30x62xf16, #NHWC, @DDR>) outputs(%40 : memref<1x16x30x62xf16, #NHWC, [@CMX_NN, 1]>) -> memref<1x16x30x62xf16, #NHWC, [@CMX_NN, 1]> loc(#loc107)
    } loc(#loc107)
    VPURT.Task updates(%8 : !VPURT.Barrier) attributes {isTrailingSWLayer = false} {
      %220 = VPUIP.NNDMA {port = 1 : i64} inputs(%152 : memref<1xui64, @Register>) outputs(%153 : memref<1xui64, [@CMX_NN, 0]>) -> memref<1xui64, [@CMX_NN, 0]> loc(#loc73)
    } loc(#loc73)
    VPURT.Task attributes {isTrailingSWLayer = false} {
      %220 = VPUIP.NNDMA {is_out_of_order, port = 0 : i64} inputs(%154 : memref<1xui64, @Register>) outputs(%155 : memref<1xui64, [@CMX_NN, 0]>) -> memref<1xui64, [@CMX_NN, 0]> loc(#loc74)
    } loc(#loc74)
    VPURT.Task attributes {cycleBegin = 4294987266 : i64, cycleEnd = 4294988254 : i64, isTrailingSWLayer = false} {
      %220 = VPUIP.NNDMA {is_out_of_order, port = 0 : i64} inputs(%cst : memref<1x1x1x784xui8>) outputs(%54 : !VPUIP.DistributedBuffer<1x1x1x784xui8, {order = #NCHW, strides = [784, 784, 784, 1]}, @CMX_NN, {mode = "DUPLICATED", num_clusters = 2 : i64}>) -> !VPUIP.DistributedBuffer<1x1x1x784xui8, {order = #NCHW, strides = [784, 784, 784, 1]}, @CMX_NN, {mode = "DUPLICATED", num_clusters = 2 : i64}> loc(#loc108)
    } loc(#loc108)
    VPURT.Task updates(%9 : !VPURT.Barrier) attributes {isTrailingSWLayer = false} {
      %220 = VPUIP.NNDMA {port = 0 : i64} inputs(%156 : memref<1xui64, @Register>) outputs(%157 : memref<1xui64, [@CMX_NN, 0]>) -> memref<1xui64, [@CMX_NN, 0]> loc(#loc75)
    } loc(#loc75)
    VPURT.Task waits(%8 : !VPURT.Barrier) updates(%9 : !VPURT.Barrier) attributes {cycleBegin = 4294987266 : i64, cycleEnd = 4295001163 : i64, isTrailingSWLayer = false} {
      %220:2 = VPUIP.NCEClusterTask {is_segmented, kernel_padding = #VPU.Padding<left = 0 : i64, right = 0 : i64, top = 0 : i64, bottom = 0 : i64>, kernel_size = [3, 3], kernel_strides = [1, 1], profilingMetadata = #VPUIP.DpuProfilingMetadataAttr<bufferId = 0 : i64, taskId = 2 : i64, maxVariants = 1 : i64, numVariants = 1 : i64, clusterId = 0 : i64>, task_type = #VPUIP.nce_task_type<CONV>} input(%37 : memref<1x16x32x62xf16, #NHWC, [@CMX_NN, 0]>) weights(%92 : memref<48x16x3x3xf16, {compressionScheme = #VPUIP.CompressionSchemeAttr<axis = 0 : i64, numElems = dense<27> : tensor<48xi64>, alignment = 16 : i64>, order = #NHWC}, [@CMX_NN, 0]>) weights_sparsity_map(%94 : memref<48x1x1x256xi1, [@CMX_NN, 0]>) weight_table(%90 : memref<48x1x1x4xsi32, [@CMX_NN, 0]>) parent_input(%36 : !VPUIP.DistributedBuffer<1x16x62x62xf16, #NHWC, @CMX_NN, {mode = "SEGMENTED", num_tiles = [1, 1, 2, 1], num_clusters = 2 : i64, alignment = [1, 1, 2, 1]}>) parent_output(%41 : !VPUIP.DistributedBuffer<1x48x60x60xf16, #NHWC, @CMX_NN, {mode = "SEGMENTED", num_tiles = [1, 1, 2, 1], num_clusters = 2 : i64}>) outputs(%44 : memref<1x48x30x60xf16, #NHWC, [@CMX_NN, 0]>) profiling_data(%96 : memref<2xui64, [@CMX_NN, 0]>) -> memref<1x48x30x60xf16, #NHWC, [@CMX_NN, 0]>, memref<2xui64, [@CMX_NN, 0]> variants : {
        DPUTask {cluster_id = 0 : i64, mpe_mode = #VPU.mpe_mode<CUBOID_16x16>, outEnd = [59, 29, 47], outStart = [0, 0, 0], pad = #VPU.Padding<left = 0 : i64, right = 0 : i64, top = 0 : i64, bottom = 0 : i64>, workload_id = 0 : i64} loc(#loc17)
      } PPE : {
        PPETask <LRELU> {clamp_high = 2147483647 : i64, clamp_low = -2147483648 : i64, fp_prelu_alpha = 1.000000e+00 : f64, lrelu_mult = 1 : i64, lrelu_shift = 0 : i64} loc(#loc17)
      } loc(#loc109)
    } loc(#loc109)
    VPURT.Task waits(%8 : !VPURT.Barrier) updates(%9 : !VPURT.Barrier) attributes {cycleBegin = 4294987266 : i64, cycleEnd = 4295001163 : i64, isTrailingSWLayer = false} {
      %220:2 = VPUIP.NCEClusterTask {is_segmented, kernel_padding = #VPU.Padding<left = 0 : i64, right = 0 : i64, top = 0 : i64, bottom = 0 : i64>, kernel_size = [3, 3], kernel_strides = [1, 1], profilingMetadata = #VPUIP.DpuProfilingMetadataAttr<bufferId = 0 : i64, taskId = 2 : i64, maxVariants = 1 : i64, numVariants = 1 : i64, clusterId = 1 : i64>, task_type = #VPUIP.nce_task_type<CONV>} input(%38 : memref<1x16x30x62xf16, #NHWC, [@CMX_NN, 1]>) weights(%93 : memref<48x16x3x3xf16, {compressionScheme = #VPUIP.CompressionSchemeAttr<axis = 0 : i64, numElems = dense<27> : tensor<48xi64>, alignment = 16 : i64>, order = #NHWC}, [@CMX_NN, 1]>) weights_sparsity_map(%95 : memref<48x1x1x256xi1, [@CMX_NN, 1]>) weight_table(%91 : memref<48x1x1x4xsi32, [@CMX_NN, 1]>) parent_input(%36 : !VPUIP.DistributedBuffer<1x16x62x62xf16, #NHWC, @CMX_NN, {mode = "SEGMENTED", num_tiles = [1, 1, 2, 1], num_clusters = 2 : i64, alignment = [1, 1, 2, 1]}>) parent_output(%41 : !VPUIP.DistributedBuffer<1x48x60x60xf16, #NHWC, @CMX_NN, {mode = "SEGMENTED", num_tiles = [1, 1, 2, 1], num_clusters = 2 : i64}>) outputs(%45 : memref<1x48x30x60xf16, #NHWC, [@CMX_NN, 1]>) profiling_data(%97 : memref<2xui64, [@CMX_NN, 1]>) -> memref<1x48x30x60xf16, #NHWC, [@CMX_NN, 1]>, memref<2xui64, [@CMX_NN, 1]> variants : {
        DPUTask {cluster_id = 1 : i64, mpe_mode = #VPU.mpe_mode<CUBOID_16x16>, outEnd = [59, 59, 47], outStart = [0, 30, 0], pad = #VPU.Padding<left = 0 : i64, right = 0 : i64, top = 0 : i64, bottom = 0 : i64>, workload_id = 0 : i64} loc(#loc17)
      } PPE : {
        PPETask <LRELU> {clamp_high = 2147483647 : i64, clamp_low = -2147483648 : i64, fp_prelu_alpha = 1.000000e+00 : f64, lrelu_mult = 1 : i64, lrelu_shift = 0 : i64} loc(#loc17)
      } loc(#loc110)
    } loc(#loc110)
    VPURT.Task waits(%9 : !VPURT.Barrier) updates(%10 : !VPURT.Barrier) attributes {cycleBegin = 4295001163 : i64, cycleEnd = 8589968463 : i64, isTrailingSWLayer = false} {
      %220:2 = VPUIP.NCEClusterTask {activation_window_channel_length = 27 : i64, is_segmented, is_superdense, kernel_padding = #VPU.Padding<left = 0 : i64, right = 1 : i64, top = 0 : i64, bottom = 1 : i64>, kernel_size = [3, 3], kernel_strides = [2, 2], profilingMetadata = #VPUIP.DpuProfilingMetadataAttr<bufferId = 0 : i64, taskId = 3 : i64, maxVariants = 2 : i64, numVariants = 2 : i64, clusterId = 0 : i64>, task_type = #VPUIP.nce_task_type<MAXPOOL>} input(%42 : memref<1x48x30x60xf16, #NHWC, [@CMX_NN, 0]>) weight_table(%98 : memref<48x1x1x4xsi32, [@CMX_NN, 0]>) activation_window(%100 : memref<1x1x1x16xui8, [@CMX_NN, 0]>) parent_input(%41 : !VPUIP.DistributedBuffer<1x48x60x60xf16, #NHWC, @CMX_NN, {mode = "SEGMENTED", num_tiles = [1, 1, 2, 1], num_clusters = 2 : i64}>) parent_output(%47 : !VPUIP.DistributedBuffer<1x48x30x30xf16, #NCHW, @CMX_NN, {mode = "SEGMENTED", num_tiles = [1, 1, 2, 1], num_clusters = 2 : i64}>) outputs(%52 : memref<1x48x15x30xf16, [@CMX_NN, 0]>) profiling_data(%102 : memref<4xui64, [@CMX_NN, 0]>) -> memref<1x48x15x30xf16, [@CMX_NN, 0]>, memref<4xui64, [@CMX_NN, 0]> variants : {
        DPUTask {cluster_id = 0 : i64, mpe_mode = #VPU.mpe_mode<CUBOID_16x16>, outEnd = [29, 14, 31], outStart = [0, 0, 0], pad = #VPU.Padding<left = 0 : i64, right = 1 : i64, top = 0 : i64, bottom = 0 : i64>, workload_id = 0 : i64} loc(#loc8)
        DPUTask {cluster_id = 0 : i64, mpe_mode = #VPU.mpe_mode<CUBOID_16x16>, outEnd = [29, 14, 47], outStart = [0, 0, 32], pad = #VPU.Padding<left = 0 : i64, right = 1 : i64, top = 0 : i64, bottom = 0 : i64>, workload_id = 1 : i64} loc(#loc8)
      } PPE : {
        PPETask <NOOP> {clamp_high = 2147483647 : i64, clamp_low = -2147483648 : i64, fp_prelu_alpha = 1.000000e+00 : f64, lrelu_mult = 1 : i64, lrelu_shift = 0 : i64} loc(#loc8)
      } loc(#loc111)
    } loc(#loc111)
    VPURT.Task waits(%9 : !VPURT.Barrier) updates(%10 : !VPURT.Barrier) attributes {cycleBegin = 4295001163 : i64, cycleEnd = 8589968463 : i64, isTrailingSWLayer = false} {
      %220:2 = VPUIP.NCEClusterTask {activation_window_channel_length = 27 : i64, is_segmented, is_superdense, kernel_padding = #VPU.Padding<left = 0 : i64, right = 1 : i64, top = 0 : i64, bottom = 1 : i64>, kernel_size = [3, 3], kernel_strides = [2, 2], profilingMetadata = #VPUIP.DpuProfilingMetadataAttr<bufferId = 0 : i64, taskId = 3 : i64, maxVariants = 2 : i64, numVariants = 2 : i64, clusterId = 1 : i64>, task_type = #VPUIP.nce_task_type<MAXPOOL>} input(%43 : memref<1x48x30x60xf16, #NHWC, [@CMX_NN, 1]>) weight_table(%99 : memref<48x1x1x4xsi32, [@CMX_NN, 1]>) activation_window(%101 : memref<1x1x1x16xui8, [@CMX_NN, 1]>) parent_input(%41 : !VPUIP.DistributedBuffer<1x48x60x60xf16, #NHWC, @CMX_NN, {mode = "SEGMENTED", num_tiles = [1, 1, 2, 1], num_clusters = 2 : i64}>) parent_output(%47 : !VPUIP.DistributedBuffer<1x48x30x30xf16, #NCHW, @CMX_NN, {mode = "SEGMENTED", num_tiles = [1, 1, 2, 1], num_clusters = 2 : i64}>) outputs(%53 : memref<1x48x15x30xf16, [@CMX_NN, 1]>) profiling_data(%103 : memref<4xui64, [@CMX_NN, 1]>) -> memref<1x48x15x30xf16, [@CMX_NN, 1]>, memref<4xui64, [@CMX_NN, 1]> variants : {
        DPUTask {cluster_id = 1 : i64, mpe_mode = #VPU.mpe_mode<CUBOID_16x16>, outEnd = [29, 29, 31], outStart = [0, 15, 0], pad = #VPU.Padding<left = 0 : i64, right = 1 : i64, top = 0 : i64, bottom = 1 : i64>, workload_id = 0 : i64} loc(#loc8)
        DPUTask {cluster_id = 1 : i64, mpe_mode = #VPU.mpe_mode<CUBOID_16x16>, outEnd = [29, 29, 47], outStart = [0, 15, 32], pad = #VPU.Padding<left = 0 : i64, right = 1 : i64, top = 0 : i64, bottom = 1 : i64>, workload_id = 1 : i64} loc(#loc8)
      } PPE : {
        PPETask <NOOP> {clamp_high = 2147483647 : i64, clamp_low = -2147483648 : i64, fp_prelu_alpha = 1.000000e+00 : f64, lrelu_mult = 1 : i64, lrelu_shift = 0 : i64} loc(#loc8)
      } loc(#loc112)
    } loc(#loc112)
    VPURT.Task waits(%10 : !VPURT.Barrier) attributes {cycleBegin = 8589968463 : i64, cycleEnd = 8589969415 : i64, isTrailingSWLayer = false} {
      %220 = VPUIP.NNDMA {port = 0 : i64} inputs(%21 : memref<8xui64, [@CMX_NN, 0]>) outputs(%15 : memref<8xui64, @DDR>) -> memref<8xui64, @DDR> loc(#loc113)
    } loc(#loc113)
    VPURT.Task waits(%10 : !VPURT.Barrier) attributes {cycleBegin = 8589968463 : i64, cycleEnd = 8589969415 : i64, isTrailingSWLayer = false} {
      %220 = VPUIP.NNDMA {port = 1 : i64} inputs(%22 : memref<8xui64, [@CMX_NN, 1]>) outputs(%16 : memref<8xui64, @DDR>) -> memref<8xui64, @DDR> loc(#loc114)
    } loc(#loc114)
    VPURT.Task attributes {isTrailingSWLayer = false} {
      %220 = VPUIP.NNDMA {is_out_of_order, port = 0 : i64} inputs(%158 : memref<1xui64, @Register>) outputs(%159 : memref<1xui64, [@CMX_NN, 0]>) -> memref<1xui64, [@CMX_NN, 0]> loc(#loc76)
    } loc(#loc76)
    VPURT.Task attributes {cycleBegin = 8589969415 : i64, cycleEnd = 8589974525 : i64, isTrailingSWLayer = false} {
      %220 = VPUIP.NNDMA {is_out_of_order, port = 0 : i64} inputs(%50 : memref<1x48x15x30xf16, [@CMX_NN, 0]>) outputs(%55 : memref<1x48x15x30xf16, {order = #NCHW, strides = [43200, 900, 30, 1]}, @DDR>) -> memref<1x48x15x30xf16, {order = #NCHW, strides = [43200, 900, 30, 1]}, @DDR> loc(#loc115)
    } loc(#loc115)
    VPURT.Task attributes {isTrailingSWLayer = false} {
      %220 = VPUIP.NNDMA {port = 0 : i64} inputs(%160 : memref<1xui64, @Register>) outputs(%161 : memref<1xui64, [@CMX_NN, 0]>) -> memref<1xui64, [@CMX_NN, 0]> loc(#loc77)
    } loc(#loc77)
    VPURT.Task attributes {isTrailingSWLayer = false} {
      %220 = VPUIP.NNDMA {is_out_of_order, port = 1 : i64} inputs(%162 : memref<1xui64, @Register>) outputs(%163 : memref<1xui64, [@CMX_NN, 0]>) -> memref<1xui64, [@CMX_NN, 0]> loc(#loc78)
    } loc(#loc78)
    VPURT.Task attributes {cycleBegin = 8589969415 : i64, cycleEnd = 8589974525 : i64, isTrailingSWLayer = false} {
      %220 = VPUIP.NNDMA {is_out_of_order, port = 1 : i64} inputs(%51 : memref<1x48x15x30xf16, [@CMX_NN, 1]>) outputs(%56 : memref<1x48x15x30xf16, {order = #NCHW, strides = [43200, 900, 30, 1]}, @DDR>) -> memref<1x48x15x30xf16, {order = #NCHW, strides = [43200, 900, 30, 1]}, @DDR> loc(#loc116)
    } loc(#loc116)
    VPURT.Task attributes {isTrailingSWLayer = false} {
      %220 = VPUIP.NNDMA {port = 1 : i64} inputs(%164 : memref<1xui64, @Register>) outputs(%165 : memref<1xui64, [@CMX_NN, 0]>) -> memref<1xui64, [@CMX_NN, 0]> loc(#loc79)
    } loc(#loc79)
    VPURT.Task attributes {isTrailingSWLayer = false} {
      %220 = VPUIP.NNDMA {is_out_of_order, port = 0 : i64} inputs(%166 : memref<1xui64, @Register>) outputs(%167 : memref<1xui64, [@CMX_NN, 0]>) -> memref<1xui64, [@CMX_NN, 0]> loc(#loc76)
    } loc(#loc76)
    VPURT.Task attributes {cycleBegin = 8589974525 : i64, cycleEnd = 8589979635 : i64, isTrailingSWLayer = false} {
      %220 = VPUIP.NNDMA {is_out_of_order, port = 0 : i64} inputs(%48 : memref<1x48x15x30xf16, [@CMX_NN, 0]>) outputs(%61 : memref<1x48x15x30xf16, {order = #NCHW, strides = [43200, 900, 30, 1]}, @DDR>) -> memref<1x48x15x30xf16, {order = #NCHW, strides = [43200, 900, 30, 1]}, @DDR> loc(#loc115)
    } loc(#loc115)
    VPURT.Task updates(%11 : !VPURT.Barrier) attributes {isTrailingSWLayer = false} {
      %220 = VPUIP.NNDMA {port = 0 : i64} inputs(%168 : memref<1xui64, @Register>) outputs(%169 : memref<1xui64, [@CMX_NN, 0]>) -> memref<1xui64, [@CMX_NN, 0]> loc(#loc80)
    } loc(#loc80)
    VPURT.Task attributes {isTrailingSWLayer = false} {
      %220 = VPUIP.NNDMA {is_out_of_order, port = 1 : i64} inputs(%170 : memref<1xui64, @Register>) outputs(%171 : memref<1xui64, [@CMX_NN, 0]>) -> memref<1xui64, [@CMX_NN, 0]> loc(#loc78)
    } loc(#loc78)
    VPURT.Task attributes {cycleBegin = 8589974525 : i64, cycleEnd = 8589979635 : i64, isTrailingSWLayer = false} {
      %220 = VPUIP.NNDMA {is_out_of_order, port = 1 : i64} inputs(%49 : memref<1x48x15x30xf16, [@CMX_NN, 1]>) outputs(%62 : memref<1x48x15x30xf16, {order = #NCHW, strides = [43200, 900, 30, 1]}, @DDR>) -> memref<1x48x15x30xf16, {order = #NCHW, strides = [43200, 900, 30, 1]}, @DDR> loc(#loc116)
    } loc(#loc116)
    VPURT.Task updates(%11 : !VPURT.Barrier) attributes {isTrailingSWLayer = false} {
      %220 = VPUIP.NNDMA {port = 1 : i64} inputs(%172 : memref<1xui64, @Register>) outputs(%173 : memref<1xui64, [@CMX_NN, 0]>) -> memref<1xui64, [@CMX_NN, 0]> loc(#loc81)
    } loc(#loc81)
    VPURT.Task waits(%11 : !VPURT.Barrier) attributes {isTrailingSWLayer = false} {
      %220 = VPUIP.NNDMA {is_out_of_order, port = 0 : i64} inputs(%174 : memref<1xui64, @Register>) outputs(%175 : memref<1xui64, [@CMX_NN, 0]>) -> memref<1xui64, [@CMX_NN, 0]> loc(#loc76)
    } loc(#loc76)
    VPURT.Task attributes {cycleBegin = 8589979635 : i64, cycleEnd = 8589982527 : i64, isTrailingSWLayer = false} {
      %220 = VPUIP.NNDMA {is_out_of_order, port = 0 : i64} inputs(%104 : memref<1x48x7x30xf16, {order = #NCHW, strides = [43200, 900, 30, 1]}, @DDR>) outputs(%59 : memref<1x48x7x30xf16, [@CMX_NN, 0]>) -> memref<1x48x7x30xf16, [@CMX_NN, 0]> loc(#loc115)
    } loc(#loc115)
    VPURT.Task attributes {isTrailingSWLayer = false} {
      %220 = VPUIP.NNDMA {port = 0 : i64} inputs(%176 : memref<1xui64, @Register>) outputs(%177 : memref<1xui64, [@CMX_NN, 0]>) -> memref<1xui64, [@CMX_NN, 0]> loc(#loc82)
    } loc(#loc82)
    VPURT.Task waits(%11 : !VPURT.Barrier) attributes {isTrailingSWLayer = false} {
      %220 = VPUIP.NNDMA {is_out_of_order, port = 1 : i64} inputs(%178 : memref<1xui64, @Register>) outputs(%179 : memref<1xui64, [@CMX_NN, 0]>) -> memref<1xui64, [@CMX_NN, 0]> loc(#loc78)
    } loc(#loc78)
    VPURT.Task attributes {cycleBegin = 8589979635 : i64, cycleEnd = 8589982527 : i64, isTrailingSWLayer = false} {
      %220 = VPUIP.NNDMA {is_out_of_order, port = 1 : i64} inputs(%105 : memref<1x48x7x30xf16, {order = #NCHW, strides = [43200, 900, 30, 1]}, @DDR>) outputs(%60 : memref<1x48x7x30xf16, [@CMX_NN, 1]>) -> memref<1x48x7x30xf16, [@CMX_NN, 1]> loc(#loc116)
    } loc(#loc116)
    VPURT.Task attributes {isTrailingSWLayer = false} {
      %220 = VPUIP.NNDMA {port = 1 : i64} inputs(%180 : memref<1xui64, @Register>) outputs(%181 : memref<1xui64, [@CMX_NN, 0]>) -> memref<1xui64, [@CMX_NN, 0]> loc(#loc83)
    } loc(#loc83)
    VPURT.Task waits(%11 : !VPURT.Barrier) attributes {isTrailingSWLayer = false} {
      %220 = VPUIP.NNDMA {is_out_of_order, port = 0 : i64} inputs(%182 : memref<1xui64, @Register>) outputs(%183 : memref<1xui64, [@CMX_NN, 0]>) -> memref<1xui64, [@CMX_NN, 0]> loc(#loc76)
    } loc(#loc76)
    VPURT.Task attributes {cycleBegin = 8589982527 : i64, cycleEnd = 8589985696 : i64, isTrailingSWLayer = false} {
      %220 = VPUIP.NNDMA {is_out_of_order, port = 0 : i64} inputs(%106 : memref<1x48x8x30xf16, {order = #NCHW, strides = [43200, 900, 30, 1]}, @DDR>) outputs(%65 : memref<1x48x8x30xf16, [@CMX_NN, 0]>) -> memref<1x48x8x30xf16, [@CMX_NN, 0]> loc(#loc115)
    } loc(#loc115)
    VPURT.Task updates(%12 : !VPURT.Barrier) attributes {isTrailingSWLayer = false} {
      %220 = VPUIP.NNDMA {port = 0 : i64} inputs(%184 : memref<1xui64, @Register>) outputs(%185 : memref<1xui64, [@CMX_NN, 0]>) -> memref<1xui64, [@CMX_NN, 0]> loc(#loc84)
    } loc(#loc84)
    VPURT.Task waits(%11 : !VPURT.Barrier) attributes {isTrailingSWLayer = false} {
      %220 = VPUIP.NNDMA {is_out_of_order, port = 1 : i64} inputs(%186 : memref<1xui64, @Register>) outputs(%187 : memref<1xui64, [@CMX_NN, 0]>) -> memref<1xui64, [@CMX_NN, 0]> loc(#loc78)
    } loc(#loc78)
    VPURT.Task attributes {cycleBegin = 8589982527 : i64, cycleEnd = 8589985696 : i64, isTrailingSWLayer = false} {
      %220 = VPUIP.NNDMA {is_out_of_order, port = 1 : i64} inputs(%107 : memref<1x48x8x30xf16, {order = #NCHW, strides = [43200, 900, 30, 1]}, @DDR>) outputs(%66 : memref<1x48x8x30xf16, [@CMX_NN, 1]>) -> memref<1x48x8x30xf16, [@CMX_NN, 1]> loc(#loc116)
    } loc(#loc116)
    VPURT.Task updates(%12 : !VPURT.Barrier) attributes {isTrailingSWLayer = false} {
      %220 = VPUIP.NNDMA {port = 1 : i64} inputs(%188 : memref<1xui64, @Register>) outputs(%189 : memref<1xui64, [@CMX_NN, 0]>) -> memref<1xui64, [@CMX_NN, 0]> loc(#loc85)
    } loc(#loc85)
    VPURT.Task waits(%12 : !VPURT.Barrier) updates(%13 : !VPURT.Barrier) attributes {cycleBegin = 8589985696 : i64, cycleEnd = 8589985697 : i64, isTrailingSWLayer = false} {
      %results, %profiling_output = VPUIP.SW.Kernel {result_segment_sizes = dense<1> : vector<2xi32>} @VPU.SW::@builtin_Convert inputs(%63 as %arg3: memref<1x48x8x30xf16, [@CMX_NN, 0]>) outputs(%73 as %arg4: memref<1x48x8x30xf32, [@CMX_NN, 0]>) profiling_data(%190 : memref<4xui32, [@CMX_NN, 0]>) on tile 0 -> (memref<1x48x8x30xf32, [@CMX_NN, 0]>, memref<4xui32, [@CMX_NN, 0]>){
        VPUIP.SW.Kernel.run(%arg3, %arg4) : memref<1x48x8x30xf16, [@CMX_NN, 0]>, memref<1x48x8x30xf32, [@CMX_NN, 0]> loc(#loc0)
      } loc(#loc117)
    } loc(#loc117)
    VPURT.Task waits(%12 : !VPURT.Barrier) updates(%13 : !VPURT.Barrier) attributes {cycleBegin = 8589985696 : i64, cycleEnd = 8589985697 : i64, isTrailingSWLayer = false} {
      %results, %profiling_output = VPUIP.SW.Kernel {result_segment_sizes = dense<1> : vector<2xi32>} @VPU.SW::@builtin_Convert inputs(%64 as %arg3: memref<1x48x8x30xf16, [@CMX_NN, 1]>) outputs(%74 as %arg4: memref<1x48x8x30xf32, [@CMX_NN, 1]>) profiling_data(%191 : memref<4xui32, [@CMX_NN, 1]>) on tile 1 -> (memref<1x48x8x30xf32, [@CMX_NN, 1]>, memref<4xui32, [@CMX_NN, 1]>){
        VPUIP.SW.Kernel.run(%arg3, %arg4) : memref<1x48x8x30xf16, [@CMX_NN, 1]>, memref<1x48x8x30xf32, [@CMX_NN, 1]> loc(#loc0)
      } loc(#loc118)
    } loc(#loc118)
    VPURT.Task waits(%12 : !VPURT.Barrier) updates(%13 : !VPURT.Barrier) attributes {cycleBegin = 8589985696 : i64, cycleEnd = 8589985697 : i64, isTrailingSWLayer = false} {
      %results, %profiling_output = VPUIP.SW.Kernel {result_segment_sizes = dense<1> : vector<2xi32>} @VPU.SW::@builtin_Convert inputs(%57 as %arg3: memref<1x48x7x30xf16, [@CMX_NN, 0]>) outputs(%69 as %arg4: memref<1x48x7x30xf32, [@CMX_NN, 0]>) profiling_data(%192 : memref<4xui32, [@CMX_NN, 0]>) on tile 0 -> (memref<1x48x7x30xf32, [@CMX_NN, 0]>, memref<4xui32, [@CMX_NN, 0]>){
        VPUIP.SW.Kernel.run(%arg3, %arg4) : memref<1x48x7x30xf16, [@CMX_NN, 0]>, memref<1x48x7x30xf32, [@CMX_NN, 0]> loc(#loc0)
      } loc(#loc119)
    } loc(#loc119)
    VPURT.Task waits(%12 : !VPURT.Barrier) updates(%13 : !VPURT.Barrier) attributes {cycleBegin = 8589985696 : i64, cycleEnd = 8589985697 : i64, isTrailingSWLayer = false} {
      %results, %profiling_output = VPUIP.SW.Kernel {result_segment_sizes = dense<1> : vector<2xi32>} @VPU.SW::@builtin_Convert inputs(%58 as %arg3: memref<1x48x7x30xf16, [@CMX_NN, 1]>) outputs(%70 as %arg4: memref<1x48x7x30xf32, [@CMX_NN, 1]>) profiling_data(%193 : memref<4xui32, [@CMX_NN, 1]>) on tile 1 -> (memref<1x48x7x30xf32, [@CMX_NN, 1]>, memref<4xui32, [@CMX_NN, 1]>){
        VPUIP.SW.Kernel.run(%arg3, %arg4) : memref<1x48x7x30xf16, [@CMX_NN, 1]>, memref<1x48x7x30xf32, [@CMX_NN, 1]> loc(#loc0)
      } loc(#loc120)
    } loc(#loc120)
    VPURT.Task waits(%13 : !VPURT.Barrier) attributes {cycleBegin = 8589985697 : i64, cycleEnd = 8589986651 : i64, isTrailingSWLayer = false} {
      %220 = VPUIP.NNDMA {port = 0 : i64} inputs(%19 : memref<16xui32, [@CMX_NN, 0]>) outputs(%17 : memref<16xui32, @DDR>) -> memref<16xui32, @DDR> loc(#loc121)
    } loc(#loc121)
    VPURT.Task waits(%13 : !VPURT.Barrier) attributes {cycleBegin = 8589985697 : i64, cycleEnd = 8589986651 : i64, isTrailingSWLayer = false} {
      %220 = VPUIP.NNDMA {port = 1 : i64} inputs(%20 : memref<16xui32, [@CMX_NN, 1]>) outputs(%18 : memref<16xui32, @DDR>) -> memref<16xui32, @DDR> loc(#loc122)
    } loc(#loc122)
    VPURT.Task attributes {isTrailingSWLayer = false} {
      %220 = VPUIP.NNDMA {is_out_of_order, port = 0 : i64} inputs(%194 : memref<1xui64, @Register>) outputs(%195 : memref<1xui64, [@CMX_NN, 0]>) -> memref<1xui64, [@CMX_NN, 0]> loc(#loc90)
    } loc(#loc90)
    VPURT.Task attributes {cycleBegin = 8589986651 : i64, cycleEnd = 8589989820 : i64, isTrailingSWLayer = false} {
      %220 = VPUIP.NNDMA {is_out_of_order, port = 0 : i64} inputs(%71 : memref<1x48x8x30xf32, [@CMX_NN, 0]>) outputs(%108 : memref<1x48x8x30xf32, {order = #NCHW, strides = [43200, 900, 30, 1]}, @DDR>) -> memref<1x48x8x30xf32, {order = #NCHW, strides = [43200, 900, 30, 1]}, @DDR> loc(#loc123)
    } loc(#loc123)
    VPURT.Task attributes {isTrailingSWLayer = false} {
      %220 = VPUIP.NNDMA {port = 0 : i64} inputs(%196 : memref<1xui64, @Register>) outputs(%197 : memref<1xui64, [@CMX_NN, 0]>) -> memref<1xui64, [@CMX_NN, 0]> loc(#loc91)
    } loc(#loc91)
    VPURT.Task attributes {isTrailingSWLayer = false} {
      %220 = VPUIP.NNDMA {is_out_of_order, port = 1 : i64} inputs(%198 : memref<1xui64, @Register>) outputs(%199 : memref<1xui64, [@CMX_NN, 0]>) -> memref<1xui64, [@CMX_NN, 0]> loc(#loc92)
    } loc(#loc92)
    VPURT.Task attributes {cycleBegin = 8589986651 : i64, cycleEnd = 8589989820 : i64, isTrailingSWLayer = false} {
      %220 = VPUIP.NNDMA {is_out_of_order, port = 1 : i64} inputs(%72 : memref<1x48x8x30xf32, [@CMX_NN, 1]>) outputs(%109 : memref<1x48x8x30xf32, {order = #NCHW, strides = [43200, 900, 30, 1]}, @DDR>) -> memref<1x48x8x30xf32, {order = #NCHW, strides = [43200, 900, 30, 1]}, @DDR> loc(#loc124)
    } loc(#loc124)
    VPURT.Task attributes {isTrailingSWLayer = false} {
      %220 = VPUIP.NNDMA {port = 1 : i64} inputs(%200 : memref<1xui64, @Register>) outputs(%201 : memref<1xui64, [@CMX_NN, 0]>) -> memref<1xui64, [@CMX_NN, 0]> loc(#loc93)
    } loc(#loc93)
    VPURT.Task attributes {isTrailingSWLayer = false} {
      %220 = VPUIP.NNDMA {is_out_of_order, port = 0 : i64} inputs(%202 : memref<1xui64, @Register>) outputs(%203 : memref<1xui64, [@CMX_NN, 0]>) -> memref<1xui64, [@CMX_NN, 0]> loc(#loc90)
    } loc(#loc90)
    VPURT.Task attributes {cycleBegin = 8589989820 : i64, cycleEnd = 8589992712 : i64, isTrailingSWLayer = false} {
      %220 = VPUIP.NNDMA {is_out_of_order, port = 0 : i64} inputs(%67 : memref<1x48x7x30xf32, [@CMX_NN, 0]>) outputs(%110 : memref<1x48x7x30xf32, {order = #NCHW, strides = [43200, 900, 30, 1]}, @DDR>) -> memref<1x48x7x30xf32, {order = #NCHW, strides = [43200, 900, 30, 1]}, @DDR> loc(#loc123)
    } loc(#loc123)
    VPURT.Task attributes {isTrailingSWLayer = false} {
      %220 = VPUIP.NNDMA {port = 0 : i64} inputs(%204 : memref<1xui64, @Register>) outputs(%205 : memref<1xui64, [@CMX_NN, 0]>) -> memref<1xui64, [@CMX_NN, 0]> loc(#loc94)
    } loc(#loc94)
    VPURT.Task attributes {isTrailingSWLayer = false} {
      %220 = VPUIP.NNDMA {port = 0 : i64} inputs(%206 : memref<26xui64, [@CMX_NN, 0]>) outputs(%207 : memref<26xui64>) -> memref<26xui64> loc(#loc95)
    } loc(#loc95)
    VPURT.Task attributes {isTrailingSWLayer = false} {
      %220 = VPUIP.NNDMA {is_out_of_order, port = 1 : i64} inputs(%208 : memref<1xui64, @Register>) outputs(%209 : memref<1xui64, [@CMX_NN, 0]>) -> memref<1xui64, [@CMX_NN, 0]> loc(#loc92)
    } loc(#loc92)
    VPURT.Task attributes {cycleBegin = 8589989820 : i64, cycleEnd = 8589992712 : i64, isTrailingSWLayer = false} {
      %220 = VPUIP.NNDMA {is_out_of_order, port = 1 : i64} inputs(%68 : memref<1x48x7x30xf32, [@CMX_NN, 1]>) outputs(%111 : memref<1x48x7x30xf32, {order = #NCHW, strides = [43200, 900, 30, 1]}, @DDR>) -> memref<1x48x7x30xf32, {order = #NCHW, strides = [43200, 900, 30, 1]}, @DDR> loc(#loc124)
    } loc(#loc124)
    VPURT.Task attributes {isTrailingSWLayer = false} {
      %220 = VPUIP.NNDMA {port = 1 : i64} inputs(%210 : memref<1xui64, @Register>) outputs(%211 : memref<1xui64, [@CMX_NN, 0]>) -> memref<1xui64, [@CMX_NN, 0]> loc(#loc96)
    } loc(#loc96)
    VPURT.Task attributes {isTrailingSWLayer = false} {
      %220 = VPUIP.NNDMA {port = 1 : i64} inputs(%212 : memref<20xui64, [@CMX_NN, 0]>) outputs(%213 : memref<20xui64>) -> memref<20xui64> loc(#loc97)
    } loc(#loc97)
    VPURT.Task attributes {isTrailingSWLayer = false} {
      %220 = VPUIP.NNDMA {is_out_of_order, port = 0 : i64} inputs(%214 : memref<1xui32, @Register>) outputs(%215 : memref<1xui32>) -> memref<1xui32> loc(#loc3)
    } loc(#loc3)
    return %arg1, %arg2 : memref<1x48x30x30xf32, @DDR>, memref<176xui32> loc(#loc10)
  } loc(#loc0)
} loc(#loc0)
#loc1 = loc("combinedProfilingDataOutputInfo")
#loc3 = loc("PROFWORKPOINT_READ")
#loc4 = loc(fused["conv1/WithoutBiases", "t_Convolution", "_expand_copy_3_2"])
#loc5 = loc(fused["conv1/WithoutBiases", "t_Convolution"])
#loc6 = loc(fused["conv1/WithoutBiases", "t_Convolution", "output tile [0, 0, 0, 0]", "_fused_constant", "_fused_tile"])
#loc7 = loc(fused["pool1", "t_MaxPool", "_fused_constant", "_fused_tile"])
#loc8 = loc(fused["pool1", "t_MaxPool"])
#loc9 = loc("dpuProfilingCMX2DDR0")
#loc10 = loc("output")
#loc11 = loc(fused["pool1", "t_MaxPool", "_fused_constant"])
#loc12 = loc(fused["conv1/WithoutBiases", "t_Convolution", "output tile [0, 0, 0, 0]", "_fused_constant"])
#loc13 = loc(fused["conv1/WithoutBiases", "t_Convolution", "_constant_permute_3_2"])
#loc14 = loc("actshaveProfilingCMX2DDR0")
#loc15 = loc(fused["conv1/WithoutBiases", "t_Convolution", "_outputBuff_cluster_0"])
#loc16 = loc(fused["conv1/WithoutBiases", "t_Convolution", "_outputBuff_cluster_1"])
#loc17 = loc(fused["conv1/WithoutBiases", "t_Convolution", "output tile [0, 0, 0, 0]"])
#loc18 = loc(fused["conv1/WithoutBiases", "t_Convolution", "output tile [0, 0, 0, 0]", "_input_cluster_0"])
#loc19 = loc(fused["conv1/WithoutBiases", "t_Convolution", "output tile [0, 0, 0, 0]", "_input_cluster_1"])
#loc20 = loc(fused["pool1", "t_MaxPool", "_input_cluster_0"])
#loc21 = loc(fused["pool1", "t_MaxPool", "_input_cluster_1"])
#loc22 = loc(fused["conv1/WithoutBiases", "t_Convolution", "output tile [0, 0, 0, 0]", "_outputBuff_cluster_0"])
#loc23 = loc(fused["conv1/WithoutBiases", "t_Convolution", "output tile [0, 0, 0, 0]", "_outputBuff_cluster_1"])
#loc24 = loc(fused["pool1", "t_MaxPool", "_outputBuff_cluster_0"])
#loc25 = loc(fused["pool1", "t_MaxPool", "_outputBuff_cluster_1"])
#loc26 = loc(fused["output", "PROF_0_4_3_1", "_input_cluster_0"])
#loc27 = loc(fused["output", "PROF_0_4_3_1", "_input_cluster_1"])
#loc28 = loc(fused["output", "PROF_0_4_2_0", "_input_cluster_0"])
#loc29 = loc(fused["output", "PROF_0_4_2_0", "_input_cluster_1"])
#loc30 = loc(fused["output", "PROF_0_4_3_1", "_outputBuff_cluster_0"])
#loc31 = loc(fused["output", "PROF_0_4_3_1", "_outputBuff_cluster_1"])
#loc32 = loc(fused["output", "PROF_0_4_2_0", "_outputBuff_cluster_0"])
#loc33 = loc(fused["output", "PROF_0_4_2_0", "_outputBuff_cluster_1"])
#loc34 = loc(fused["conv1/WithoutBiases", "t_Convolution", "_expand_subview_3_2"])
#loc35 = loc(fused["conv1/WithoutBiases", "t_Convolution", "cast number of input tiles"])
#loc36 = loc(fused["conv1/WithoutBiases", "t_Convolution", "_weights_cluster_0"])
#loc37 = loc(fused["conv1/WithoutBiases", "t_Convolution", "_weights_cluster_1"])
#loc38 = loc(fused["conv1/WithoutBiases", "t_Convolution", "_input_cluster_0"])
#loc39 = loc(fused["conv1/WithoutBiases", "t_Convolution", "_input_cluster_1"])
#loc40 = loc(fused["conv1/WithoutBiases", "t_Convolution", "_profilingBuff_cluster_0"])
#loc41 = loc(fused["conv1/WithoutBiases", "t_Convolution", "_profilingBuff_cluster_1"])
#loc42 = loc(fused["conv1/WithoutBiases", "t_Convolution", "output tile [0, 0, 0, 0]", "_weightTable_cluster_0"])
#loc43 = loc(fused["conv1/WithoutBiases", "t_Convolution", "output tile [0, 0, 0, 0]", "_weightTable_cluster_1"])
#loc44 = loc(fused["conv1/WithoutBiases", "t_Convolution", "output tile [0, 0, 0, 0]", "_weights_cluster_0"])
#loc45 = loc(fused["conv1/WithoutBiases", "t_Convolution", "output tile [0, 0, 0, 0]", "_weights_cluster_1"])
#loc46 = loc(fused["conv1/WithoutBiases", "t_Convolution", "output tile [0, 0, 0, 0]", "_weightsSparsityMap_cluster_0"])
#loc47 = loc(fused["conv1/WithoutBiases", "t_Convolution", "output tile [0, 0, 0, 0]", "_weightsSparsityMap_cluster_1"])
#loc48 = loc(fused["conv1/WithoutBiases", "t_Convolution", "output tile [0, 0, 0, 0]", "_profilingBuff_cluster_0"])
#loc49 = loc(fused["conv1/WithoutBiases", "t_Convolution", "output tile [0, 0, 0, 0]", "_profilingBuff_cluster_1"])
#loc50 = loc(fused["pool1", "t_MaxPool", "_weightTable_cluster_0"])
#loc51 = loc(fused["pool1", "t_MaxPool", "_weightTable_cluster_1"])
#loc52 = loc(fused["pool1", "t_MaxPool", "_activationWindow_cluster_0"])
#loc53 = loc(fused["pool1", "t_MaxPool", "_activationWindow_cluster_1"])
#loc54 = loc(fused["pool1", "t_MaxPool", "_profilingBuff_cluster_0"])
#loc55 = loc(fused["pool1", "t_MaxPool", "_profilingBuff_cluster_1"])
#loc56 = loc(fused["conv1/WithoutBiases", "t_Convolution", "_expand_copy_3_2", "PROFTASKBEGIN"])
#loc57 = loc(fused["conv1/WithoutBiases", "t_Convolution", "_expand_copy_3_2", "PROFTASKEND_13"])
#loc58 = loc(fused["conv1/WithoutBiases", "t_Convolution", "PROFTASKBEGIN"])
#loc59 = loc(fused["conv1/WithoutBiases", "t_Convolution", "PROFTASKEND_0"])
#loc60 = loc(fused["conv1/WithoutBiases", "t_Convolution", "PROF_0_4_0_<NONE>", "_view_cast"])
#loc61 = loc(fused["conv1/WithoutBiases", "t_Convolution", "PROFTASKEND_1"])
#loc62 = loc(fused["conv1/WithoutBiases", "t_Convolution", "_cluster_0", "PROFTASKBEGIN"])
#loc63 = loc(fused["conv1/WithoutBiases", "t_Convolution", "_cluster_0", "PROFTASKEND_2"])
#loc64 = loc(fused["conv1/WithoutBiases", "t_Convolution", "_cluster_1", "PROFTASKBEGIN"])
#loc65 = loc(fused["conv1/WithoutBiases", "t_Convolution", "_cluster_1", "PROFTASKEND_14"])
#loc66 = loc(fused["conv1/WithoutBiases", "t_Convolution", "output tile [0, 0, 0, 0]", "_fused_constant", "_fused_tile", "_broadcast_copy_to_CMX[0,1]", "PROFTASKBEGIN"])
#loc67 = loc(fused["conv1/WithoutBiases", "t_Convolution", "output tile [0, 0, 0, 0]", "_fused_constant", "_fused_tile", "_broadcast_copy_to_CMX[0,1]", "PROFTASKEND_3"])
#loc68 = loc(fused["conv1/WithoutBiases", "t_Convolution", "_cluster_0", "PROFTASKEND_4"])
#loc69 = loc(fused["conv1/WithoutBiases", "t_Convolution", "_cluster_1", "PROFTASKEND_15"])
#loc70 = loc(fused["conv1/WithoutBiases", "t_Convolution", "output tile [0, 0, 0, 0]", "_cluster_0", "PROFTASKBEGIN"])
#loc71 = loc(fused["conv1/WithoutBiases", "t_Convolution", "output tile [0, 0, 0, 0]", "_cluster_0", "PROFTASKEND_5"])
#loc72 = loc(fused["conv1/WithoutBiases", "t_Convolution", "output tile [0, 0, 0, 0]", "_cluster_1", "PROFTASKBEGIN"])
#loc73 = loc(fused["conv1/WithoutBiases", "t_Convolution", "output tile [0, 0, 0, 0]", "_cluster_1", "PROFTASKEND_16"])
#loc74 = loc(fused["pool1", "t_MaxPool", "_fused_constant", "_fused_tile", "_broadcast_copy_to_CMX[0,1]", "PROFTASKBEGIN"])
#loc75 = loc(fused["pool1", "t_MaxPool", "_fused_constant", "_fused_tile", "_broadcast_copy_to_CMX[0,1]", "PROFTASKEND_6"])
#loc76 = loc(fused["pool1", "t_MaxPool", "_cluster_0", "PROFTASKBEGIN"])
#loc77 = loc(fused["pool1", "t_MaxPool", "_cluster_0", "PROFTASKEND_7"])
#loc78 = loc(fused["pool1", "t_MaxPool", "_cluster_1", "PROFTASKBEGIN"])
#loc79 = loc(fused["pool1", "t_MaxPool", "_cluster_1", "PROFTASKEND_17"])
#loc80 = loc(fused["pool1", "t_MaxPool", "_cluster_0", "PROFTASKEND_8"])
#loc81 = loc(fused["pool1", "t_MaxPool", "_cluster_1", "PROFTASKEND_18"])
#loc82 = loc(fused["pool1", "t_MaxPool", "_cluster_0", "PROFTASKEND_9"])
#loc83 = loc(fused["pool1", "t_MaxPool", "_cluster_1", "PROFTASKEND_19"])
#loc84 = loc(fused["pool1", "t_MaxPool", "_cluster_0", "PROFTASKEND_10"])
#loc85 = loc(fused["pool1", "t_MaxPool", "_cluster_1", "PROFTASKEND_20"])
#loc86 = loc(fused["output", "PROF_0_4_2_0", "_profilingBuff_cluster_0"])
#loc87 = loc(fused["output", "PROF_0_4_2_0", "_profilingBuff_cluster_1"])
#loc88 = loc(fused["output", "PROF_0_4_3_1", "_profilingBuff_cluster_0"])
#loc89 = loc(fused["output", "PROF_0_4_3_1", "_profilingBuff_cluster_1"])
#loc90 = loc(fused["output", "_cluster_0", "PROFTASKBEGIN"])
#loc91 = loc(fused["output", "_cluster_0", "PROFTASKEND_11"])
#loc92 = loc(fused["output", "_cluster_1", "PROFTASKBEGIN"])
#loc93 = loc(fused["output", "_cluster_1", "PROFTASKEND_21"])
#loc94 = loc(fused["output", "_cluster_0", "PROFTASKEND_12"])
#loc95 = loc("dmaProfilingCMX2DDR0")
#loc96 = loc(fused["output", "_cluster_1", "PROFTASKEND_22"])
#loc97 = loc("dmaProfilingCMX2DDR208")
#loc98 = loc("newProfilingBuffer")
#loc99 = loc(fused["conv1/WithoutBiases", "t_Convolution", "PROF_0_4_0_0"])
#loc100 = loc(fused["conv1/WithoutBiases", "t_Convolution", "PROF_0_4_1_1"])
#loc101 = loc(fused["conv1/WithoutBiases", "t_Convolution", "_cluster_0"])
#loc102 = loc(fused["conv1/WithoutBiases", "t_Convolution", "_cluster_1"])
#loc103 = loc(fused["conv1/WithoutBiases", "t_Convolution", "output tile [0, 0, 0, 0]", "_fused_constant", "_fused_tile", "_broadcast_copy_to_CMX[0,1]"])
#loc104 = loc(fused["conv1/WithoutBiases", "t_Convolution", "cluster_0"])
#loc105 = loc(fused["conv1/WithoutBiases", "t_Convolution", "cluster_1"])
#loc106 = loc(fused["conv1/WithoutBiases", "t_Convolution", "output tile [0, 0, 0, 0]", "_cluster_0"])
#loc107 = loc(fused["conv1/WithoutBiases", "t_Convolution", "output tile [0, 0, 0, 0]", "_cluster_1"])
#loc108 = loc(fused["pool1", "t_MaxPool", "_fused_constant", "_fused_tile", "_broadcast_copy_to_CMX[0,1]"])
#loc109 = loc(fused["conv1/WithoutBiases", "t_Convolution", "output tile [0, 0, 0, 0]", "cluster_0"])
#loc110 = loc(fused["conv1/WithoutBiases", "t_Convolution", "output tile [0, 0, 0, 0]", "cluster_1"])
#loc111 = loc(fused["pool1", "t_MaxPool", "cluster_0"])
#loc112 = loc(fused["pool1", "t_MaxPool", "cluster_1"])
#loc113 = loc(fused["dpuProfilingCMX2DDR0", "_cluster_0"])
#loc114 = loc(fused["dpuProfilingCMX2DDR0", "_cluster_1"])
#loc115 = loc(fused["pool1", "t_MaxPool", "_cluster_0"])
#loc116 = loc(fused["pool1", "t_MaxPool", "_cluster_1"])
#loc117 = loc(fused["output", "PROF_0_4_2_0", "cluster_0"])
#loc118 = loc(fused["output", "PROF_0_4_2_0", "cluster_1"])
#loc119 = loc(fused["output", "PROF_0_4_3_1", "cluster_0"])
#loc120 = loc(fused["output", "PROF_0_4_3_1", "cluster_1"])
#loc121 = loc(fused["actshaveProfilingCMX2DDR0", "_cluster_0"])
#loc122 = loc(fused["actshaveProfilingCMX2DDR0", "_cluster_1"])
#loc123 = loc(fused["output", "_cluster_0"])
#loc124 = loc(fused["output", "_cluster_1"])
