<?xml version="1.0" ?>
<net batch="1" name="mobilenet_v2_qs0" precision="FP32" version="7">
	<layers>
		<layer id="0" name="input" type="Input">
			<output>
				<port id="0" precision="FP32">
					<dim>1</dim>
					<dim>3</dim>
					<dim>224</dim>
					<dim>224</dim>
				</port>
			</output>
		</layer>
		<layer id="1" name="image_preprocess/truediv/mul_/Fused_Mul_/FusedScaleShift_" type="ScaleShift">
			<input>
				<port id="0">
					<dim>1</dim>
					<dim>3</dim>
					<dim>224</dim>
					<dim>224</dim>
				</port>
			</input>
			<output>
				<port id="3" precision="FP32">
					<dim>1</dim>
					<dim>3</dim>
					<dim>224</dim>
					<dim>224</dim>
				</port>
			</output>
			<blobs>
				<weights offset="24347008" precision="FP32" size="12"/>
				<biases offset="24347020" precision="FP32" size="12"/>
			</blobs>
		</layer>
		<layer id="21" name="MobilenetV2/Conv/mul_fold/Output_0/Data__const" type="Const">
			<output>
				<port id="1" precision="FP32">
					<dim>48</dim>
					<dim>3</dim>
					<dim>3</dim>
					<dim>3</dim>
				</port>
			</output>
			<blobs>
				<custom offset="4" precision="FP32" size="5184"/>
			</blobs>
		</layer>
		<layer id="22" name="Copy_MobilenetV2/Conv/weights_quant/FakeQuantWithMinMaxVars/nudged_min/Output_0/Data_/copy_const" type="Const">
			<output>
				<port id="1" precision="FP32">
					<dim>1</dim>
					<dim>1</dim>
					<dim>1</dim>
					<dim>1</dim>
				</port>
			</output>
			<blobs>
				<custom offset="5188" precision="FP32" size="4"/>
			</blobs>
		</layer>
		<layer id="23" name="Copy_MobilenetV2/Conv/weights_quant/FakeQuantWithMinMaxVars/nudged_max/Output_0/Data_/copy_const" type="Const">
			<output>
				<port id="1" precision="FP32">
					<dim>1</dim>
					<dim>1</dim>
					<dim>1</dim>
					<dim>1</dim>
				</port>
			</output>
			<blobs>
				<custom offset="5192" precision="FP32" size="4"/>
			</blobs>
		</layer>
		<layer id="24" name="image_preprocess/truediv/mul_2621126213_const" type="Const">
			<output>
				<port id="1" precision="FP32">
					<dim>1</dim>
					<dim>1</dim>
					<dim>1</dim>
					<dim>1</dim>
				</port>
			</output>
			<blobs>
				<custom offset="5188" precision="FP32" size="4"/>
			</blobs>
		</layer>
		<layer id="25" name="image_preprocess/truediv/mul_262112910529106_const" type="Const">
			<output>
				<port id="1" precision="FP32">
					<dim>1</dim>
					<dim>1</dim>
					<dim>1</dim>
					<dim>1</dim>
				</port>
			</output>
			<blobs>
				<custom offset="5192" precision="FP32" size="4"/>
			</blobs>
		</layer>
		<layer id="26" name="MobilenetV2/Conv/weights_quant/FakeQuantWithMinMaxVars" type="FakeQuantize">
			<data levels="255"/>
			<input>
				<port id="0">
					<dim>48</dim>
					<dim>3</dim>
					<dim>3</dim>
					<dim>3</dim>
				</port>
				<port id="1">
					<dim>1</dim>
					<dim>1</dim>
					<dim>1</dim>
					<dim>1</dim>
				</port>
				<port id="2">
					<dim>1</dim>
					<dim>1</dim>
					<dim>1</dim>
					<dim>1</dim>
				</port>
				<port id="3">
					<dim>1</dim>
					<dim>1</dim>
					<dim>1</dim>
					<dim>1</dim>
				</port>
				<port id="4">
					<dim>1</dim>
					<dim>1</dim>
					<dim>1</dim>
					<dim>1</dim>
				</port>
			</input>
			<output>
				<port id="5" precision="FP32">
					<dim>48</dim>
					<dim>3</dim>
					<dim>3</dim>
					<dim>3</dim>
				</port>
			</output>
		</layer>
		<layer id="27" name="bias_data26105_const" type="Const">
			<output>
				<port id="1" precision="FP32">
					<dim>48</dim>
				</port>
			</output>
			<blobs>
				<custom offset="5220" precision="FP32" size="192"/>
			</blobs>
		</layer>
		<layer id="28" name="MobilenetV2/Conv/Conv2D_Fold" type="Convolution">
			<data auto_pad="same_upper" dilations="1,1" group="1" kernel="3,3" output="48" pads_begin="0,0" pads_end="1,1" strides="2,2"/>
			<input>
				<port id="0">
					<dim>1</dim>
					<dim>3</dim>
					<dim>224</dim>
					<dim>224</dim>
				</port>
				<port id="1">
					<dim>48</dim>
					<dim>3</dim>
					<dim>3</dim>
					<dim>3</dim>
				</port>
				<port id="2">
					<dim>48</dim>
				</port>
			</input>
			<output>
				<port id="3" precision="FP32">
					<dim>1</dim>
					<dim>48</dim>
					<dim>112</dim>
					<dim>112</dim>
				</port>
			</output>
		</layer>
		<layer id="29" name="MobilenetV2/Conv/Relu6" type="Clamp">
			<data max="6" min="0"/>
			<input>
				<port id="0">
					<dim>1</dim>
					<dim>48</dim>
					<dim>112</dim>
					<dim>112</dim>
				</port>
			</input>
			<output>
				<port id="1" precision="FP32">
					<dim>1</dim>
					<dim>48</dim>
					<dim>112</dim>
					<dim>112</dim>
				</port>
			</output>
		</layer>
		<layer id="30" name="Copy_MobilenetV2/Conv/act_quant/FakeQuantWithMinMaxVars/nudged_min/Output_0/Data_/copy_const" type="Const">
			<output>
				<port id="1" precision="FP32">
					<dim>1</dim>
					<dim>1</dim>
					<dim>1</dim>
					<dim>1</dim>
				</port>
			</output>
			<blobs>
				<custom offset="5412" precision="FP32" size="4"/>
			</blobs>
		</layer>
		<layer id="31" name="Copy_MobilenetV2/Conv/act_quant/FakeQuantWithMinMaxVars/nudged_max/Output_0/Data_/copy_const" type="Const">
			<output>
				<port id="1" precision="FP32">
					<dim>1</dim>
					<dim>1</dim>
					<dim>1</dim>
					<dim>1</dim>
				</port>
			</output>
			<blobs>
				<custom offset="5416" precision="FP32" size="4"/>
			</blobs>
		</layer>
		<layer id="32" name="Copy_MobilenetV2/Conv/act_quant/FakeQuantWithMinMaxVars/nudged_min/Output_0/Data_10789/copy_const" type="Const">
			<output>
				<port id="1" precision="FP32">
					<dim>1</dim>
					<dim>1</dim>
					<dim>1</dim>
					<dim>1</dim>
				</port>
			</output>
			<blobs>
				<custom offset="5412" precision="FP32" size="4"/>
			</blobs>
		</layer>
		<layer id="33" name="Copy_MobilenetV2/Conv/act_quant/FakeQuantWithMinMaxVars/nudged_max/Output_0/Data_10915/copy_const" type="Const">
			<output>
				<port id="1" precision="FP32">
					<dim>1</dim>
					<dim>1</dim>
					<dim>1</dim>
					<dim>1</dim>
				</port>
			</output>
			<blobs>
				<custom offset="5416" precision="FP32" size="4"/>
			</blobs>
		</layer>
		<layer id="34" name="MobilenetV2/Conv/act_quant/FakeQuantWithMinMaxVars" type="FakeQuantize">
			<data levels="256"/>
			<input>
				<port id="0">
					<dim>1</dim>
					<dim>48</dim>
					<dim>112</dim>
					<dim>112</dim>
				</port>
				<port id="1">
					<dim>1</dim>
					<dim>1</dim>
					<dim>1</dim>
					<dim>1</dim>
				</port>
				<port id="2">
					<dim>1</dim>
					<dim>1</dim>
					<dim>1</dim>
					<dim>1</dim>
				</port>
				<port id="3">
					<dim>1</dim>
					<dim>1</dim>
					<dim>1</dim>
					<dim>1</dim>
				</port>
				<port id="4">
					<dim>1</dim>
					<dim>1</dim>
					<dim>1</dim>
					<dim>1</dim>
				</port>
			</input>
			<output>
				<port id="5" precision="FP32">
					<dim>1</dim>
					<dim>48</dim>
					<dim>112</dim>
					<dim>112</dim>
				</port>
			</output>
		</layer>
		<layer id="35" name="MobilenetV2/expanded_conv/depthwise/mul_fold/Output_0/Data__const" type="Const">
			<output>
				<port id="1" precision="FP32">
					<dim>48</dim>
					<dim>1</dim>
					<dim>3</dim>
					<dim>3</dim>
				</port>
			</output>
			<blobs>
				<custom offset="5420" precision="FP32" size="1728"/>
			</blobs>
		</layer>
		<layer id="36" name="Copy_MobilenetV2/expanded_conv/depthwise/weights_quant/FakeQuantWithMinMaxVars/nudged_min/Output_0/Data_/copy_const" type="Const">
			<output>
				<port id="1" precision="FP32">
					<dim>1</dim>
					<dim>1</dim>
					<dim>1</dim>
					<dim>1</dim>
				</port>
			</output>
			<blobs>
				<custom offset="7148" precision="FP32" size="4"/>
			</blobs>
		</layer>
		<layer id="37" name="Copy_MobilenetV2/expanded_conv/depthwise/weights_quant/FakeQuantWithMinMaxVars/nudged_max/Output_0/Data_/copy_const" type="Const">
			<output>
				<port id="1" precision="FP32">
					<dim>1</dim>
					<dim>1</dim>
					<dim>1</dim>
					<dim>1</dim>
				</port>
			</output>
			<blobs>
				<custom offset="7152" precision="FP32" size="4"/>
			</blobs>
		</layer>
		<layer id="38" name="Copy_MobilenetV2/expanded_conv/depthwise/weights_quant/FakeQuantWithMinMaxVars/nudged_min/Output_0/Data_11121/copy_const" type="Const">
			<output>
				<port id="1" precision="FP32">
					<dim>1</dim>
					<dim>1</dim>
					<dim>1</dim>
					<dim>1</dim>
				</port>
			</output>
			<blobs>
				<custom offset="7148" precision="FP32" size="4"/>
			</blobs>
		</layer>
		<layer id="39" name="Copy_MobilenetV2/expanded_conv/depthwise/weights_quant/FakeQuantWithMinMaxVars/nudged_max/Output_0/Data_10897/copy_const" type="Const">
			<output>
				<port id="1" precision="FP32">
					<dim>1</dim>
					<dim>1</dim>
					<dim>1</dim>
					<dim>1</dim>
				</port>
			</output>
			<blobs>
				<custom offset="7152" precision="FP32" size="4"/>
			</blobs>
		</layer>
		<layer id="40" name="MobilenetV2/expanded_conv/depthwise/weights_quant/FakeQuantWithMinMaxVars" type="FakeQuantize">
			<data levels="255"/>
			<input>
				<port id="0">
					<dim>48</dim>
					<dim>1</dim>
					<dim>3</dim>
					<dim>3</dim>
				</port>
				<port id="1">
					<dim>1</dim>
					<dim>1</dim>
					<dim>1</dim>
					<dim>1</dim>
				</port>
				<port id="2">
					<dim>1</dim>
					<dim>1</dim>
					<dim>1</dim>
					<dim>1</dim>
				</port>
				<port id="3">
					<dim>1</dim>
					<dim>1</dim>
					<dim>1</dim>
					<dim>1</dim>
				</port>
				<port id="4">
					<dim>1</dim>
					<dim>1</dim>
					<dim>1</dim>
					<dim>1</dim>
				</port>
			</input>
			<output>
				<port id="5" precision="FP32">
					<dim>48</dim>
					<dim>1</dim>
					<dim>3</dim>
					<dim>3</dim>
				</port>
			</output>
		</layer>
		<layer id="41" name="bias_data2610626107_const" type="Const">
			<output>
				<port id="1" precision="FP32">
					<dim>48</dim>
				</port>
			</output>
			<blobs>
				<custom offset="7156" precision="FP32" size="192"/>
			</blobs>
		</layer>
		<layer id="42" name="MobilenetV2/expanded_conv/depthwise/depthwise_Fold" type="Convolution">
			<data auto_pad="same_upper" dilations="1,1" group="48" kernel="3,3" output="48" pads_begin="1,1" pads_end="1,1" strides="1,1"/>
			<input>
				<port id="0">
					<dim>1</dim>
					<dim>48</dim>
					<dim>112</dim>
					<dim>112</dim>
				</port>
				<port id="1">
					<dim>48</dim>
					<dim>1</dim>
					<dim>3</dim>
					<dim>3</dim>
				</port>
				<port id="2">
					<dim>48</dim>
				</port>
			</input>
			<output>
				<port id="3" precision="FP32">
					<dim>1</dim>
					<dim>48</dim>
					<dim>112</dim>
					<dim>112</dim>
				</port>
			</output>
		</layer>
		<layer id="43" name="MobilenetV2/expanded_conv/depthwise/Relu6" type="Clamp">
			<data max="6" min="0"/>
			<input>
				<port id="0">
					<dim>1</dim>
					<dim>48</dim>
					<dim>112</dim>
					<dim>112</dim>
				</port>
			</input>
			<output>
				<port id="1" precision="FP32">
					<dim>1</dim>
					<dim>48</dim>
					<dim>112</dim>
					<dim>112</dim>
				</port>
			</output>
		</layer>
		<layer id="44" name="Copy_MobilenetV2/expanded_conv/depthwise/act_quant/FakeQuantWithMinMaxVars/nudged_min/Output_0/Data_/copy_const" type="Const">
			<output>
				<port id="1" precision="FP32">
					<dim>1</dim>
					<dim>1</dim>
					<dim>1</dim>
					<dim>1</dim>
				</port>
			</output>
			<blobs>
				<custom offset="5412" precision="FP32" size="4"/>
			</blobs>
		</layer>
		<layer id="45" name="Copy_MobilenetV2/expanded_conv/depthwise/act_quant/FakeQuantWithMinMaxVars/nudged_max/Output_0/Data_/copy_const" type="Const">
			<output>
				<port id="1" precision="FP32">
					<dim>1</dim>
					<dim>1</dim>
					<dim>1</dim>
					<dim>1</dim>
				</port>
			</output>
			<blobs>
				<custom offset="5416" precision="FP32" size="4"/>
			</blobs>
		</layer>
		<layer id="46" name="Copy_MobilenetV2/expanded_conv/depthwise/act_quant/FakeQuantWithMinMaxVars/nudged_min/Output_0/Data_11041/copy_const" type="Const">
			<output>
				<port id="1" precision="FP32">
					<dim>1</dim>
					<dim>1</dim>
					<dim>1</dim>
					<dim>1</dim>
				</port>
			</output>
			<blobs>
				<custom offset="5412" precision="FP32" size="4"/>
			</blobs>
		</layer>
		<layer id="47" name="Copy_MobilenetV2/expanded_conv/depthwise/act_quant/FakeQuantWithMinMaxVars/nudged_max/Output_0/Data_11131/copy_const" type="Const">
			<output>
				<port id="1" precision="FP32">
					<dim>1</dim>
					<dim>1</dim>
					<dim>1</dim>
					<dim>1</dim>
				</port>
			</output>
			<blobs>
				<custom offset="5416" precision="FP32" size="4"/>
			</blobs>
		</layer>
		<layer id="48" name="MobilenetV2/expanded_conv/depthwise/act_quant/FakeQuantWithMinMaxVars" type="FakeQuantize">
			<data levels="256"/>
			<input>
				<port id="0">
					<dim>1</dim>
					<dim>48</dim>
					<dim>112</dim>
					<dim>112</dim>
				</port>
				<port id="1">
					<dim>1</dim>
					<dim>1</dim>
					<dim>1</dim>
					<dim>1</dim>
				</port>
				<port id="2">
					<dim>1</dim>
					<dim>1</dim>
					<dim>1</dim>
					<dim>1</dim>
				</port>
				<port id="3">
					<dim>1</dim>
					<dim>1</dim>
					<dim>1</dim>
					<dim>1</dim>
				</port>
				<port id="4">
					<dim>1</dim>
					<dim>1</dim>
					<dim>1</dim>
					<dim>1</dim>
				</port>
			</input>
			<output>
				<port id="5" precision="FP32">
					<dim>1</dim>
					<dim>48</dim>
					<dim>112</dim>
					<dim>112</dim>
				</port>
			</output>
		</layer>
		<layer id="49" name="MobilenetV2/expanded_conv/project/mul_fold/Output_0/Data__const" type="Const">
			<output>
				<port id="1" precision="FP32">
					<dim>24</dim>
					<dim>48</dim>
					<dim>1</dim>
					<dim>1</dim>
				</port>
			</output>
			<blobs>
				<custom offset="7348" precision="FP32" size="4608"/>
			</blobs>
		</layer>
		<layer id="50" name="Copy_MobilenetV2/expanded_conv/project/weights_quant/FakeQuantWithMinMaxVars/nudged_min/Output_0/Data_/copy_const" type="Const">
			<output>
				<port id="1" precision="FP32">
					<dim>1</dim>
					<dim>1</dim>
					<dim>1</dim>
					<dim>1</dim>
				</port>
			</output>
			<blobs>
				<custom offset="11956" precision="FP32" size="4"/>
			</blobs>
		</layer>
		<layer id="51" name="Copy_MobilenetV2/expanded_conv/project/weights_quant/FakeQuantWithMinMaxVars/nudged_max/Output_0/Data_/copy_const" type="Const">
			<output>
				<port id="1" precision="FP32">
					<dim>1</dim>
					<dim>1</dim>
					<dim>1</dim>
					<dim>1</dim>
				</port>
			</output>
			<blobs>
				<custom offset="11960" precision="FP32" size="4"/>
			</blobs>
		</layer>
		<layer id="52" name="Copy_MobilenetV2/expanded_conv/project/weights_quant/FakeQuantWithMinMaxVars/nudged_min/Output_0/Data_10701/copy_const" type="Const">
			<output>
				<port id="1" precision="FP32">
					<dim>1</dim>
					<dim>1</dim>
					<dim>1</dim>
					<dim>1</dim>
				</port>
			</output>
			<blobs>
				<custom offset="11956" precision="FP32" size="4"/>
			</blobs>
		</layer>
		<layer id="53" name="Copy_MobilenetV2/expanded_conv/project/weights_quant/FakeQuantWithMinMaxVars/nudged_max/Output_0/Data_10909/copy_const" type="Const">
			<output>
				<port id="1" precision="FP32">
					<dim>1</dim>
					<dim>1</dim>
					<dim>1</dim>
					<dim>1</dim>
				</port>
			</output>
			<blobs>
				<custom offset="11960" precision="FP32" size="4"/>
			</blobs>
		</layer>
		<layer id="54" name="MobilenetV2/expanded_conv/project/weights_quant/FakeQuantWithMinMaxVars" type="FakeQuantize">
			<data levels="255"/>
			<input>
				<port id="0">
					<dim>24</dim>
					<dim>48</dim>
					<dim>1</dim>
					<dim>1</dim>
				</port>
				<port id="1">
					<dim>1</dim>
					<dim>1</dim>
					<dim>1</dim>
					<dim>1</dim>
				</port>
				<port id="2">
					<dim>1</dim>
					<dim>1</dim>
					<dim>1</dim>
					<dim>1</dim>
				</port>
				<port id="3">
					<dim>1</dim>
					<dim>1</dim>
					<dim>1</dim>
					<dim>1</dim>
				</port>
				<port id="4">
					<dim>1</dim>
					<dim>1</dim>
					<dim>1</dim>
					<dim>1</dim>
				</port>
			</input>
			<output>
				<port id="5" precision="FP32">
					<dim>24</dim>
					<dim>48</dim>
					<dim>1</dim>
					<dim>1</dim>
				</port>
			</output>
		</layer>
		<layer id="55" name="bias_data2610826109_const" type="Const">
			<output>
				<port id="1" precision="FP32">
					<dim>24</dim>
				</port>
			</output>
			<blobs>
				<custom offset="11964" precision="FP32" size="96"/>
			</blobs>
		</layer>
		<layer id="56" name="MobilenetV2/expanded_conv/project/Conv2D_Fold" type="Convolution">
			<data auto_pad="same_upper" dilations="1,1" group="1" kernel="1,1" output="24" pads_begin="0,0" pads_end="0,0" strides="1,1"/>
			<input>
				<port id="0">
					<dim>1</dim>
					<dim>48</dim>
					<dim>112</dim>
					<dim>112</dim>
				</port>
				<port id="1">
					<dim>24</dim>
					<dim>48</dim>
					<dim>1</dim>
					<dim>1</dim>
				</port>
				<port id="2">
					<dim>24</dim>
				</port>
			</input>
			<output>
				<port id="3" precision="FP32">
					<dim>1</dim>
					<dim>24</dim>
					<dim>112</dim>
					<dim>112</dim>
				</port>
			</output>
		</layer>
		<layer id="57" name="Copy_MobilenetV2/expanded_conv/project/act_quant/FakeQuantWithMinMaxVars/nudged_min/Output_0/Data_/copy_const" type="Const">
			<output>
				<port id="1" precision="FP32">
					<dim>1</dim>
					<dim>1</dim>
					<dim>1</dim>
					<dim>1</dim>
				</port>
			</output>
			<blobs>
				<custom offset="12060" precision="FP32" size="4"/>
			</blobs>
		</layer>
		<layer id="58" name="Copy_MobilenetV2/expanded_conv/project/act_quant/FakeQuantWithMinMaxVars/nudged_max/Output_0/Data_/copy_const" type="Const">
			<output>
				<port id="1" precision="FP32">
					<dim>1</dim>
					<dim>1</dim>
					<dim>1</dim>
					<dim>1</dim>
				</port>
			</output>
			<blobs>
				<custom offset="12064" precision="FP32" size="4"/>
			</blobs>
		</layer>
		<layer id="59" name="Copy_MobilenetV2/expanded_conv/project/act_quant/FakeQuantWithMinMaxVars/nudged_min/Output_0/Data_11057/copy_const" type="Const">
			<output>
				<port id="1" precision="FP32">
					<dim>1</dim>
					<dim>1</dim>
					<dim>1</dim>
					<dim>1</dim>
				</port>
			</output>
			<blobs>
				<custom offset="12060" precision="FP32" size="4"/>
			</blobs>
		</layer>
		<layer id="60" name="Copy_MobilenetV2/expanded_conv/project/act_quant/FakeQuantWithMinMaxVars/nudged_max/Output_0/Data_10867/copy_const" type="Const">
			<output>
				<port id="1" precision="FP32">
					<dim>1</dim>
					<dim>1</dim>
					<dim>1</dim>
					<dim>1</dim>
				</port>
			</output>
			<blobs>
				<custom offset="12064" precision="FP32" size="4"/>
			</blobs>
		</layer>
		<layer id="61" name="MobilenetV2/expanded_conv/project/act_quant/FakeQuantWithMinMaxVars" type="FakeQuantize">
			<data levels="256"/>
			<input>
				<port id="0">
					<dim>1</dim>
					<dim>24</dim>
					<dim>112</dim>
					<dim>112</dim>
				</port>
				<port id="1">
					<dim>1</dim>
					<dim>1</dim>
					<dim>1</dim>
					<dim>1</dim>
				</port>
				<port id="2">
					<dim>1</dim>
					<dim>1</dim>
					<dim>1</dim>
					<dim>1</dim>
				</port>
				<port id="3">
					<dim>1</dim>
					<dim>1</dim>
					<dim>1</dim>
					<dim>1</dim>
				</port>
				<port id="4">
					<dim>1</dim>
					<dim>1</dim>
					<dim>1</dim>
					<dim>1</dim>
				</port>
			</input>
			<output>
				<port id="5" precision="FP32">
					<dim>1</dim>
					<dim>24</dim>
					<dim>112</dim>
					<dim>112</dim>
				</port>
			</output>
		</layer>
		<layer id="62" name="MobilenetV2/expanded_conv_1/expand/mul_fold/Output_0/Data__const" type="Const">
			<output>
				<port id="1" precision="FP32">
					<dim>144</dim>
					<dim>24</dim>
					<dim>1</dim>
					<dim>1</dim>
				</port>
			</output>
			<blobs>
				<custom offset="12068" precision="FP32" size="13824"/>
			</blobs>
		</layer>
		<layer id="63" name="Copy_MobilenetV2/expanded_conv_1/expand/weights_quant/FakeQuantWithMinMaxVars/nudged_min/Output_0/Data_/copy_const" type="Const">
			<output>
				<port id="1" precision="FP32">
					<dim>1</dim>
					<dim>1</dim>
					<dim>1</dim>
					<dim>1</dim>
				</port>
			</output>
			<blobs>
				<custom offset="25892" precision="FP32" size="4"/>
			</blobs>
		</layer>
		<layer id="64" name="Copy_MobilenetV2/expanded_conv_1/expand/weights_quant/FakeQuantWithMinMaxVars/nudged_max/Output_0/Data_/copy_const" type="Const">
			<output>
				<port id="1" precision="FP32">
					<dim>1</dim>
					<dim>1</dim>
					<dim>1</dim>
					<dim>1</dim>
				</port>
			</output>
			<blobs>
				<custom offset="25896" precision="FP32" size="4"/>
			</blobs>
		</layer>
		<layer id="65" name="Copy_MobilenetV2/expanded_conv_1/expand/weights_quant/FakeQuantWithMinMaxVars/nudged_min/Output_0/Data_11065/copy_const" type="Const">
			<output>
				<port id="1" precision="FP32">
					<dim>1</dim>
					<dim>1</dim>
					<dim>1</dim>
					<dim>1</dim>
				</port>
			</output>
			<blobs>
				<custom offset="25892" precision="FP32" size="4"/>
			</blobs>
		</layer>
		<layer id="66" name="Copy_MobilenetV2/expanded_conv_1/expand/weights_quant/FakeQuantWithMinMaxVars/nudged_max/Output_0/Data_10831/copy_const" type="Const">
			<output>
				<port id="1" precision="FP32">
					<dim>1</dim>
					<dim>1</dim>
					<dim>1</dim>
					<dim>1</dim>
				</port>
			</output>
			<blobs>
				<custom offset="25896" precision="FP32" size="4"/>
			</blobs>
		</layer>
		<layer id="67" name="MobilenetV2/expanded_conv_1/expand/weights_quant/FakeQuantWithMinMaxVars" type="FakeQuantize">
			<data levels="255"/>
			<input>
				<port id="0">
					<dim>144</dim>
					<dim>24</dim>
					<dim>1</dim>
					<dim>1</dim>
				</port>
				<port id="1">
					<dim>1</dim>
					<dim>1</dim>
					<dim>1</dim>
					<dim>1</dim>
				</port>
				<port id="2">
					<dim>1</dim>
					<dim>1</dim>
					<dim>1</dim>
					<dim>1</dim>
				</port>
				<port id="3">
					<dim>1</dim>
					<dim>1</dim>
					<dim>1</dim>
					<dim>1</dim>
				</port>
				<port id="4">
					<dim>1</dim>
					<dim>1</dim>
					<dim>1</dim>
					<dim>1</dim>
				</port>
			</input>
			<output>
				<port id="5" precision="FP32">
					<dim>144</dim>
					<dim>24</dim>
					<dim>1</dim>
					<dim>1</dim>
				</port>
			</output>
		</layer>
		<layer id="68" name="bias_data2611026111_const" type="Const">
			<output>
				<port id="1" precision="FP32">
					<dim>144</dim>
				</port>
			</output>
			<blobs>
				<custom offset="25900" precision="FP32" size="576"/>
			</blobs>
		</layer>
		<layer id="69" name="MobilenetV2/expanded_conv_1/expand/Conv2D_Fold" type="Convolution">
			<data auto_pad="same_upper" dilations="1,1" group="1" kernel="1,1" output="144" pads_begin="0,0" pads_end="0,0" strides="1,1"/>
			<input>
				<port id="0">
					<dim>1</dim>
					<dim>24</dim>
					<dim>112</dim>
					<dim>112</dim>
				</port>
				<port id="1">
					<dim>144</dim>
					<dim>24</dim>
					<dim>1</dim>
					<dim>1</dim>
				</port>
				<port id="2">
					<dim>144</dim>
				</port>
			</input>
			<output>
				<port id="3" precision="FP32">
					<dim>1</dim>
					<dim>144</dim>
					<dim>112</dim>
					<dim>112</dim>
				</port>
			</output>
		</layer>
		<layer id="70" name="MobilenetV2/expanded_conv_1/expand/Relu6" type="Clamp">
			<data max="6" min="0"/>
			<input>
				<port id="0">
					<dim>1</dim>
					<dim>144</dim>
					<dim>112</dim>
					<dim>112</dim>
				</port>
			</input>
			<output>
				<port id="1" precision="FP32">
					<dim>1</dim>
					<dim>144</dim>
					<dim>112</dim>
					<dim>112</dim>
				</port>
			</output>
		</layer>
		<layer id="71" name="Copy_MobilenetV2/expanded_conv_1/expand/act_quant/FakeQuantWithMinMaxVars/nudged_min/Output_0/Data_/copy_const" type="Const">
			<output>
				<port id="1" precision="FP32">
					<dim>1</dim>
					<dim>1</dim>
					<dim>1</dim>
					<dim>1</dim>
				</port>
			</output>
			<blobs>
				<custom offset="5412" precision="FP32" size="4"/>
			</blobs>
		</layer>
		<layer id="72" name="Copy_MobilenetV2/expanded_conv_1/expand/act_quant/FakeQuantWithMinMaxVars/nudged_max/Output_0/Data_/copy_const" type="Const">
			<output>
				<port id="1" precision="FP32">
					<dim>1</dim>
					<dim>1</dim>
					<dim>1</dim>
					<dim>1</dim>
				</port>
			</output>
			<blobs>
				<custom offset="5416" precision="FP32" size="4"/>
			</blobs>
		</layer>
		<layer id="73" name="Copy_MobilenetV2/expanded_conv_1/expand/act_quant/FakeQuantWithMinMaxVars/nudged_min/Output_0/Data_10855/copy_const" type="Const">
			<output>
				<port id="1" precision="FP32">
					<dim>1</dim>
					<dim>1</dim>
					<dim>1</dim>
					<dim>1</dim>
				</port>
			</output>
			<blobs>
				<custom offset="5412" precision="FP32" size="4"/>
			</blobs>
		</layer>
		<layer id="74" name="Copy_MobilenetV2/expanded_conv_1/expand/act_quant/FakeQuantWithMinMaxVars/nudged_max/Output_0/Data_11133/copy_const" type="Const">
			<output>
				<port id="1" precision="FP32">
					<dim>1</dim>
					<dim>1</dim>
					<dim>1</dim>
					<dim>1</dim>
				</port>
			</output>
			<blobs>
				<custom offset="5416" precision="FP32" size="4"/>
			</blobs>
		</layer>
		<layer id="75" name="MobilenetV2/expanded_conv_1/expand/act_quant/FakeQuantWithMinMaxVars" type="FakeQuantize">
			<data levels="256"/>
			<input>
				<port id="0">
					<dim>1</dim>
					<dim>144</dim>
					<dim>112</dim>
					<dim>112</dim>
				</port>
				<port id="1">
					<dim>1</dim>
					<dim>1</dim>
					<dim>1</dim>
					<dim>1</dim>
				</port>
				<port id="2">
					<dim>1</dim>
					<dim>1</dim>
					<dim>1</dim>
					<dim>1</dim>
				</port>
				<port id="3">
					<dim>1</dim>
					<dim>1</dim>
					<dim>1</dim>
					<dim>1</dim>
				</port>
				<port id="4">
					<dim>1</dim>
					<dim>1</dim>
					<dim>1</dim>
					<dim>1</dim>
				</port>
			</input>
			<output>
				<port id="5" precision="FP32">
					<dim>1</dim>
					<dim>144</dim>
					<dim>112</dim>
					<dim>112</dim>
				</port>
			</output>
		</layer>
		<layer id="76" name="MobilenetV2/expanded_conv_1/depthwise/mul_fold/Output_0/Data__const" type="Const">
			<output>
				<port id="1" precision="FP32">
					<dim>144</dim>
					<dim>1</dim>
					<dim>3</dim>
					<dim>3</dim>
				</port>
			</output>
			<blobs>
				<custom offset="26476" precision="FP32" size="5184"/>
			</blobs>
		</layer>
		<layer id="77" name="Copy_MobilenetV2/expanded_conv_1/depthwise/weights_quant/FakeQuantWithMinMaxVars/nudged_min/Output_0/Data_/copy_const" type="Const">
			<output>
				<port id="1" precision="FP32">
					<dim>1</dim>
					<dim>1</dim>
					<dim>1</dim>
					<dim>1</dim>
				</port>
			</output>
			<blobs>
				<custom offset="31660" precision="FP32" size="4"/>
			</blobs>
		</layer>
		<layer id="78" name="Copy_MobilenetV2/expanded_conv_1/depthwise/weights_quant/FakeQuantWithMinMaxVars/nudged_max/Output_0/Data_/copy_const" type="Const">
			<output>
				<port id="1" precision="FP32">
					<dim>1</dim>
					<dim>1</dim>
					<dim>1</dim>
					<dim>1</dim>
				</port>
			</output>
			<blobs>
				<custom offset="31664" precision="FP32" size="4"/>
			</blobs>
		</layer>
		<layer id="79" name="Copy_MobilenetV2/expanded_conv_1/depthwise/weights_quant/FakeQuantWithMinMaxVars/nudged_min/Output_0/Data_11025/copy_const" type="Const">
			<output>
				<port id="1" precision="FP32">
					<dim>1</dim>
					<dim>1</dim>
					<dim>1</dim>
					<dim>1</dim>
				</port>
			</output>
			<blobs>
				<custom offset="31660" precision="FP32" size="4"/>
			</blobs>
		</layer>
		<layer id="80" name="Copy_MobilenetV2/expanded_conv_1/depthwise/weights_quant/FakeQuantWithMinMaxVars/nudged_max/Output_0/Data_10957/copy_const" type="Const">
			<output>
				<port id="1" precision="FP32">
					<dim>1</dim>
					<dim>1</dim>
					<dim>1</dim>
					<dim>1</dim>
				</port>
			</output>
			<blobs>
				<custom offset="31664" precision="FP32" size="4"/>
			</blobs>
		</layer>
		<layer id="81" name="MobilenetV2/expanded_conv_1/depthwise/weights_quant/FakeQuantWithMinMaxVars" type="FakeQuantize">
			<data levels="255"/>
			<input>
				<port id="0">
					<dim>144</dim>
					<dim>1</dim>
					<dim>3</dim>
					<dim>3</dim>
				</port>
				<port id="1">
					<dim>1</dim>
					<dim>1</dim>
					<dim>1</dim>
					<dim>1</dim>
				</port>
				<port id="2">
					<dim>1</dim>
					<dim>1</dim>
					<dim>1</dim>
					<dim>1</dim>
				</port>
				<port id="3">
					<dim>1</dim>
					<dim>1</dim>
					<dim>1</dim>
					<dim>1</dim>
				</port>
				<port id="4">
					<dim>1</dim>
					<dim>1</dim>
					<dim>1</dim>
					<dim>1</dim>
				</port>
			</input>
			<output>
				<port id="5" precision="FP32">
					<dim>144</dim>
					<dim>1</dim>
					<dim>3</dim>
					<dim>3</dim>
				</port>
			</output>
		</layer>
		<layer id="82" name="bias_data2611226113_const" type="Const">
			<output>
				<port id="1" precision="FP32">
					<dim>144</dim>
				</port>
			</output>
			<blobs>
				<custom offset="31668" precision="FP32" size="576"/>
			</blobs>
		</layer>
		<layer id="83" name="MobilenetV2/expanded_conv_1/depthwise/depthwise_Fold" type="Convolution">
			<data auto_pad="same_upper" dilations="1,1" group="144" kernel="3,3" output="144" pads_begin="0,0" pads_end="1,1" strides="2,2"/>
			<input>
				<port id="0">
					<dim>1</dim>
					<dim>144</dim>
					<dim>112</dim>
					<dim>112</dim>
				</port>
				<port id="1">
					<dim>144</dim>
					<dim>1</dim>
					<dim>3</dim>
					<dim>3</dim>
				</port>
				<port id="2">
					<dim>144</dim>
				</port>
			</input>
			<output>
				<port id="3" precision="FP32">
					<dim>1</dim>
					<dim>144</dim>
					<dim>56</dim>
					<dim>56</dim>
				</port>
			</output>
		</layer>
		<layer id="84" name="MobilenetV2/expanded_conv_1/depthwise/Relu6" type="Clamp">
			<data max="6" min="0"/>
			<input>
				<port id="0">
					<dim>1</dim>
					<dim>144</dim>
					<dim>56</dim>
					<dim>56</dim>
				</port>
			</input>
			<output>
				<port id="1" precision="FP32">
					<dim>1</dim>
					<dim>144</dim>
					<dim>56</dim>
					<dim>56</dim>
				</port>
			</output>
		</layer>
		<layer id="85" name="Copy_MobilenetV2/expanded_conv_1/depthwise/act_quant/FakeQuantWithMinMaxVars/nudged_min/Output_0/Data_/copy_const" type="Const">
			<output>
				<port id="1" precision="FP32">
					<dim>1</dim>
					<dim>1</dim>
					<dim>1</dim>
					<dim>1</dim>
				</port>
			</output>
			<blobs>
				<custom offset="5412" precision="FP32" size="4"/>
			</blobs>
		</layer>
		<layer id="86" name="Copy_MobilenetV2/expanded_conv_1/depthwise/act_quant/FakeQuantWithMinMaxVars/nudged_max/Output_0/Data_/copy_const" type="Const">
			<output>
				<port id="1" precision="FP32">
					<dim>1</dim>
					<dim>1</dim>
					<dim>1</dim>
					<dim>1</dim>
				</port>
			</output>
			<blobs>
				<custom offset="5416" precision="FP32" size="4"/>
			</blobs>
		</layer>
		<layer id="87" name="Copy_MobilenetV2/expanded_conv_1/depthwise/act_quant/FakeQuantWithMinMaxVars/nudged_min/Output_0/Data_11127/copy_const" type="Const">
			<output>
				<port id="1" precision="FP32">
					<dim>1</dim>
					<dim>1</dim>
					<dim>1</dim>
					<dim>1</dim>
				</port>
			</output>
			<blobs>
				<custom offset="5412" precision="FP32" size="4"/>
			</blobs>
		</layer>
		<layer id="88" name="Copy_MobilenetV2/expanded_conv_1/depthwise/act_quant/FakeQuantWithMinMaxVars/nudged_max/Output_0/Data_11071/copy_const" type="Const">
			<output>
				<port id="1" precision="FP32">
					<dim>1</dim>
					<dim>1</dim>
					<dim>1</dim>
					<dim>1</dim>
				</port>
			</output>
			<blobs>
				<custom offset="5416" precision="FP32" size="4"/>
			</blobs>
		</layer>
		<layer id="89" name="MobilenetV2/expanded_conv_1/depthwise/act_quant/FakeQuantWithMinMaxVars" type="FakeQuantize">
			<data levels="256"/>
			<input>
				<port id="0">
					<dim>1</dim>
					<dim>144</dim>
					<dim>56</dim>
					<dim>56</dim>
				</port>
				<port id="1">
					<dim>1</dim>
					<dim>1</dim>
					<dim>1</dim>
					<dim>1</dim>
				</port>
				<port id="2">
					<dim>1</dim>
					<dim>1</dim>
					<dim>1</dim>
					<dim>1</dim>
				</port>
				<port id="3">
					<dim>1</dim>
					<dim>1</dim>
					<dim>1</dim>
					<dim>1</dim>
				</port>
				<port id="4">
					<dim>1</dim>
					<dim>1</dim>
					<dim>1</dim>
					<dim>1</dim>
				</port>
			</input>
			<output>
				<port id="5" precision="FP32">
					<dim>1</dim>
					<dim>144</dim>
					<dim>56</dim>
					<dim>56</dim>
				</port>
			</output>
		</layer>
		<layer id="90" name="MobilenetV2/expanded_conv_1/project/mul_fold/Output_0/Data__const" type="Const">
			<output>
				<port id="1" precision="FP32">
					<dim>32</dim>
					<dim>144</dim>
					<dim>1</dim>
					<dim>1</dim>
				</port>
			</output>
			<blobs>
				<custom offset="32244" precision="FP32" size="18432"/>
			</blobs>
		</layer>
		<layer id="91" name="Copy_MobilenetV2/expanded_conv_1/project/weights_quant/FakeQuantWithMinMaxVars/nudged_min/Output_0/Data_/copy_const" type="Const">
			<output>
				<port id="1" precision="FP32">
					<dim>1</dim>
					<dim>1</dim>
					<dim>1</dim>
					<dim>1</dim>
				</port>
			</output>
			<blobs>
				<custom offset="50676" precision="FP32" size="4"/>
			</blobs>
		</layer>
		<layer id="92" name="Copy_MobilenetV2/expanded_conv_1/project/weights_quant/FakeQuantWithMinMaxVars/nudged_max/Output_0/Data_/copy_const" type="Const">
			<output>
				<port id="1" precision="FP32">
					<dim>1</dim>
					<dim>1</dim>
					<dim>1</dim>
					<dim>1</dim>
				</port>
			</output>
			<blobs>
				<custom offset="50680" precision="FP32" size="4"/>
			</blobs>
		</layer>
		<layer id="93" name="Copy_MobilenetV2/expanded_conv_1/project/weights_quant/FakeQuantWithMinMaxVars/nudged_min/Output_0/Data_10853/copy_const" type="Const">
			<output>
				<port id="1" precision="FP32">
					<dim>1</dim>
					<dim>1</dim>
					<dim>1</dim>
					<dim>1</dim>
				</port>
			</output>
			<blobs>
				<custom offset="50676" precision="FP32" size="4"/>
			</blobs>
		</layer>
		<layer id="94" name="Copy_MobilenetV2/expanded_conv_1/project/weights_quant/FakeQuantWithMinMaxVars/nudged_max/Output_0/Data_11059/copy_const" type="Const">
			<output>
				<port id="1" precision="FP32">
					<dim>1</dim>
					<dim>1</dim>
					<dim>1</dim>
					<dim>1</dim>
				</port>
			</output>
			<blobs>
				<custom offset="50680" precision="FP32" size="4"/>
			</blobs>
		</layer>
		<layer id="95" name="MobilenetV2/expanded_conv_1/project/weights_quant/FakeQuantWithMinMaxVars" type="FakeQuantize">
			<data levels="255"/>
			<input>
				<port id="0">
					<dim>32</dim>
					<dim>144</dim>
					<dim>1</dim>
					<dim>1</dim>
				</port>
				<port id="1">
					<dim>1</dim>
					<dim>1</dim>
					<dim>1</dim>
					<dim>1</dim>
				</port>
				<port id="2">
					<dim>1</dim>
					<dim>1</dim>
					<dim>1</dim>
					<dim>1</dim>
				</port>
				<port id="3">
					<dim>1</dim>
					<dim>1</dim>
					<dim>1</dim>
					<dim>1</dim>
				</port>
				<port id="4">
					<dim>1</dim>
					<dim>1</dim>
					<dim>1</dim>
					<dim>1</dim>
				</port>
			</input>
			<output>
				<port id="5" precision="FP32">
					<dim>32</dim>
					<dim>144</dim>
					<dim>1</dim>
					<dim>1</dim>
				</port>
			</output>
		</layer>
		<layer id="96" name="bias_data2611426115_const" type="Const">
			<output>
				<port id="1" precision="FP32">
					<dim>32</dim>
				</port>
			</output>
			<blobs>
				<custom offset="50684" precision="FP32" size="128"/>
			</blobs>
		</layer>
		<layer id="97" name="MobilenetV2/expanded_conv_1/project/Conv2D_Fold" type="Convolution">
			<data auto_pad="same_upper" dilations="1,1" group="1" kernel="1,1" output="32" pads_begin="0,0" pads_end="0,0" strides="1,1"/>
			<input>
				<port id="0">
					<dim>1</dim>
					<dim>144</dim>
					<dim>56</dim>
					<dim>56</dim>
				</port>
				<port id="1">
					<dim>32</dim>
					<dim>144</dim>
					<dim>1</dim>
					<dim>1</dim>
				</port>
				<port id="2">
					<dim>32</dim>
				</port>
			</input>
			<output>
				<port id="3" precision="FP32">
					<dim>1</dim>
					<dim>32</dim>
					<dim>56</dim>
					<dim>56</dim>
				</port>
			</output>
		</layer>
		<layer id="98" name="Copy_MobilenetV2/expanded_conv_1/project/act_quant/FakeQuantWithMinMaxVars/nudged_min/Output_0/Data_/copy_const" type="Const">
			<output>
				<port id="1" precision="FP32">
					<dim>1</dim>
					<dim>1</dim>
					<dim>1</dim>
					<dim>1</dim>
				</port>
			</output>
			<blobs>
				<custom offset="50812" precision="FP32" size="4"/>
			</blobs>
		</layer>
		<layer id="99" name="Copy_MobilenetV2/expanded_conv_1/project/act_quant/FakeQuantWithMinMaxVars/nudged_max/Output_0/Data_/copy_const" type="Const">
			<output>
				<port id="1" precision="FP32">
					<dim>1</dim>
					<dim>1</dim>
					<dim>1</dim>
					<dim>1</dim>
				</port>
			</output>
			<blobs>
				<custom offset="50816" precision="FP32" size="4"/>
			</blobs>
		</layer>
		<layer id="100" name="Copy_MobilenetV2/expanded_conv_1/project/act_quant/FakeQuantWithMinMaxVars/nudged_min/Output_0/Data_10815/copy_const" type="Const">
			<output>
				<port id="1" precision="FP32">
					<dim>1</dim>
					<dim>1</dim>
					<dim>1</dim>
					<dim>1</dim>
				</port>
			</output>
			<blobs>
				<custom offset="50812" precision="FP32" size="4"/>
			</blobs>
		</layer>
		<layer id="101" name="Copy_MobilenetV2/expanded_conv_1/project/act_quant/FakeQuantWithMinMaxVars/nudged_max/Output_0/Data_10787/copy_const" type="Const">
			<output>
				<port id="1" precision="FP32">
					<dim>1</dim>
					<dim>1</dim>
					<dim>1</dim>
					<dim>1</dim>
				</port>
			</output>
			<blobs>
				<custom offset="50816" precision="FP32" size="4"/>
			</blobs>
		</layer>
		<layer id="102" name="MobilenetV2/expanded_conv_1/project/act_quant/FakeQuantWithMinMaxVars" type="FakeQuantize">
			<data levels="256"/>
			<input>
				<port id="0">
					<dim>1</dim>
					<dim>32</dim>
					<dim>56</dim>
					<dim>56</dim>
				</port>
				<port id="1">
					<dim>1</dim>
					<dim>1</dim>
					<dim>1</dim>
					<dim>1</dim>
				</port>
				<port id="2">
					<dim>1</dim>
					<dim>1</dim>
					<dim>1</dim>
					<dim>1</dim>
				</port>
				<port id="3">
					<dim>1</dim>
					<dim>1</dim>
					<dim>1</dim>
					<dim>1</dim>
				</port>
				<port id="4">
					<dim>1</dim>
					<dim>1</dim>
					<dim>1</dim>
					<dim>1</dim>
				</port>
			</input>
			<output>
				<port id="5" precision="FP32">
					<dim>1</dim>
					<dim>32</dim>
					<dim>56</dim>
					<dim>56</dim>
				</port>
			</output>
		</layer>
		<layer id="103" name="MobilenetV2/expanded_conv_2/expand/mul_fold/Output_0/Data__const" type="Const">
			<output>
				<port id="1" precision="FP32">
					<dim>192</dim>
					<dim>32</dim>
					<dim>1</dim>
					<dim>1</dim>
				</port>
			</output>
			<blobs>
				<custom offset="50820" precision="FP32" size="24576"/>
			</blobs>
		</layer>
		<layer id="104" name="Copy_MobilenetV2/expanded_conv_2/expand/weights_quant/FakeQuantWithMinMaxVars/nudged_min/Output_0/Data_/copy_const" type="Const">
			<output>
				<port id="1" precision="FP32">
					<dim>1</dim>
					<dim>1</dim>
					<dim>1</dim>
					<dim>1</dim>
				</port>
			</output>
			<blobs>
				<custom offset="75396" precision="FP32" size="4"/>
			</blobs>
		</layer>
		<layer id="105" name="Copy_MobilenetV2/expanded_conv_2/expand/weights_quant/FakeQuantWithMinMaxVars/nudged_max/Output_0/Data_/copy_const" type="Const">
			<output>
				<port id="1" precision="FP32">
					<dim>1</dim>
					<dim>1</dim>
					<dim>1</dim>
					<dim>1</dim>
				</port>
			</output>
			<blobs>
				<custom offset="75400" precision="FP32" size="4"/>
			</blobs>
		</layer>
		<layer id="106" name="Copy_MobilenetV2/expanded_conv_2/expand/weights_quant/FakeQuantWithMinMaxVars/nudged_min/Output_0/Data_11061/copy_const" type="Const">
			<output>
				<port id="1" precision="FP32">
					<dim>1</dim>
					<dim>1</dim>
					<dim>1</dim>
					<dim>1</dim>
				</port>
			</output>
			<blobs>
				<custom offset="75396" precision="FP32" size="4"/>
			</blobs>
		</layer>
		<layer id="107" name="Copy_MobilenetV2/expanded_conv_2/expand/weights_quant/FakeQuantWithMinMaxVars/nudged_max/Output_0/Data_11067/copy_const" type="Const">
			<output>
				<port id="1" precision="FP32">
					<dim>1</dim>
					<dim>1</dim>
					<dim>1</dim>
					<dim>1</dim>
				</port>
			</output>
			<blobs>
				<custom offset="75400" precision="FP32" size="4"/>
			</blobs>
		</layer>
		<layer id="108" name="MobilenetV2/expanded_conv_2/expand/weights_quant/FakeQuantWithMinMaxVars" type="FakeQuantize">
			<data levels="255"/>
			<input>
				<port id="0">
					<dim>192</dim>
					<dim>32</dim>
					<dim>1</dim>
					<dim>1</dim>
				</port>
				<port id="1">
					<dim>1</dim>
					<dim>1</dim>
					<dim>1</dim>
					<dim>1</dim>
				</port>
				<port id="2">
					<dim>1</dim>
					<dim>1</dim>
					<dim>1</dim>
					<dim>1</dim>
				</port>
				<port id="3">
					<dim>1</dim>
					<dim>1</dim>
					<dim>1</dim>
					<dim>1</dim>
				</port>
				<port id="4">
					<dim>1</dim>
					<dim>1</dim>
					<dim>1</dim>
					<dim>1</dim>
				</port>
			</input>
			<output>
				<port id="5" precision="FP32">
					<dim>192</dim>
					<dim>32</dim>
					<dim>1</dim>
					<dim>1</dim>
				</port>
			</output>
		</layer>
		<layer id="109" name="bias_data2611626117_const" type="Const">
			<output>
				<port id="1" precision="FP32">
					<dim>192</dim>
				</port>
			</output>
			<blobs>
				<custom offset="75404" precision="FP32" size="768"/>
			</blobs>
		</layer>
		<layer id="110" name="MobilenetV2/expanded_conv_2/expand/Conv2D_Fold" type="Convolution">
			<data auto_pad="same_upper" dilations="1,1" group="1" kernel="1,1" output="192" pads_begin="0,0" pads_end="0,0" strides="1,1"/>
			<input>
				<port id="0">
					<dim>1</dim>
					<dim>32</dim>
					<dim>56</dim>
					<dim>56</dim>
				</port>
				<port id="1">
					<dim>192</dim>
					<dim>32</dim>
					<dim>1</dim>
					<dim>1</dim>
				</port>
				<port id="2">
					<dim>192</dim>
				</port>
			</input>
			<output>
				<port id="3" precision="FP32">
					<dim>1</dim>
					<dim>192</dim>
					<dim>56</dim>
					<dim>56</dim>
				</port>
			</output>
		</layer>
		<layer id="111" name="MobilenetV2/expanded_conv_2/expand/Relu6" type="Clamp">
			<data max="6" min="0"/>
			<input>
				<port id="0">
					<dim>1</dim>
					<dim>192</dim>
					<dim>56</dim>
					<dim>56</dim>
				</port>
			</input>
			<output>
				<port id="1" precision="FP32">
					<dim>1</dim>
					<dim>192</dim>
					<dim>56</dim>
					<dim>56</dim>
				</port>
			</output>
		</layer>
		<layer id="112" name="Copy_MobilenetV2/expanded_conv_2/expand/act_quant/FakeQuantWithMinMaxVars/nudged_min/Output_0/Data_/copy_const" type="Const">
			<output>
				<port id="1" precision="FP32">
					<dim>1</dim>
					<dim>1</dim>
					<dim>1</dim>
					<dim>1</dim>
				</port>
			</output>
			<blobs>
				<custom offset="5412" precision="FP32" size="4"/>
			</blobs>
		</layer>
		<layer id="113" name="Copy_MobilenetV2/expanded_conv_2/expand/act_quant/FakeQuantWithMinMaxVars/nudged_max/Output_0/Data_/copy_const" type="Const">
			<output>
				<port id="1" precision="FP32">
					<dim>1</dim>
					<dim>1</dim>
					<dim>1</dim>
					<dim>1</dim>
				</port>
			</output>
			<blobs>
				<custom offset="5416" precision="FP32" size="4"/>
			</blobs>
		</layer>
		<layer id="114" name="Copy_MobilenetV2/expanded_conv_2/expand/act_quant/FakeQuantWithMinMaxVars/nudged_min/Output_0/Data_10699/copy_const" type="Const">
			<output>
				<port id="1" precision="FP32">
					<dim>1</dim>
					<dim>1</dim>
					<dim>1</dim>
					<dim>1</dim>
				</port>
			</output>
			<blobs>
				<custom offset="5412" precision="FP32" size="4"/>
			</blobs>
		</layer>
		<layer id="115" name="Copy_MobilenetV2/expanded_conv_2/expand/act_quant/FakeQuantWithMinMaxVars/nudged_max/Output_0/Data_10791/copy_const" type="Const">
			<output>
				<port id="1" precision="FP32">
					<dim>1</dim>
					<dim>1</dim>
					<dim>1</dim>
					<dim>1</dim>
				</port>
			</output>
			<blobs>
				<custom offset="5416" precision="FP32" size="4"/>
			</blobs>
		</layer>
		<layer id="116" name="MobilenetV2/expanded_conv_2/expand/act_quant/FakeQuantWithMinMaxVars" type="FakeQuantize">
			<data levels="256"/>
			<input>
				<port id="0">
					<dim>1</dim>
					<dim>192</dim>
					<dim>56</dim>
					<dim>56</dim>
				</port>
				<port id="1">
					<dim>1</dim>
					<dim>1</dim>
					<dim>1</dim>
					<dim>1</dim>
				</port>
				<port id="2">
					<dim>1</dim>
					<dim>1</dim>
					<dim>1</dim>
					<dim>1</dim>
				</port>
				<port id="3">
					<dim>1</dim>
					<dim>1</dim>
					<dim>1</dim>
					<dim>1</dim>
				</port>
				<port id="4">
					<dim>1</dim>
					<dim>1</dim>
					<dim>1</dim>
					<dim>1</dim>
				</port>
			</input>
			<output>
				<port id="5" precision="FP32">
					<dim>1</dim>
					<dim>192</dim>
					<dim>56</dim>
					<dim>56</dim>
				</port>
			</output>
		</layer>
		<layer id="117" name="MobilenetV2/expanded_conv_2/depthwise/mul_fold/Output_0/Data__const" type="Const">
			<output>
				<port id="1" precision="FP32">
					<dim>192</dim>
					<dim>1</dim>
					<dim>3</dim>
					<dim>3</dim>
				</port>
			</output>
			<blobs>
				<custom offset="76172" precision="FP32" size="6912"/>
			</blobs>
		</layer>
		<layer id="118" name="Copy_MobilenetV2/expanded_conv_2/depthwise/weights_quant/FakeQuantWithMinMaxVars/nudged_min/Output_0/Data_/copy_const" type="Const">
			<output>
				<port id="1" precision="FP32">
					<dim>1</dim>
					<dim>1</dim>
					<dim>1</dim>
					<dim>1</dim>
				</port>
			</output>
			<blobs>
				<custom offset="83084" precision="FP32" size="4"/>
			</blobs>
		</layer>
		<layer id="119" name="Copy_MobilenetV2/expanded_conv_2/depthwise/weights_quant/FakeQuantWithMinMaxVars/nudged_max/Output_0/Data_/copy_const" type="Const">
			<output>
				<port id="1" precision="FP32">
					<dim>1</dim>
					<dim>1</dim>
					<dim>1</dim>
					<dim>1</dim>
				</port>
			</output>
			<blobs>
				<custom offset="83088" precision="FP32" size="4"/>
			</blobs>
		</layer>
		<layer id="120" name="Copy_MobilenetV2/expanded_conv_2/depthwise/weights_quant/FakeQuantWithMinMaxVars/nudged_min/Output_0/Data_10775/copy_const" type="Const">
			<output>
				<port id="1" precision="FP32">
					<dim>1</dim>
					<dim>1</dim>
					<dim>1</dim>
					<dim>1</dim>
				</port>
			</output>
			<blobs>
				<custom offset="83084" precision="FP32" size="4"/>
			</blobs>
		</layer>
		<layer id="121" name="Copy_MobilenetV2/expanded_conv_2/depthwise/weights_quant/FakeQuantWithMinMaxVars/nudged_max/Output_0/Data_11021/copy_const" type="Const">
			<output>
				<port id="1" precision="FP32">
					<dim>1</dim>
					<dim>1</dim>
					<dim>1</dim>
					<dim>1</dim>
				</port>
			</output>
			<blobs>
				<custom offset="83088" precision="FP32" size="4"/>
			</blobs>
		</layer>
		<layer id="122" name="MobilenetV2/expanded_conv_2/depthwise/weights_quant/FakeQuantWithMinMaxVars" type="FakeQuantize">
			<data levels="255"/>
			<input>
				<port id="0">
					<dim>192</dim>
					<dim>1</dim>
					<dim>3</dim>
					<dim>3</dim>
				</port>
				<port id="1">
					<dim>1</dim>
					<dim>1</dim>
					<dim>1</dim>
					<dim>1</dim>
				</port>
				<port id="2">
					<dim>1</dim>
					<dim>1</dim>
					<dim>1</dim>
					<dim>1</dim>
				</port>
				<port id="3">
					<dim>1</dim>
					<dim>1</dim>
					<dim>1</dim>
					<dim>1</dim>
				</port>
				<port id="4">
					<dim>1</dim>
					<dim>1</dim>
					<dim>1</dim>
					<dim>1</dim>
				</port>
			</input>
			<output>
				<port id="5" precision="FP32">
					<dim>192</dim>
					<dim>1</dim>
					<dim>3</dim>
					<dim>3</dim>
				</port>
			</output>
		</layer>
		<layer id="123" name="bias_data2611826119_const" type="Const">
			<output>
				<port id="1" precision="FP32">
					<dim>192</dim>
				</port>
			</output>
			<blobs>
				<custom offset="83092" precision="FP32" size="768"/>
			</blobs>
		</layer>
		<layer id="124" name="MobilenetV2/expanded_conv_2/depthwise/depthwise_Fold" type="Convolution">
			<data auto_pad="same_upper" dilations="1,1" group="192" kernel="3,3" output="192" pads_begin="1,1" pads_end="1,1" strides="1,1"/>
			<input>
				<port id="0">
					<dim>1</dim>
					<dim>192</dim>
					<dim>56</dim>
					<dim>56</dim>
				</port>
				<port id="1">
					<dim>192</dim>
					<dim>1</dim>
					<dim>3</dim>
					<dim>3</dim>
				</port>
				<port id="2">
					<dim>192</dim>
				</port>
			</input>
			<output>
				<port id="3" precision="FP32">
					<dim>1</dim>
					<dim>192</dim>
					<dim>56</dim>
					<dim>56</dim>
				</port>
			</output>
		</layer>
		<layer id="125" name="MobilenetV2/expanded_conv_2/depthwise/Relu6" type="Clamp">
			<data max="6" min="0"/>
			<input>
				<port id="0">
					<dim>1</dim>
					<dim>192</dim>
					<dim>56</dim>
					<dim>56</dim>
				</port>
			</input>
			<output>
				<port id="1" precision="FP32">
					<dim>1</dim>
					<dim>192</dim>
					<dim>56</dim>
					<dim>56</dim>
				</port>
			</output>
		</layer>
		<layer id="126" name="Copy_MobilenetV2/expanded_conv_2/depthwise/act_quant/FakeQuantWithMinMaxVars/nudged_min/Output_0/Data_/copy_const" type="Const">
			<output>
				<port id="1" precision="FP32">
					<dim>1</dim>
					<dim>1</dim>
					<dim>1</dim>
					<dim>1</dim>
				</port>
			</output>
			<blobs>
				<custom offset="5412" precision="FP32" size="4"/>
			</blobs>
		</layer>
		<layer id="127" name="Copy_MobilenetV2/expanded_conv_2/depthwise/act_quant/FakeQuantWithMinMaxVars/nudged_max/Output_0/Data_/copy_const" type="Const">
			<output>
				<port id="1" precision="FP32">
					<dim>1</dim>
					<dim>1</dim>
					<dim>1</dim>
					<dim>1</dim>
				</port>
			</output>
			<blobs>
				<custom offset="5416" precision="FP32" size="4"/>
			</blobs>
		</layer>
		<layer id="128" name="Copy_MobilenetV2/expanded_conv_2/depthwise/act_quant/FakeQuantWithMinMaxVars/nudged_min/Output_0/Data_11115/copy_const" type="Const">
			<output>
				<port id="1" precision="FP32">
					<dim>1</dim>
					<dim>1</dim>
					<dim>1</dim>
					<dim>1</dim>
				</port>
			</output>
			<blobs>
				<custom offset="5412" precision="FP32" size="4"/>
			</blobs>
		</layer>
		<layer id="129" name="Copy_MobilenetV2/expanded_conv_2/depthwise/act_quant/FakeQuantWithMinMaxVars/nudged_max/Output_0/Data_10987/copy_const" type="Const">
			<output>
				<port id="1" precision="FP32">
					<dim>1</dim>
					<dim>1</dim>
					<dim>1</dim>
					<dim>1</dim>
				</port>
			</output>
			<blobs>
				<custom offset="5416" precision="FP32" size="4"/>
			</blobs>
		</layer>
		<layer id="130" name="MobilenetV2/expanded_conv_2/depthwise/act_quant/FakeQuantWithMinMaxVars" type="FakeQuantize">
			<data levels="256"/>
			<input>
				<port id="0">
					<dim>1</dim>
					<dim>192</dim>
					<dim>56</dim>
					<dim>56</dim>
				</port>
				<port id="1">
					<dim>1</dim>
					<dim>1</dim>
					<dim>1</dim>
					<dim>1</dim>
				</port>
				<port id="2">
					<dim>1</dim>
					<dim>1</dim>
					<dim>1</dim>
					<dim>1</dim>
				</port>
				<port id="3">
					<dim>1</dim>
					<dim>1</dim>
					<dim>1</dim>
					<dim>1</dim>
				</port>
				<port id="4">
					<dim>1</dim>
					<dim>1</dim>
					<dim>1</dim>
					<dim>1</dim>
				</port>
			</input>
			<output>
				<port id="5" precision="FP32">
					<dim>1</dim>
					<dim>192</dim>
					<dim>56</dim>
					<dim>56</dim>
				</port>
			</output>
		</layer>
		<layer id="131" name="MobilenetV2/expanded_conv_2/project/mul_fold/Output_0/Data__const" type="Const">
			<output>
				<port id="1" precision="FP32">
					<dim>32</dim>
					<dim>192</dim>
					<dim>1</dim>
					<dim>1</dim>
				</port>
			</output>
			<blobs>
				<custom offset="83860" precision="FP32" size="24576"/>
			</blobs>
		</layer>
		<layer id="132" name="Copy_MobilenetV2/expanded_conv_2/project/weights_quant/FakeQuantWithMinMaxVars/nudged_min/Output_0/Data_/copy_const" type="Const">
			<output>
				<port id="1" precision="FP32">
					<dim>1</dim>
					<dim>1</dim>
					<dim>1</dim>
					<dim>1</dim>
				</port>
			</output>
			<blobs>
				<custom offset="108436" precision="FP32" size="4"/>
			</blobs>
		</layer>
		<layer id="133" name="Copy_MobilenetV2/expanded_conv_2/project/weights_quant/FakeQuantWithMinMaxVars/nudged_max/Output_0/Data_/copy_const" type="Const">
			<output>
				<port id="1" precision="FP32">
					<dim>1</dim>
					<dim>1</dim>
					<dim>1</dim>
					<dim>1</dim>
				</port>
			</output>
			<blobs>
				<custom offset="108440" precision="FP32" size="4"/>
			</blobs>
		</layer>
		<layer id="134" name="Copy_MobilenetV2/expanded_conv_2/project/weights_quant/FakeQuantWithMinMaxVars/nudged_min/Output_0/Data_10879/copy_const" type="Const">
			<output>
				<port id="1" precision="FP32">
					<dim>1</dim>
					<dim>1</dim>
					<dim>1</dim>
					<dim>1</dim>
				</port>
			</output>
			<blobs>
				<custom offset="108436" precision="FP32" size="4"/>
			</blobs>
		</layer>
		<layer id="135" name="Copy_MobilenetV2/expanded_conv_2/project/weights_quant/FakeQuantWithMinMaxVars/nudged_max/Output_0/Data_11045/copy_const" type="Const">
			<output>
				<port id="1" precision="FP32">
					<dim>1</dim>
					<dim>1</dim>
					<dim>1</dim>
					<dim>1</dim>
				</port>
			</output>
			<blobs>
				<custom offset="108440" precision="FP32" size="4"/>
			</blobs>
		</layer>
		<layer id="136" name="MobilenetV2/expanded_conv_2/project/weights_quant/FakeQuantWithMinMaxVars" type="FakeQuantize">
			<data levels="255"/>
			<input>
				<port id="0">
					<dim>32</dim>
					<dim>192</dim>
					<dim>1</dim>
					<dim>1</dim>
				</port>
				<port id="1">
					<dim>1</dim>
					<dim>1</dim>
					<dim>1</dim>
					<dim>1</dim>
				</port>
				<port id="2">
					<dim>1</dim>
					<dim>1</dim>
					<dim>1</dim>
					<dim>1</dim>
				</port>
				<port id="3">
					<dim>1</dim>
					<dim>1</dim>
					<dim>1</dim>
					<dim>1</dim>
				</port>
				<port id="4">
					<dim>1</dim>
					<dim>1</dim>
					<dim>1</dim>
					<dim>1</dim>
				</port>
			</input>
			<output>
				<port id="5" precision="FP32">
					<dim>32</dim>
					<dim>192</dim>
					<dim>1</dim>
					<dim>1</dim>
				</port>
			</output>
		</layer>
		<layer id="137" name="bias_data2612026121_const" type="Const">
			<output>
				<port id="1" precision="FP32">
					<dim>32</dim>
				</port>
			</output>
			<blobs>
				<custom offset="108444" precision="FP32" size="128"/>
			</blobs>
		</layer>
		<layer id="138" name="MobilenetV2/expanded_conv_2/project/Conv2D_Fold" type="Convolution">
			<data auto_pad="same_upper" dilations="1,1" group="1" kernel="1,1" output="32" pads_begin="0,0" pads_end="0,0" strides="1,1"/>
			<input>
				<port id="0">
					<dim>1</dim>
					<dim>192</dim>
					<dim>56</dim>
					<dim>56</dim>
				</port>
				<port id="1">
					<dim>32</dim>
					<dim>192</dim>
					<dim>1</dim>
					<dim>1</dim>
				</port>
				<port id="2">
					<dim>32</dim>
				</port>
			</input>
			<output>
				<port id="3" precision="FP32">
					<dim>1</dim>
					<dim>32</dim>
					<dim>56</dim>
					<dim>56</dim>
				</port>
			</output>
		</layer>
		<layer id="139" name="Copy_MobilenetV2/expanded_conv_2/project/act_quant/FakeQuantWithMinMaxVars/nudged_min/Output_0/Data_/copy_const" type="Const">
			<output>
				<port id="1" precision="FP32">
					<dim>1</dim>
					<dim>1</dim>
					<dim>1</dim>
					<dim>1</dim>
				</port>
			</output>
			<blobs>
				<custom offset="50812" precision="FP32" size="4"/>
			</blobs>
		</layer>
		<layer id="140" name="Copy_MobilenetV2/expanded_conv_2/project/act_quant/FakeQuantWithMinMaxVars/nudged_max/Output_0/Data_/copy_const" type="Const">
			<output>
				<port id="1" precision="FP32">
					<dim>1</dim>
					<dim>1</dim>
					<dim>1</dim>
					<dim>1</dim>
				</port>
			</output>
			<blobs>
				<custom offset="50816" precision="FP32" size="4"/>
			</blobs>
		</layer>
		<layer id="141" name="Copy_MobilenetV2/expanded_conv_2/project/act_quant/FakeQuantWithMinMaxVars/nudged_min/Output_0/Data_11039/copy_const" type="Const">
			<output>
				<port id="1" precision="FP32">
					<dim>1</dim>
					<dim>1</dim>
					<dim>1</dim>
					<dim>1</dim>
				</port>
			</output>
			<blobs>
				<custom offset="50812" precision="FP32" size="4"/>
			</blobs>
		</layer>
		<layer id="142" name="Copy_MobilenetV2/expanded_conv_2/project/act_quant/FakeQuantWithMinMaxVars/nudged_max/Output_0/Data_11043/copy_const" type="Const">
			<output>
				<port id="1" precision="FP32">
					<dim>1</dim>
					<dim>1</dim>
					<dim>1</dim>
					<dim>1</dim>
				</port>
			</output>
			<blobs>
				<custom offset="50816" precision="FP32" size="4"/>
			</blobs>
		</layer>
		<layer id="143" name="MobilenetV2/expanded_conv_2/project/act_quant/FakeQuantWithMinMaxVars" type="FakeQuantize">
			<data levels="256"/>
			<input>
				<port id="0">
					<dim>1</dim>
					<dim>32</dim>
					<dim>56</dim>
					<dim>56</dim>
				</port>
				<port id="1">
					<dim>1</dim>
					<dim>1</dim>
					<dim>1</dim>
					<dim>1</dim>
				</port>
				<port id="2">
					<dim>1</dim>
					<dim>1</dim>
					<dim>1</dim>
					<dim>1</dim>
				</port>
				<port id="3">
					<dim>1</dim>
					<dim>1</dim>
					<dim>1</dim>
					<dim>1</dim>
				</port>
				<port id="4">
					<dim>1</dim>
					<dim>1</dim>
					<dim>1</dim>
					<dim>1</dim>
				</port>
			</input>
			<output>
				<port id="5" precision="FP32">
					<dim>1</dim>
					<dim>32</dim>
					<dim>56</dim>
					<dim>56</dim>
				</port>
			</output>
		</layer>
		<layer id="144" name="MobilenetV2/expanded_conv_2/add" type="Eltwise">
			<data operation="sum"/>
			<input>
				<port id="0">
					<dim>1</dim>
					<dim>32</dim>
					<dim>56</dim>
					<dim>56</dim>
				</port>
				<port id="1">
					<dim>1</dim>
					<dim>32</dim>
					<dim>56</dim>
					<dim>56</dim>
				</port>
			</input>
			<output>
				<port id="2" precision="FP32">
					<dim>1</dim>
					<dim>32</dim>
					<dim>56</dim>
					<dim>56</dim>
				</port>
			</output>
		</layer>
		<layer id="145" name="Copy_MobilenetV2/expanded_conv_2/post_activation_bypass_quant/FakeQuantWithMinMaxVars/nudged_min/Output_0/Data_/copy_const" type="Const">
			<output>
				<port id="1" precision="FP32">
					<dim>1</dim>
					<dim>1</dim>
					<dim>1</dim>
					<dim>1</dim>
				</port>
			</output>
			<blobs>
				<custom offset="108572" precision="FP32" size="4"/>
			</blobs>
		</layer>
		<layer id="146" name="Copy_MobilenetV2/expanded_conv_2/post_activation_bypass_quant/FakeQuantWithMinMaxVars/nudged_max/Output_0/Data_/copy_const" type="Const">
			<output>
				<port id="1" precision="FP32">
					<dim>1</dim>
					<dim>1</dim>
					<dim>1</dim>
					<dim>1</dim>
				</port>
			</output>
			<blobs>
				<custom offset="108576" precision="FP32" size="4"/>
			</blobs>
		</layer>
		<layer id="147" name="Copy_MobilenetV2/expanded_conv_2/post_activation_bypass_quant/FakeQuantWithMinMaxVars/nudged_min/Output_0/Data_11129/copy_const" type="Const">
			<output>
				<port id="1" precision="FP32">
					<dim>1</dim>
					<dim>1</dim>
					<dim>1</dim>
					<dim>1</dim>
				</port>
			</output>
			<blobs>
				<custom offset="108572" precision="FP32" size="4"/>
			</blobs>
		</layer>
		<layer id="148" name="Copy_MobilenetV2/expanded_conv_2/post_activation_bypass_quant/FakeQuantWithMinMaxVars/nudged_max/Output_0/Data_10977/copy_const" type="Const">
			<output>
				<port id="1" precision="FP32">
					<dim>1</dim>
					<dim>1</dim>
					<dim>1</dim>
					<dim>1</dim>
				</port>
			</output>
			<blobs>
				<custom offset="108576" precision="FP32" size="4"/>
			</blobs>
		</layer>
		<layer id="149" name="MobilenetV2/expanded_conv_2/post_activation_bypass_quant/FakeQuantWithMinMaxVars" type="FakeQuantize">
			<data levels="256"/>
			<input>
				<port id="0">
					<dim>1</dim>
					<dim>32</dim>
					<dim>56</dim>
					<dim>56</dim>
				</port>
				<port id="1">
					<dim>1</dim>
					<dim>1</dim>
					<dim>1</dim>
					<dim>1</dim>
				</port>
				<port id="2">
					<dim>1</dim>
					<dim>1</dim>
					<dim>1</dim>
					<dim>1</dim>
				</port>
				<port id="3">
					<dim>1</dim>
					<dim>1</dim>
					<dim>1</dim>
					<dim>1</dim>
				</port>
				<port id="4">
					<dim>1</dim>
					<dim>1</dim>
					<dim>1</dim>
					<dim>1</dim>
				</port>
			</input>
			<output>
				<port id="5" precision="FP32">
					<dim>1</dim>
					<dim>32</dim>
					<dim>56</dim>
					<dim>56</dim>
				</port>
			</output>
		</layer>
		<layer id="150" name="MobilenetV2/expanded_conv_3/expand/mul_fold/Output_0/Data__const" type="Const">
			<output>
				<port id="1" precision="FP32">
					<dim>192</dim>
					<dim>32</dim>
					<dim>1</dim>
					<dim>1</dim>
				</port>
			</output>
			<blobs>
				<custom offset="108580" precision="FP32" size="24576"/>
			</blobs>
		</layer>
		<layer id="151" name="Copy_MobilenetV2/expanded_conv_3/expand/weights_quant/FakeQuantWithMinMaxVars/nudged_min/Output_0/Data_/copy_const" type="Const">
			<output>
				<port id="1" precision="FP32">
					<dim>1</dim>
					<dim>1</dim>
					<dim>1</dim>
					<dim>1</dim>
				</port>
			</output>
			<blobs>
				<custom offset="133156" precision="FP32" size="4"/>
			</blobs>
		</layer>
		<layer id="152" name="Copy_MobilenetV2/expanded_conv_3/expand/weights_quant/FakeQuantWithMinMaxVars/nudged_max/Output_0/Data_/copy_const" type="Const">
			<output>
				<port id="1" precision="FP32">
					<dim>1</dim>
					<dim>1</dim>
					<dim>1</dim>
					<dim>1</dim>
				</port>
			</output>
			<blobs>
				<custom offset="133160" precision="FP32" size="4"/>
			</blobs>
		</layer>
		<layer id="153" name="Copy_MobilenetV2/expanded_conv_3/expand/weights_quant/FakeQuantWithMinMaxVars/nudged_min/Output_0/Data_11119/copy_const" type="Const">
			<output>
				<port id="1" precision="FP32">
					<dim>1</dim>
					<dim>1</dim>
					<dim>1</dim>
					<dim>1</dim>
				</port>
			</output>
			<blobs>
				<custom offset="133156" precision="FP32" size="4"/>
			</blobs>
		</layer>
		<layer id="154" name="Copy_MobilenetV2/expanded_conv_3/expand/weights_quant/FakeQuantWithMinMaxVars/nudged_max/Output_0/Data_11019/copy_const" type="Const">
			<output>
				<port id="1" precision="FP32">
					<dim>1</dim>
					<dim>1</dim>
					<dim>1</dim>
					<dim>1</dim>
				</port>
			</output>
			<blobs>
				<custom offset="133160" precision="FP32" size="4"/>
			</blobs>
		</layer>
		<layer id="155" name="MobilenetV2/expanded_conv_3/expand/weights_quant/FakeQuantWithMinMaxVars" type="FakeQuantize">
			<data levels="255"/>
			<input>
				<port id="0">
					<dim>192</dim>
					<dim>32</dim>
					<dim>1</dim>
					<dim>1</dim>
				</port>
				<port id="1">
					<dim>1</dim>
					<dim>1</dim>
					<dim>1</dim>
					<dim>1</dim>
				</port>
				<port id="2">
					<dim>1</dim>
					<dim>1</dim>
					<dim>1</dim>
					<dim>1</dim>
				</port>
				<port id="3">
					<dim>1</dim>
					<dim>1</dim>
					<dim>1</dim>
					<dim>1</dim>
				</port>
				<port id="4">
					<dim>1</dim>
					<dim>1</dim>
					<dim>1</dim>
					<dim>1</dim>
				</port>
			</input>
			<output>
				<port id="5" precision="FP32">
					<dim>192</dim>
					<dim>32</dim>
					<dim>1</dim>
					<dim>1</dim>
				</port>
			</output>
		</layer>
		<layer id="156" name="bias_data2612226123_const" type="Const">
			<output>
				<port id="1" precision="FP32">
					<dim>192</dim>
				</port>
			</output>
			<blobs>
				<custom offset="133164" precision="FP32" size="768"/>
			</blobs>
		</layer>
		<layer id="157" name="MobilenetV2/expanded_conv_3/expand/Conv2D_Fold" type="Convolution">
			<data auto_pad="same_upper" dilations="1,1" group="1" kernel="1,1" output="192" pads_begin="0,0" pads_end="0,0" strides="1,1"/>
			<input>
				<port id="0">
					<dim>1</dim>
					<dim>32</dim>
					<dim>56</dim>
					<dim>56</dim>
				</port>
				<port id="1">
					<dim>192</dim>
					<dim>32</dim>
					<dim>1</dim>
					<dim>1</dim>
				</port>
				<port id="2">
					<dim>192</dim>
				</port>
			</input>
			<output>
				<port id="3" precision="FP32">
					<dim>1</dim>
					<dim>192</dim>
					<dim>56</dim>
					<dim>56</dim>
				</port>
			</output>
		</layer>
		<layer id="158" name="MobilenetV2/expanded_conv_3/expand/Relu6" type="Clamp">
			<data max="6" min="0"/>
			<input>
				<port id="0">
					<dim>1</dim>
					<dim>192</dim>
					<dim>56</dim>
					<dim>56</dim>
				</port>
			</input>
			<output>
				<port id="1" precision="FP32">
					<dim>1</dim>
					<dim>192</dim>
					<dim>56</dim>
					<dim>56</dim>
				</port>
			</output>
		</layer>
		<layer id="159" name="Copy_MobilenetV2/expanded_conv_3/expand/act_quant/FakeQuantWithMinMaxVars/nudged_min/Output_0/Data_/copy_const" type="Const">
			<output>
				<port id="1" precision="FP32">
					<dim>1</dim>
					<dim>1</dim>
					<dim>1</dim>
					<dim>1</dim>
				</port>
			</output>
			<blobs>
				<custom offset="5412" precision="FP32" size="4"/>
			</blobs>
		</layer>
		<layer id="160" name="Copy_MobilenetV2/expanded_conv_3/expand/act_quant/FakeQuantWithMinMaxVars/nudged_max/Output_0/Data_/copy_const" type="Const">
			<output>
				<port id="1" precision="FP32">
					<dim>1</dim>
					<dim>1</dim>
					<dim>1</dim>
					<dim>1</dim>
				</port>
			</output>
			<blobs>
				<custom offset="5416" precision="FP32" size="4"/>
			</blobs>
		</layer>
		<layer id="161" name="Copy_MobilenetV2/expanded_conv_3/expand/act_quant/FakeQuantWithMinMaxVars/nudged_min/Output_0/Data_10829/copy_const" type="Const">
			<output>
				<port id="1" precision="FP32">
					<dim>1</dim>
					<dim>1</dim>
					<dim>1</dim>
					<dim>1</dim>
				</port>
			</output>
			<blobs>
				<custom offset="5412" precision="FP32" size="4"/>
			</blobs>
		</layer>
		<layer id="162" name="Copy_MobilenetV2/expanded_conv_3/expand/act_quant/FakeQuantWithMinMaxVars/nudged_max/Output_0/Data_11095/copy_const" type="Const">
			<output>
				<port id="1" precision="FP32">
					<dim>1</dim>
					<dim>1</dim>
					<dim>1</dim>
					<dim>1</dim>
				</port>
			</output>
			<blobs>
				<custom offset="5416" precision="FP32" size="4"/>
			</blobs>
		</layer>
		<layer id="163" name="MobilenetV2/expanded_conv_3/expand/act_quant/FakeQuantWithMinMaxVars" type="FakeQuantize">
			<data levels="256"/>
			<input>
				<port id="0">
					<dim>1</dim>
					<dim>192</dim>
					<dim>56</dim>
					<dim>56</dim>
				</port>
				<port id="1">
					<dim>1</dim>
					<dim>1</dim>
					<dim>1</dim>
					<dim>1</dim>
				</port>
				<port id="2">
					<dim>1</dim>
					<dim>1</dim>
					<dim>1</dim>
					<dim>1</dim>
				</port>
				<port id="3">
					<dim>1</dim>
					<dim>1</dim>
					<dim>1</dim>
					<dim>1</dim>
				</port>
				<port id="4">
					<dim>1</dim>
					<dim>1</dim>
					<dim>1</dim>
					<dim>1</dim>
				</port>
			</input>
			<output>
				<port id="5" precision="FP32">
					<dim>1</dim>
					<dim>192</dim>
					<dim>56</dim>
					<dim>56</dim>
				</port>
			</output>
		</layer>
		<layer id="164" name="MobilenetV2/expanded_conv_3/depthwise/mul_fold/Output_0/Data__const" type="Const">
			<output>
				<port id="1" precision="FP32">
					<dim>192</dim>
					<dim>1</dim>
					<dim>3</dim>
					<dim>3</dim>
				</port>
			</output>
			<blobs>
				<custom offset="133932" precision="FP32" size="6912"/>
			</blobs>
		</layer>
		<layer id="165" name="Copy_MobilenetV2/expanded_conv_3/depthwise/weights_quant/FakeQuantWithMinMaxVars/nudged_min/Output_0/Data_/copy_const" type="Const">
			<output>
				<port id="1" precision="FP32">
					<dim>1</dim>
					<dim>1</dim>
					<dim>1</dim>
					<dim>1</dim>
				</port>
			</output>
			<blobs>
				<custom offset="140844" precision="FP32" size="4"/>
			</blobs>
		</layer>
		<layer id="166" name="Copy_MobilenetV2/expanded_conv_3/depthwise/weights_quant/FakeQuantWithMinMaxVars/nudged_max/Output_0/Data_/copy_const" type="Const">
			<output>
				<port id="1" precision="FP32">
					<dim>1</dim>
					<dim>1</dim>
					<dim>1</dim>
					<dim>1</dim>
				</port>
			</output>
			<blobs>
				<custom offset="140848" precision="FP32" size="4"/>
			</blobs>
		</layer>
		<layer id="167" name="Copy_MobilenetV2/expanded_conv_3/depthwise/weights_quant/FakeQuantWithMinMaxVars/nudged_min/Output_0/Data_11033/copy_const" type="Const">
			<output>
				<port id="1" precision="FP32">
					<dim>1</dim>
					<dim>1</dim>
					<dim>1</dim>
					<dim>1</dim>
				</port>
			</output>
			<blobs>
				<custom offset="140844" precision="FP32" size="4"/>
			</blobs>
		</layer>
		<layer id="168" name="Copy_MobilenetV2/expanded_conv_3/depthwise/weights_quant/FakeQuantWithMinMaxVars/nudged_max/Output_0/Data_10743/copy_const" type="Const">
			<output>
				<port id="1" precision="FP32">
					<dim>1</dim>
					<dim>1</dim>
					<dim>1</dim>
					<dim>1</dim>
				</port>
			</output>
			<blobs>
				<custom offset="140848" precision="FP32" size="4"/>
			</blobs>
		</layer>
		<layer id="169" name="MobilenetV2/expanded_conv_3/depthwise/weights_quant/FakeQuantWithMinMaxVars" type="FakeQuantize">
			<data levels="255"/>
			<input>
				<port id="0">
					<dim>192</dim>
					<dim>1</dim>
					<dim>3</dim>
					<dim>3</dim>
				</port>
				<port id="1">
					<dim>1</dim>
					<dim>1</dim>
					<dim>1</dim>
					<dim>1</dim>
				</port>
				<port id="2">
					<dim>1</dim>
					<dim>1</dim>
					<dim>1</dim>
					<dim>1</dim>
				</port>
				<port id="3">
					<dim>1</dim>
					<dim>1</dim>
					<dim>1</dim>
					<dim>1</dim>
				</port>
				<port id="4">
					<dim>1</dim>
					<dim>1</dim>
					<dim>1</dim>
					<dim>1</dim>
				</port>
			</input>
			<output>
				<port id="5" precision="FP32">
					<dim>192</dim>
					<dim>1</dim>
					<dim>3</dim>
					<dim>3</dim>
				</port>
			</output>
		</layer>
		<layer id="170" name="bias_data2612426125_const" type="Const">
			<output>
				<port id="1" precision="FP32">
					<dim>192</dim>
				</port>
			</output>
			<blobs>
				<custom offset="140852" precision="FP32" size="768"/>
			</blobs>
		</layer>
		<layer id="171" name="MobilenetV2/expanded_conv_3/depthwise/depthwise_Fold" type="Convolution">
			<data auto_pad="same_upper" dilations="1,1" group="192" kernel="3,3" output="192" pads_begin="0,0" pads_end="1,1" strides="2,2"/>
			<input>
				<port id="0">
					<dim>1</dim>
					<dim>192</dim>
					<dim>56</dim>
					<dim>56</dim>
				</port>
				<port id="1">
					<dim>192</dim>
					<dim>1</dim>
					<dim>3</dim>
					<dim>3</dim>
				</port>
				<port id="2">
					<dim>192</dim>
				</port>
			</input>
			<output>
				<port id="3" precision="FP32">
					<dim>1</dim>
					<dim>192</dim>
					<dim>28</dim>
					<dim>28</dim>
				</port>
			</output>
		</layer>
		<layer id="172" name="MobilenetV2/expanded_conv_3/depthwise/Relu6" type="Clamp">
			<data max="6" min="0"/>
			<input>
				<port id="0">
					<dim>1</dim>
					<dim>192</dim>
					<dim>28</dim>
					<dim>28</dim>
				</port>
			</input>
			<output>
				<port id="1" precision="FP32">
					<dim>1</dim>
					<dim>192</dim>
					<dim>28</dim>
					<dim>28</dim>
				</port>
			</output>
		</layer>
		<layer id="173" name="Copy_MobilenetV2/expanded_conv_3/depthwise/act_quant/FakeQuantWithMinMaxVars/nudged_min/Output_0/Data_/copy_const" type="Const">
			<output>
				<port id="1" precision="FP32">
					<dim>1</dim>
					<dim>1</dim>
					<dim>1</dim>
					<dim>1</dim>
				</port>
			</output>
			<blobs>
				<custom offset="5412" precision="FP32" size="4"/>
			</blobs>
		</layer>
		<layer id="174" name="Copy_MobilenetV2/expanded_conv_3/depthwise/act_quant/FakeQuantWithMinMaxVars/nudged_max/Output_0/Data_/copy_const" type="Const">
			<output>
				<port id="1" precision="FP32">
					<dim>1</dim>
					<dim>1</dim>
					<dim>1</dim>
					<dim>1</dim>
				</port>
			</output>
			<blobs>
				<custom offset="5416" precision="FP32" size="4"/>
			</blobs>
		</layer>
		<layer id="175" name="Copy_MobilenetV2/expanded_conv_3/depthwise/act_quant/FakeQuantWithMinMaxVars/nudged_min/Output_0/Data_10723/copy_const" type="Const">
			<output>
				<port id="1" precision="FP32">
					<dim>1</dim>
					<dim>1</dim>
					<dim>1</dim>
					<dim>1</dim>
				</port>
			</output>
			<blobs>
				<custom offset="5412" precision="FP32" size="4"/>
			</blobs>
		</layer>
		<layer id="176" name="Copy_MobilenetV2/expanded_conv_3/depthwise/act_quant/FakeQuantWithMinMaxVars/nudged_max/Output_0/Data_11123/copy_const" type="Const">
			<output>
				<port id="1" precision="FP32">
					<dim>1</dim>
					<dim>1</dim>
					<dim>1</dim>
					<dim>1</dim>
				</port>
			</output>
			<blobs>
				<custom offset="5416" precision="FP32" size="4"/>
			</blobs>
		</layer>
		<layer id="177" name="MobilenetV2/expanded_conv_3/depthwise/act_quant/FakeQuantWithMinMaxVars" type="FakeQuantize">
			<data levels="256"/>
			<input>
				<port id="0">
					<dim>1</dim>
					<dim>192</dim>
					<dim>28</dim>
					<dim>28</dim>
				</port>
				<port id="1">
					<dim>1</dim>
					<dim>1</dim>
					<dim>1</dim>
					<dim>1</dim>
				</port>
				<port id="2">
					<dim>1</dim>
					<dim>1</dim>
					<dim>1</dim>
					<dim>1</dim>
				</port>
				<port id="3">
					<dim>1</dim>
					<dim>1</dim>
					<dim>1</dim>
					<dim>1</dim>
				</port>
				<port id="4">
					<dim>1</dim>
					<dim>1</dim>
					<dim>1</dim>
					<dim>1</dim>
				</port>
			</input>
			<output>
				<port id="5" precision="FP32">
					<dim>1</dim>
					<dim>192</dim>
					<dim>28</dim>
					<dim>28</dim>
				</port>
			</output>
		</layer>
		<layer id="178" name="MobilenetV2/expanded_conv_3/project/mul_fold/Output_0/Data__const" type="Const">
			<output>
				<port id="1" precision="FP32">
					<dim>48</dim>
					<dim>192</dim>
					<dim>1</dim>
					<dim>1</dim>
				</port>
			</output>
			<blobs>
				<custom offset="141620" precision="FP32" size="36864"/>
			</blobs>
		</layer>
		<layer id="179" name="Copy_MobilenetV2/expanded_conv_3/project/weights_quant/FakeQuantWithMinMaxVars/nudged_min/Output_0/Data_/copy_const" type="Const">
			<output>
				<port id="1" precision="FP32">
					<dim>1</dim>
					<dim>1</dim>
					<dim>1</dim>
					<dim>1</dim>
				</port>
			</output>
			<blobs>
				<custom offset="178484" precision="FP32" size="4"/>
			</blobs>
		</layer>
		<layer id="180" name="Copy_MobilenetV2/expanded_conv_3/project/weights_quant/FakeQuantWithMinMaxVars/nudged_max/Output_0/Data_/copy_const" type="Const">
			<output>
				<port id="1" precision="FP32">
					<dim>1</dim>
					<dim>1</dim>
					<dim>1</dim>
					<dim>1</dim>
				</port>
			</output>
			<blobs>
				<custom offset="178488" precision="FP32" size="4"/>
			</blobs>
		</layer>
		<layer id="181" name="Copy_MobilenetV2/expanded_conv_3/project/weights_quant/FakeQuantWithMinMaxVars/nudged_min/Output_0/Data_10937/copy_const" type="Const">
			<output>
				<port id="1" precision="FP32">
					<dim>1</dim>
					<dim>1</dim>
					<dim>1</dim>
					<dim>1</dim>
				</port>
			</output>
			<blobs>
				<custom offset="178484" precision="FP32" size="4"/>
			</blobs>
		</layer>
		<layer id="182" name="Copy_MobilenetV2/expanded_conv_3/project/weights_quant/FakeQuantWithMinMaxVars/nudged_max/Output_0/Data_10885/copy_const" type="Const">
			<output>
				<port id="1" precision="FP32">
					<dim>1</dim>
					<dim>1</dim>
					<dim>1</dim>
					<dim>1</dim>
				</port>
			</output>
			<blobs>
				<custom offset="178488" precision="FP32" size="4"/>
			</blobs>
		</layer>
		<layer id="183" name="MobilenetV2/expanded_conv_3/project/weights_quant/FakeQuantWithMinMaxVars" type="FakeQuantize">
			<data levels="255"/>
			<input>
				<port id="0">
					<dim>48</dim>
					<dim>192</dim>
					<dim>1</dim>
					<dim>1</dim>
				</port>
				<port id="1">
					<dim>1</dim>
					<dim>1</dim>
					<dim>1</dim>
					<dim>1</dim>
				</port>
				<port id="2">
					<dim>1</dim>
					<dim>1</dim>
					<dim>1</dim>
					<dim>1</dim>
				</port>
				<port id="3">
					<dim>1</dim>
					<dim>1</dim>
					<dim>1</dim>
					<dim>1</dim>
				</port>
				<port id="4">
					<dim>1</dim>
					<dim>1</dim>
					<dim>1</dim>
					<dim>1</dim>
				</port>
			</input>
			<output>
				<port id="5" precision="FP32">
					<dim>48</dim>
					<dim>192</dim>
					<dim>1</dim>
					<dim>1</dim>
				</port>
			</output>
		</layer>
		<layer id="184" name="bias_data2612626127_const" type="Const">
			<output>
				<port id="1" precision="FP32">
					<dim>48</dim>
				</port>
			</output>
			<blobs>
				<custom offset="178492" precision="FP32" size="192"/>
			</blobs>
		</layer>
		<layer id="185" name="MobilenetV2/expanded_conv_3/project/Conv2D_Fold" type="Convolution">
			<data auto_pad="same_upper" dilations="1,1" group="1" kernel="1,1" output="48" pads_begin="0,0" pads_end="0,0" strides="1,1"/>
			<input>
				<port id="0">
					<dim>1</dim>
					<dim>192</dim>
					<dim>28</dim>
					<dim>28</dim>
				</port>
				<port id="1">
					<dim>48</dim>
					<dim>192</dim>
					<dim>1</dim>
					<dim>1</dim>
				</port>
				<port id="2">
					<dim>48</dim>
				</port>
			</input>
			<output>
				<port id="3" precision="FP32">
					<dim>1</dim>
					<dim>48</dim>
					<dim>28</dim>
					<dim>28</dim>
				</port>
			</output>
		</layer>
		<layer id="186" name="Copy_MobilenetV2/expanded_conv_3/project/act_quant/FakeQuantWithMinMaxVars/nudged_min/Output_0/Data_/copy_const" type="Const">
			<output>
				<port id="1" precision="FP32">
					<dim>1</dim>
					<dim>1</dim>
					<dim>1</dim>
					<dim>1</dim>
				</port>
			</output>
			<blobs>
				<custom offset="178684" precision="FP32" size="4"/>
			</blobs>
		</layer>
		<layer id="187" name="Copy_MobilenetV2/expanded_conv_3/project/act_quant/FakeQuantWithMinMaxVars/nudged_max/Output_0/Data_/copy_const" type="Const">
			<output>
				<port id="1" precision="FP32">
					<dim>1</dim>
					<dim>1</dim>
					<dim>1</dim>
					<dim>1</dim>
				</port>
			</output>
			<blobs>
				<custom offset="178688" precision="FP32" size="4"/>
			</blobs>
		</layer>
		<layer id="188" name="Copy_MobilenetV2/expanded_conv_3/project/act_quant/FakeQuantWithMinMaxVars/nudged_min/Output_0/Data_10845/copy_const" type="Const">
			<output>
				<port id="1" precision="FP32">
					<dim>1</dim>
					<dim>1</dim>
					<dim>1</dim>
					<dim>1</dim>
				</port>
			</output>
			<blobs>
				<custom offset="178684" precision="FP32" size="4"/>
			</blobs>
		</layer>
		<layer id="189" name="Copy_MobilenetV2/expanded_conv_3/project/act_quant/FakeQuantWithMinMaxVars/nudged_max/Output_0/Data_11007/copy_const" type="Const">
			<output>
				<port id="1" precision="FP32">
					<dim>1</dim>
					<dim>1</dim>
					<dim>1</dim>
					<dim>1</dim>
				</port>
			</output>
			<blobs>
				<custom offset="178688" precision="FP32" size="4"/>
			</blobs>
		</layer>
		<layer id="190" name="MobilenetV2/expanded_conv_3/project/act_quant/FakeQuantWithMinMaxVars" type="FakeQuantize">
			<data levels="256"/>
			<input>
				<port id="0">
					<dim>1</dim>
					<dim>48</dim>
					<dim>28</dim>
					<dim>28</dim>
				</port>
				<port id="1">
					<dim>1</dim>
					<dim>1</dim>
					<dim>1</dim>
					<dim>1</dim>
				</port>
				<port id="2">
					<dim>1</dim>
					<dim>1</dim>
					<dim>1</dim>
					<dim>1</dim>
				</port>
				<port id="3">
					<dim>1</dim>
					<dim>1</dim>
					<dim>1</dim>
					<dim>1</dim>
				</port>
				<port id="4">
					<dim>1</dim>
					<dim>1</dim>
					<dim>1</dim>
					<dim>1</dim>
				</port>
			</input>
			<output>
				<port id="5" precision="FP32">
					<dim>1</dim>
					<dim>48</dim>
					<dim>28</dim>
					<dim>28</dim>
				</port>
			</output>
		</layer>
		<layer id="191" name="MobilenetV2/expanded_conv_4/expand/mul_fold/Output_0/Data__const" type="Const">
			<output>
				<port id="1" precision="FP32">
					<dim>288</dim>
					<dim>48</dim>
					<dim>1</dim>
					<dim>1</dim>
				</port>
			</output>
			<blobs>
				<custom offset="178692" precision="FP32" size="55296"/>
			</blobs>
		</layer>
		<layer id="192" name="Copy_MobilenetV2/expanded_conv_4/expand/weights_quant/FakeQuantWithMinMaxVars/nudged_min/Output_0/Data_/copy_const" type="Const">
			<output>
				<port id="1" precision="FP32">
					<dim>1</dim>
					<dim>1</dim>
					<dim>1</dim>
					<dim>1</dim>
				</port>
			</output>
			<blobs>
				<custom offset="233988" precision="FP32" size="4"/>
			</blobs>
		</layer>
		<layer id="193" name="Copy_MobilenetV2/expanded_conv_4/expand/weights_quant/FakeQuantWithMinMaxVars/nudged_max/Output_0/Data_/copy_const" type="Const">
			<output>
				<port id="1" precision="FP32">
					<dim>1</dim>
					<dim>1</dim>
					<dim>1</dim>
					<dim>1</dim>
				</port>
			</output>
			<blobs>
				<custom offset="233992" precision="FP32" size="4"/>
			</blobs>
		</layer>
		<layer id="194" name="Copy_MobilenetV2/expanded_conv_4/expand/weights_quant/FakeQuantWithMinMaxVars/nudged_min/Output_0/Data_10913/copy_const" type="Const">
			<output>
				<port id="1" precision="FP32">
					<dim>1</dim>
					<dim>1</dim>
					<dim>1</dim>
					<dim>1</dim>
				</port>
			</output>
			<blobs>
				<custom offset="233988" precision="FP32" size="4"/>
			</blobs>
		</layer>
		<layer id="195" name="Copy_MobilenetV2/expanded_conv_4/expand/weights_quant/FakeQuantWithMinMaxVars/nudged_max/Output_0/Data_10755/copy_const" type="Const">
			<output>
				<port id="1" precision="FP32">
					<dim>1</dim>
					<dim>1</dim>
					<dim>1</dim>
					<dim>1</dim>
				</port>
			</output>
			<blobs>
				<custom offset="233992" precision="FP32" size="4"/>
			</blobs>
		</layer>
		<layer id="196" name="MobilenetV2/expanded_conv_4/expand/weights_quant/FakeQuantWithMinMaxVars" type="FakeQuantize">
			<data levels="255"/>
			<input>
				<port id="0">
					<dim>288</dim>
					<dim>48</dim>
					<dim>1</dim>
					<dim>1</dim>
				</port>
				<port id="1">
					<dim>1</dim>
					<dim>1</dim>
					<dim>1</dim>
					<dim>1</dim>
				</port>
				<port id="2">
					<dim>1</dim>
					<dim>1</dim>
					<dim>1</dim>
					<dim>1</dim>
				</port>
				<port id="3">
					<dim>1</dim>
					<dim>1</dim>
					<dim>1</dim>
					<dim>1</dim>
				</port>
				<port id="4">
					<dim>1</dim>
					<dim>1</dim>
					<dim>1</dim>
					<dim>1</dim>
				</port>
			</input>
			<output>
				<port id="5" precision="FP32">
					<dim>288</dim>
					<dim>48</dim>
					<dim>1</dim>
					<dim>1</dim>
				</port>
			</output>
		</layer>
		<layer id="197" name="bias_data2612826129_const" type="Const">
			<output>
				<port id="1" precision="FP32">
					<dim>288</dim>
				</port>
			</output>
			<blobs>
				<custom offset="233996" precision="FP32" size="1152"/>
			</blobs>
		</layer>
		<layer id="198" name="MobilenetV2/expanded_conv_4/expand/Conv2D_Fold" type="Convolution">
			<data auto_pad="same_upper" dilations="1,1" group="1" kernel="1,1" output="288" pads_begin="0,0" pads_end="0,0" strides="1,1"/>
			<input>
				<port id="0">
					<dim>1</dim>
					<dim>48</dim>
					<dim>28</dim>
					<dim>28</dim>
				</port>
				<port id="1">
					<dim>288</dim>
					<dim>48</dim>
					<dim>1</dim>
					<dim>1</dim>
				</port>
				<port id="2">
					<dim>288</dim>
				</port>
			</input>
			<output>
				<port id="3" precision="FP32">
					<dim>1</dim>
					<dim>288</dim>
					<dim>28</dim>
					<dim>28</dim>
				</port>
			</output>
		</layer>
		<layer id="199" name="MobilenetV2/expanded_conv_4/expand/Relu6" type="Clamp">
			<data max="6" min="0"/>
			<input>
				<port id="0">
					<dim>1</dim>
					<dim>288</dim>
					<dim>28</dim>
					<dim>28</dim>
				</port>
			</input>
			<output>
				<port id="1" precision="FP32">
					<dim>1</dim>
					<dim>288</dim>
					<dim>28</dim>
					<dim>28</dim>
				</port>
			</output>
		</layer>
		<layer id="200" name="Copy_MobilenetV2/expanded_conv_4/expand/act_quant/FakeQuantWithMinMaxVars/nudged_min/Output_0/Data_/copy_const" type="Const">
			<output>
				<port id="1" precision="FP32">
					<dim>1</dim>
					<dim>1</dim>
					<dim>1</dim>
					<dim>1</dim>
				</port>
			</output>
			<blobs>
				<custom offset="5412" precision="FP32" size="4"/>
			</blobs>
		</layer>
		<layer id="201" name="Copy_MobilenetV2/expanded_conv_4/expand/act_quant/FakeQuantWithMinMaxVars/nudged_max/Output_0/Data_/copy_const" type="Const">
			<output>
				<port id="1" precision="FP32">
					<dim>1</dim>
					<dim>1</dim>
					<dim>1</dim>
					<dim>1</dim>
				</port>
			</output>
			<blobs>
				<custom offset="5416" precision="FP32" size="4"/>
			</blobs>
		</layer>
		<layer id="202" name="Copy_MobilenetV2/expanded_conv_4/expand/act_quant/FakeQuantWithMinMaxVars/nudged_min/Output_0/Data_10949/copy_const" type="Const">
			<output>
				<port id="1" precision="FP32">
					<dim>1</dim>
					<dim>1</dim>
					<dim>1</dim>
					<dim>1</dim>
				</port>
			</output>
			<blobs>
				<custom offset="5412" precision="FP32" size="4"/>
			</blobs>
		</layer>
		<layer id="203" name="Copy_MobilenetV2/expanded_conv_4/expand/act_quant/FakeQuantWithMinMaxVars/nudged_max/Output_0/Data_10811/copy_const" type="Const">
			<output>
				<port id="1" precision="FP32">
					<dim>1</dim>
					<dim>1</dim>
					<dim>1</dim>
					<dim>1</dim>
				</port>
			</output>
			<blobs>
				<custom offset="5416" precision="FP32" size="4"/>
			</blobs>
		</layer>
		<layer id="204" name="MobilenetV2/expanded_conv_4/expand/act_quant/FakeQuantWithMinMaxVars" type="FakeQuantize">
			<data levels="256"/>
			<input>
				<port id="0">
					<dim>1</dim>
					<dim>288</dim>
					<dim>28</dim>
					<dim>28</dim>
				</port>
				<port id="1">
					<dim>1</dim>
					<dim>1</dim>
					<dim>1</dim>
					<dim>1</dim>
				</port>
				<port id="2">
					<dim>1</dim>
					<dim>1</dim>
					<dim>1</dim>
					<dim>1</dim>
				</port>
				<port id="3">
					<dim>1</dim>
					<dim>1</dim>
					<dim>1</dim>
					<dim>1</dim>
				</port>
				<port id="4">
					<dim>1</dim>
					<dim>1</dim>
					<dim>1</dim>
					<dim>1</dim>
				</port>
			</input>
			<output>
				<port id="5" precision="FP32">
					<dim>1</dim>
					<dim>288</dim>
					<dim>28</dim>
					<dim>28</dim>
				</port>
			</output>
		</layer>
		<layer id="205" name="MobilenetV2/expanded_conv_4/depthwise/mul_fold/Output_0/Data__const" type="Const">
			<output>
				<port id="1" precision="FP32">
					<dim>288</dim>
					<dim>1</dim>
					<dim>3</dim>
					<dim>3</dim>
				</port>
			</output>
			<blobs>
				<custom offset="235148" precision="FP32" size="10368"/>
			</blobs>
		</layer>
		<layer id="206" name="Copy_MobilenetV2/expanded_conv_4/depthwise/weights_quant/FakeQuantWithMinMaxVars/nudged_min/Output_0/Data_/copy_const" type="Const">
			<output>
				<port id="1" precision="FP32">
					<dim>1</dim>
					<dim>1</dim>
					<dim>1</dim>
					<dim>1</dim>
				</port>
			</output>
			<blobs>
				<custom offset="245516" precision="FP32" size="4"/>
			</blobs>
		</layer>
		<layer id="207" name="Copy_MobilenetV2/expanded_conv_4/depthwise/weights_quant/FakeQuantWithMinMaxVars/nudged_max/Output_0/Data_/copy_const" type="Const">
			<output>
				<port id="1" precision="FP32">
					<dim>1</dim>
					<dim>1</dim>
					<dim>1</dim>
					<dim>1</dim>
				</port>
			</output>
			<blobs>
				<custom offset="245520" precision="FP32" size="4"/>
			</blobs>
		</layer>
		<layer id="208" name="Copy_MobilenetV2/expanded_conv_4/depthwise/weights_quant/FakeQuantWithMinMaxVars/nudged_min/Output_0/Data_10809/copy_const" type="Const">
			<output>
				<port id="1" precision="FP32">
					<dim>1</dim>
					<dim>1</dim>
					<dim>1</dim>
					<dim>1</dim>
				</port>
			</output>
			<blobs>
				<custom offset="245516" precision="FP32" size="4"/>
			</blobs>
		</layer>
		<layer id="209" name="Copy_MobilenetV2/expanded_conv_4/depthwise/weights_quant/FakeQuantWithMinMaxVars/nudged_max/Output_0/Data_10883/copy_const" type="Const">
			<output>
				<port id="1" precision="FP32">
					<dim>1</dim>
					<dim>1</dim>
					<dim>1</dim>
					<dim>1</dim>
				</port>
			</output>
			<blobs>
				<custom offset="245520" precision="FP32" size="4"/>
			</blobs>
		</layer>
		<layer id="210" name="MobilenetV2/expanded_conv_4/depthwise/weights_quant/FakeQuantWithMinMaxVars" type="FakeQuantize">
			<data levels="255"/>
			<input>
				<port id="0">
					<dim>288</dim>
					<dim>1</dim>
					<dim>3</dim>
					<dim>3</dim>
				</port>
				<port id="1">
					<dim>1</dim>
					<dim>1</dim>
					<dim>1</dim>
					<dim>1</dim>
				</port>
				<port id="2">
					<dim>1</dim>
					<dim>1</dim>
					<dim>1</dim>
					<dim>1</dim>
				</port>
				<port id="3">
					<dim>1</dim>
					<dim>1</dim>
					<dim>1</dim>
					<dim>1</dim>
				</port>
				<port id="4">
					<dim>1</dim>
					<dim>1</dim>
					<dim>1</dim>
					<dim>1</dim>
				</port>
			</input>
			<output>
				<port id="5" precision="FP32">
					<dim>288</dim>
					<dim>1</dim>
					<dim>3</dim>
					<dim>3</dim>
				</port>
			</output>
		</layer>
		<layer id="211" name="bias_data2613026131_const" type="Const">
			<output>
				<port id="1" precision="FP32">
					<dim>288</dim>
				</port>
			</output>
			<blobs>
				<custom offset="245524" precision="FP32" size="1152"/>
			</blobs>
		</layer>
		<layer id="212" name="MobilenetV2/expanded_conv_4/depthwise/depthwise_Fold" type="Convolution">
			<data auto_pad="same_upper" dilations="1,1" group="288" kernel="3,3" output="288" pads_begin="1,1" pads_end="1,1" strides="1,1"/>
			<input>
				<port id="0">
					<dim>1</dim>
					<dim>288</dim>
					<dim>28</dim>
					<dim>28</dim>
				</port>
				<port id="1">
					<dim>288</dim>
					<dim>1</dim>
					<dim>3</dim>
					<dim>3</dim>
				</port>
				<port id="2">
					<dim>288</dim>
				</port>
			</input>
			<output>
				<port id="3" precision="FP32">
					<dim>1</dim>
					<dim>288</dim>
					<dim>28</dim>
					<dim>28</dim>
				</port>
			</output>
		</layer>
		<layer id="213" name="MobilenetV2/expanded_conv_4/depthwise/Relu6" type="Clamp">
			<data max="6" min="0"/>
			<input>
				<port id="0">
					<dim>1</dim>
					<dim>288</dim>
					<dim>28</dim>
					<dim>28</dim>
				</port>
			</input>
			<output>
				<port id="1" precision="FP32">
					<dim>1</dim>
					<dim>288</dim>
					<dim>28</dim>
					<dim>28</dim>
				</port>
			</output>
		</layer>
		<layer id="214" name="Copy_MobilenetV2/expanded_conv_4/depthwise/act_quant/FakeQuantWithMinMaxVars/nudged_min/Output_0/Data_/copy_const" type="Const">
			<output>
				<port id="1" precision="FP32">
					<dim>1</dim>
					<dim>1</dim>
					<dim>1</dim>
					<dim>1</dim>
				</port>
			</output>
			<blobs>
				<custom offset="5412" precision="FP32" size="4"/>
			</blobs>
		</layer>
		<layer id="215" name="Copy_MobilenetV2/expanded_conv_4/depthwise/act_quant/FakeQuantWithMinMaxVars/nudged_max/Output_0/Data_/copy_const" type="Const">
			<output>
				<port id="1" precision="FP32">
					<dim>1</dim>
					<dim>1</dim>
					<dim>1</dim>
					<dim>1</dim>
				</port>
			</output>
			<blobs>
				<custom offset="5416" precision="FP32" size="4"/>
			</blobs>
		</layer>
		<layer id="216" name="Copy_MobilenetV2/expanded_conv_4/depthwise/act_quant/FakeQuantWithMinMaxVars/nudged_min/Output_0/Data_11079/copy_const" type="Const">
			<output>
				<port id="1" precision="FP32">
					<dim>1</dim>
					<dim>1</dim>
					<dim>1</dim>
					<dim>1</dim>
				</port>
			</output>
			<blobs>
				<custom offset="5412" precision="FP32" size="4"/>
			</blobs>
		</layer>
		<layer id="217" name="Copy_MobilenetV2/expanded_conv_4/depthwise/act_quant/FakeQuantWithMinMaxVars/nudged_max/Output_0/Data_10697/copy_const" type="Const">
			<output>
				<port id="1" precision="FP32">
					<dim>1</dim>
					<dim>1</dim>
					<dim>1</dim>
					<dim>1</dim>
				</port>
			</output>
			<blobs>
				<custom offset="5416" precision="FP32" size="4"/>
			</blobs>
		</layer>
		<layer id="218" name="MobilenetV2/expanded_conv_4/depthwise/act_quant/FakeQuantWithMinMaxVars" type="FakeQuantize">
			<data levels="256"/>
			<input>
				<port id="0">
					<dim>1</dim>
					<dim>288</dim>
					<dim>28</dim>
					<dim>28</dim>
				</port>
				<port id="1">
					<dim>1</dim>
					<dim>1</dim>
					<dim>1</dim>
					<dim>1</dim>
				</port>
				<port id="2">
					<dim>1</dim>
					<dim>1</dim>
					<dim>1</dim>
					<dim>1</dim>
				</port>
				<port id="3">
					<dim>1</dim>
					<dim>1</dim>
					<dim>1</dim>
					<dim>1</dim>
				</port>
				<port id="4">
					<dim>1</dim>
					<dim>1</dim>
					<dim>1</dim>
					<dim>1</dim>
				</port>
			</input>
			<output>
				<port id="5" precision="FP32">
					<dim>1</dim>
					<dim>288</dim>
					<dim>28</dim>
					<dim>28</dim>
				</port>
			</output>
		</layer>
		<layer id="219" name="MobilenetV2/expanded_conv_4/project/mul_fold/Output_0/Data__const" type="Const">
			<output>
				<port id="1" precision="FP32">
					<dim>48</dim>
					<dim>288</dim>
					<dim>1</dim>
					<dim>1</dim>
				</port>
			</output>
			<blobs>
				<custom offset="246676" precision="FP32" size="55296"/>
			</blobs>
		</layer>
		<layer id="220" name="Copy_MobilenetV2/expanded_conv_4/project/weights_quant/FakeQuantWithMinMaxVars/nudged_min/Output_0/Data_/copy_const" type="Const">
			<output>
				<port id="1" precision="FP32">
					<dim>1</dim>
					<dim>1</dim>
					<dim>1</dim>
					<dim>1</dim>
				</port>
			</output>
			<blobs>
				<custom offset="301972" precision="FP32" size="4"/>
			</blobs>
		</layer>
		<layer id="221" name="Copy_MobilenetV2/expanded_conv_4/project/weights_quant/FakeQuantWithMinMaxVars/nudged_max/Output_0/Data_/copy_const" type="Const">
			<output>
				<port id="1" precision="FP32">
					<dim>1</dim>
					<dim>1</dim>
					<dim>1</dim>
					<dim>1</dim>
				</port>
			</output>
			<blobs>
				<custom offset="301976" precision="FP32" size="4"/>
			</blobs>
		</layer>
		<layer id="222" name="Copy_MobilenetV2/expanded_conv_4/project/weights_quant/FakeQuantWithMinMaxVars/nudged_min/Output_0/Data_11029/copy_const" type="Const">
			<output>
				<port id="1" precision="FP32">
					<dim>1</dim>
					<dim>1</dim>
					<dim>1</dim>
					<dim>1</dim>
				</port>
			</output>
			<blobs>
				<custom offset="301972" precision="FP32" size="4"/>
			</blobs>
		</layer>
		<layer id="223" name="Copy_MobilenetV2/expanded_conv_4/project/weights_quant/FakeQuantWithMinMaxVars/nudged_max/Output_0/Data_10751/copy_const" type="Const">
			<output>
				<port id="1" precision="FP32">
					<dim>1</dim>
					<dim>1</dim>
					<dim>1</dim>
					<dim>1</dim>
				</port>
			</output>
			<blobs>
				<custom offset="301976" precision="FP32" size="4"/>
			</blobs>
		</layer>
		<layer id="224" name="MobilenetV2/expanded_conv_4/project/weights_quant/FakeQuantWithMinMaxVars" type="FakeQuantize">
			<data levels="255"/>
			<input>
				<port id="0">
					<dim>48</dim>
					<dim>288</dim>
					<dim>1</dim>
					<dim>1</dim>
				</port>
				<port id="1">
					<dim>1</dim>
					<dim>1</dim>
					<dim>1</dim>
					<dim>1</dim>
				</port>
				<port id="2">
					<dim>1</dim>
					<dim>1</dim>
					<dim>1</dim>
					<dim>1</dim>
				</port>
				<port id="3">
					<dim>1</dim>
					<dim>1</dim>
					<dim>1</dim>
					<dim>1</dim>
				</port>
				<port id="4">
					<dim>1</dim>
					<dim>1</dim>
					<dim>1</dim>
					<dim>1</dim>
				</port>
			</input>
			<output>
				<port id="5" precision="FP32">
					<dim>48</dim>
					<dim>288</dim>
					<dim>1</dim>
					<dim>1</dim>
				</port>
			</output>
		</layer>
		<layer id="225" name="bias_data2613226133_const" type="Const">
			<output>
				<port id="1" precision="FP32">
					<dim>48</dim>
				</port>
			</output>
			<blobs>
				<custom offset="301980" precision="FP32" size="192"/>
			</blobs>
		</layer>
		<layer id="226" name="MobilenetV2/expanded_conv_4/project/Conv2D_Fold" type="Convolution">
			<data auto_pad="same_upper" dilations="1,1" group="1" kernel="1,1" output="48" pads_begin="0,0" pads_end="0,0" strides="1,1"/>
			<input>
				<port id="0">
					<dim>1</dim>
					<dim>288</dim>
					<dim>28</dim>
					<dim>28</dim>
				</port>
				<port id="1">
					<dim>48</dim>
					<dim>288</dim>
					<dim>1</dim>
					<dim>1</dim>
				</port>
				<port id="2">
					<dim>48</dim>
				</port>
			</input>
			<output>
				<port id="3" precision="FP32">
					<dim>1</dim>
					<dim>48</dim>
					<dim>28</dim>
					<dim>28</dim>
				</port>
			</output>
		</layer>
		<layer id="227" name="Copy_MobilenetV2/expanded_conv_4/project/act_quant/FakeQuantWithMinMaxVars/nudged_min/Output_0/Data_/copy_const" type="Const">
			<output>
				<port id="1" precision="FP32">
					<dim>1</dim>
					<dim>1</dim>
					<dim>1</dim>
					<dim>1</dim>
				</port>
			</output>
			<blobs>
				<custom offset="178684" precision="FP32" size="4"/>
			</blobs>
		</layer>
		<layer id="228" name="Copy_MobilenetV2/expanded_conv_4/project/act_quant/FakeQuantWithMinMaxVars/nudged_max/Output_0/Data_/copy_const" type="Const">
			<output>
				<port id="1" precision="FP32">
					<dim>1</dim>
					<dim>1</dim>
					<dim>1</dim>
					<dim>1</dim>
				</port>
			</output>
			<blobs>
				<custom offset="178688" precision="FP32" size="4"/>
			</blobs>
		</layer>
		<layer id="229" name="Copy_MobilenetV2/expanded_conv_4/project/act_quant/FakeQuantWithMinMaxVars/nudged_min/Output_0/Data_10981/copy_const" type="Const">
			<output>
				<port id="1" precision="FP32">
					<dim>1</dim>
					<dim>1</dim>
					<dim>1</dim>
					<dim>1</dim>
				</port>
			</output>
			<blobs>
				<custom offset="178684" precision="FP32" size="4"/>
			</blobs>
		</layer>
		<layer id="230" name="Copy_MobilenetV2/expanded_conv_4/project/act_quant/FakeQuantWithMinMaxVars/nudged_max/Output_0/Data_10975/copy_const" type="Const">
			<output>
				<port id="1" precision="FP32">
					<dim>1</dim>
					<dim>1</dim>
					<dim>1</dim>
					<dim>1</dim>
				</port>
			</output>
			<blobs>
				<custom offset="178688" precision="FP32" size="4"/>
			</blobs>
		</layer>
		<layer id="231" name="MobilenetV2/expanded_conv_4/project/act_quant/FakeQuantWithMinMaxVars" type="FakeQuantize">
			<data levels="256"/>
			<input>
				<port id="0">
					<dim>1</dim>
					<dim>48</dim>
					<dim>28</dim>
					<dim>28</dim>
				</port>
				<port id="1">
					<dim>1</dim>
					<dim>1</dim>
					<dim>1</dim>
					<dim>1</dim>
				</port>
				<port id="2">
					<dim>1</dim>
					<dim>1</dim>
					<dim>1</dim>
					<dim>1</dim>
				</port>
				<port id="3">
					<dim>1</dim>
					<dim>1</dim>
					<dim>1</dim>
					<dim>1</dim>
				</port>
				<port id="4">
					<dim>1</dim>
					<dim>1</dim>
					<dim>1</dim>
					<dim>1</dim>
				</port>
			</input>
			<output>
				<port id="5" precision="FP32">
					<dim>1</dim>
					<dim>48</dim>
					<dim>28</dim>
					<dim>28</dim>
				</port>
			</output>
		</layer>
		<layer id="232" name="MobilenetV2/expanded_conv_4/add" type="Eltwise">
			<data operation="sum"/>
			<input>
				<port id="0">
					<dim>1</dim>
					<dim>48</dim>
					<dim>28</dim>
					<dim>28</dim>
				</port>
				<port id="1">
					<dim>1</dim>
					<dim>48</dim>
					<dim>28</dim>
					<dim>28</dim>
				</port>
			</input>
			<output>
				<port id="2" precision="FP32">
					<dim>1</dim>
					<dim>48</dim>
					<dim>28</dim>
					<dim>28</dim>
				</port>
			</output>
		</layer>
		<layer id="233" name="Copy_MobilenetV2/expanded_conv_4/post_activation_bypass_quant/FakeQuantWithMinMaxVars/nudged_min/Output_0/Data_/copy_const" type="Const">
			<output>
				<port id="1" precision="FP32">
					<dim>1</dim>
					<dim>1</dim>
					<dim>1</dim>
					<dim>1</dim>
				</port>
			</output>
			<blobs>
				<custom offset="302172" precision="FP32" size="4"/>
			</blobs>
		</layer>
		<layer id="234" name="Copy_MobilenetV2/expanded_conv_4/post_activation_bypass_quant/FakeQuantWithMinMaxVars/nudged_max/Output_0/Data_/copy_const" type="Const">
			<output>
				<port id="1" precision="FP32">
					<dim>1</dim>
					<dim>1</dim>
					<dim>1</dim>
					<dim>1</dim>
				</port>
			</output>
			<blobs>
				<custom offset="302176" precision="FP32" size="4"/>
			</blobs>
		</layer>
		<layer id="235" name="Copy_MobilenetV2/expanded_conv_4/post_activation_bypass_quant/FakeQuantWithMinMaxVars/nudged_min/Output_0/Data_10705/copy_const" type="Const">
			<output>
				<port id="1" precision="FP32">
					<dim>1</dim>
					<dim>1</dim>
					<dim>1</dim>
					<dim>1</dim>
				</port>
			</output>
			<blobs>
				<custom offset="302172" precision="FP32" size="4"/>
			</blobs>
		</layer>
		<layer id="236" name="Copy_MobilenetV2/expanded_conv_4/post_activation_bypass_quant/FakeQuantWithMinMaxVars/nudged_max/Output_0/Data_10681/copy_const" type="Const">
			<output>
				<port id="1" precision="FP32">
					<dim>1</dim>
					<dim>1</dim>
					<dim>1</dim>
					<dim>1</dim>
				</port>
			</output>
			<blobs>
				<custom offset="302176" precision="FP32" size="4"/>
			</blobs>
		</layer>
		<layer id="237" name="MobilenetV2/expanded_conv_4/post_activation_bypass_quant/FakeQuantWithMinMaxVars" type="FakeQuantize">
			<data levels="256"/>
			<input>
				<port id="0">
					<dim>1</dim>
					<dim>48</dim>
					<dim>28</dim>
					<dim>28</dim>
				</port>
				<port id="1">
					<dim>1</dim>
					<dim>1</dim>
					<dim>1</dim>
					<dim>1</dim>
				</port>
				<port id="2">
					<dim>1</dim>
					<dim>1</dim>
					<dim>1</dim>
					<dim>1</dim>
				</port>
				<port id="3">
					<dim>1</dim>
					<dim>1</dim>
					<dim>1</dim>
					<dim>1</dim>
				</port>
				<port id="4">
					<dim>1</dim>
					<dim>1</dim>
					<dim>1</dim>
					<dim>1</dim>
				</port>
			</input>
			<output>
				<port id="5" precision="FP32">
					<dim>1</dim>
					<dim>48</dim>
					<dim>28</dim>
					<dim>28</dim>
				</port>
			</output>
		</layer>
		<layer id="238" name="MobilenetV2/expanded_conv_5/expand/mul_fold/Output_0/Data__const" type="Const">
			<output>
				<port id="1" precision="FP32">
					<dim>288</dim>
					<dim>48</dim>
					<dim>1</dim>
					<dim>1</dim>
				</port>
			</output>
			<blobs>
				<custom offset="302180" precision="FP32" size="55296"/>
			</blobs>
		</layer>
		<layer id="239" name="Copy_MobilenetV2/expanded_conv_5/expand/weights_quant/FakeQuantWithMinMaxVars/nudged_min/Output_0/Data_/copy_const" type="Const">
			<output>
				<port id="1" precision="FP32">
					<dim>1</dim>
					<dim>1</dim>
					<dim>1</dim>
					<dim>1</dim>
				</port>
			</output>
			<blobs>
				<custom offset="357476" precision="FP32" size="4"/>
			</blobs>
		</layer>
		<layer id="240" name="Copy_MobilenetV2/expanded_conv_5/expand/weights_quant/FakeQuantWithMinMaxVars/nudged_max/Output_0/Data_/copy_const" type="Const">
			<output>
				<port id="1" precision="FP32">
					<dim>1</dim>
					<dim>1</dim>
					<dim>1</dim>
					<dim>1</dim>
				</port>
			</output>
			<blobs>
				<custom offset="357480" precision="FP32" size="4"/>
			</blobs>
		</layer>
		<layer id="241" name="Copy_MobilenetV2/expanded_conv_5/expand/weights_quant/FakeQuantWithMinMaxVars/nudged_min/Output_0/Data_10745/copy_const" type="Const">
			<output>
				<port id="1" precision="FP32">
					<dim>1</dim>
					<dim>1</dim>
					<dim>1</dim>
					<dim>1</dim>
				</port>
			</output>
			<blobs>
				<custom offset="357476" precision="FP32" size="4"/>
			</blobs>
		</layer>
		<layer id="242" name="Copy_MobilenetV2/expanded_conv_5/expand/weights_quant/FakeQuantWithMinMaxVars/nudged_max/Output_0/Data_10983/copy_const" type="Const">
			<output>
				<port id="1" precision="FP32">
					<dim>1</dim>
					<dim>1</dim>
					<dim>1</dim>
					<dim>1</dim>
				</port>
			</output>
			<blobs>
				<custom offset="357480" precision="FP32" size="4"/>
			</blobs>
		</layer>
		<layer id="243" name="MobilenetV2/expanded_conv_5/expand/weights_quant/FakeQuantWithMinMaxVars" type="FakeQuantize">
			<data levels="255"/>
			<input>
				<port id="0">
					<dim>288</dim>
					<dim>48</dim>
					<dim>1</dim>
					<dim>1</dim>
				</port>
				<port id="1">
					<dim>1</dim>
					<dim>1</dim>
					<dim>1</dim>
					<dim>1</dim>
				</port>
				<port id="2">
					<dim>1</dim>
					<dim>1</dim>
					<dim>1</dim>
					<dim>1</dim>
				</port>
				<port id="3">
					<dim>1</dim>
					<dim>1</dim>
					<dim>1</dim>
					<dim>1</dim>
				</port>
				<port id="4">
					<dim>1</dim>
					<dim>1</dim>
					<dim>1</dim>
					<dim>1</dim>
				</port>
			</input>
			<output>
				<port id="5" precision="FP32">
					<dim>288</dim>
					<dim>48</dim>
					<dim>1</dim>
					<dim>1</dim>
				</port>
			</output>
		</layer>
		<layer id="244" name="bias_data2613426135_const" type="Const">
			<output>
				<port id="1" precision="FP32">
					<dim>288</dim>
				</port>
			</output>
			<blobs>
				<custom offset="357484" precision="FP32" size="1152"/>
			</blobs>
		</layer>
		<layer id="245" name="MobilenetV2/expanded_conv_5/expand/Conv2D_Fold" type="Convolution">
			<data auto_pad="same_upper" dilations="1,1" group="1" kernel="1,1" output="288" pads_begin="0,0" pads_end="0,0" strides="1,1"/>
			<input>
				<port id="0">
					<dim>1</dim>
					<dim>48</dim>
					<dim>28</dim>
					<dim>28</dim>
				</port>
				<port id="1">
					<dim>288</dim>
					<dim>48</dim>
					<dim>1</dim>
					<dim>1</dim>
				</port>
				<port id="2">
					<dim>288</dim>
				</port>
			</input>
			<output>
				<port id="3" precision="FP32">
					<dim>1</dim>
					<dim>288</dim>
					<dim>28</dim>
					<dim>28</dim>
				</port>
			</output>
		</layer>
		<layer id="246" name="MobilenetV2/expanded_conv_5/expand/Relu6" type="Clamp">
			<data max="6" min="0"/>
			<input>
				<port id="0">
					<dim>1</dim>
					<dim>288</dim>
					<dim>28</dim>
					<dim>28</dim>
				</port>
			</input>
			<output>
				<port id="1" precision="FP32">
					<dim>1</dim>
					<dim>288</dim>
					<dim>28</dim>
					<dim>28</dim>
				</port>
			</output>
		</layer>
		<layer id="247" name="Copy_MobilenetV2/expanded_conv_5/expand/act_quant/FakeQuantWithMinMaxVars/nudged_min/Output_0/Data_/copy_const" type="Const">
			<output>
				<port id="1" precision="FP32">
					<dim>1</dim>
					<dim>1</dim>
					<dim>1</dim>
					<dim>1</dim>
				</port>
			</output>
			<blobs>
				<custom offset="5412" precision="FP32" size="4"/>
			</blobs>
		</layer>
		<layer id="248" name="Copy_MobilenetV2/expanded_conv_5/expand/act_quant/FakeQuantWithMinMaxVars/nudged_max/Output_0/Data_/copy_const" type="Const">
			<output>
				<port id="1" precision="FP32">
					<dim>1</dim>
					<dim>1</dim>
					<dim>1</dim>
					<dim>1</dim>
				</port>
			</output>
			<blobs>
				<custom offset="5416" precision="FP32" size="4"/>
			</blobs>
		</layer>
		<layer id="249" name="Copy_MobilenetV2/expanded_conv_5/expand/act_quant/FakeQuantWithMinMaxVars/nudged_min/Output_0/Data_10905/copy_const" type="Const">
			<output>
				<port id="1" precision="FP32">
					<dim>1</dim>
					<dim>1</dim>
					<dim>1</dim>
					<dim>1</dim>
				</port>
			</output>
			<blobs>
				<custom offset="5412" precision="FP32" size="4"/>
			</blobs>
		</layer>
		<layer id="250" name="Copy_MobilenetV2/expanded_conv_5/expand/act_quant/FakeQuantWithMinMaxVars/nudged_max/Output_0/Data_10997/copy_const" type="Const">
			<output>
				<port id="1" precision="FP32">
					<dim>1</dim>
					<dim>1</dim>
					<dim>1</dim>
					<dim>1</dim>
				</port>
			</output>
			<blobs>
				<custom offset="5416" precision="FP32" size="4"/>
			</blobs>
		</layer>
		<layer id="251" name="MobilenetV2/expanded_conv_5/expand/act_quant/FakeQuantWithMinMaxVars" type="FakeQuantize">
			<data levels="256"/>
			<input>
				<port id="0">
					<dim>1</dim>
					<dim>288</dim>
					<dim>28</dim>
					<dim>28</dim>
				</port>
				<port id="1">
					<dim>1</dim>
					<dim>1</dim>
					<dim>1</dim>
					<dim>1</dim>
				</port>
				<port id="2">
					<dim>1</dim>
					<dim>1</dim>
					<dim>1</dim>
					<dim>1</dim>
				</port>
				<port id="3">
					<dim>1</dim>
					<dim>1</dim>
					<dim>1</dim>
					<dim>1</dim>
				</port>
				<port id="4">
					<dim>1</dim>
					<dim>1</dim>
					<dim>1</dim>
					<dim>1</dim>
				</port>
			</input>
			<output>
				<port id="5" precision="FP32">
					<dim>1</dim>
					<dim>288</dim>
					<dim>28</dim>
					<dim>28</dim>
				</port>
			</output>
		</layer>
		<layer id="252" name="MobilenetV2/expanded_conv_5/depthwise/mul_fold/Output_0/Data__const" type="Const">
			<output>
				<port id="1" precision="FP32">
					<dim>288</dim>
					<dim>1</dim>
					<dim>3</dim>
					<dim>3</dim>
				</port>
			</output>
			<blobs>
				<custom offset="358636" precision="FP32" size="10368"/>
			</blobs>
		</layer>
		<layer id="253" name="Copy_MobilenetV2/expanded_conv_5/depthwise/weights_quant/FakeQuantWithMinMaxVars/nudged_min/Output_0/Data_/copy_const" type="Const">
			<output>
				<port id="1" precision="FP32">
					<dim>1</dim>
					<dim>1</dim>
					<dim>1</dim>
					<dim>1</dim>
				</port>
			</output>
			<blobs>
				<custom offset="369004" precision="FP32" size="4"/>
			</blobs>
		</layer>
		<layer id="254" name="Copy_MobilenetV2/expanded_conv_5/depthwise/weights_quant/FakeQuantWithMinMaxVars/nudged_max/Output_0/Data_/copy_const" type="Const">
			<output>
				<port id="1" precision="FP32">
					<dim>1</dim>
					<dim>1</dim>
					<dim>1</dim>
					<dim>1</dim>
				</port>
			</output>
			<blobs>
				<custom offset="369008" precision="FP32" size="4"/>
			</blobs>
		</layer>
		<layer id="255" name="Copy_MobilenetV2/expanded_conv_5/depthwise/weights_quant/FakeQuantWithMinMaxVars/nudged_min/Output_0/Data_10685/copy_const" type="Const">
			<output>
				<port id="1" precision="FP32">
					<dim>1</dim>
					<dim>1</dim>
					<dim>1</dim>
					<dim>1</dim>
				</port>
			</output>
			<blobs>
				<custom offset="369004" precision="FP32" size="4"/>
			</blobs>
		</layer>
		<layer id="256" name="Copy_MobilenetV2/expanded_conv_5/depthwise/weights_quant/FakeQuantWithMinMaxVars/nudged_max/Output_0/Data_11087/copy_const" type="Const">
			<output>
				<port id="1" precision="FP32">
					<dim>1</dim>
					<dim>1</dim>
					<dim>1</dim>
					<dim>1</dim>
				</port>
			</output>
			<blobs>
				<custom offset="369008" precision="FP32" size="4"/>
			</blobs>
		</layer>
		<layer id="257" name="MobilenetV2/expanded_conv_5/depthwise/weights_quant/FakeQuantWithMinMaxVars" type="FakeQuantize">
			<data levels="255"/>
			<input>
				<port id="0">
					<dim>288</dim>
					<dim>1</dim>
					<dim>3</dim>
					<dim>3</dim>
				</port>
				<port id="1">
					<dim>1</dim>
					<dim>1</dim>
					<dim>1</dim>
					<dim>1</dim>
				</port>
				<port id="2">
					<dim>1</dim>
					<dim>1</dim>
					<dim>1</dim>
					<dim>1</dim>
				</port>
				<port id="3">
					<dim>1</dim>
					<dim>1</dim>
					<dim>1</dim>
					<dim>1</dim>
				</port>
				<port id="4">
					<dim>1</dim>
					<dim>1</dim>
					<dim>1</dim>
					<dim>1</dim>
				</port>
			</input>
			<output>
				<port id="5" precision="FP32">
					<dim>288</dim>
					<dim>1</dim>
					<dim>3</dim>
					<dim>3</dim>
				</port>
			</output>
		</layer>
		<layer id="258" name="bias_data2613626137_const" type="Const">
			<output>
				<port id="1" precision="FP32">
					<dim>288</dim>
				</port>
			</output>
			<blobs>
				<custom offset="369012" precision="FP32" size="1152"/>
			</blobs>
		</layer>
		<layer id="259" name="MobilenetV2/expanded_conv_5/depthwise/depthwise_Fold" type="Convolution">
			<data auto_pad="same_upper" dilations="1,1" group="288" kernel="3,3" output="288" pads_begin="1,1" pads_end="1,1" strides="1,1"/>
			<input>
				<port id="0">
					<dim>1</dim>
					<dim>288</dim>
					<dim>28</dim>
					<dim>28</dim>
				</port>
				<port id="1">
					<dim>288</dim>
					<dim>1</dim>
					<dim>3</dim>
					<dim>3</dim>
				</port>
				<port id="2">
					<dim>288</dim>
				</port>
			</input>
			<output>
				<port id="3" precision="FP32">
					<dim>1</dim>
					<dim>288</dim>
					<dim>28</dim>
					<dim>28</dim>
				</port>
			</output>
		</layer>
		<layer id="260" name="MobilenetV2/expanded_conv_5/depthwise/Relu6" type="Clamp">
			<data max="6" min="0"/>
			<input>
				<port id="0">
					<dim>1</dim>
					<dim>288</dim>
					<dim>28</dim>
					<dim>28</dim>
				</port>
			</input>
			<output>
				<port id="1" precision="FP32">
					<dim>1</dim>
					<dim>288</dim>
					<dim>28</dim>
					<dim>28</dim>
				</port>
			</output>
		</layer>
		<layer id="261" name="Copy_MobilenetV2/expanded_conv_5/depthwise/act_quant/FakeQuantWithMinMaxVars/nudged_min/Output_0/Data_/copy_const" type="Const">
			<output>
				<port id="1" precision="FP32">
					<dim>1</dim>
					<dim>1</dim>
					<dim>1</dim>
					<dim>1</dim>
				</port>
			</output>
			<blobs>
				<custom offset="5412" precision="FP32" size="4"/>
			</blobs>
		</layer>
		<layer id="262" name="Copy_MobilenetV2/expanded_conv_5/depthwise/act_quant/FakeQuantWithMinMaxVars/nudged_max/Output_0/Data_/copy_const" type="Const">
			<output>
				<port id="1" precision="FP32">
					<dim>1</dim>
					<dim>1</dim>
					<dim>1</dim>
					<dim>1</dim>
				</port>
			</output>
			<blobs>
				<custom offset="5416" precision="FP32" size="4"/>
			</blobs>
		</layer>
		<layer id="263" name="Copy_MobilenetV2/expanded_conv_5/depthwise/act_quant/FakeQuantWithMinMaxVars/nudged_min/Output_0/Data_11035/copy_const" type="Const">
			<output>
				<port id="1" precision="FP32">
					<dim>1</dim>
					<dim>1</dim>
					<dim>1</dim>
					<dim>1</dim>
				</port>
			</output>
			<blobs>
				<custom offset="5412" precision="FP32" size="4"/>
			</blobs>
		</layer>
		<layer id="264" name="Copy_MobilenetV2/expanded_conv_5/depthwise/act_quant/FakeQuantWithMinMaxVars/nudged_max/Output_0/Data_11097/copy_const" type="Const">
			<output>
				<port id="1" precision="FP32">
					<dim>1</dim>
					<dim>1</dim>
					<dim>1</dim>
					<dim>1</dim>
				</port>
			</output>
			<blobs>
				<custom offset="5416" precision="FP32" size="4"/>
			</blobs>
		</layer>
		<layer id="265" name="MobilenetV2/expanded_conv_5/depthwise/act_quant/FakeQuantWithMinMaxVars" type="FakeQuantize">
			<data levels="256"/>
			<input>
				<port id="0">
					<dim>1</dim>
					<dim>288</dim>
					<dim>28</dim>
					<dim>28</dim>
				</port>
				<port id="1">
					<dim>1</dim>
					<dim>1</dim>
					<dim>1</dim>
					<dim>1</dim>
				</port>
				<port id="2">
					<dim>1</dim>
					<dim>1</dim>
					<dim>1</dim>
					<dim>1</dim>
				</port>
				<port id="3">
					<dim>1</dim>
					<dim>1</dim>
					<dim>1</dim>
					<dim>1</dim>
				</port>
				<port id="4">
					<dim>1</dim>
					<dim>1</dim>
					<dim>1</dim>
					<dim>1</dim>
				</port>
			</input>
			<output>
				<port id="5" precision="FP32">
					<dim>1</dim>
					<dim>288</dim>
					<dim>28</dim>
					<dim>28</dim>
				</port>
			</output>
		</layer>
		<layer id="266" name="MobilenetV2/expanded_conv_5/project/mul_fold/Output_0/Data__const" type="Const">
			<output>
				<port id="1" precision="FP32">
					<dim>48</dim>
					<dim>288</dim>
					<dim>1</dim>
					<dim>1</dim>
				</port>
			</output>
			<blobs>
				<custom offset="370164" precision="FP32" size="55296"/>
			</blobs>
		</layer>
		<layer id="267" name="Copy_MobilenetV2/expanded_conv_5/project/weights_quant/FakeQuantWithMinMaxVars/nudged_min/Output_0/Data_/copy_const" type="Const">
			<output>
				<port id="1" precision="FP32">
					<dim>1</dim>
					<dim>1</dim>
					<dim>1</dim>
					<dim>1</dim>
				</port>
			</output>
			<blobs>
				<custom offset="425460" precision="FP32" size="4"/>
			</blobs>
		</layer>
		<layer id="268" name="Copy_MobilenetV2/expanded_conv_5/project/weights_quant/FakeQuantWithMinMaxVars/nudged_max/Output_0/Data_/copy_const" type="Const">
			<output>
				<port id="1" precision="FP32">
					<dim>1</dim>
					<dim>1</dim>
					<dim>1</dim>
					<dim>1</dim>
				</port>
			</output>
			<blobs>
				<custom offset="425464" precision="FP32" size="4"/>
			</blobs>
		</layer>
		<layer id="269" name="Copy_MobilenetV2/expanded_conv_5/project/weights_quant/FakeQuantWithMinMaxVars/nudged_min/Output_0/Data_11125/copy_const" type="Const">
			<output>
				<port id="1" precision="FP32">
					<dim>1</dim>
					<dim>1</dim>
					<dim>1</dim>
					<dim>1</dim>
				</port>
			</output>
			<blobs>
				<custom offset="425460" precision="FP32" size="4"/>
			</blobs>
		</layer>
		<layer id="270" name="Copy_MobilenetV2/expanded_conv_5/project/weights_quant/FakeQuantWithMinMaxVars/nudged_max/Output_0/Data_10797/copy_const" type="Const">
			<output>
				<port id="1" precision="FP32">
					<dim>1</dim>
					<dim>1</dim>
					<dim>1</dim>
					<dim>1</dim>
				</port>
			</output>
			<blobs>
				<custom offset="425464" precision="FP32" size="4"/>
			</blobs>
		</layer>
		<layer id="271" name="MobilenetV2/expanded_conv_5/project/weights_quant/FakeQuantWithMinMaxVars" type="FakeQuantize">
			<data levels="255"/>
			<input>
				<port id="0">
					<dim>48</dim>
					<dim>288</dim>
					<dim>1</dim>
					<dim>1</dim>
				</port>
				<port id="1">
					<dim>1</dim>
					<dim>1</dim>
					<dim>1</dim>
					<dim>1</dim>
				</port>
				<port id="2">
					<dim>1</dim>
					<dim>1</dim>
					<dim>1</dim>
					<dim>1</dim>
				</port>
				<port id="3">
					<dim>1</dim>
					<dim>1</dim>
					<dim>1</dim>
					<dim>1</dim>
				</port>
				<port id="4">
					<dim>1</dim>
					<dim>1</dim>
					<dim>1</dim>
					<dim>1</dim>
				</port>
			</input>
			<output>
				<port id="5" precision="FP32">
					<dim>48</dim>
					<dim>288</dim>
					<dim>1</dim>
					<dim>1</dim>
				</port>
			</output>
		</layer>
		<layer id="272" name="bias_data2613826139_const" type="Const">
			<output>
				<port id="1" precision="FP32">
					<dim>48</dim>
				</port>
			</output>
			<blobs>
				<custom offset="425468" precision="FP32" size="192"/>
			</blobs>
		</layer>
		<layer id="273" name="MobilenetV2/expanded_conv_5/project/Conv2D_Fold" type="Convolution">
			<data auto_pad="same_upper" dilations="1,1" group="1" kernel="1,1" output="48" pads_begin="0,0" pads_end="0,0" strides="1,1"/>
			<input>
				<port id="0">
					<dim>1</dim>
					<dim>288</dim>
					<dim>28</dim>
					<dim>28</dim>
				</port>
				<port id="1">
					<dim>48</dim>
					<dim>288</dim>
					<dim>1</dim>
					<dim>1</dim>
				</port>
				<port id="2">
					<dim>48</dim>
				</port>
			</input>
			<output>
				<port id="3" precision="FP32">
					<dim>1</dim>
					<dim>48</dim>
					<dim>28</dim>
					<dim>28</dim>
				</port>
			</output>
		</layer>
		<layer id="274" name="Copy_MobilenetV2/expanded_conv_5/project/act_quant/FakeQuantWithMinMaxVars/nudged_min/Output_0/Data_/copy_const" type="Const">
			<output>
				<port id="1" precision="FP32">
					<dim>1</dim>
					<dim>1</dim>
					<dim>1</dim>
					<dim>1</dim>
				</port>
			</output>
			<blobs>
				<custom offset="302172" precision="FP32" size="4"/>
			</blobs>
		</layer>
		<layer id="275" name="Copy_MobilenetV2/expanded_conv_5/project/act_quant/FakeQuantWithMinMaxVars/nudged_max/Output_0/Data_/copy_const" type="Const">
			<output>
				<port id="1" precision="FP32">
					<dim>1</dim>
					<dim>1</dim>
					<dim>1</dim>
					<dim>1</dim>
				</port>
			</output>
			<blobs>
				<custom offset="302176" precision="FP32" size="4"/>
			</blobs>
		</layer>
		<layer id="276" name="Copy_MobilenetV2/expanded_conv_5/project/act_quant/FakeQuantWithMinMaxVars/nudged_min/Output_0/Data_10833/copy_const" type="Const">
			<output>
				<port id="1" precision="FP32">
					<dim>1</dim>
					<dim>1</dim>
					<dim>1</dim>
					<dim>1</dim>
				</port>
			</output>
			<blobs>
				<custom offset="302172" precision="FP32" size="4"/>
			</blobs>
		</layer>
		<layer id="277" name="Copy_MobilenetV2/expanded_conv_5/project/act_quant/FakeQuantWithMinMaxVars/nudged_max/Output_0/Data_10839/copy_const" type="Const">
			<output>
				<port id="1" precision="FP32">
					<dim>1</dim>
					<dim>1</dim>
					<dim>1</dim>
					<dim>1</dim>
				</port>
			</output>
			<blobs>
				<custom offset="302176" precision="FP32" size="4"/>
			</blobs>
		</layer>
		<layer id="278" name="MobilenetV2/expanded_conv_5/project/act_quant/FakeQuantWithMinMaxVars" type="FakeQuantize">
			<data levels="256"/>
			<input>
				<port id="0">
					<dim>1</dim>
					<dim>48</dim>
					<dim>28</dim>
					<dim>28</dim>
				</port>
				<port id="1">
					<dim>1</dim>
					<dim>1</dim>
					<dim>1</dim>
					<dim>1</dim>
				</port>
				<port id="2">
					<dim>1</dim>
					<dim>1</dim>
					<dim>1</dim>
					<dim>1</dim>
				</port>
				<port id="3">
					<dim>1</dim>
					<dim>1</dim>
					<dim>1</dim>
					<dim>1</dim>
				</port>
				<port id="4">
					<dim>1</dim>
					<dim>1</dim>
					<dim>1</dim>
					<dim>1</dim>
				</port>
			</input>
			<output>
				<port id="5" precision="FP32">
					<dim>1</dim>
					<dim>48</dim>
					<dim>28</dim>
					<dim>28</dim>
				</port>
			</output>
		</layer>
		<layer id="279" name="MobilenetV2/expanded_conv_5/add" type="Eltwise">
			<data operation="sum"/>
			<input>
				<port id="0">
					<dim>1</dim>
					<dim>48</dim>
					<dim>28</dim>
					<dim>28</dim>
				</port>
				<port id="1">
					<dim>1</dim>
					<dim>48</dim>
					<dim>28</dim>
					<dim>28</dim>
				</port>
			</input>
			<output>
				<port id="2" precision="FP32">
					<dim>1</dim>
					<dim>48</dim>
					<dim>28</dim>
					<dim>28</dim>
				</port>
			</output>
		</layer>
		<layer id="280" name="Copy_MobilenetV2/expanded_conv_5/post_activation_bypass_quant/FakeQuantWithMinMaxVars/nudged_min/Output_0/Data_/copy_const" type="Const">
			<output>
				<port id="1" precision="FP32">
					<dim>1</dim>
					<dim>1</dim>
					<dim>1</dim>
					<dim>1</dim>
				</port>
			</output>
			<blobs>
				<custom offset="425660" precision="FP32" size="4"/>
			</blobs>
		</layer>
		<layer id="281" name="Copy_MobilenetV2/expanded_conv_5/post_activation_bypass_quant/FakeQuantWithMinMaxVars/nudged_max/Output_0/Data_/copy_const" type="Const">
			<output>
				<port id="1" precision="FP32">
					<dim>1</dim>
					<dim>1</dim>
					<dim>1</dim>
					<dim>1</dim>
				</port>
			</output>
			<blobs>
				<custom offset="425664" precision="FP32" size="4"/>
			</blobs>
		</layer>
		<layer id="282" name="Copy_MobilenetV2/expanded_conv_5/post_activation_bypass_quant/FakeQuantWithMinMaxVars/nudged_min/Output_0/Data_10919/copy_const" type="Const">
			<output>
				<port id="1" precision="FP32">
					<dim>1</dim>
					<dim>1</dim>
					<dim>1</dim>
					<dim>1</dim>
				</port>
			</output>
			<blobs>
				<custom offset="425660" precision="FP32" size="4"/>
			</blobs>
		</layer>
		<layer id="283" name="Copy_MobilenetV2/expanded_conv_5/post_activation_bypass_quant/FakeQuantWithMinMaxVars/nudged_max/Output_0/Data_11005/copy_const" type="Const">
			<output>
				<port id="1" precision="FP32">
					<dim>1</dim>
					<dim>1</dim>
					<dim>1</dim>
					<dim>1</dim>
				</port>
			</output>
			<blobs>
				<custom offset="425664" precision="FP32" size="4"/>
			</blobs>
		</layer>
		<layer id="284" name="MobilenetV2/expanded_conv_5/post_activation_bypass_quant/FakeQuantWithMinMaxVars" type="FakeQuantize">
			<data levels="256"/>
			<input>
				<port id="0">
					<dim>1</dim>
					<dim>48</dim>
					<dim>28</dim>
					<dim>28</dim>
				</port>
				<port id="1">
					<dim>1</dim>
					<dim>1</dim>
					<dim>1</dim>
					<dim>1</dim>
				</port>
				<port id="2">
					<dim>1</dim>
					<dim>1</dim>
					<dim>1</dim>
					<dim>1</dim>
				</port>
				<port id="3">
					<dim>1</dim>
					<dim>1</dim>
					<dim>1</dim>
					<dim>1</dim>
				</port>
				<port id="4">
					<dim>1</dim>
					<dim>1</dim>
					<dim>1</dim>
					<dim>1</dim>
				</port>
			</input>
			<output>
				<port id="5" precision="FP32">
					<dim>1</dim>
					<dim>48</dim>
					<dim>28</dim>
					<dim>28</dim>
				</port>
			</output>
		</layer>
		<layer id="285" name="MobilenetV2/expanded_conv_6/expand/mul_fold/Output_0/Data__const" type="Const">
			<output>
				<port id="1" precision="FP32">
					<dim>288</dim>
					<dim>48</dim>
					<dim>1</dim>
					<dim>1</dim>
				</port>
			</output>
			<blobs>
				<custom offset="425668" precision="FP32" size="55296"/>
			</blobs>
		</layer>
		<layer id="286" name="Copy_MobilenetV2/expanded_conv_6/expand/weights_quant/FakeQuantWithMinMaxVars/nudged_min/Output_0/Data_/copy_const" type="Const">
			<output>
				<port id="1" precision="FP32">
					<dim>1</dim>
					<dim>1</dim>
					<dim>1</dim>
					<dim>1</dim>
				</port>
			</output>
			<blobs>
				<custom offset="480964" precision="FP32" size="4"/>
			</blobs>
		</layer>
		<layer id="287" name="Copy_MobilenetV2/expanded_conv_6/expand/weights_quant/FakeQuantWithMinMaxVars/nudged_max/Output_0/Data_/copy_const" type="Const">
			<output>
				<port id="1" precision="FP32">
					<dim>1</dim>
					<dim>1</dim>
					<dim>1</dim>
					<dim>1</dim>
				</port>
			</output>
			<blobs>
				<custom offset="480968" precision="FP32" size="4"/>
			</blobs>
		</layer>
		<layer id="288" name="Copy_MobilenetV2/expanded_conv_6/expand/weights_quant/FakeQuantWithMinMaxVars/nudged_min/Output_0/Data_11049/copy_const" type="Const">
			<output>
				<port id="1" precision="FP32">
					<dim>1</dim>
					<dim>1</dim>
					<dim>1</dim>
					<dim>1</dim>
				</port>
			</output>
			<blobs>
				<custom offset="480964" precision="FP32" size="4"/>
			</blobs>
		</layer>
		<layer id="289" name="Copy_MobilenetV2/expanded_conv_6/expand/weights_quant/FakeQuantWithMinMaxVars/nudged_max/Output_0/Data_11075/copy_const" type="Const">
			<output>
				<port id="1" precision="FP32">
					<dim>1</dim>
					<dim>1</dim>
					<dim>1</dim>
					<dim>1</dim>
				</port>
			</output>
			<blobs>
				<custom offset="480968" precision="FP32" size="4"/>
			</blobs>
		</layer>
		<layer id="290" name="MobilenetV2/expanded_conv_6/expand/weights_quant/FakeQuantWithMinMaxVars" type="FakeQuantize">
			<data levels="255"/>
			<input>
				<port id="0">
					<dim>288</dim>
					<dim>48</dim>
					<dim>1</dim>
					<dim>1</dim>
				</port>
				<port id="1">
					<dim>1</dim>
					<dim>1</dim>
					<dim>1</dim>
					<dim>1</dim>
				</port>
				<port id="2">
					<dim>1</dim>
					<dim>1</dim>
					<dim>1</dim>
					<dim>1</dim>
				</port>
				<port id="3">
					<dim>1</dim>
					<dim>1</dim>
					<dim>1</dim>
					<dim>1</dim>
				</port>
				<port id="4">
					<dim>1</dim>
					<dim>1</dim>
					<dim>1</dim>
					<dim>1</dim>
				</port>
			</input>
			<output>
				<port id="5" precision="FP32">
					<dim>288</dim>
					<dim>48</dim>
					<dim>1</dim>
					<dim>1</dim>
				</port>
			</output>
		</layer>
		<layer id="291" name="bias_data2614026141_const" type="Const">
			<output>
				<port id="1" precision="FP32">
					<dim>288</dim>
				</port>
			</output>
			<blobs>
				<custom offset="480972" precision="FP32" size="1152"/>
			</blobs>
		</layer>
		<layer id="292" name="MobilenetV2/expanded_conv_6/expand/Conv2D_Fold" type="Convolution">
			<data auto_pad="same_upper" dilations="1,1" group="1" kernel="1,1" output="288" pads_begin="0,0" pads_end="0,0" strides="1,1"/>
			<input>
				<port id="0">
					<dim>1</dim>
					<dim>48</dim>
					<dim>28</dim>
					<dim>28</dim>
				</port>
				<port id="1">
					<dim>288</dim>
					<dim>48</dim>
					<dim>1</dim>
					<dim>1</dim>
				</port>
				<port id="2">
					<dim>288</dim>
				</port>
			</input>
			<output>
				<port id="3" precision="FP32">
					<dim>1</dim>
					<dim>288</dim>
					<dim>28</dim>
					<dim>28</dim>
				</port>
			</output>
		</layer>
		<layer id="293" name="MobilenetV2/expanded_conv_6/expand/Relu6" type="Clamp">
			<data max="6" min="0"/>
			<input>
				<port id="0">
					<dim>1</dim>
					<dim>288</dim>
					<dim>28</dim>
					<dim>28</dim>
				</port>
			</input>
			<output>
				<port id="1" precision="FP32">
					<dim>1</dim>
					<dim>288</dim>
					<dim>28</dim>
					<dim>28</dim>
				</port>
			</output>
		</layer>
		<layer id="294" name="Copy_MobilenetV2/expanded_conv_6/expand/act_quant/FakeQuantWithMinMaxVars/nudged_min/Output_0/Data_/copy_const" type="Const">
			<output>
				<port id="1" precision="FP32">
					<dim>1</dim>
					<dim>1</dim>
					<dim>1</dim>
					<dim>1</dim>
				</port>
			</output>
			<blobs>
				<custom offset="5412" precision="FP32" size="4"/>
			</blobs>
		</layer>
		<layer id="295" name="Copy_MobilenetV2/expanded_conv_6/expand/act_quant/FakeQuantWithMinMaxVars/nudged_max/Output_0/Data_/copy_const" type="Const">
			<output>
				<port id="1" precision="FP32">
					<dim>1</dim>
					<dim>1</dim>
					<dim>1</dim>
					<dim>1</dim>
				</port>
			</output>
			<blobs>
				<custom offset="5416" precision="FP32" size="4"/>
			</blobs>
		</layer>
		<layer id="296" name="Copy_MobilenetV2/expanded_conv_6/expand/act_quant/FakeQuantWithMinMaxVars/nudged_min/Output_0/Data_11103/copy_const" type="Const">
			<output>
				<port id="1" precision="FP32">
					<dim>1</dim>
					<dim>1</dim>
					<dim>1</dim>
					<dim>1</dim>
				</port>
			</output>
			<blobs>
				<custom offset="5412" precision="FP32" size="4"/>
			</blobs>
		</layer>
		<layer id="297" name="Copy_MobilenetV2/expanded_conv_6/expand/act_quant/FakeQuantWithMinMaxVars/nudged_max/Output_0/Data_10895/copy_const" type="Const">
			<output>
				<port id="1" precision="FP32">
					<dim>1</dim>
					<dim>1</dim>
					<dim>1</dim>
					<dim>1</dim>
				</port>
			</output>
			<blobs>
				<custom offset="5416" precision="FP32" size="4"/>
			</blobs>
		</layer>
		<layer id="298" name="MobilenetV2/expanded_conv_6/expand/act_quant/FakeQuantWithMinMaxVars" type="FakeQuantize">
			<data levels="256"/>
			<input>
				<port id="0">
					<dim>1</dim>
					<dim>288</dim>
					<dim>28</dim>
					<dim>28</dim>
				</port>
				<port id="1">
					<dim>1</dim>
					<dim>1</dim>
					<dim>1</dim>
					<dim>1</dim>
				</port>
				<port id="2">
					<dim>1</dim>
					<dim>1</dim>
					<dim>1</dim>
					<dim>1</dim>
				</port>
				<port id="3">
					<dim>1</dim>
					<dim>1</dim>
					<dim>1</dim>
					<dim>1</dim>
				</port>
				<port id="4">
					<dim>1</dim>
					<dim>1</dim>
					<dim>1</dim>
					<dim>1</dim>
				</port>
			</input>
			<output>
				<port id="5" precision="FP32">
					<dim>1</dim>
					<dim>288</dim>
					<dim>28</dim>
					<dim>28</dim>
				</port>
			</output>
		</layer>
		<layer id="299" name="MobilenetV2/expanded_conv_6/depthwise/mul_fold/Output_0/Data__const" type="Const">
			<output>
				<port id="1" precision="FP32">
					<dim>288</dim>
					<dim>1</dim>
					<dim>3</dim>
					<dim>3</dim>
				</port>
			</output>
			<blobs>
				<custom offset="482124" precision="FP32" size="10368"/>
			</blobs>
		</layer>
		<layer id="300" name="Copy_MobilenetV2/expanded_conv_6/depthwise/weights_quant/FakeQuantWithMinMaxVars/nudged_min/Output_0/Data_/copy_const" type="Const">
			<output>
				<port id="1" precision="FP32">
					<dim>1</dim>
					<dim>1</dim>
					<dim>1</dim>
					<dim>1</dim>
				</port>
			</output>
			<blobs>
				<custom offset="492492" precision="FP32" size="4"/>
			</blobs>
		</layer>
		<layer id="301" name="Copy_MobilenetV2/expanded_conv_6/depthwise/weights_quant/FakeQuantWithMinMaxVars/nudged_max/Output_0/Data_/copy_const" type="Const">
			<output>
				<port id="1" precision="FP32">
					<dim>1</dim>
					<dim>1</dim>
					<dim>1</dim>
					<dim>1</dim>
				</port>
			</output>
			<blobs>
				<custom offset="492496" precision="FP32" size="4"/>
			</blobs>
		</layer>
		<layer id="302" name="Copy_MobilenetV2/expanded_conv_6/depthwise/weights_quant/FakeQuantWithMinMaxVars/nudged_min/Output_0/Data_11055/copy_const" type="Const">
			<output>
				<port id="1" precision="FP32">
					<dim>1</dim>
					<dim>1</dim>
					<dim>1</dim>
					<dim>1</dim>
				</port>
			</output>
			<blobs>
				<custom offset="492492" precision="FP32" size="4"/>
			</blobs>
		</layer>
		<layer id="303" name="Copy_MobilenetV2/expanded_conv_6/depthwise/weights_quant/FakeQuantWithMinMaxVars/nudged_max/Output_0/Data_11109/copy_const" type="Const">
			<output>
				<port id="1" precision="FP32">
					<dim>1</dim>
					<dim>1</dim>
					<dim>1</dim>
					<dim>1</dim>
				</port>
			</output>
			<blobs>
				<custom offset="492496" precision="FP32" size="4"/>
			</blobs>
		</layer>
		<layer id="304" name="MobilenetV2/expanded_conv_6/depthwise/weights_quant/FakeQuantWithMinMaxVars" type="FakeQuantize">
			<data levels="255"/>
			<input>
				<port id="0">
					<dim>288</dim>
					<dim>1</dim>
					<dim>3</dim>
					<dim>3</dim>
				</port>
				<port id="1">
					<dim>1</dim>
					<dim>1</dim>
					<dim>1</dim>
					<dim>1</dim>
				</port>
				<port id="2">
					<dim>1</dim>
					<dim>1</dim>
					<dim>1</dim>
					<dim>1</dim>
				</port>
				<port id="3">
					<dim>1</dim>
					<dim>1</dim>
					<dim>1</dim>
					<dim>1</dim>
				</port>
				<port id="4">
					<dim>1</dim>
					<dim>1</dim>
					<dim>1</dim>
					<dim>1</dim>
				</port>
			</input>
			<output>
				<port id="5" precision="FP32">
					<dim>288</dim>
					<dim>1</dim>
					<dim>3</dim>
					<dim>3</dim>
				</port>
			</output>
		</layer>
		<layer id="305" name="bias_data2614226143_const" type="Const">
			<output>
				<port id="1" precision="FP32">
					<dim>288</dim>
				</port>
			</output>
			<blobs>
				<custom offset="492500" precision="FP32" size="1152"/>
			</blobs>
		</layer>
		<layer id="306" name="MobilenetV2/expanded_conv_6/depthwise/depthwise_Fold" type="Convolution">
			<data auto_pad="same_upper" dilations="1,1" group="288" kernel="3,3" output="288" pads_begin="0,0" pads_end="1,1" strides="2,2"/>
			<input>
				<port id="0">
					<dim>1</dim>
					<dim>288</dim>
					<dim>28</dim>
					<dim>28</dim>
				</port>
				<port id="1">
					<dim>288</dim>
					<dim>1</dim>
					<dim>3</dim>
					<dim>3</dim>
				</port>
				<port id="2">
					<dim>288</dim>
				</port>
			</input>
			<output>
				<port id="3" precision="FP32">
					<dim>1</dim>
					<dim>288</dim>
					<dim>14</dim>
					<dim>14</dim>
				</port>
			</output>
		</layer>
		<layer id="307" name="MobilenetV2/expanded_conv_6/depthwise/Relu6" type="Clamp">
			<data max="6" min="0"/>
			<input>
				<port id="0">
					<dim>1</dim>
					<dim>288</dim>
					<dim>14</dim>
					<dim>14</dim>
				</port>
			</input>
			<output>
				<port id="1" precision="FP32">
					<dim>1</dim>
					<dim>288</dim>
					<dim>14</dim>
					<dim>14</dim>
				</port>
			</output>
		</layer>
		<layer id="308" name="Copy_MobilenetV2/expanded_conv_6/depthwise/act_quant/FakeQuantWithMinMaxVars/nudged_min/Output_0/Data_/copy_const" type="Const">
			<output>
				<port id="1" precision="FP32">
					<dim>1</dim>
					<dim>1</dim>
					<dim>1</dim>
					<dim>1</dim>
				</port>
			</output>
			<blobs>
				<custom offset="5412" precision="FP32" size="4"/>
			</blobs>
		</layer>
		<layer id="309" name="Copy_MobilenetV2/expanded_conv_6/depthwise/act_quant/FakeQuantWithMinMaxVars/nudged_max/Output_0/Data_/copy_const" type="Const">
			<output>
				<port id="1" precision="FP32">
					<dim>1</dim>
					<dim>1</dim>
					<dim>1</dim>
					<dim>1</dim>
				</port>
			</output>
			<blobs>
				<custom offset="5416" precision="FP32" size="4"/>
			</blobs>
		</layer>
		<layer id="310" name="Copy_MobilenetV2/expanded_conv_6/depthwise/act_quant/FakeQuantWithMinMaxVars/nudged_min/Output_0/Data_11091/copy_const" type="Const">
			<output>
				<port id="1" precision="FP32">
					<dim>1</dim>
					<dim>1</dim>
					<dim>1</dim>
					<dim>1</dim>
				</port>
			</output>
			<blobs>
				<custom offset="5412" precision="FP32" size="4"/>
			</blobs>
		</layer>
		<layer id="311" name="Copy_MobilenetV2/expanded_conv_6/depthwise/act_quant/FakeQuantWithMinMaxVars/nudged_max/Output_0/Data_10899/copy_const" type="Const">
			<output>
				<port id="1" precision="FP32">
					<dim>1</dim>
					<dim>1</dim>
					<dim>1</dim>
					<dim>1</dim>
				</port>
			</output>
			<blobs>
				<custom offset="5416" precision="FP32" size="4"/>
			</blobs>
		</layer>
		<layer id="312" name="MobilenetV2/expanded_conv_6/depthwise/act_quant/FakeQuantWithMinMaxVars" type="FakeQuantize">
			<data levels="256"/>
			<input>
				<port id="0">
					<dim>1</dim>
					<dim>288</dim>
					<dim>14</dim>
					<dim>14</dim>
				</port>
				<port id="1">
					<dim>1</dim>
					<dim>1</dim>
					<dim>1</dim>
					<dim>1</dim>
				</port>
				<port id="2">
					<dim>1</dim>
					<dim>1</dim>
					<dim>1</dim>
					<dim>1</dim>
				</port>
				<port id="3">
					<dim>1</dim>
					<dim>1</dim>
					<dim>1</dim>
					<dim>1</dim>
				</port>
				<port id="4">
					<dim>1</dim>
					<dim>1</dim>
					<dim>1</dim>
					<dim>1</dim>
				</port>
			</input>
			<output>
				<port id="5" precision="FP32">
					<dim>1</dim>
					<dim>288</dim>
					<dim>14</dim>
					<dim>14</dim>
				</port>
			</output>
		</layer>
		<layer id="313" name="MobilenetV2/expanded_conv_6/project/mul_fold/Output_0/Data__const" type="Const">
			<output>
				<port id="1" precision="FP32">
					<dim>88</dim>
					<dim>288</dim>
					<dim>1</dim>
					<dim>1</dim>
				</port>
			</output>
			<blobs>
				<custom offset="493652" precision="FP32" size="101376"/>
			</blobs>
		</layer>
		<layer id="314" name="Copy_MobilenetV2/expanded_conv_6/project/weights_quant/FakeQuantWithMinMaxVars/nudged_min/Output_0/Data_/copy_const" type="Const">
			<output>
				<port id="1" precision="FP32">
					<dim>1</dim>
					<dim>1</dim>
					<dim>1</dim>
					<dim>1</dim>
				</port>
			</output>
			<blobs>
				<custom offset="595028" precision="FP32" size="4"/>
			</blobs>
		</layer>
		<layer id="315" name="Copy_MobilenetV2/expanded_conv_6/project/weights_quant/FakeQuantWithMinMaxVars/nudged_max/Output_0/Data_/copy_const" type="Const">
			<output>
				<port id="1" precision="FP32">
					<dim>1</dim>
					<dim>1</dim>
					<dim>1</dim>
					<dim>1</dim>
				</port>
			</output>
			<blobs>
				<custom offset="595032" precision="FP32" size="4"/>
			</blobs>
		</layer>
		<layer id="316" name="Copy_MobilenetV2/expanded_conv_6/project/weights_quant/FakeQuantWithMinMaxVars/nudged_min/Output_0/Data_10947/copy_const" type="Const">
			<output>
				<port id="1" precision="FP32">
					<dim>1</dim>
					<dim>1</dim>
					<dim>1</dim>
					<dim>1</dim>
				</port>
			</output>
			<blobs>
				<custom offset="595028" precision="FP32" size="4"/>
			</blobs>
		</layer>
		<layer id="317" name="Copy_MobilenetV2/expanded_conv_6/project/weights_quant/FakeQuantWithMinMaxVars/nudged_max/Output_0/Data_11027/copy_const" type="Const">
			<output>
				<port id="1" precision="FP32">
					<dim>1</dim>
					<dim>1</dim>
					<dim>1</dim>
					<dim>1</dim>
				</port>
			</output>
			<blobs>
				<custom offset="595032" precision="FP32" size="4"/>
			</blobs>
		</layer>
		<layer id="318" name="MobilenetV2/expanded_conv_6/project/weights_quant/FakeQuantWithMinMaxVars" type="FakeQuantize">
			<data levels="255"/>
			<input>
				<port id="0">
					<dim>88</dim>
					<dim>288</dim>
					<dim>1</dim>
					<dim>1</dim>
				</port>
				<port id="1">
					<dim>1</dim>
					<dim>1</dim>
					<dim>1</dim>
					<dim>1</dim>
				</port>
				<port id="2">
					<dim>1</dim>
					<dim>1</dim>
					<dim>1</dim>
					<dim>1</dim>
				</port>
				<port id="3">
					<dim>1</dim>
					<dim>1</dim>
					<dim>1</dim>
					<dim>1</dim>
				</port>
				<port id="4">
					<dim>1</dim>
					<dim>1</dim>
					<dim>1</dim>
					<dim>1</dim>
				</port>
			</input>
			<output>
				<port id="5" precision="FP32">
					<dim>88</dim>
					<dim>288</dim>
					<dim>1</dim>
					<dim>1</dim>
				</port>
			</output>
		</layer>
		<layer id="319" name="bias_data2614426145_const" type="Const">
			<output>
				<port id="1" precision="FP32">
					<dim>88</dim>
				</port>
			</output>
			<blobs>
				<custom offset="595036" precision="FP32" size="352"/>
			</blobs>
		</layer>
		<layer id="320" name="MobilenetV2/expanded_conv_6/project/Conv2D_Fold" type="Convolution">
			<data auto_pad="same_upper" dilations="1,1" group="1" kernel="1,1" output="88" pads_begin="0,0" pads_end="0,0" strides="1,1"/>
			<input>
				<port id="0">
					<dim>1</dim>
					<dim>288</dim>
					<dim>14</dim>
					<dim>14</dim>
				</port>
				<port id="1">
					<dim>88</dim>
					<dim>288</dim>
					<dim>1</dim>
					<dim>1</dim>
				</port>
				<port id="2">
					<dim>88</dim>
				</port>
			</input>
			<output>
				<port id="3" precision="FP32">
					<dim>1</dim>
					<dim>88</dim>
					<dim>14</dim>
					<dim>14</dim>
				</port>
			</output>
		</layer>
		<layer id="321" name="Copy_MobilenetV2/expanded_conv_6/project/act_quant/FakeQuantWithMinMaxVars/nudged_min/Output_0/Data_/copy_const" type="Const">
			<output>
				<port id="1" precision="FP32">
					<dim>1</dim>
					<dim>1</dim>
					<dim>1</dim>
					<dim>1</dim>
				</port>
			</output>
			<blobs>
				<custom offset="595388" precision="FP32" size="4"/>
			</blobs>
		</layer>
		<layer id="322" name="Copy_MobilenetV2/expanded_conv_6/project/act_quant/FakeQuantWithMinMaxVars/nudged_max/Output_0/Data_/copy_const" type="Const">
			<output>
				<port id="1" precision="FP32">
					<dim>1</dim>
					<dim>1</dim>
					<dim>1</dim>
					<dim>1</dim>
				</port>
			</output>
			<blobs>
				<custom offset="595392" precision="FP32" size="4"/>
			</blobs>
		</layer>
		<layer id="323" name="Copy_MobilenetV2/expanded_conv_6/project/act_quant/FakeQuantWithMinMaxVars/nudged_min/Output_0/Data_10759/copy_const" type="Const">
			<output>
				<port id="1" precision="FP32">
					<dim>1</dim>
					<dim>1</dim>
					<dim>1</dim>
					<dim>1</dim>
				</port>
			</output>
			<blobs>
				<custom offset="595388" precision="FP32" size="4"/>
			</blobs>
		</layer>
		<layer id="324" name="Copy_MobilenetV2/expanded_conv_6/project/act_quant/FakeQuantWithMinMaxVars/nudged_max/Output_0/Data_10679/copy_const" type="Const">
			<output>
				<port id="1" precision="FP32">
					<dim>1</dim>
					<dim>1</dim>
					<dim>1</dim>
					<dim>1</dim>
				</port>
			</output>
			<blobs>
				<custom offset="595392" precision="FP32" size="4"/>
			</blobs>
		</layer>
		<layer id="325" name="MobilenetV2/expanded_conv_6/project/act_quant/FakeQuantWithMinMaxVars" type="FakeQuantize">
			<data levels="256"/>
			<input>
				<port id="0">
					<dim>1</dim>
					<dim>88</dim>
					<dim>14</dim>
					<dim>14</dim>
				</port>
				<port id="1">
					<dim>1</dim>
					<dim>1</dim>
					<dim>1</dim>
					<dim>1</dim>
				</port>
				<port id="2">
					<dim>1</dim>
					<dim>1</dim>
					<dim>1</dim>
					<dim>1</dim>
				</port>
				<port id="3">
					<dim>1</dim>
					<dim>1</dim>
					<dim>1</dim>
					<dim>1</dim>
				</port>
				<port id="4">
					<dim>1</dim>
					<dim>1</dim>
					<dim>1</dim>
					<dim>1</dim>
				</port>
			</input>
			<output>
				<port id="5" precision="FP32">
					<dim>1</dim>
					<dim>88</dim>
					<dim>14</dim>
					<dim>14</dim>
				</port>
			</output>
		</layer>
		<layer id="326" name="MobilenetV2/expanded_conv_7/expand/mul_fold/Output_0/Data__const" type="Const">
			<output>
				<port id="1" precision="FP32">
					<dim>528</dim>
					<dim>88</dim>
					<dim>1</dim>
					<dim>1</dim>
				</port>
			</output>
			<blobs>
				<custom offset="595396" precision="FP32" size="185856"/>
			</blobs>
		</layer>
		<layer id="327" name="Copy_MobilenetV2/expanded_conv_7/expand/weights_quant/FakeQuantWithMinMaxVars/nudged_min/Output_0/Data_/copy_const" type="Const">
			<output>
				<port id="1" precision="FP32">
					<dim>1</dim>
					<dim>1</dim>
					<dim>1</dim>
					<dim>1</dim>
				</port>
			</output>
			<blobs>
				<custom offset="781252" precision="FP32" size="4"/>
			</blobs>
		</layer>
		<layer id="328" name="Copy_MobilenetV2/expanded_conv_7/expand/weights_quant/FakeQuantWithMinMaxVars/nudged_max/Output_0/Data_/copy_const" type="Const">
			<output>
				<port id="1" precision="FP32">
					<dim>1</dim>
					<dim>1</dim>
					<dim>1</dim>
					<dim>1</dim>
				</port>
			</output>
			<blobs>
				<custom offset="781256" precision="FP32" size="4"/>
			</blobs>
		</layer>
		<layer id="329" name="Copy_MobilenetV2/expanded_conv_7/expand/weights_quant/FakeQuantWithMinMaxVars/nudged_min/Output_0/Data_11085/copy_const" type="Const">
			<output>
				<port id="1" precision="FP32">
					<dim>1</dim>
					<dim>1</dim>
					<dim>1</dim>
					<dim>1</dim>
				</port>
			</output>
			<blobs>
				<custom offset="781252" precision="FP32" size="4"/>
			</blobs>
		</layer>
		<layer id="330" name="Copy_MobilenetV2/expanded_conv_7/expand/weights_quant/FakeQuantWithMinMaxVars/nudged_max/Output_0/Data_10733/copy_const" type="Const">
			<output>
				<port id="1" precision="FP32">
					<dim>1</dim>
					<dim>1</dim>
					<dim>1</dim>
					<dim>1</dim>
				</port>
			</output>
			<blobs>
				<custom offset="781256" precision="FP32" size="4"/>
			</blobs>
		</layer>
		<layer id="331" name="MobilenetV2/expanded_conv_7/expand/weights_quant/FakeQuantWithMinMaxVars" type="FakeQuantize">
			<data levels="255"/>
			<input>
				<port id="0">
					<dim>528</dim>
					<dim>88</dim>
					<dim>1</dim>
					<dim>1</dim>
				</port>
				<port id="1">
					<dim>1</dim>
					<dim>1</dim>
					<dim>1</dim>
					<dim>1</dim>
				</port>
				<port id="2">
					<dim>1</dim>
					<dim>1</dim>
					<dim>1</dim>
					<dim>1</dim>
				</port>
				<port id="3">
					<dim>1</dim>
					<dim>1</dim>
					<dim>1</dim>
					<dim>1</dim>
				</port>
				<port id="4">
					<dim>1</dim>
					<dim>1</dim>
					<dim>1</dim>
					<dim>1</dim>
				</port>
			</input>
			<output>
				<port id="5" precision="FP32">
					<dim>528</dim>
					<dim>88</dim>
					<dim>1</dim>
					<dim>1</dim>
				</port>
			</output>
		</layer>
		<layer id="332" name="bias_data2614626147_const" type="Const">
			<output>
				<port id="1" precision="FP32">
					<dim>528</dim>
				</port>
			</output>
			<blobs>
				<custom offset="781260" precision="FP32" size="2112"/>
			</blobs>
		</layer>
		<layer id="333" name="MobilenetV2/expanded_conv_7/expand/Conv2D_Fold" type="Convolution">
			<data auto_pad="same_upper" dilations="1,1" group="1" kernel="1,1" output="528" pads_begin="0,0" pads_end="0,0" strides="1,1"/>
			<input>
				<port id="0">
					<dim>1</dim>
					<dim>88</dim>
					<dim>14</dim>
					<dim>14</dim>
				</port>
				<port id="1">
					<dim>528</dim>
					<dim>88</dim>
					<dim>1</dim>
					<dim>1</dim>
				</port>
				<port id="2">
					<dim>528</dim>
				</port>
			</input>
			<output>
				<port id="3" precision="FP32">
					<dim>1</dim>
					<dim>528</dim>
					<dim>14</dim>
					<dim>14</dim>
				</port>
			</output>
		</layer>
		<layer id="334" name="MobilenetV2/expanded_conv_7/expand/Relu6" type="Clamp">
			<data max="6" min="0"/>
			<input>
				<port id="0">
					<dim>1</dim>
					<dim>528</dim>
					<dim>14</dim>
					<dim>14</dim>
				</port>
			</input>
			<output>
				<port id="1" precision="FP32">
					<dim>1</dim>
					<dim>528</dim>
					<dim>14</dim>
					<dim>14</dim>
				</port>
			</output>
		</layer>
		<layer id="335" name="Copy_MobilenetV2/expanded_conv_7/expand/act_quant/FakeQuantWithMinMaxVars/nudged_min/Output_0/Data_/copy_const" type="Const">
			<output>
				<port id="1" precision="FP32">
					<dim>1</dim>
					<dim>1</dim>
					<dim>1</dim>
					<dim>1</dim>
				</port>
			</output>
			<blobs>
				<custom offset="5412" precision="FP32" size="4"/>
			</blobs>
		</layer>
		<layer id="336" name="Copy_MobilenetV2/expanded_conv_7/expand/act_quant/FakeQuantWithMinMaxVars/nudged_max/Output_0/Data_/copy_const" type="Const">
			<output>
				<port id="1" precision="FP32">
					<dim>1</dim>
					<dim>1</dim>
					<dim>1</dim>
					<dim>1</dim>
				</port>
			</output>
			<blobs>
				<custom offset="5416" precision="FP32" size="4"/>
			</blobs>
		</layer>
		<layer id="337" name="Copy_MobilenetV2/expanded_conv_7/expand/act_quant/FakeQuantWithMinMaxVars/nudged_min/Output_0/Data_10969/copy_const" type="Const">
			<output>
				<port id="1" precision="FP32">
					<dim>1</dim>
					<dim>1</dim>
					<dim>1</dim>
					<dim>1</dim>
				</port>
			</output>
			<blobs>
				<custom offset="5412" precision="FP32" size="4"/>
			</blobs>
		</layer>
		<layer id="338" name="Copy_MobilenetV2/expanded_conv_7/expand/act_quant/FakeQuantWithMinMaxVars/nudged_max/Output_0/Data_10877/copy_const" type="Const">
			<output>
				<port id="1" precision="FP32">
					<dim>1</dim>
					<dim>1</dim>
					<dim>1</dim>
					<dim>1</dim>
				</port>
			</output>
			<blobs>
				<custom offset="5416" precision="FP32" size="4"/>
			</blobs>
		</layer>
		<layer id="339" name="MobilenetV2/expanded_conv_7/expand/act_quant/FakeQuantWithMinMaxVars" type="FakeQuantize">
			<data levels="256"/>
			<input>
				<port id="0">
					<dim>1</dim>
					<dim>528</dim>
					<dim>14</dim>
					<dim>14</dim>
				</port>
				<port id="1">
					<dim>1</dim>
					<dim>1</dim>
					<dim>1</dim>
					<dim>1</dim>
				</port>
				<port id="2">
					<dim>1</dim>
					<dim>1</dim>
					<dim>1</dim>
					<dim>1</dim>
				</port>
				<port id="3">
					<dim>1</dim>
					<dim>1</dim>
					<dim>1</dim>
					<dim>1</dim>
				</port>
				<port id="4">
					<dim>1</dim>
					<dim>1</dim>
					<dim>1</dim>
					<dim>1</dim>
				</port>
			</input>
			<output>
				<port id="5" precision="FP32">
					<dim>1</dim>
					<dim>528</dim>
					<dim>14</dim>
					<dim>14</dim>
				</port>
			</output>
		</layer>
		<layer id="340" name="MobilenetV2/expanded_conv_7/depthwise/mul_fold/Output_0/Data__const" type="Const">
			<output>
				<port id="1" precision="FP32">
					<dim>528</dim>
					<dim>1</dim>
					<dim>3</dim>
					<dim>3</dim>
				</port>
			</output>
			<blobs>
				<custom offset="783372" precision="FP32" size="19008"/>
			</blobs>
		</layer>
		<layer id="341" name="Copy_MobilenetV2/expanded_conv_7/depthwise/weights_quant/FakeQuantWithMinMaxVars/nudged_min/Output_0/Data_/copy_const" type="Const">
			<output>
				<port id="1" precision="FP32">
					<dim>1</dim>
					<dim>1</dim>
					<dim>1</dim>
					<dim>1</dim>
				</port>
			</output>
			<blobs>
				<custom offset="802380" precision="FP32" size="4"/>
			</blobs>
		</layer>
		<layer id="342" name="Copy_MobilenetV2/expanded_conv_7/depthwise/weights_quant/FakeQuantWithMinMaxVars/nudged_max/Output_0/Data_/copy_const" type="Const">
			<output>
				<port id="1" precision="FP32">
					<dim>1</dim>
					<dim>1</dim>
					<dim>1</dim>
					<dim>1</dim>
				</port>
			</output>
			<blobs>
				<custom offset="802384" precision="FP32" size="4"/>
			</blobs>
		</layer>
		<layer id="343" name="Copy_MobilenetV2/expanded_conv_7/depthwise/weights_quant/FakeQuantWithMinMaxVars/nudged_min/Output_0/Data_10721/copy_const" type="Const">
			<output>
				<port id="1" precision="FP32">
					<dim>1</dim>
					<dim>1</dim>
					<dim>1</dim>
					<dim>1</dim>
				</port>
			</output>
			<blobs>
				<custom offset="802380" precision="FP32" size="4"/>
			</blobs>
		</layer>
		<layer id="344" name="Copy_MobilenetV2/expanded_conv_7/depthwise/weights_quant/FakeQuantWithMinMaxVars/nudged_max/Output_0/Data_10719/copy_const" type="Const">
			<output>
				<port id="1" precision="FP32">
					<dim>1</dim>
					<dim>1</dim>
					<dim>1</dim>
					<dim>1</dim>
				</port>
			</output>
			<blobs>
				<custom offset="802384" precision="FP32" size="4"/>
			</blobs>
…
		<edge from-layer="112" from-port="1" to-layer="116" to-port="1"/>
		<edge from-layer="113" from-port="1" to-layer="116" to-port="2"/>
		<edge from-layer="114" from-port="1" to-layer="116" to-port="3"/>
		<edge from-layer="115" from-port="1" to-layer="116" to-port="4"/>
		<edge from-layer="117" from-port="1" to-layer="122" to-port="0"/>
		<edge from-layer="118" from-port="1" to-layer="122" to-port="1"/>
		<edge from-layer="119" from-port="1" to-layer="122" to-port="2"/>
		<edge from-layer="120" from-port="1" to-layer="122" to-port="3"/>
		<edge from-layer="121" from-port="1" to-layer="122" to-port="4"/>
		<edge from-layer="116" from-port="5" to-layer="124" to-port="0"/>
		<edge from-layer="122" from-port="5" to-layer="124" to-port="1"/>
		<edge from-layer="123" from-port="1" to-layer="124" to-port="2"/>
		<edge from-layer="124" from-port="3" to-layer="125" to-port="0"/>
		<edge from-layer="125" from-port="1" to-layer="130" to-port="0"/>
		<edge from-layer="126" from-port="1" to-layer="130" to-port="1"/>
		<edge from-layer="127" from-port="1" to-layer="130" to-port="2"/>
		<edge from-layer="128" from-port="1" to-layer="130" to-port="3"/>
		<edge from-layer="129" from-port="1" to-layer="130" to-port="4"/>
		<edge from-layer="131" from-port="1" to-layer="136" to-port="0"/>
		<edge from-layer="132" from-port="1" to-layer="136" to-port="1"/>
		<edge from-layer="133" from-port="1" to-layer="136" to-port="2"/>
		<edge from-layer="134" from-port="1" to-layer="136" to-port="3"/>
		<edge from-layer="135" from-port="1" to-layer="136" to-port="4"/>
		<edge from-layer="130" from-port="5" to-layer="138" to-port="0"/>
		<edge from-layer="136" from-port="5" to-layer="138" to-port="1"/>
		<edge from-layer="137" from-port="1" to-layer="138" to-port="2"/>
		<edge from-layer="138" from-port="3" to-layer="143" to-port="0"/>
		<edge from-layer="139" from-port="1" to-layer="143" to-port="1"/>
		<edge from-layer="140" from-port="1" to-layer="143" to-port="2"/>
		<edge from-layer="141" from-port="1" to-layer="143" to-port="3"/>
		<edge from-layer="142" from-port="1" to-layer="143" to-port="4"/>
		<edge from-layer="143" from-port="5" to-layer="144" to-port="0"/>
		<edge from-layer="102" from-port="5" to-layer="144" to-port="1"/>
		<edge from-layer="144" from-port="2" to-layer="149" to-port="0"/>
		<edge from-layer="145" from-port="1" to-layer="149" to-port="1"/>
		<edge from-layer="146" from-port="1" to-layer="149" to-port="2"/>
		<edge from-layer="147" from-port="1" to-layer="149" to-port="3"/>
		<edge from-layer="148" from-port="1" to-layer="149" to-port="4"/>
		<edge from-layer="150" from-port="1" to-layer="155" to-port="0"/>
		<edge from-layer="151" from-port="1" to-layer="155" to-port="1"/>
		<edge from-layer="152" from-port="1" to-layer="155" to-port="2"/>
		<edge from-layer="153" from-port="1" to-layer="155" to-port="3"/>
		<edge from-layer="154" from-port="1" to-layer="155" to-port="4"/>
		<edge from-layer="149" from-port="5" to-layer="157" to-port="0"/>
		<edge from-layer="155" from-port="5" to-layer="157" to-port="1"/>
		<edge from-layer="156" from-port="1" to-layer="157" to-port="2"/>
		<edge from-layer="157" from-port="3" to-layer="158" to-port="0"/>
		<edge from-layer="158" from-port="1" to-layer="163" to-port="0"/>
		<edge from-layer="159" from-port="1" to-layer="163" to-port="1"/>
		<edge from-layer="160" from-port="1" to-layer="163" to-port="2"/>
		<edge from-layer="161" from-port="1" to-layer="163" to-port="3"/>
		<edge from-layer="162" from-port="1" to-layer="163" to-port="4"/>
		<edge from-layer="164" from-port="1" to-layer="169" to-port="0"/>
		<edge from-layer="165" from-port="1" to-layer="169" to-port="1"/>
		<edge from-layer="166" from-port="1" to-layer="169" to-port="2"/>
		<edge from-layer="167" from-port="1" to-layer="169" to-port="3"/>
		<edge from-layer="168" from-port="1" to-layer="169" to-port="4"/>
		<edge from-layer="163" from-port="5" to-layer="171" to-port="0"/>
		<edge from-layer="169" from-port="5" to-layer="171" to-port="1"/>
		<edge from-layer="170" from-port="1" to-layer="171" to-port="2"/>
		<edge from-layer="171" from-port="3" to-layer="172" to-port="0"/>
		<edge from-layer="172" from-port="1" to-layer="177" to-port="0"/>
		<edge from-layer="173" from-port="1" to-layer="177" to-port="1"/>
		<edge from-layer="174" from-port="1" to-layer="177" to-port="2"/>
		<edge from-layer="175" from-port="1" to-layer="177" to-port="3"/>
		<edge from-layer="176" from-port="1" to-layer="177" to-port="4"/>
		<edge from-layer="178" from-port="1" to-layer="183" to-port="0"/>
		<edge from-layer="179" from-port="1" to-layer="183" to-port="1"/>
		<edge from-layer="180" from-port="1" to-layer="183" to-port="2"/>
		<edge from-layer="181" from-port="1" to-layer="183" to-port="3"/>
		<edge from-layer="182" from-port="1" to-layer="183" to-port="4"/>
		<edge from-layer="177" from-port="5" to-layer="185" to-port="0"/>
		<edge from-layer="183" from-port="5" to-layer="185" to-port="1"/>
		<edge from-layer="184" from-port="1" to-layer="185" to-port="2"/>
		<edge from-layer="185" from-port="3" to-layer="190" to-port="0"/>
		<edge from-layer="186" from-port="1" to-layer="190" to-port="1"/>
		<edge from-layer="187" from-port="1" to-layer="190" to-port="2"/>
		<edge from-layer="188" from-port="1" to-layer="190" to-port="3"/>
		<edge from-layer="189" from-port="1" to-layer="190" to-port="4"/>
		<edge from-layer="191" from-port="1" to-layer="196" to-port="0"/>
		<edge from-layer="192" from-port="1" to-layer="196" to-port="1"/>
		<edge from-layer="193" from-port="1" to-layer="196" to-port="2"/>
		<edge from-layer="194" from-port="1" to-layer="196" to-port="3"/>
		<edge from-layer="195" from-port="1" to-layer="196" to-port="4"/>
		<edge from-layer="190" from-port="5" to-layer="198" to-port="0"/>
		<edge from-layer="196" from-port="5" to-layer="198" to-port="1"/>
		<edge from-layer="197" from-port="1" to-layer="198" to-port="2"/>
		<edge from-layer="198" from-port="3" to-layer="199" to-port="0"/>
		<edge from-layer="199" from-port="1" to-layer="204" to-port="0"/>
		<edge from-layer="200" from-port="1" to-layer="204" to-port="1"/>
		<edge from-layer="201" from-port="1" to-layer="204" to-port="2"/>
		<edge from-layer="202" from-port="1" to-layer="204" to-port="3"/>
		<edge from-layer="203" from-port="1" to-layer="204" to-port="4"/>
		<edge from-layer="205" from-port="1" to-layer="210" to-port="0"/>
		<edge from-layer="206" from-port="1" to-layer="210" to-port="1"/>
		<edge from-layer="207" from-port="1" to-layer="210" to-port="2"/>
		<edge from-layer="208" from-port="1" to-layer="210" to-port="3"/>
		<edge from-layer="209" from-port="1" to-layer="210" to-port="4"/>
		<edge from-layer="204" from-port="5" to-layer="212" to-port="0"/>
		<edge from-layer="210" from-port="5" to-layer="212" to-port="1"/>
		<edge from-layer="211" from-port="1" to-layer="212" to-port="2"/>
		<edge from-layer="212" from-port="3" to-layer="213" to-port="0"/>
		<edge from-layer="213" from-port="1" to-layer="218" to-port="0"/>
		<edge from-layer="214" from-port="1" to-layer="218" to-port="1"/>
		<edge from-layer="215" from-port="1" to-layer="218" to-port="2"/>
		<edge from-layer="216" from-port="1" to-layer="218" to-port="3"/>
		<edge from-layer="217" from-port="1" to-layer="218" to-port="4"/>
		<edge from-layer="219" from-port="1" to-layer="224" to-port="0"/>
		<edge from-layer="220" from-port="1" to-layer="224" to-port="1"/>
		<edge from-layer="221" from-port="1" to-layer="224" to-port="2"/>
		<edge from-layer="222" from-port="1" to-layer="224" to-port="3"/>
		<edge from-layer="223" from-port="1" to-layer="224" to-port="4"/>
		<edge from-layer="218" from-port="5" to-layer="226" to-port="0"/>
		<edge from-layer="224" from-port="5" to-layer="226" to-port="1"/>
		<edge from-layer="225" from-port="1" to-layer="226" to-port="2"/>
		<edge from-layer="226" from-port="3" to-layer="231" to-port="0"/>
		<edge from-layer="227" from-port="1" to-layer="231" to-port="1"/>
		<edge from-layer="228" from-port="1" to-layer="231" to-port="2"/>
		<edge from-layer="229" from-port="1" to-layer="231" to-port="3"/>
		<edge from-layer="230" from-port="1" to-layer="231" to-port="4"/>
		<edge from-layer="231" from-port="5" to-layer="232" to-port="0"/>
		<edge from-layer="190" from-port="5" to-layer="232" to-port="1"/>
		<edge from-layer="232" from-port="2" to-layer="237" to-port="0"/>
		<edge from-layer="233" from-port="1" to-layer="237" to-port="1"/>
		<edge from-layer="234" from-port="1" to-layer="237" to-port="2"/>
		<edge from-layer="235" from-port="1" to-layer="237" to-port="3"/>
		<edge from-layer="236" from-port="1" to-layer="237" to-port="4"/>
		<edge from-layer="238" from-port="1" to-layer="243" to-port="0"/>
		<edge from-layer="239" from-port="1" to-layer="243" to-port="1"/>
		<edge from-layer="240" from-port="1" to-layer="243" to-port="2"/>
		<edge from-layer="241" from-port="1" to-layer="243" to-port="3"/>
		<edge from-layer="242" from-port="1" to-layer="243" to-port="4"/>
		<edge from-layer="237" from-port="5" to-layer="245" to-port="0"/>
		<edge from-layer="243" from-port="5" to-layer="245" to-port="1"/>
		<edge from-layer="244" from-port="1" to-layer="245" to-port="2"/>
		<edge from-layer="245" from-port="3" to-layer="246" to-port="0"/>
		<edge from-layer="246" from-port="1" to-layer="251" to-port="0"/>
		<edge from-layer="247" from-port="1" to-layer="251" to-port="1"/>
		<edge from-layer="248" from-port="1" to-layer="251" to-port="2"/>
		<edge from-layer="249" from-port="1" to-layer="251" to-port="3"/>
		<edge from-layer="250" from-port="1" to-layer="251" to-port="4"/>
		<edge from-layer="252" from-port="1" to-layer="257" to-port="0"/>
		<edge from-layer="253" from-port="1" to-layer="257" to-port="1"/>
		<edge from-layer="254" from-port="1" to-layer="257" to-port="2"/>
		<edge from-layer="255" from-port="1" to-layer="257" to-port="3"/>
		<edge from-layer="256" from-port="1" to-layer="257" to-port="4"/>
		<edge from-layer="251" from-port="5" to-layer="259" to-port="0"/>
		<edge from-layer="257" from-port="5" to-layer="259" to-port="1"/>
		<edge from-layer="258" from-port="1" to-layer="259" to-port="2"/>
		<edge from-layer="259" from-port="3" to-layer="260" to-port="0"/>
		<edge from-layer="260" from-port="1" to-layer="265" to-port="0"/>
		<edge from-layer="261" from-port="1" to-layer="265" to-port="1"/>
		<edge from-layer="262" from-port="1" to-layer="265" to-port="2"/>
		<edge from-layer="263" from-port="1" to-layer="265" to-port="3"/>
		<edge from-layer="264" from-port="1" to-layer="265" to-port="4"/>
		<edge from-layer="266" from-port="1" to-layer="271" to-port="0"/>
		<edge from-layer="267" from-port="1" to-layer="271" to-port="1"/>
		<edge from-layer="268" from-port="1" to-layer="271" to-port="2"/>
		<edge from-layer="269" from-port="1" to-layer="271" to-port="3"/>
		<edge from-layer="270" from-port="1" to-layer="271" to-port="4"/>
		<edge from-layer="265" from-port="5" to-layer="273" to-port="0"/>
		<edge from-layer="271" from-port="5" to-layer="273" to-port="1"/>
		<edge from-layer="272" from-port="1" to-layer="273" to-port="2"/>
		<edge from-layer="273" from-port="3" to-layer="278" to-port="0"/>
		<edge from-layer="274" from-port="1" to-layer="278" to-port="1"/>
		<edge from-layer="275" from-port="1" to-layer="278" to-port="2"/>
		<edge from-layer="276" from-port="1" to-layer="278" to-port="3"/>
		<edge from-layer="277" from-port="1" to-layer="278" to-port="4"/>
		<edge from-layer="278" from-port="5" to-layer="279" to-port="0"/>
		<edge from-layer="237" from-port="5" to-layer="279" to-port="1"/>
		<edge from-layer="279" from-port="2" to-layer="284" to-port="0"/>
		<edge from-layer="280" from-port="1" to-layer="284" to-port="1"/>
		<edge from-layer="281" from-port="1" to-layer="284" to-port="2"/>
		<edge from-layer="282" from-port="1" to-layer="284" to-port="3"/>
		<edge from-layer="283" from-port="1" to-layer="284" to-port="4"/>
		<edge from-layer="285" from-port="1" to-layer="290" to-port="0"/>
		<edge from-layer="286" from-port="1" to-layer="290" to-port="1"/>
		<edge from-layer="287" from-port="1" to-layer="290" to-port="2"/>
		<edge from-layer="288" from-port="1" to-layer="290" to-port="3"/>
		<edge from-layer="289" from-port="1" to-layer="290" to-port="4"/>
		<edge from-layer="284" from-port="5" to-layer="292" to-port="0"/>
		<edge from-layer="290" from-port="5" to-layer="292" to-port="1"/>
		<edge from-layer="291" from-port="1" to-layer="292" to-port="2"/>
		<edge from-layer="292" from-port="3" to-layer="293" to-port="0"/>
		<edge from-layer="293" from-port="1" to-layer="298" to-port="0"/>
		<edge from-layer="294" from-port="1" to-layer="298" to-port="1"/>
		<edge from-layer="295" from-port="1" to-layer="298" to-port="2"/>
		<edge from-layer="296" from-port="1" to-layer="298" to-port="3"/>
		<edge from-layer="297" from-port="1" to-layer="298" to-port="4"/>
		<edge from-layer="299" from-port="1" to-layer="304" to-port="0"/>
		<edge from-layer="300" from-port="1" to-layer="304" to-port="1"/>
		<edge from-layer="301" from-port="1" to-layer="304" to-port="2"/>
		<edge from-layer="302" from-port="1" to-layer="304" to-port="3"/>
		<edge from-layer="303" from-port="1" to-layer="304" to-port="4"/>
		<edge from-layer="298" from-port="5" to-layer="306" to-port="0"/>
		<edge from-layer="304" from-port="5" to-layer="306" to-port="1"/>
		<edge from-layer="305" from-port="1" to-layer="306" to-port="2"/>
		<edge from-layer="306" from-port="3" to-layer="307" to-port="0"/>
		<edge from-layer="307" from-port="1" to-layer="312" to-port="0"/>
		<edge from-layer="308" from-port="1" to-layer="312" to-port="1"/>
		<edge from-layer="309" from-port="1" to-layer="312" to-port="2"/>
		<edge from-layer="310" from-port="1" to-layer="312" to-port="3"/>
		<edge from-layer="311" from-port="1" to-layer="312" to-port="4"/>
		<edge from-layer="313" from-port="1" to-layer="318" to-port="0"/>
		<edge from-layer="314" from-port="1" to-layer="318" to-port="1"/>
		<edge from-layer="315" from-port="1" to-layer="318" to-port="2"/>
		<edge from-layer="316" from-port="1" to-layer="318" to-port="3"/>
		<edge from-layer="317" from-port="1" to-layer="318" to-port="4"/>
		<edge from-layer="312" from-port="5" to-layer="320" to-port="0"/>
		<edge from-layer="318" from-port="5" to-layer="320" to-port="1"/>
		<edge from-layer="319" from-port="1" to-layer="320" to-port="2"/>
		<edge from-layer="320" from-port="3" to-layer="325" to-port="0"/>
		<edge from-layer="321" from-port="1" to-layer="325" to-port="1"/>
		<edge from-layer="322" from-port="1" to-layer="325" to-port="2"/>
		<edge from-layer="323" from-port="1" to-layer="325" to-port="3"/>
		<edge from-layer="324" from-port="1" to-layer="325" to-port="4"/>
		<edge from-layer="326" from-port="1" to-layer="331" to-port="0"/>
		<edge from-layer="327" from-port="1" to-layer="331" to-port="1"/>
		<edge from-layer="328" from-port="1" to-layer="331" to-port="2"/>
		<edge from-layer="329" from-port="1" to-layer="331" to-port="3"/>
		<edge from-layer="330" from-port="1" to-layer="331" to-port="4"/>
		<edge from-layer="325" from-port="5" to-layer="333" to-port="0"/>
		<edge from-layer="331" from-port="5" to-layer="333" to-port="1"/>
		<edge from-layer="332" from-port="1" to-layer="333" to-port="2"/>
		<edge from-layer="333" from-port="3" to-layer="334" to-port="0"/>
		<edge from-layer="334" from-port="1" to-layer="339" to-port="0"/>
		<edge from-layer="335" from-port="1" to-layer="339" to-port="1"/>
		<edge from-layer="336" from-port="1" to-layer="339" to-port="2"/>
		<edge from-layer="337" from-port="1" to-layer="339" to-port="3"/>
		<edge from-layer="338" from-port="1" to-layer="339" to-port="4"/>
		<edge from-layer="340" from-port="1" to-layer="345" to-port="0"/>
		<edge from-layer="341" from-port="1" to-layer="345" to-port="1"/>
		<edge from-layer="342" from-port="1" to-layer="345" to-port="2"/>
		<edge from-layer="343" from-port="1" to-layer="345" to-port="3"/>
		<edge from-layer="344" from-port="1" to-layer="345" to-port="4"/>
		<edge from-layer="339" from-port="5" to-layer="347" to-port="0"/>
		<edge from-layer="345" from-port="5" to-layer="347" to-port="1"/>
		<edge from-layer="346" from-port="1" to-layer="347" to-port="2"/>
		<edge from-layer="347" from-port="3" to-layer="348" to-port="0"/>
		<edge from-layer="348" from-port="1" to-layer="353" to-port="0"/>
		<edge from-layer="349" from-port="1" to-layer="353" to-port="1"/>
		<edge from-layer="350" from-port="1" to-layer="353" to-port="2"/>
		<edge from-layer="351" from-port="1" to-layer="353" to-port="3"/>
		<edge from-layer="352" from-port="1" to-layer="353" to-port="4"/>
		<edge from-layer="354" from-port="1" to-layer="359" to-port="0"/>
		<edge from-layer="355" from-port="1" to-layer="359" to-port="1"/>
		<edge from-layer="356" from-port="1" to-layer="359" to-port="2"/>
		<edge from-layer="357" from-port="1" to-layer="359" to-port="3"/>
		<edge from-layer="358" from-port="1" to-layer="359" to-port="4"/>
		<edge from-layer="353" from-port="5" to-layer="361" to-port="0"/>
		<edge from-layer="359" from-port="5" to-layer="361" to-port="1"/>
		<edge from-layer="360" from-port="1" to-layer="361" to-port="2"/>
		<edge from-layer="361" from-port="3" to-layer="366" to-port="0"/>
		<edge from-layer="362" from-port="1" to-layer="366" to-port="1"/>
		<edge from-layer="363" from-port="1" to-layer="366" to-port="2"/>
		<edge from-layer="364" from-port="1" to-layer="366" to-port="3"/>
		<edge from-layer="365" from-port="1" to-layer="366" to-port="4"/>
		<edge from-layer="366" from-port="5" to-layer="367" to-port="0"/>
		<edge from-layer="325" from-port="5" to-layer="367" to-port="1"/>
		<edge from-layer="367" from-port="2" to-layer="372" to-port="0"/>
		<edge from-layer="368" from-port="1" to-layer="372" to-port="1"/>
		<edge from-layer="369" from-port="1" to-layer="372" to-port="2"/>
		<edge from-layer="370" from-port="1" to-layer="372" to-port="3"/>
		<edge from-layer="371" from-port="1" to-layer="372" to-port="4"/>
		<edge from-layer="373" from-port="1" to-layer="378" to-port="0"/>
		<edge from-layer="374" from-port="1" to-layer="378" to-port="1"/>
		<edge from-layer="375" from-port="1" to-layer="378" to-port="2"/>
		<edge from-layer="376" from-port="1" to-layer="378" to-port="3"/>
		<edge from-layer="377" from-port="1" to-layer="378" to-port="4"/>
		<edge from-layer="372" from-port="5" to-layer="380" to-port="0"/>
		<edge from-layer="378" from-port="5" to-layer="380" to-port="1"/>
		<edge from-layer="379" from-port="1" to-layer="380" to-port="2"/>
		<edge from-layer="380" from-port="3" to-layer="381" to-port="0"/>
		<edge from-layer="381" from-port="1" to-layer="386" to-port="0"/>
		<edge from-layer="382" from-port="1" to-layer="386" to-port="1"/>
		<edge from-layer="383" from-port="1" to-layer="386" to-port="2"/>
		<edge from-layer="384" from-port="1" to-layer="386" to-port="3"/>
		<edge from-layer="385" from-port="1" to-layer="386" to-port="4"/>
		<edge from-layer="387" from-port="1" to-layer="392" to-port="0"/>
		<edge from-layer="388" from-port="1" to-layer="392" to-port="1"/>
		<edge from-layer="389" from-port="1" to-layer="392" to-port="2"/>
		<edge from-layer="390" from-port="1" to-layer="392" to-port="3"/>
		<edge from-layer="391" from-port="1" to-layer="392" to-port="4"/>
		<edge from-layer="386" from-port="5" to-layer="394" to-port="0"/>
		<edge from-layer="392" from-port="5" to-layer="394" to-port="1"/>
		<edge from-layer="393" from-port="1" to-layer="394" to-port="2"/>
		<edge from-layer="394" from-port="3" to-layer="395" to-port="0"/>
		<edge from-layer="395" from-port="1" to-layer="400" to-port="0"/>
		<edge from-layer="396" from-port="1" to-layer="400" to-port="1"/>
		<edge from-layer="397" from-port="1" to-layer="400" to-port="2"/>
		<edge from-layer="398" from-port="1" to-layer="400" to-port="3"/>
		<edge from-layer="399" from-port="1" to-layer="400" to-port="4"/>
		<edge from-layer="401" from-port="1" to-layer="406" to-port="0"/>
		<edge from-layer="402" from-port="1" to-layer="406" to-port="1"/>
		<edge from-layer="403" from-port="1" to-layer="406" to-port="2"/>
		<edge from-layer="404" from-port="1" to-layer="406" to-port="3"/>
		<edge from-layer="405" from-port="1" to-layer="406" to-port="4"/>
		<edge from-layer="400" from-port="5" to-layer="408" to-port="0"/>
		<edge from-layer="406" from-port="5" to-layer="408" to-port="1"/>
		<edge from-layer="407" from-port="1" to-layer="408" to-port="2"/>
		<edge from-layer="408" from-port="3" to-layer="413" to-port="0"/>
		<edge from-layer="409" from-port="1" to-layer="413" to-port="1"/>
		<edge from-layer="410" from-port="1" to-layer="413" to-port="2"/>
		<edge from-layer="411" from-port="1" to-layer="413" to-port="3"/>
		<edge from-layer="412" from-port="1" to-layer="413" to-port="4"/>
		<edge from-layer="413" from-port="5" to-layer="414" to-port="0"/>
		<edge from-layer="372" from-port="5" to-layer="414" to-port="1"/>
		<edge from-layer="414" from-port="2" to-layer="419" to-port="0"/>
		<edge from-layer="415" from-port="1" to-layer="419" to-port="1"/>
		<edge from-layer="416" from-port="1" to-layer="419" to-port="2"/>
		<edge from-layer="417" from-port="1" to-layer="419" to-port="3"/>
		<edge from-layer="418" from-port="1" to-layer="419" to-port="4"/>
		<edge from-layer="420" from-port="1" to-layer="425" to-port="0"/>
		<edge from-layer="421" from-port="1" to-layer="425" to-port="1"/>
		<edge from-layer="422" from-port="1" to-layer="425" to-port="2"/>
		<edge from-layer="423" from-port="1" to-layer="425" to-port="3"/>
		<edge from-layer="424" from-port="1" to-layer="425" to-port="4"/>
		<edge from-layer="419" from-port="5" to-layer="427" to-port="0"/>
		<edge from-layer="425" from-port="5" to-layer="427" to-port="1"/>
		<edge from-layer="426" from-port="1" to-layer="427" to-port="2"/>
		<edge from-layer="427" from-port="3" to-layer="428" to-port="0"/>
		<edge from-layer="428" from-port="1" to-layer="433" to-port="0"/>
		<edge from-layer="429" from-port="1" to-layer="433" to-port="1"/>
		<edge from-layer="430" from-port="1" to-layer="433" to-port="2"/>
		<edge from-layer="431" from-port="1" to-layer="433" to-port="3"/>
		<edge from-layer="432" from-port="1" to-layer="433" to-port="4"/>
		<edge from-layer="434" from-port="1" to-layer="439" to-port="0"/>
		<edge from-layer="435" from-port="1" to-layer="439" to-port="1"/>
		<edge from-layer="436" from-port="1" to-layer="439" to-port="2"/>
		<edge from-layer="437" from-port="1" to-layer="439" to-port="3"/>
		<edge from-layer="438" from-port="1" to-layer="439" to-port="4"/>
		<edge from-layer="433" from-port="5" to-layer="441" to-port="0"/>
		<edge from-layer="439" from-port="5" to-layer="441" to-port="1"/>
		<edge from-layer="440" from-port="1" to-layer="441" to-port="2"/>
		<edge from-layer="441" from-port="3" to-layer="442" to-port="0"/>
		<edge from-layer="442" from-port="1" to-layer="447" to-port="0"/>
		<edge from-layer="443" from-port="1" to-layer="447" to-port="1"/>
		<edge from-layer="444" from-port="1" to-layer="447" to-port="2"/>
		<edge from-layer="445" from-port="1" to-layer="447" to-port="3"/>
		<edge from-layer="446" from-port="1" to-layer="447" to-port="4"/>
		<edge from-layer="448" from-port="1" to-layer="453" to-port="0"/>
		<edge from-layer="449" from-port="1" to-layer="453" to-port="1"/>
		<edge from-layer="450" from-port="1" to-layer="453" to-port="2"/>
		<edge from-layer="451" from-port="1" to-layer="453" to-port="3"/>
		<edge from-layer="452" from-port="1" to-layer="453" to-port="4"/>
		<edge from-layer="447" from-port="5" to-layer="455" to-port="0"/>
		<edge from-layer="453" from-port="5" to-layer="455" to-port="1"/>
		<edge from-layer="454" from-port="1" to-layer="455" to-port="2"/>
		<edge from-layer="455" from-port="3" to-layer="460" to-port="0"/>
		<edge from-layer="456" from-port="1" to-layer="460" to-port="1"/>
		<edge from-layer="457" from-port="1" to-layer="460" to-port="2"/>
		<edge from-layer="458" from-port="1" to-layer="460" to-port="3"/>
		<edge from-layer="459" from-port="1" to-layer="460" to-port="4"/>
		<edge from-layer="460" from-port="5" to-layer="461" to-port="0"/>
		<edge from-layer="419" from-port="5" to-layer="461" to-port="1"/>
		<edge from-layer="461" from-port="2" to-layer="466" to-port="0"/>
		<edge from-layer="462" from-port="1" to-layer="466" to-port="1"/>
		<edge from-layer="463" from-port="1" to-layer="466" to-port="2"/>
		<edge from-layer="464" from-port="1" to-layer="466" to-port="3"/>
		<edge from-layer="465" from-port="1" to-layer="466" to-port="4"/>
		<edge from-layer="467" from-port="1" to-layer="472" to-port="0"/>
		<edge from-layer="468" from-port="1" to-layer="472" to-port="1"/>
		<edge from-layer="469" from-port="1" to-layer="472" to-port="2"/>
		<edge from-layer="470" from-port="1" to-layer="472" to-port="3"/>
		<edge from-layer="471" from-port="1" to-layer="472" to-port="4"/>
		<edge from-layer="466" from-port="5" to-layer="474" to-port="0"/>
		<edge from-layer="472" from-port="5" to-layer="474" to-port="1"/>
		<edge from-layer="473" from-port="1" to-layer="474" to-port="2"/>
		<edge from-layer="474" from-port="3" to-layer="475" to-port="0"/>
		<edge from-layer="475" from-port="1" to-layer="480" to-port="0"/>
		<edge from-layer="476" from-port="1" to-layer="480" to-port="1"/>
		<edge from-layer="477" from-port="1" to-layer="480" to-port="2"/>
		<edge from-layer="478" from-port="1" to-layer="480" to-port="3"/>
		<edge from-layer="479" from-port="1" to-layer="480" to-port="4"/>
		<edge from-layer="481" from-port="1" to-layer="486" to-port="0"/>
		<edge from-layer="482" from-port="1" to-layer="486" to-port="1"/>
		<edge from-layer="483" from-port="1" to-layer="486" to-port="2"/>
		<edge from-layer="484" from-port="1" to-layer="486" to-port="3"/>
		<edge from-layer="485" from-port="1" to-layer="486" to-port="4"/>
		<edge from-layer="480" from-port="5" to-layer="488" to-port="0"/>
		<edge from-layer="486" from-port="5" to-layer="488" to-port="1"/>
		<edge from-layer="487" from-port="1" to-layer="488" to-port="2"/>
		<edge from-layer="488" from-port="3" to-layer="489" to-port="0"/>
		<edge from-layer="489" from-port="1" to-layer="494" to-port="0"/>
		<edge from-layer="490" from-port="1" to-layer="494" to-port="1"/>
		<edge from-layer="491" from-port="1" to-layer="494" to-port="2"/>
		<edge from-layer="492" from-port="1" to-layer="494" to-port="3"/>
		<edge from-layer="493" from-port="1" to-layer="494" to-port="4"/>
		<edge from-layer="495" from-port="1" to-layer="500" to-port="0"/>
		<edge from-layer="496" from-port="1" to-layer="500" to-port="1"/>
		<edge from-layer="497" from-port="1" to-layer="500" to-port="2"/>
		<edge from-layer="498" from-port="1" to-layer="500" to-port="3"/>
		<edge from-layer="499" from-port="1" to-layer="500" to-port="4"/>
		<edge from-layer="494" from-port="5" to-layer="502" to-port="0"/>
		<edge from-layer="500" from-port="5" to-layer="502" to-port="1"/>
		<edge from-layer="501" from-port="1" to-layer="502" to-port="2"/>
		<edge from-layer="502" from-port="3" to-layer="507" to-port="0"/>
		<edge from-layer="503" from-port="1" to-layer="507" to-port="1"/>
		<edge from-layer="504" from-port="1" to-layer="507" to-port="2"/>
		<edge from-layer="505" from-port="1" to-layer="507" to-port="3"/>
		<edge from-layer="506" from-port="1" to-layer="507" to-port="4"/>
		<edge from-layer="508" from-port="1" to-layer="513" to-port="0"/>
		<edge from-layer="509" from-port="1" to-layer="513" to-port="1"/>
		<edge from-layer="510" from-port="1" to-layer="513" to-port="2"/>
		<edge from-layer="511" from-port="1" to-layer="513" to-port="3"/>
		<edge from-layer="512" from-port="1" to-layer="513" to-port="4"/>
		<edge from-layer="507" from-port="5" to-layer="515" to-port="0"/>
		<edge from-layer="513" from-port="5" to-layer="515" to-port="1"/>
		<edge from-layer="514" from-port="1" to-layer="515" to-port="2"/>
		<edge from-layer="515" from-port="3" to-layer="516" to-port="0"/>
		<edge from-layer="516" from-port="1" to-layer="521" to-port="0"/>
		<edge from-layer="517" from-port="1" to-layer="521" to-port="1"/>
		<edge from-layer="518" from-port="1" to-layer="521" to-port="2"/>
		<edge from-layer="519" from-port="1" to-layer="521" to-port="3"/>
		<edge from-layer="520" from-port="1" to-layer="521" to-port="4"/>
		<edge from-layer="522" from-port="1" to-layer="527" to-port="0"/>
		<edge from-layer="523" from-port="1" to-layer="527" to-port="1"/>
		<edge from-layer="524" from-port="1" to-layer="527" to-port="2"/>
		<edge from-layer="525" from-port="1" to-layer="527" to-port="3"/>
		<edge from-layer="526" from-port="1" to-layer="527" to-port="4"/>
		<edge from-layer="521" from-port="5" to-layer="529" to-port="0"/>
		<edge from-layer="527" from-port="5" to-layer="529" to-port="1"/>
		<edge from-layer="528" from-port="1" to-layer="529" to-port="2"/>
		<edge from-layer="529" from-port="3" to-layer="530" to-port="0"/>
		<edge from-layer="530" from-port="1" to-layer="535" to-port="0"/>
		<edge from-layer="531" from-port="1" to-layer="535" to-port="1"/>
		<edge from-layer="532" from-port="1" to-layer="535" to-port="2"/>
		<edge from-layer="533" from-port="1" to-layer="535" to-port="3"/>
		<edge from-layer="534" from-port="1" to-layer="535" to-port="4"/>
		<edge from-layer="536" from-port="1" to-layer="541" to-port="0"/>
		<edge from-layer="537" from-port="1" to-layer="541" to-port="1"/>
		<edge from-layer="538" from-port="1" to-layer="541" to-port="2"/>
		<edge from-layer="539" from-port="1" to-layer="541" to-port="3"/>
		<edge from-layer="540" from-port="1" to-layer="541" to-port="4"/>
		<edge from-layer="535" from-port="5" to-layer="543" to-port="0"/>
		<edge from-layer="541" from-port="5" to-layer="543" to-port="1"/>
		<edge from-layer="542" from-port="1" to-layer="543" to-port="2"/>
		<edge from-layer="543" from-port="3" to-layer="548" to-port="0"/>
		<edge from-layer="544" from-port="1" to-layer="548" to-port="1"/>
		<edge from-layer="545" from-port="1" to-layer="548" to-port="2"/>
		<edge from-layer="546" from-port="1" to-layer="548" to-port="3"/>
		<edge from-layer="547" from-port="1" to-layer="548" to-port="4"/>
		<edge from-layer="548" from-port="5" to-layer="549" to-port="0"/>
		<edge from-layer="507" from-port="5" to-layer="549" to-port="1"/>
		<edge from-layer="549" from-port="2" to-layer="554" to-port="0"/>
		<edge from-layer="550" from-port="1" to-layer="554" to-port="1"/>
		<edge from-layer="551" from-port="1" to-layer="554" to-port="2"/>
		<edge from-layer="552" from-port="1" to-layer="554" to-port="3"/>
		<edge from-layer="553" from-port="1" to-layer="554" to-port="4"/>
		<edge from-layer="555" from-port="1" to-layer="560" to-port="0"/>
		<edge from-layer="556" from-port="1" to-layer="560" to-port="1"/>
		<edge from-layer="557" from-port="1" to-layer="560" to-port="2"/>
		<edge from-layer="558" from-port="1" to-layer="560" to-port="3"/>
		<edge from-layer="559" from-port="1" to-layer="560" to-port="4"/>
		<edge from-layer="554" from-port="5" to-layer="562" to-port="0"/>
		<edge from-layer="560" from-port="5" to-layer="562" to-port="1"/>
		<edge from-layer="561" from-port="1" to-layer="562" to-port="2"/>
		<edge from-layer="562" from-port="3" to-layer="563" to-port="0"/>
		<edge from-layer="563" from-port="1" to-layer="568" to-port="0"/>
		<edge from-layer="564" from-port="1" to-layer="568" to-port="1"/>
		<edge from-layer="565" from-port="1" to-layer="568" to-port="2"/>
		<edge from-layer="566" from-port="1" to-layer="568" to-port="3"/>
		<edge from-layer="567" from-port="1" to-layer="568" to-port="4"/>
		<edge from-layer="569" from-port="1" to-layer="574" to-port="0"/>
		<edge from-layer="570" from-port="1" to-layer="574" to-port="1"/>
		<edge from-layer="571" from-port="1" to-layer="574" to-port="2"/>
		<edge from-layer="572" from-port="1" to-layer="574" to-port="3"/>
		<edge from-layer="573" from-port="1" to-layer="574" to-port="4"/>
		<edge from-layer="568" from-port="5" to-layer="576" to-port="0"/>
		<edge from-layer="574" from-port="5" to-layer="576" to-port="1"/>
		<edge from-layer="575" from-port="1" to-layer="576" to-port="2"/>
		<edge from-layer="576" from-port="3" to-layer="577" to-port="0"/>
		<edge from-layer="577" from-port="1" to-layer="582" to-port="0"/>
		<edge from-layer="578" from-port="1" to-layer="582" to-port="1"/>
		<edge from-layer="579" from-port="1" to-layer="582" to-port="2"/>
		<edge from-layer="580" from-port="1" to-layer="582" to-port="3"/>
		<edge from-layer="581" from-port="1" to-layer="582" to-port="4"/>
		<edge from-layer="583" from-port="1" to-layer="588" to-port="0"/>
		<edge from-layer="584" from-port="1" to-layer="588" to-port="1"/>
		<edge from-layer="585" from-port="1" to-layer="588" to-port="2"/>
		<edge from-layer="586" from-port="1" to-layer="588" to-port="3"/>
		<edge from-layer="587" from-port="1" to-layer="588" to-port="4"/>
		<edge from-layer="582" from-port="5" to-layer="590" to-port="0"/>
		<edge from-layer="588" from-port="5" to-layer="590" to-port="1"/>
		<edge from-layer="589" from-port="1" to-layer="590" to-port="2"/>
		<edge from-layer="590" from-port="3" to-layer="595" to-port="0"/>
		<edge from-layer="591" from-port="1" to-layer="595" to-port="1"/>
		<edge from-layer="592" from-port="1" to-layer="595" to-port="2"/>
		<edge from-layer="593" from-port="1" to-layer="595" to-port="3"/>
		<edge from-layer="594" from-port="1" to-layer="595" to-port="4"/>
		<edge from-layer="595" from-port="5" to-layer="596" to-port="0"/>
		<edge from-layer="554" from-port="5" to-layer="596" to-port="1"/>
		<edge from-layer="596" from-port="2" to-layer="601" to-port="0"/>
		<edge from-layer="597" from-port="1" to-layer="601" to-port="1"/>
		<edge from-layer="598" from-port="1" to-layer="601" to-port="2"/>
		<edge from-layer="599" from-port="1" to-layer="601" to-port="3"/>
		<edge from-layer="600" from-port="1" to-layer="601" to-port="4"/>
		<edge from-layer="602" from-port="1" to-layer="607" to-port="0"/>
		<edge from-layer="603" from-port="1" to-layer="607" to-port="1"/>
		<edge from-layer="604" from-port="1" to-layer="607" to-port="2"/>
		<edge from-layer="605" from-port="1" to-layer="607" to-port="3"/>
		<edge from-layer="606" from-port="1" to-layer="607" to-port="4"/>
		<edge from-layer="601" from-port="5" to-layer="609" to-port="0"/>
		<edge from-layer="607" from-port="5" to-layer="609" to-port="1"/>
		<edge from-layer="608" from-port="1" to-layer="609" to-port="2"/>
		<edge from-layer="609" from-port="3" to-layer="610" to-port="0"/>
		<edge from-layer="610" from-port="1" to-layer="615" to-port="0"/>
		<edge from-layer="611" from-port="1" to-layer="615" to-port="1"/>
		<edge from-layer="612" from-port="1" to-layer="615" to-port="2"/>
		<edge from-layer="613" from-port="1" to-layer="615" to-port="3"/>
		<edge from-layer="614" from-port="1" to-layer="615" to-port="4"/>
		<edge from-layer="616" from-port="1" to-layer="621" to-port="0"/>
		<edge from-layer="617" from-port="1" to-layer="621" to-port="1"/>
		<edge from-layer="618" from-port="1" to-layer="621" to-port="2"/>
		<edge from-layer="619" from-port="1" to-layer="621" to-port="3"/>
		<edge from-layer="620" from-port="1" to-layer="621" to-port="4"/>
		<edge from-layer="615" from-port="5" to-layer="623" to-port="0"/>
		<edge from-layer="621" from-port="5" to-layer="623" to-port="1"/>
		<edge from-layer="622" from-port="1" to-layer="623" to-port="2"/>
		<edge from-layer="623" from-port="3" to-layer="624" to-port="0"/>
		<edge from-layer="624" from-port="1" to-layer="629" to-port="0"/>
		<edge from-layer="625" from-port="1" to-layer="629" to-port="1"/>
		<edge from-layer="626" from-port="1" to-layer="629" to-port="2"/>
		<edge from-layer="627" from-port="1" to-layer="629" to-port="3"/>
		<edge from-layer="628" from-port="1" to-layer="629" to-port="4"/>
		<edge from-layer="630" from-port="1" to-layer="635" to-port="0"/>
		<edge from-layer="631" from-port="1" to-layer="635" to-port="1"/>
		<edge from-layer="632" from-port="1" to-layer="635" to-port="2"/>
		<edge from-layer="633" from-port="1" to-layer="635" to-port="3"/>
		<edge from-layer="634" from-port="1" to-layer="635" to-port="4"/>
		<edge from-layer="629" from-port="5" to-layer="637" to-port="0"/>
		<edge from-layer="635" from-port="5" to-layer="637" to-port="1"/>
		<edge from-layer="636" from-port="1" to-layer="637" to-port="2"/>
		<edge from-layer="637" from-port="3" to-layer="642" to-port="0"/>
		<edge from-layer="638" from-port="1" to-layer="642" to-port="1"/>
		<edge from-layer="639" from-port="1" to-layer="642" to-port="2"/>
		<edge from-layer="640" from-port="1" to-layer="642" to-port="3"/>
		<edge from-layer="641" from-port="1" to-layer="642" to-port="4"/>
		<edge from-layer="643" from-port="1" to-layer="648" to-port="0"/>
		<edge from-layer="644" from-port="1" to-layer="648" to-port="1"/>
		<edge from-layer="645" from-port="1" to-layer="648" to-port="2"/>
		<edge from-layer="646" from-port="1" to-layer="648" to-port="3"/>
		<edge from-layer="647" from-port="1" to-layer="648" to-port="4"/>
		<edge from-layer="642" from-port="5" to-layer="650" to-port="0"/>
		<edge from-layer="648" from-port="5" to-layer="650" to-port="1"/>
		<edge from-layer="649" from-port="1" to-layer="650" to-port="2"/>
		<edge from-layer="650" from-port="3" to-layer="651" to-port="0"/>
		<edge from-layer="651" from-port="1" to-layer="656" to-port="0"/>
		<edge from-layer="652" from-port="1" to-layer="656" to-port="1"/>
		<edge from-layer="653" from-port="1" to-layer="656" to-port="2"/>
		<edge from-layer="654" from-port="1" to-layer="656" to-port="3"/>
		<edge from-layer="655" from-port="1" to-layer="656" to-port="4"/>
		<edge from-layer="657" from-port="1" to-layer="662" to-port="0"/>
		<edge from-layer="658" from-port="1" to-layer="662" to-port="1"/>
		<edge from-layer="659" from-port="1" to-layer="662" to-port="2"/>
		<edge from-layer="660" from-port="1" to-layer="662" to-port="3"/>
		<edge from-layer="661" from-port="1" to-layer="662" to-port="4"/>
		<edge from-layer="656" from-port="5" to-layer="664" to-port="0"/>
		<edge from-layer="662" from-port="5" to-layer="664" to-port="1"/>
		<edge from-layer="663" from-port="1" to-layer="664" to-port="2"/>
		<edge from-layer="664" from-port="3" to-layer="665" to-port="0"/>
		<edge from-layer="665" from-port="1" to-layer="670" to-port="0"/>
		<edge from-layer="666" from-port="1" to-layer="670" to-port="1"/>
		<edge from-layer="667" from-port="1" to-layer="670" to-port="2"/>
		<edge from-layer="668" from-port="1" to-layer="670" to-port="3"/>
		<edge from-layer="669" from-port="1" to-layer="670" to-port="4"/>
		<edge from-layer="671" from-port="1" to-layer="676" to-port="0"/>
		<edge from-layer="672" from-port="1" to-layer="676" to-port="1"/>
		<edge from-layer="673" from-port="1" to-layer="676" to-port="2"/>
		<edge from-layer="674" from-port="1" to-layer="676" to-port="3"/>
		<edge from-layer="675" from-port="1" to-layer="676" to-port="4"/>
		<edge from-layer="670" from-port="5" to-layer="678" to-port="0"/>
		<edge from-layer="676" from-port="5" to-layer="678" to-port="1"/>
		<edge from-layer="677" from-port="1" to-layer="678" to-port="2"/>
		<edge from-layer="678" from-port="3" to-layer="683" to-port="0"/>
		<edge from-layer="679" from-port="1" to-layer="683" to-port="1"/>
		<edge from-layer="680" from-port="1" to-layer="683" to-port="2"/>
		<edge from-layer="681" from-port="1" to-layer="683" to-port="3"/>
		<edge from-layer="682" from-port="1" to-layer="683" to-port="4"/>
		<edge from-layer="683" from-port="5" to-layer="684" to-port="0"/>
		<edge from-layer="642" from-port="5" to-layer="684" to-port="1"/>
		<edge from-layer="684" from-port="2" to-layer="689" to-port="0"/>
		<edge from-layer="685" from-port="1" to-layer="689" to-port="1"/>
		<edge from-layer="686" from-port="1" to-layer="689" to-port="2"/>
		<edge from-layer="687" from-port="1" to-layer="689" to-port="3"/>
		<edge from-layer="688" from-port="1" to-layer="689" to-port="4"/>
		<edge from-layer="690" from-port="1" to-layer="695" to-port="0"/>
		<edge from-layer="691" from-port="1" to-layer="695" to-port="1"/>
		<edge from-layer="692" from-port="1" to-layer="695" to-port="2"/>
		<edge from-layer="693" from-port="1" to-layer="695" to-port="3"/>
		<edge from-layer="694" from-port="1" to-layer="695" to-port="4"/>
		<edge from-layer="689" from-port="5" to-layer="697" to-port="0"/>
		<edge from-layer="695" from-port="5" to-layer="697" to-port="1"/>
		<edge from-layer="696" from-port="1" to-layer="697" to-port="2"/>
		<edge from-layer="697" from-port="3" to-layer="698" to-port="0"/>
		<edge from-layer="698" from-port="1" to-layer="703" to-port="0"/>
		<edge from-layer="699" from-port="1" to-layer="703" to-port="1"/>
		<edge from-layer="700" from-port="1" to-layer="703" to-port="2"/>
		<edge from-layer="701" from-port="1" to-layer="703" to-port="3"/>
		<edge from-layer="702" from-port="1" to-layer="703" to-port="4"/>
		<edge from-layer="704" from-port="1" to-layer="709" to-port="0"/>
		<edge from-layer="705" from-port="1" to-layer="709" to-port="1"/>
		<edge from-layer="706" from-port="1" to-layer="709" to-port="2"/>
		<edge from-layer="707" from-port="1" to-layer="709" to-port="3"/>
		<edge from-layer="708" from-port="1" to-layer="709" to-port="4"/>
		<edge from-layer="703" from-port="5" to-layer="711" to-port="0"/>
		<edge from-layer="709" from-port="5" to-layer="711" to-port="1"/>
		<edge from-layer="710" from-port="1" to-layer="711" to-port="2"/>
		<edge from-layer="711" from-port="3" to-layer="712" to-port="0"/>
		<edge from-layer="712" from-port="1" to-layer="717" to-port="0"/>
		<edge from-layer="713" from-port="1" to-layer="717" to-port="1"/>
		<edge from-layer="714" from-port="1" to-layer="717" to-port="2"/>
		<edge from-layer="715" from-port="1" to-layer="717" to-port="3"/>
		<edge from-layer="716" from-port="1" to-layer="717" to-port="4"/>
		<edge from-layer="718" from-port="1" to-layer="723" to-port="0"/>
		<edge from-layer="719" from-port="1" to-layer="723" to-port="1"/>
		<edge from-layer="720" from-port="1" to-layer="723" to-port="2"/>
		<edge from-layer="721" from-port="1" to-layer="723" to-port="3"/>
		<edge from-layer="722" from-port="1" to-layer="723" to-port="4"/>
		<edge from-layer="717" from-port="5" to-layer="725" to-port="0"/>
		<edge from-layer="723" from-port="5" to-layer="725" to-port="1"/>
		<edge from-layer="724" from-port="1" to-layer="725" to-port="2"/>
		<edge from-layer="725" from-port="3" to-layer="730" to-port="0"/>
		<edge from-layer="726" from-port="1" to-layer="730" to-port="1"/>
		<edge from-layer="727" from-port="1" to-layer="730" to-port="2"/>
		<edge from-layer="728" from-port="1" to-layer="730" to-port="3"/>
		<edge from-layer="729" from-port="1" to-layer="730" to-port="4"/>
		<edge from-layer="730" from-port="5" to-layer="731" to-port="0"/>
		<edge from-layer="689" from-port="5" to-layer="731" to-port="1"/>
		<edge from-layer="731" from-port="2" to-layer="736" to-port="0"/>
		<edge from-layer="732" from-port="1" to-layer="736" to-port="1"/>
		<edge from-layer="733" from-port="1" to-layer="736" to-port="2"/>
		<edge from-layer="734" from-port="1" to-layer="736" to-port="3"/>
		<edge from-layer="735" from-port="1" to-layer="736" to-port="4"/>
		<edge from-layer="737" from-port="1" to-layer="742" to-port="0"/>
		<edge from-layer="738" from-port="1" to-layer="742" to-port="1"/>
		<edge from-layer="739" from-port="1" to-layer="742" to-port="2"/>
		<edge from-layer="740" from-port="1" to-layer="742" to-port="3"/>
		<edge from-layer="741" from-port="1" to-layer="742" to-port="4"/>
		<edge from-layer="736" from-port="5" to-layer="744" to-port="0"/>
		<edge from-layer="742" from-port="5" to-layer="744" to-port="1"/>
		<edge from-layer="743" from-port="1" to-layer="744" to-port="2"/>
		<edge from-layer="744" from-port="3" to-layer="745" to-port="0"/>
		<edge from-layer="745" from-port="1" to-layer="750" to-port="0"/>
		<edge from-layer="746" from-port="1" to-layer="750" to-port="1"/>
		<edge from-layer="747" from-port="1" to-layer="750" to-port="2"/>
		<edge from-layer="748" from-port="1" to-layer="750" to-port="3"/>
		<edge from-layer="749" from-port="1" to-layer="750" to-port="4"/>
		<edge from-layer="751" from-port="1" to-layer="756" to-port="0"/>
		<edge from-layer="752" from-port="1" to-layer="756" to-port="1"/>
		<edge from-layer="753" from-port="1" to-layer="756" to-port="2"/>
		<edge from-layer="754" from-port="1" to-layer="756" to-port="3"/>
		<edge from-layer="755" from-port="1" to-layer="756" to-port="4"/>
		<edge from-layer="750" from-port="5" to-layer="758" to-port="0"/>
		<edge from-layer="756" from-port="5" to-layer="758" to-port="1"/>
		<edge from-layer="757" from-port="1" to-layer="758" to-port="2"/>
		<edge from-layer="758" from-port="3" to-layer="759" to-port="0"/>
		<edge from-layer="759" from-port="1" to-layer="764" to-port="0"/>
		<edge from-layer="760" from-port="1" to-layer="764" to-port="1"/>
		<edge from-layer="761" from-port="1" to-layer="764" to-port="2"/>
		<edge from-layer="762" from-port="1" to-layer="764" to-port="3"/>
		<edge from-layer="763" from-port="1" to-layer="764" to-port="4"/>
		<edge from-layer="765" from-port="1" to-layer="770" to-port="0"/>
		<edge from-layer="766" from-port="1" to-layer="770" to-port="1"/>
		<edge from-layer="767" from-port="1" to-layer="770" to-port="2"/>
		<edge from-layer="768" from-port="1" to-layer="770" to-port="3"/>
		<edge from-layer="769" from-port="1" to-layer="770" to-port="4"/>
		<edge from-layer="764" from-port="5" to-layer="772" to-port="0"/>
		<edge from-layer="770" from-port="5" to-layer="772" to-port="1"/>
		<edge from-layer="771" from-port="1" to-layer="772" to-port="2"/>
		<edge from-layer="772" from-port="3" to-layer="777" to-port="0"/>
		<edge from-layer="773" from-port="1" to-layer="777" to-port="1"/>
		<edge from-layer="774" from-port="1" to-layer="777" to-port="2"/>
		<edge from-layer="775" from-port="1" to-layer="777" to-port="3"/>
		<edge from-layer="776" from-port="1" to-layer="777" to-port="4"/>
		<edge from-layer="778" from-port="1" to-layer="783" to-port="0"/>
		<edge from-layer="779" from-port="1" to-layer="783" to-port="1"/>
		<edge from-layer="780" from-port="1" to-layer="783" to-port="2"/>
		<edge from-layer="781" from-port="1" to-layer="783" to-port="3"/>
		<edge from-layer="782" from-port="1" to-layer="783" to-port="4"/>
		<edge from-layer="777" from-port="5" to-layer="785" to-port="0"/>
		<edge from-layer="783" from-port="5" to-layer="785" to-port="1"/>
		<edge from-layer="784" from-port="1" to-layer="785" to-port="2"/>
		<edge from-layer="785" from-port="3" to-layer="786" to-port="0"/>
		<edge from-layer="786" from-port="1" to-layer="791" to-port="0"/>
		<edge from-layer="787" from-port="1" to-layer="791" to-port="1"/>
		<edge from-layer="788" from-port="1" to-layer="791" to-port="2"/>
		<edge from-layer="789" from-port="1" to-layer="791" to-port="3"/>
		<edge from-layer="790" from-port="1" to-layer="791" to-port="4"/>
		<edge from-layer="791" from-port="5" to-layer="792" to-port="0"/>
		<edge from-layer="793" from-port="1" to-layer="798" to-port="0"/>
		<edge from-layer="794" from-port="1" to-layer="798" to-port="1"/>
		<edge from-layer="795" from-port="1" to-layer="798" to-port="2"/>
		<edge from-layer="796" from-port="1" to-layer="798" to-port="3"/>
		<edge from-layer="797" from-port="1" to-layer="798" to-port="4"/>
		<edge from-layer="792" from-port="1" to-layer="800" to-port="0"/>
		<edge from-layer="798" from-port="5" to-layer="800" to-port="1"/>
		<edge from-layer="799" from-port="1" to-layer="800" to-port="2"/>
		<edge from-layer="800" from-port="3" to-layer="805" to-port="0"/>
		<edge from-layer="801" from-port="1" to-layer="805" to-port="1"/>
		<edge from-layer="802" from-port="1" to-layer="805" to-port="2"/>
		<edge from-layer="803" from-port="1" to-layer="805" to-port="3"/>
		<edge from-layer="804" from-port="1" to-layer="805" to-port="4"/>
	</edges>
	<meta_data>
		<MO_version value="unknown version"/>
		<cli_parameters>
			<blobs_as_inputs value="True"/>
			<caffe_parser_path value="DIR"/>
			<data_type value="FP32"/>
			<disable_nhwc_to_nchw value="False"/>
			<disable_omitting_optional value="False"/>
			<disable_resnet_optimization value="False"/>
			<enable_concat_optimization value="False"/>
			<enable_flattening_nested_params value="False"/>
			<enable_ssd_gluoncv value="False"/>
			<extensions value="DIR"/>
			<framework value="tf"/>
			<freeze_placeholder_with_value value="{}"/>
			<generate_deprecated_IR_V2 value="False"/>
			<generate_deprecated_IR_V7 value="True"/>
			<generate_experimental_IR_V10 value="False"/>
			<generate_new_TI value="False"/>
			<input value="input"/>
			<input_model value="DIR/mobilenet_v2_qs0.pb"/>
			<input_model_is_text value="False"/>
			<input_shape value="[1,224,224,3]"/>
			<k value="DIR/CustomLayersMapping.xml"/>
			<keep_quantize_ops_in_IR value="True"/>
			<keep_shape_ops value="False"/>
			<legacy_mxnet_model value="False"/>
			<log_level value="ERROR"/>
			<mean_scale_values value="{}"/>
			<mean_values value="()"/>
			<model_name value="mobilenet_v2_qs0"/>
			<move_to_preprocess value="False"/>
			<output_dir value="DIR"/>
			<placeholder_shapes value="{'input': array([  1, 224, 224,   3])}"/>
			<progress value="False"/>
			<remove_memory value="False"/>
			<remove_output_softmax value="False"/>
			<reverse_input_channels value="False"/>
			<save_params_from_nd value="False"/>
			<scale_values value="()"/>
			<silent value="False"/>
			<stream_output value="False"/>
			<unset unset_cli_parameters="batch, counts, disable_fusing, disable_gfusing, finegrain_fusing, input_checkpoint, input_meta_graph, input_proto, input_symbol, mean_file, mean_file_offsets, nd_prefix_name, output, pretrained_model_name, saved_model_dir, saved_model_tags, scale, tensorboard_logdir, tensorflow_custom_layer_libraries, tensorflow_custom_operations_config_update, tensorflow_object_detection_api_pipeline_config, tensorflow_operation_patterns, tensorflow_subgraph_patterns, tensorflow_use_custom_operations_config, transformations_config"/>
		</cli_parameters>
	</meta_data>
</net>
