<?xml version="1.0" ?>
<net batch="1" name="resnet50_224" precision="FP32" version="7">
	<layers>
		<layer id="0" name="input" type="Input">
			<output>
				<port id="0" precision="FP32">
					<dim>1</dim>
					<dim>3</dim>
					<dim>224</dim>
					<dim>224</dim>
				</port>
			</output>
		</layer>
		<layer id="1" name="image_preprocess/truediv/mul_/Fused_Mul_/FusedScaleShift_" type="ScaleShift">
			<input>
				<port id="0">
					<dim>1</dim>
					<dim>3</dim>
					<dim>224</dim>
					<dim>224</dim>
				</port>
			</input>
			<output>
				<port id="3" precision="FP32">
					<dim>1</dim>
					<dim>3</dim>
					<dim>224</dim>
					<dim>224</dim>
				</port>
			</output>
			<blobs>
				<weights offset="0" precision="FP32" size="12"/>
				<biases offset="12" precision="FP32" size="12"/>
			</blobs>
		</layer>
		<layer id="2" name="conv0/mul_fold/Output_0/Data__const" type="Const">
			<output>
				<port id="1" precision="FP32">
					<dim>64</dim>
					<dim>3</dim>
					<dim>7</dim>
					<dim>7</dim>
				</port>
			</output>
			<blobs>
				<custom offset="24" precision="FP32" size="37632"/>
			</blobs>
		</layer>
		<layer id="3" name="Copy_conv0/weights_quant/FakeQuantWithMinMaxVars/nudged_min/Output_0/Data_/copy_const" type="Const">
			<output>
				<port id="1" precision="FP32">
					<dim>1</dim>
					<dim>1</dim>
					<dim>1</dim>
					<dim>1</dim>
				</port>
			</output>
			<blobs>
				<custom offset="37656" precision="FP32" size="4"/>
			</blobs>
		</layer>
		<layer id="4" name="Copy_conv0/weights_quant/FakeQuantWithMinMaxVars/nudged_max/Output_0/Data_/copy_const" type="Const">
			<output>
				<port id="1" precision="FP32">
					<dim>1</dim>
					<dim>1</dim>
					<dim>1</dim>
					<dim>1</dim>
				</port>
			</output>
			<blobs>
				<custom offset="37660" precision="FP32" size="4"/>
			</blobs>
		</layer>
		<layer id="5" name="Copy_conv0/weights_quant/FakeQuantWithMinMaxVars/nudged_min/Output_0/Data_11483/copy_const" type="Const">
			<output>
				<port id="1" precision="FP32">
					<dim>1</dim>
					<dim>1</dim>
					<dim>1</dim>
					<dim>1</dim>
				</port>
			</output>
			<blobs>
				<custom offset="37656" precision="FP32" size="4"/>
			</blobs>
		</layer>
		<layer id="6" name="Copy_conv0/weights_quant/FakeQuantWithMinMaxVars/nudged_max/Output_0/Data_11287/copy_const" type="Const">
			<output>
				<port id="1" precision="FP32">
					<dim>1</dim>
					<dim>1</dim>
					<dim>1</dim>
					<dim>1</dim>
				</port>
			</output>
			<blobs>
				<custom offset="37660" precision="FP32" size="4"/>
			</blobs>
		</layer>
		<layer id="7" name="conv0/weights_quant/FakeQuantWithMinMaxVars" type="FakeQuantize">
			<data levels="255"/>
			<input>
				<port id="0">
					<dim>64</dim>
					<dim>3</dim>
					<dim>7</dim>
					<dim>7</dim>
				</port>
				<port id="1">
					<dim>1</dim>
					<dim>1</dim>
					<dim>1</dim>
					<dim>1</dim>
				</port>
				<port id="2">
					<dim>1</dim>
					<dim>1</dim>
					<dim>1</dim>
					<dim>1</dim>
				</port>
				<port id="3">
					<dim>1</dim>
					<dim>1</dim>
					<dim>1</dim>
					<dim>1</dim>
				</port>
				<port id="4">
					<dim>1</dim>
					<dim>1</dim>
					<dim>1</dim>
					<dim>1</dim>
				</port>
			</input>
			<output>
				<port id="5" precision="FP32">
					<dim>64</dim>
					<dim>3</dim>
					<dim>7</dim>
					<dim>7</dim>
				</port>
			</output>
		</layer>
		<layer id="8" name="bias_data27507_const" type="Const">
			<output>
				<port id="1" precision="FP32">
					<dim>64</dim>
				</port>
			</output>
			<blobs>
				<custom offset="37664" precision="FP32" size="256"/>
			</blobs>
		</layer>
		<layer id="9" name="conv0/Conv2D_Fold" type="Convolution">
			<data auto_pad="same_upper" dilations="1,1" group="1" kernel="7,7" output="64" pads_begin="2,2" pads_end="3,3" strides="2,2"/>
			<input>
				<port id="0">
					<dim>1</dim>
					<dim>3</dim>
					<dim>224</dim>
					<dim>224</dim>
				</port>
				<port id="1">
					<dim>64</dim>
					<dim>3</dim>
					<dim>7</dim>
					<dim>7</dim>
				</port>
				<port id="2">
					<dim>64</dim>
				</port>
			</input>
			<output>
				<port id="3" precision="FP32">
					<dim>1</dim>
					<dim>64</dim>
					<dim>112</dim>
					<dim>112</dim>
				</port>
			</output>
		</layer>
		<layer id="10" name="Copy_conv0/act_quant/FakeQuantWithMinMaxVars/nudged_min/Output_0/Data_/copy_const" type="Const">
			<output>
				<port id="1" precision="FP32">
					<dim>1</dim>
					<dim>1</dim>
					<dim>1</dim>
					<dim>1</dim>
				</port>
			</output>
			<blobs>
				<custom offset="37920" precision="FP32" size="4"/>
			</blobs>
		</layer>
		<layer id="11" name="Copy_conv0/act_quant/FakeQuantWithMinMaxVars/nudged_max/Output_0/Data_/copy_const" type="Const">
			<output>
				<port id="1" precision="FP32">
					<dim>1</dim>
					<dim>1</dim>
					<dim>1</dim>
					<dim>1</dim>
				</port>
			</output>
			<blobs>
				<custom offset="37924" precision="FP32" size="4"/>
			</blobs>
		</layer>
		<layer id="12" name="Copy_conv0/act_quant/FakeQuantWithMinMaxVars/nudged_min/Output_0/Data_11451/copy_const" type="Const">
			<output>
				<port id="1" precision="FP32">
					<dim>1</dim>
					<dim>1</dim>
					<dim>1</dim>
					<dim>1</dim>
				</port>
			</output>
			<blobs>
				<custom offset="37920" precision="FP32" size="4"/>
			</blobs>
		</layer>
		<layer id="13" name="Copy_conv0/act_quant/FakeQuantWithMinMaxVars/nudged_max/Output_0/Data_11337/copy_const" type="Const">
			<output>
				<port id="1" precision="FP32">
					<dim>1</dim>
					<dim>1</dim>
					<dim>1</dim>
					<dim>1</dim>
				</port>
			</output>
			<blobs>
				<custom offset="37924" precision="FP32" size="4"/>
			</blobs>
		</layer>
		<layer id="14" name="conv0/act_quant/FakeQuantWithMinMaxVars" type="FakeQuantize">
			<data levels="256"/>
			<input>
				<port id="0">
					<dim>1</dim>
					<dim>64</dim>
					<dim>112</dim>
					<dim>112</dim>
				</port>
				<port id="1">
					<dim>1</dim>
					<dim>1</dim>
					<dim>1</dim>
					<dim>1</dim>
				</port>
				<port id="2">
					<dim>1</dim>
					<dim>1</dim>
					<dim>1</dim>
					<dim>1</dim>
				</port>
				<port id="3">
					<dim>1</dim>
					<dim>1</dim>
					<dim>1</dim>
					<dim>1</dim>
				</port>
				<port id="4">
					<dim>1</dim>
					<dim>1</dim>
					<dim>1</dim>
					<dim>1</dim>
				</port>
			</input>
			<output>
				<port id="5" precision="FP32">
					<dim>1</dim>
					<dim>64</dim>
					<dim>112</dim>
					<dim>112</dim>
				</port>
			</output>
		</layer>
		<layer id="15" name="pool0/MaxPool" type="Pooling">
			<data auto_pad="same_upper" exclude-pad="true" kernel="3,3" pads_begin="0,0" pads_end="1,1" pool-method="max" strides="2,2"/>
			<input>
				<port id="0">
					<dim>1</dim>
					<dim>64</dim>
					<dim>112</dim>
					<dim>112</dim>
				</port>
			</input>
			<output>
				<port id="1" precision="FP32">
					<dim>1</dim>
					<dim>64</dim>
					<dim>56</dim>
					<dim>56</dim>
				</port>
			</output>
		</layer>
		<layer id="16" name="group0/block0/conv1/mul_fold/Output_0/Data__const" type="Const">
			<output>
				<port id="1" precision="FP32">
					<dim>64</dim>
					<dim>64</dim>
					<dim>1</dim>
					<dim>1</dim>
				</port>
			</output>
			<blobs>
				<custom offset="37928" precision="FP32" size="16384"/>
			</blobs>
		</layer>
		<layer id="17" name="Copy_group0/block0/conv1/weights_quant/FakeQuantWithMinMaxVars/nudged_min/Output_0/Data_/copy_const" type="Const">
			<output>
				<port id="1" precision="FP32">
					<dim>1</dim>
					<dim>1</dim>
					<dim>1</dim>
					<dim>1</dim>
				</port>
			</output>
			<blobs>
				<custom offset="54312" precision="FP32" size="4"/>
			</blobs>
		</layer>
		<layer id="18" name="Copy_group0/block0/conv1/weights_quant/FakeQuantWithMinMaxVars/nudged_max/Output_0/Data_/copy_const" type="Const">
			<output>
				<port id="1" precision="FP32">
					<dim>1</dim>
					<dim>1</dim>
					<dim>1</dim>
					<dim>1</dim>
				</port>
			</output>
			<blobs>
				<custom offset="54316" precision="FP32" size="4"/>
			</blobs>
		</layer>
		<layer id="19" name="Copy_group0/block0/conv1/weights_quant/FakeQuantWithMinMaxVars/nudged_min/Output_0/Data_11383/copy_const" type="Const">
			<output>
				<port id="1" precision="FP32">
					<dim>1</dim>
					<dim>1</dim>
					<dim>1</dim>
					<dim>1</dim>
				</port>
			</output>
			<blobs>
				<custom offset="54312" precision="FP32" size="4"/>
			</blobs>
		</layer>
		<layer id="20" name="Copy_group0/block0/conv1/weights_quant/FakeQuantWithMinMaxVars/nudged_max/Output_0/Data_11295/copy_const" type="Const">
			<output>
				<port id="1" precision="FP32">
					<dim>1</dim>
					<dim>1</dim>
					<dim>1</dim>
					<dim>1</dim>
				</port>
			</output>
			<blobs>
				<custom offset="54316" precision="FP32" size="4"/>
			</blobs>
		</layer>
		<layer id="21" name="group0/block0/conv1/weights_quant/FakeQuantWithMinMaxVars" type="FakeQuantize">
			<data levels="255"/>
			<input>
				<port id="0">
					<dim>64</dim>
					<dim>64</dim>
					<dim>1</dim>
					<dim>1</dim>
				</port>
				<port id="1">
					<dim>1</dim>
					<dim>1</dim>
					<dim>1</dim>
					<dim>1</dim>
				</port>
				<port id="2">
					<dim>1</dim>
					<dim>1</dim>
					<dim>1</dim>
					<dim>1</dim>
				</port>
				<port id="3">
					<dim>1</dim>
					<dim>1</dim>
					<dim>1</dim>
					<dim>1</dim>
				</port>
				<port id="4">
					<dim>1</dim>
					<dim>1</dim>
					<dim>1</dim>
					<dim>1</dim>
				</port>
			</input>
			<output>
				<port id="5" precision="FP32">
					<dim>64</dim>
					<dim>64</dim>
					<dim>1</dim>
					<dim>1</dim>
				</port>
			</output>
		</layer>
		<layer id="22" name="bias_data2751027511_const" type="Const">
			<output>
				<port id="1" precision="FP32">
					<dim>64</dim>
				</port>
			</output>
			<blobs>
				<custom offset="54320" precision="FP32" size="256"/>
			</blobs>
		</layer>
		<layer id="23" name="group0/block0/conv1/Conv2D_Fold" type="Convolution">
			<data auto_pad="same_upper" dilations="1,1" group="1" kernel="1,1" output="64" pads_begin="0,0" pads_end="0,0" strides="1,1"/>
			<input>
				<port id="0">
					<dim>1</dim>
					<dim>64</dim>
					<dim>56</dim>
					<dim>56</dim>
				</port>
				<port id="1">
					<dim>64</dim>
					<dim>64</dim>
					<dim>1</dim>
					<dim>1</dim>
				</port>
				<port id="2">
					<dim>64</dim>
				</port>
			</input>
			<output>
				<port id="3" precision="FP32">
					<dim>1</dim>
					<dim>64</dim>
					<dim>56</dim>
					<dim>56</dim>
				</port>
			</output>
		</layer>
		<layer id="24" name="Copy_group0/block0/conv1/act_quant/FakeQuantWithMinMaxVars/nudged_min/Output_0/Data_/copy_const" type="Const">
			<output>
				<port id="1" precision="FP32">
					<dim>1</dim>
					<dim>1</dim>
					<dim>1</dim>
					<dim>1</dim>
				</port>
			</output>
			<blobs>
				<custom offset="37920" precision="FP32" size="4"/>
			</blobs>
		</layer>
		<layer id="25" name="Copy_group0/block0/conv1/act_quant/FakeQuantWithMinMaxVars/nudged_max/Output_0/Data_/copy_const" type="Const">
			<output>
				<port id="1" precision="FP32">
					<dim>1</dim>
					<dim>1</dim>
					<dim>1</dim>
					<dim>1</dim>
				</port>
			</output>
			<blobs>
				<custom offset="54576" precision="FP32" size="4"/>
			</blobs>
		</layer>
		<layer id="26" name="Copy_group0/block0/conv1/act_quant/FakeQuantWithMinMaxVars/nudged_min/Output_0/Data_11409/copy_const" type="Const">
			<output>
				<port id="1" precision="FP32">
					<dim>1</dim>
					<dim>1</dim>
					<dim>1</dim>
					<dim>1</dim>
				</port>
			</output>
			<blobs>
				<custom offset="37920" precision="FP32" size="4"/>
			</blobs>
		</layer>
		<layer id="27" name="Copy_group0/block0/conv1/act_quant/FakeQuantWithMinMaxVars/nudged_max/Output_0/Data_11679/copy_const" type="Const">
			<output>
				<port id="1" precision="FP32">
					<dim>1</dim>
					<dim>1</dim>
					<dim>1</dim>
					<dim>1</dim>
				</port>
			</output>
			<blobs>
				<custom offset="54576" precision="FP32" size="4"/>
			</blobs>
		</layer>
		<layer id="28" name="group0/block0/conv1/act_quant/FakeQuantWithMinMaxVars" type="FakeQuantize">
			<data levels="256"/>
			<input>
				<port id="0">
					<dim>1</dim>
					<dim>64</dim>
					<dim>56</dim>
					<dim>56</dim>
				</port>
				<port id="1">
					<dim>1</dim>
					<dim>1</dim>
					<dim>1</dim>
					<dim>1</dim>
				</port>
				<port id="2">
					<dim>1</dim>
					<dim>1</dim>
					<dim>1</dim>
					<dim>1</dim>
				</port>
				<port id="3">
					<dim>1</dim>
					<dim>1</dim>
					<dim>1</dim>
					<dim>1</dim>
				</port>
				<port id="4">
					<dim>1</dim>
					<dim>1</dim>
					<dim>1</dim>
					<dim>1</dim>
				</port>
			</input>
			<output>
				<port id="5" precision="FP32">
					<dim>1</dim>
					<dim>64</dim>
					<dim>56</dim>
					<dim>56</dim>
				</port>
			</output>
		</layer>
		<layer id="29" name="group0/block0/conv2/mul_fold/Output_0/Data__const" type="Const">
			<output>
				<port id="1" precision="FP32">
					<dim>64</dim>
					<dim>64</dim>
					<dim>3</dim>
					<dim>3</dim>
				</port>
			</output>
			<blobs>
				<custom offset="54580" precision="FP32" size="147456"/>
			</blobs>
		</layer>
		<layer id="30" name="Copy_group0/block0/conv2/weights_quant/FakeQuantWithMinMaxVars/nudged_min/Output_0/Data_/copy_const" type="Const">
			<output>
				<port id="1" precision="FP32">
					<dim>1</dim>
					<dim>1</dim>
					<dim>1</dim>
					<dim>1</dim>
				</port>
			</output>
			<blobs>
				<custom offset="202036" precision="FP32" size="4"/>
			</blobs>
		</layer>
		<layer id="31" name="Copy_group0/block0/conv2/weights_quant/FakeQuantWithMinMaxVars/nudged_max/Output_0/Data_/copy_const" type="Const">
			<output>
				<port id="1" precision="FP32">
					<dim>1</dim>
					<dim>1</dim>
					<dim>1</dim>
					<dim>1</dim>
				</port>
			</output>
			<blobs>
				<custom offset="202040" precision="FP32" size="4"/>
			</blobs>
		</layer>
		<layer id="32" name="Copy_group0/block0/conv2/weights_quant/FakeQuantWithMinMaxVars/nudged_min/Output_0/Data_11537/copy_const" type="Const">
			<output>
				<port id="1" precision="FP32">
					<dim>1</dim>
					<dim>1</dim>
					<dim>1</dim>
					<dim>1</dim>
				</port>
			</output>
			<blobs>
				<custom offset="202036" precision="FP32" size="4"/>
			</blobs>
		</layer>
		<layer id="33" name="Copy_group0/block0/conv2/weights_quant/FakeQuantWithMinMaxVars/nudged_max/Output_0/Data_11321/copy_const" type="Const">
			<output>
				<port id="1" precision="FP32">
					<dim>1</dim>
					<dim>1</dim>
					<dim>1</dim>
					<dim>1</dim>
				</port>
			</output>
			<blobs>
				<custom offset="202040" precision="FP32" size="4"/>
			</blobs>
		</layer>
		<layer id="34" name="group0/block0/conv2/weights_quant/FakeQuantWithMinMaxVars" type="FakeQuantize">
			<data levels="255"/>
			<input>
				<port id="0">
					<dim>64</dim>
					<dim>64</dim>
					<dim>3</dim>
					<dim>3</dim>
				</port>
				<port id="1">
					<dim>1</dim>
					<dim>1</dim>
					<dim>1</dim>
					<dim>1</dim>
				</port>
				<port id="2">
					<dim>1</dim>
					<dim>1</dim>
					<dim>1</dim>
					<dim>1</dim>
				</port>
				<port id="3">
					<dim>1</dim>
					<dim>1</dim>
					<dim>1</dim>
					<dim>1</dim>
				</port>
				<port id="4">
					<dim>1</dim>
					<dim>1</dim>
					<dim>1</dim>
					<dim>1</dim>
				</port>
			</input>
			<output>
				<port id="5" precision="FP32">
					<dim>64</dim>
					<dim>64</dim>
					<dim>3</dim>
					<dim>3</dim>
				</port>
			</output>
		</layer>
		<layer id="35" name="bias_data2751227513_const" type="Const">
			<output>
				<port id="1" precision="FP32">
					<dim>64</dim>
				</port>
			</output>
			<blobs>
				<custom offset="202044" precision="FP32" size="256"/>
			</blobs>
		</layer>
		<layer id="36" name="group0/block0/conv2/Conv2D_Fold" type="Convolution">
			<data auto_pad="same_upper" dilations="1,1" group="1" kernel="3,3" output="64" pads_begin="1,1" pads_end="1,1" strides="1,1"/>
			<input>
				<port id="0">
					<dim>1</dim>
					<dim>64</dim>
					<dim>56</dim>
					<dim>56</dim>
				</port>
				<port id="1">
					<dim>64</dim>
					<dim>64</dim>
					<dim>3</dim>
					<dim>3</dim>
				</port>
				<port id="2">
					<dim>64</dim>
				</port>
			</input>
			<output>
				<port id="3" precision="FP32">
					<dim>1</dim>
					<dim>64</dim>
					<dim>56</dim>
					<dim>56</dim>
				</port>
			</output>
		</layer>
		<layer id="37" name="Copy_group0/block0/conv2/act_quant/FakeQuantWithMinMaxVars/nudged_min/Output_0/Data_/copy_const" type="Const">
			<output>
				<port id="1" precision="FP32">
					<dim>1</dim>
					<dim>1</dim>
					<dim>1</dim>
					<dim>1</dim>
				</port>
			</output>
			<blobs>
				<custom offset="37920" precision="FP32" size="4"/>
			</blobs>
		</layer>
		<layer id="38" name="Copy_group0/block0/conv2/act_quant/FakeQuantWithMinMaxVars/nudged_max/Output_0/Data_/copy_const" type="Const">
			<output>
				<port id="1" precision="FP32">
					<dim>1</dim>
					<dim>1</dim>
					<dim>1</dim>
					<dim>1</dim>
				</port>
			</output>
			<blobs>
				<custom offset="202300" precision="FP32" size="4"/>
			</blobs>
		</layer>
		<layer id="39" name="Copy_group0/block0/conv2/act_quant/FakeQuantWithMinMaxVars/nudged_min/Output_0/Data_11353/copy_const" type="Const">
			<output>
				<port id="1" precision="FP32">
					<dim>1</dim>
					<dim>1</dim>
					<dim>1</dim>
					<dim>1</dim>
				</port>
			</output>
			<blobs>
				<custom offset="37920" precision="FP32" size="4"/>
			</blobs>
		</layer>
		<layer id="40" name="Copy_group0/block0/conv2/act_quant/FakeQuantWithMinMaxVars/nudged_max/Output_0/Data_11495/copy_const" type="Const">
			<output>
				<port id="1" precision="FP32">
					<dim>1</dim>
					<dim>1</dim>
					<dim>1</dim>
					<dim>1</dim>
				</port>
			</output>
			<blobs>
				<custom offset="202300" precision="FP32" size="4"/>
			</blobs>
		</layer>
		<layer id="41" name="group0/block0/conv2/act_quant/FakeQuantWithMinMaxVars" type="FakeQuantize">
			<data levels="256"/>
			<input>
				<port id="0">
					<dim>1</dim>
					<dim>64</dim>
					<dim>56</dim>
					<dim>56</dim>
				</port>
				<port id="1">
					<dim>1</dim>
					<dim>1</dim>
					<dim>1</dim>
					<dim>1</dim>
				</port>
				<port id="2">
					<dim>1</dim>
					<dim>1</dim>
					<dim>1</dim>
					<dim>1</dim>
				</port>
				<port id="3">
					<dim>1</dim>
					<dim>1</dim>
					<dim>1</dim>
					<dim>1</dim>
				</port>
				<port id="4">
					<dim>1</dim>
					<dim>1</dim>
					<dim>1</dim>
					<dim>1</dim>
				</port>
			</input>
			<output>
				<port id="5" precision="FP32">
					<dim>1</dim>
					<dim>64</dim>
					<dim>56</dim>
					<dim>56</dim>
				</port>
			</output>
		</layer>
		<layer id="42" name="group0/block0/conv3/mul_fold/Output_0/Data__const" type="Const">
			<output>
				<port id="1" precision="FP32">
					<dim>256</dim>
					<dim>64</dim>
					<dim>1</dim>
					<dim>1</dim>
				</port>
			</output>
			<blobs>
				<custom offset="202304" precision="FP32" size="65536"/>
			</blobs>
		</layer>
		<layer id="43" name="Copy_group0/block0/conv3/weights_quant/FakeQuantWithMinMaxVars/nudged_min/Output_0/Data_/copy_const" type="Const">
			<output>
				<port id="1" precision="FP32">
					<dim>1</dim>
					<dim>1</dim>
					<dim>1</dim>
					<dim>1</dim>
				</port>
			</output>
			<blobs>
				<custom offset="267840" precision="FP32" size="4"/>
			</blobs>
		</layer>
		<layer id="44" name="Copy_group0/block0/conv3/weights_quant/FakeQuantWithMinMaxVars/nudged_max/Output_0/Data_/copy_const" type="Const">
			<output>
				<port id="1" precision="FP32">
					<dim>1</dim>
					<dim>1</dim>
					<dim>1</dim>
					<dim>1</dim>
				</port>
			</output>
			<blobs>
				<custom offset="267844" precision="FP32" size="4"/>
			</blobs>
		</layer>
		<layer id="45" name="Copy_group0/block0/conv3/weights_quant/FakeQuantWithMinMaxVars/nudged_min/Output_0/Data_11251/copy_const" type="Const">
			<output>
				<port id="1" precision="FP32">
					<dim>1</dim>
					<dim>1</dim>
					<dim>1</dim>
					<dim>1</dim>
				</port>
			</output>
			<blobs>
				<custom offset="267840" precision="FP32" size="4"/>
			</blobs>
		</layer>
		<layer id="46" name="Copy_group0/block0/conv3/weights_quant/FakeQuantWithMinMaxVars/nudged_max/Output_0/Data_11693/copy_const" type="Const">
			<output>
				<port id="1" precision="FP32">
					<dim>1</dim>
					<dim>1</dim>
					<dim>1</dim>
					<dim>1</dim>
				</port>
			</output>
			<blobs>
				<custom offset="267844" precision="FP32" size="4"/>
			</blobs>
		</layer>
		<layer id="47" name="group0/block0/conv3/weights_quant/FakeQuantWithMinMaxVars" type="FakeQuantize">
			<data levels="255"/>
			<input>
				<port id="0">
					<dim>256</dim>
					<dim>64</dim>
					<dim>1</dim>
					<dim>1</dim>
				</port>
				<port id="1">
					<dim>1</dim>
					<dim>1</dim>
					<dim>1</dim>
					<dim>1</dim>
				</port>
				<port id="2">
					<dim>1</dim>
					<dim>1</dim>
					<dim>1</dim>
					<dim>1</dim>
				</port>
				<port id="3">
					<dim>1</dim>
					<dim>1</dim>
					<dim>1</dim>
					<dim>1</dim>
				</port>
				<port id="4">
					<dim>1</dim>
					<dim>1</dim>
					<dim>1</dim>
					<dim>1</dim>
				</port>
			</input>
			<output>
				<port id="5" precision="FP32">
					<dim>256</dim>
					<dim>64</dim>
					<dim>1</dim>
					<dim>1</dim>
				</port>
			</output>
		</layer>
		<layer id="48" name="bias_data2751427515_const" type="Const">
			<output>
				<port id="1" precision="FP32">
					<dim>256</dim>
				</port>
			</output>
			<blobs>
				<custom offset="267848" precision="FP32" size="1024"/>
			</blobs>
		</layer>
		<layer id="49" name="group0/block0/conv3/Conv2D_Fold" type="Convolution">
			<data auto_pad="same_upper" dilations="1,1" group="1" kernel="1,1" output="256" pads_begin="0,0" pads_end="0,0" strides="1,1"/>
			<input>
				<port id="0">
					<dim>1</dim>
					<dim>64</dim>
					<dim>56</dim>
					<dim>56</dim>
				</port>
				<port id="1">
					<dim>256</dim>
					<dim>64</dim>
					<dim>1</dim>
					<dim>1</dim>
				</port>
				<port id="2">
					<dim>256</dim>
				</port>
			</input>
			<output>
				<port id="3" precision="FP32">
					<dim>1</dim>
					<dim>256</dim>
					<dim>56</dim>
					<dim>56</dim>
				</port>
			</output>
		</layer>
		<layer id="50" name="Copy_group0/block0/conv3/act_quant/FakeQuantWithMinMaxVars/nudged_min/Output_0/Data_/copy_const" type="Const">
			<output>
				<port id="1" precision="FP32">
					<dim>1</dim>
					<dim>1</dim>
					<dim>1</dim>
					<dim>1</dim>
				</port>
			</output>
			<blobs>
				<custom offset="37920" precision="FP32" size="4"/>
			</blobs>
		</layer>
		<layer id="51" name="Copy_group0/block0/conv3/act_quant/FakeQuantWithMinMaxVars/nudged_max/Output_0/Data_/copy_const" type="Const">
			<output>
				<port id="1" precision="FP32">
					<dim>1</dim>
					<dim>1</dim>
					<dim>1</dim>
					<dim>1</dim>
				</port>
			</output>
			<blobs>
				<custom offset="268872" precision="FP32" size="4"/>
			</blobs>
		</layer>
		<layer id="52" name="Copy_group0/block0/conv3/act_quant/FakeQuantWithMinMaxVars/nudged_min/Output_0/Data_11529/copy_const" type="Const">
			<output>
				<port id="1" precision="FP32">
					<dim>1</dim>
					<dim>1</dim>
					<dim>1</dim>
					<dim>1</dim>
				</port>
			</output>
			<blobs>
				<custom offset="37920" precision="FP32" size="4"/>
			</blobs>
		</layer>
		<layer id="53" name="Copy_group0/block0/conv3/act_quant/FakeQuantWithMinMaxVars/nudged_max/Output_0/Data_11485/copy_const" type="Const">
			<output>
				<port id="1" precision="FP32">
					<dim>1</dim>
					<dim>1</dim>
					<dim>1</dim>
					<dim>1</dim>
				</port>
			</output>
			<blobs>
				<custom offset="268872" precision="FP32" size="4"/>
			</blobs>
		</layer>
		<layer id="54" name="group0/block0/conv3/act_quant/FakeQuantWithMinMaxVars" type="FakeQuantize">
			<data levels="256"/>
			<input>
				<port id="0">
					<dim>1</dim>
					<dim>256</dim>
					<dim>56</dim>
					<dim>56</dim>
				</port>
				<port id="1">
					<dim>1</dim>
					<dim>1</dim>
					<dim>1</dim>
					<dim>1</dim>
				</port>
				<port id="2">
					<dim>1</dim>
					<dim>1</dim>
					<dim>1</dim>
					<dim>1</dim>
				</port>
				<port id="3">
					<dim>1</dim>
					<dim>1</dim>
					<dim>1</dim>
					<dim>1</dim>
				</port>
				<port id="4">
					<dim>1</dim>
					<dim>1</dim>
					<dim>1</dim>
					<dim>1</dim>
				</port>
			</input>
			<output>
				<port id="5" precision="FP32">
					<dim>1</dim>
					<dim>256</dim>
					<dim>56</dim>
					<dim>56</dim>
				</port>
			</output>
		</layer>
		<layer id="55" name="group0/block0/convshortcut/mul_fold/Output_0/Data__const" type="Const">
			<output>
				<port id="1" precision="FP32">
					<dim>256</dim>
					<dim>64</dim>
					<dim>1</dim>
					<dim>1</dim>
				</port>
			</output>
			<blobs>
				<custom offset="268876" precision="FP32" size="65536"/>
			</blobs>
		</layer>
		<layer id="56" name="Copy_group0/block0/convshortcut/weights_quant/FakeQuantWithMinMaxVars/nudged_min/Output_0/Data_/copy_const" type="Const">
			<output>
				<port id="1" precision="FP32">
					<dim>1</dim>
					<dim>1</dim>
					<dim>1</dim>
					<dim>1</dim>
				</port>
			</output>
			<blobs>
				<custom offset="334412" precision="FP32" size="4"/>
			</blobs>
		</layer>
		<layer id="57" name="Copy_group0/block0/convshortcut/weights_quant/FakeQuantWithMinMaxVars/nudged_max/Output_0/Data_/copy_const" type="Const">
			<output>
				<port id="1" precision="FP32">
					<dim>1</dim>
					<dim>1</dim>
					<dim>1</dim>
					<dim>1</dim>
				</port>
			</output>
			<blobs>
				<custom offset="334416" precision="FP32" size="4"/>
			</blobs>
		</layer>
		<layer id="58" name="Copy_group0/block0/convshortcut/weights_quant/FakeQuantWithMinMaxVars/nudged_min/Output_0/Data_11719/copy_const" type="Const">
			<output>
				<port id="1" precision="FP32">
					<dim>1</dim>
					<dim>1</dim>
					<dim>1</dim>
					<dim>1</dim>
				</port>
			</output>
			<blobs>
				<custom offset="334412" precision="FP32" size="4"/>
			</blobs>
		</layer>
		<layer id="59" name="Copy_group0/block0/convshortcut/weights_quant/FakeQuantWithMinMaxVars/nudged_max/Output_0/Data_11655/copy_const" type="Const">
			<output>
				<port id="1" precision="FP32">
					<dim>1</dim>
					<dim>1</dim>
					<dim>1</dim>
					<dim>1</dim>
				</port>
			</output>
			<blobs>
				<custom offset="334416" precision="FP32" size="4"/>
			</blobs>
		</layer>
		<layer id="60" name="group0/block0/convshortcut/weights_quant/FakeQuantWithMinMaxVars" type="FakeQuantize">
			<data levels="255"/>
			<input>
				<port id="0">
					<dim>256</dim>
					<dim>64</dim>
					<dim>1</dim>
					<dim>1</dim>
				</port>
				<port id="1">
					<dim>1</dim>
					<dim>1</dim>
					<dim>1</dim>
					<dim>1</dim>
				</port>
				<port id="2">
					<dim>1</dim>
					<dim>1</dim>
					<dim>1</dim>
					<dim>1</dim>
				</port>
				<port id="3">
					<dim>1</dim>
					<dim>1</dim>
					<dim>1</dim>
					<dim>1</dim>
				</port>
				<port id="4">
					<dim>1</dim>
					<dim>1</dim>
					<dim>1</dim>
					<dim>1</dim>
				</port>
			</input>
			<output>
				<port id="5" precision="FP32">
					<dim>256</dim>
					<dim>64</dim>
					<dim>1</dim>
					<dim>1</dim>
				</port>
			</output>
		</layer>
		<layer id="61" name="bias_data2750827509_const" type="Const">
			<output>
				<port id="1" precision="FP32">
					<dim>256</dim>
				</port>
			</output>
			<blobs>
				<custom offset="334420" precision="FP32" size="1024"/>
			</blobs>
		</layer>
		<layer id="62" name="group0/block0/convshortcut/Conv2D_Fold" type="Convolution">
			<data auto_pad="same_upper" dilations="1,1" group="1" kernel="1,1" output="256" pads_begin="0,0" pads_end="0,0" strides="1,1"/>
			<input>
				<port id="0">
					<dim>1</dim>
					<dim>64</dim>
					<dim>56</dim>
					<dim>56</dim>
				</port>
				<port id="1">
					<dim>256</dim>
					<dim>64</dim>
					<dim>1</dim>
					<dim>1</dim>
				</port>
				<port id="2">
					<dim>256</dim>
				</port>
			</input>
			<output>
				<port id="3" precision="FP32">
					<dim>1</dim>
					<dim>256</dim>
					<dim>56</dim>
					<dim>56</dim>
				</port>
			</output>
		</layer>
		<layer id="63" name="Copy_group0/block0/convshortcut/act_quant/FakeQuantWithMinMaxVars/nudged_min/Output_0/Data_/copy_const" type="Const">
			<output>
				<port id="1" precision="FP32">
					<dim>1</dim>
					<dim>1</dim>
					<dim>1</dim>
					<dim>1</dim>
				</port>
			</output>
			<blobs>
				<custom offset="37920" precision="FP32" size="4"/>
			</blobs>
		</layer>
		<layer id="64" name="Copy_group0/block0/convshortcut/act_quant/FakeQuantWithMinMaxVars/nudged_max/Output_0/Data_/copy_const" type="Const">
			<output>
				<port id="1" precision="FP32">
					<dim>1</dim>
					<dim>1</dim>
					<dim>1</dim>
					<dim>1</dim>
				</port>
			</output>
			<blobs>
				<custom offset="268872" precision="FP32" size="4"/>
			</blobs>
		</layer>
		<layer id="65" name="Copy_group0/block0/convshortcut/act_quant/FakeQuantWithMinMaxVars/nudged_min/Output_0/Data_11739/copy_const" type="Const">
			<output>
				<port id="1" precision="FP32">
					<dim>1</dim>
					<dim>1</dim>
					<dim>1</dim>
					<dim>1</dim>
				</port>
			</output>
			<blobs>
				<custom offset="37920" precision="FP32" size="4"/>
			</blobs>
		</layer>
		<layer id="66" name="Copy_group0/block0/convshortcut/act_quant/FakeQuantWithMinMaxVars/nudged_max/Output_0/Data_11349/copy_const" type="Const">
			<output>
				<port id="1" precision="FP32">
					<dim>1</dim>
					<dim>1</dim>
					<dim>1</dim>
					<dim>1</dim>
				</port>
			</output>
			<blobs>
				<custom offset="268872" precision="FP32" size="4"/>
			</blobs>
		</layer>
		<layer id="67" name="group0/block0/convshortcut/act_quant/FakeQuantWithMinMaxVars" type="FakeQuantize">
			<data levels="256"/>
			<input>
				<port id="0">
					<dim>1</dim>
					<dim>256</dim>
					<dim>56</dim>
					<dim>56</dim>
				</port>
				<port id="1">
					<dim>1</dim>
					<dim>1</dim>
					<dim>1</dim>
					<dim>1</dim>
				</port>
				<port id="2">
					<dim>1</dim>
					<dim>1</dim>
					<dim>1</dim>
					<dim>1</dim>
				</port>
				<port id="3">
					<dim>1</dim>
					<dim>1</dim>
					<dim>1</dim>
					<dim>1</dim>
				</port>
				<port id="4">
					<dim>1</dim>
					<dim>1</dim>
					<dim>1</dim>
					<dim>1</dim>
				</port>
			</input>
			<output>
				<port id="5" precision="FP32">
					<dim>1</dim>
					<dim>256</dim>
					<dim>56</dim>
					<dim>56</dim>
				</port>
			</output>
		</layer>
		<layer id="68" name="group0/block0/add" type="Eltwise">
			<data operation="sum"/>
			<input>
				<port id="0">
					<dim>1</dim>
					<dim>256</dim>
					<dim>56</dim>
					<dim>56</dim>
				</port>
				<port id="1">
					<dim>1</dim>
					<dim>256</dim>
					<dim>56</dim>
					<dim>56</dim>
				</port>
			</input>
			<output>
				<port id="2" precision="FP32">
					<dim>1</dim>
					<dim>256</dim>
					<dim>56</dim>
					<dim>56</dim>
				</port>
			</output>
		</layer>
		<layer id="69" name="Copy_group0/block0/post_activation_bypass_quant/FakeQuantWithMinMaxVars/nudged_min/Output_0/Data_/copy_const" type="Const">
			<output>
				<port id="1" precision="FP32">
					<dim>1</dim>
					<dim>1</dim>
					<dim>1</dim>
					<dim>1</dim>
				</port>
			</output>
			<blobs>
				<custom offset="37920" precision="FP32" size="4"/>
			</blobs>
		</layer>
		<layer id="70" name="Copy_group0/block0/post_activation_bypass_quant/FakeQuantWithMinMaxVars/nudged_max/Output_0/Data_/copy_const" type="Const">
			<output>
				<port id="1" precision="FP32">
					<dim>1</dim>
					<dim>1</dim>
					<dim>1</dim>
					<dim>1</dim>
				</port>
			</output>
			<blobs>
				<custom offset="335444" precision="FP32" size="4"/>
			</blobs>
		</layer>
		<layer id="71" name="Copy_group0/block0/post_activation_bypass_quant/FakeQuantWithMinMaxVars/nudged_min/Output_0/Data_11475/copy_const" type="Const">
			<output>
				<port id="1" precision="FP32">
					<dim>1</dim>
					<dim>1</dim>
					<dim>1</dim>
					<dim>1</dim>
				</port>
			</output>
			<blobs>
				<custom offset="37920" precision="FP32" size="4"/>
			</blobs>
		</layer>
		<layer id="72" name="Copy_group0/block0/post_activation_bypass_quant/FakeQuantWithMinMaxVars/nudged_max/Output_0/Data_11673/copy_const" type="Const">
			<output>
				<port id="1" precision="FP32">
					<dim>1</dim>
					<dim>1</dim>
					<dim>1</dim>
					<dim>1</dim>
				</port>
			</output>
			<blobs>
				<custom offset="335444" precision="FP32" size="4"/>
			</blobs>
		</layer>
		<layer id="73" name="group0/block0/post_activation_bypass_quant/FakeQuantWithMinMaxVars" type="FakeQuantize">
			<data levels="256"/>
			<input>
				<port id="0">
					<dim>1</dim>
					<dim>256</dim>
					<dim>56</dim>
					<dim>56</dim>
				</port>
				<port id="1">
					<dim>1</dim>
					<dim>1</dim>
					<dim>1</dim>
					<dim>1</dim>
				</port>
				<port id="2">
					<dim>1</dim>
					<dim>1</dim>
					<dim>1</dim>
					<dim>1</dim>
				</port>
				<port id="3">
					<dim>1</dim>
					<dim>1</dim>
					<dim>1</dim>
					<dim>1</dim>
				</port>
				<port id="4">
					<dim>1</dim>
					<dim>1</dim>
					<dim>1</dim>
					<dim>1</dim>
				</port>
			</input>
			<output>
				<port id="5" precision="FP32">
					<dim>1</dim>
					<dim>256</dim>
					<dim>56</dim>
					<dim>56</dim>
				</port>
			</output>
		</layer>
		<layer id="74" name="group0/block1/conv1/mul_fold/Output_0/Data__const" type="Const">
			<output>
				<port id="1" precision="FP32">
					<dim>64</dim>
					<dim>256</dim>
					<dim>1</dim>
					<dim>1</dim>
				</port>
			</output>
			<blobs>
				<custom offset="335448" precision="FP32" size="65536"/>
			</blobs>
		</layer>
		<layer id="75" name="Copy_group0/block1/conv1/weights_quant/FakeQuantWithMinMaxVars/nudged_min/Output_0/Data_/copy_const" type="Const">
			<output>
				<port id="1" precision="FP32">
					<dim>1</dim>
					<dim>1</dim>
					<dim>1</dim>
					<dim>1</dim>
				</port>
			</output>
			<blobs>
				<custom offset="400984" precision="FP32" size="4"/>
			</blobs>
		</layer>
		<layer id="76" name="Copy_group0/block1/conv1/weights_quant/FakeQuantWithMinMaxVars/nudged_max/Output_0/Data_/copy_const" type="Const">
			<output>
				<port id="1" precision="FP32">
					<dim>1</dim>
					<dim>1</dim>
					<dim>1</dim>
					<dim>1</dim>
				</port>
			</output>
			<blobs>
				<custom offset="400988" precision="FP32" size="4"/>
			</blobs>
		</layer>
		<layer id="77" name="Copy_group0/block1/conv1/weights_quant/FakeQuantWithMinMaxVars/nudged_min/Output_0/Data_11415/copy_const" type="Const">
			<output>
				<port id="1" precision="FP32">
					<dim>1</dim>
					<dim>1</dim>
					<dim>1</dim>
					<dim>1</dim>
				</port>
			</output>
			<blobs>
				<custom offset="400984" precision="FP32" size="4"/>
			</blobs>
		</layer>
		<layer id="78" name="Copy_group0/block1/conv1/weights_quant/FakeQuantWithMinMaxVars/nudged_max/Output_0/Data_11443/copy_const" type="Const">
			<output>
				<port id="1" precision="FP32">
					<dim>1</dim>
					<dim>1</dim>
					<dim>1</dim>
					<dim>1</dim>
				</port>
			</output>
			<blobs>
				<custom offset="400988" precision="FP32" size="4"/>
			</blobs>
		</layer>
		<layer id="79" name="group0/block1/conv1/weights_quant/FakeQuantWithMinMaxVars" type="FakeQuantize">
			<data levels="255"/>
			<input>
				<port id="0">
					<dim>64</dim>
					<dim>256</dim>
					<dim>1</dim>
					<dim>1</dim>
				</port>
				<port id="1">
					<dim>1</dim>
					<dim>1</dim>
					<dim>1</dim>
					<dim>1</dim>
				</port>
				<port id="2">
					<dim>1</dim>
					<dim>1</dim>
					<dim>1</dim>
					<dim>1</dim>
				</port>
				<port id="3">
					<dim>1</dim>
					<dim>1</dim>
					<dim>1</dim>
					<dim>1</dim>
				</port>
				<port id="4">
					<dim>1</dim>
					<dim>1</dim>
					<dim>1</dim>
					<dim>1</dim>
				</port>
			</input>
			<output>
				<port id="5" precision="FP32">
					<dim>64</dim>
					<dim>256</dim>
					<dim>1</dim>
					<dim>1</dim>
				</port>
			</output>
		</layer>
		<layer id="80" name="bias_data2751627517_const" type="Const">
			<output>
				<port id="1" precision="FP32">
					<dim>64</dim>
				</port>
			</output>
			<blobs>
				<custom offset="400992" precision="FP32" size="256"/>
			</blobs>
		</layer>
		<layer id="81" name="group0/block1/conv1/Conv2D_Fold" type="Convolution">
			<data auto_pad="same_upper" dilations="1,1" group="1" kernel="1,1" output="64" pads_begin="0,0" pads_end="0,0" strides="1,1"/>
			<input>
				<port id="0">
					<dim>1</dim>
					<dim>256</dim>
					<dim>56</dim>
					<dim>56</dim>
				</port>
				<port id="1">
					<dim>64</dim>
					<dim>256</dim>
					<dim>1</dim>
					<dim>1</dim>
				</port>
				<port id="2">
					<dim>64</dim>
				</port>
			</input>
			<output>
				<port id="3" precision="FP32">
					<dim>1</dim>
					<dim>64</dim>
					<dim>56</dim>
					<dim>56</dim>
				</port>
			</output>
		</layer>
		<layer id="82" name="Copy_group0/block1/conv1/act_quant/FakeQuantWithMinMaxVars/nudged_min/Output_0/Data_/copy_const" type="Const">
			<output>
				<port id="1" precision="FP32">
					<dim>1</dim>
					<dim>1</dim>
					<dim>1</dim>
					<dim>1</dim>
				</port>
			</output>
			<blobs>
				<custom offset="37920" precision="FP32" size="4"/>
			</blobs>
		</layer>
		<layer id="83" name="Copy_group0/block1/conv1/act_quant/FakeQuantWithMinMaxVars/nudged_max/Output_0/Data_/copy_const" type="Const">
			<output>
				<port id="1" precision="FP32">
					<dim>1</dim>
					<dim>1</dim>
					<dim>1</dim>
					<dim>1</dim>
				</port>
			</output>
			<blobs>
				<custom offset="401248" precision="FP32" size="4"/>
			</blobs>
		</layer>
		<layer id="84" name="Copy_group0/block1/conv1/act_quant/FakeQuantWithMinMaxVars/nudged_min/Output_0/Data_11645/copy_const" type="Const">
			<output>
				<port id="1" precision="FP32">
					<dim>1</dim>
					<dim>1</dim>
					<dim>1</dim>
					<dim>1</dim>
				</port>
			</output>
			<blobs>
				<custom offset="37920" precision="FP32" size="4"/>
			</blobs>
		</layer>
		<layer id="85" name="Copy_group0/block1/conv1/act_quant/FakeQuantWithMinMaxVars/nudged_max/Output_0/Data_11631/copy_const" type="Const">
			<output>
				<port id="1" precision="FP32">
					<dim>1</dim>
					<dim>1</dim>
					<dim>1</dim>
					<dim>1</dim>
				</port>
			</output>
			<blobs>
				<custom offset="401248" precision="FP32" size="4"/>
			</blobs>
		</layer>
		<layer id="86" name="group0/block1/conv1/act_quant/FakeQuantWithMinMaxVars" type="FakeQuantize">
			<data levels="256"/>
			<input>
				<port id="0">
					<dim>1</dim>
					<dim>64</dim>
					<dim>56</dim>
					<dim>56</dim>
				</port>
				<port id="1">
					<dim>1</dim>
					<dim>1</dim>
					<dim>1</dim>
					<dim>1</dim>
				</port>
				<port id="2">
					<dim>1</dim>
					<dim>1</dim>
					<dim>1</dim>
					<dim>1</dim>
				</port>
				<port id="3">
					<dim>1</dim>
					<dim>1</dim>
					<dim>1</dim>
					<dim>1</dim>
				</port>
				<port id="4">
					<dim>1</dim>
					<dim>1</dim>
					<dim>1</dim>
					<dim>1</dim>
				</port>
			</input>
			<output>
				<port id="5" precision="FP32">
					<dim>1</dim>
					<dim>64</dim>
					<dim>56</dim>
					<dim>56</dim>
				</port>
			</output>
		</layer>
		<layer id="87" name="group0/block1/conv2/mul_fold/Output_0/Data__const" type="Const">
			<output>
				<port id="1" precision="FP32">
					<dim>64</dim>
					<dim>64</dim>
					<dim>3</dim>
					<dim>3</dim>
				</port>
			</output>
			<blobs>
				<custom offset="401252" precision="FP32" size="147456"/>
			</blobs>
		</layer>
		<layer id="88" name="Copy_group0/block1/conv2/weights_quant/FakeQuantWithMinMaxVars/nudged_min/Output_0/Data_/copy_const" type="Const">
			<output>
				<port id="1" precision="FP32">
					<dim>1</dim>
					<dim>1</dim>
					<dim>1</dim>
					<dim>1</dim>
				</port>
			</output>
			<blobs>
				<custom offset="548708" precision="FP32" size="4"/>
			</blobs>
		</layer>
		<layer id="89" name="Copy_group0/block1/conv2/weights_quant/FakeQuantWithMinMaxVars/nudged_max/Output_0/Data_/copy_const" type="Const">
			<output>
				<port id="1" precision="FP32">
					<dim>1</dim>
					<dim>1</dim>
					<dim>1</dim>
					<dim>1</dim>
				</port>
			</output>
			<blobs>
				<custom offset="548712" precision="FP32" size="4"/>
			</blobs>
		</layer>
		<layer id="90" name="Copy_group0/block1/conv2/weights_quant/FakeQuantWithMinMaxVars/nudged_min/Output_0/Data_11661/copy_const" type="Const">
			<output>
				<port id="1" precision="FP32">
					<dim>1</dim>
					<dim>1</dim>
					<dim>1</dim>
					<dim>1</dim>
				</port>
			</output>
			<blobs>
				<custom offset="548708" precision="FP32" size="4"/>
			</blobs>
		</layer>
		<layer id="91" name="Copy_group0/block1/conv2/weights_quant/FakeQuantWithMinMaxVars/nudged_max/Output_0/Data_11627/copy_const" type="Const">
			<output>
				<port id="1" precision="FP32">
					<dim>1</dim>
					<dim>1</dim>
					<dim>1</dim>
					<dim>1</dim>
				</port>
			</output>
			<blobs>
				<custom offset="548712" precision="FP32" size="4"/>
			</blobs>
		</layer>
		<layer id="92" name="group0/block1/conv2/weights_quant/FakeQuantWithMinMaxVars" type="FakeQuantize">
			<data levels="255"/>
			<input>
				<port id="0">
					<dim>64</dim>
					<dim>64</dim>
					<dim>3</dim>
					<dim>3</dim>
				</port>
				<port id="1">
					<dim>1</dim>
					<dim>1</dim>
					<dim>1</dim>
					<dim>1</dim>
				</port>
				<port id="2">
					<dim>1</dim>
					<dim>1</dim>
					<dim>1</dim>
					<dim>1</dim>
				</port>
				<port id="3">
					<dim>1</dim>
					<dim>1</dim>
					<dim>1</dim>
					<dim>1</dim>
				</port>
				<port id="4">
					<dim>1</dim>
					<dim>1</dim>
					<dim>1</dim>
					<dim>1</dim>
				</port>
			</input>
			<output>
				<port id="5" precision="FP32">
					<dim>64</dim>
					<dim>64</dim>
					<dim>3</dim>
					<dim>3</dim>
				</port>
			</output>
		</layer>
		<layer id="93" name="bias_data2751827519_const" type="Const">
			<output>
				<port id="1" precision="FP32">
					<dim>64</dim>
				</port>
			</output>
			<blobs>
				<custom offset="548716" precision="FP32" size="256"/>
			</blobs>
		</layer>
		<layer id="94" name="group0/block1/conv2/Conv2D_Fold" type="Convolution">
			<data auto_pad="same_upper" dilations="1,1" group="1" kernel="3,3" output="64" pads_begin="1,1" pads_end="1,1" strides="1,1"/>
			<input>
				<port id="0">
					<dim>1</dim>
					<dim>64</dim>
					<dim>56</dim>
					<dim>56</dim>
				</port>
				<port id="1">
					<dim>64</dim>
					<dim>64</dim>
					<dim>3</dim>
					<dim>3</dim>
				</port>
				<port id="2">
					<dim>64</dim>
				</port>
			</input>
			<output>
				<port id="3" precision="FP32">
					<dim>1</dim>
					<dim>64</dim>
					<dim>56</dim>
					<dim>56</dim>
				</port>
			</output>
		</layer>
		<layer id="95" name="Copy_group0/block1/conv2/act_quant/FakeQuantWithMinMaxVars/nudged_min/Output_0/Data_/copy_const" type="Const">
			<output>
				<port id="1" precision="FP32">
					<dim>1</dim>
					<dim>1</dim>
					<dim>1</dim>
					<dim>1</dim>
				</port>
			</output>
			<blobs>
				<custom offset="37920" precision="FP32" size="4"/>
			</blobs>
		</layer>
		<layer id="96" name="Copy_group0/block1/conv2/act_quant/FakeQuantWithMinMaxVars/nudged_max/Output_0/Data_/copy_const" type="Const">
			<output>
				<port id="1" precision="FP32">
					<dim>1</dim>
					<dim>1</dim>
					<dim>1</dim>
					<dim>1</dim>
				</port>
			</output>
			<blobs>
				<custom offset="548972" precision="FP32" size="4"/>
			</blobs>
		</layer>
		<layer id="97" name="Copy_group0/block1/conv2/act_quant/FakeQuantWithMinMaxVars/nudged_min/Output_0/Data_11575/copy_const" type="Const">
			<output>
				<port id="1" precision="FP32">
					<dim>1</dim>
					<dim>1</dim>
					<dim>1</dim>
					<dim>1</dim>
				</port>
			</output>
			<blobs>
				<custom offset="37920" precision="FP32" size="4"/>
			</blobs>
		</layer>
		<layer id="98" name="Copy_group0/block1/conv2/act_quant/FakeQuantWithMinMaxVars/nudged_max/Output_0/Data_11599/copy_const" type="Const">
			<output>
				<port id="1" precision="FP32">
					<dim>1</dim>
					<dim>1</dim>
					<dim>1</dim>
					<dim>1</dim>
				</port>
			</output>
			<blobs>
				<custom offset="548972" precision="FP32" size="4"/>
			</blobs>
		</layer>
		<layer id="99" name="group0/block1/conv2/act_quant/FakeQuantWithMinMaxVars" type="FakeQuantize">
			<data levels="256"/>
			<input>
				<port id="0">
					<dim>1</dim>
					<dim>64</dim>
					<dim>56</dim>
					<dim>56</dim>
				</port>
				<port id="1">
					<dim>1</dim>
					<dim>1</dim>
					<dim>1</dim>
					<dim>1</dim>
				</port>
				<port id="2">
					<dim>1</dim>
					<dim>1</dim>
					<dim>1</dim>
					<dim>1</dim>
				</port>
				<port id="3">
					<dim>1</dim>
					<dim>1</dim>
					<dim>1</dim>
					<dim>1</dim>
				</port>
				<port id="4">
					<dim>1</dim>
					<dim>1</dim>
					<dim>1</dim>
					<dim>1</dim>
				</port>
			</input>
			<output>
				<port id="5" precision="FP32">
					<dim>1</dim>
					<dim>64</dim>
					<dim>56</dim>
					<dim>56</dim>
				</port>
			</output>
		</layer>
		<layer id="100" name="group0/block1/conv3/mul_fold/Output_0/Data__const" type="Const">
			<output>
				<port id="1" precision="FP32">
					<dim>256</dim>
					<dim>64</dim>
					<dim>1</dim>
					<dim>1</dim>
				</port>
			</output>
			<blobs>
				<custom offset="548976" precision="FP32" size="65536"/>
			</blobs>
		</layer>
		<layer id="101" name="Copy_group0/block1/conv3/weights_quant/FakeQuantWithMinMaxVars/nudged_min/Output_0/Data_/copy_const" type="Const">
			<output>
				<port id="1" precision="FP32">
					<dim>1</dim>
					<dim>1</dim>
					<dim>1</dim>
					<dim>1</dim>
				</port>
			</output>
			<blobs>
				<custom offset="614512" precision="FP32" size="4"/>
			</blobs>
		</layer>
		<layer id="102" name="Copy_group0/block1/conv3/weights_quant/FakeQuantWithMinMaxVars/nudged_max/Output_0/Data_/copy_const" type="Const">
			<output>
				<port id="1" precision="FP32">
					<dim>1</dim>
					<dim>1</dim>
					<dim>1</dim>
					<dim>1</dim>
				</port>
			</output>
			<blobs>
				<custom offset="614516" precision="FP32" size="4"/>
			</blobs>
		</layer>
		<layer id="103" name="Copy_group0/block1/conv3/weights_quant/FakeQuantWithMinMaxVars/nudged_min/Output_0/Data_11663/copy_const" type="Const">
			<output>
				<port id="1" precision="FP32">
					<dim>1</dim>
					<dim>1</dim>
					<dim>1</dim>
					<dim>1</dim>
				</port>
			</output>
			<blobs>
				<custom offset="614512" precision="FP32" size="4"/>
			</blobs>
		</layer>
		<layer id="104" name="Copy_group0/block1/conv3/weights_quant/FakeQuantWithMinMaxVars/nudged_max/Output_0/Data_11487/copy_const" type="Const">
			<output>
				<port id="1" precision="FP32">
					<dim>1</dim>
					<dim>1</dim>
					<dim>1</dim>
					<dim>1</dim>
				</port>
			</output>
			<blobs>
				<custom offset="614516" precision="FP32" size="4"/>
			</blobs>
		</layer>
		<layer id="105" name="group0/block1/conv3/weights_quant/FakeQuantWithMinMaxVars" type="FakeQuantize">
			<data levels="255"/>
			<input>
				<port id="0">
					<dim>256</dim>
					<dim>64</dim>
					<dim>1</dim>
					<dim>1</dim>
				</port>
				<port id="1">
					<dim>1</dim>
					<dim>1</dim>
					<dim>1</dim>
					<dim>1</dim>
				</port>
				<port id="2">
					<dim>1</dim>
					<dim>1</dim>
					<dim>1</dim>
					<dim>1</dim>
				</port>
				<port id="3">
					<dim>1</dim>
					<dim>1</dim>
					<dim>1</dim>
					<dim>1</dim>
				</port>
				<port id="4">
					<dim>1</dim>
					<dim>1</dim>
					<dim>1</dim>
					<dim>1</dim>
				</port>
			</input>
			<output>
				<port id="5" precision="FP32">
					<dim>256</dim>
					<dim>64</dim>
					<dim>1</dim>
					<dim>1</dim>
				</port>
			</output>
		</layer>
		<layer id="106" name="bias_data2752027521_const" type="Const">
			<output>
				<port id="1" precision="FP32">
					<dim>256</dim>
				</port>
			</output>
			<blobs>
				<custom offset="614520" precision="FP32" size="1024"/>
			</blobs>
		</layer>
		<layer id="107" name="group0/block1/conv3/Conv2D_Fold" type="Convolution">
			<data auto_pad="same_upper" dilations="1,1" group="1" kernel="1,1" output="256" pads_begin="0,0" pads_end="0,0" strides="1,1"/>
			<input>
				<port id="0">
					<dim>1</dim>
					<dim>64</dim>
					<dim>56</dim>
					<dim>56</dim>
				</port>
				<port id="1">
					<dim>256</dim>
					<dim>64</dim>
					<dim>1</dim>
					<dim>1</dim>
				</port>
				<port id="2">
					<dim>256</dim>
				</port>
			</input>
			<output>
				<port id="3" precision="FP32">
					<dim>1</dim>
					<dim>256</dim>
					<dim>56</dim>
					<dim>56</dim>
				</port>
			</output>
		</layer>
		<layer id="108" name="Copy_group0/block1/conv3/act_quant/FakeQuantWithMinMaxVars/nudged_min/Output_0/Data_/copy_const" type="Const">
			<output>
				<port id="1" precision="FP32">
					<dim>1</dim>
					<dim>1</dim>
					<dim>1</dim>
					<dim>1</dim>
				</port>
			</output>
			<blobs>
				<custom offset="37920" precision="FP32" size="4"/>
			</blobs>
		</layer>
		<layer id="109" name="Copy_group0/block1/conv3/act_quant/FakeQuantWithMinMaxVars/nudged_max/Output_0/Data_/copy_const" type="Const">
			<output>
				<port id="1" precision="FP32">
					<dim>1</dim>
					<dim>1</dim>
					<dim>1</dim>
					<dim>1</dim>
				</port>
			</output>
			<blobs>
				<custom offset="335444" precision="FP32" size="4"/>
			</blobs>
		</layer>
		<layer id="110" name="Copy_group0/block1/conv3/act_quant/FakeQuantWithMinMaxVars/nudged_min/Output_0/Data_11683/copy_const" type="Const">
			<output>
				<port id="1" precision="FP32">
					<dim>1</dim>
					<dim>1</dim>
					<dim>1</dim>
					<dim>1</dim>
				</port>
			</output>
			<blobs>
				<custom offset="37920" precision="FP32" size="4"/>
			</blobs>
		</layer>
		<layer id="111" name="Copy_group0/block1/conv3/act_quant/FakeQuantWithMinMaxVars/nudged_max/Output_0/Data_11555/copy_const" type="Const">
			<output>
				<port id="1" precision="FP32">
					<dim>1</dim>
					<dim>1</dim>
					<dim>1</dim>
					<dim>1</dim>
				</port>
			</output>
			<blobs>
				<custom offset="335444" precision="FP32" size="4"/>
			</blobs>
		</layer>
		<layer id="112" name="group0/block1/conv3/act_quant/FakeQuantWithMinMaxVars" type="FakeQuantize">
			<data levels="256"/>
			<input>
				<port id="0">
					<dim>1</dim>
					<dim>256</dim>
					<dim>56</dim>
					<dim>56</dim>
				</port>
				<port id="1">
					<dim>1</dim>
					<dim>1</dim>
					<dim>1</dim>
					<dim>1</dim>
				</port>
				<port id="2">
					<dim>1</dim>
					<dim>1</dim>
					<dim>1</dim>
					<dim>1</dim>
				</port>
				<port id="3">
					<dim>1</dim>
					<dim>1</dim>
					<dim>1</dim>
					<dim>1</dim>
				</port>
				<port id="4">
					<dim>1</dim>
					<dim>1</dim>
					<dim>1</dim>
					<dim>1</dim>
				</port>
			</input>
			<output>
				<port id="5" precision="FP32">
					<dim>1</dim>
					<dim>256</dim>
					<dim>56</dim>
					<dim>56</dim>
				</port>
			</output>
		</layer>
		<layer id="113" name="group0/block1/add" type="Eltwise">
			<data operation="sum"/>
			<input>
				<port id="0">
					<dim>1</dim>
					<dim>256</dim>
					<dim>56</dim>
					<dim>56</dim>
				</port>
				<port id="1">
					<dim>1</dim>
					<dim>256</dim>
					<dim>56</dim>
					<dim>56</dim>
				</port>
			</input>
			<output>
				<port id="2" precision="FP32">
					<dim>1</dim>
					<dim>256</dim>
					<dim>56</dim>
					<dim>56</dim>
				</port>
			</output>
		</layer>
		<layer id="114" name="Copy_group0/block1/post_activation_bypass_quant/FakeQuantWithMinMaxVars/nudged_min/Output_0/Data_/copy_const" type="Const">
			<output>
				<port id="1" precision="FP32">
					<dim>1</dim>
					<dim>1</dim>
					<dim>1</dim>
					<dim>1</dim>
				</port>
			</output>
			<blobs>
				<custom offset="37920" precision="FP32" size="4"/>
			</blobs>
		</layer>
		<layer id="115" name="Copy_group0/block1/post_activation_bypass_quant/FakeQuantWithMinMaxVars/nudged_max/Output_0/Data_/copy_const" type="Const">
			<output>
				<port id="1" precision="FP32">
					<dim>1</dim>
					<dim>1</dim>
					<dim>1</dim>
					<dim>1</dim>
				</port>
			</output>
			<blobs>
				<custom offset="615544" precision="FP32" size="4"/>
			</blobs>
		</layer>
		<layer id="116" name="Copy_group0/block1/post_activation_bypass_quant/FakeQuantWithMinMaxVars/nudged_min/Output_0/Data_11511/copy_const" type="Const">
			<output>
				<port id="1" precision="FP32">
					<dim>1</dim>
					<dim>1</dim>
					<dim>1</dim>
					<dim>1</dim>
				</port>
			</output>
			<blobs>
				<custom offset="37920" precision="FP32" size="4"/>
			</blobs>
		</layer>
		<layer id="117" name="Copy_group0/block1/post_activation_bypass_quant/FakeQuantWithMinMaxVars/nudged_max/Output_0/Data_11275/copy_const" type="Const">
			<output>
				<port id="1" precision="FP32">
					<dim>1</dim>
					<dim>1</dim>
					<dim>1</dim>
					<dim>1</dim>
				</port>
			</output>
			<blobs>
				<custom offset="615544" precision="FP32" size="4"/>
			</blobs>
		</layer>
		<layer id="118" name="group0/block1/post_activation_bypass_quant/FakeQuantWithMinMaxVars" type="FakeQuantize">
			<data levels="256"/>
			<input>
				<port id="0">
					<dim>1</dim>
					<dim>256</dim>
					<dim>56</dim>
					<dim>56</dim>
				</port>
				<port id="1">
					<dim>1</dim>
					<dim>1</dim>
					<dim>1</dim>
					<dim>1</dim>
				</port>
				<port id="2">
					<dim>1</dim>
					<dim>1</dim>
					<dim>1</dim>
					<dim>1</dim>
				</port>
				<port id="3">
					<dim>1</dim>
					<dim>1</dim>
					<dim>1</dim>
					<dim>1</dim>
				</port>
				<port id="4">
					<dim>1</dim>
					<dim>1</dim>
					<dim>1</dim>
					<dim>1</dim>
				</port>
			</input>
			<output>
				<port id="5" precision="FP32">
					<dim>1</dim>
					<dim>256</dim>
					<dim>56</dim>
					<dim>56</dim>
				</port>
			</output>
		</layer>
		<layer id="119" name="group0/block2/conv1/mul_fold/Output_0/Data__const" type="Const">
			<output>
				<port id="1" precision="FP32">
					<dim>64</dim>
					<dim>256</dim>
					<dim>1</dim>
					<dim>1</dim>
				</port>
			</output>
			<blobs>
				<custom offset="615548" precision="FP32" size="65536"/>
			</blobs>
		</layer>
		<layer id="120" name="Copy_group0/block2/conv1/weights_quant/FakeQuantWithMinMaxVars/nudged_min/Output_0/Data_/copy_const" type="Const">
			<output>
				<port id="1" precision="FP32">
					<dim>1</dim>
					<dim>1</dim>
					<dim>1</dim>
					<dim>1</dim>
				</port>
			</output>
			<blobs>
				<custom offset="681084" precision="FP32" size="4"/>
			</blobs>
		</layer>
		<layer id="121" name="Copy_group0/block2/conv1/weights_quant/FakeQuantWithMinMaxVars/nudged_max/Output_0/Data_/copy_const" type="Const">
			<output>
				<port id="1" precision="FP32">
					<dim>1</dim>
					<dim>1</dim>
					<dim>1</dim>
					<dim>1</dim>
				</port>
			</output>
			<blobs>
				<custom offset="681088" precision="FP32" size="4"/>
			</blobs>
		</layer>
		<layer id="122" name="Copy_group0/block2/conv1/weights_quant/FakeQuantWithMinMaxVars/nudged_min/Output_0/Data_11365/copy_const" type="Const">
			<output>
				<port id="1" precision="FP32">
					<dim>1</dim>
					<dim>1</dim>
					<dim>1</dim>
					<dim>1</dim>
				</port>
			</output>
			<blobs>
				<custom offset="681084" precision="FP32" size="4"/>
			</blobs>
		</layer>
		<layer id="123" name="Copy_group0/block2/conv1/weights_quant/FakeQuantWithMinMaxVars/nudged_max/Output_0/Data_11263/copy_const" type="Const">
			<output>
				<port id="1" precision="FP32">
					<dim>1</dim>
					<dim>1</dim>
					<dim>1</dim>
					<dim>1</dim>
				</port>
			</output>
			<blobs>
				<custom offset="681088" precision="FP32" size="4"/>
			</blobs>
		</layer>
		<layer id="124" name="group0/block2/conv1/weights_quant/FakeQuantWithMinMaxVars" type="FakeQuantize">
			<data levels="255"/>
			<input>
				<port id="0">
					<dim>64</dim>
					<dim>256</dim>
					<dim>1</dim>
					<dim>1</dim>
				</port>
				<port id="1">
					<dim>1</dim>
					<dim>1</dim>
					<dim>1</dim>
					<dim>1</dim>
				</port>
				<port id="2">
					<dim>1</dim>
					<dim>1</dim>
					<dim>1</dim>
					<dim>1</dim>
				</port>
				<port id="3">
					<dim>1</dim>
					<dim>1</dim>
					<dim>1</dim>
					<dim>1</dim>
				</port>
				<port id="4">
					<dim>1</dim>
					<dim>1</dim>
					<dim>1</dim>
					<dim>1</dim>
				</port>
			</input>
			<output>
				<port id="5" precision="FP32">
					<dim>64</dim>
					<dim>256</dim>
					<dim>1</dim>
					<dim>1</dim>
				</port>
			</output>
		</layer>
		<layer id="125" name="bias_data2752227523_const" type="Const">
			<output>
				<port id="1" precision="FP32">
					<dim>64</dim>
				</port>
			</output>
			<blobs>
				<custom offset="681092" precision="FP32" size="256"/>
			</blobs>
		</layer>
		<layer id="126" name="group0/block2/conv1/Conv2D_Fold" type="Convolution">
			<data auto_pad="same_upper" dilations="1,1" group="1" kernel="1,1" output="64" pads_begin="0,0" pads_end="0,0" strides="1,1"/>
			<input>
				<port id="0">
					<dim>1</dim>
					<dim>256</dim>
					<dim>56</dim>
					<dim>56</dim>
				</port>
				<port id="1">
					<dim>64</dim>
					<dim>256</dim>
					<dim>1</dim>
					<dim>1</dim>
				</port>
				<port id="2">
					<dim>64</dim>
				</port>
			</input>
			<output>
				<port id="3" precision="FP32">
					<dim>1</dim>
					<dim>64</dim>
					<dim>56</dim>
					<dim>56</dim>
				</port>
			</output>
		</layer>
		<layer id="127" name="Copy_group0/block2/conv1/act_quant/FakeQuantWithMinMaxVars/nudged_min/Output_0/Data_/copy_const" type="Const">
			<output>
				<port id="1" precision="FP32">
					<dim>1</dim>
					<dim>1</dim>
					<dim>1</dim>
					<dim>1</dim>
				</port>
			</output>
			<blobs>
				<custom offset="37920" precision="FP32" size="4"/>
			</blobs>
		</layer>
		<layer id="128" name="Copy_group0/block2/conv1/act_quant/FakeQuantWithMinMaxVars/nudged_max/Output_0/Data_/copy_const" type="Const">
			<output>
				<port id="1" precision="FP32">
					<dim>1</dim>
					<dim>1</dim>
					<dim>1</dim>
					<dim>1</dim>
				</port>
			</output>
			<blobs>
				<custom offset="681348" precision="FP32" size="4"/>
			</blobs>
		</layer>
		<layer id="129" name="Copy_group0/block2/conv1/act_quant/FakeQuantWithMinMaxVars/nudged_min/Output_0/Data_11625/copy_const" type="Const">
			<output>
				<port id="1" precision="FP32">
					<dim>1</dim>
					<dim>1</dim>
					<dim>1</dim>
					<dim>1</dim>
				</port>
			</output>
			<blobs>
				<custom offset="37920" precision="FP32" size="4"/>
			</blobs>
		</layer>
		<layer id="130" name="Copy_group0/block2/conv1/act_quant/FakeQuantWithMinMaxVars/nudged_max/Output_0/Data_11303/copy_const" type="Const">
			<output>
				<port id="1" precision="FP32">
					<dim>1</dim>
					<dim>1</dim>
					<dim>1</dim>
					<dim>1</dim>
				</port>
			</output>
			<blobs>
				<custom offset="681348" precision="FP32" size="4"/>
			</blobs>
		</layer>
		<layer id="131" name="group0/block2/conv1/act_quant/FakeQuantWithMinMaxVars" type="FakeQuantize">
			<data levels="256"/>
			<input>
				<port id="0">
					<dim>1</dim>
					<dim>64</dim>
					<dim>56</dim>
					<dim>56</dim>
				</port>
				<port id="1">
					<dim>1</dim>
					<dim>1</dim>
					<dim>1</dim>
					<dim>1</dim>
				</port>
				<port id="2">
					<dim>1</dim>
					<dim>1</dim>
					<dim>1</dim>
					<dim>1</dim>
				</port>
				<port id="3">
					<dim>1</dim>
					<dim>1</dim>
					<dim>1</dim>
					<dim>1</dim>
				</port>
				<port id="4">
					<dim>1</dim>
					<dim>1</dim>
					<dim>1</dim>
					<dim>1</dim>
				</port>
			</input>
			<output>
				<port id="5" precision="FP32">
					<dim>1</dim>
					<dim>64</dim>
					<dim>56</dim>
					<dim>56</dim>
				</port>
			</output>
		</layer>
		<layer id="132" name="group0/block2/conv2/mul_fold/Output_0/Data__const" type="Const">
			<output>
				<port id="1" precision="FP32">
					<dim>64</dim>
					<dim>64</dim>
					<dim>3</dim>
					<dim>3</dim>
				</port>
			</output>
			<blobs>
				<custom offset="681352" precision="FP32" size="147456"/>
			</blobs>
		</layer>
		<layer id="133" name="Copy_group0/block2/conv2/weights_quant/FakeQuantWithMinMaxVars/nudged_min/Output_0/Data_/copy_const" type="Const">
			<output>
				<port id="1" precision="FP32">
					<dim>1</dim>
					<dim>1</dim>
					<dim>1</dim>
					<dim>1</dim>
				</port>
			</output>
			<blobs>
				<custom offset="828808" precision="FP32" size="4"/>
			</blobs>
		</layer>
		<layer id="134" name="Copy_group0/block2/conv2/weights_quant/FakeQuantWithMinMaxVars/nudged_max/Output_0/Data_/copy_const" type="Const">
			<output>
				<port id="1" precision="FP32">
					<dim>1</dim>
					<dim>1</dim>
					<dim>1</dim>
					<dim>1</dim>
				</port>
			</output>
			<blobs>
				<custom offset="828812" precision="FP32" size="4"/>
			</blobs>
		</layer>
		<layer id="135" name="Copy_group0/block2/conv2/weights_quant/FakeQuantWithMinMaxVars/nudged_min/Output_0/Data_11565/copy_const" type="Const">
			<output>
				<port id="1" precision="FP32">
					<dim>1</dim>
					<dim>1</dim>
					<dim>1</dim>
					<dim>1</dim>
				</port>
			</output>
			<blobs>
				<custom offset="828808" precision="FP32" size="4"/>
			</blobs>
		</layer>
		<layer id="136" name="Copy_group0/block2/conv2/weights_quant/FakeQuantWithMinMaxVars/nudged_max/Output_0/Data_11597/copy_const" type="Const">
			<output>
				<port id="1" precision="FP32">
					<dim>1</dim>
					<dim>1</dim>
					<dim>1</dim>
					<dim>1</dim>
				</port>
			</output>
			<blobs>
				<custom offset="828812" precision="FP32" size="4"/>
			</blobs>
		</layer>
		<layer id="137" name="group0/block2/conv2/weights_quant/FakeQuantWithMinMaxVars" type="FakeQuantize">
			<data levels="255"/>
			<input>
				<port id="0">
					<dim>64</dim>
					<dim>64</dim>
					<dim>3</dim>
					<dim>3</dim>
				</port>
				<port id="1">
					<dim>1</dim>
					<dim>1</dim>
					<dim>1</dim>
					<dim>1</dim>
				</port>
				<port id="2">
					<dim>1</dim>
					<dim>1</dim>
					<dim>1</dim>
					<dim>1</dim>
				</port>
				<port id="3">
					<dim>1</dim>
					<dim>1</dim>
					<dim>1</dim>
					<dim>1</dim>
				</port>
				<port id="4">
					<dim>1</dim>
					<dim>1</dim>
					<dim>1</dim>
					<dim>1</dim>
				</port>
			</input>
			<output>
				<port id="5" precision="FP32">
					<dim>64</dim>
					<dim>64</dim>
					<dim>3</dim>
					<dim>3</dim>
				</port>
			</output>
		</layer>
		<layer id="138" name="bias_data2752427525_const" type="Const">
			<output>
				<port id="1" precision="FP32">
					<dim>64</dim>
				</port>
			</output>
			<blobs>
				<custom offset="828816" precision="FP32" size="256"/>
			</blobs>
		</layer>
		<layer id="139" name="group0/block2/conv2/Conv2D_Fold" type="Convolution">
			<data auto_pad="same_upper" dilations="1,1" group="1" kernel="3,3" output="64" pads_begin="1,1" pads_end="1,1" strides="1,1"/>
			<input>
				<port id="0">
					<dim>1</dim>
					<dim>64</dim>
					<dim>56</dim>
					<dim>56</dim>
				</port>
				<port id="1">
					<dim>64</dim>
					<dim>64</dim>
					<dim>3</dim>
					<dim>3</dim>
				</port>
				<port id="2">
					<dim>64</dim>
				</port>
			</input>
			<output>
				<port id="3" precision="FP32">
					<dim>1</dim>
					<dim>64</dim>
					<dim>56</dim>
					<dim>56</dim>
				</port>
			</output>
		</layer>
		<layer id="140" name="Copy_group0/block2/conv2/act_quant/FakeQuantWithMinMaxVars/nudged_min/Output_0/Data_/copy_const" type="Const">
			<output>
				<port id="1" precision="FP32">
					<dim>1</dim>
					<dim>1</dim>
					<dim>1</dim>
					<dim>1</dim>
				</port>
			</output>
			<blobs>
				<custom offset="37920" precision="FP32" size="4"/>
			</blobs>
		</layer>
		<layer id="141" name="Copy_group0/block2/conv2/act_quant/FakeQuantWithMinMaxVars/nudged_max/Output_0/Data_/copy_const" type="Const">
			<output>
				<port id="1" precision="FP32">
					<dim>1</dim>
					<dim>1</dim>
					<dim>1</dim>
					<dim>1</dim>
				</port>
			</output>
			<blobs>
				<custom offset="829072" precision="FP32" size="4"/>
			</blobs>
		</layer>
		<layer id="142" name="Copy_group0/block2/conv2/act_quant/FakeQuantWithMinMaxVars/nudged_min/Output_0/Data_11393/copy_const" type="Const">
			<output>
				<port id="1" precision="FP32">
					<dim>1</dim>
					<dim>1</dim>
					<dim>1</dim>
					<dim>1</dim>
				</port>
			</output>
			<blobs>
				<custom offset="37920" precision="FP32" size="4"/>
			</blobs>
		</layer>
		<layer id="143" name="Copy_group0/block2/conv2/act_quant/FakeQuantWithMinMaxVars/nudged_max/Output_0/Data_11329/copy_const" type="Const">
			<output>
				<port id="1" precision="FP32">
					<dim>1</dim>
					<dim>1</dim>
					<dim>1</dim>
					<dim>1</dim>
				</port>
			</output>
			<blobs>
				<custom offset="829072" precision="FP32" size="4"/>
			</blobs>
		</layer>
		<layer id="144" name="group0/block2/conv2/act_quant/FakeQuantWithMinMaxVars" type="FakeQuantize">
			<data levels="256"/>
			<input>
				<port id="0">
					<dim>1</dim>
					<dim>64</dim>
					<dim>56</dim>
					<dim>56</dim>
				</port>
				<port id="1">
					<dim>1</dim>
					<dim>1</dim>
					<dim>1</dim>
					<dim>1</dim>
				</port>
				<port id="2">
					<dim>1</dim>
					<dim>1</dim>
					<dim>1</dim>
					<dim>1</dim>
				</port>
				<port id="3">
					<dim>1</dim>
					<dim>1</dim>
					<dim>1</dim>
					<dim>1</dim>
				</port>
				<port id="4">
					<dim>1</dim>
					<dim>1</dim>
					<dim>1</dim>
					<dim>1</dim>
				</port>
			</input>
			<output>
				<port id="5" precision="FP32">
					<dim>1</dim>
					<dim>64</dim>
					<dim>56</dim>
					<dim>56</dim>
				</port>
			</output>
		</layer>
		<layer id="145" name="group0/block2/conv3/mul_fold/Output_0/Data__const" type="Const">
			<output>
				<port id="1" precision="FP32">
					<dim>256</dim>
					<dim>64</dim>
					<dim>1</dim>
					<dim>1</dim>
				</port>
			</output>
			<blobs>
				<custom offset="829076" precision="FP32" size="65536"/>
			</blobs>
		</layer>
		<layer id="146" name="Copy_group0/block2/conv3/weights_quant/FakeQuantWithMinMaxVars/nudged_min/Output_0/Data_/copy_const" type="Const">
			<output>
				<port id="1" precision="FP32">
					<dim>1</dim>
					<dim>1</dim>
					<dim>1</dim>
					<dim>1</dim>
				</port>
			</output>
			<blobs>
				<custom offset="894612" precision="FP32" size="4"/>
			</blobs>
		</layer>
		<layer id="147" name="Copy_group0/block2/conv3/weights_quant/FakeQuantWithMinMaxVars/nudged_max/Output_0/Data_/copy_const" type="Const">
			<output>
				<port id="1" precision="FP32">
					<dim>1</dim>
					<dim>1</dim>
					<dim>1</dim>
					<dim>1</dim>
				</port>
			</output>
			<blobs>
				<custom offset="894616" precision="FP32" size="4"/>
			</blobs>
		</layer>
		<layer id="148" name="Copy_group0/block2/conv3/weights_quant/FakeQuantWithMinMaxVars/nudged_min/Output_0/Data_11725/copy_const" type="Const">
			<output>
				<port id="1" precision="FP32">
					<dim>1</dim>
					<dim>1</dim>
					<dim>1</dim>
					<dim>1</dim>
				</port>
			</output>
			<blobs>
				<custom offset="894612" precision="FP32" size="4"/>
			</blobs>
		</layer>
		<layer id="149" name="Copy_group0/block2/conv3/weights_quant/FakeQuantWithMinMaxVars/nudged_max/Output_0/Data_11289/copy_const" type="Const">
			<output>
				<port id="1" precision="FP32">
					<dim>1</dim>
					<dim>1</dim>
					<dim>1</dim>
					<dim>1</dim>
				</port>
			</output>
			<blobs>
				<custom offset="894616" precision="FP32" size="4"/>
			</blobs>
		</layer>
		<layer id="150" name="group0/block2/conv3/weights_quant/FakeQuantWithMinMaxVars" type="FakeQuantize">
			<data levels="255"/>
			<input>
				<port id="0">
					<dim>256</dim>
					<dim>64</dim>
					<dim>1</dim>
					<dim>1</dim>
				</port>
				<port id="1">
					<dim>1</dim>
					<dim>1</dim>
					<dim>1</dim>
					<dim>1</dim>
				</port>
				<port id="2">
					<dim>1</dim>
					<dim>1</dim>
					<dim>1</dim>
					<dim>1</dim>
				</port>
				<port id="3">
					<dim>1</dim>
					<dim>1</dim>
					<dim>1</dim>
					<dim>1</dim>
				</port>
				<port id="4">
					<dim>1</dim>
					<dim>1</dim>
					<dim>1</dim>
					<dim>1</dim>
				</port>
			</input>
			<output>
				<port id="5" precision="FP32">
					<dim>256</dim>
					<dim>64</dim>
					<dim>1</dim>
					<dim>1</dim>
				</port>
			</output>
		</layer>
		<layer id="151" name="bias_data2752627527_const" type="Const">
			<output>
				<port id="1" precision="FP32">
					<dim>256</dim>
				</port>
			</output>
			<blobs>
				<custom offset="894620" precision="FP32" size="1024"/>
			</blobs>
		</layer>
		<layer id="152" name="group0/block2/conv3/Conv2D_Fold" type="Convolution">
			<data auto_pad="same_upper" dilations="1,1" group="1" kernel="1,1" output="256" pads_begin="0,0" pads_end="0,0" strides="1,1"/>
			<input>
				<port id="0">
					<dim>1</dim>
					<dim>64</dim>
					<dim>56</dim>
					<dim>56</dim>
				</port>
				<port id="1">
					<dim>256</dim>
					<dim>64</dim>
					<dim>1</dim>
					<dim>1</dim>
				</port>
				<port id="2">
					<dim>256</dim>
				</port>
			</input>
			<output>
				<port id="3" precision="FP32">
					<dim>1</dim>
					<dim>256</dim>
					<dim>56</dim>
					<dim>56</dim>
				</port>
			</output>
		</layer>
		<layer id="153" name="Copy_group0/block2/conv3/act_quant/FakeQuantWithMinMaxVars/nudged_min/Output_0/Data_/copy_const" type="Const">
			<output>
				<port id="1" precision="FP32">
					<dim>1</dim>
					<dim>1</dim>
					<dim>1</dim>
					<dim>1</dim>
				</port>
			</output>
			<blobs>
				<custom offset="37920" precision="FP32" size="4"/>
			</blobs>
		</layer>
		<layer id="154" name="Copy_group0/block2/conv3/act_quant/FakeQuantWithMinMaxVars/nudged_max/Output_0/Data_/copy_const" type="Const">
			<output>
				<port id="1" precision="FP32">
					<dim>1</dim>
					<dim>1</dim>
					<dim>1</dim>
					<dim>1</dim>
				</port>
			</output>
			<blobs>
				<custom offset="615544" precision="FP32" size="4"/>
			</blobs>
		</layer>
		<layer id="155" name="Copy_group0/block2/conv3/act_quant/FakeQuantWithMinMaxVars/nudged_min/Output_0/Data_11283/copy_const" type="Const">
			<output>
				<port id="1" precision="FP32">
					<dim>1</dim>
					<dim>1</dim>
					<dim>1</dim>
					<dim>1</dim>
				</port>
			</output>
			<blobs>
				<custom offset="37920" precision="FP32" size="4"/>
			</blobs>
		</layer>
		<layer id="156" name="Copy_group0/block2/conv3/act_quant/FakeQuantWithMinMaxVars/nudged_max/Output_0/Data_11335/copy_const" type="Const">
			<output>
				<port id="1" precision="FP32">
					<dim>1</dim>
					<dim>1</dim>
					<dim>1</dim>
					<dim>1</dim>
				</port>
			</output>
			<blobs>
				<custom offset="615544" precision="FP32" size="4"/>
			</blobs>
		</layer>
		<layer id="157" name="group0/block2/conv3/act_quant/FakeQuantWithMinMaxVars" type="FakeQuantize">
			<data levels="256"/>
			<input>
				<port id="0">
					<dim>1</dim>
					<dim>256</dim>
					<dim>56</dim>
					<dim>56</dim>
				</port>
				<port id="1">
					<dim>1</dim>
					<dim>1</dim>
					<dim>1</dim>
					<dim>1</dim>
				</port>
				<port id="2">
					<dim>1</dim>
					<dim>1</dim>
					<dim>1</dim>
					<dim>1</dim>
				</port>
				<port id="3">
					<dim>1</dim>
					<dim>1</dim>
					<dim>1</dim>
					<dim>1</dim>
				</port>
				<port id="4">
					<dim>1</dim>
					<dim>1</dim>
					<dim>1</dim>
					<dim>1</dim>
				</port>
			</input>
			<output>
				<port id="5" precision="FP32">
					<dim>1</dim>
					<dim>256</dim>
					<dim>56</dim>
					<dim>56</dim>
				</port>
			</output>
		</layer>
		<layer id="158" name="group0/block2/add" type="Eltwise">
			<data operation="sum"/>
			<input>
				<port id="0">
					<dim>1</dim>
					<dim>256</dim>
					<dim>56</dim>
					<dim>56</dim>
				</port>
				<port id="1">
					<dim>1</dim>
					<dim>256</dim>
					<dim>56</dim>
					<dim>56</dim>
				</port>
			</input>
			<output>
				<port id="2" precision="FP32">
					<dim>1</dim>
					<dim>256</dim>
					<dim>56</dim>
					<dim>56</dim>
				</port>
			</output>
		</layer>
		<layer id="159" name="Copy_group0/block2/post_activation_bypass_quant/FakeQuantWithMinMaxVars/nudged_min/Output_0/Data_/copy_const" type="Const">
			<output>
				<port id="1" precision="FP32">
					<dim>1</dim>
					<dim>1</dim>
					<dim>1</dim>
					<dim>1</dim>
				</port>
			</output>
			<blobs>
				<custom offset="37920" precision="FP32" size="4"/>
			</blobs>
		</layer>
		<layer id="160" name="Copy_group0/block2/post_activation_bypass_quant/FakeQuantWithMinMaxVars/nudged_max/Output_0/Data_/copy_const" type="Const">
			<output>
				<port id="1" precision="FP32">
					<dim>1</dim>
					<dim>1</dim>
					<dim>1</dim>
					<dim>1</dim>
				</port>
			</output>
			<blobs>
				<custom offset="895644" precision="FP32" size="4"/>
			</blobs>
		</layer>
		<layer id="161" name="Copy_group0/block2/post_activation_bypass_quant/FakeQuantWithMinMaxVars/nudged_min/Output_0/Data_11665/copy_const" type="Const">
			<output>
				<port id="1" precision="FP32">
					<dim>1</dim>
					<dim>1</dim>
					<dim>1</dim>
					<dim>1</dim>
				</port>
			</output>
			<blobs>
				<custom offset="37920" precision="FP32" size="4"/>
			</blobs>
		</layer>
		<layer id="162" name="Copy_group0/block2/post_activation_bypass_quant/FakeQuantWithMinMaxVars/nudged_max/Output_0/Data_11381/copy_const" type="Const">
			<output>
				<port id="1" precision="FP32">
					<dim>1</dim>
					<dim>1</dim>
					<dim>1</dim>
					<dim>1</dim>
				</port>
			</output>
			<blobs>
				<custom offset="895644" precision="FP32" size="4"/>
			</blobs>
		</layer>
		<layer id="163" name="group0/block2/post_activation_bypass_quant/FakeQuantWithMinMaxVars" type="FakeQuantize">
			<data levels="256"/>
			<input>
				<port id="0">
					<dim>1</dim>
					<dim>256</dim>
					<dim>56</dim>
					<dim>56</dim>
				</port>
				<port id="1">
					<dim>1</dim>
					<dim>1</dim>
					<dim>1</dim>
					<dim>1</dim>
				</port>
				<port id="2">
					<dim>1</dim>
					<dim>1</dim>
					<dim>1</dim>
					<dim>1</dim>
				</port>
				<port id="3">
					<dim>1</dim>
					<dim>1</dim>
					<dim>1</dim>
					<dim>1</dim>
				</port>
				<port id="4">
					<dim>1</dim>
					<dim>1</dim>
					<dim>1</dim>
					<dim>1</dim>
				</port>
			</input>
			<output>
				<port id="5" precision="FP32">
					<dim>1</dim>
					<dim>256</dim>
					<dim>56</dim>
					<dim>56</dim>
				</port>
			</output>
		</layer>
		<layer id="164" name="group1/block0/conv1/mul_fold/Output_0/Data__const" type="Const">
			<output>
				<port id="1" precision="FP32">
					<dim>128</dim>
					<dim>256</dim>
					<dim>1</dim>
					<dim>1</dim>
				</port>
			</output>
			<blobs>
				<custom offset="895648" precision="FP32" size="131072"/>
			</blobs>
		</layer>
		<layer id="165" name="Copy_group1/block0/conv1/weights_quant/FakeQuantWithMinMaxVars/nudged_min/Output_0/Data_/copy_const" type="Const">
			<output>
				<port id="1" precision="FP32">
					<dim>1</dim>
					<dim>1</dim>
					<dim>1</dim>
					<dim>1</dim>
				</port>
			</output>
			<blobs>
				<custom offset="1026720" precision="FP32" size="4"/>
			</blobs>
		</layer>
		<layer id="166" name="Copy_group1/block0/conv1/weights_quant/FakeQuantWithMinMaxVars/nudged_max/Output_0/Data_/copy_const" type="Const">
			<output>
				<port id="1" precision="FP32">
					<dim>1</dim>
					<dim>1</dim>
					<dim>1</dim>
					<dim>1</dim>
				</port>
			</output>
			<blobs>
				<custom offset="1026724" precision="FP32" size="4"/>
			</blobs>
		</layer>
		<layer id="167" name="Copy_group1/block0/conv1/weights_quant/FakeQuantWithMinMaxVars/nudged_min/Output_0/Data_11583/copy_const" type="Const">
			<output>
				<port id="1" precision="FP32">
					<dim>1</dim>
					<dim>1</dim>
					<dim>1</dim>
					<dim>1</dim>
				</port>
			</output>
			<blobs>
				<custom offset="1026720" precision="FP32" size="4"/>
			</blobs>
		</layer>
		<layer id="168" name="Copy_group1/block0/conv1/weights_quant/FakeQuantWithMinMaxVars/nudged_max/Output_0/Data_11379/copy_const" type="Const">
			<output>
				<port id="1" precision="FP32">
					<dim>1</dim>
					<dim>1</dim>
					<dim>1</dim>
					<dim>1</dim>
				</port>
			</output>
			<blobs>
				<custom offset="1026724" precision="FP32" size="4"/>
			</blobs>
		</layer>
		<layer id="169" name="group1/block0/conv1/weights_quant/FakeQuantWithMinMaxVars" type="FakeQuantize">
			<data levels="255"/>
			<input>
				<port id="0">
					<dim>128</dim>
					<dim>256</dim>
					<dim>1</dim>
					<dim>1</dim>
				</port>
				<port id="1">
					<dim>1</dim>
					<dim>1</dim>
					<dim>1</dim>
					<dim>1</dim>
				</port>
				<port id="2">
					<dim>1</dim>
					<dim>1</dim>
					<dim>1</dim>
					<dim>1</dim>
				</port>
				<port id="3">
					<dim>1</dim>
					<dim>1</dim>
					<dim>1</dim>
					<dim>1</dim>
				</port>
				<port id="4">
					<dim>1</dim>
					<dim>1</dim>
					<dim>1</dim>
					<dim>1</dim>
				</port>
			</input>
			<output>
				<port id="5" precision="FP32">
					<dim>128</dim>
					<dim>256</dim>
					<dim>1</dim>
					<dim>1</dim>
				</port>
			</output>
		</layer>
		<layer id="170" name="bias_data2753027531_const" type="Const">
			<output>
				<port id="1" precision="FP32">
					<dim>128</dim>
				</port>
			</output>
			<blobs>
				<custom offset="1026728" precision="FP32" size="512"/>
			</blobs>
		</layer>
		<layer id="171" name="group1/block0/conv1/Conv2D_Fold" type="Convolution">
			<data auto_pad="same_upper" dilations="1,1" group="1" kernel="1,1" output="128" pads_begin="0,0" pads_end="0,0" strides="1,1"/>
			<input>
				<port id="0">
					<dim>1</dim>
					<dim>256</dim>
					<dim>56</dim>
					<dim>56</dim>
				</port>
				<port id="1">
					<dim>128</dim>
					<dim>256</dim>
					<dim>1</dim>
					<dim>1</dim>
				</port>
				<port id="2">
					<dim>128</dim>
				</port>
			</input>
			<output>
				<port id="3" precision="FP32">
					<dim>1</dim>
					<dim>128</dim>
					<dim>56</dim>
					<dim>56</dim>
				</port>
			</output>
		</layer>
		<layer id="172" name="Copy_group1/block0/conv1/act_quant/FakeQuantWithMinMaxVars/nudged_min/Output_0/Data_/copy_const" type="Const">
			<output>
				<port id="1" precision="FP32">
					<dim>1</dim>
					<dim>1</dim>
					<dim>1</dim>
					<dim>1</dim>
				</port>
			</output>
			<blobs>
				<custom offset="37920" precision="FP32" size="4"/>
			</blobs>
		</layer>
		<layer id="173" name="Copy_group1/block0/conv1/act_quant/FakeQuantWithMinMaxVars/nudged_max/Output_0/Data_/copy_const" type="Const">
			<output>
				<port id="1" precision="FP32">
					<dim>1</dim>
					<dim>1</dim>
					<dim>1</dim>
					<dim>1</dim>
				</port>
			</output>
			<blobs>
				<custom offset="1027240" precision="FP32" size="4"/>
			</blobs>
		</layer>
		<layer id="174" name="Copy_group1/block0/conv1/act_quant/FakeQuantWithMinMaxVars/nudged_min/Output_0/Data_11605/copy_const" type="Const">
			<output>
				<port id="1" precision="FP32">
					<dim>1</dim>
					<dim>1</dim>
					<dim>1</dim>
					<dim>1</dim>
				</port>
			</output>
			<blobs>
				<custom offset="37920" precision="FP32" size="4"/>
			</blobs>
		</layer>
		<layer id="175" name="Copy_group1/block0/conv1/act_quant/FakeQuantWithMinMaxVars/nudged_max/Output_0/Data_11695/copy_const" type="Const">
			<output>
				<port id="1" precision="FP32">
					<dim>1</dim>
					<dim>1</dim>
					<dim>1</dim>
					<dim>1</dim>
				</port>
			</output>
			<blobs>
				<custom offset="1027240" precision="FP32" size="4"/>
			</blobs>
		</layer>
		<layer id="176" name="group1/block0/conv1/act_quant/FakeQuantWithMinMaxVars" type="FakeQuantize">
			<data levels="256"/>
			<input>
				<port id="0">
					<dim>1</dim>
					<dim>128</dim>
					<dim>56</dim>
					<dim>56</dim>
				</port>
				<port id="1">
					<dim>1</dim>
					<dim>1</dim>
					<dim>1</dim>
					<dim>1</dim>
				</port>
				<port id="2">
					<dim>1</dim>
					<dim>1</dim>
					<dim>1</dim>
					<dim>1</dim>
				</port>
				<port id="3">
					<dim>1</dim>
					<dim>1</dim>
					<dim>1</dim>
					<dim>1</dim>
				</port>
				<port id="4">
					<dim>1</dim>
					<dim>1</dim>
					<dim>1</dim>
					<dim>1</dim>
				</port>
			</input>
			<output>
				<port id="5" precision="FP32">
					<dim>1</dim>
					<dim>128</dim>
					<dim>56</dim>
					<dim>56</dim>
				</port>
			</output>
		</layer>
		<layer id="177" name="group1/block0/conv2/mul_fold/Output_0/Data__const" type="Const">
			<output>
				<port id="1" precision="FP32">
					<dim>128</dim>
					<dim>128</dim>
					<dim>3</dim>
					<dim>3</dim>
				</port>
			</output>
			<blobs>
				<custom offset="1027244" precision="FP32" size="589824"/>
			</blobs>
		</layer>
		<layer id="178" name="Copy_group1/block0/conv2/weights_quant/FakeQuantWithMinMaxVars/nudged_min/Output_0/Data_/copy_const" type="Const">
			<output>
				<port id="1" precision="FP32">
					<dim>1</dim>
					<dim>1</dim>
					<dim>1</dim>
					<dim>1</dim>
				</port>
			</output>
			<blobs>
				<custom offset="1617068" precision="FP32" size="4"/>
			</blobs>
		</layer>
		<layer id="179" name="Copy_group1/block0/conv2/weights_quant/FakeQuantWithMinMaxVars/nudged_max/Output_0/Data_/copy_const" type="Const">
			<output>
				<port id="1" precision="FP32">
					<dim>1</dim>
					<dim>1</dim>
					<dim>1</dim>
					<dim>1</dim>
				</port>
			</output>
			<blobs>
				<custom offset="1617072" precision="FP32" size="4"/>
			</blobs>
		</layer>
		<layer id="180" name="Copy_group1/block0/conv2/weights_quant/FakeQuantWithMinMaxVars/nudged_min/Output_0/Data_11637/copy_const" type="Const">
			<output>
				<port id="1" precision="FP32">
					<dim>1</dim>
					<dim>1</dim>
					<dim>1</dim>
					<dim>1</dim>
				</port>
			</output>
			<blobs>
				<custom offset="1617068" precision="FP32" size="4"/>
			</blobs>
		</layer>
		<layer id="181" name="Copy_group1/block0/conv2/weights_quant/FakeQuantWithMinMaxVars/nudged_max/Output_0/Data_11405/copy_const" type="Const">
			<output>
				<port id="1" precision="FP32">
					<dim>1</dim>
					<dim>1</dim>
					<dim>1</dim>
					<dim>1</dim>
				</port>
			</output>
			<blobs>
				<custom offset="1617072" precision="FP32" size="4"/>
			</blobs>
		</layer>
		<layer id="182" name="group1/block0/conv2/weights_quant/FakeQuantWithMinMaxVars" type="FakeQuantize">
			<data levels="255"/>
			<input>
				<port id="0">
					<dim>128</dim>
					<dim>128</dim>
					<dim>3</dim>
					<dim>3</dim>
				</port>
				<port id="1">
					<dim>1</dim>
					<dim>1</dim>
					<dim>1</dim>
					<dim>1</dim>
				</port>
				<port id="2">
					<dim>1</dim>
					<dim>1</dim>
					<dim>1</dim>
					<dim>1</dim>
				</port>
				<port id="3">
					<dim>1</dim>
					<dim>1</dim>
					<dim>1</dim>
					<dim>1</dim>
				</port>
				<port id="4">
					<dim>1</dim>
					<dim>1</dim>
					<dim>1</dim>
					<dim>1</dim>
				</port>
			</input>
			<output>
				<port id="5" precision="FP32">
					<dim>128</dim>
					<dim>128</dim>
					<dim>3</dim>
					<dim>3</dim>
				</port>
			</output>
		</layer>
		<layer id="183" name="bias_data2753227533_const" type="Const">
			<output>
				<port id="1" precision="FP32">
					<dim>128</dim>
				</port>
			</output>
			<blobs>
				<custom offset="1617076" precision="FP32" size="512"/>
			</blobs>
		</layer>
		<layer id="184" name="group1/block0/conv2/Conv2D_Fold" type="Convolution">
			<data auto_pad="same_upper" dilations="1,1" group="1" kernel="3,3" output="128" pads_begin="0,0" pads_end="1,1" strides="2,2"/>
			<input>
				<port id="0">
					<dim>1</dim>
					<dim>128</dim>
					<dim>56</dim>
					<dim>56</dim>
				</port>
				<port id="1">
					<dim>128</dim>
					<dim>128</dim>
					<dim>3</dim>
					<dim>3</dim>
				</port>
				<port id="2">
					<dim>128</dim>
				</port>
			</input>
			<output>
				<port id="3" precision="FP32">
					<dim>1</dim>
					<dim>128</dim>
					<dim>28</dim>
					<dim>28</dim>
				</port>
			</output>
		</layer>
		<layer id="185" name="Copy_group1/block0/conv2/act_quant/FakeQuantWithMinMaxVars/nudged_min/Output_0/Data_/copy_const" type="Const">
			<output>
				<port id="1" precision="FP32">
					<dim>1</dim>
					<dim>1</dim>
					<dim>1</dim>
					<dim>1</dim>
				</port>
			</output>
			<blobs>
				<custom offset="37920" precision="FP32" size="4"/>
			</blobs>
		</layer>
		<layer id="186" name="Copy_group1/block0/conv2/act_quant/FakeQuantWithMinMaxVars/nudged_max/Output_0/Data_/copy_const" type="Const">
			<output>
				<port id="1" precision="FP32">
					<dim>1</dim>
					<dim>1</dim>
					<dim>1</dim>
					<dim>1</dim>
				</port>
			</output>
			<blobs>
				<custom offset="1617588" precision="FP32" size="4"/>
			</blobs>
		</layer>
		<layer id="187" name="Copy_group1/block0/conv2/act_quant/FakeQuantWithMinMaxVars/nudged_min/Output_0/Data_11317/copy_const" type="Const">
			<output>
				<port id="1" precision="FP32">
					<dim>1</dim>
					<dim>1</dim>
					<dim>1</dim>
					<dim>1</dim>
				</port>
			</output>
			<blobs>
				<custom offset="37920" precision="FP32" size="4"/>
			</blobs>
		</layer>
		<layer id="188" name="Copy_group1/block0/conv2/act_quant/FakeQuantWithMinMaxVars/nudged_max/Output_0/Data_11387/copy_const" type="Const">
			<output>
				<port id="1" precision="FP32">
					<dim>1</dim>
					<dim>1</dim>
					<dim>1</dim>
					<dim>1</dim>
				</port>
			</output>
			<blobs>
				<custom offset="1617588" precision="FP32" size="4"/>
			</blobs>
		</layer>
		<layer id="189" name="group1/block0/conv2/act_quant/FakeQuantWithMinMaxVars" type="FakeQuantize">
			<data levels="256"/>
			<input>
				<port id="0">
					<dim>1</dim>
					<dim>128</dim>
					<dim>28</dim>
					<dim>28</dim>
				</port>
				<port id="1">
					<dim>1</dim>
					<dim>1</dim>
					<dim>1</dim>
					<dim>1</dim>
				</port>
				<port id="2">
					<dim>1</dim>
					<dim>1</dim>
					<dim>1</dim>
					<dim>1</dim>
				</port>
				<port id="3">
					<dim>1</dim>
					<dim>1</dim>
					<dim>1</dim>
					<dim>1</dim>
				</port>
				<port id="4">
					<dim>1</dim>
					<dim>1</dim>
					<dim>1</dim>
					<dim>1</dim>
				</port>
			</input>
			<output>
				<port id="5" precision="FP32">
					<dim>1</dim>
					<dim>128</dim>
					<dim>28</dim>
					<dim>28</dim>
				</port>
			</output>
		</layer>
		<layer id="190" name="group1/block0/conv3/mul_fold/Output_0/Data__const" type="Const">
			<output>
				<port id="1" precision="FP32">
					<dim>512</dim>
					<dim>128</dim>
					<dim>1</dim>
					<dim>1</dim>
				</port>
			</output>
			<blobs>
				<custom offset="1617592" precision="FP32" size="262144"/>
			</blobs>
		</layer>
		<layer id="191" name="Copy_group1/block0/conv3/weights_quant/FakeQuantWithMinMaxVars/nudged_min/Output_0/Data_/copy_const" type="Const">
			<output>
				<port id="1" precision="FP32">
					<dim>1</dim>
					<dim>1</dim>
					<dim>1</dim>
					<dim>1</dim>
				</port>
			</output>
			<blobs>
				<custom offset="1879736" precision="FP32" size="4"/>
			</blobs>
		</layer>
		<layer id="192" name="Copy_group1/block0/conv3/weights_quant/FakeQuantWithMinMaxVars/nudged_max/Output_0/Data_/copy_const" type="Const">
			<output>
				<port id="1" precision="FP32">
					<dim>1</dim>
					<dim>1</dim>
					<dim>1</dim>
					<dim>1</dim>
				</port>
			</output>
			<blobs>
				<custom offset="1879740" precision="FP32" size="4"/>
			</blobs>
		</layer>
		<layer id="193" name="Copy_group1/block0/conv3/weights_quant/FakeQuantWithMinMaxVars/nudged_min/Output_0/Data_11261/copy_const" type="Const">
			<output>
				<port id="1" precision="FP32">
					<dim>1</dim>
					<dim>1</dim>
					<dim>1</dim>
					<dim>1</dim>
				</port>
			</output>
			<blobs>
				<custom offset="1879736" precision="FP32" size="4"/>
			</blobs>
		</layer>
		<layer id="194" name="Copy_group1/block0/conv3/weights_quant/FakeQuantWithMinMaxVars/nudged_max/Output_0/Data_11273/copy_const" type="Const">
			<output>
				<port id="1" precision="FP32">
					<dim>1</dim>
					<dim>1</dim>
					<dim>1</dim>
					<dim>1</dim>
				</port>
			</output>
			<blobs>
				<custom offset="1879740" precision="FP32" size="4"/>
			</blobs>
		</layer>
		<layer id="195" name="group1/block0/conv3/weights_quant/FakeQuantWithMinMaxVars" type="FakeQuantize">
			<data levels="255"/>
			<input>
				<port id="0">
					<dim>512</dim>
					<dim>128</dim>
					<dim>1</dim>
					<dim>1</dim>
				</port>
				<port id="1">
					<dim>1</dim>
					<dim>1</dim>
					<dim>1</dim>
					<dim>1</dim>
				</port>
				<port id="2">
					<dim>1</dim>
					<dim>1</dim>
					<dim>1</dim>
					<dim>1</dim>
				</port>
				<port id="3">
					<dim>1</dim>
					<dim>1</dim>
					<dim>1</dim>
					<dim>1</dim>
				</port>
				<port id="4">
					<dim>1</dim>
					<dim>1</dim>
					<dim>1</dim>
					<dim>1</dim>
				</port>
			</input>
			<output>
				<port id="5" precision="FP32">
					<dim>512</dim>
					<dim>128</dim>
					<dim>1</dim>
					<dim>1</dim>
				</port>
			</output>
		</layer>
		<layer id="196" name="bias_data2753427535_const" type="Const">
			<output>
				<port id="1" precision="FP32">
					<dim>512</dim>
				</port>
			</output>
			<blobs>
				<custom offset="1879744" precision="FP32" size="2048"/>
			</blobs>
		</layer>
		<layer id="197" name="group1/block0/conv3/Conv2D_Fold" type="Convolution">
			<data auto_pad="same_upper" dilations="1,1" group="1" kernel="1,1" output="512" pads_begin="0,0" pads_end="0,0" strides="1,1"/>
			<input>
				<port id="0">
					<dim>1</dim>
					<dim>128</dim>
					<dim>28</dim>
					<dim>28</dim>
				</port>
				<port id="1">
					<dim>512</dim>
					<dim>128</dim>
					<dim>1</dim>
					<dim>1</dim>
				</port>
				<port id="2">
					<dim>512</dim>
				</port>
			</input>
			<output>
				<port id="3" precision="FP32">
					<dim>1</dim>
					<dim>512</dim>
					<dim>28</dim>
					<dim>28</dim>
				</port>
			</output>
		</layer>
		<layer id="198" name="Copy_group1/block0/conv3/act_quant/FakeQuantWithMinMaxVars/nudged_min/Output_0/Data_/copy_const" type="Const">
			<output>
				<port id="1" precision="FP32">
					<dim>1</dim>
					<dim>1</dim>
					<dim>1</dim>
					<dim>1</dim>
				</port>
			</output>
			<blobs>
				<custom offset="37920" precision="FP32" size="4"/>
			</blobs>
		</layer>
		<layer id="199" name="Copy_group1/block0/conv3/act_quant/FakeQuantWithMinMaxVars/nudged_max/Output_0/Data_/copy_const" type="Const">
			<output>
				<port id="1" precision="FP32">
					<dim>1</dim>
					<dim>1</dim>
					<dim>1</dim>
					<dim>1</dim>
				</port>
			</output>
			<blobs>
				<custom offset="1881792" precision="FP32" size="4"/>
			</blobs>
		</layer>
		<layer id="200" name="Copy_group1/block0/conv3/act_quant/FakeQuantWithMinMaxVars/nudged_min/Output_0/Data_11701/copy_const" type="Const">
			<output>
				<port id="1" precision="FP32">
					<dim>1</dim>
					<dim>1</dim>
					<dim>1</dim>
					<dim>1</dim>
				</port>
			</output>
			<blobs>
				<custom offset="37920" precision="FP32" size="4"/>
			</blobs>
		</layer>
		<layer id="201" name="Copy_group1/block0/conv3/act_quant/FakeQuantWithMinMaxVars/nudged_max/Output_0/Data_11319/copy_const" type="Const">
			<output>
				<port id="1" precision="FP32">
					<dim>1</dim>
					<dim>1</dim>
					<dim>1</dim>
					<dim>1</dim>
				</port>
			</output>
			<blobs>
				<custom offset="1881792" precision="FP32" size="4"/>
			</blobs>
		</layer>
		<layer id="202" name="group1/block0/conv3/act_quant/FakeQuantWithMinMaxVars" type="FakeQuantize">
			<data levels="256"/>
			<input>
				<port id="0">
					<dim>1</dim>
					<dim>512</dim>
					<dim>28</dim>
					<dim>28</dim>
				</port>
				<port id="1">
					<dim>1</dim>
					<dim>1</dim>
					<dim>1</dim>
					<dim>1</dim>
				</port>
				<port id="2">
					<dim>1</dim>
					<dim>1</dim>
					<dim>1</dim>
					<dim>1</dim>
				</port>
				<port id="3">
					<dim>1</dim>
					<dim>1</dim>
					<dim>1</dim>
					<dim>1</dim>
				</port>
				<port id="4">
					<dim>1</dim>
					<dim>1</dim>
					<dim>1</dim>
					<dim>1</dim>
				</port>
			</input>
			<output>
				<port id="5" precision="FP32">
					<dim>1</dim>
					<dim>512</dim>
					<dim>28</dim>
					<dim>28</dim>
				</port>
			</output>
		</layer>
		<layer id="203" name="group1/block0/convshortcut/mul_fold/Output_0/Data__const" type="Const">
			<output>
				<port id="1" precision="FP32">
					<dim>512</dim>
					<dim>256</dim>
					<dim>1</dim>
					<dim>1</dim>
				</port>
			</output>
			<blobs>
				<custom offset="1881796" precision="FP32" size="524288"/>
			</blobs>
		</layer>
		<layer id="204" name="Copy_group1/block0/convshortcut/weights_quant/FakeQuantWithMinMaxVars/nudged_min/Output_0/Data_/copy_const" type="Const">
			<output>
				<port id="1" precision="FP32">
					<dim>1</dim>
					<dim>1</dim>
					<dim>1</dim>
					<dim>1</dim>
				</port>
			</output>
			<blobs>
				<custom offset="2406084" precision="FP32" size="4"/>
			</blobs>
		</layer>
		<layer id="205" name="Copy_group1/block0/convshortcut/weights_quant/FakeQuantWithMinMaxVars/nudged_max/Output_0/Data_/copy_const" type="Const">
			<output>
				<port id="1" precision="FP32">
					<dim>1</dim>
					<dim>1</dim>
					<dim>1</dim>
					<dim>1</dim>
				</port>
			</output>
			<blobs>
				<custom offset="2406088" precision="FP32" size="4"/>
			</blobs>
		</layer>
		<layer id="206" name="Copy_group1/block0/convshortcut/weights_quant/FakeQuantWithMinMaxVars/nudged_min/Output_0/Data_11417/copy_const" type="Const">
			<output>
				<port id="1" precision="FP32">
					<dim>1</dim>
					<dim>1</dim>
					<dim>1</dim>
					<dim>1</dim>
				</port>
			</output>
			<blobs>
				<custom offset="2406084" precision="FP32" size="4"/>
			</blobs>
		</layer>
		<layer id="207" name="Copy_group1/block0/convshortcut/weights_quant/FakeQuantWithMinMaxVars/nudged_max/Output_0/Data_11267/copy_const" type="Const">
			<output>
				<port id="1" precision="FP32">
					<dim>1</dim>
					<dim>1</dim>
					<dim>1</dim>
					<dim>1</dim>
				</port>
			</output>
			<blobs>
				<custom offset="2406088" precision="FP32" size="4"/>
			</blobs>
		</layer>
		<layer id="208" name="group1/block0/convshortcut/weights_quant/FakeQuantWithMinMaxVars" type="FakeQuantize">
			<data levels="255"/>
			<input>
				<port id="0">
					<dim>512</dim>
					<dim>256</dim>
					<dim>1</dim>
					<dim>1</dim>
				</port>
				<port id="1">
					<dim>1</dim>
					<dim>1</dim>
					<dim>1</dim>
					<dim>1</dim>
				</port>
				<port id="2">
					<dim>1</dim>
					<dim>1</dim>
					<dim>1</dim>
					<dim>1</dim>
				</port>
				<port id="3">
					<dim>1</dim>
					<dim>1</dim>
					<dim>1</dim>
					<dim>1</dim>
				</port>
				<port id="4">
					<dim>1</dim>
					<dim>1</dim>
					<dim>1</dim>
					<dim>1</dim>
				</port>
			</input>
			<output>
				<port id="5" precision="FP32">
					<dim>512</dim>
					<dim>256</dim>
					<dim>1</dim>
					<dim>1</dim>
				</port>
			</output>
		</layer>
		<layer id="209" name="bias_data2752827529_const" type="Const">
			<output>
				<port id="1" precision="FP32">
					<dim>512</dim>
				</port>
			</output>
			<blobs>
				<custom offset="2406092" precision="FP32" size="2048"/>
			</blobs>
		</layer>
		<layer id="210" name="group1/block0/convshortcut/Conv2D_Fold" type="Convolution">
			<data auto_pad="same_upper" dilations="1,1" group="1" kernel="1,1" output="512" pads_begin="0,0" pads_end="0,0" strides="2,2"/>
			<input>
				<port id="0">
					<dim>1</dim>
					<dim>256</dim>
					<dim>56</dim>
					<dim>56</dim>
				</port>
				<port id="1">
					<dim>512</dim>
					<dim>256</dim>
					<dim>1</dim>
					<dim>1</dim>
				</port>
				<port id="2">
					<dim>512</dim>
				</port>
			</input>
			<output>
				<port id="3" precision="FP32">
					<dim>1</dim>
					<dim>512</dim>
					<dim>28</dim>
					<dim>28</dim>
				</port>
			</output>
		</layer>
		<layer id="211" name="Copy_group1/block0/convshortcut/act_quant/FakeQuantWithMinMaxVars/nudged_min/Output_0/Data_/copy_const" type="Const">
			<output>
				<port id="1" precision="FP32">
					<dim>1</dim>
					<dim>1</dim>
					<dim>1</dim>
					<dim>1</dim>
				</port>
			</output>
			<blobs>
				<custom offset="37920" precision="FP32" size="4"/>
			</blobs>
		</layer>
		<layer id="212" name="Copy_group1/block0/convshortcut/act_quant/FakeQuantWithMinMaxVars/nudged_max/Output_0/Data_/copy_const" type="Const">
			<output>
				<port id="1" precision="FP32">
					<dim>1</dim>
					<dim>1</dim>
					<dim>1</dim>
					<dim>1</dim>
				</port>
			</output>
			<blobs>
				<custom offset="1881792" precision="FP32" size="4"/>
			</blobs>
		</layer>
		<layer id="213" name="Copy_group1/block0/convshortcut/act_quant/FakeQuantWithMinMaxVars/nudged_min/Output_0/Data_11407/copy_const" type="Const">
			<output>
				<port id="1" precision="FP32">
					<dim>1</dim>
					<dim>1</dim>
					<dim>1</dim>
					<dim>1</dim>
				</port>
			</output>
			<blobs>
				<custom offset="37920" precision="FP32" size="4"/>
			</blobs>
		</layer>
		<layer id="214" name="Copy_group1/block0/convshortcut/act_quant/FakeQuantWithMinMaxVars/nudged_max/Output_0/Data_11307/copy_const" type="Const">
			<output>
				<port id="1" precision="FP32">
					<dim>1</dim>
					<dim>1</dim>
					<dim>1</dim>
					<dim>1</dim>
				</port>
			</output>
			<blobs>
				<custom offset="1881792" precision="FP32" size="4"/>
			</blobs>
		</layer>
		<layer id="215" name="group1/block0/convshortcut/act_quant/FakeQuantWithMinMaxVars" type="FakeQuantize">
			<data levels="256"/>
			<input>
				<port id="0">
					<dim>1</dim>
					<dim>512</dim>
					<dim>28</dim>
					<dim>28</dim>
				</port>
				<port id="1">
					<dim>1</dim>
					<dim>1</dim>
					<dim>1</dim>
					<dim>1</dim>
				</port>
				<port id="2">
					<dim>1</dim>
					<dim>1</dim>
					<dim>1</dim>
					<dim>1</dim>
				</port>
				<port id="3">
					<dim>1</dim>
					<dim>1</dim>
					<dim>1</dim>
					<dim>1</dim>
				</port>
				<port id="4">
					<dim>1</dim>
					<dim>1</dim>
					<dim>1</dim>
					<dim>1</dim>
				</port>
			</input>
			<output>
				<port id="5" precision="FP32">
					<dim>1</dim>
					<dim>512</dim>
					<dim>28</dim>
					<dim>28</dim>
				</port>
			</output>
		</layer>
		<layer id="216" name="group1/block0/add" type="Eltwise">
			<data operation="sum"/>
			<input>
				<port id="0">
					<dim>1</dim>
					<dim>512</dim>
					<dim>28</dim>
					<dim>28</dim>
				</port>
				<port id="1">
					<dim>1</dim>
					<dim>512</dim>
					<dim>28</dim>
					<dim>28</dim>
				</port>
			</input>
			<output>
				<port id="2" precision="FP32">
					<dim>1</dim>
					<dim>512</dim>
					<dim>28</dim>
					<dim>28</dim>
				</port>
			</output>
		</layer>
		<layer id="217" name="Copy_group1/block0/post_activation_bypass_quant/FakeQuantWithMinMaxVars/nudged_min/Output_0/Data_/copy_const" type="Const">
			<output>
				<port id="1" precision="FP32">
					<dim>1</dim>
					<dim>1</dim>
					<dim>1</dim>
					<dim>1</dim>
				</port>
			</output>
			<blobs>
				<custom offset="37920" precision="FP32" size="4"/>
			</blobs>
		</layer>
		<layer id="218" name="Copy_group1/block0/post_activation_bypass_quant/FakeQuantWithMinMaxVars/nudged_max/Output_0/Data_/copy_const" type="Const">
			<output>
				<port id="1" precision="FP32">
					<dim>1</dim>
					<dim>1</dim>
					<dim>1</dim>
					<dim>1</dim>
				</port>
			</output>
			<blobs>
				<custom offset="2408140" precision="FP32" size="4"/>
			</blobs>
		</layer>
		<layer id="219" name="Copy_group1/block0/post_activation_bypass_quant/FakeQuantWithMinMaxVars/nudged_min/Output_0/Data_11731/copy_const" type="Const">
			<output>
				<port id="1" precision="FP32">
					<dim>1</dim>
					<dim>1</dim>
					<dim>1</dim>
					<dim>1</dim>
				</port>
			</output>
			<blobs>
				<custom offset="37920" precision="FP32" size="4"/>
			</blobs>
		</layer>
		<layer id="220" name="Copy_group1/block0/post_activation_bypass_quant/FakeQuantWithMinMaxVars/nudged_max/Output_0/Data_11311/copy_const" type="Const">
			<output>
				<port id="1" precision="FP32">
					<dim>1</dim>
					<dim>1</dim>
					<dim>1</dim>
					<dim>1</dim>
				</port>
			</output>
			<blobs>
				<custom offset="2408140" precision="FP32" size="4"/>
			</blobs>
		</layer>
		<layer id="221" name="group1/block0/post_activation_bypass_quant/FakeQuantWithMinMaxVars" type="FakeQuantize">
			<data levels="256"/>
			<input>
				<port id="0">
					<dim>1</dim>
					<dim>512</dim>
					<dim>28</dim>
					<dim>28</dim>
				</port>
				<port id="1">
					<dim>1</dim>
					<dim>1</dim>
					<dim>1</dim>
					<dim>1</dim>
				</port>
				<port id="2">
					<dim>1</dim>
					<dim>1</dim>
					<dim>1</dim>
					<dim>1</dim>
				</port>
				<port id="3">
					<dim>1</dim>
					<dim>1</dim>
					<dim>1</dim>
					<dim>1</dim>
				</port>
				<port id="4">
					<dim>1</dim>
					<dim>1</dim>
					<dim>1</dim>
					<dim>1</dim>
				</port>
			</input>
			<output>
				<port id="5" precision="FP32">
					<dim>1</dim>
					<dim>512</dim>
					<dim>28</dim>
					<dim>28</dim>
				</port>
			</output>
		</layer>
		<layer id="222" name="group1/block1/conv1/mul_fold/Output_0/Data__const" type="Const">
			<output>
				<port id="1" precision="FP32">
					<dim>128</dim>
					<dim>512</dim>
					<dim>1</dim>
					<dim>1</dim>
				</port>
			</output>
			<blobs>
				<custom offset="2408144" precision="FP32" size="262144"/>
			</blobs>
		</layer>
		<layer id="223" name="Copy_group1/block1/conv1/weights_quant/FakeQuantWithMinMaxVars/nudged_min/Output_0/Data_/copy_const" type="Const">
			<output>
				<port id="1" precision="FP32">
					<dim>1</dim>
					<dim>1</dim>
					<dim>1</dim>
					<dim>1</dim>
				</port>
			</output>
			<blobs>
				<custom offset="2670288" precision="FP32" size="4"/>
			</blobs>
		</layer>
		<layer id="224" name="Copy_group1/block1/conv1/weights_quant/FakeQuantWithMinMaxVars/nudged_max/Output_0/Data_/copy_const" type="Const">
			<output>
				<port id="1" precision="FP32">
					<dim>1</dim>
					<dim>1</dim>
					<dim>1</dim>
					<dim>1</dim>
				</port>
			</output>
			<blobs>
				<custom offset="2670292" precision="FP32" size="4"/>
			</blobs>
		</layer>
		<layer id="225" name="Copy_group1/block1/conv1/weights_quant/FakeQuantWithMinMaxVars/nudged_min/Output_0/Data_11677/copy_const" type="Const">
			<output>
				<port id="1" precision="FP32">
					<dim>1</dim>
					<dim>1</dim>
					<dim>1</dim>
					<dim>1</dim>
				</port>
			</output>
			<blobs>
				<custom offset="2670288" precision="FP32" size="4"/>
			</blobs>
		</layer>
		<layer id="226" name="Copy_group1/block1/conv1/weights_quant/FakeQuantWithMinMaxVars/nudged_max/Output_0/Data_11513/copy_const" type="Const">
			<output>
				<port id="1" precision="FP32">
					<dim>1</dim>
					<dim>1</dim>
					<dim>1</dim>
					<dim>1</dim>
				</port>
			</output>
			<blobs>
				<custom offset="2670292" precision="FP32" size="4"/>
			</blobs>
		</layer>
		<layer id="227" name="group1/block1/conv1/weights_quant/FakeQuantWithMinMaxVars" type="FakeQuantize">
			<data levels="255"/>
			<input>
				<port id="0">
					<dim>128</dim>
					<dim>512</dim>
					<dim>1</dim>
					<dim>1</dim>
				</port>
				<port id="1">
					<dim>1</dim>
					<dim>1</dim>
					<dim>1</dim>
					<dim>1</dim>
				</port>
				<port id="2">
					<dim>1</dim>
					<dim>1</dim>
					<dim>1</dim>
					<dim>1</dim>
				</port>
				<port id="3">
					<dim>1</dim>
					<dim>1</dim>
					<dim>1</dim>
					<dim>1</dim>
				</port>
				<port id="4">
					<dim>1</dim>
					<dim>1</dim>
					<dim>1</dim>
					<dim>1</dim>
				</port>
			</input>
			<output>
				<port id="5" precision="FP32">
					<dim>128</dim>
					<dim>512</dim>
					<dim>1</dim>
					<dim>1</dim>
				</port>
			</output>
		</layer>
		<layer id="228" name="bias_data2753627537_const" type="Const">
			<output>
				<port id="1" precision="FP32">
					<dim>128</dim>
				</port>
			</output>
			<blobs>
				<custom offset="2670296" precision="FP32" size="512"/>
			</blobs>
		</layer>
		<layer id="229" name="group1/block1/conv1/Conv2D_Fold" type="Convolution">
			<data auto_pad="same_upper" dilations="1,1" group="1" kernel="1,1" output="128" pads_begin="0,0" pads_end="0,0" strides="1,1"/>
			<input>
				<port id="0">
					<dim>1</dim>
					<dim>512</dim>
					<dim>28</dim>
					<dim>28</dim>
				</port>
				<port id="1">
					<dim>128</dim>
					<dim>512</dim>
					<dim>1</dim>
					<dim>1</dim>
				</port>
				<port id="2">
					<dim>128</dim>
				</port>
			</input>
			<output>
				<port id="3" precision="FP32">
					<dim>1</dim>
					<dim>128</dim>
					<dim>28</dim>
					<dim>28</dim>
				</port>
			</output>
		</layer>
		<layer id="230" name="Copy_group1/block1/conv1/act_quant/FakeQuantWithMinMaxVars/nudged_min/Output_0/Data_/copy_const" type="Const">
			<output>
				<port id="1" precision="FP32">
					<dim>1</dim>
					<dim>1</dim>
					<dim>1</dim>
					<dim>1</dim>
				</port>
			</output>
			<blobs>
				<custom offset="37920" precision="FP32" size="4"/>
			</blobs>
		</layer>
		<layer id="231" name="Copy_group1/block1/conv1/act_quant/FakeQuantWithMinMaxVars/nudged_max/Output_0/Data_/copy_const" type="Const">
			<output>
				<port id="1" precision="FP32">
					<dim>1</dim>
					<dim>1</dim>
					<dim>1</dim>
					<dim>1</dim>
				</port>
			</output>
			<blobs>
				<custom offset="2670808" precision="FP32" size="4"/>
			</blobs>
		</layer>
		<layer id="232" name="Copy_group1/block1/conv1/act_quant/FakeQuantWithMinMaxVars/nudged_min/Output_0/Data_11299/copy_const" type="Const">
			<output>
				<port id="1" precision="FP32">
					<dim>1</dim>
					<dim>1</dim>
					<dim>1</dim>
					<dim>1</dim>
				</port>
			</output>
			<blobs>
				<custom offset="37920" precision="FP32" size="4"/>
			</blobs>
		</layer>
		<layer id="233" name="Copy_group1/block1/conv1/act_quant/FakeQuantWithMinMaxVars/nudged_max/Output_0/Data_11363/copy_const" type="Const">
			<output>
				<port id="1" precision="FP32">
					<dim>1</dim>
					<dim>1</dim>
					<dim>1</dim>
					<dim>1</dim>
				</port>
			</output>
			<blobs>
				<custom offset="2670808" precision="FP32" size="4"/>
			</blobs>
		</layer>
		<layer id="234" name="group1/block1/conv1/act_quant/FakeQuantWithMinMaxVars" type="FakeQuantize">
			<data levels="256"/>
			<input>
				<port id="0">
					<dim>1</dim>
					<dim>128</dim>
					<dim>28</dim>
					<dim>28</dim>
				</port>
				<port id="1">
					<dim>1</dim>
					<dim>1</dim>
					<dim>1</dim>
					<dim>1</dim>
				</port>
				<port id="2">
					<dim>1</dim>
					<dim>1</dim>
					<dim>1</dim>
					<dim>1</dim>
				</port>
				<port id="3">
					<dim>1</dim>
					<dim>1</dim>
					<dim>1</dim>
					<dim>1</dim>
				</port>
				<port id="4">
					<dim>1</dim>
					<dim>1</dim>
					<dim>1</dim>
					<dim>1</dim>
				</port>
			</input>
			<output>
				<port id="5" precision="FP32">
					<dim>1</dim>
					<dim>128</dim>
					<dim>28</dim>
					<dim>28</dim>
				</port>
			</output>
		</layer>
		<layer id="235" name="group1/block1/conv2/mul_fold/Output_0/Data__const" type="Const">
			<output>
				<port id="1" precision="FP32">
					<dim>128</dim>
					<dim>128</dim>
					<dim>3</dim>
					<dim>3</dim>
				</port>
			</output>
			<blobs>
				<custom offset="2670812" precision="FP32" size="589824"/>
			</blobs>
		</layer>
		<layer id="236" name="Copy_group1/block1/conv2/weights_quant/FakeQuantWithMinMaxVars/nudged_min/Output_0/Data_/copy_const" type="Const">
			<output>
				<port id="1" precision="FP32">
					<dim>1</dim>
					<dim>1</dim>
					<dim>1</dim>
					<dim>1</dim>
				</port>
			</output>
			<blobs>
				<custom offset="3260636" precision="FP32" size="4"/>
			</blobs>
		</layer>
		<layer id="237" name="Copy_group1/block1/conv2/weights_quant/FakeQuantWithMinMaxVars/nudged_max/Output_0/Data_/copy_const" type="Const">
			<output>
				<port id="1" precision="FP32">
					<dim>1</dim>
					<dim>1</dim>
					<dim>1</dim>
					<dim>1</dim>
				</port>
			</output>
			<blobs>
				<custom offset="3260640" precision="FP32" size="4"/>
			</blobs>
		</layer>
		<layer id="238" name="Copy_group1/block1/conv2/weights_quant/FakeQuantWithMinMaxVars/nudged_min/Output_0/Data_11427/copy_const" type="Const">
			<output>
				<port id="1" precision="FP32">
					<dim>1</dim>
					<dim>1</dim>
					<dim>1</dim>
					<dim>1</dim>
				</port>
			</output>
			<blobs>
				<custom offset="3260636" precision="FP32" size="4"/>
			</blobs>
		</layer>
		<layer id="239" name="Copy_group1/block1/conv2/weights_quant/FakeQuantWithMinMaxVars/nudged_max/Output_0/Data_11323/copy_const" type="Const">
			<output>
				<port id="1" precision="FP32">
					<dim>1</dim>
					<dim>1</dim>
					<dim>1</dim>
					<dim>1</dim>
				</port>
			</output>
			<blobs>
				<custom offset="3260640" precision="FP32" size="4"/>
			</blobs>
		</layer>
		<layer id="240" name="group1/block1/conv2/weights_quant/FakeQuantWithMinMaxVars" type="FakeQuantize">
			<data levels="255"/>
			<input>
				<port id="0">
					<dim>128</dim>
					<dim>128</dim>
					<dim>3</dim>
					<dim>3</dim>
				</port>
				<port id="1">
					<dim>1</dim>
					<dim>1</dim>
					<dim>1</dim>
					<dim>1</dim>
				</port>
				<port id="2">
					<dim>1</dim>
					<dim>1</dim>
					<dim>1</dim>
					<dim>1</dim>
				</port>
				<port id="3">
					<dim>1</dim>
					<dim>1</dim>
					<dim>1</dim>
					<dim>1</dim>
				</port>
				<port id="4">
					<dim>1</dim>
					<dim>1</dim>
					<dim>1</dim>
					<dim>1</dim>
				</port>
			</input>
			<output>
				<port id="5" precision="FP32">
					<dim>128</dim>
					<dim>128</dim>
					<dim>3</dim>
					<dim>3</dim>
				</port>
			</output>
		</layer>
		<layer id="241" name="bias_data2753827539_const" type="Const">
			<output>
				<port id="1" precision="FP32">
					<dim>128</dim>
				</port>
			</output>
			<blobs>
				<custom offset="3260644" precision="FP32" size="512"/>
			</blobs>
		</layer>
		<layer id="242" name="group1/block1/conv2/Conv2D_Fold" type="Convolution">
			<data auto_pad="same_upper" dilations="1,1" group="1" kernel="3,3" output="128" pads_begin="1,1" pads_end="1,1" strides="1,1"/>
			<input>
				<port id="0">
					<dim>1</dim>
					<dim>128</dim>
					<dim>28</dim>
					<dim>28</dim>
				</port>
				<port id="1">
					<dim>128</dim>
					<dim>128</dim>
					<dim>3</dim>
					<dim>3</dim>
				</port>
				<port id="2">
					<dim>128</dim>
				</port>
			</input>
			<output>
				<port id="3" precision="FP32">
					<dim>1</dim>
					<dim>128</dim>
					<dim>28</dim>
					<dim>28</dim>
				</port>
			</output>
		</layer>
		<layer id="243" name="Copy_group1/block1/conv2/act_quant/FakeQuantWithMinMaxVars/nudged_min/Output_0/Data_/copy_const" type="Const">
			<output>
				<port id="1" precision="FP32">
					<dim>1</dim>
					<dim>1</dim>
					<dim>1</dim>
					<dim>1</dim>
				</port>
			</output>
			<blobs>
				<custom offset="37920" precision="FP32" size="4"/>
			</blobs>
		</layer>
		<layer id="244" name="Copy_group1/block1/conv2/act_quant/FakeQuantWithMinMaxVars/nudged_max/Output_0/Data_/copy_const" type="Const">
			<output>
				<port id="1" precision="FP32">
					<dim>1</dim>
					<dim>1</dim>
					<dim>1</dim>
					<dim>1</dim>
				</port>
			</output>
			<blobs>
				<custom offset="3261156" precision="FP32" size="4"/>
			</blobs>
		</layer>
		<layer id="245" name="Copy_group1/block1/conv2/act_quant/FakeQuantWithMinMaxVars/nudged_min/Output_0/Data_11463/copy_const" type="Const">
			<output>
				<port id="1" precision="FP32">
					<dim>1</dim>
					<dim>1</dim>
					<dim>1</dim>
					<dim>1</dim>
				</port>
			</output>
			<blobs>
				<custom offset="37920" precision="FP32" size="4"/>
			</blobs>
		</layer>
		<layer id="246" name="Copy_group1/block1/conv2/act_quant/FakeQuantWithMinMaxVars/nudged_max/Output_0/Data_11587/copy_const" type="Const">
			<output>
				<port id="1" precision="FP32">
					<dim>1</dim>
					<dim>1</dim>
					<dim>1</dim>
					<dim>1</dim>
				</port>
			</output>
			<blobs>
				<custom offset="3261156" precision="FP32" size="4"/>
			</blobs>
		</layer>
		<layer id="247" name="group1/block1/conv2/act_quant/FakeQuantWithMinMaxVars" type="FakeQuantize">
			<data levels="256"/>
			<input>
				<port id="0">
					<dim>1</dim>
					<dim>128</dim>
					<dim>28</dim>
					<dim>28</dim>
				</port>
				<port id="1">
					<dim>1</dim>
					<dim>1</dim>
					<dim>1</dim>
					<dim>1</dim>
				</port>
				<port id="2">
					<dim>1</dim>
					<dim>1</dim>
					<dim>1</dim>
					<dim>1</dim>
				</port>
				<port id="3">
					<dim>1</dim>
					<dim>1</dim>
					<dim>1</dim>
					<dim>1</dim>
				</port>
				<port id="4">
					<dim>1</dim>
					<dim>1</dim>
					<dim>1</dim>
					<dim>1</dim>
				</port>
			</input>
			<output>
				<port id="5" precision="FP32">
					<dim>1</dim>
					<dim>128</dim>
					<dim>28</dim>
					<dim>28</dim>
				</port>
			</output>
		</layer>
		<layer id="248" name="group1/block1/conv3/mul_fold/Output_0/Data__const" type="Const">
			<output>
				<port id="1" precision="FP32">
					<dim>512</dim>
					<dim>128</dim>
					<dim>1</dim>
					<dim>1</dim>
				</port>
			</output>
			<blobs>
				<custom offset="3261160" precision="FP32" size="262144"/>
			</blobs>
		</layer>
		<layer id="249" name="Copy_group1/block1/conv3/weights_quant/FakeQuantWithMinMaxVars/nudged_min/Output_0/Data_/copy_const" type="Const">
			<output>
				<port id="1" precision="FP32">
					<dim>1</dim>
					<dim>1</dim>
					<dim>1</dim>
					<dim>1</dim>
				</port>
			</output>
			<blobs>
				<custom offset="3523304" precision="FP32" size="4"/>
			</blobs>
		</layer>
		<layer id="250" name="Copy_group1/block1/conv3/weights_quant/FakeQuantWithMinMaxVars/nudged_max/Output_0/Data_/copy_const" type="Const">
			<output>
				<port id="1" precision="FP32">
					<dim>1</dim>
					<dim>1</dim>
					<dim>1</dim>
					<dim>1</dim>
				</port>
			</output>
			<blobs>
				<custom offset="3523308" precision="FP32" size="4"/>
			</blobs>
		</layer>
		<layer id="251" name="Copy_group1/block1/conv3/weights_quant/FakeQuantWithMinMaxVars/nudged_min/Output_0/Data_11297/copy_const" type="Const">
			<output>
				<port id="1" precision="FP32">
					<dim>1</dim>
					<dim>1</dim>
					<dim>1</dim>
					<dim>1</dim>
				</port>
			</output>
			<blobs>
				<custom offset="3523304" precision="FP32" size="4"/>
			</blobs>
		</layer>
		<layer id="252" name="Copy_group1/block1/conv3/weights_quant/FakeQuantWithMinMaxVars/nudged_max/Output_0/Data_11315/copy_const" type="Const">
			<output>
				<port id="1" precision="FP32">
					<dim>1</dim>
					<dim>1</dim>
					<dim>1</dim>
					<dim>1</dim>
				</port>
			</output>
			<blobs>
				<custom offset="3523308" precision="FP32" size="4"/>
			</blobs>
		</layer>
		<layer id="253" name="group1/block1/conv3/weights_quant/FakeQuantWithMinMaxVars" type="FakeQuantize">
			<data levels="255"/>
			<input>
				<port id="0">
					<dim>512</dim>
					<dim>128</dim>
					<dim>1</dim>
					<dim>1</dim>
				</port>
				<port id="1">
					<dim>1</dim>
					<dim>1</dim>
					<dim>1</dim>
					<dim>1</dim>
				</port>
				<port id="2">
					<dim>1</dim>
					<dim>1</dim>
					<dim>1</dim>
					<dim>1</dim>
				</port>
				<port id="3">
					<dim>1</dim>
					<dim>1</dim>
					<dim>1</dim>
					<dim>1</dim>
				</port>
				<port id="4">
					<dim>1</dim>
					<dim>1</dim>
					<dim>1</dim>
					<dim>1</dim>
				</port>
			</input>
			<output>
				<port id="5" precision="FP32">
					<dim>512</dim>
					<dim>128</dim>
					<dim>1</dim>
					<dim>1</dim>
				</port>
			</output>
		</layer>
		<layer id="254" name="bias_data2754027541_const" type="Const">
			<output>
				<port id="1" precision="FP32">
					<dim>512</dim>
				</port>
			</output>
			<blobs>
				<custom offset="3523312" precision="FP32" size="2048"/>
			</blobs>
		</layer>
		<layer id="255" name="group1/block1/conv3/Conv2D_Fold" type="Convolution">
			<data auto_pad="same_upper" dilations="1,1" group="1" kernel="1,1" output="512" pads_begin="0,0" pads_end="0,0" strides="1,1"/>
			<input>
				<port id="0">
					<dim>1</dim>
					<dim>128</dim>
					<dim>28</dim>
					<dim>28</dim>
				</port>
				<port id="1">
					<dim>512</dim>
					<dim>128</dim>
					<dim>1</dim>
					<dim>1</dim>
				</port>
				<port id="2">
					<dim>512</dim>
				</port>
			</input>
			<output>
				<port id="3" precision="FP32">
					<dim>1</dim>
					<dim>512</dim>
					<dim>28</dim>
					<dim>28</dim>
				</port>
			</output>
		</layer>
		<layer id="256" name="Copy_group1/block1/conv3/act_quant/FakeQuantWithMinMaxVars/nudged_min/Output_0/Data_/copy_const" type="Const">
			<output>
				<port id="1" precision="FP32">
					<dim>1</dim>
					<dim>1</dim>
					<dim>1</dim>
					<dim>1</dim>
				</port>
			</output>
			<blobs>
				<custom offset="37920" precision="FP32" size="4"/>
			</blobs>
		</layer>
		<layer id="257" name="Copy_group1/block1/conv3/act_quant/FakeQuantWithMinMaxVars/nudged_max/Output_0/Data_/copy_const" type="Const">
			<output>
				<port id="1" precision="FP32">
					<dim>1</dim>
					<dim>1</dim>
					<dim>1</dim>
					<dim>1</dim>
				</port>
			</output>
			<blobs>
				<custom offset="2408140" precision="FP32" size="4"/>
			</blobs>
		</layer>
		<layer id="258" name="Copy_group1/block1/conv3/act_quant/FakeQuantWithMinMaxVars/nudged_min/Output_0/Data_11257/copy_const" type="Const">
			<output>
				<port id="1" precision="FP32">
					<dim>1</dim>
					<dim>1</dim>
					<dim>1</dim>
					<dim>1</dim>
				</port>
			</output>
			<blobs>
				<custom offset="37920" precision="FP32" size="4"/>
			</blobs>
		</layer>
		<layer id="259" name="Copy_group1/block1/conv3/act_quant/FakeQuantWithMinMaxVars/nudged_max/Output_0/Data_11685/copy_const" type="Const">
			<output>
				<port id="1" precision="FP32">
					<dim>1</dim>
					<dim>1</dim>
					<dim>1</dim>
					<dim>1</dim>
				</port>
			</output>
			<blobs>
				<custom offset="2408140" precision="FP32" size="4"/>
			</blobs>
		</layer>
		<layer id="260" name="group1/block1/conv3/act_quant/FakeQuantWithMinMaxVars" type="FakeQuantize">
			<data levels="256"/>
			<input>
				<port id="0">
					<dim>1</dim>
					<dim>512</dim>
					<dim>28</dim>
					<dim>28</dim>
				</port>
				<port id="1">
					<dim>1</dim>
					<dim>1</dim>
					<dim>1</dim>
					<dim>1</dim>
				</port>
				<port id="2">
					<dim>1</dim>
					<dim>1</dim>
					<dim>1</dim>
					<dim>1</dim>
				</port>
				<port id="3">
					<dim>1</dim>
					<dim>1</dim>
					<dim>1</dim>
					<dim>1</dim>
				</port>
				<port id="4">
					<dim>1</dim>
					<dim>1</dim>
					<dim>1</dim>
					<dim>1</dim>
				</port>
			</input>
			<output>
				<port id="5" precision="FP32">
					<dim>1</dim>
					<dim>512</dim>
					<dim>28</dim>
					<dim>28</dim>
				</port>
			</output>
		</layer>
		<layer id="261" name="group1/block1/add" type="Eltwise">
			<data operation="sum"/>
			<input>
				<port id="0">
					<dim>1</dim>
					<dim>512</dim>
					<dim>28</dim>
					<dim>28</dim>
				</port>
				<port id="1">
					<dim>1</dim>
					<dim>512</dim>
					<dim>28</dim>
					<dim>28</dim>
				</port>
			</input>
			<output>
				<port id="2" precision="FP32">
					<dim>1</dim>
					<dim>512</dim>
					<dim>28</dim>
					<dim>28</dim>
				</port>
			</output>
		</layer>
		<layer id="262" name="Copy_group1/block1/post_activation_bypass_quant/FakeQuantWithMinMaxVars/nudged_min/Output_0/Data_/copy_const" type="Const">
			<output>
				<port id="1" precision="FP32">
					<dim>1</dim>
					<dim>1</dim>
					<dim>1</dim>
					<dim>1</dim>
				</port>
			</output>
			<blobs>
				<custom offset="37920" precision="FP32" size="4"/>
			</blobs>
		</layer>
		<layer id="263" name="Copy_group1/block1/post_activation_bypass_quant/FakeQuantWithMinMaxVars/nudged_max/Output_0/Data_/copy_const" type="Const">
			<output>
				<port id="1" precision="FP32">
					<dim>1</dim>
					<dim>1</dim>
					<dim>1</dim>
					<dim>1</dim>
				</port>
			</output>
			<blobs>
				<custom offset="3525360" precision="FP32" size="4"/>
			</blobs>
		</layer>
		<layer id="264" name="Copy_group1/block1/post_activation_bypass_quant/FakeQuantWithMinMaxVars/nudged_min/Output_0/Data_11715/copy_const" type="Const">
			<output>
				<port id="1" precision="FP32">
					<dim>1</dim>
					<dim>1</dim>
					<dim>1</dim>
					<dim>1</dim>
				</port>
			</output>
			<blobs>
				<custom offset="37920" precision="FP32" size="4"/>
			</blobs>
		</layer>
		<layer id="265" name="Copy_group1/block1/post_activation_bypass_quant/FakeQuantWithMinMaxVars/nudged_max/Output_0/Data_11603/copy_const" type="Const">
			<output>
				<port id="1" precision="FP32">
					<dim>1</dim>
					<dim>1</dim>
					<dim>1</dim>
					<dim>1</dim>
				</port>
			</output>
			<blobs>
				<custom offset="3525360" precision="FP32" size="4"/>
			</blobs>
		</layer>
		<layer id="266" name="group1/block1/post_activation_bypass_quant/FakeQuantWithMinMaxVars" type="FakeQuantize">
			<data levels="256"/>
			<input>
				<port id="0">
					<dim>1</dim>
					<dim>512</dim>
					<dim>28</dim>
					<dim>28</dim>
				</port>
				<port id="1">
					<dim>1</dim>
					<dim>1</dim>
					<dim>1</dim>
					<dim>1</dim>
				</port>
				<port id="2">
					<dim>1</dim>
					<dim>1</dim>
					<dim>1</dim>
					<dim>1</dim>
				</port>
				<port id="3">
					<dim>1</dim>
					<dim>1</dim>
					<dim>1</dim>
					<dim>1</dim>
				</port>
				<port id="4">
					<dim>1</dim>
					<dim>1</dim>
					<dim>1</dim>
					<dim>1</dim>
				</port>
			</input>
			<output>
				<port id="5" precision="FP32">
					<dim>1</dim>
					<dim>512</dim>
					<dim>28</dim>
					<dim>28</dim>
				</port>
			</output>
		</layer>
		<layer id="267" name="group1/block2/conv1/mul_fold/Output_0/Data__const" type="Const">
			<output>
				<port id="1" precision="FP32">
					<dim>128</dim>
					<dim>512</dim>
					<dim>1</dim>
					<dim>1</dim>
				</port>
			</output>
			<blobs>
				<custom offset="3525364" precision="FP32" size="262144"/>
			</blobs>
		</layer>
		<layer id="268" name="Copy_group1/block2/conv1/weights_quant/FakeQuantWithMinMaxVars/nudged_min/Output_0/Data_/copy_const" type="Const">
			<output>
				<port id="1" precision="FP32">
					<dim>1</dim>
					<dim>1</dim>
					<dim>1</dim>
					<dim>1</dim>
				</port>
			</output>
			<blobs>
				<custom offset="3787508" precision="FP32" size="4"/>
			</blobs>
		</layer>
		<layer id="269" name="Copy_group1/block2/conv1/weights_quant/FakeQuantWithMinMaxVars/nudged_max/Output_0/Data_/copy_const" type="Const">
			<output>
				<port id="1" precision="FP32">
					<dim>1</dim>
					<dim>1</dim>
					<dim>1</dim>
					<dim>1</dim>
				</port>
			</output>
			<blobs>
				<custom offset="3787512" precision="FP32" size="4"/>
			</blobs>
		</layer>
		<layer id="270" name="Copy_group1/block2/conv1/weights_quant/FakeQuantWithMinMaxVars/nudged_min/Output_0/Data_11639/copy_const" type="Const">
			<output>
				<port id="1" precision="FP32">
					<dim>1</dim>
					<dim>1</dim>
					<dim>1</dim>
					<dim>1</dim>
				</port>
			</output>
			<blobs>
				<custom offset="3787508" precision="FP32" size="4"/>
			</blobs>
		</layer>
		<layer id="271" name="Copy_group1/block2/conv1/weights_quant/FakeQuantWithMinMaxVars/nudged_max/Output_0/Data_11651/copy_const" type="Const">
			<output>
				<port id="1" precision="FP32">
					<dim>1</dim>
					<dim>1</dim>
					<dim>1</dim>
					<dim>1</dim>
				</port>
			</output>
			<blobs>
				<custom offset="3787512" precision="FP32" size="4"/>
			</blobs>
		</layer>
		<layer id="272" name="group1/block2/conv1/weights_quant/FakeQuantWithMinMaxVars" type="FakeQuantize">
			<data levels="255"/>
			<input>
				<port id="0">
					<dim>128</dim>
					<dim>512</dim>
					<dim>1</dim>
					<dim>1</dim>
				</port>
				<port id="1">
					<dim>1</dim>
					<dim>1</dim>
					<dim>1</dim>
					<dim>1</dim>
				</port>
				<port id="2">
					<dim>1</dim>
					<dim>1</dim>
					<dim>1</dim>
					<dim>1</dim>
				</port>
				<port id="3">
					<dim>1</dim>
					<dim>1</dim>
					<dim>1</dim>
					<dim>1</dim>
				</port>
				<port id="4">
					<dim>1</dim>
					<dim>1</dim>
					<dim>1</dim>
					<dim>1</dim>
				</port>
			</input>
			<output>
				<port id="5" precision="FP32">
					<dim>128</dim>
					<dim>512</dim>
					<dim>1</dim>
					<dim>1</dim>
				</port>
			</output>
		</layer>
		<layer id="273" name="bias_data2754227543_const" type="Const">
			<output>
				<port id="1" precision="FP32">
					<dim>128</dim>
				</port>
			</output>
			<blobs>
				<custom offset="3787516" precision="FP32" size="512"/>
			</blobs>
		</layer>
		<layer id="274" name="group1/block2/conv1/Conv2D_Fold" type="Convolution">
			<data auto_pad="same_upper" dilations="1,1" group="1" kernel="1,1" output="128" pads_begin="0,0" pads_end="0,0" strides="1,1"/>
			<input>
				<port id="0">
					<dim>1</dim>
					<dim>512</dim>
					<dim>28</dim>
					<dim>28</dim>
				</port>
				<port id="1">
					<dim>128</dim>
					<dim>512</dim>
					<dim>1</dim>
					<dim>1</dim>
				</port>
				<port id="2">
					<dim>128</dim>
				</port>
			</input>
			<output>
				<port id="3" precision="FP32">
					<dim>1</dim>
					<dim>128</dim>
					<dim>28</dim>
					<dim>28</dim>
				</port>
			</output>
		</layer>
		<layer id="275" name="Copy_group1/block2/conv1/act_quant/FakeQuantWithMinMaxVars/nudged_min/Output_0/Data_/copy_const" type="Const">
			<output>
				<port id="1" precision="FP32">
					<dim>1</dim>
					<dim>1</dim>
					<dim>1</dim>
					<dim>1</dim>
				</port>
			</output>
			<blobs>
				<custom offset="37920" precision="FP32" size="4"/>
			</blobs>
		</layer>
		<layer id="276" name="Copy_group1/block2/conv1/act_quant/FakeQuantWithMinMaxVars/nudged_max/Output_0/Data_/copy_const" type="Const">
			<output>
				<port id="1" precision="FP32">
					<dim>1</dim>
					<dim>1</dim>
					<dim>1</dim>
					<dim>1</dim>
				</port>
			</output>
			<blobs>
				<custom offset="3788028" precision="FP32" size="4"/>
			</blobs>
		</layer>
		<layer id="277" name="Copy_group1/block2/conv1/act_quant/FakeQuantWithMinMaxVars/nudged_min/Output_0/Data_11525/copy_const" type="Const">
			<output>
				<port id="1" precision="FP32">
					<dim>1</dim>
					<dim>1</dim>
					<dim>1</dim>
					<dim>1</dim>
				</port>
			</output>
			<blobs>
				<custom offset="37920" precision="FP32" size="4"/>
			</blobs>
		</layer>
		<layer id="278" name="Copy_group1/block2/conv1/act_quant/FakeQuantWithMinMaxVars/nudged_max/Output_0/Data_11551/copy_const" type="Const">
			<output>
				<port id="1" precision="FP32">
					<dim>1</dim>
					<dim>1</dim>
					<dim>1</dim>
					<dim>1</dim>
				</port>
			</output>
			<blobs>
				<custom offset="3788028" precision="FP32" size="4"/>
			</blobs>
		</layer>
		<layer id="279" name="group1/block2/conv1/act_quant/FakeQuantWithMinMaxVars" type="FakeQuantize">
			<data levels="256"/>
			<input>
				<port id="0">
					<dim>1</dim>
					<dim>128</dim>
					<dim>28</dim>
					<dim>28</dim>
				</port>
				<port id="1">
					<dim>1</dim>
					<dim>1</dim>
					<dim>1</dim>
					<dim>1</dim>
				</port>
				<port id="2">
					<dim>1</dim>
					<dim>1</dim>
					<dim>1</dim>
					<dim>1</dim>
				</port>
				<port id="3">
					<dim>1</dim>
					<dim>1</dim>
					<dim>1</dim>
					<dim>1</dim>
				</port>
				<port id="4">
					<dim>1</dim>
					<dim>1</dim>
					<dim>1</dim>
					<dim>1</dim>
				</port>
			</input>
			<output>
				<port id="5" precision="FP32">
					<dim>1</dim>
					<dim>128</dim>
					<dim>28</dim>
					<dim>28</dim>
				</port>
			</output>
		</layer>
		<layer id="280" name="group1/block2/conv2/mul_fold/Output_0/Data__const" type="Const">
			<output>
				<port id="1" precision="FP32">
					<dim>128</dim>
					<dim>128</dim>
					<dim>3</dim>
					<dim>3</dim>
				</port>
			</output>
			<blobs>
				<custom offset="3788032" precision="FP32" size="589824"/>
			</blobs>
		</layer>
		<layer id="281" name="Copy_group1/block2/conv2/weights_quant/FakeQuantWithMinMaxVars/nudged_min/Output_0/Data_/copy_const" type="Const">
			<output>
				<port id="1" precision="FP32">
					<dim>1</dim>
					<dim>1</dim>
					<dim>1</dim>
					<dim>1</dim>
				</port>
			</output>
			<blobs>
				<custom offset="4377856" precision="FP32" size="4"/>
			</blobs>
		</layer>
		<layer id="282" name="Copy_group1/block2/conv2/weights_quant/FakeQuantWithMinMaxVars/nudged_max/Output_0/Data_/copy_const" type="Const">
			<output>
				<port id="1" precision="FP32">
					<dim>1</dim>
					<dim>1</dim>
					<dim>1</dim>
					<dim>1</dim>
				</port>
			</output>
			<blobs>
				<custom offset="4377860" precision="FP32" size="4"/>
			</blobs>
		</layer>
		<layer id="283" name="Copy_group1/block2/conv2/weights_quant/FakeQuantWithMinMaxVars/nudged_min/Output_0/Data_11493/copy_const" type="Const">
			<output>
				<port id="1" precision="FP32">
					<dim>1</dim>
					<dim>1</dim>
					<dim>1</dim>
					<dim>1</dim>
				</port>
			</output>
			<blobs>
				<custom offset="4377856" precision="FP32" size="4"/>
			</blobs>
		</layer>
		<layer id="284" name="Copy_group1/block2/conv2/weights_quant/FakeQuantWithMinMaxVars/nudged_max/Output_0/Data_11457/copy_const" type="Const">
			<output>
				<port id="1" precision="FP32">
					<dim>1</dim>
					<dim>1</dim>
					<dim>1</dim>
					<dim>1</dim>
				</port>
			</output>
			<blobs>
				<custom offset="4377860" precision="FP32" size="4"/>
			</blobs>
		</layer>
		<layer id="285" name="group1/block2/conv2/weights_quant/FakeQuantWithMinMaxVars" type="FakeQuantize">
			<data levels="255"/>
			<input>
				<port id="0">
					<dim>128</dim>
					<dim>128</dim>
					<dim>3</dim>
					<dim>3</dim>
				</port>
				<port id="1">
					<dim>1</dim>
					<dim>1</dim>
					<dim>1</dim>
					<dim>1</dim>
				</port>
				<port id="2">
					<dim>1</dim>
					<dim>1</dim>
					<dim>1</dim>
					<dim>1</dim>
				</port>
				<port id="3">
					<dim>1</dim>
					<dim>1</dim>
					<dim>1</dim>
					<dim>1</dim>
				</port>
				<port id="4">
					<dim>1</dim>
					<dim>1</dim>
					<dim>1</dim>
					<dim>1</dim>
				</port>
			</input>
			<output>
				<port id="5" precision="FP32">
					<dim>128</dim>
					<dim>128</dim>
					<dim>3</dim>
					<dim>3</dim>
				</port>
			</output>
		</layer>
		<layer id="286" name="bias_data2754427545_const" type="Const">
			<output>
				<port id="1" precision="FP32">
					<dim>128</dim>
				</port>
			</output>
			<blobs>
				<custom offset="4377864" precision="FP32" size="512"/>
			</blobs>
		</layer>
		<layer id="287" name="group1/block2/conv2/Conv2D_Fold" type="Convolution">
			<data auto_pad="same_upper" dilations="1,1" group="1" kernel="3,3" output="128" pads_begin="1,1" pads_end="1,1" strides="1,1"/>
			<input>
				<port id="0">
					<dim>1</dim>
					<dim>128</dim>
					<dim>28</dim>
					<dim>28</dim>
				</port>
				<port id="1">
					<dim>128</dim>
					<dim>128</dim>
					<dim>3</dim>
					<dim>3</dim>
				</port>
				<port id="2">
					<dim>128</dim>
				</port>
			</input>
			<output>
				<port id="3" precision="FP32">
					<dim>1</dim>
					<dim>128</dim>
					<dim>28</dim>
					<dim>28</dim>
				</port>
			</output>
		</layer>
		<layer id="288" name="Copy_group1/block2/conv2/act_quant/FakeQuantWithMinMaxVars/nudged_min/Output_0/Data_/copy_const" type="Const">
			<output>
				<port id="1" precision="FP32">
					<dim>1</dim>
					<dim>1</dim>
					<dim>1</dim>
					<dim>1</dim>
				</port>
			</output>
			<blobs>
				<custom offset="37920" precision="FP32" size="4"/>
			</blobs>
		</layer>
		<layer id="289" name="Copy_group1/block2/conv2/act_quant/FakeQuantWithMinMaxVars/nudged_max/Output_0/Data_/copy_const" type="Const">
			<output>
				<port id="1" precision="FP32">
					<dim>1</dim>
					<dim>1</dim>
					<dim>1</dim>
					<dim>1</dim>
				</port>
			</output>
			<blobs>
				<custom offset="4378376" precision="FP32" size="4"/>
			</blobs>
		</layer>
		<layer id="290" name="Copy_group1/block2/conv2/act_quant/FakeQuantWithMinMaxVars/nudged_min/Output_0/Data_11519/copy_const" type="Const">
			<output>
				<port id="1" precision="FP32">
					<dim>1</dim>
					<dim>1</dim>
					<dim>1</dim>
					<dim>1</dim>
				</port>
			</output>
			<blobs>
				<custom offset="37920" precision="FP32" size="4"/>
			</blobs>
		</layer>
		<layer id="291" name="Copy_group1/block2/conv2/act_quant/FakeQuantWithMinMaxVars/nudged_max/Output_0/Data_11595/copy_const" type="Const">
			<output>
				<port id="1" precision="FP32">
					<dim>1</dim>
					<dim>1</dim>
					<dim>1</dim>
					<dim>1</dim>
				</port>
			</output>
			<blobs>
				<custom offset="4378376" precision="FP32" size="4"/>
			</blobs>
		</layer>
		<layer id="292" name="group1/block2/conv2/act_quant/FakeQuantWithMinMaxVars" type="FakeQuantize">
			<data levels="256"/>
			<input>
				<port id="0">
					<dim>1</dim>
					<dim>128</dim>
					<dim>28</dim>
					<dim>28</dim>
				</port>
				<port id="1">
					<dim>1</dim>
					<dim>1</dim>
					<dim>1</dim>
					<dim>1</dim>
				</port>
				<port id="2">
					<dim>1</dim>
					<dim>1</dim>
					<dim>1</dim>
					<dim>1</dim>
				</port>
				<port id="3">
					<dim>1</dim>
					<dim>1</dim>
					<dim>1</dim>
					<dim>1</dim>
				</port>
				<port id="4">
					<dim>1</dim>
					<dim>1</dim>
					<dim>1</dim>
					<dim>1</dim>
				</port>
			</input>
			<output>
				<port id="5" precision="FP32">
					<dim>1</dim>
					<dim>128</dim>
					<dim>28</dim>
					<dim>28</dim>
				</port>
			</output>
		</layer>
		<layer id="293" name="group1/block2/conv3/mul_fold/Output_0/Data__const" type="Const">
			<output>
				<port id="1" precision="FP32">
					<dim>512</dim>
					<dim>128</dim>
					<dim>1</dim>
					<dim>1</dim>
				</port>
			</output>
			<blobs>
				<custom offset="4378380" precision="FP32" size="262144"/>
			</blobs>
		</layer>
		<layer id="294" name="Copy_group1/block2/conv3/weights_quant/FakeQuantWithMinMaxVars/nudged_min/Output_0/Data_/copy_const" type="Const">
			<output>
				<port id="1" precision="FP32">
					<dim>1</dim>
					<dim>1</dim>
					<dim>1</dim>
					<dim>1</dim>
				</port>
			</output>
			<blobs>
				<custom offset="4640524" precision="FP32" size="4"/>
			</blobs>
		</layer>
		<layer id="295" name="Copy_group1/block2/conv3/weights_quant/FakeQuantWithMinMaxVars/nudged_max/Output_0/Data_/copy_const" type="Const">
			<output>
				<port id="1" precision="FP32">
					<dim>1</dim>
					<dim>1</dim>
					<dim>1</dim>
					<dim>1</dim>
				</port>
			</output>
			<blobs>
				<custom offset="4640528" precision="FP32" size="4"/>
			</blobs>
		</layer>
		<layer id="296" name="Copy_group1/block2/conv3/weights_quant/FakeQuantWithMinMaxVars/nudged_min/Output_0/Data_11285/copy_const" type="Const">
			<output>
				<port id="1" precision="FP32">
					<dim>1</dim>
					<dim>1</dim>
					<dim>1</dim>
					<dim>1</dim>
				</port>
			</output>
			<blobs>
				<custom offset="4640524" precision="FP32" size="4"/>
			</blobs>
		</layer>
		<layer id="297" name="Copy_group1/block2/conv3/weights_quant/FakeQuantWithMinMaxVars/nudged_max/Output_0/Data_11325/copy_const" type="Const">
			<output>
				<port id="1" precision="FP32">
					<dim>1</dim>
					<dim>1</dim>
					<dim>1</dim>
					<dim>1</dim>
				</port>
			</output>
			<blobs>
				<custom offset="4640528" precision="FP32" size="4"/>
			</blobs>
		</layer>
		<layer id="298" name="group1/block2/conv3/weights_quant/FakeQuantWithMinMaxVars" type="FakeQuantize">
			<data levels="255"/>
			<input>
				<port id="0">
					<dim>512</dim>
					<dim>128</dim>
					<dim>1</dim>
					<dim>1</dim>
				</port>
				<port id="1">
					<dim>1</dim>
					<dim>1</dim>
					<dim>1</dim>
					<dim>1</dim>
				</port>
				<port id="2">
					<dim>1</dim>
					<dim>1</dim>
					<dim>1</dim>
					<dim>1</dim>
				</port>
				<port id="3">
					<dim>1</dim>
					<dim>1</dim>
					<dim>1</dim>
					<dim>1</dim>
				</port>
				<port id="4">
					<dim>1</dim>
					<dim>1</dim>
					<dim>1</dim>
					<dim>1</dim>
				</port>
			</input>
			<output>
				<port id="5" precision="FP32">
					<dim>512</dim>
					<dim>128</dim>
					<dim>1</dim>
					<dim>1</dim>
				</port>
			</output>
		</layer>
		<layer id="299" name="bias_data2754627547_const" type="Const">
			<output>
				<port id="1" precision="FP32">
					<dim>512</dim>
				</port>
			</output>
			<blobs>
				<custom offset="4640532" precision="FP32" size="2048"/>
			</blobs>
		</layer>
		<layer id="300" name="group1/block2/conv3/Conv2D_Fold" type="Convolution">
			<data auto_pad="same_upper" dilations="1,1" group="1" kernel="1,1" output="512" pads_begin="0,0" pads_end="0,0" strides="1,1"/>
			<input>
				<port id="0">
					<dim>1</dim>
					<dim>128</dim>
					<dim>28</dim>
					<dim>28</dim>
				</port>
				<port id="1">
					<dim>512</dim>
					<dim>128</dim>
					<dim>1</dim>
					<dim>1</dim>
				</port>
				<port id="2">
					<dim>512</dim>
				</port>
			</input>
			<output>
				<port id="3" precision="FP32">
					<dim>1</dim>
					<dim>512</dim>
					<dim>28</dim>
					<dim>28</dim>
				</port>
			</output>
		</layer>
		<layer id="301" name="Copy_group1/block2/conv3/act_quant/FakeQuantWithMinMaxVars/nudged_min/Output_0/Data_/copy_const" type="Const">
			<output>
				<port id="1" precision="FP32">
					<dim>1</dim>
					<dim>1</dim>
					<dim>1</dim>
					<dim>1</dim>
				</port>
			</output>
			<blobs>
				<custom offset="37920" precision="FP32" size="4"/>
			</blobs>
		</layer>
		<layer id="302" name="Copy_group1/block2/conv3/act_quant/FakeQuantWithMinMaxVars/nudged_max/Output_0/Data_/copy_const" type="Const">
			<output>
				<port id="1" precision="FP32">
					<dim>1</dim>
					<dim>1</dim>
					<dim>1</dim>
					<dim>1</dim>
				</port>
			</output>
			<blobs>
				<custom offset="3525360" precision="FP32" size="4"/>
			</blobs>
		</layer>
		<layer id="303" name="Copy_group1/block2/conv3/act_quant/FakeQuantWithMinMaxVars/nudged_min/Output_0/Data_11455/copy_const" type="Const">
			<output>
				<port id="1" precision="FP32">
					<dim>1</dim>
					<dim>1</dim>
					<dim>1</dim>
					<dim>1</dim>
				</port>
			</output>
			<blobs>
				<custom offset="37920" precision="FP32" size="4"/>
			</blobs>
		</layer>
		<layer id="304" name="Copy_group1/block2/conv3/act_quant/FakeQuantWithMinMaxVars/nudged_max/Output_0/Data_11501/copy_const" type="Const">
			<output>
				<port id="1" precision="FP32">
					<dim>1</dim>
					<dim>1</dim>
					<dim>1</dim>
					<dim>1</dim>
				</port>
			</output>
			<blobs>
				<custom offset="3525360" precision="FP32" size="4"/>
			</blobs>
		</layer>
		<layer id="305" name="group1/block2/conv3/act_quant/FakeQuantWithMinMaxVars" type="FakeQuantize">
			<data levels="256"/>
			<input>
				<port id="0">
					<dim>1</dim>
					<dim>512</dim>
					<dim>28</dim>
					<dim>28</dim>
				</port>
				<port id="1">
					<dim>1</dim>
					<dim>1</dim>
					<dim>1</dim>
					<dim>1</dim>
				</port>
				<port id="2">
					<dim>1</dim>
					<dim>1</dim>
					<dim>1</dim>
					<dim>1</dim>
				</port>
				<port id="3">
					<dim>1</dim>
					<dim>1</dim>
					<dim>1</dim>
					<dim>1</dim>
				</port>
				<port id="4">
					<dim>1</dim>
					<dim>1</dim>
					<dim>1</dim>
					<dim>1</dim>
				</port>
			</input>
			<output>
				<port id="5" precision="FP32">
					<dim>1</dim>
					<dim>512</dim>
					<dim>28</dim>
					<dim>28</dim>
				</port>
			</output>
		</layer>
		<layer id="306" name="group1/block2/add" type="Eltwise">
			<data operation="sum"/>
			<input>
				<port id="0">
					<dim>1</dim>
					<dim>512</dim>
					<dim>28</dim>
					<dim>28</dim>
				</port>
				<port id="1">
					<dim>1</dim>
					<dim>512</dim>
					<dim>28</dim>
					<dim>28</dim>
				</port>
			</input>
			<output>
				<port id="2" precision="FP32">
					<dim>1</dim>
					<dim>512</dim>
					<dim>28</dim>
					<dim>28</dim>
				</port>
			</output>
		</layer>
		<layer id="307" name="Copy_group1/block2/post_activation_bypass_quant/FakeQuantWithMinMaxVars/nudged_min/Output_0/Data_/copy_const" type="Const">
			<output>
				<port id="1" precision="FP32">
					<dim>1</dim>
					<dim>1</dim>
					<dim>1</dim>
					<dim>1</dim>
				</port>
			</output>
			<blobs>
				<custom offset="37920" precision="FP32" size="4"/>
			</blobs>
		</layer>
		<layer id="308" name="Copy_group1/block2/post_activation_bypass_quant/FakeQuantWithMinMaxVars/nudged_max/Output_0/Data_/copy_const" type="Const">
			<output>
				<port id="1" precision="FP32">
					<dim>1</dim>
					<dim>1</dim>
					<dim>1</dim>
					<dim>1</dim>
				</port>
			</output>
			<blobs>
				<custom offset="4642580" precision="FP32" size="4"/>
			</blobs>
		</layer>
		<layer id="309" name="Copy_group1/block2/post_activation_bypass_quant/FakeQuantWithMinMaxVars/nudged_min/Output_0/Data_11357/copy_const" type="Const">
			<output>
				<port id="1" precision="FP32">
					<dim>1</dim>
					<dim>1</dim>
					<dim>1</dim>
					<dim>1</dim>
				</port>
			</output>
			<blobs>
				<custom offset="37920" precision="FP32" size="4"/>
			</blobs>
		</layer>
		<layer id="310" name="Copy_group1/block2/post_activation_bypass_quant/FakeQuantWithMinMaxVars/nudged_max/Output_0/Data_11333/copy_const" type="Const">
			<output>
				<port id="1" precision="FP32">
					<dim>1</dim>
					<dim>1</dim>
					<dim>1</dim>
					<dim>1</dim>
				</port>
			</output>
			<blobs>
				<custom offset="4642580" precision="FP32" size="4"/>
			</blobs>
		</layer>
		<layer id="311" name="group1/block2/post_activation_bypass_quant/FakeQuantWithMinMaxVars" type="FakeQuantize">
			<data levels="256"/>
			<input>
				<port id="0">
					<dim>1</dim>
					<dim>512</dim>
					<dim>28</dim>
					<dim>28</dim>
				</port>
				<port id="1">
					<dim>1</dim>
					<dim>1</dim>
					<dim>1</dim>
					<dim>1</dim>
				</port>
				<port id="2">
					<dim>1</dim>
					<dim>1</dim>
					<dim>1</dim>
					<dim>1</dim>
				</port>
				<port id="3">
					<dim>1</dim>
					<dim>1</dim>
					<dim>1</dim>
					<dim>1</dim>
				</port>
				<port id="4">
					<dim>1</dim>
					<dim>1</dim>
					<dim>1</dim>
					<dim>1</dim>
				</port>
			</input>
			<output>
				<port id="5" precision="FP32">
					<dim>1</dim>
					<dim>512</dim>
					<dim>28</dim>
					<dim>28</dim>
				</port>
			</output>
		</layer>
		<layer id="312" name="group1/block3/conv1/mul_fold/Output_0/Data__const" type="Const">
			<output>
				<port id="1" precision="FP32">
					<dim>128</dim>
					<dim>512</dim>
					<dim>1</dim>
					<dim>1</dim>
				</port>
			</output>
			<blobs>
				<custom offset="4642584" precision="FP32" size="262144"/>
			</blobs>
		</layer>
		<layer id="313" name="Copy_group1/block3/conv1/weights_quant/FakeQuantWithMinMaxVars/nudged_min/Output_0/Data_/copy_const" type="Const">
			<output>
				<port id="1" precision="FP32">
					<dim>1</dim>
					<dim>1</dim>
					<dim>1</dim>
					<dim>1</dim>
				</port>
			</output>
			<blobs>
				<custom offset="4904728" precision="FP32" size="4"/>
			</blobs>
		</layer>
		<layer id="314" name="Copy_group1/block3/conv1/weights_quant/FakeQuantWithMinMaxVars/nudged_max/Output_0/Data_/copy_const" type="Const">
			<output>
				<port id="1" precision="FP32">
					<dim>1</dim>
					<dim>1</dim>
					<dim>1</dim>
					<dim>1</dim>
				</port>
			</output>
			<blobs>
				<custom offset="4904732" precision="FP32" size="4"/>
			</blobs>
		</layer>
		<layer id="315" name="Copy_group1/block3/conv1/weights_quant/FakeQuantWithMinMaxVars/nudged_min/Output_0/Data_11689/copy_const" type="Const">
			<output>
				<port id="1" precision="FP32">
					<dim>1</dim>
					<dim>1</dim>
					<dim>1</dim>
					<dim>1</dim>
				</port>
			</output>
			<blobs>
				<custom offset="4904728" precision="FP32" size="4"/>
			</blobs>
		</layer>
		<layer id="316" name="Copy_group1/block3/conv1/weights_quant/FakeQuantWithMinMaxVars/nudged_max/Output_0/Data_11669/copy_const" type="Const">
			<output>
				<port id="1" precision="FP32">
					<dim>1</dim>
					<dim>1</dim>
					<dim>1</dim>
					<dim>1</dim>
				</port>
			</output>
			<blobs>
				<custom offset="4904732" precision="FP32" size="4"/>
			</blobs>
		</layer>
		<layer id="317" name="group1/block3/conv1/weights_quant/FakeQuantWithMinMaxVars" type="FakeQuantize">
			<data levels="255"/>
			<input>
				<port id="0">
					<dim>128</dim>
					<dim>512</dim>
					<dim>1</dim>
					<dim>1</dim>
				</port>
				<port id="1">
					<dim>1</dim>
					<dim>1</dim>
					<dim>1</dim>
					<dim>1</dim>
				</port>
				<port id="2">
					<dim>1</dim>
					<dim>1</dim>
					<dim>1</dim>
					<dim>1</dim>
				</port>
				<port id="3">
					<dim>1</dim>
					<dim>1</dim>
					<dim>1</dim>
					<dim>1</dim>
				</port>
				<port id="4">
					<dim>1</dim>
					<dim>1</dim>
					<dim>1</dim>
					<dim>1</dim>
				</port>
			</input>
			<output>
				<port id="5" precision="FP32">
					<dim>128</dim>
					<dim>512</dim>
					<dim>1</dim>
					<dim>1</dim>
				</port>
			</output>
		</layer>
		<layer id="318" name="bias_data2754827549_const" type="Const">
			<output>
				<port id="1" precision="FP32">
					<dim>128</dim>
				</port>
			</output>
			<blobs>
				<custom offset="4904736" precision="FP32" size="512"/>
			</blobs>
		</layer>
		<layer id="319" name="group1/block3/conv1/Conv2D_Fold" type="Convolution">
			<data auto_pad="same_upper" dilations="1,1" group="1" kernel="1,1" output="128" pads_begin="0,0" pads_end="0,0" strides="1,1"/>
			<input>
				<port id="0">
					<dim>1</dim>
					<dim>512</dim>
					<dim>28</dim>
					<dim>28</dim>
				</port>
				<port id="1">
					<dim>128</dim>
					<dim>512</dim>
					<dim>1</dim>
					<dim>1</dim>
				</port>
				<port id="2">
					<dim>128</dim>
				</port>
			</input>
			<output>
				<port id="3" precision="FP32">
					<dim>1</dim>
					<dim>128</dim>
					<dim>28</dim>
					<dim>28</dim>
				</port>
			</output>
		</layer>
		<layer id="320" name="Copy_group1/block3/conv1/act_quant/FakeQuantWithMinMaxVars/nudged_min/Output_0/Data_/copy_const" type="Const">
			<output>
				<port id="1" precision="FP32">
					<dim>1</dim>
					<dim>1</dim>
					<dim>1</dim>
					<dim>1</dim>
				</port>
			</output>
			<blobs>
				<custom offset="37920" precision="FP32" size="4"/>
			</blobs>
		</layer>
		<layer id="321" name="Copy_group1/block3/conv1/act_quant/FakeQuantWithMinMaxVars/nudged_max/Output_0/Data_/copy_const" type="Const">
			<output>
				<port id="1" precision="FP32">
					<dim>1</dim>
					<dim>1</dim>
					<dim>1</dim>
					<dim>1</dim>
				</port>
			</output>
			<blobs>
				<custom offset="4905248" precision="FP32" size="4"/>
			</blobs>
		</layer>
		<layer id="322" name="Copy_group1/block3/conv1/act_quant/FakeQuantWithMinMaxVars/nudged_min/Output_0/Data_11355/copy_const" type="Const">
			<output>
				<port id="1" precision="FP32">
					<dim>1</dim>
					<dim>1</dim>
					<dim>1</dim>
					<dim>1</dim>
				</port>
			</output>
			<blobs>
				<custom offset="37920" precision="FP32" size="4"/>
			</blobs>
		</layer>
		<layer id="323" name="Copy_group1/block3/conv1/act_quant/FakeQuantWithMinMaxVars/nudged_max/Output_0/Data_11681/copy_const" type="Const">
			<output>
				<port id="1" precision="FP32">
					<dim>1</dim>
					<dim>1</dim>
					<dim>1</dim>
					<dim>1</dim>
				</port>
			</output>
			<blobs>
				<custom offset="4905248" precision="FP32" size="4"/>
			</blobs>
		</layer>
		<layer id="324" name="group1/block3/conv1/act_quant/FakeQuantWithMinMaxVars" type="FakeQuantize">
			<data levels="256"/>
			<input>
				<port id="0">
					<dim>1</dim>
					<dim>128</dim>
					<dim>28</dim>
					<dim>28</dim>
				</port>
				<port id="1">
					<dim>1</dim>
					<dim>1</dim>
					<dim>1</dim>
					<dim>1</dim>
				</port>
				<port id="2">
					<dim>1</dim>
					<dim>1</dim>
					<dim>1</dim>
					<dim>1</dim>
				</port>
				<port id="3">
					<dim>1</dim>
					<dim>1</dim>
					<dim>1</dim>
					<dim>1</dim>
				</port>
				<port id="4">
					<dim>1</dim>
					<dim>1</dim>
					<dim>1</dim>
					<dim>1</dim>
				</port>
			</input>
			<output>
				<port id="5" precision="FP32">
					<dim>1</dim>
					<dim>128</dim>
					<dim>28</dim>
					<dim>28</dim>
				</port>
			</output>
		</layer>
		<layer id="325" name="group1/block3/conv2/mul_fold/Output_0/Data__const" type="Const">
			<output>
				<port id="1" precision="FP32">
					<dim>128</dim>
					<dim>128</dim>
					<dim>3</dim>
					<dim>3</dim>
				</port>
			</output>
			<blobs>
				<custom offset="4905252" precision="FP32" size="589824"/>
			</blobs>
		</layer>
		<layer id="326" name="Copy_group1/block3/conv2/weights_quant/FakeQuantWithMinMaxVars/nudged_min/Output_0/Data_/copy_const" type="Const">
			<output>
				<port id="1" precision="FP32">
					<dim>1</dim>
					<dim>1</dim>
					<dim>1</dim>
					<dim>1</dim>
				</port>
			</output>
			<blobs>
				<custom offset="5495076" precision="FP32" size="4"/>
			</blobs>
		</layer>
		<layer id="327" name="Copy_group1/block3/conv2/weights_quant/FakeQuantWithMinMaxVars/nudged_max/Output_0/Data_/copy_const" type="Const">
			<output>
				<port id="1" precision="FP32">
					<dim>1</dim>
					<dim>1</dim>
					<dim>1</dim>
					<dim>1</dim>
				</port>
			</output>
			<blobs>
				<custom offset="5495080" precision="FP32" size="4"/>
			</blobs>
		</layer>
		<layer id="328" name="Copy_group1/block3/conv2/weights_quant/FakeQuantWithMinMaxVars/nudged_min/Output_0/Data_11293/copy_const" type="Const">
			<output>
				<port id="1" precision="FP32">
					<dim>1</dim>
					<dim>1</dim>
					<dim>1</dim>
					<dim>1</dim>
				</port>
			</output>
			<blobs>
				<custom offset="5495076" precision="FP32" size="4"/>
			</blobs>
		</layer>
		<layer id="329" name="Copy_group1/block3/conv2/weights_quant/FakeQuantWithMinMaxVars/nudged_max/Output_0/Data_11717/copy_const" type="Const">
			<output>
				<port id="1" precision="FP32">
					<dim>1</dim>
					<dim>1</dim>
					<dim>1</dim>
					<dim>1</dim>
				</port>
			</output>
			<blobs>
				<custom offset="5495080" precision="FP32" size="4"/>
			</blobs>
		</layer>
		<layer id="330" name="group1/block3/conv2/weights_quant/FakeQuantWithMinMaxVars" type="FakeQuantize">
			<data levels="255"/>
			<input>
				<port id="0">
					<dim>128</dim>
					<dim>128</dim>
					<dim>3</dim>
					<dim>3</dim>
				</port>
				<port id="1">
					<dim>1</dim>
					<dim>1</dim>
					<dim>1</dim>
					<dim>1</dim>
				</port>
				<port id="2">
					<dim>1</dim>
					<dim>1</dim>
					<dim>1</dim>
					<dim>1</dim>
				</port>
				<port id="3">
					<dim>1</dim>
					<dim>1</dim>
					<dim>1</dim>
					<dim>1</dim>
				</port>
				<port id="4">
					<dim>1</dim>
					<dim>1</dim>
					<dim>1</dim>
					<dim>1</dim>
				</port>
			</input>
			<output>
				<port id="5" precision="FP32">
					<dim>128</dim>
					<dim>128</dim>
					<dim>3</dim>
					<dim>3</dim>
				</port>
			</output>
		</layer>
		<layer id="331" name="bias_data2755027551_const" type="Const">
			<output>
				<port id="1" precision="FP32">
…
		<edge from-layer="112" from-port="5" to-layer="113" to-port="0"/>
		<edge from-layer="73" from-port="5" to-layer="113" to-port="1"/>
		<edge from-layer="113" from-port="2" to-layer="118" to-port="0"/>
		<edge from-layer="114" from-port="1" to-layer="118" to-port="1"/>
		<edge from-layer="115" from-port="1" to-layer="118" to-port="2"/>
		<edge from-layer="116" from-port="1" to-layer="118" to-port="3"/>
		<edge from-layer="117" from-port="1" to-layer="118" to-port="4"/>
		<edge from-layer="119" from-port="1" to-layer="124" to-port="0"/>
		<edge from-layer="120" from-port="1" to-layer="124" to-port="1"/>
		<edge from-layer="121" from-port="1" to-layer="124" to-port="2"/>
		<edge from-layer="122" from-port="1" to-layer="124" to-port="3"/>
		<edge from-layer="123" from-port="1" to-layer="124" to-port="4"/>
		<edge from-layer="118" from-port="5" to-layer="126" to-port="0"/>
		<edge from-layer="124" from-port="5" to-layer="126" to-port="1"/>
		<edge from-layer="125" from-port="1" to-layer="126" to-port="2"/>
		<edge from-layer="126" from-port="3" to-layer="131" to-port="0"/>
		<edge from-layer="127" from-port="1" to-layer="131" to-port="1"/>
		<edge from-layer="128" from-port="1" to-layer="131" to-port="2"/>
		<edge from-layer="129" from-port="1" to-layer="131" to-port="3"/>
		<edge from-layer="130" from-port="1" to-layer="131" to-port="4"/>
		<edge from-layer="132" from-port="1" to-layer="137" to-port="0"/>
		<edge from-layer="133" from-port="1" to-layer="137" to-port="1"/>
		<edge from-layer="134" from-port="1" to-layer="137" to-port="2"/>
		<edge from-layer="135" from-port="1" to-layer="137" to-port="3"/>
		<edge from-layer="136" from-port="1" to-layer="137" to-port="4"/>
		<edge from-layer="131" from-port="5" to-layer="139" to-port="0"/>
		<edge from-layer="137" from-port="5" to-layer="139" to-port="1"/>
		<edge from-layer="138" from-port="1" to-layer="139" to-port="2"/>
		<edge from-layer="139" from-port="3" to-layer="144" to-port="0"/>
		<edge from-layer="140" from-port="1" to-layer="144" to-port="1"/>
		<edge from-layer="141" from-port="1" to-layer="144" to-port="2"/>
		<edge from-layer="142" from-port="1" to-layer="144" to-port="3"/>
		<edge from-layer="143" from-port="1" to-layer="144" to-port="4"/>
		<edge from-layer="145" from-port="1" to-layer="150" to-port="0"/>
		<edge from-layer="146" from-port="1" to-layer="150" to-port="1"/>
		<edge from-layer="147" from-port="1" to-layer="150" to-port="2"/>
		<edge from-layer="148" from-port="1" to-layer="150" to-port="3"/>
		<edge from-layer="149" from-port="1" to-layer="150" to-port="4"/>
		<edge from-layer="144" from-port="5" to-layer="152" to-port="0"/>
		<edge from-layer="150" from-port="5" to-layer="152" to-port="1"/>
		<edge from-layer="151" from-port="1" to-layer="152" to-port="2"/>
		<edge from-layer="152" from-port="3" to-layer="157" to-port="0"/>
		<edge from-layer="153" from-port="1" to-layer="157" to-port="1"/>
		<edge from-layer="154" from-port="1" to-layer="157" to-port="2"/>
		<edge from-layer="155" from-port="1" to-layer="157" to-port="3"/>
		<edge from-layer="156" from-port="1" to-layer="157" to-port="4"/>
		<edge from-layer="157" from-port="5" to-layer="158" to-port="0"/>
		<edge from-layer="118" from-port="5" to-layer="158" to-port="1"/>
		<edge from-layer="158" from-port="2" to-layer="163" to-port="0"/>
		<edge from-layer="159" from-port="1" to-layer="163" to-port="1"/>
		<edge from-layer="160" from-port="1" to-layer="163" to-port="2"/>
		<edge from-layer="161" from-port="1" to-layer="163" to-port="3"/>
		<edge from-layer="162" from-port="1" to-layer="163" to-port="4"/>
		<edge from-layer="164" from-port="1" to-layer="169" to-port="0"/>
		<edge from-layer="165" from-port="1" to-layer="169" to-port="1"/>
		<edge from-layer="166" from-port="1" to-layer="169" to-port="2"/>
		<edge from-layer="167" from-port="1" to-layer="169" to-port="3"/>
		<edge from-layer="168" from-port="1" to-layer="169" to-port="4"/>
		<edge from-layer="163" from-port="5" to-layer="171" to-port="0"/>
		<edge from-layer="169" from-port="5" to-layer="171" to-port="1"/>
		<edge from-layer="170" from-port="1" to-layer="171" to-port="2"/>
		<edge from-layer="171" from-port="3" to-layer="176" to-port="0"/>
		<edge from-layer="172" from-port="1" to-layer="176" to-port="1"/>
		<edge from-layer="173" from-port="1" to-layer="176" to-port="2"/>
		<edge from-layer="174" from-port="1" to-layer="176" to-port="3"/>
		<edge from-layer="175" from-port="1" to-layer="176" to-port="4"/>
		<edge from-layer="177" from-port="1" to-layer="182" to-port="0"/>
		<edge from-layer="178" from-port="1" to-layer="182" to-port="1"/>
		<edge from-layer="179" from-port="1" to-layer="182" to-port="2"/>
		<edge from-layer="180" from-port="1" to-layer="182" to-port="3"/>
		<edge from-layer="181" from-port="1" to-layer="182" to-port="4"/>
		<edge from-layer="176" from-port="5" to-layer="184" to-port="0"/>
		<edge from-layer="182" from-port="5" to-layer="184" to-port="1"/>
		<edge from-layer="183" from-port="1" to-layer="184" to-port="2"/>
		<edge from-layer="184" from-port="3" to-layer="189" to-port="0"/>
		<edge from-layer="185" from-port="1" to-layer="189" to-port="1"/>
		<edge from-layer="186" from-port="1" to-layer="189" to-port="2"/>
		<edge from-layer="187" from-port="1" to-layer="189" to-port="3"/>
		<edge from-layer="188" from-port="1" to-layer="189" to-port="4"/>
		<edge from-layer="190" from-port="1" to-layer="195" to-port="0"/>
		<edge from-layer="191" from-port="1" to-layer="195" to-port="1"/>
		<edge from-layer="192" from-port="1" to-layer="195" to-port="2"/>
		<edge from-layer="193" from-port="1" to-layer="195" to-port="3"/>
		<edge from-layer="194" from-port="1" to-layer="195" to-port="4"/>
		<edge from-layer="189" from-port="5" to-layer="197" to-port="0"/>
		<edge from-layer="195" from-port="5" to-layer="197" to-port="1"/>
		<edge from-layer="196" from-port="1" to-layer="197" to-port="2"/>
		<edge from-layer="197" from-port="3" to-layer="202" to-port="0"/>
		<edge from-layer="198" from-port="1" to-layer="202" to-port="1"/>
		<edge from-layer="199" from-port="1" to-layer="202" to-port="2"/>
		<edge from-layer="200" from-port="1" to-layer="202" to-port="3"/>
		<edge from-layer="201" from-port="1" to-layer="202" to-port="4"/>
		<edge from-layer="203" from-port="1" to-layer="208" to-port="0"/>
		<edge from-layer="204" from-port="1" to-layer="208" to-port="1"/>
		<edge from-layer="205" from-port="1" to-layer="208" to-port="2"/>
		<edge from-layer="206" from-port="1" to-layer="208" to-port="3"/>
		<edge from-layer="207" from-port="1" to-layer="208" to-port="4"/>
		<edge from-layer="163" from-port="5" to-layer="210" to-port="0"/>
		<edge from-layer="208" from-port="5" to-layer="210" to-port="1"/>
		<edge from-layer="209" from-port="1" to-layer="210" to-port="2"/>
		<edge from-layer="210" from-port="3" to-layer="215" to-port="0"/>
		<edge from-layer="211" from-port="1" to-layer="215" to-port="1"/>
		<edge from-layer="212" from-port="1" to-layer="215" to-port="2"/>
		<edge from-layer="213" from-port="1" to-layer="215" to-port="3"/>
		<edge from-layer="214" from-port="1" to-layer="215" to-port="4"/>
		<edge from-layer="202" from-port="5" to-layer="216" to-port="0"/>
		<edge from-layer="215" from-port="5" to-layer="216" to-port="1"/>
		<edge from-layer="216" from-port="2" to-layer="221" to-port="0"/>
		<edge from-layer="217" from-port="1" to-layer="221" to-port="1"/>
		<edge from-layer="218" from-port="1" to-layer="221" to-port="2"/>
		<edge from-layer="219" from-port="1" to-layer="221" to-port="3"/>
		<edge from-layer="220" from-port="1" to-layer="221" to-port="4"/>
		<edge from-layer="222" from-port="1" to-layer="227" to-port="0"/>
		<edge from-layer="223" from-port="1" to-layer="227" to-port="1"/>
		<edge from-layer="224" from-port="1" to-layer="227" to-port="2"/>
		<edge from-layer="225" from-port="1" to-layer="227" to-port="3"/>
		<edge from-layer="226" from-port="1" to-layer="227" to-port="4"/>
		<edge from-layer="221" from-port="5" to-layer="229" to-port="0"/>
		<edge from-layer="227" from-port="5" to-layer="229" to-port="1"/>
		<edge from-layer="228" from-port="1" to-layer="229" to-port="2"/>
		<edge from-layer="229" from-port="3" to-layer="234" to-port="0"/>
		<edge from-layer="230" from-port="1" to-layer="234" to-port="1"/>
		<edge from-layer="231" from-port="1" to-layer="234" to-port="2"/>
		<edge from-layer="232" from-port="1" to-layer="234" to-port="3"/>
		<edge from-layer="233" from-port="1" to-layer="234" to-port="4"/>
		<edge from-layer="235" from-port="1" to-layer="240" to-port="0"/>
		<edge from-layer="236" from-port="1" to-layer="240" to-port="1"/>
		<edge from-layer="237" from-port="1" to-layer="240" to-port="2"/>
		<edge from-layer="238" from-port="1" to-layer="240" to-port="3"/>
		<edge from-layer="239" from-port="1" to-layer="240" to-port="4"/>
		<edge from-layer="234" from-port="5" to-layer="242" to-port="0"/>
		<edge from-layer="240" from-port="5" to-layer="242" to-port="1"/>
		<edge from-layer="241" from-port="1" to-layer="242" to-port="2"/>
		<edge from-layer="242" from-port="3" to-layer="247" to-port="0"/>
		<edge from-layer="243" from-port="1" to-layer="247" to-port="1"/>
		<edge from-layer="244" from-port="1" to-layer="247" to-port="2"/>
		<edge from-layer="245" from-port="1" to-layer="247" to-port="3"/>
		<edge from-layer="246" from-port="1" to-layer="247" to-port="4"/>
		<edge from-layer="248" from-port="1" to-layer="253" to-port="0"/>
		<edge from-layer="249" from-port="1" to-layer="253" to-port="1"/>
		<edge from-layer="250" from-port="1" to-layer="253" to-port="2"/>
		<edge from-layer="251" from-port="1" to-layer="253" to-port="3"/>
		<edge from-layer="252" from-port="1" to-layer="253" to-port="4"/>
		<edge from-layer="247" from-port="5" to-layer="255" to-port="0"/>
		<edge from-layer="253" from-port="5" to-layer="255" to-port="1"/>
		<edge from-layer="254" from-port="1" to-layer="255" to-port="2"/>
		<edge from-layer="255" from-port="3" to-layer="260" to-port="0"/>
		<edge from-layer="256" from-port="1" to-layer="260" to-port="1"/>
		<edge from-layer="257" from-port="1" to-layer="260" to-port="2"/>
		<edge from-layer="258" from-port="1" to-layer="260" to-port="3"/>
		<edge from-layer="259" from-port="1" to-layer="260" to-port="4"/>
		<edge from-layer="260" from-port="5" to-layer="261" to-port="0"/>
		<edge from-layer="221" from-port="5" to-layer="261" to-port="1"/>
		<edge from-layer="261" from-port="2" to-layer="266" to-port="0"/>
		<edge from-layer="262" from-port="1" to-layer="266" to-port="1"/>
		<edge from-layer="263" from-port="1" to-layer="266" to-port="2"/>
		<edge from-layer="264" from-port="1" to-layer="266" to-port="3"/>
		<edge from-layer="265" from-port="1" to-layer="266" to-port="4"/>
		<edge from-layer="267" from-port="1" to-layer="272" to-port="0"/>
		<edge from-layer="268" from-port="1" to-layer="272" to-port="1"/>
		<edge from-layer="269" from-port="1" to-layer="272" to-port="2"/>
		<edge from-layer="270" from-port="1" to-layer="272" to-port="3"/>
		<edge from-layer="271" from-port="1" to-layer="272" to-port="4"/>
		<edge from-layer="266" from-port="5" to-layer="274" to-port="0"/>
		<edge from-layer="272" from-port="5" to-layer="274" to-port="1"/>
		<edge from-layer="273" from-port="1" to-layer="274" to-port="2"/>
		<edge from-layer="274" from-port="3" to-layer="279" to-port="0"/>
		<edge from-layer="275" from-port="1" to-layer="279" to-port="1"/>
		<edge from-layer="276" from-port="1" to-layer="279" to-port="2"/>
		<edge from-layer="277" from-port="1" to-layer="279" to-port="3"/>
		<edge from-layer="278" from-port="1" to-layer="279" to-port="4"/>
		<edge from-layer="280" from-port="1" to-layer="285" to-port="0"/>
		<edge from-layer="281" from-port="1" to-layer="285" to-port="1"/>
		<edge from-layer="282" from-port="1" to-layer="285" to-port="2"/>
		<edge from-layer="283" from-port="1" to-layer="285" to-port="3"/>
		<edge from-layer="284" from-port="1" to-layer="285" to-port="4"/>
		<edge from-layer="279" from-port="5" to-layer="287" to-port="0"/>
		<edge from-layer="285" from-port="5" to-layer="287" to-port="1"/>
		<edge from-layer="286" from-port="1" to-layer="287" to-port="2"/>
		<edge from-layer="287" from-port="3" to-layer="292" to-port="0"/>
		<edge from-layer="288" from-port="1" to-layer="292" to-port="1"/>
		<edge from-layer="289" from-port="1" to-layer="292" to-port="2"/>
		<edge from-layer="290" from-port="1" to-layer="292" to-port="3"/>
		<edge from-layer="291" from-port="1" to-layer="292" to-port="4"/>
		<edge from-layer="293" from-port="1" to-layer="298" to-port="0"/>
		<edge from-layer="294" from-port="1" to-layer="298" to-port="1"/>
		<edge from-layer="295" from-port="1" to-layer="298" to-port="2"/>
		<edge from-layer="296" from-port="1" to-layer="298" to-port="3"/>
		<edge from-layer="297" from-port="1" to-layer="298" to-port="4"/>
		<edge from-layer="292" from-port="5" to-layer="300" to-port="0"/>
		<edge from-layer="298" from-port="5" to-layer="300" to-port="1"/>
		<edge from-layer="299" from-port="1" to-layer="300" to-port="2"/>
		<edge from-layer="300" from-port="3" to-layer="305" to-port="0"/>
		<edge from-layer="301" from-port="1" to-layer="305" to-port="1"/>
		<edge from-layer="302" from-port="1" to-layer="305" to-port="2"/>
		<edge from-layer="303" from-port="1" to-layer="305" to-port="3"/>
		<edge from-layer="304" from-port="1" to-layer="305" to-port="4"/>
		<edge from-layer="305" from-port="5" to-layer="306" to-port="0"/>
		<edge from-layer="266" from-port="5" to-layer="306" to-port="1"/>
		<edge from-layer="306" from-port="2" to-layer="311" to-port="0"/>
		<edge from-layer="307" from-port="1" to-layer="311" to-port="1"/>
		<edge from-layer="308" from-port="1" to-layer="311" to-port="2"/>
		<edge from-layer="309" from-port="1" to-layer="311" to-port="3"/>
		<edge from-layer="310" from-port="1" to-layer="311" to-port="4"/>
		<edge from-layer="312" from-port="1" to-layer="317" to-port="0"/>
		<edge from-layer="313" from-port="1" to-layer="317" to-port="1"/>
		<edge from-layer="314" from-port="1" to-layer="317" to-port="2"/>
		<edge from-layer="315" from-port="1" to-layer="317" to-port="3"/>
		<edge from-layer="316" from-port="1" to-layer="317" to-port="4"/>
		<edge from-layer="311" from-port="5" to-layer="319" to-port="0"/>
		<edge from-layer="317" from-port="5" to-layer="319" to-port="1"/>
		<edge from-layer="318" from-port="1" to-layer="319" to-port="2"/>
		<edge from-layer="319" from-port="3" to-layer="324" to-port="0"/>
		<edge from-layer="320" from-port="1" to-layer="324" to-port="1"/>
		<edge from-layer="321" from-port="1" to-layer="324" to-port="2"/>
		<edge from-layer="322" from-port="1" to-layer="324" to-port="3"/>
		<edge from-layer="323" from-port="1" to-layer="324" to-port="4"/>
		<edge from-layer="325" from-port="1" to-layer="330" to-port="0"/>
		<edge from-layer="326" from-port="1" to-layer="330" to-port="1"/>
		<edge from-layer="327" from-port="1" to-layer="330" to-port="2"/>
		<edge from-layer="328" from-port="1" to-layer="330" to-port="3"/>
		<edge from-layer="329" from-port="1" to-layer="330" to-port="4"/>
		<edge from-layer="324" from-port="5" to-layer="332" to-port="0"/>
		<edge from-layer="330" from-port="5" to-layer="332" to-port="1"/>
		<edge from-layer="331" from-port="1" to-layer="332" to-port="2"/>
		<edge from-layer="332" from-port="3" to-layer="337" to-port="0"/>
		<edge from-layer="333" from-port="1" to-layer="337" to-port="1"/>
		<edge from-layer="334" from-port="1" to-layer="337" to-port="2"/>
		<edge from-layer="335" from-port="1" to-layer="337" to-port="3"/>
		<edge from-layer="336" from-port="1" to-layer="337" to-port="4"/>
		<edge from-layer="338" from-port="1" to-layer="343" to-port="0"/>
		<edge from-layer="339" from-port="1" to-layer="343" to-port="1"/>
		<edge from-layer="340" from-port="1" to-layer="343" to-port="2"/>
		<edge from-layer="341" from-port="1" to-layer="343" to-port="3"/>
		<edge from-layer="342" from-port="1" to-layer="343" to-port="4"/>
		<edge from-layer="337" from-port="5" to-layer="345" to-port="0"/>
		<edge from-layer="343" from-port="5" to-layer="345" to-port="1"/>
		<edge from-layer="344" from-port="1" to-layer="345" to-port="2"/>
		<edge from-layer="345" from-port="3" to-layer="350" to-port="0"/>
		<edge from-layer="346" from-port="1" to-layer="350" to-port="1"/>
		<edge from-layer="347" from-port="1" to-layer="350" to-port="2"/>
		<edge from-layer="348" from-port="1" to-layer="350" to-port="3"/>
		<edge from-layer="349" from-port="1" to-layer="350" to-port="4"/>
		<edge from-layer="350" from-port="5" to-layer="351" to-port="0"/>
		<edge from-layer="311" from-port="5" to-layer="351" to-port="1"/>
		<edge from-layer="351" from-port="2" to-layer="356" to-port="0"/>
		<edge from-layer="352" from-port="1" to-layer="356" to-port="1"/>
		<edge from-layer="353" from-port="1" to-layer="356" to-port="2"/>
		<edge from-layer="354" from-port="1" to-layer="356" to-port="3"/>
		<edge from-layer="355" from-port="1" to-layer="356" to-port="4"/>
		<edge from-layer="357" from-port="1" to-layer="362" to-port="0"/>
		<edge from-layer="358" from-port="1" to-layer="362" to-port="1"/>
		<edge from-layer="359" from-port="1" to-layer="362" to-port="2"/>
		<edge from-layer="360" from-port="1" to-layer="362" to-port="3"/>
		<edge from-layer="361" from-port="1" to-layer="362" to-port="4"/>
		<edge from-layer="356" from-port="5" to-layer="364" to-port="0"/>
		<edge from-layer="362" from-port="5" to-layer="364" to-port="1"/>
		<edge from-layer="363" from-port="1" to-layer="364" to-port="2"/>
		<edge from-layer="364" from-port="3" to-layer="369" to-port="0"/>
		<edge from-layer="365" from-port="1" to-layer="369" to-port="1"/>
		<edge from-layer="366" from-port="1" to-layer="369" to-port="2"/>
		<edge from-layer="367" from-port="1" to-layer="369" to-port="3"/>
		<edge from-layer="368" from-port="1" to-layer="369" to-port="4"/>
		<edge from-layer="370" from-port="1" to-layer="375" to-port="0"/>
		<edge from-layer="371" from-port="1" to-layer="375" to-port="1"/>
		<edge from-layer="372" from-port="1" to-layer="375" to-port="2"/>
		<edge from-layer="373" from-port="1" to-layer="375" to-port="3"/>
		<edge from-layer="374" from-port="1" to-layer="375" to-port="4"/>
		<edge from-layer="369" from-port="5" to-layer="377" to-port="0"/>
		<edge from-layer="375" from-port="5" to-layer="377" to-port="1"/>
		<edge from-layer="376" from-port="1" to-layer="377" to-port="2"/>
		<edge from-layer="377" from-port="3" to-layer="382" to-port="0"/>
		<edge from-layer="378" from-port="1" to-layer="382" to-port="1"/>
		<edge from-layer="379" from-port="1" to-layer="382" to-port="2"/>
		<edge from-layer="380" from-port="1" to-layer="382" to-port="3"/>
		<edge from-layer="381" from-port="1" to-layer="382" to-port="4"/>
		<edge from-layer="383" from-port="1" to-layer="388" to-port="0"/>
		<edge from-layer="384" from-port="1" to-layer="388" to-port="1"/>
		<edge from-layer="385" from-port="1" to-layer="388" to-port="2"/>
		<edge from-layer="386" from-port="1" to-layer="388" to-port="3"/>
		<edge from-layer="387" from-port="1" to-layer="388" to-port="4"/>
		<edge from-layer="382" from-port="5" to-layer="390" to-port="0"/>
		<edge from-layer="388" from-port="5" to-layer="390" to-port="1"/>
		<edge from-layer="389" from-port="1" to-layer="390" to-port="2"/>
		<edge from-layer="390" from-port="3" to-layer="395" to-port="0"/>
		<edge from-layer="391" from-port="1" to-layer="395" to-port="1"/>
		<edge from-layer="392" from-port="1" to-layer="395" to-port="2"/>
		<edge from-layer="393" from-port="1" to-layer="395" to-port="3"/>
		<edge from-layer="394" from-port="1" to-layer="395" to-port="4"/>
		<edge from-layer="396" from-port="1" to-layer="401" to-port="0"/>
		<edge from-layer="397" from-port="1" to-layer="401" to-port="1"/>
		<edge from-layer="398" from-port="1" to-layer="401" to-port="2"/>
		<edge from-layer="399" from-port="1" to-layer="401" to-port="3"/>
		<edge from-layer="400" from-port="1" to-layer="401" to-port="4"/>
		<edge from-layer="356" from-port="5" to-layer="403" to-port="0"/>
		<edge from-layer="401" from-port="5" to-layer="403" to-port="1"/>
		<edge from-layer="402" from-port="1" to-layer="403" to-port="2"/>
		<edge from-layer="403" from-port="3" to-layer="408" to-port="0"/>
		<edge from-layer="404" from-port="1" to-layer="408" to-port="1"/>
		<edge from-layer="405" from-port="1" to-layer="408" to-port="2"/>
		<edge from-layer="406" from-port="1" to-layer="408" to-port="3"/>
		<edge from-layer="407" from-port="1" to-layer="408" to-port="4"/>
		<edge from-layer="395" from-port="5" to-layer="409" to-port="0"/>
		<edge from-layer="408" from-port="5" to-layer="409" to-port="1"/>
		<edge from-layer="409" from-port="2" to-layer="414" to-port="0"/>
		<edge from-layer="410" from-port="1" to-layer="414" to-port="1"/>
		<edge from-layer="411" from-port="1" to-layer="414" to-port="2"/>
		<edge from-layer="412" from-port="1" to-layer="414" to-port="3"/>
		<edge from-layer="413" from-port="1" to-layer="414" to-port="4"/>
		<edge from-layer="415" from-port="1" to-layer="420" to-port="0"/>
		<edge from-layer="416" from-port="1" to-layer="420" to-port="1"/>
		<edge from-layer="417" from-port="1" to-layer="420" to-port="2"/>
		<edge from-layer="418" from-port="1" to-layer="420" to-port="3"/>
		<edge from-layer="419" from-port="1" to-layer="420" to-port="4"/>
		<edge from-layer="414" from-port="5" to-layer="422" to-port="0"/>
		<edge from-layer="420" from-port="5" to-layer="422" to-port="1"/>
		<edge from-layer="421" from-port="1" to-layer="422" to-port="2"/>
		<edge from-layer="422" from-port="3" to-layer="427" to-port="0"/>
		<edge from-layer="423" from-port="1" to-layer="427" to-port="1"/>
		<edge from-layer="424" from-port="1" to-layer="427" to-port="2"/>
		<edge from-layer="425" from-port="1" to-layer="427" to-port="3"/>
		<edge from-layer="426" from-port="1" to-layer="427" to-port="4"/>
		<edge from-layer="428" from-port="1" to-layer="433" to-port="0"/>
		<edge from-layer="429" from-port="1" to-layer="433" to-port="1"/>
		<edge from-layer="430" from-port="1" to-layer="433" to-port="2"/>
		<edge from-layer="431" from-port="1" to-layer="433" to-port="3"/>
		<edge from-layer="432" from-port="1" to-layer="433" to-port="4"/>
		<edge from-layer="427" from-port="5" to-layer="435" to-port="0"/>
		<edge from-layer="433" from-port="5" to-layer="435" to-port="1"/>
		<edge from-layer="434" from-port="1" to-layer="435" to-port="2"/>
		<edge from-layer="435" from-port="3" to-layer="440" to-port="0"/>
		<edge from-layer="436" from-port="1" to-layer="440" to-port="1"/>
		<edge from-layer="437" from-port="1" to-layer="440" to-port="2"/>
		<edge from-layer="438" from-port="1" to-layer="440" to-port="3"/>
		<edge from-layer="439" from-port="1" to-layer="440" to-port="4"/>
		<edge from-layer="441" from-port="1" to-layer="446" to-port="0"/>
		<edge from-layer="442" from-port="1" to-layer="446" to-port="1"/>
		<edge from-layer="443" from-port="1" to-layer="446" to-port="2"/>
		<edge from-layer="444" from-port="1" to-layer="446" to-port="3"/>
		<edge from-layer="445" from-port="1" to-layer="446" to-port="4"/>
		<edge from-layer="440" from-port="5" to-layer="448" to-port="0"/>
		<edge from-layer="446" from-port="5" to-layer="448" to-port="1"/>
		<edge from-layer="447" from-port="1" to-layer="448" to-port="2"/>
		<edge from-layer="448" from-port="3" to-layer="453" to-port="0"/>
		<edge from-layer="449" from-port="1" to-layer="453" to-port="1"/>
		<edge from-layer="450" from-port="1" to-layer="453" to-port="2"/>
		<edge from-layer="451" from-port="1" to-layer="453" to-port="3"/>
		<edge from-layer="452" from-port="1" to-layer="453" to-port="4"/>
		<edge from-layer="453" from-port="5" to-layer="454" to-port="0"/>
		<edge from-layer="414" from-port="5" to-layer="454" to-port="1"/>
		<edge from-layer="454" from-port="2" to-layer="459" to-port="0"/>
		<edge from-layer="455" from-port="1" to-layer="459" to-port="1"/>
		<edge from-layer="456" from-port="1" to-layer="459" to-port="2"/>
		<edge from-layer="457" from-port="1" to-layer="459" to-port="3"/>
		<edge from-layer="458" from-port="1" to-layer="459" to-port="4"/>
		<edge from-layer="460" from-port="1" to-layer="465" to-port="0"/>
		<edge from-layer="461" from-port="1" to-layer="465" to-port="1"/>
		<edge from-layer="462" from-port="1" to-layer="465" to-port="2"/>
		<edge from-layer="463" from-port="1" to-layer="465" to-port="3"/>
		<edge from-layer="464" from-port="1" to-layer="465" to-port="4"/>
		<edge from-layer="459" from-port="5" to-layer="467" to-port="0"/>
		<edge from-layer="465" from-port="5" to-layer="467" to-port="1"/>
		<edge from-layer="466" from-port="1" to-layer="467" to-port="2"/>
		<edge from-layer="467" from-port="3" to-layer="472" to-port="0"/>
		<edge from-layer="468" from-port="1" to-layer="472" to-port="1"/>
		<edge from-layer="469" from-port="1" to-layer="472" to-port="2"/>
		<edge from-layer="470" from-port="1" to-layer="472" to-port="3"/>
		<edge from-layer="471" from-port="1" to-layer="472" to-port="4"/>
		<edge from-layer="473" from-port="1" to-layer="478" to-port="0"/>
		<edge from-layer="474" from-port="1" to-layer="478" to-port="1"/>
		<edge from-layer="475" from-port="1" to-layer="478" to-port="2"/>
		<edge from-layer="476" from-port="1" to-layer="478" to-port="3"/>
		<edge from-layer="477" from-port="1" to-layer="478" to-port="4"/>
		<edge from-layer="472" from-port="5" to-layer="480" to-port="0"/>
		<edge from-layer="478" from-port="5" to-layer="480" to-port="1"/>
		<edge from-layer="479" from-port="1" to-layer="480" to-port="2"/>
		<edge from-layer="480" from-port="3" to-layer="485" to-port="0"/>
		<edge from-layer="481" from-port="1" to-layer="485" to-port="1"/>
		<edge from-layer="482" from-port="1" to-layer="485" to-port="2"/>
		<edge from-layer="483" from-port="1" to-layer="485" to-port="3"/>
		<edge from-layer="484" from-port="1" to-layer="485" to-port="4"/>
		<edge from-layer="486" from-port="1" to-layer="491" to-port="0"/>
		<edge from-layer="487" from-port="1" to-layer="491" to-port="1"/>
		<edge from-layer="488" from-port="1" to-layer="491" to-port="2"/>
		<edge from-layer="489" from-port="1" to-layer="491" to-port="3"/>
		<edge from-layer="490" from-port="1" to-layer="491" to-port="4"/>
		<edge from-layer="485" from-port="5" to-layer="493" to-port="0"/>
		<edge from-layer="491" from-port="5" to-layer="493" to-port="1"/>
		<edge from-layer="492" from-port="1" to-layer="493" to-port="2"/>
		<edge from-layer="493" from-port="3" to-layer="498" to-port="0"/>
		<edge from-layer="494" from-port="1" to-layer="498" to-port="1"/>
		<edge from-layer="495" from-port="1" to-layer="498" to-port="2"/>
		<edge from-layer="496" from-port="1" to-layer="498" to-port="3"/>
		<edge from-layer="497" from-port="1" to-layer="498" to-port="4"/>
		<edge from-layer="498" from-port="5" to-layer="499" to-port="0"/>
		<edge from-layer="459" from-port="5" to-layer="499" to-port="1"/>
		<edge from-layer="499" from-port="2" to-layer="504" to-port="0"/>
		<edge from-layer="500" from-port="1" to-layer="504" to-port="1"/>
		<edge from-layer="501" from-port="1" to-layer="504" to-port="2"/>
		<edge from-layer="502" from-port="1" to-layer="504" to-port="3"/>
		<edge from-layer="503" from-port="1" to-layer="504" to-port="4"/>
		<edge from-layer="505" from-port="1" to-layer="510" to-port="0"/>
		<edge from-layer="506" from-port="1" to-layer="510" to-port="1"/>
		<edge from-layer="507" from-port="1" to-layer="510" to-port="2"/>
		<edge from-layer="508" from-port="1" to-layer="510" to-port="3"/>
		<edge from-layer="509" from-port="1" to-layer="510" to-port="4"/>
		<edge from-layer="504" from-port="5" to-layer="512" to-port="0"/>
		<edge from-layer="510" from-port="5" to-layer="512" to-port="1"/>
		<edge from-layer="511" from-port="1" to-layer="512" to-port="2"/>
		<edge from-layer="512" from-port="3" to-layer="517" to-port="0"/>
		<edge from-layer="513" from-port="1" to-layer="517" to-port="1"/>
		<edge from-layer="514" from-port="1" to-layer="517" to-port="2"/>
		<edge from-layer="515" from-port="1" to-layer="517" to-port="3"/>
		<edge from-layer="516" from-port="1" to-layer="517" to-port="4"/>
		<edge from-layer="518" from-port="1" to-layer="523" to-port="0"/>
		<edge from-layer="519" from-port="1" to-layer="523" to-port="1"/>
		<edge from-layer="520" from-port="1" to-layer="523" to-port="2"/>
		<edge from-layer="521" from-port="1" to-layer="523" to-port="3"/>
		<edge from-layer="522" from-port="1" to-layer="523" to-port="4"/>
		<edge from-layer="517" from-port="5" to-layer="525" to-port="0"/>
		<edge from-layer="523" from-port="5" to-layer="525" to-port="1"/>
		<edge from-layer="524" from-port="1" to-layer="525" to-port="2"/>
		<edge from-layer="525" from-port="3" to-layer="530" to-port="0"/>
		<edge from-layer="526" from-port="1" to-layer="530" to-port="1"/>
		<edge from-layer="527" from-port="1" to-layer="530" to-port="2"/>
		<edge from-layer="528" from-port="1" to-layer="530" to-port="3"/>
		<edge from-layer="529" from-port="1" to-layer="530" to-port="4"/>
		<edge from-layer="531" from-port="1" to-layer="536" to-port="0"/>
		<edge from-layer="532" from-port="1" to-layer="536" to-port="1"/>
		<edge from-layer="533" from-port="1" to-layer="536" to-port="2"/>
		<edge from-layer="534" from-port="1" to-layer="536" to-port="3"/>
		<edge from-layer="535" from-port="1" to-layer="536" to-port="4"/>
		<edge from-layer="530" from-port="5" to-layer="538" to-port="0"/>
		<edge from-layer="536" from-port="5" to-layer="538" to-port="1"/>
		<edge from-layer="537" from-port="1" to-layer="538" to-port="2"/>
		<edge from-layer="538" from-port="3" to-layer="543" to-port="0"/>
		<edge from-layer="539" from-port="1" to-layer="543" to-port="1"/>
		<edge from-layer="540" from-port="1" to-layer="543" to-port="2"/>
		<edge from-layer="541" from-port="1" to-layer="543" to-port="3"/>
		<edge from-layer="542" from-port="1" to-layer="543" to-port="4"/>
		<edge from-layer="543" from-port="5" to-layer="544" to-port="0"/>
		<edge from-layer="504" from-port="5" to-layer="544" to-port="1"/>
		<edge from-layer="544" from-port="2" to-layer="549" to-port="0"/>
		<edge from-layer="545" from-port="1" to-layer="549" to-port="1"/>
		<edge from-layer="546" from-port="1" to-layer="549" to-port="2"/>
		<edge from-layer="547" from-port="1" to-layer="549" to-port="3"/>
		<edge from-layer="548" from-port="1" to-layer="549" to-port="4"/>
		<edge from-layer="550" from-port="1" to-layer="555" to-port="0"/>
		<edge from-layer="551" from-port="1" to-layer="555" to-port="1"/>
		<edge from-layer="552" from-port="1" to-layer="555" to-port="2"/>
		<edge from-layer="553" from-port="1" to-layer="555" to-port="3"/>
		<edge from-layer="554" from-port="1" to-layer="555" to-port="4"/>
		<edge from-layer="549" from-port="5" to-layer="557" to-port="0"/>
		<edge from-layer="555" from-port="5" to-layer="557" to-port="1"/>
		<edge from-layer="556" from-port="1" to-layer="557" to-port="2"/>
		<edge from-layer="557" from-port="3" to-layer="562" to-port="0"/>
		<edge from-layer="558" from-port="1" to-layer="562" to-port="1"/>
		<edge from-layer="559" from-port="1" to-layer="562" to-port="2"/>
		<edge from-layer="560" from-port="1" to-layer="562" to-port="3"/>
		<edge from-layer="561" from-port="1" to-layer="562" to-port="4"/>
		<edge from-layer="563" from-port="1" to-layer="568" to-port="0"/>
		<edge from-layer="564" from-port="1" to-layer="568" to-port="1"/>
		<edge from-layer="565" from-port="1" to-layer="568" to-port="2"/>
		<edge from-layer="566" from-port="1" to-layer="568" to-port="3"/>
		<edge from-layer="567" from-port="1" to-layer="568" to-port="4"/>
		<edge from-layer="562" from-port="5" to-layer="570" to-port="0"/>
		<edge from-layer="568" from-port="5" to-layer="570" to-port="1"/>
		<edge from-layer="569" from-port="1" to-layer="570" to-port="2"/>
		<edge from-layer="570" from-port="3" to-layer="575" to-port="0"/>
		<edge from-layer="571" from-port="1" to-layer="575" to-port="1"/>
		<edge from-layer="572" from-port="1" to-layer="575" to-port="2"/>
		<edge from-layer="573" from-port="1" to-layer="575" to-port="3"/>
		<edge from-layer="574" from-port="1" to-layer="575" to-port="4"/>
		<edge from-layer="576" from-port="1" to-layer="581" to-port="0"/>
		<edge from-layer="577" from-port="1" to-layer="581" to-port="1"/>
		<edge from-layer="578" from-port="1" to-layer="581" to-port="2"/>
		<edge from-layer="579" from-port="1" to-layer="581" to-port="3"/>
		<edge from-layer="580" from-port="1" to-layer="581" to-port="4"/>
		<edge from-layer="575" from-port="5" to-layer="583" to-port="0"/>
		<edge from-layer="581" from-port="5" to-layer="583" to-port="1"/>
		<edge from-layer="582" from-port="1" to-layer="583" to-port="2"/>
		<edge from-layer="583" from-port="3" to-layer="588" to-port="0"/>
		<edge from-layer="584" from-port="1" to-layer="588" to-port="1"/>
		<edge from-layer="585" from-port="1" to-layer="588" to-port="2"/>
		<edge from-layer="586" from-port="1" to-layer="588" to-port="3"/>
		<edge from-layer="587" from-port="1" to-layer="588" to-port="4"/>
		<edge from-layer="588" from-port="5" to-layer="589" to-port="0"/>
		<edge from-layer="549" from-port="5" to-layer="589" to-port="1"/>
		<edge from-layer="589" from-port="2" to-layer="594" to-port="0"/>
		<edge from-layer="590" from-port="1" to-layer="594" to-port="1"/>
		<edge from-layer="591" from-port="1" to-layer="594" to-port="2"/>
		<edge from-layer="592" from-port="1" to-layer="594" to-port="3"/>
		<edge from-layer="593" from-port="1" to-layer="594" to-port="4"/>
		<edge from-layer="595" from-port="1" to-layer="600" to-port="0"/>
		<edge from-layer="596" from-port="1" to-layer="600" to-port="1"/>
		<edge from-layer="597" from-port="1" to-layer="600" to-port="2"/>
		<edge from-layer="598" from-port="1" to-layer="600" to-port="3"/>
		<edge from-layer="599" from-port="1" to-layer="600" to-port="4"/>
		<edge from-layer="594" from-port="5" to-layer="602" to-port="0"/>
		<edge from-layer="600" from-port="5" to-layer="602" to-port="1"/>
		<edge from-layer="601" from-port="1" to-layer="602" to-port="2"/>
		<edge from-layer="602" from-port="3" to-layer="607" to-port="0"/>
		<edge from-layer="603" from-port="1" to-layer="607" to-port="1"/>
		<edge from-layer="604" from-port="1" to-layer="607" to-port="2"/>
		<edge from-layer="605" from-port="1" to-layer="607" to-port="3"/>
		<edge from-layer="606" from-port="1" to-layer="607" to-port="4"/>
		<edge from-layer="608" from-port="1" to-layer="613" to-port="0"/>
		<edge from-layer="609" from-port="1" to-layer="613" to-port="1"/>
		<edge from-layer="610" from-port="1" to-layer="613" to-port="2"/>
		<edge from-layer="611" from-port="1" to-layer="613" to-port="3"/>
		<edge from-layer="612" from-port="1" to-layer="613" to-port="4"/>
		<edge from-layer="607" from-port="5" to-layer="615" to-port="0"/>
		<edge from-layer="613" from-port="5" to-layer="615" to-port="1"/>
		<edge from-layer="614" from-port="1" to-layer="615" to-port="2"/>
		<edge from-layer="615" from-port="3" to-layer="620" to-port="0"/>
		<edge from-layer="616" from-port="1" to-layer="620" to-port="1"/>
		<edge from-layer="617" from-port="1" to-layer="620" to-port="2"/>
		<edge from-layer="618" from-port="1" to-layer="620" to-port="3"/>
		<edge from-layer="619" from-port="1" to-layer="620" to-port="4"/>
		<edge from-layer="621" from-port="1" to-layer="626" to-port="0"/>
		<edge from-layer="622" from-port="1" to-layer="626" to-port="1"/>
		<edge from-layer="623" from-port="1" to-layer="626" to-port="2"/>
		<edge from-layer="624" from-port="1" to-layer="626" to-port="3"/>
		<edge from-layer="625" from-port="1" to-layer="626" to-port="4"/>
		<edge from-layer="620" from-port="5" to-layer="628" to-port="0"/>
		<edge from-layer="626" from-port="5" to-layer="628" to-port="1"/>
		<edge from-layer="627" from-port="1" to-layer="628" to-port="2"/>
		<edge from-layer="628" from-port="3" to-layer="633" to-port="0"/>
		<edge from-layer="629" from-port="1" to-layer="633" to-port="1"/>
		<edge from-layer="630" from-port="1" to-layer="633" to-port="2"/>
		<edge from-layer="631" from-port="1" to-layer="633" to-port="3"/>
		<edge from-layer="632" from-port="1" to-layer="633" to-port="4"/>
		<edge from-layer="633" from-port="5" to-layer="634" to-port="0"/>
		<edge from-layer="594" from-port="5" to-layer="634" to-port="1"/>
		<edge from-layer="634" from-port="2" to-layer="639" to-port="0"/>
		<edge from-layer="635" from-port="1" to-layer="639" to-port="1"/>
		<edge from-layer="636" from-port="1" to-layer="639" to-port="2"/>
		<edge from-layer="637" from-port="1" to-layer="639" to-port="3"/>
		<edge from-layer="638" from-port="1" to-layer="639" to-port="4"/>
		<edge from-layer="640" from-port="1" to-layer="645" to-port="0"/>
		<edge from-layer="641" from-port="1" to-layer="645" to-port="1"/>
		<edge from-layer="642" from-port="1" to-layer="645" to-port="2"/>
		<edge from-layer="643" from-port="1" to-layer="645" to-port="3"/>
		<edge from-layer="644" from-port="1" to-layer="645" to-port="4"/>
		<edge from-layer="639" from-port="5" to-layer="647" to-port="0"/>
		<edge from-layer="645" from-port="5" to-layer="647" to-port="1"/>
		<edge from-layer="646" from-port="1" to-layer="647" to-port="2"/>
		<edge from-layer="647" from-port="3" to-layer="652" to-port="0"/>
		<edge from-layer="648" from-port="1" to-layer="652" to-port="1"/>
		<edge from-layer="649" from-port="1" to-layer="652" to-port="2"/>
		<edge from-layer="650" from-port="1" to-layer="652" to-port="3"/>
		<edge from-layer="651" from-port="1" to-layer="652" to-port="4"/>
		<edge from-layer="653" from-port="1" to-layer="658" to-port="0"/>
		<edge from-layer="654" from-port="1" to-layer="658" to-port="1"/>
		<edge from-layer="655" from-port="1" to-layer="658" to-port="2"/>
		<edge from-layer="656" from-port="1" to-layer="658" to-port="3"/>
		<edge from-layer="657" from-port="1" to-layer="658" to-port="4"/>
		<edge from-layer="652" from-port="5" to-layer="660" to-port="0"/>
		<edge from-layer="658" from-port="5" to-layer="660" to-port="1"/>
		<edge from-layer="659" from-port="1" to-layer="660" to-port="2"/>
		<edge from-layer="660" from-port="3" to-layer="665" to-port="0"/>
		<edge from-layer="661" from-port="1" to-layer="665" to-port="1"/>
		<edge from-layer="662" from-port="1" to-layer="665" to-port="2"/>
		<edge from-layer="663" from-port="1" to-layer="665" to-port="3"/>
		<edge from-layer="664" from-port="1" to-layer="665" to-port="4"/>
		<edge from-layer="666" from-port="1" to-layer="671" to-port="0"/>
		<edge from-layer="667" from-port="1" to-layer="671" to-port="1"/>
		<edge from-layer="668" from-port="1" to-layer="671" to-port="2"/>
		<edge from-layer="669" from-port="1" to-layer="671" to-port="3"/>
		<edge from-layer="670" from-port="1" to-layer="671" to-port="4"/>
		<edge from-layer="665" from-port="5" to-layer="673" to-port="0"/>
		<edge from-layer="671" from-port="5" to-layer="673" to-port="1"/>
		<edge from-layer="672" from-port="1" to-layer="673" to-port="2"/>
		<edge from-layer="673" from-port="3" to-layer="678" to-port="0"/>
		<edge from-layer="674" from-port="1" to-layer="678" to-port="1"/>
		<edge from-layer="675" from-port="1" to-layer="678" to-port="2"/>
		<edge from-layer="676" from-port="1" to-layer="678" to-port="3"/>
		<edge from-layer="677" from-port="1" to-layer="678" to-port="4"/>
		<edge from-layer="679" from-port="1" to-layer="684" to-port="0"/>
		<edge from-layer="680" from-port="1" to-layer="684" to-port="1"/>
		<edge from-layer="681" from-port="1" to-layer="684" to-port="2"/>
		<edge from-layer="682" from-port="1" to-layer="684" to-port="3"/>
		<edge from-layer="683" from-port="1" to-layer="684" to-port="4"/>
		<edge from-layer="639" from-port="5" to-layer="686" to-port="0"/>
		<edge from-layer="684" from-port="5" to-layer="686" to-port="1"/>
		<edge from-layer="685" from-port="1" to-layer="686" to-port="2"/>
		<edge from-layer="686" from-port="3" to-layer="691" to-port="0"/>
		<edge from-layer="687" from-port="1" to-layer="691" to-port="1"/>
		<edge from-layer="688" from-port="1" to-layer="691" to-port="2"/>
		<edge from-layer="689" from-port="1" to-layer="691" to-port="3"/>
		<edge from-layer="690" from-port="1" to-layer="691" to-port="4"/>
		<edge from-layer="678" from-port="5" to-layer="692" to-port="0"/>
		<edge from-layer="691" from-port="5" to-layer="692" to-port="1"/>
		<edge from-layer="692" from-port="2" to-layer="697" to-port="0"/>
		<edge from-layer="693" from-port="1" to-layer="697" to-port="1"/>
		<edge from-layer="694" from-port="1" to-layer="697" to-port="2"/>
		<edge from-layer="695" from-port="1" to-layer="697" to-port="3"/>
		<edge from-layer="696" from-port="1" to-layer="697" to-port="4"/>
		<edge from-layer="698" from-port="1" to-layer="703" to-port="0"/>
		<edge from-layer="699" from-port="1" to-layer="703" to-port="1"/>
		<edge from-layer="700" from-port="1" to-layer="703" to-port="2"/>
		<edge from-layer="701" from-port="1" to-layer="703" to-port="3"/>
		<edge from-layer="702" from-port="1" to-layer="703" to-port="4"/>
		<edge from-layer="697" from-port="5" to-layer="705" to-port="0"/>
		<edge from-layer="703" from-port="5" to-layer="705" to-port="1"/>
		<edge from-layer="704" from-port="1" to-layer="705" to-port="2"/>
		<edge from-layer="705" from-port="3" to-layer="710" to-port="0"/>
		<edge from-layer="706" from-port="1" to-layer="710" to-port="1"/>
		<edge from-layer="707" from-port="1" to-layer="710" to-port="2"/>
		<edge from-layer="708" from-port="1" to-layer="710" to-port="3"/>
		<edge from-layer="709" from-port="1" to-layer="710" to-port="4"/>
		<edge from-layer="711" from-port="1" to-layer="716" to-port="0"/>
		<edge from-layer="712" from-port="1" to-layer="716" to-port="1"/>
		<edge from-layer="713" from-port="1" to-layer="716" to-port="2"/>
		<edge from-layer="714" from-port="1" to-layer="716" to-port="3"/>
		<edge from-layer="715" from-port="1" to-layer="716" to-port="4"/>
		<edge from-layer="710" from-port="5" to-layer="718" to-port="0"/>
		<edge from-layer="716" from-port="5" to-layer="718" to-port="1"/>
		<edge from-layer="717" from-port="1" to-layer="718" to-port="2"/>
		<edge from-layer="718" from-port="3" to-layer="723" to-port="0"/>
		<edge from-layer="719" from-port="1" to-layer="723" to-port="1"/>
		<edge from-layer="720" from-port="1" to-layer="723" to-port="2"/>
		<edge from-layer="721" from-port="1" to-layer="723" to-port="3"/>
		<edge from-layer="722" from-port="1" to-layer="723" to-port="4"/>
		<edge from-layer="724" from-port="1" to-layer="729" to-port="0"/>
		<edge from-layer="725" from-port="1" to-layer="729" to-port="1"/>
		<edge from-layer="726" from-port="1" to-layer="729" to-port="2"/>
		<edge from-layer="727" from-port="1" to-layer="729" to-port="3"/>
		<edge from-layer="728" from-port="1" to-layer="729" to-port="4"/>
		<edge from-layer="723" from-port="5" to-layer="731" to-port="0"/>
		<edge from-layer="729" from-port="5" to-layer="731" to-port="1"/>
		<edge from-layer="730" from-port="1" to-layer="731" to-port="2"/>
		<edge from-layer="731" from-port="3" to-layer="736" to-port="0"/>
		<edge from-layer="732" from-port="1" to-layer="736" to-port="1"/>
		<edge from-layer="733" from-port="1" to-layer="736" to-port="2"/>
		<edge from-layer="734" from-port="1" to-layer="736" to-port="3"/>
		<edge from-layer="735" from-port="1" to-layer="736" to-port="4"/>
		<edge from-layer="736" from-port="5" to-layer="737" to-port="0"/>
		<edge from-layer="697" from-port="5" to-layer="737" to-port="1"/>
		<edge from-layer="737" from-port="2" to-layer="742" to-port="0"/>
		<edge from-layer="738" from-port="1" to-layer="742" to-port="1"/>
		<edge from-layer="739" from-port="1" to-layer="742" to-port="2"/>
		<edge from-layer="740" from-port="1" to-layer="742" to-port="3"/>
		<edge from-layer="741" from-port="1" to-layer="742" to-port="4"/>
		<edge from-layer="743" from-port="1" to-layer="748" to-port="0"/>
		<edge from-layer="744" from-port="1" to-layer="748" to-port="1"/>
		<edge from-layer="745" from-port="1" to-layer="748" to-port="2"/>
		<edge from-layer="746" from-port="1" to-layer="748" to-port="3"/>
		<edge from-layer="747" from-port="1" to-layer="748" to-port="4"/>
		<edge from-layer="742" from-port="5" to-layer="750" to-port="0"/>
		<edge from-layer="748" from-port="5" to-layer="750" to-port="1"/>
		<edge from-layer="749" from-port="1" to-layer="750" to-port="2"/>
		<edge from-layer="750" from-port="3" to-layer="755" to-port="0"/>
		<edge from-layer="751" from-port="1" to-layer="755" to-port="1"/>
		<edge from-layer="752" from-port="1" to-layer="755" to-port="2"/>
		<edge from-layer="753" from-port="1" to-layer="755" to-port="3"/>
		<edge from-layer="754" from-port="1" to-layer="755" to-port="4"/>
		<edge from-layer="756" from-port="1" to-layer="761" to-port="0"/>
		<edge from-layer="757" from-port="1" to-layer="761" to-port="1"/>
		<edge from-layer="758" from-port="1" to-layer="761" to-port="2"/>
		<edge from-layer="759" from-port="1" to-layer="761" to-port="3"/>
		<edge from-layer="760" from-port="1" to-layer="761" to-port="4"/>
		<edge from-layer="755" from-port="5" to-layer="763" to-port="0"/>
		<edge from-layer="761" from-port="5" to-layer="763" to-port="1"/>
		<edge from-layer="762" from-port="1" to-layer="763" to-port="2"/>
		<edge from-layer="763" from-port="3" to-layer="768" to-port="0"/>
		<edge from-layer="764" from-port="1" to-layer="768" to-port="1"/>
		<edge from-layer="765" from-port="1" to-layer="768" to-port="2"/>
		<edge from-layer="766" from-port="1" to-layer="768" to-port="3"/>
		<edge from-layer="767" from-port="1" to-layer="768" to-port="4"/>
		<edge from-layer="769" from-port="1" to-layer="774" to-port="0"/>
		<edge from-layer="770" from-port="1" to-layer="774" to-port="1"/>
		<edge from-layer="771" from-port="1" to-layer="774" to-port="2"/>
		<edge from-layer="772" from-port="1" to-layer="774" to-port="3"/>
		<edge from-layer="773" from-port="1" to-layer="774" to-port="4"/>
		<edge from-layer="768" from-port="5" to-layer="776" to-port="0"/>
		<edge from-layer="774" from-port="5" to-layer="776" to-port="1"/>
		<edge from-layer="775" from-port="1" to-layer="776" to-port="2"/>
		<edge from-layer="776" from-port="3" to-layer="781" to-port="0"/>
		<edge from-layer="777" from-port="1" to-layer="781" to-port="1"/>
		<edge from-layer="778" from-port="1" to-layer="781" to-port="2"/>
		<edge from-layer="779" from-port="1" to-layer="781" to-port="3"/>
		<edge from-layer="780" from-port="1" to-layer="781" to-port="4"/>
		<edge from-layer="781" from-port="5" to-layer="782" to-port="0"/>
		<edge from-layer="742" from-port="5" to-layer="782" to-port="1"/>
		<edge from-layer="782" from-port="2" to-layer="788" to-port="0"/>
		<edge from-layer="784" from-port="1" to-layer="788" to-port="1"/>
		<edge from-layer="785" from-port="1" to-layer="788" to-port="2"/>
		<edge from-layer="786" from-port="1" to-layer="788" to-port="3"/>
		<edge from-layer="787" from-port="1" to-layer="788" to-port="4"/>
		<edge from-layer="788" from-port="5" to-layer="791" to-port="0"/>
		<edge from-layer="791" from-port="1" to-layer="803" to-port="0"/>
		<edge from-layer="796" from-port="1" to-layer="801" to-port="0"/>
		<edge from-layer="797" from-port="1" to-layer="801" to-port="1"/>
		<edge from-layer="798" from-port="1" to-layer="801" to-port="2"/>
		<edge from-layer="799" from-port="1" to-layer="801" to-port="3"/>
		<edge from-layer="800" from-port="1" to-layer="801" to-port="4"/>
		<edge from-layer="801" from-port="5" to-layer="803" to-port="1"/>
		<edge from-layer="802" from-port="1" to-layer="803" to-port="2"/>
		<edge from-layer="803" from-port="3" to-layer="808" to-port="0"/>
		<edge from-layer="804" from-port="1" to-layer="808" to-port="1"/>
		<edge from-layer="805" from-port="1" to-layer="808" to-port="2"/>
		<edge from-layer="806" from-port="1" to-layer="808" to-port="3"/>
		<edge from-layer="807" from-port="1" to-layer="808" to-port="4"/>
	</edges>
	<meta_data>
		<MO_version value="unknown version"/>
		<cli_parameters>
			<blobs_as_inputs value="True"/>
			<caffe_parser_path value="DIR"/>
			<data_type value="FP32"/>
			<disable_nhwc_to_nchw value="False"/>
			<disable_omitting_optional value="False"/>
			<disable_resnet_optimization value="False"/>
			<enable_concat_optimization value="False"/>
			<enable_flattening_nested_params value="False"/>
			<enable_ssd_gluoncv value="False"/>
			<extensions value="DIR"/>
			<framework value="tf"/>
			<freeze_placeholder_with_value value="{}"/>
			<generate_deprecated_IR_V2 value="False"/>
			<generate_deprecated_IR_V7 value="True"/>
			<generate_experimental_IR_V10 value="False"/>
			<generate_new_TI value="False"/>
			<input value="input"/>
			<input_model value="DIR/resnet50_224.pb"/>
			<input_model_is_text value="False"/>
			<input_shape value="[1,224,224,3]"/>
			<k value="DIR/CustomLayersMapping.xml"/>
			<keep_quantize_ops_in_IR value="True"/>
			<keep_shape_ops value="False"/>
			<legacy_mxnet_model value="False"/>
			<log_level value="ERROR"/>
			<mean_scale_values value="{}"/>
			<mean_values value="()"/>
			<model_name value="resnet50_224"/>
			<move_to_preprocess value="False"/>
			<output_dir value="DIR"/>
			<placeholder_shapes value="{'input': array([  1, 224, 224,   3])}"/>
			<progress value="False"/>
			<remove_memory value="False"/>
			<remove_output_softmax value="False"/>
			<reverse_input_channels value="False"/>
			<save_params_from_nd value="False"/>
			<scale_values value="()"/>
			<silent value="False"/>
			<stream_output value="False"/>
			<unset unset_cli_parameters="batch, counts, disable_fusing, disable_gfusing, finegrain_fusing, input_checkpoint, input_meta_graph, input_proto, input_symbol, mean_file, mean_file_offsets, nd_prefix_name, output, pretrained_model_name, saved_model_dir, saved_model_tags, scale, tensorboard_logdir, tensorflow_custom_layer_libraries, tensorflow_custom_operations_config_update, tensorflow_object_detection_api_pipeline_config, tensorflow_operation_patterns, tensorflow_subgraph_patterns, tensorflow_use_custom_operations_config, transformations_config"/>
		</cli_parameters>
	</meta_data>
</net>
