<?xml version="1.0" ?>
<net batch="1" name="inception-v1_tf_uint8_int8_weights_pertensor" version="6">
	<layers>
		<layer id="0" name="input" precision="FP32" type="Input">
			<output>
				<port id="0">
					<dim>1</dim>
					<dim>3</dim>
					<dim>224</dim>
					<dim>224</dim>
				</port>
			</output>
		</layer>
		<layer id="1" name="Mul_/Fused_Mul_/FusedScaleShift_" precision="FP32" type="ScaleShift">
			<input>
				<port id="0">
					<dim>1</dim>
					<dim>3</dim>
					<dim>224</dim>
					<dim>224</dim>
				</port>
			</input>
			<output>
				<port id="3">
					<dim>1</dim>
					<dim>3</dim>
					<dim>224</dim>
					<dim>224</dim>
				</port>
			</output>
			<blobs>
				<weights offset="0" size="12"/>
				<biases offset="12" size="12"/>
			</blobs>
		</layer>
		<layer id="2" name="1277712781_const" precision="FP32" type="Const">
			<output>
				<port id="1"/>
			</output>
			<blobs>
				<custom offset="24" size="4"/>
			</blobs>
		</layer>
		<layer id="3" name="1277812782_const" precision="FP32" type="Const">
			<output>
				<port id="1"/>
			</output>
			<blobs>
				<custom offset="28" size="4"/>
			</blobs>
		</layer>
		<layer id="4" name="1277912783_const" precision="FP32" type="Const">
			<output>
				<port id="1"/>
			</output>
			<blobs>
				<custom offset="24" size="4"/>
			</blobs>
		</layer>
		<layer id="5" name="1278012784_const" precision="FP32" type="Const">
			<output>
				<port id="1"/>
			</output>
			<blobs>
				<custom offset="28" size="4"/>
			</blobs>
		</layer>
		<layer id="6" name="InceptionV1/InceptionV1/Conv2d_1a_7x7/convolution/fq_input_0" precision="FP32" type="FakeQuantize">
			<data levels="256.0"/>
			<input>
				<port id="0">
					<dim>1</dim>
					<dim>3</dim>
					<dim>224</dim>
					<dim>224</dim>
				</port>
				<port id="1"/>
				<port id="2"/>
				<port id="3"/>
				<port id="4"/>
			</input>
			<output>
				<port id="5">
					<dim>1</dim>
					<dim>3</dim>
					<dim>224</dim>
					<dim>224</dim>
				</port>
			</output>
		</layer>
		<layer id="7" name="InceptionV1/InceptionV1/Conv2d_1a_7x7/BatchNorm/batchnorm/mul70647066_const" precision="FP32" type="Const">
			<output>
				<port id="1">
					<dim>64</dim>
					<dim>3</dim>
					<dim>7</dim>
					<dim>7</dim>
				</port>
			</output>
			<blobs>
				<custom offset="32" size="37632"/>
			</blobs>
		</layer>
		<layer id="8" name="1278712791_const" precision="FP32" type="Const">
			<output>
				<port id="1"/>
			</output>
			<blobs>
				<custom offset="37664" size="4"/>
			</blobs>
		</layer>
		<layer id="9" name="1278812792_const" precision="FP32" type="Const">
			<output>
				<port id="1"/>
			</output>
			<blobs>
				<custom offset="37668" size="4"/>
			</blobs>
		</layer>
		<layer id="10" name="1278912793_const" precision="FP32" type="Const">
			<output>
				<port id="1"/>
			</output>
			<blobs>
				<custom offset="37664" size="4"/>
			</blobs>
		</layer>
		<layer id="11" name="1279012794_const" precision="FP32" type="Const">
			<output>
				<port id="1"/>
			</output>
			<blobs>
				<custom offset="37668" size="4"/>
			</blobs>
		</layer>
		<layer id="12" name="InceptionV1/InceptionV1/Conv2d_1a_7x7/convolution/fq_weights_1" precision="FP32" type="FakeQuantize">
			<data levels="255.0"/>
			<input>
				<port id="0">
					<dim>64</dim>
					<dim>3</dim>
					<dim>7</dim>
					<dim>7</dim>
				</port>
				<port id="1"/>
				<port id="2"/>
				<port id="3"/>
				<port id="4"/>
			</input>
			<output>
				<port id="5">
					<dim>64</dim>
					<dim>3</dim>
					<dim>7</dim>
					<dim>7</dim>
				</port>
			</output>
		</layer>
		<layer id="13" name="bias_data7068_const" precision="FP32" type="Const">
			<output>
				<port id="1">
					<dim>64</dim>
				</port>
			</output>
			<blobs>
				<custom offset="37672" size="256"/>
			</blobs>
		</layer>
		<layer id="14" name="InceptionV1/InceptionV1/Conv2d_1a_7x7/convolution" precision="FP32" type="Convolution">
			<data auto_pad="same_upper" dilations="1,1" group="1" kernel="7,7" output="64" pads_begin="2,2" pads_end="3,3" strides="2,2"/>
			<input>
				<port id="0">
					<dim>1</dim>
					<dim>3</dim>
					<dim>224</dim>
					<dim>224</dim>
				</port>
				<port id="1">
					<dim>64</dim>
					<dim>3</dim>
					<dim>7</dim>
					<dim>7</dim>
				</port>
				<port id="2">
					<dim>64</dim>
				</port>
			</input>
			<output>
				<port id="3">
					<dim>1</dim>
					<dim>64</dim>
					<dim>112</dim>
					<dim>112</dim>
				</port>
			</output>
		</layer>
		<layer id="15" name="InceptionV1/InceptionV1/Conv2d_1a_7x7/Relu" precision="FP32" type="ReLU">
			<input>
				<port id="0">
					<dim>1</dim>
					<dim>64</dim>
					<dim>112</dim>
					<dim>112</dim>
				</port>
			</input>
			<output>
				<port id="1">
					<dim>1</dim>
					<dim>64</dim>
					<dim>112</dim>
					<dim>112</dim>
				</port>
			</output>
		</layer>
		<layer id="16" name="1390913913_const" precision="FP32" type="Const">
			<output>
				<port id="1"/>
			</output>
			<blobs>
				<custom offset="37928" size="4"/>
			</blobs>
		</layer>
		<layer id="17" name="1391013914_const" precision="FP32" type="Const">
			<output>
				<port id="1"/>
			</output>
			<blobs>
				<custom offset="37932" size="4"/>
			</blobs>
		</layer>
		<layer id="18" name="1391113915_const" precision="FP32" type="Const">
			<output>
				<port id="1"/>
			</output>
			<blobs>
				<custom offset="37928" size="4"/>
			</blobs>
		</layer>
		<layer id="19" name="1391213916_const" precision="FP32" type="Const">
			<output>
				<port id="1"/>
			</output>
			<blobs>
				<custom offset="37932" size="4"/>
			</blobs>
		</layer>
		<layer id="20" name="InceptionV1/InceptionV1/MaxPool_2a_3x3/MaxPool/fq_input_0" precision="FP32" type="FakeQuantize">
			<data levels="256.0"/>
			<input>
				<port id="0">
					<dim>1</dim>
					<dim>64</dim>
					<dim>112</dim>
					<dim>112</dim>
				</port>
				<port id="1"/>
				<port id="2"/>
				<port id="3"/>
				<port id="4"/>
			</input>
			<output>
				<port id="5">
					<dim>1</dim>
					<dim>64</dim>
					<dim>112</dim>
					<dim>112</dim>
				</port>
			</output>
		</layer>
		<layer id="21" name="InceptionV1/InceptionV1/MaxPool_2a_3x3/MaxPool" precision="FP32" type="Pooling">
			<data auto_pad="same_upper" exclude-pad="true" kernel="3,3" pads_begin="0,0" pads_end="1,1" pool-method="max" strides="2,2"/>
			<input>
				<port id="0">
					<dim>1</dim>
					<dim>64</dim>
					<dim>112</dim>
					<dim>112</dim>
				</port>
			</input>
			<output>
				<port id="1">
					<dim>1</dim>
					<dim>64</dim>
					<dim>56</dim>
					<dim>56</dim>
				</port>
			</output>
		</layer>
		<layer id="22" name="InceptionV1/InceptionV1/Conv2d_2b_1x1/BatchNorm/batchnorm/mul70707072_const" precision="FP32" type="Const">
			<output>
				<port id="1">
					<dim>64</dim>
					<dim>64</dim>
					<dim>1</dim>
					<dim>1</dim>
				</port>
			</output>
			<blobs>
				<custom offset="37936" size="16384"/>
			</blobs>
		</layer>
		<layer id="23" name="1288712891_const" precision="FP32" type="Const">
			<output>
				<port id="1"/>
			</output>
			<blobs>
				<custom offset="54320" size="4"/>
			</blobs>
		</layer>
		<layer id="24" name="1288812892_const" precision="FP32" type="Const">
			<output>
				<port id="1"/>
			</output>
			<blobs>
				<custom offset="54324" size="4"/>
			</blobs>
		</layer>
		<layer id="25" name="1288912893_const" precision="FP32" type="Const">
			<output>
				<port id="1"/>
			</output>
			<blobs>
				<custom offset="54320" size="4"/>
			</blobs>
		</layer>
		<layer id="26" name="1289012894_const" precision="FP32" type="Const">
			<output>
				<port id="1"/>
			</output>
			<blobs>
				<custom offset="54324" size="4"/>
			</blobs>
		</layer>
		<layer id="27" name="InceptionV1/InceptionV1/Conv2d_2b_1x1/convolution/fq_weights_1" precision="FP32" type="FakeQuantize">
			<data levels="255.0"/>
			<input>
				<port id="0">
					<dim>64</dim>
					<dim>64</dim>
					<dim>1</dim>
					<dim>1</dim>
				</port>
				<port id="1"/>
				<port id="2"/>
				<port id="3"/>
				<port id="4"/>
			</input>
			<output>
				<port id="5">
					<dim>64</dim>
					<dim>64</dim>
					<dim>1</dim>
					<dim>1</dim>
				</port>
			</output>
		</layer>
		<layer id="28" name="bias_data70737074_const" precision="FP32" type="Const">
			<output>
				<port id="1">
					<dim>64</dim>
				</port>
			</output>
			<blobs>
				<custom offset="54328" size="256"/>
			</blobs>
		</layer>
		<layer id="29" name="InceptionV1/InceptionV1/Conv2d_2b_1x1/convolution" precision="FP32" type="Convolution">
			<data auto_pad="same_upper" dilations="1,1" group="1" kernel="1,1" output="64" pads_begin="0,0" pads_end="0,0" strides="1,1"/>
			<input>
				<port id="0">
					<dim>1</dim>
					<dim>64</dim>
					<dim>56</dim>
					<dim>56</dim>
				</port>
				<port id="1">
					<dim>64</dim>
					<dim>64</dim>
					<dim>1</dim>
					<dim>1</dim>
				</port>
				<port id="2">
					<dim>64</dim>
				</port>
			</input>
			<output>
				<port id="3">
					<dim>1</dim>
					<dim>64</dim>
					<dim>56</dim>
					<dim>56</dim>
				</port>
			</output>
		</layer>
		<layer id="30" name="InceptionV1/InceptionV1/Conv2d_2b_1x1/Relu" precision="FP32" type="ReLU">
			<input>
				<port id="0">
					<dim>1</dim>
					<dim>64</dim>
					<dim>56</dim>
					<dim>56</dim>
				</port>
			</input>
			<output>
				<port id="1">
					<dim>1</dim>
					<dim>64</dim>
					<dim>56</dim>
					<dim>56</dim>
				</port>
			</output>
		</layer>
		<layer id="31" name="1289712901_const" precision="FP32" type="Const">
			<output>
				<port id="1"/>
			</output>
			<blobs>
				<custom offset="37928" size="4"/>
			</blobs>
		</layer>
		<layer id="32" name="1289812902_const" precision="FP32" type="Const">
			<output>
				<port id="1"/>
			</output>
			<blobs>
				<custom offset="54584" size="4"/>
			</blobs>
		</layer>
		<layer id="33" name="1289912903_const" precision="FP32" type="Const">
			<output>
				<port id="1"/>
			</output>
			<blobs>
				<custom offset="37928" size="4"/>
			</blobs>
		</layer>
		<layer id="34" name="1290012904_const" precision="FP32" type="Const">
			<output>
				<port id="1"/>
			</output>
			<blobs>
				<custom offset="54584" size="4"/>
			</blobs>
		</layer>
		<layer id="35" name="InceptionV1/InceptionV1/Conv2d_2c_3x3/convolution/fq_input_0" precision="FP32" type="FakeQuantize">
			<data levels="256.0"/>
			<input>
				<port id="0">
					<dim>1</dim>
					<dim>64</dim>
					<dim>56</dim>
					<dim>56</dim>
				</port>
				<port id="1"/>
				<port id="2"/>
				<port id="3"/>
				<port id="4"/>
			</input>
			<output>
				<port id="5">
					<dim>1</dim>
					<dim>64</dim>
					<dim>56</dim>
					<dim>56</dim>
				</port>
			</output>
		</layer>
		<layer id="36" name="InceptionV1/InceptionV1/Conv2d_2c_3x3/BatchNorm/batchnorm/mul70767078_const" precision="FP32" type="Const">
			<output>
				<port id="1">
					<dim>192</dim>
					<dim>64</dim>
					<dim>3</dim>
					<dim>3</dim>
				</port>
			</output>
			<blobs>
				<custom offset="54588" size="442368"/>
			</blobs>
		</layer>
		<layer id="37" name="1290712911_const" precision="FP32" type="Const">
			<output>
				<port id="1"/>
			</output>
			<blobs>
				<custom offset="496956" size="4"/>
			</blobs>
		</layer>
		<layer id="38" name="1290812912_const" precision="FP32" type="Const">
			<output>
				<port id="1"/>
			</output>
			<blobs>
				<custom offset="496960" size="4"/>
			</blobs>
		</layer>
		<layer id="39" name="1290912913_const" precision="FP32" type="Const">
			<output>
				<port id="1"/>
			</output>
			<blobs>
				<custom offset="496956" size="4"/>
			</blobs>
		</layer>
		<layer id="40" name="1291012914_const" precision="FP32" type="Const">
			<output>
				<port id="1"/>
			</output>
			<blobs>
				<custom offset="496960" size="4"/>
			</blobs>
		</layer>
		<layer id="41" name="InceptionV1/InceptionV1/Conv2d_2c_3x3/convolution/fq_weights_1" precision="FP32" type="FakeQuantize">
			<data levels="255.0"/>
			<input>
				<port id="0">
					<dim>192</dim>
					<dim>64</dim>
					<dim>3</dim>
					<dim>3</dim>
				</port>
				<port id="1"/>
				<port id="2"/>
				<port id="3"/>
				<port id="4"/>
			</input>
			<output>
				<port id="5">
					<dim>192</dim>
					<dim>64</dim>
					<dim>3</dim>
					<dim>3</dim>
				</port>
			</output>
		</layer>
		<layer id="42" name="bias_data70797080_const" precision="FP32" type="Const">
			<output>
				<port id="1">
					<dim>192</dim>
				</port>
			</output>
			<blobs>
				<custom offset="496964" size="768"/>
			</blobs>
		</layer>
		<layer id="43" name="InceptionV1/InceptionV1/Conv2d_2c_3x3/convolution" precision="FP32" type="Convolution">
			<data auto_pad="same_upper" dilations="1,1" group="1" kernel="3,3" output="192" pads_begin="1,1" pads_end="1,1" strides="1,1"/>
			<input>
				<port id="0">
					<dim>1</dim>
					<dim>64</dim>
					<dim>56</dim>
					<dim>56</dim>
				</port>
				<port id="1">
					<dim>192</dim>
					<dim>64</dim>
					<dim>3</dim>
					<dim>3</dim>
				</port>
				<port id="2">
					<dim>192</dim>
				</port>
			</input>
			<output>
				<port id="3">
					<dim>1</dim>
					<dim>192</dim>
					<dim>56</dim>
					<dim>56</dim>
				</port>
			</output>
		</layer>
		<layer id="44" name="InceptionV1/InceptionV1/Conv2d_2c_3x3/Relu" precision="FP32" type="ReLU">
			<input>
				<port id="0">
					<dim>1</dim>
					<dim>192</dim>
					<dim>56</dim>
					<dim>56</dim>
				</port>
			</input>
			<output>
				<port id="1">
					<dim>1</dim>
					<dim>192</dim>
					<dim>56</dim>
					<dim>56</dim>
				</port>
			</output>
		</layer>
		<layer id="45" name="1364913653_const" precision="FP32" type="Const">
			<output>
				<port id="1"/>
			</output>
			<blobs>
				<custom offset="37928" size="4"/>
			</blobs>
		</layer>
		<layer id="46" name="1365013654_const" precision="FP32" type="Const">
			<output>
				<port id="1"/>
			</output>
			<blobs>
				<custom offset="497732" size="4"/>
			</blobs>
		</layer>
		<layer id="47" name="1365113655_const" precision="FP32" type="Const">
			<output>
				<port id="1"/>
			</output>
			<blobs>
				<custom offset="37928" size="4"/>
			</blobs>
		</layer>
		<layer id="48" name="1365213656_const" precision="FP32" type="Const">
			<output>
				<port id="1"/>
			</output>
			<blobs>
				<custom offset="497732" size="4"/>
			</blobs>
		</layer>
		<layer id="49" name="InceptionV1/InceptionV1/MaxPool_3a_3x3/MaxPool/fq_input_0" precision="FP32" type="FakeQuantize">
			<data levels="256.0"/>
			<input>
				<port id="0">
					<dim>1</dim>
					<dim>192</dim>
					<dim>56</dim>
					<dim>56</dim>
				</port>
				<port id="1"/>
				<port id="2"/>
				<port id="3"/>
				<port id="4"/>
			</input>
			<output>
				<port id="5">
					<dim>1</dim>
					<dim>192</dim>
					<dim>56</dim>
					<dim>56</dim>
				</port>
			</output>
		</layer>
		<layer id="50" name="InceptionV1/InceptionV1/MaxPool_3a_3x3/MaxPool" precision="FP32" type="Pooling">
			<data auto_pad="same_upper" exclude-pad="true" kernel="3,3" pads_begin="0,0" pads_end="1,1" pool-method="max" strides="2,2"/>
			<input>
				<port id="0">
					<dim>1</dim>
					<dim>192</dim>
					<dim>56</dim>
					<dim>56</dim>
				</port>
			</input>
			<output>
				<port id="1">
					<dim>1</dim>
					<dim>192</dim>
					<dim>28</dim>
					<dim>28</dim>
				</port>
			</output>
		</layer>
		<layer id="51" name="InceptionV1/InceptionV1/Mixed_3b/Branch_0/Conv2d_0a_1x1/BatchNorm/batchnorm/mul71127114_const" precision="FP32" type="Const">
			<output>
				<port id="1">
					<dim>64</dim>
					<dim>192</dim>
					<dim>1</dim>
					<dim>1</dim>
				</port>
			</output>
			<blobs>
				<custom offset="497736" size="49152"/>
			</blobs>
		</layer>
		<layer id="52" name="1205712061_const" precision="FP32" type="Const">
			<output>
				<port id="1"/>
			</output>
			<blobs>
				<custom offset="546888" size="4"/>
			</blobs>
		</layer>
		<layer id="53" name="1205812062_const" precision="FP32" type="Const">
			<output>
				<port id="1"/>
			</output>
			<blobs>
				<custom offset="546892" size="4"/>
			</blobs>
		</layer>
		<layer id="54" name="1205912063_const" precision="FP32" type="Const">
			<output>
				<port id="1"/>
			</output>
			<blobs>
				<custom offset="546888" size="4"/>
			</blobs>
		</layer>
		<layer id="55" name="1206012064_const" precision="FP32" type="Const">
			<output>
				<port id="1"/>
			</output>
			<blobs>
				<custom offset="546892" size="4"/>
			</blobs>
		</layer>
		<layer id="56" name="InceptionV1/InceptionV1/Mixed_3b/Branch_0/Conv2d_0a_1x1/convolution/fq_weights_1" precision="FP32" type="FakeQuantize">
			<data levels="255.0"/>
			<input>
				<port id="0">
					<dim>64</dim>
					<dim>192</dim>
					<dim>1</dim>
					<dim>1</dim>
				</port>
				<port id="1"/>
				<port id="2"/>
				<port id="3"/>
				<port id="4"/>
			</input>
			<output>
				<port id="5">
					<dim>64</dim>
					<dim>192</dim>
					<dim>1</dim>
					<dim>1</dim>
				</port>
			</output>
		</layer>
		<layer id="57" name="bias_data71157116_const" precision="FP32" type="Const">
			<output>
				<port id="1">
					<dim>64</dim>
				</port>
			</output>
			<blobs>
				<custom offset="546896" size="256"/>
			</blobs>
		</layer>
		<layer id="58" name="InceptionV1/InceptionV1/Mixed_3b/Branch_0/Conv2d_0a_1x1/convolution" precision="FP32" type="Convolution">
			<data auto_pad="same_upper" dilations="1,1" group="1" kernel="1,1" output="64" pads_begin="0,0" pads_end="0,0" strides="1,1"/>
			<input>
				<port id="0">
					<dim>1</dim>
					<dim>192</dim>
					<dim>28</dim>
					<dim>28</dim>
				</port>
				<port id="1">
					<dim>64</dim>
					<dim>192</dim>
					<dim>1</dim>
					<dim>1</dim>
				</port>
				<port id="2">
					<dim>64</dim>
				</port>
			</input>
			<output>
				<port id="3">
					<dim>1</dim>
					<dim>64</dim>
					<dim>28</dim>
					<dim>28</dim>
				</port>
			</output>
		</layer>
		<layer id="59" name="InceptionV1/InceptionV1/Mixed_3b/Branch_0/Conv2d_0a_1x1/Relu" precision="FP32" type="ReLU">
			<input>
				<port id="0">
					<dim>1</dim>
					<dim>64</dim>
					<dim>28</dim>
					<dim>28</dim>
				</port>
			</input>
			<output>
				<port id="1">
					<dim>1</dim>
					<dim>64</dim>
					<dim>28</dim>
					<dim>28</dim>
				</port>
			</output>
		</layer>
		<layer id="60" name="1402914033_const" precision="FP32" type="Const">
			<output>
				<port id="1"/>
			</output>
			<blobs>
				<custom offset="37928" size="4"/>
			</blobs>
		</layer>
		<layer id="61" name="1403014034_const" precision="FP32" type="Const">
			<output>
				<port id="1"/>
			</output>
			<blobs>
				<custom offset="547152" size="4"/>
			</blobs>
		</layer>
		<layer id="62" name="1403114035_const" precision="FP32" type="Const">
			<output>
				<port id="1"/>
			</output>
			<blobs>
				<custom offset="37928" size="4"/>
			</blobs>
		</layer>
		<layer id="63" name="1403214036_const" precision="FP32" type="Const">
			<output>
				<port id="1"/>
			</output>
			<blobs>
				<custom offset="547152" size="4"/>
			</blobs>
		</layer>
		<layer id="64" name="InceptionV1/InceptionV1/Mixed_3b/concat_v2/fq_input_0" precision="FP32" type="FakeQuantize">
			<data levels="256.0"/>
			<input>
				<port id="0">
					<dim>1</dim>
					<dim>64</dim>
					<dim>28</dim>
					<dim>28</dim>
				</port>
				<port id="1"/>
				<port id="2"/>
				<port id="3"/>
				<port id="4"/>
			</input>
			<output>
				<port id="5">
					<dim>1</dim>
					<dim>64</dim>
					<dim>28</dim>
					<dim>28</dim>
				</port>
			</output>
		</layer>
		<layer id="65" name="InceptionV1/InceptionV1/Mixed_3b/Branch_1/Conv2d_0a_1x1/BatchNorm/batchnorm/mul71007102_const" precision="FP32" type="Const">
			<output>
				<port id="1">
					<dim>96</dim>
					<dim>192</dim>
					<dim>1</dim>
					<dim>1</dim>
				</port>
			</output>
			<blobs>
				<custom offset="547156" size="73728"/>
			</blobs>
		</layer>
		<layer id="66" name="1188711891_const" precision="FP32" type="Const">
			<output>
				<port id="1"/>
			</output>
			<blobs>
				<custom offset="620884" size="4"/>
			</blobs>
		</layer>
		<layer id="67" name="1188811892_const" precision="FP32" type="Const">
			<output>
				<port id="1"/>
			</output>
			<blobs>
				<custom offset="620888" size="4"/>
			</blobs>
		</layer>
		<layer id="68" name="1188911893_const" precision="FP32" type="Const">
			<output>
				<port id="1"/>
			</output>
			<blobs>
				<custom offset="620884" size="4"/>
			</blobs>
		</layer>
		<layer id="69" name="1189011894_const" precision="FP32" type="Const">
			<output>
				<port id="1"/>
			</output>
			<blobs>
				<custom offset="620888" size="4"/>
			</blobs>
		</layer>
		<layer id="70" name="InceptionV1/InceptionV1/Mixed_3b/Branch_1/Conv2d_0a_1x1/convolution/fq_weights_1" precision="FP32" type="FakeQuantize">
			<data levels="255.0"/>
			<input>
				<port id="0">
					<dim>96</dim>
					<dim>192</dim>
					<dim>1</dim>
					<dim>1</dim>
				</port>
				<port id="1"/>
				<port id="2"/>
				<port id="3"/>
				<port id="4"/>
			</input>
			<output>
				<port id="5">
					<dim>96</dim>
					<dim>192</dim>
					<dim>1</dim>
					<dim>1</dim>
				</port>
			</output>
		</layer>
		<layer id="71" name="bias_data71037104_const" precision="FP32" type="Const">
			<output>
				<port id="1">
					<dim>96</dim>
				</port>
			</output>
			<blobs>
				<custom offset="620892" size="384"/>
			</blobs>
		</layer>
		<layer id="72" name="InceptionV1/InceptionV1/Mixed_3b/Branch_1/Conv2d_0a_1x1/convolution" precision="FP32" type="Convolution">
			<data auto_pad="same_upper" dilations="1,1" group="1" kernel="1,1" output="96" pads_begin="0,0" pads_end="0,0" strides="1,1"/>
			<input>
				<port id="0">
					<dim>1</dim>
					<dim>192</dim>
					<dim>28</dim>
					<dim>28</dim>
				</port>
				<port id="1">
					<dim>96</dim>
					<dim>192</dim>
					<dim>1</dim>
					<dim>1</dim>
				</port>
				<port id="2">
					<dim>96</dim>
				</port>
			</input>
			<output>
				<port id="3">
					<dim>1</dim>
					<dim>96</dim>
					<dim>28</dim>
					<dim>28</dim>
				</port>
			</output>
		</layer>
		<layer id="73" name="InceptionV1/InceptionV1/Mixed_3b/Branch_1/Conv2d_0a_1x1/Relu" precision="FP32" type="ReLU">
			<input>
				<port id="0">
					<dim>1</dim>
					<dim>96</dim>
					<dim>28</dim>
					<dim>28</dim>
				</port>
			</input>
			<output>
				<port id="1">
					<dim>1</dim>
					<dim>96</dim>
					<dim>28</dim>
					<dim>28</dim>
				</port>
			</output>
		</layer>
		<layer id="74" name="1198711991_const" precision="FP32" type="Const">
			<output>
				<port id="1"/>
			</output>
			<blobs>
				<custom offset="37928" size="4"/>
			</blobs>
		</layer>
		<layer id="75" name="1198811992_const" precision="FP32" type="Const">
			<output>
				<port id="1"/>
			</output>
			<blobs>
				<custom offset="621276" size="4"/>
			</blobs>
		</layer>
		<layer id="76" name="1198911993_const" precision="FP32" type="Const">
			<output>
				<port id="1"/>
			</output>
			<blobs>
				<custom offset="37928" size="4"/>
			</blobs>
		</layer>
		<layer id="77" name="1199011994_const" precision="FP32" type="Const">
			<output>
				<port id="1"/>
			</output>
			<blobs>
				<custom offset="621276" size="4"/>
			</blobs>
		</layer>
		<layer id="78" name="InceptionV1/InceptionV1/Mixed_3b/Branch_1/Conv2d_0b_3x3/convolution/fq_input_0" precision="FP32" type="FakeQuantize">
			<data levels="256.0"/>
			<input>
				<port id="0">
					<dim>1</dim>
					<dim>96</dim>
					<dim>28</dim>
					<dim>28</dim>
				</port>
				<port id="1"/>
				<port id="2"/>
				<port id="3"/>
				<port id="4"/>
			</input>
			<output>
				<port id="5">
					<dim>1</dim>
					<dim>96</dim>
					<dim>28</dim>
					<dim>28</dim>
				</port>
			</output>
		</layer>
		<layer id="79" name="InceptionV1/InceptionV1/Mixed_3b/Branch_1/Conv2d_0b_3x3/BatchNorm/batchnorm/mul71067108_const" precision="FP32" type="Const">
			<output>
				<port id="1">
					<dim>128</dim>
					<dim>96</dim>
					<dim>3</dim>
					<dim>3</dim>
				</port>
			</output>
			<blobs>
				<custom offset="621280" size="442368"/>
			</blobs>
		</layer>
		<layer id="80" name="1199712001_const" precision="FP32" type="Const">
			<output>
				<port id="1"/>
			</output>
			<blobs>
				<custom offset="1063648" size="4"/>
			</blobs>
		</layer>
		<layer id="81" name="1199812002_const" precision="FP32" type="Const">
			<output>
				<port id="1"/>
			</output>
			<blobs>
				<custom offset="1063652" size="4"/>
			</blobs>
		</layer>
		<layer id="82" name="1199912003_const" precision="FP32" type="Const">
			<output>
				<port id="1"/>
			</output>
			<blobs>
				<custom offset="1063648" size="4"/>
			</blobs>
		</layer>
		<layer id="83" name="1200012004_const" precision="FP32" type="Const">
			<output>
				<port id="1"/>
			</output>
			<blobs>
				<custom offset="1063652" size="4"/>
			</blobs>
		</layer>
		<layer id="84" name="InceptionV1/InceptionV1/Mixed_3b/Branch_1/Conv2d_0b_3x3/convolution/fq_weights_1" precision="FP32" type="FakeQuantize">
			<data levels="255.0"/>
			<input>
				<port id="0">
					<dim>128</dim>
					<dim>96</dim>
					<dim>3</dim>
					<dim>3</dim>
				</port>
				<port id="1"/>
				<port id="2"/>
				<port id="3"/>
				<port id="4"/>
			</input>
			<output>
				<port id="5">
					<dim>128</dim>
					<dim>96</dim>
					<dim>3</dim>
					<dim>3</dim>
				</port>
			</output>
		</layer>
		<layer id="85" name="bias_data71097110_const" precision="FP32" type="Const">
			<output>
				<port id="1">
					<dim>128</dim>
				</port>
			</output>
			<blobs>
				<custom offset="1063656" size="512"/>
			</blobs>
		</layer>
		<layer id="86" name="InceptionV1/InceptionV1/Mixed_3b/Branch_1/Conv2d_0b_3x3/convolution" precision="FP32" type="Convolution">
			<data auto_pad="same_upper" dilations="1,1" group="1" kernel="3,3" output="128" pads_begin="1,1" pads_end="1,1" strides="1,1"/>
			<input>
				<port id="0">
					<dim>1</dim>
					<dim>96</dim>
					<dim>28</dim>
					<dim>28</dim>
				</port>
				<port id="1">
					<dim>128</dim>
					<dim>96</dim>
					<dim>3</dim>
					<dim>3</dim>
				</port>
				<port id="2">
					<dim>128</dim>
				</port>
			</input>
			<output>
				<port id="3">
					<dim>1</dim>
					<dim>128</dim>
					<dim>28</dim>
					<dim>28</dim>
				</port>
			</output>
		</layer>
		<layer id="87" name="InceptionV1/InceptionV1/Mixed_3b/Branch_1/Conv2d_0b_3x3/Relu" precision="FP32" type="ReLU">
			<input>
				<port id="0">
					<dim>1</dim>
					<dim>128</dim>
					<dim>28</dim>
					<dim>28</dim>
				</port>
			</input>
			<output>
				<port id="1">
					<dim>1</dim>
					<dim>128</dim>
					<dim>28</dim>
					<dim>28</dim>
				</port>
			</output>
		</layer>
		<layer id="88" name="1403914043_const" precision="FP32" type="Const">
			<output>
				<port id="1"/>
			</output>
			<blobs>
				<custom offset="37928" size="4"/>
			</blobs>
		</layer>
		<layer id="89" name="1404014044_const" precision="FP32" type="Const">
			<output>
				<port id="1"/>
			</output>
			<blobs>
				<custom offset="1064168" size="4"/>
			</blobs>
		</layer>
		<layer id="90" name="1404114045_const" precision="FP32" type="Const">
			<output>
				<port id="1"/>
			</output>
			<blobs>
				<custom offset="37928" size="4"/>
			</blobs>
		</layer>
		<layer id="91" name="1404214046_const" precision="FP32" type="Const">
			<output>
				<port id="1"/>
			</output>
			<blobs>
				<custom offset="1064168" size="4"/>
			</blobs>
		</layer>
		<layer id="92" name="InceptionV1/InceptionV1/Mixed_3b/concat_v2/fq_input_1" precision="FP32" type="FakeQuantize">
			<data levels="256.0"/>
			<input>
				<port id="0">
					<dim>1</dim>
					<dim>128</dim>
					<dim>28</dim>
					<dim>28</dim>
				</port>
				<port id="1"/>
				<port id="2"/>
				<port id="3"/>
				<port id="4"/>
			</input>
			<output>
				<port id="5">
					<dim>1</dim>
					<dim>128</dim>
					<dim>28</dim>
					<dim>28</dim>
				</port>
			</output>
		</layer>
		<layer id="93" name="InceptionV1/InceptionV1/Mixed_3b/Branch_2/Conv2d_0a_1x1/BatchNorm/batchnorm/mul70827084_const" precision="FP32" type="Const">
			<output>
				<port id="1">
					<dim>16</dim>
					<dim>192</dim>
					<dim>1</dim>
					<dim>1</dim>
				</port>
			</output>
			<blobs>
				<custom offset="1064172" size="12288"/>
			</blobs>
		</layer>
		<layer id="94" name="1213712141_const" precision="FP32" type="Const">
			<output>
				<port id="1"/>
			</output>
			<blobs>
				<custom offset="1076460" size="4"/>
			</blobs>
		</layer>
		<layer id="95" name="1213812142_const" precision="FP32" type="Const">
			<output>
				<port id="1"/>
			</output>
			<blobs>
				<custom offset="1076464" size="4"/>
			</blobs>
		</layer>
		<layer id="96" name="1213912143_const" precision="FP32" type="Const">
			<output>
				<port id="1"/>
			</output>
			<blobs>
				<custom offset="1076460" size="4"/>
			</blobs>
		</layer>
		<layer id="97" name="1214012144_const" precision="FP32" type="Const">
			<output>
				<port id="1"/>
			</output>
			<blobs>
				<custom offset="1076464" size="4"/>
			</blobs>
		</layer>
		<layer id="98" name="InceptionV1/InceptionV1/Mixed_3b/Branch_2/Conv2d_0a_1x1/convolution/fq_weights_1" precision="FP32" type="FakeQuantize">
			<data levels="255.0"/>
			<input>
				<port id="0">
					<dim>16</dim>
					<dim>192</dim>
					<dim>1</dim>
					<dim>1</dim>
				</port>
				<port id="1"/>
				<port id="2"/>
				<port id="3"/>
				<port id="4"/>
			</input>
			<output>
				<port id="5">
					<dim>16</dim>
					<dim>192</dim>
					<dim>1</dim>
					<dim>1</dim>
				</port>
			</output>
		</layer>
		<layer id="99" name="bias_data70857086_const" precision="FP32" type="Const">
			<output>
				<port id="1">
					<dim>16</dim>
				</port>
			</output>
			<blobs>
				<custom offset="1076468" size="64"/>
			</blobs>
		</layer>
		<layer id="100" name="InceptionV1/InceptionV1/Mixed_3b/Branch_2/Conv2d_0a_1x1/convolution" precision="FP32" type="Convolution">
			<data auto_pad="same_upper" dilations="1,1" group="1" kernel="1,1" output="16" pads_begin="0,0" pads_end="0,0" strides="1,1"/>
			<input>
				<port id="0">
					<dim>1</dim>
					<dim>192</dim>
					<dim>28</dim>
					<dim>28</dim>
				</port>
				<port id="1">
					<dim>16</dim>
					<dim>192</dim>
					<dim>1</dim>
					<dim>1</dim>
				</port>
				<port id="2">
					<dim>16</dim>
				</port>
			</input>
			<output>
				<port id="3">
					<dim>1</dim>
					<dim>16</dim>
					<dim>28</dim>
					<dim>28</dim>
				</port>
			</output>
		</layer>
		<layer id="101" name="InceptionV1/InceptionV1/Mixed_3b/Branch_2/Conv2d_0a_1x1/Relu" precision="FP32" type="ReLU">
			<input>
				<port id="0">
					<dim>1</dim>
					<dim>16</dim>
					<dim>28</dim>
					<dim>28</dim>
				</port>
			</input>
			<output>
				<port id="1">
					<dim>1</dim>
					<dim>16</dim>
					<dim>28</dim>
					<dim>28</dim>
				</port>
			</output>
		</layer>
		<layer id="102" name="1222712231_const" precision="FP32" type="Const">
			<output>
				<port id="1"/>
			</output>
			<blobs>
				<custom offset="37928" size="4"/>
			</blobs>
		</layer>
		<layer id="103" name="1222812232_const" precision="FP32" type="Const">
			<output>
				<port id="1"/>
			</output>
			<blobs>
				<custom offset="1076532" size="4"/>
			</blobs>
		</layer>
		<layer id="104" name="1222912233_const" precision="FP32" type="Const">
			<output>
				<port id="1"/>
			</output>
			<blobs>
				<custom offset="37928" size="4"/>
			</blobs>
		</layer>
		<layer id="105" name="1223012234_const" precision="FP32" type="Const">
			<output>
				<port id="1"/>
			</output>
			<blobs>
				<custom offset="1076532" size="4"/>
			</blobs>
		</layer>
		<layer id="106" name="InceptionV1/InceptionV1/Mixed_3b/Branch_2/Conv2d_0b_3x3/convolution/fq_input_0" precision="FP32" type="FakeQuantize">
			<data levels="256.0"/>
			<input>
				<port id="0">
					<dim>1</dim>
					<dim>16</dim>
					<dim>28</dim>
					<dim>28</dim>
				</port>
				<port id="1"/>
				<port id="2"/>
				<port id="3"/>
				<port id="4"/>
			</input>
			<output>
				<port id="5">
					<dim>1</dim>
					<dim>16</dim>
					<dim>28</dim>
					<dim>28</dim>
				</port>
			</output>
		</layer>
		<layer id="107" name="InceptionV1/InceptionV1/Mixed_3b/Branch_2/Conv2d_0b_3x3/BatchNorm/batchnorm/mul70887090_const" precision="FP32" type="Const">
			<output>
				<port id="1">
					<dim>32</dim>
					<dim>16</dim>
					<dim>3</dim>
					<dim>3</dim>
				</port>
			</output>
			<blobs>
				<custom offset="1076536" size="18432"/>
			</blobs>
		</layer>
		<layer id="108" name="1223712241_const" precision="FP32" type="Const">
			<output>
				<port id="1"/>
			</output>
			<blobs>
				<custom offset="1094968" size="4"/>
			</blobs>
		</layer>
		<layer id="109" name="1223812242_const" precision="FP32" type="Const">
			<output>
				<port id="1"/>
			</output>
			<blobs>
				<custom offset="1094972" size="4"/>
			</blobs>
		</layer>
		<layer id="110" name="1223912243_const" precision="FP32" type="Const">
			<output>
				<port id="1"/>
			</output>
			<blobs>
				<custom offset="1094968" size="4"/>
			</blobs>
		</layer>
		<layer id="111" name="1224012244_const" precision="FP32" type="Const">
			<output>
				<port id="1"/>
			</output>
			<blobs>
				<custom offset="1094972" size="4"/>
			</blobs>
		</layer>
		<layer id="112" name="InceptionV1/InceptionV1/Mixed_3b/Branch_2/Conv2d_0b_3x3/convolution/fq_weights_1" precision="FP32" type="FakeQuantize">
			<data levels="255.0"/>
			<input>
				<port id="0">
					<dim>32</dim>
					<dim>16</dim>
					<dim>3</dim>
					<dim>3</dim>
				</port>
				<port id="1"/>
				<port id="2"/>
				<port id="3"/>
				<port id="4"/>
			</input>
			<output>
				<port id="5">
					<dim>32</dim>
					<dim>16</dim>
					<dim>3</dim>
					<dim>3</dim>
				</port>
			</output>
		</layer>
		<layer id="113" name="bias_data70917092_const" precision="FP32" type="Const">
			<output>
				<port id="1">
					<dim>32</dim>
				</port>
			</output>
			<blobs>
				<custom offset="1094976" size="128"/>
			</blobs>
		</layer>
		<layer id="114" name="InceptionV1/InceptionV1/Mixed_3b/Branch_2/Conv2d_0b_3x3/convolution" precision="FP32" type="Convolution">
			<data auto_pad="same_upper" dilations="1,1" group="1" kernel="3,3" output="32" pads_begin="1,1" pads_end="1,1" strides="1,1"/>
			<input>
				<port id="0">
					<dim>1</dim>
					<dim>16</dim>
					<dim>28</dim>
					<dim>28</dim>
				</port>
				<port id="1">
					<dim>32</dim>
					<dim>16</dim>
					<dim>3</dim>
					<dim>3</dim>
				</port>
				<port id="2">
					<dim>32</dim>
				</port>
			</input>
			<output>
				<port id="3">
					<dim>1</dim>
					<dim>32</dim>
					<dim>28</dim>
					<dim>28</dim>
				</port>
			</output>
		</layer>
		<layer id="115" name="InceptionV1/InceptionV1/Mixed_3b/Branch_2/Conv2d_0b_3x3/Relu" precision="FP32" type="ReLU">
			<input>
				<port id="0">
					<dim>1</dim>
					<dim>32</dim>
					<dim>28</dim>
					<dim>28</dim>
				</port>
			</input>
			<output>
				<port id="1">
					<dim>1</dim>
					<dim>32</dim>
					<dim>28</dim>
					<dim>28</dim>
				</port>
			</output>
		</layer>
		<layer id="116" name="1404914053_const" precision="FP32" type="Const">
			<output>
				<port id="1"/>
			</output>
			<blobs>
				<custom offset="37928" size="4"/>
			</blobs>
		</layer>
		<layer id="117" name="1405014054_const" precision="FP32" type="Const">
			<output>
				<port id="1"/>
			</output>
			<blobs>
				<custom offset="1095104" size="4"/>
			</blobs>
		</layer>
		<layer id="118" name="1405114055_const" precision="FP32" type="Const">
			<output>
				<port id="1"/>
			</output>
			<blobs>
				<custom offset="37928" size="4"/>
			</blobs>
		</layer>
		<layer id="119" name="1405214056_const" precision="FP32" type="Const">
			<output>
				<port id="1"/>
			</output>
			<blobs>
				<custom offset="1095104" size="4"/>
			</blobs>
		</layer>
		<layer id="120" name="InceptionV1/InceptionV1/Mixed_3b/concat_v2/fq_input_2" precision="FP32" type="FakeQuantize">
			<data levels="256.0"/>
			<input>
				<port id="0">
					<dim>1</dim>
					<dim>32</dim>
					<dim>28</dim>
					<dim>28</dim>
				</port>
				<port id="1"/>
				<port id="2"/>
				<port id="3"/>
				<port id="4"/>
			</input>
			<output>
				<port id="5">
					<dim>1</dim>
					<dim>32</dim>
					<dim>28</dim>
					<dim>28</dim>
				</port>
			</output>
		</layer>
		<layer id="121" name="InceptionV1/InceptionV1/Mixed_3b/Branch_3/MaxPool_0a_3x3/MaxPool" precision="FP32" type="Pooling">
			<data auto_pad="same_upper" exclude-pad="true" kernel="3,3" pads_begin="1,1" pads_end="1,1" pool-method="max" strides="1,1"/>
			<input>
				<port id="0">
					<dim>1</dim>
					<dim>192</dim>
					<dim>28</dim>
					<dim>28</dim>
				</port>
			</input>
			<output>
				<port id="1">
					<dim>1</dim>
					<dim>192</dim>
					<dim>28</dim>
					<dim>28</dim>
				</port>
			</output>
		</layer>
		<layer id="122" name="InceptionV1/InceptionV1/Mixed_3b/Branch_3/Conv2d_0b_1x1/BatchNorm/batchnorm/mul70947096_const" precision="FP32" type="Const">
			<output>
				<port id="1">
					<dim>32</dim>
					<dim>192</dim>
					<dim>1</dim>
					<dim>1</dim>
				</port>
			</output>
			<blobs>
				<custom offset="1095108" size="24576"/>
			</blobs>
		</layer>
		<layer id="123" name="1266712671_const" precision="FP32" type="Const">
			<output>
				<port id="1"/>
			</output>
			<blobs>
				<custom offset="1119684" size="4"/>
			</blobs>
		</layer>
		<layer id="124" name="1266812672_const" precision="FP32" type="Const">
			<output>
				<port id="1"/>
			</output>
			<blobs>
				<custom offset="1119688" size="4"/>
			</blobs>
		</layer>
		<layer id="125" name="1266912673_const" precision="FP32" type="Const">
			<output>
				<port id="1"/>
			</output>
			<blobs>
				<custom offset="1119684" size="4"/>
			</blobs>
		</layer>
		<layer id="126" name="1267012674_const" precision="FP32" type="Const">
			<output>
				<port id="1"/>
			</output>
			<blobs>
				<custom offset="1119688" size="4"/>
			</blobs>
		</layer>
		<layer id="127" name="InceptionV1/InceptionV1/Mixed_3b/Branch_3/Conv2d_0b_1x1/convolution/fq_weights_1" precision="FP32" type="FakeQuantize">
			<data levels="255.0"/>
			<input>
				<port id="0">
					<dim>32</dim>
					<dim>192</dim>
					<dim>1</dim>
					<dim>1</dim>
				</port>
				<port id="1"/>
				<port id="2"/>
				<port id="3"/>
				<port id="4"/>
			</input>
			<output>
				<port id="5">
					<dim>32</dim>
					<dim>192</dim>
					<dim>1</dim>
					<dim>1</dim>
				</port>
			</output>
		</layer>
		<layer id="128" name="bias_data70977098_const" precision="FP32" type="Const">
			<output>
				<port id="1">
					<dim>32</dim>
				</port>
			</output>
			<blobs>
				<custom offset="1119692" size="128"/>
			</blobs>
		</layer>
		<layer id="129" name="InceptionV1/InceptionV1/Mixed_3b/Branch_3/Conv2d_0b_1x1/convolution" precision="FP32" type="Convolution">
			<data auto_pad="same_upper" dilations="1,1" group="1" kernel="1,1" output="32" pads_begin="0,0" pads_end="0,0" strides="1,1"/>
			<input>
				<port id="0">
					<dim>1</dim>
					<dim>192</dim>
					<dim>28</dim>
					<dim>28</dim>
				</port>
				<port id="1">
					<dim>32</dim>
					<dim>192</dim>
					<dim>1</dim>
					<dim>1</dim>
				</port>
				<port id="2">
					<dim>32</dim>
				</port>
			</input>
			<output>
				<port id="3">
					<dim>1</dim>
					<dim>32</dim>
					<dim>28</dim>
					<dim>28</dim>
				</port>
			</output>
		</layer>
		<layer id="130" name="InceptionV1/InceptionV1/Mixed_3b/Branch_3/Conv2d_0b_1x1/Relu" precision="FP32" type="ReLU">
			<input>
				<port id="0">
					<dim>1</dim>
					<dim>32</dim>
					<dim>28</dim>
					<dim>28</dim>
				</port>
			</input>
			<output>
				<port id="1">
					<dim>1</dim>
					<dim>32</dim>
					<dim>28</dim>
					<dim>28</dim>
				</port>
			</output>
		</layer>
		<layer id="131" name="1405914063_const" precision="FP32" type="Const">
			<output>
				<port id="1"/>
			</output>
			<blobs>
				<custom offset="37928" size="4"/>
			</blobs>
		</layer>
		<layer id="132" name="1406014064_const" precision="FP32" type="Const">
			<output>
				<port id="1"/>
			</output>
			<blobs>
				<custom offset="1119820" size="4"/>
			</blobs>
		</layer>
		<layer id="133" name="1406114065_const" precision="FP32" type="Const">
			<output>
				<port id="1"/>
			</output>
			<blobs>
				<custom offset="37928" size="4"/>
			</blobs>
		</layer>
		<layer id="134" name="1406214066_const" precision="FP32" type="Const">
			<output>
				<port id="1"/>
			</output>
			<blobs>
				<custom offset="1119820" size="4"/>
			</blobs>
		</layer>
		<layer id="135" name="InceptionV1/InceptionV1/Mixed_3b/concat_v2/fq_input_3" precision="FP32" type="FakeQuantize">
			<data levels="256.0"/>
			<input>
				<port id="0">
					<dim>1</dim>
					<dim>32</dim>
					<dim>28</dim>
					<dim>28</dim>
				</port>
				<port id="1"/>
				<port id="2"/>
				<port id="3"/>
				<port id="4"/>
			</input>
			<output>
				<port id="5">
					<dim>1</dim>
					<dim>32</dim>
					<dim>28</dim>
					<dim>28</dim>
				</port>
			</output>
		</layer>
		<layer id="136" name="InceptionV1/InceptionV1/Mixed_3b/concat_v2" precision="FP32" type="Concat">
			<data axis="1"/>
			<input>
				<port id="0">
					<dim>1</dim>
					<dim>64</dim>
					<dim>28</dim>
					<dim>28</dim>
				</port>
				<port id="1">
					<dim>1</dim>
					<dim>128</dim>
					<dim>28</dim>
					<dim>28</dim>
				</port>
				<port id="2">
					<dim>1</dim>
					<dim>32</dim>
					<dim>28</dim>
					<dim>28</dim>
				</port>
				<port id="3">
					<dim>1</dim>
					<dim>32</dim>
					<dim>28</dim>
					<dim>28</dim>
				</port>
			</input>
			<output>
				<port id="4">
					<dim>1</dim>
					<dim>256</dim>
					<dim>28</dim>
					<dim>28</dim>
				</port>
			</output>
		</layer>
		<layer id="137" name="InceptionV1/InceptionV1/Mixed_3c/Branch_0/Conv2d_0a_1x1/BatchNorm/batchnorm/mul71307132_const" precision="FP32" type="Const">
			<output>
				<port id="1">
					<dim>128</dim>
					<dim>256</dim>
					<dim>1</dim>
					<dim>1</dim>
				</port>
			</output>
			<blobs>
				<custom offset="1119824" size="131072"/>
			</blobs>
		</layer>
		<layer id="138" name="1211712121_const" precision="FP32" type="Const">
			<output>
				<port id="1"/>
			</output>
			<blobs>
				<custom offset="1250896" size="4"/>
			</blobs>
		</layer>
		<layer id="139" name="1211812122_const" precision="FP32" type="Const">
			<output>
				<port id="1"/>
			</output>
			<blobs>
				<custom offset="1250900" size="4"/>
			</blobs>
		</layer>
		<layer id="140" name="1211912123_const" precision="FP32" type="Const">
			<output>
				<port id="1"/>
			</output>
			<blobs>
				<custom offset="1250896" size="4"/>
			</blobs>
		</layer>
		<layer id="141" name="1212012124_const" precision="FP32" type="Const">
			<output>
				<port id="1"/>
			</output>
			<blobs>
				<custom offset="1250900" size="4"/>
			</blobs>
		</layer>
		<layer id="142" name="InceptionV1/InceptionV1/Mixed_3c/Branch_0/Conv2d_0a_1x1/convolution/fq_weights_1" precision="FP32" type="FakeQuantize">
			<data levels="255.0"/>
			<input>
				<port id="0">
					<dim>128</dim>
					<dim>256</dim>
					<dim>1</dim>
					<dim>1</dim>
				</port>
				<port id="1"/>
				<port id="2"/>
				<port id="3"/>
				<port id="4"/>
			</input>
			<output>
				<port id="5">
					<dim>128</dim>
					<dim>256</dim>
					<dim>1</dim>
					<dim>1</dim>
				</port>
			</output>
		</layer>
		<layer id="143" name="bias_data71337134_const" precision="FP32" type="Const">
			<output>
				<port id="1">
					<dim>128</dim>
				</port>
			</output>
			<blobs>
				<custom offset="1250904" size="512"/>
			</blobs>
		</layer>
		<layer id="144" name="InceptionV1/InceptionV1/Mixed_3c/Branch_0/Conv2d_0a_1x1/convolution" precision="FP32" type="Convolution">
			<data auto_pad="same_upper" dilations="1,1" group="1" kernel="1,1" output="128" pads_begin="0,0" pads_end="0,0" strides="1,1"/>
			<input>
				<port id="0">
					<dim>1</dim>
					<dim>256</dim>
					<dim>28</dim>
					<dim>28</dim>
				</port>
				<port id="1">
					<dim>128</dim>
					<dim>256</dim>
					<dim>1</dim>
					<dim>1</dim>
				</port>
				<port id="2">
					<dim>128</dim>
				</port>
			</input>
			<output>
				<port id="3">
					<dim>1</dim>
					<dim>128</dim>
					<dim>28</dim>
					<dim>28</dim>
				</port>
			</output>
		</layer>
		<layer id="145" name="InceptionV1/InceptionV1/Mixed_3c/Branch_0/Conv2d_0a_1x1/Relu" precision="FP32" type="ReLU">
			<input>
				<port id="0">
					<dim>1</dim>
					<dim>128</dim>
					<dim>28</dim>
					<dim>28</dim>
				</port>
			</input>
			<output>
				<port id="1">
					<dim>1</dim>
					<dim>128</dim>
					<dim>28</dim>
					<dim>28</dim>
				</port>
			</output>
		</layer>
		<layer id="146" name="1381913823_const" precision="FP32" type="Const">
			<output>
				<port id="1"/>
			</output>
			<blobs>
				<custom offset="37928" size="4"/>
			</blobs>
		</layer>
		<layer id="147" name="1382013824_const" precision="FP32" type="Const">
			<output>
				<port id="1"/>
			</output>
			<blobs>
				<custom offset="1251416" size="4"/>
			</blobs>
		</layer>
		<layer id="148" name="1382113825_const" precision="FP32" type="Const">
			<output>
				<port id="1"/>
			</output>
			<blobs>
				<custom offset="37928" size="4"/>
			</blobs>
		</layer>
		<layer id="149" name="1382213826_const" precision="FP32" type="Const">
			<output>
				<port id="1"/>
			</output>
			<blobs>
				<custom offset="1251416" size="4"/>
			</blobs>
		</layer>
		<layer id="150" name="InceptionV1/InceptionV1/Mixed_3c/concat_v2/fq_input_0" precision="FP32" type="FakeQuantize">
			<data levels="256.0"/>
			<input>
				<port id="0">
					<dim>1</dim>
					<dim>128</dim>
					<dim>28</dim>
					<dim>28</dim>
				</port>
				<port id="1"/>
				<port id="2"/>
				<port id="3"/>
				<port id="4"/>
			</input>
			<output>
				<port id="5">
					<dim>1</dim>
					<dim>128</dim>
					<dim>28</dim>
					<dim>28</dim>
				</port>
			</output>
		</layer>
		<layer id="151" name="InceptionV1/InceptionV1/Mixed_3c/Branch_1/Conv2d_0a_1x1/BatchNorm/batchnorm/mul71427144_const" precision="FP32" type="Const">
			<output>
				<port id="1">
					<dim>128</dim>
					<dim>256</dim>
					<dim>1</dim>
					<dim>1</dim>
				</port>
			</output>
			<blobs>
				<custom offset="1251420" size="131072"/>
			</blobs>
		</layer>
		<layer id="152" name="1246712471_const" precision="FP32" type="Const">
			<output>
				<port id="1"/>
			</output>
			<blobs>
				<custom offset="1382492" size="4"/>
			</blobs>
		</layer>
		<layer id="153" name="1246812472_const" precision="FP32" type="Const">
			<output>
				<port id="1"/>
			</output>
			<blobs>
				<custom offset="1382496" size="4"/>
			</blobs>
		</layer>
		<layer id="154" name="1246912473_const" precision="FP32" type="Const">
			<output>
				<port id="1"/>
			</output>
			<blobs>
				<custom offset="1382492" size="4"/>
			</blobs>
		</layer>
		<layer id="155" name="1247012474_const" precision="FP32" type="Const">
			<output>
				<port id="1"/>
			</output>
			<blobs>
				<custom offset="1382496" size="4"/>
			</blobs>
		</layer>
		<layer id="156" name="InceptionV1/InceptionV1/Mixed_3c/Branch_1/Conv2d_0a_1x1/convolution/fq_weights_1" precision="FP32" type="FakeQuantize">
			<data levels="255.0"/>
			<input>
				<port id="0">
					<dim>128</dim>
					<dim>256</dim>
					<dim>1</dim>
					<dim>1</dim>
				</port>
				<port id="1"/>
				<port id="2"/>
				<port id="3"/>
				<port id="4"/>
			</input>
			<output>
				<port id="5">
					<dim>128</dim>
					<dim>256</dim>
					<dim>1</dim>
					<dim>1</dim>
				</port>
			</output>
		</layer>
		<layer id="157" name="bias_data71457146_const" precision="FP32" type="Const">
			<output>
				<port id="1">
					<dim>128</dim>
				</port>
			</output>
			<blobs>
				<custom offset="1382500" size="512"/>
			</blobs>
		</layer>
		<layer id="158" name="InceptionV1/InceptionV1/Mixed_3c/Branch_1/Conv2d_0a_1x1/convolution" precision="FP32" type="Convolution">
			<data auto_pad="same_upper" dilations="1,1" group="1" kernel="1,1" output="128" pads_begin="0,0" pads_end="0,0" strides="1,1"/>
			<input>
				<port id="0">
					<dim>1</dim>
					<dim>256</dim>
					<dim>28</dim>
					<dim>28</dim>
				</port>
				<port id="1">
					<dim>128</dim>
					<dim>256</dim>
					<dim>1</dim>
					<dim>1</dim>
				</port>
				<port id="2">
					<dim>128</dim>
				</port>
			</input>
			<output>
				<port id="3">
					<dim>1</dim>
					<dim>128</dim>
					<dim>28</dim>
					<dim>28</dim>
				</port>
			</output>
		</layer>
		<layer id="159" name="InceptionV1/InceptionV1/Mixed_3c/Branch_1/Conv2d_0a_1x1/Relu" precision="FP32" type="ReLU">
			<input>
				<port id="0">
					<dim>1</dim>
					<dim>128</dim>
					<dim>28</dim>
					<dim>28</dim>
				</port>
			</input>
			<output>
				<port id="1">
					<dim>1</dim>
					<dim>128</dim>
					<dim>28</dim>
					<dim>28</dim>
				</port>
			</output>
		</layer>
		<layer id="160" name="1220712211_const" precision="FP32" type="Const">
			<output>
				<port id="1"/>
			</output>
			<blobs>
				<custom offset="37928" size="4"/>
			</blobs>
		</layer>
		<layer id="161" name="1220812212_const" precision="FP32" type="Const">
			<output>
				<port id="1"/>
			</output>
			<blobs>
				<custom offset="1383012" size="4"/>
			</blobs>
		</layer>
		<layer id="162" name="1220912213_const" precision="FP32" type="Const">
			<output>
				<port id="1"/>
			</output>
			<blobs>
				<custom offset="37928" size="4"/>
			</blobs>
		</layer>
		<layer id="163" name="1221012214_const" precision="FP32" type="Const">
			<output>
				<port id="1"/>
			</output>
			<blobs>
				<custom offset="1383012" size="4"/>
			</blobs>
		</layer>
		<layer id="164" name="InceptionV1/InceptionV1/Mixed_3c/Branch_1/Conv2d_0b_3x3/convolution/fq_input_0" precision="FP32" type="FakeQuantize">
			<data levels="256.0"/>
			<input>
				<port id="0">
					<dim>1</dim>
					<dim>128</dim>
					<dim>28</dim>
					<dim>28</dim>
				</port>
				<port id="1"/>
				<port id="2"/>
				<port id="3"/>
				<port id="4"/>
			</input>
			<output>
				<port id="5">
					<dim>1</dim>
					<dim>128</dim>
					<dim>28</dim>
					<dim>28</dim>
				</port>
			</output>
		</layer>
		<layer id="165" name="InceptionV1/InceptionV1/Mixed_3c/Branch_1/Conv2d_0b_3x3/BatchNorm/batchnorm/mul71487150_const" precision="FP32" type="Const">
			<output>
				<port id="1">
					<dim>192</dim>
					<dim>128</dim>
					<dim>3</dim>
					<dim>3</dim>
				</port>
			</output>
			<blobs>
				<custom offset="1383016" size="884736"/>
			</blobs>
		</layer>
		<layer id="166" name="1221712221_const" precision="FP32" type="Const">
			<output>
				<port id="1"/>
			</output>
			<blobs>
				<custom offset="2267752" size="4"/>
			</blobs>
		</layer>
		<layer id="167" name="1221812222_const" precision="FP32" type="Const">
			<output>
				<port id="1"/>
			</output>
			<blobs>
				<custom offset="2267756" size="4"/>
			</blobs>
		</layer>
		<layer id="168" name="1221912223_const" precision="FP32" type="Const">
			<output>
				<port id="1"/>
			</output>
			<blobs>
				<custom offset="2267752" size="4"/>
			</blobs>
		</layer>
		<layer id="169" name="1222012224_const" precision="FP32" type="Const">
			<output>
				<port id="1"/>
			</output>
			<blobs>
				<custom offset="2267756" size="4"/>
			</blobs>
		</layer>
		<layer id="170" name="InceptionV1/InceptionV1/Mixed_3c/Branch_1/Conv2d_0b_3x3/convolution/fq_weights_1" precision="FP32" type="FakeQuantize">
			<data levels="255.0"/>
			<input>
				<port id="0">
					<dim>192</dim>
					<dim>128</dim>
					<dim>3</dim>
					<dim>3</dim>
				</port>
				<port id="1"/>
				<port id="2"/>
				<port id="3"/>
				<port id="4"/>
			</input>
			<output>
				<port id="5">
					<dim>192</dim>
					<dim>128</dim>
					<dim>3</dim>
					<dim>3</dim>
				</port>
			</output>
		</layer>
		<layer id="171" name="bias_data71517152_const" precision="FP32" type="Const">
			<output>
				<port id="1">
					<dim>192</dim>
				</port>
			</output>
			<blobs>
				<custom offset="2267760" size="768"/>
			</blobs>
		</layer>
		<layer id="172" name="InceptionV1/InceptionV1/Mixed_3c/Branch_1/Conv2d_0b_3x3/convolution" precision="FP32" type="Convolution">
			<data auto_pad="same_upper" dilations="1,1" group="1" kernel="3,3" output="192" pads_begin="1,1" pads_end="1,1" strides="1,1"/>
			<input>
				<port id="0">
					<dim>1</dim>
					<dim>128</dim>
					<dim>28</dim>
					<dim>28</dim>
				</port>
				<port id="1">
					<dim>192</dim>
					<dim>128</dim>
					<dim>3</dim>
					<dim>3</dim>
				</port>
				<port id="2">
					<dim>192</dim>
				</port>
			</input>
			<output>
				<port id="3">
					<dim>1</dim>
					<dim>192</dim>
					<dim>28</dim>
					<dim>28</dim>
				</port>
			</output>
		</layer>
		<layer id="173" name="InceptionV1/InceptionV1/Mixed_3c/Branch_1/Conv2d_0b_3x3/Relu" precision="FP32" type="ReLU">
			<input>
				<port id="0">
					<dim>1</dim>
					<dim>192</dim>
					<dim>28</dim>
					<dim>28</dim>
				</port>
			</input>
			<output>
				<port id="1">
					<dim>1</dim>
					<dim>192</dim>
					<dim>28</dim>
					<dim>28</dim>
				</port>
			</output>
		</layer>
		<layer id="174" name="1382913833_const" precision="FP32" type="Const">
			<output>
				<port id="1"/>
			</output>
			<blobs>
				<custom offset="37928" size="4"/>
			</blobs>
		</layer>
		<layer id="175" name="1383013834_const" precision="FP32" type="Const">
			<output>
				<port id="1"/>
			</output>
			<blobs>
				<custom offset="2268528" size="4"/>
			</blobs>
		</layer>
		<layer id="176" name="1383113835_const" precision="FP32" type="Const">
			<output>
				<port id="1"/>
			</output>
			<blobs>
				<custom offset="37928" size="4"/>
			</blobs>
		</layer>
		<layer id="177" name="1383213836_const" precision="FP32" type="Const">
			<output>
				<port id="1"/>
			</output>
			<blobs>
				<custom offset="2268528" size="4"/>
			</blobs>
		</layer>
		<layer id="178" name="InceptionV1/InceptionV1/Mixed_3c/concat_v2/fq_input_1" precision="FP32" type="FakeQuantize">
			<data levels="256.0"/>
			<input>
				<port id="0">
					<dim>1</dim>
					<dim>192</dim>
					<dim>28</dim>
					<dim>28</dim>
				</port>
				<port id="1"/>
				<port id="2"/>
				<port id="3"/>
				<port id="4"/>
			</input>
			<output>
				<port id="5">
					<dim>1</dim>
					<dim>192</dim>
					<dim>28</dim>
					<dim>28</dim>
				</port>
			</output>
		</layer>
		<layer id="179" name="InceptionV1/InceptionV1/Mixed_3c/Branch_2/Conv2d_0a_1x1/BatchNorm/batchnorm/mul71187120_const" precision="FP32" type="Const">
			<output>
				<port id="1">
					<dim>32</dim>
					<dim>256</dim>
					<dim>1</dim>
					<dim>1</dim>
				</port>
			</output>
			<blobs>
				<custom offset="2268532" size="32768"/>
			</blobs>
		</layer>
		<layer id="180" name="1250712511_const" precision="FP32" type="Const">
			<output>
				<port id="1"/>
			</output>
			<blobs>
				<custom offset="2301300" size="4"/>
			</blobs>
		</layer>
		<layer id="181" name="1250812512_const" precision="FP32" type="Const">
			<output>
				<port id="1"/>
			</output>
			<blobs>
				<custom offset="2301304" size="4"/>
			</blobs>
		</layer>
		<layer id="182" name="1250912513_const" precision="FP32" type="Const">
			<output>
				<port id="1"/>
			</output>
			<blobs>
				<custom offset="2301300" size="4"/>
			</blobs>
		</layer>
		<layer id="183" name="1251012514_const" precision="FP32" type="Const">
			<output>
				<port id="1"/>
			</output>
			<blobs>
				<custom offset="2301304" size="4"/>
			</blobs>
		</layer>
		<layer id="184" name="InceptionV1/InceptionV1/Mixed_3c/Branch_2/Conv2d_0a_1x1/convolution/fq_weights_1" precision="FP32" type="FakeQuantize">
			<data levels="255.0"/>
			<input>
				<port id="0">
					<dim>32</dim>
					<dim>256</dim>
					<dim>1</dim>
					<dim>1</dim>
				</port>
				<port id="1"/>
				<port id="2"/>
				<port id="3"/>
				<port id="4"/>
			</input>
			<output>
				<port id="5">
					<dim>32</dim>
					<dim>256</dim>
					<dim>1</dim>
					<dim>1</dim>
				</port>
			</output>
		</layer>
		<layer id="185" name="bias_data71217122_const" precision="FP32" type="Const">
			<output>
				<port id="1">
					<dim>32</dim>
				</port>
			</output>
			<blobs>
				<custom offset="2301308" size="128"/>
			</blobs>
		</layer>
		<layer id="186" name="InceptionV1/InceptionV1/Mixed_3c/Branch_2/Conv2d_0a_1x1/convolution" precision="FP32" type="Convolution">
			<data auto_pad="same_upper" dilations="1,1" group="1" kernel="1,1" output="32" pads_begin="0,0" pads_end="0,0" strides="1,1"/>
			<input>
				<port id="0">
					<dim>1</dim>
					<dim>256</dim>
					<dim>28</dim>
					<dim>28</dim>
				</port>
				<port id="1">
					<dim>32</dim>
					<dim>256</dim>
					<dim>1</dim>
					<dim>1</dim>
				</port>
				<port id="2">
					<dim>32</dim>
				</port>
			</input>
			<output>
				<port id="3">
					<dim>1</dim>
					<dim>32</dim>
					<dim>28</dim>
					<dim>28</dim>
				</port>
			</output>
		</layer>
		<layer id="187" name="InceptionV1/InceptionV1/Mixed_3c/Branch_2/Conv2d_0a_1x1/Relu" precision="FP32" type="ReLU">
			<input>
				<port id="0">
					<dim>1</dim>
					<dim>32</dim>
					<dim>28</dim>
					<dim>28</dim>
				</port>
			</input>
			<output>
				<port id="1">
					<dim>1</dim>
					<dim>32</dim>
					<dim>28</dim>
					<dim>28</dim>
				</port>
			</output>
		</layer>
		<layer id="188" name="1293712941_const" precision="FP32" type="Const">
			<output>
				<port id="1"/>
			</output>
			<blobs>
				<custom offset="37928" size="4"/>
			</blobs>
		</layer>
		<layer id="189" name="1293812942_const" precision="FP32" type="Const">
			<output>
				<port id="1"/>
			</output>
			<blobs>
				<custom offset="2301436" size="4"/>
			</blobs>
		</layer>
		<layer id="190" name="1293912943_const" precision="FP32" type="Const">
			<output>
				<port id="1"/>
			</output>
			<blobs>
				<custom offset="37928" size="4"/>
			</blobs>
		</layer>
		<layer id="191" name="1294012944_const" precision="FP32" type="Const">
			<output>
				<port id="1"/>
			</output>
			<blobs>
				<custom offset="2301436" size="4"/>
			</blobs>
		</layer>
		<layer id="192" name="InceptionV1/InceptionV1/Mixed_3c/Branch_2/Conv2d_0b_3x3/convolution/fq_input_0" precision="FP32" type="FakeQuantize">
			<data levels="256.0"/>
			<input>
				<port id="0">
					<dim>1</dim>
					<dim>32</dim>
					<dim>28</dim>
					<dim>28</dim>
				</port>
				<port id="1"/>
				<port id="2"/>
				<port id="3"/>
				<port id="4"/>
			</input>
			<output>
				<port id="5">
					<dim>1</dim>
					<dim>32</dim>
					<dim>28</dim>
					<dim>28</dim>
				</port>
			</output>
		</layer>
		<layer id="193" name="InceptionV1/InceptionV1/Mixed_3c/Branch_2/Conv2d_0b_3x3/BatchNorm/batchnorm/mul71247126_const" precision="FP32" type="Const">
			<output>
				<port id="1">
					<dim>96</dim>
					<dim>32</dim>
					<dim>3</dim>
					<dim>3</dim>
				</port>
			</output>
			<blobs>
				<custom offset="2301440" size="110592"/>
			</blobs>
		</layer>
		<layer id="194" name="1294712951_const" precision="FP32" type="Const">
			<output>
				<port id="1"/>
			</output>
			<blobs>
				<custom offset="2412032" size="4"/>
			</blobs>
		</layer>
		<layer id="195" name="1294812952_const" precision="FP32" type="Const">
			<output>
				<port id="1"/>
			</output>
			<blobs>
				<custom offset="2412036" size="4"/>
			</blobs>
		</layer>
		<layer id="196" name="1294912953_const" precision="FP32" type="Const">
			<output>
				<port id="1"/>
			</output>
			<blobs>
				<custom offset="2412032" size="4"/>
			</blobs>
		</layer>
		<layer id="197" name="1295012954_const" precision="FP32" type="Const">
			<output>
				<port id="1"/>
			</output>
			<blobs>
				<custom offset="2412036" size="4"/>
			</blobs>
		</layer>
		<layer id="198" name="InceptionV1/InceptionV1/Mixed_3c/Branch_2/Conv2d_0b_3x3/convolution/fq_weights_1" precision="FP32" type="FakeQuantize">
			<data levels="255.0"/>
			<input>
				<port id="0">
					<dim>96</dim>
					<dim>32</dim>
					<dim>3</dim>
					<dim>3</dim>
				</port>
				<port id="1"/>
				<port id="2"/>
				<port id="3"/>
				<port id="4"/>
			</input>
			<output>
				<port id="5">
					<dim>96</dim>
					<dim>32</dim>
					<dim>3</dim>
					<dim>3</dim>
				</port>
			</output>
		</layer>
		<layer id="199" name="bias_data71277128_const" precision="FP32" type="Const">
			<output>
				<port id="1">
					<dim>96</dim>
				</port>
			</output>
			<blobs>
				<custom offset="2412040" size="384"/>
			</blobs>
		</layer>
		<layer id="200" name="InceptionV1/InceptionV1/Mixed_3c/Branch_2/Conv2d_0b_3x3/convolution" precision="FP32" type="Convolution">
			<data auto_pad="same_upper" dilations="1,1" group="1" kernel="3,3" output="96" pads_begin="1,1" pads_end="1,1" strides="1,1"/>
			<input>
				<port id="0">
					<dim>1</dim>
					<dim>32</dim>
					<dim>28</dim>
					<dim>28</dim>
				</port>
				<port id="1">
					<dim>96</dim>
					<dim>32</dim>
					<dim>3</dim>
					<dim>3</dim>
				</port>
				<port id="2">
					<dim>96</dim>
				</port>
			</input>
			<output>
				<port id="3">
					<dim>1</dim>
					<dim>96</dim>
					<dim>28</dim>
					<dim>28</dim>
				</port>
			</output>
		</layer>
		<layer id="201" name="InceptionV1/InceptionV1/Mixed_3c/Branch_2/Conv2d_0b_3x3/Relu" precision="FP32" type="ReLU">
			<input>
				<port id="0">
					<dim>1</dim>
					<dim>96</dim>
					<dim>28</dim>
					<dim>28</dim>
				</port>
			</input>
			<output>
				<port id="1">
					<dim>1</dim>
					<dim>96</dim>
					<dim>28</dim>
					<dim>28</dim>
				</port>
			</output>
		</layer>
		<layer id="202" name="1383913843_const" precision="FP32" type="Const">
			<output>
				<port id="1"/>
			</output>
			<blobs>
				<custom offset="37928" size="4"/>
			</blobs>
		</layer>
		<layer id="203" name="1384013844_const" precision="FP32" type="Const">
			<output>
				<port id="1"/>
			</output>
			<blobs>
				<custom offset="2412424" size="4"/>
			</blobs>
		</layer>
		<layer id="204" name="1384113845_const" precision="FP32" type="Const">
			<output>
				<port id="1"/>
			</output>
			<blobs>
				<custom offset="37928" size="4"/>
			</blobs>
		</layer>
		<layer id="205" name="1384213846_const" precision="FP32" type="Const">
			<output>
				<port id="1"/>
			</output>
			<blobs>
				<custom offset="2412424" size="4"/>
			</blobs>
		</layer>
		<layer id="206" name="InceptionV1/InceptionV1/Mixed_3c/concat_v2/fq_input_2" precision="FP32" type="FakeQuantize">
			<data levels="256.0"/>
			<input>
				<port id="0">
					<dim>1</dim>
					<dim>96</dim>
					<dim>28</dim>
					<dim>28</dim>
				</port>
				<port id="1"/>
				<port id="2"/>
				<port id="3"/>
				<port id="4"/>
			</input>
			<output>
				<port id="5">
					<dim>1</dim>
					<dim>96</dim>
					<dim>28</dim>
					<dim>28</dim>
				</port>
			</output>
		</layer>
		<layer id="207" name="InceptionV1/InceptionV1/Mixed_3c/Branch_3/MaxPool_0a_3x3/MaxPool" precision="FP32" type="Pooling">
			<data auto_pad="same_upper" exclude-pad="true" kernel="3,3" pads_begin="1,1" pads_end="1,1" pool-method="max" strides="1,1"/>
			<input>
				<port id="0">
					<dim>1</dim>
					<dim>256</dim>
					<dim>28</dim>
					<dim>28</dim>
				</port>
			</input>
			<output>
				<port id="1">
					<dim>1</dim>
					<dim>256</dim>
					<dim>28</dim>
					<dim>28</dim>
				</port>
			</output>
		</layer>
		<layer id="208" name="InceptionV1/InceptionV1/Mixed_3c/Branch_3/Conv2d_0b_1x1/BatchNorm/batchnorm/mul71367138_const" precision="FP32" type="Const">
			<output>
				<port id="1">
					<dim>64</dim>
					<dim>256</dim>
					<dim>1</dim>
					<dim>1</dim>
				</port>
			</output>
			<blobs>
				<custom offset="2412428" size="65536"/>
			</blobs>
		</layer>
		<layer id="209" name="1197711981_const" precision="FP32" type="Const">
			<output>
				<port id="1"/>
			</output>
			<blobs>
				<custom offset="2477964" size="4"/>
			</blobs>
		</layer>
		<layer id="210" name="1197811982_const" precision="FP32" type="Const">
			<output>
				<port id="1"/>
			</output>
			<blobs>
				<custom offset="2477968" size="4"/>
			</blobs>
		</layer>
		<layer id="211" name="1197911983_const" precision="FP32" type="Const">
			<output>
				<port id="1"/>
			</output>
			<blobs>
				<custom offset="2477964" size="4"/>
			</blobs>
		</layer>
		<layer id="212" name="1198011984_const" precision="FP32" type="Const">
			<output>
				<port id="1"/>
			</output>
			<blobs>
				<custom offset="2477968" size="4"/>
			</blobs>
		</layer>
		<layer id="213" name="InceptionV1/InceptionV1/Mixed_3c/Branch_3/Conv2d_0b_1x1/convolution/fq_weights_1" precision="FP32" type="FakeQuantize">
			<data levels="255.0"/>
			<input>
				<port id="0">
					<dim>64</dim>
					<dim>256</dim>
					<dim>1</dim>
					<dim>1</dim>
				</port>
				<port id="1"/>
				<port id="2"/>
				<port id="3"/>
				<port id="4"/>
			</input>
			<output>
				<port id="5">
					<dim>64</dim>
					<dim>256</dim>
					<dim>1</dim>
					<dim>1</dim>
				</port>
			</output>
		</layer>
		<layer id="214" name="bias_data71397140_const" precision="FP32" type="Const">
			<output>
				<port id="1">
					<dim>64</dim>
				</port>
			</output>
			<blobs>
				<custom offset="2477972" size="256"/>
			</blobs>
		</layer>
		<layer id="215" name="InceptionV1/InceptionV1/Mixed_3c/Branch_3/Conv2d_0b_1x1/convolution" precision="FP32" type="Convolution">
			<data auto_pad="same_upper" dilations="1,1" group="1" kernel="1,1" output="64" pads_begin="0,0" pads_end="0,0" strides="1,1"/>
			<input>
				<port id="0">
					<dim>1</dim>
					<dim>256</dim>
					<dim>28</dim>
					<dim>28</dim>
				</port>
				<port id="1">
					<dim>64</dim>
					<dim>256</dim>
					<dim>1</dim>
					<dim>1</dim>
				</port>
				<port id="2">
					<dim>64</dim>
				</port>
			</input>
			<output>
				<port id="3">
					<dim>1</dim>
					<dim>64</dim>
					<dim>28</dim>
					<dim>28</dim>
				</port>
			</output>
		</layer>
		<layer id="216" name="InceptionV1/InceptionV1/Mixed_3c/Branch_3/Conv2d_0b_1x1/Relu" precision="FP32" type="ReLU">
			<input>
				<port id="0">
					<dim>1</dim>
					<dim>64</dim>
					<dim>28</dim>
					<dim>28</dim>
				</port>
			</input>
			<output>
				<port id="1">
					<dim>1</dim>
					<dim>64</dim>
					<dim>28</dim>
					<dim>28</dim>
				</port>
			</output>
		</layer>
		<layer id="217" name="1384913853_const" precision="FP32" type="Const">
			<output>
				<port id="1"/>
			</output>
			<blobs>
				<custom offset="37928" size="4"/>
			</blobs>
		</layer>
		<layer id="218" name="1385013854_const" precision="FP32" type="Const">
			<output>
				<port id="1"/>
			</output>
			<blobs>
				<custom offset="2478228" size="4"/>
			</blobs>
		</layer>
		<layer id="219" name="1385113855_const" precision="FP32" type="Const">
			<output>
				<port id="1"/>
			</output>
			<blobs>
				<custom offset="37928" size="4"/>
			</blobs>
		</layer>
		<layer id="220" name="1385213856_const" precision="FP32" type="Const">
			<output>
				<port id="1"/>
			</output>
			<blobs>
				<custom offset="2478228" size="4"/>
			</blobs>
		</layer>
		<layer id="221" name="InceptionV1/InceptionV1/Mixed_3c/concat_v2/fq_input_3" precision="FP32" type="FakeQuantize">
			<data levels="256.0"/>
			<input>
				<port id="0">
					<dim>1</dim>
					<dim>64</dim>
					<dim>28</dim>
					<dim>28</dim>
				</port>
				<port id="1"/>
				<port id="2"/>
				<port id="3"/>
				<port id="4"/>
			</input>
			<output>
				<port id="5">
					<dim>1</dim>
					<dim>64</dim>
					<dim>28</dim>
					<dim>28</dim>
				</port>
			</output>
		</layer>
		<layer id="222" name="InceptionV1/InceptionV1/Mixed_3c/concat_v2" precision="FP32" type="Concat">
			<data axis="1"/>
			<input>
				<port id="0">
					<dim>1</dim>
					<dim>128</dim>
					<dim>28</dim>
					<dim>28</dim>
				</port>
				<port id="1">
					<dim>1</dim>
					<dim>192</dim>
					<dim>28</dim>
					<dim>28</dim>
				</port>
				<port id="2">
					<dim>1</dim>
					<dim>96</dim>
					<dim>28</dim>
					<dim>28</dim>
				</port>
				<port id="3">
					<dim>1</dim>
					<dim>64</dim>
					<dim>28</dim>
					<dim>28</dim>
				</port>
			</input>
			<output>
				<port id="4">
					<dim>1</dim>
					<dim>480</dim>
					<dim>28</dim>
					<dim>28</dim>
				</port>
			</output>
		</layer>
		<layer id="223" name="InceptionV1/InceptionV1/MaxPool_4a_3x3/MaxPool" precision="FP32" type="Pooling">
			<data auto_pad="same_upper" exclude-pad="true" kernel="3,3" pads_begin="0,0" pads_end="1,1" pool-method="max" strides="2,2"/>
			<input>
				<port id="0">
					<dim>1</dim>
					<dim>480</dim>
					<dim>28</dim>
					<dim>28</dim>
				</port>
			</input>
			<output>
				<port id="1">
					<dim>1</dim>
					<dim>480</dim>
					<dim>14</dim>
					<dim>14</dim>
				</port>
			</output>
		</layer>
		<layer id="224" name="InceptionV1/InceptionV1/Mixed_4b/Branch_0/Conv2d_0a_1x1/BatchNorm/batchnorm/mul71787180_const" precision="FP32" type="Const">
			<output>
				<port id="1">
					<dim>192</dim>
					<dim>480</dim>
					<dim>1</dim>
					<dim>1</dim>
				</port>
			</output>
			<blobs>
				<custom offset="2478232" size="368640"/>
			</blobs>
		</layer>
		<layer id="225" name="1286712871_const" precision="FP32" type="Const">
			<output>
				<port id="1"/>
			</output>
			<blobs>
				<custom offset="2846872" size="4"/>
			</blobs>
		</layer>
		<layer id="226" name="1286812872_const" precision="FP32" type="Const">
			<output>
				<port id="1"/>
			</output>
			<blobs>
				<custom offset="2846876" size="4"/>
			</blobs>
		</layer>
		<layer id="227" name="1286912873_const" precision="FP32" type="Const">
			<output>
				<port id="1"/>
			</output>
			<blobs>
				<custom offset="2846872" size="4"/>
			</blobs>
		</layer>
		<layer id="228" name="1287012874_const" precision="FP32" type="Const">
			<output>
				<port id="1"/>
			</output>
			<blobs>
				<custom offset="2846876" size="4"/>
			</blobs>
		</layer>
		<layer id="229" name="InceptionV1/InceptionV1/Mixed_4b/Branch_0/Conv2d_0a_1x1/convolution/fq_weights_1" precision="FP32" type="FakeQuantize">
			<data levels="255.0"/>
			<input>
				<port id="0">
					<dim>192</dim>
					<dim>480</dim>
					<dim>1</dim>
					<dim>1</dim>
				</port>
				<port id="1"/>
				<port id="2"/>
				<port id="3"/>
				<port id="4"/>
			</input>
			<output>
				<port id="5">
					<dim>192</dim>
					<dim>480</dim>
					<dim>1</dim>
					<dim>1</dim>
				</port>
			</output>
		</layer>
		<layer id="230" name="bias_data71817182_const" precision="FP32" type="Const">
			<output>
				<port id="1">
					<dim>192</dim>
				</port>
			</output>
			<blobs>
				<custom offset="2846880" size="768"/>
			</blobs>
		</layer>
		<layer id="231" name="InceptionV1/InceptionV1/Mixed_4b/Branch_0/Conv2d_0a_1x1/convolution" precision="FP32" type="Convolution">
			<data auto_pad="same_upper" dilations="1,1" group="1" kernel="1,1" output="192" pads_begin="0,0" pads_end="0,0" strides="1,1"/>
			<input>
				<port id="0">
					<dim>1</dim>
					<dim>480</dim>
					<dim>14</dim>
					<dim>14</dim>
				</port>
				<port id="1">
					<dim>192</dim>
					<dim>480</dim>
					<dim>1</dim>
					<dim>1</dim>
				</port>
				<port id="2">
					<dim>192</dim>
				</port>
			</input>
			<output>
				<port id="3">
					<dim>1</dim>
					<dim>192</dim>
					<dim>14</dim>
					<dim>14</dim>
				</port>
			</output>
		</layer>
		<layer id="232" name="InceptionV1/InceptionV1/Mixed_4b/Branch_0/Conv2d_0a_1x1/Relu" precision="FP32" type="ReLU">
			<input>
				<port id="0">
					<dim>1</dim>
					<dim>192</dim>
					<dim>14</dim>
					<dim>14</dim>
				</port>
			</input>
			<output>
				<port id="1">
					<dim>1</dim>
					<dim>192</dim>
					<dim>14</dim>
					<dim>14</dim>
				</port>
			</output>
		</layer>
		<layer id="233" name="1433914343_const" precision="FP32" type="Const">
			<output>
				<port id="1"/>
			</output>
			<blobs>
				<custom offset="37928" size="4"/>
			</blobs>
		</layer>
		<layer id="234" name="1434014344_const" precision="FP32" type="Const">
			<output>
				<port id="1"/>
			</output>
			<blobs>
				<custom offset="2847648" size="4"/>
			</blobs>
		</layer>
		<layer id="235" name="1434114345_const" precision="FP32" type="Const">
			<output>
				<port id="1"/>
			</output>
			<blobs>
				<custom offset="37928" size="4"/>
			</blobs>
		</layer>
		<layer id="236" name="1434214346_const" precision="FP32" type="Const">
			<output>
				<port id="1"/>
			</output>
			<blobs>
				<custom offset="2847648" size="4"/>
			</blobs>
		</layer>
		<layer id="237" name="InceptionV1/InceptionV1/Mixed_4b/concat_v2/fq_input_0" precision="FP32" type="FakeQuantize">
			<data levels="256.0"/>
			<input>
				<port id="0">
					<dim>1</dim>
					<dim>192</dim>
					<dim>14</dim>
					<dim>14</dim>
				</port>
				<port id="1"/>
				<port id="2"/>
				<port id="3"/>
				<port id="4"/>
			</input>
			<output>
				<port id="5">
					<dim>1</dim>
					<dim>192</dim>
					<dim>14</dim>
					<dim>14</dim>
				</port>
			</output>
		</layer>
		<layer id="238" name="InceptionV1/InceptionV1/Mixed_4b/Branch_1/Conv2d_0a_1x1/BatchNorm/batchnorm/mul71547156_const" precision="FP32" type="Const">
			<output>
				<port id="1">
					<dim>96</dim>
					<dim>480</dim>
					<dim>1</dim>
					<dim>1</dim>
				</port>
			</output>
			<blobs>
				<custom offset="2847652" size="184320"/>
			</blobs>
		</layer>
		<layer id="239" name="1219712201_const" precision="FP32" type="Const">
			<output>
				<port id="1"/>
			</output>
			<blobs>
				<custom offset="3031972" size="4"/>
			</blobs>
		</layer>
		<layer id="240" name="1219812202_const" precision="FP32" type="Const">
			<output>
				<port id="1"/>
			</output>
			<blobs>
				<custom offset="3031976" size="4"/>
			</blobs>
		</layer>
		<layer id="241" name="1219912203_const" precision="FP32" type="Const">
			<output>
				<port id="1"/>
			</output>
			<blobs>
				<custom offset="3031972" size="4"/>
			</blobs>
		</layer>
		<layer id="242" name="1220012204_const" precision="FP32" type="Const">
			<output>
				<port id="1"/>
			</output>
			<blobs>
				<custom offset="3031976" size="4"/>
			</blobs>
		</layer>
		<layer id="243" name="InceptionV1/InceptionV1/Mixed_4b/Branch_1/Conv2d_0a_1x1/convolution/fq_weights_1" precision="FP32" type="FakeQuantize">
			<data levels="255.0"/>
			<input>
				<port id="0">
					<dim>96</dim>
					<dim>480</dim>
					<dim>1</dim>
					<dim>1</dim>
				</port>
				<port id="1"/>
				<port id="2"/>
				<port id="3"/>
				<port id="4"/>
			</input>
			<output>
				<port id="5">
					<dim>96</dim>
					<dim>480</dim>
					<dim>1</dim>
					<dim>1</dim>
				</port>
			</output>
		</layer>
		<layer id="244" name="bias_data71577158_const" precision="FP32" type="Const">
			<output>
				<port id="1">
					<dim>96</dim>
				</port>
			</output>
			<blobs>
				<custom offset="3031980" size="384"/>
			</blobs>
		</layer>
		<layer id="245" name="InceptionV1/InceptionV1/Mixed_4b/Branch_1/Conv2d_0a_1x1/convolution" precision="FP32" type="Convolution">
			<data auto_pad="same_upper" dilations="1,1" group="1" kernel="1,1" output="96" pads_begin="0,0" pads_end="0,0" strides="1,1"/>
			<input>
				<port id="0">
					<dim>1</dim>
					<dim>480</dim>
					<dim>14</dim>
					<dim>14</dim>
				</port>
				<port id="1">
					<dim>96</dim>
					<dim>480</dim>
					<dim>1</dim>
					<dim>1</dim>
				</port>
				<port id="2">
					<dim>96</dim>
				</port>
			</input>
			<output>
				<port id="3">
					<dim>1</dim>
					<dim>96</dim>
					<dim>14</dim>
					<dim>14</dim>
				</port>
			</output>
		</layer>
		<layer id="246" name="InceptionV1/InceptionV1/Mixed_4b/Branch_1/Conv2d_0a_1x1/Relu" precision="FP32" type="ReLU">
			<input>
				<port id="0">
					<dim>1</dim>
					<dim>96</dim>
					<dim>14</dim>
					<dim>14</dim>
				</port>
			</input>
			<output>
				<port id="1">
					<dim>1</dim>
					<dim>96</dim>
					<dim>14</dim>
					<dim>14</dim>
				</port>
			</output>
		</layer>
		<layer id="247" name="1253712541_const" precision="FP32" type="Const">
			<output>
				<port id="1"/>
			</output>
			<blobs>
				<custom offset="37928" size="4"/>
			</blobs>
		</layer>
		<layer id="248" name="1253812542_const" precision="FP32" type="Const">
			<output>
				<port id="1"/>
			</output>
			<blobs>
				<custom offset="3032364" size="4"/>
			</blobs>
		</layer>
		<layer id="249" name="1253912543_const" precision="FP32" type="Const">
			<output>
				<port id="1"/>
			</output>
			<blobs>
				<custom offset="37928" size="4"/>
			</blobs>
		</layer>
		<layer id="250" name="1254012544_const" precision="FP32" type="Const">
			<output>
				<port id="1"/>
			</output>
			<blobs>
				<custom offset="3032364" size="4"/>
			</blobs>
		</layer>
		<layer id="251" name="InceptionV1/InceptionV1/Mixed_4b/Branch_1/Conv2d_0b_3x3/convolution/fq_input_0" precision="FP32" type="FakeQuantize">
			<data levels="256.0"/>
			<input>
				<port id="0">
					<dim>1</dim>
					<dim>96</dim>
					<dim>14</dim>
					<dim>14</dim>
				</port>
				<port id="1"/>
				<port id="2"/>
				<port id="3"/>
				<port id="4"/>
			</input>
			<output>
				<port id="5">
					<dim>1</dim>
					<dim>96</dim>
					<dim>14</dim>
					<dim>14</dim>
				</port>
			</output>
		</layer>
		<layer id="252" name="InceptionV1/InceptionV1/Mixed_4b/Branch_1/Conv2d_0b_3x3/BatchNorm/batchnorm/mul71607162_const" precision="FP32" type="Const">
			<output>
				<port id="1">
					<dim>208</dim>
					<dim>96</dim>
					<dim>3</dim>
					<dim>3</dim>
				</port>
			</output>
			<blobs>
				<custom offset="3032368" size="718848"/>
			</blobs>
		</layer>
		<layer id="253" name="1254712551_const" precision="FP32" type="Const">
			<output>
				<port id="1"/>
			</output>
			<blobs>
				<custom offset="3751216" size="4"/>
			</blobs>
		</layer>
		<layer id="254" name="1254812552_const" precision="FP32" type="Const">
			<output>
				<port id="1"/>
			</output>
			<blobs>
				<custom offset="3751220" size="4"/>
			</blobs>
		</layer>
		<layer id="255" name="1254912553_const" precision="FP32" type="Const">
			<output>
				<port id="1"/>
			</output>
			<blobs>
				<custom offset="3751216" size="4"/>
			</blobs>
		</layer>
		<layer id="256" name="1255012554_const" precision="FP32" type="Const">
			<output>
				<port id="1"/>
			</output>
			<blobs>
				<custom offset="3751220" size="4"/>
			</blobs>
		</layer>
		<layer id="257" name="InceptionV1/InceptionV1/Mixed_4b/Branch_1/Conv2d_0b_3x3/convolution/fq_weights_1" precision="FP32" type="FakeQuantize">
			<data levels="255.0"/>
			<input>
				<port id="0">
					<dim>208</dim>
					<dim>96</dim>
					<dim>3</dim>
					<dim>3</dim>
				</port>
				<port id="1"/>
				<port id="2"/>
				<port id="3"/>
				<port id="4"/>
			</input>
			<output>
				<port id="5">
					<dim>208</dim>
					<dim>96</dim>
					<dim>3</dim>
					<dim>3</dim>
				</port>
			</output>
		</layer>
		<layer id="258" name="bias_data71637164_const" precision="FP32" type="Const">
			<output>
				<port id="1">
					<dim>208</dim>
				</port>
			</output>
			<blobs>
				<custom offset="3751224" size="832"/>
			</blobs>
		</layer>
		<layer id="259" name="InceptionV1/InceptionV1/Mixed_4b/Branch_1/Conv2d_0b_3x3/convolution" precision="FP32" type="Convolution">
			<data auto_pad="same_upper" dilations="1,1" group="1" kernel="3,3" output="208" pads_begin="1,1" pads_end="1,1" strides="1,1"/>
			<input>
				<port id="0">
					<dim>1</dim>
					<dim>96</dim>
					<dim>14</dim>
					<dim>14</dim>
				</port>
				<port id="1">
					<dim>208</dim>
					<dim>96</dim>
					<dim>3</dim>
					<dim>3</dim>
				</port>
				<port id="2">
					<dim>208</dim>
				</port>
			</input>
			<output>
				<port id="3">
					<dim>1</dim>
					<dim>208</dim>
					<dim>14</dim>
					<dim>14</dim>
				</port>
			</output>
		</layer>
		<layer id="260" name="InceptionV1/InceptionV1/Mixed_4b/Branch_1/Conv2d_0b_3x3/Relu" precision="FP32" type="ReLU">
			<input>
				<port id="0">
					<dim>1</dim>
					<dim>208</dim>
					<dim>14</dim>
					<dim>14</dim>
				</port>
			</input>
			<output>
				<port id="1">
					<dim>1</dim>
					<dim>208</dim>
					<dim>14</dim>
					<dim>14</dim>
				</port>
			</output>
		</layer>
		<layer id="261" name="1434914353_const" precision="FP32" type="Const">
			<output>
				<port id="1"/>
			</output>
			<blobs>
				<custom offset="37928" size="4"/>
			</blobs>
		</layer>
		<layer id="262" name="1435014354_const" precision="FP32" type="Const">
			<output>
				<port id="1"/>
			</output>
			<blobs>
				<custom offset="3752056" size="4"/>
			</blobs>
		</layer>
		<layer id="263" name="1435114355_const" precision="FP32" type="Const">
			<output>
				<port id="1"/>
			</output>
			<blobs>
				<custom offset="37928" size="4"/>
			</blobs>
		</layer>
		<layer id="264" name="1435214356_const" precision="FP32" type="Const">
			<output>
				<port id="1"/>
			</output>
			<blobs>
				<custom offset="3752056" size="4"/>
			</blobs>
		</layer>
		<layer id="265" name="InceptionV1/InceptionV1/Mixed_4b/concat_v2/fq_input_1" precision="FP32" type="FakeQuantize">
			<data levels="256.0"/>
			<input>
				<port id="0">
					<dim>1</dim>
					<dim>208</dim>
					<dim>14</dim>
					<dim>14</dim>
				</port>
				<port id="1"/>
				<port id="2"/>
				<port id="3"/>
				<port id="4"/>
			</input>
			<output>
				<port id="5">
					<dim>1</dim>
					<dim>208</dim>
					<dim>14</dim>
					<dim>14</dim>
				</port>
			</output>
		</layer>
		<layer id="266" name="InceptionV1/InceptionV1/Mixed_4b/Branch_2/Conv2d_0a_1x1/BatchNorm/batchnorm/mul71667168_const" precision="FP32" type="Const">
			<output>
				<port id="1">
					<dim>16</dim>
					<dim>480</dim>
					<dim>1</dim>
					<dim>1</dim>
				</port>
			</output>
			<blobs>
				<custom offset="3752060" size="30720"/>
			</blobs>
		</layer>
		<layer id="267" name="1300713011_const" precision="FP32" type="Const">
			<output>
				<port id="1"/>
			</output>
			<blobs>
				<custom offset="3782780" size="4"/>
			</blobs>
		</layer>
		<layer id="268" name="1300813012_const" precision="FP32" type="Const">
			<output>
				<port id="1"/>
			</output>
			<blobs>
				<custom offset="3782784" size="4"/>
			</blobs>
		</layer>
		<layer id="269" name="1300913013_const" precision="FP32" type="Const">
			<output>
				<port id="1"/>
			</output>
			<blobs>
				<custom offset="3782780" size="4"/>
			</blobs>
		</layer>
		<layer id="270" name="1301013014_const" precision="FP32" type="Const">
			<output>
				<port id="1"/>
			</output>
			<blobs>
				<custom offset="3782784" size="4"/>
			</blobs>
		</layer>
		<layer id="271" name="InceptionV1/InceptionV1/Mixed_4b/Branch_2/Conv2d_0a_1x1/convolution/fq_weights_1" precision="FP32" type="FakeQuantize">
			<data levels="255.0"/>
			<input>
				<port id="0">
					<dim>16</dim>
					<dim>480</dim>
					<dim>1</dim>
					<dim>1</dim>
				</port>
				<port id="1"/>
				<port id="2"/>
				<port id="3"/>
				<port id="4"/>
			</input>
			<output>
				<port id="5">
					<dim>16</dim>
					<dim>480</dim>
					<dim>1</dim>
					<dim>1</dim>
				</port>
			</output>
		</layer>
		<layer id="272" name="bias_data71697170_const" precision="FP32" type="Const">
			<output>
				<port id="1">
					<dim>16</dim>
				</port>
			</output>
			<blobs>
				<custom offset="3782788" size="64"/>
			</blobs>
		</layer>
		<layer id="273" name="InceptionV1/InceptionV1/Mixed_4b/Branch_2/Conv2d_0a_1x1/convolution" precision="FP32" type="Convolution">
			<data auto_pad="same_upper" dilations="1,1" group="1" kernel="1,1" output="16" pads_begin="0,0" pads_end="0,0" strides="1,1"/>
			<input>
				<port id="0">
					<dim>1</dim>
					<dim>480</dim>
					<dim>14</dim>
					<dim>14</dim>
				</port>
				<port id="1">
					<dim>16</dim>
					<dim>480</dim>
					<dim>1</dim>
					<dim>1</dim>
				</port>
				<port id="2">
					<dim>16</dim>
				</port>
			</input>
			<output>
				<port id="3">
					<dim>1</dim>
					<dim>16</dim>
					<dim>14</dim>
					<dim>14</dim>
				</port>
			</output>
		</layer>
		<layer id="274" name="InceptionV1/InceptionV1/Mixed_4b/Branch_2/Conv2d_0a_1x1/Relu" precision="FP32" type="ReLU">
			<input>
				<port id="0">
					<dim>1</dim>
					<dim>16</dim>
					<dim>14</dim>
					<dim>14</dim>
				</port>
			</input>
			<output>
				<port id="1">
					<dim>1</dim>
					<dim>16</dim>
					<dim>14</dim>
					<dim>14</dim>
				</port>
			</output>
		</layer>
		<layer id="275" name="1257712581_const" precision="FP32" type="Const">
			<output>
				<port id="1"/>
			</output>
			<blobs>
				<custom offset="37928" size="4"/>
			</blobs>
		</layer>
		<layer id="276" name="1257812582_const" precision="FP32" type="Const">
			<output>
				<port id="1"/>
			</output>
			<blobs>
				<custom offset="3782852" size="4"/>
			</blobs>
		</layer>
		<layer id="277" name="1257912583_const" precision="FP32" type="Const">
			<output>
				<port id="1"/>
			</output>
			<blobs>
				<custom offset="37928" size="4"/>
			</blobs>
		</layer>
		<layer id="278" name="1258012584_const" precision="FP32" type="Const">
			<output>
				<port id="1"/>
			</output>
			<blobs>
				<custom offset="3782852" size="4"/>
			</blobs>
		</layer>
		<layer id="279" name="InceptionV1/InceptionV1/Mixed_4b/Branch_2/Conv2d_0b_3x3/convolution/fq_input_0" precision="FP32" type="FakeQuantize">
			<data levels="256.0"/>
			<input>
				<port id="0">
					<dim>1</dim>
					<dim>16</dim>
					<dim>14</dim>
					<dim>14</dim>
				</port>
				<port id="1"/>
				<port id="2"/>
				<port id="3"/>
				<port id="4"/>
			</input>
			<output>
				<port id="5">
					<dim>1</dim>
					<dim>16</dim>
					<dim>14</dim>
					<dim>14</dim>
				</port>
			</output>
		</layer>
		<layer id="280" name="InceptionV1/InceptionV1/Mixed_4b/Branch_2/Conv2d_0b_3x3/BatchNorm/batchnorm/mul71727174_const" precision="FP32" type="Const">
			<output>
				<port id="1">
					<dim>48</dim>
					<dim>16</dim>
					<dim>3</dim>
					<dim>3</dim>
				</port>
			</output>
			<blobs>
				<custom offset="3782856" size="27648"/>
			</blobs>
		</layer>
		<layer id="281" name="1258712591_const" precision="FP32" type="Const">
			<output>
				<port id="1"/>
			</output>
			<blobs>
				<custom offset="3810504" size="4"/>
			</blobs>
		</layer>
		<layer id="282" name="1258812592_const" precision="FP32" type="Const">
			<output>
				<port id="1"/>
			</output>
			<blobs>
				<custom offset="3810508" size="4"/>
			</blobs>
		</layer>
		<layer id="283" name="1258912593_const" precision="FP32" type="Const">
			<output>
				<port id="1"/>
			</output>
			<blobs>
				<custom offset="3810504" size="4"/>
			</blobs>
		</layer>
		<layer id="284" name="1259012594_const" precision="FP32" type="Const">
			<output>
				<port id="1"/>
			</output>
			<blobs>
				<custom offset="3810508" size="4"/>
			</blobs>
		</layer>
		<layer id="285" name="InceptionV1/InceptionV1/Mixed_4b/Branch_2/Conv2d_0b_3x3/convolution/fq_weights_1" precision="FP32" type="FakeQuantize">
			<data levels="255.0"/>
			<input>
				<port id="0">
					<dim>48</dim>
					<dim>16</dim>
					<dim>3</dim>
					<dim>3</dim>
				</port>
				<port id="1"/>
				<port id="2"/>
				<port id="3"/>
				<port id="4"/>
			</input>
			<output>
				<port id="5">
					<dim>48</dim>
					<dim>16</dim>
					<dim>3</dim>
					<dim>3</dim>
				</port>
			</output>
		</layer>
		<layer id="286" name="bias_data71757176_const" precision="FP32" type="Const">
			<output>
				<port id="1">
					<dim>48</dim>
				</port>
			</output>
			<blobs>
				<custom offset="3810512" size="192"/>
			</blobs>
		</layer>
		<layer id="287" name="InceptionV1/InceptionV1/Mixed_4b/Branch_2/Conv2d_0b_3x3/convolution" precision="FP32" type="Convolution">
			<data auto_pad="same_upper" dilations="1,1" group="1" kernel="3,3" output="48" pads_begin="1,1" pads_end="1,1" strides="1,1"/>
			<input>
				<port id="0">
					<dim>1</dim>
					<dim>16</dim>
					<dim>14</dim>
					<dim>14</dim>
				</port>
				<port id="1">
					<dim>48</dim>
					<dim>16</dim>
					<dim>3</dim>
					<dim>3</dim>
				</port>
				<port id="2">
					<dim>48</dim>
				</port>
			</input>
			<output>
				<port id="3">
					<dim>1</dim>
					<dim>48</dim>
					<dim>14</dim>
					<dim>14</dim>
				</port>
			</output>
		</layer>
		<layer id="288" name="InceptionV1/InceptionV1/Mixed_4b/Branch_2/Conv2d_0b_3x3/Relu" precision="FP32" type="ReLU">
			<input>
				<port id="0">
					<dim>1</dim>
					<dim>48</dim>
					<dim>14</dim>
					<dim>14</dim>
				</port>
			</input>
			<output>
				<port id="1">
					<dim>1</dim>
					<dim>48</dim>
					<dim>14</dim>
					<dim>14</dim>
				</port>
			</output>
		</layer>
		<layer id="289" name="1435914363_const" precision="FP32" type="Const">
			<output>
				<port id="1"/>
			</output>
			<blobs>
				<custom offset="37928" size="4"/>
			</blobs>
		</layer>
		<layer id="290" name="1436014364_const" precision="FP32" type="Const">
			<output>
				<port id="1"/>
			</output>
			<blobs>
				<custom offset="3810704" size="4"/>
			</blobs>
		</layer>
		<layer id="291" name="1436114365_const" precision="FP32" type="Const">
			<output>
				<port id="1"/>
			</output>
			<blobs>
				<custom offset="37928" size="4"/>
			</blobs>
		</layer>
		<layer id="292" name="1436214366_const" precision="FP32" type="Const">
			<output>
				<port id="1"/>
			</output>
			<blobs>
				<custom offset="3810704" size="4"/>
			</blobs>
		</layer>
		<layer id="293" name="InceptionV1/InceptionV1/Mixed_4b/concat_v2/fq_input_2" precision="FP32" type="FakeQuantize">
			<data levels="256.0"/>
			<input>
				<port id="0">
					<dim>1</dim>
					<dim>48</dim>
					<dim>14</dim>
					<dim>14</dim>
				</port>
				<port id="1"/>
				<port id="2"/>
				<port id="3"/>
				<port id="4"/>
			</input>
			<output>
				<port id="5">
					<dim>1</dim>
					<dim>48</dim>
					<dim>14</dim>
					<dim>14</dim>
				</port>
			</output>
		</layer>
		<layer id="294" name="InceptionV1/InceptionV1/Mixed_4b/Branch_3/MaxPool_0a_3x3/MaxPool" precision="FP32" type="Pooling">
			<data auto_pad="same_upper" exclude-pad="true" kernel="3,3" pads_begin="1,1" pads_end="1,1" pool-method="max" strides="1,1"/>
			<input>
				<port id="0">
					<dim>1</dim>
					<dim>480</dim>
					<dim>14</dim>
					<dim>14</dim>
				</port>
			</input>
			<output>
				<port id="1">
					<dim>1</dim>
					<dim>480</dim>
					<dim>14</dim>
					<dim>14</dim>
				</port>
			</output>
		</layer>
		<layer id="295" name="InceptionV1/InceptionV1/Mixed_4b/Branch_3/Conv2d_0b_1x1/BatchNorm/batchnorm/mul71847186_const" precision="FP32" type="Const">
			<output>
				<port id="1">
					<dim>64</dim>
					<dim>480</dim>
					<dim>1</dim>
					<dim>1</dim>
				</port>
			</output>
			<blobs>
				<custom offset="3810708" size="122880"/>
			</blobs>
		</layer>
		<layer id="296" name="1238712391_const" precision="FP32" type="Const">
			<output>
				<port id="1"/>
			</output>
			<blobs>
				<custom offset="3933588" size="4"/>
			</blobs>
		</layer>
		<layer id="297" name="1238812392_const" precision="FP32" type="Const">
			<output>
				<port id="1"/>
			</output>
			<blobs>
				<custom offset="3933592" size="4"/>
			</blobs>
		</layer>
		<layer id="298" name="1238912393_const" precision="FP32" type="Const">
			<output>
				<port id="1"/>
			</output>
			<blobs>
				<custom offset="3933588" size="4"/>
			</blobs>
		</layer>
		<layer id="299" name="1239012394_const" precision="FP32" type="Const">
			<output>
				<port id="1"/>
			</output>
			<blobs>
				<custom offset="3933592" size="4"/>
			</blobs>
		</layer>
		<layer id="300" name="InceptionV1/InceptionV1/Mixed_4b/Branch_3/Conv2d_0b_1x1/convolution/fq_weights_1" precision="FP32" type="FakeQuantize">
			<data levels="255.0"/>
			<input>
				<port id="0">
					<dim>64</dim>
					<dim>480</dim>
					<dim>1</dim>
					<dim>1</dim>
				</port>
				<port id="1"/>
				<port id="2"/>
				<port id="3"/>
				<port id="4"/>
			</input>
			<output>
				<port id="5">
					<dim>64</dim>
					<dim>480</dim>
					<dim>1</dim>
					<dim>1</dim>
				</port>
			</output>
		</layer>
		<layer id="301" name="bias_data71877188_const" precision="FP32" type="Const">
			<output>
				<port id="1">
					<dim>64</dim>
				</port>
			</output>
			<blobs>
				<custom offset="3933596" size="256"/>
			</blobs>
		</layer>
		<layer id="302" name="InceptionV1/InceptionV1/Mixed_4b/Branch_3/Conv2d_0b_1x1/convolution" precision="FP32" type="Convolution">
			<data auto_pad="same_upper" dilations="1,1" group="1" kernel="1,1" output="64" pads_begin="0,0" pads_end="0,0" strides="1,1"/>
			<input>
				<port id="0">
					<dim>1</dim>
					<dim>480</dim>
					<dim>14</dim>
					<dim>14</dim>
				</port>
				<port id="1">
					<dim>64</dim>
					<dim>480</dim>
					<dim>1</dim>
					<dim>1</dim>
				</port>
				<port id="2">
					<dim>64</dim>
				</port>
			</input>
			<output>
				<port id="3">
					<dim>1</dim>
					<dim>64</dim>
					<dim>14</dim>
					<dim>14</dim>
				</port>
			</output>
		</layer>
		<layer id="303" name="InceptionV1/InceptionV1/Mixed_4b/Branch_3/Conv2d_0b_1x1/Relu" precision="FP32" type="ReLU">
			<input>
				<port id="0">
					<dim>1</dim>
					<dim>64</dim>
					<dim>14</dim>
					<dim>14</dim>
				</port>
			</input>
			<output>
				<port id="1">
					<dim>1</dim>
					<dim>64</dim>
					<dim>14</dim>
					<dim>14</dim>
				</port>
			</output>
		</layer>
		<layer id="304" name="1436914373_const" precision="FP32" type="Const">
			<output>
				<port id="1"/>
			</output>
			<blobs>
				<custom offset="37928" size="4"/>
			</blobs>
		</layer>
		<layer id="305" name="1437014374_const" precision="FP32" type="Const">
			<output>
				<port id="1"/>
			</output>
			<blobs>
				<custom offset="3933852" size="4"/>
			</blobs>
		</layer>
		<layer id="306" name="1437114375_const" precision="FP32" type="Const">
			<output>
				<port id="1"/>
			</output>
			<blobs>
				<custom offset="37928" size="4"/>
			</blobs>
		</layer>
		<layer id="307" name="1437214376_const" precision="FP32" type="Const">
			<output>
				<port id="1"/>
			</output>
			<blobs>
				<custom offset="3933852" size="4"/>
			</blobs>
		</layer>
		<layer id="308" name="InceptionV1/InceptionV1/Mixed_4b/concat_v2/fq_input_3" precision="FP32" type="FakeQuantize">
			<data levels="256.0"/>
			<input>
				<port id="0">
					<dim>1</dim>
					<dim>64</dim>
					<dim>14</dim>
					<dim>14</dim>
				</port>
				<port id="1"/>
				<port id="2"/>
				<port id="3"/>
				<port id="4"/>
			</input>
			<output>
				<port id="5">
					<dim>1</dim>
					<dim>64</dim>
					<dim>14</dim>
					<dim>14</dim>
				</port>
			</output>
		</layer>
		<layer id="309" name="InceptionV1/InceptionV1/Mixed_4b/concat_v2" precision="FP32" type="Concat">
			<data axis="1"/>
			<input>
				<port id="0">
					<dim>1</dim>
					<dim>192</dim>
					<dim>14</dim>
					<dim>14</dim>
				</port>
				<port id="1">
					<dim>1</dim>
					<dim>208</dim>
					<dim>14</dim>
					<dim>14</dim>
				</port>
				<port id="2">
					<dim>1</dim>
					<dim>48</dim>
					<dim>14</dim>
					<dim>14</dim>
				</port>
				<port id="3">
					<dim>1</dim>
					<dim>64</dim>
					<dim>14</dim>
					<dim>14</dim>
				</port>
			</input>
			<output>
				<port id="4">
					<dim>1</dim>
					<dim>512</dim>
					<dim>14</dim>
					<dim>14</dim>
				</port>
			</output>
		</layer>
		<layer id="310" name="InceptionV1/InceptionV1/Mixed_4c/Branch_0/Conv2d_0a_1x1/BatchNorm/batchnorm/mul71907192_const" precision="FP32" type="Const">
			<output>
				<port id="1">
					<dim>160</dim>
					<dim>512</dim>
					<dim>1</dim>
					<dim>1</dim>
				</port>
			</output>
			<blobs>
				<custom offset="3933856" size="327680"/>
			</blobs>
		</layer>
		<layer id="311" name="1225712261_const" precision="FP32" type="Const">
			<output>
				<port id="1"/>
			</output>
			<blobs>
				<custom offset="4261536" size="4"/>
			</blobs>
		</layer>
		<layer id="312" name="1225812262_const" precision="FP32" type="Const">
			<output>
				<port id="1"/>
			</output>
			<blobs>
				<custom offset="4261540" size="4"/>
			</blobs>
		</layer>
		<layer id="313" name="1225912263_const" precision="FP32" type="Const">
			<output>
				<port id="1"/>
			</output>
			<blobs>
				<custom offset="4261536" size="4"/>
			</blobs>
		</layer>
		<layer id="314" name="1226012264_const" precision="FP32" type="Const">
			<output>
				<port id="1"/>
			</output>
			<blobs>
				<custom offset="4261540" size="4"/>
			</blobs>
		</layer>
		<layer id="315" name="InceptionV1/InceptionV1/Mixed_4c/Branch_0/Conv2d_0a_1x1/convolution/fq_weights_1" precision="FP32" type="FakeQuantize">
			<data levels="255.0"/>
			<input>
				<port id="0">
					<dim>160</dim>
					<dim>512</dim>
					<dim>1</dim>
					<dim>1</dim>
				</port>
				<port id="1"/>
				<port id="2"/>
				<port id="3"/>
				<port id="4"/>
			</input>
			<output>
				<port id="5">
					<dim>160</dim>
					<dim>512</dim>
					<dim>1</dim>
					<dim>1</dim>
				</port>
			</output>
		</layer>
		<layer id="316" name="bias_data71937194_const" precision="FP32" type="Const">
			<output>
				<port id="1">
					<dim>160</dim>
				</port>
			</output>
			<blobs>
				<custom offset="4261544" size="640"/>
			</blobs>
		</layer>
		<layer id="317" name="InceptionV1/InceptionV1/Mixed_4c/Branch_0/Conv2d_0a_1x1/convolution" precision="FP32" type="Convolution">
			<data auto_pad="same_upper" dilations="1,1" group="1" kernel="1,1" output="160" pads_begin="0,0" pads_end="0,0" strides="1,1"/>
			<input>
				<port id="0">
					<dim>1</dim>
					<dim>512</dim>
					<dim>14</dim>
					<dim>14</dim>
				</port>
				<port id="1">
					<dim>160</dim>
					<dim>512</dim>
					<dim>1</dim>
					<dim>1</dim>
				</port>
				<port id="2">
					<dim>160</dim>
				</port>
			</input>
			<output>
				<port id="3">
					<dim>1</dim>
					<dim>160</dim>
					<dim>14</dim>
					<dim>14</dim>
				</port>
			</output>
		</layer>
		<layer id="318" name="InceptionV1/InceptionV1/Mixed_4c/Branch_0/Conv2d_0a_1x1/Relu" precision="FP32" type="ReLU">
			<input>
				<port id="0">
					<dim>1</dim>
					<dim>160</dim>
					<dim>14</dim>
					<dim>14</dim>
				</port>
			</input>
			<output>
				<port id="1">
					<dim>1</dim>
					<dim>160</dim>
					<dim>14</dim>
					<dim>14</dim>
				</port>
			</output>
		</layer>
		<layer id="319" name="1365913663_const" precision="FP32" type="Const">
			<output>
				<port id="1"/>
			</output>
			<blobs>
				<custom offset="37928" size="4"/>
			</blobs>
		</layer>
		<layer id="320" name="1366013664_const" precision="FP32" type="Const">
			<output>
				<port id="1"/>
			</output>
			<blobs>
				<custom offset="4262184" size="4"/>
			</blobs>
		</layer>
		<layer id="321" name="1366113665_const" precision="FP32" type="Const">
			<output>
				<port id="1"/>
			</output>
			<blobs>
				<custom offset="37928" size="4"/>
			</blobs>
		</layer>
		<layer id="322" name="1366213666_const" precision="FP32" type="Const">
			<output>
				<port id="1"/>
			</output>
			<blobs>
				<custom offset="4262184" size="4"/>
			</blobs>
		</layer>
		<layer id="323" name="InceptionV1/InceptionV1/Mixed_4c/concat_v2/fq_input_0" precision="FP32" type="FakeQuantize">
			<data levels="256.0"/>
			<input>
				<port id="0">
					<dim>1</dim>
					<dim>160</dim>
					<dim>14</dim>
					<dim>14</dim>
				</port>
				<port id="1"/>
				<port id="2"/>
				<port id="3"/>
				<port id="4"/>
			</input>
			<output>
				<port id="5">
					<dim>1</dim>
					<dim>160</dim>
					<dim>14</dim>
					<dim>14</dim>
				</port>
			</output>
		</layer>
		<layer id="324" name="InceptionV1/InceptionV1/Mixed_4c/Branch_1/Conv2d_0a_1x1/BatchNorm/batchnorm/mul71967198_const" precision="FP32" type="Const">
			<output>
				<port id="1">
					<dim>112</dim>
					<dim>512</dim>
					<dim>1</dim>
					<dim>1</dim>
				</port>
			</output>
			<blobs>
				<custom offset="4262188" size="229376"/>
			</blobs>
		</layer>
		<layer id="325" name="1190711911_const" precision="FP32" type="Const">
			<output>
				<port id="1"/>
			</output>
			<blobs>
				<custom offset="4491564" size="4"/>
			</blobs>
		</layer>
		<layer id="326" name="1190811912_const" precision="FP32" type="Const">
			<output>
				<port id="1"/>
			</output>
			<blobs>
				<custom offset="4491568" size="4"/>
			</blobs>
		</layer>
		<layer id="327" name="1190911913_const" precision="FP32" type="Const">
			<output>
				<port id="1"/>
			</output>
			<blobs>
				<custom offset="4491564" size="4"/>
			</blobs>
		</layer>
		<layer id="328" name="1191011914_const" precision="FP32" type="Const">
			<output>
				<port id="1"/>
			</output>
			<blobs>
				<custom offset="4491568" size="4"/>
			</blobs>
		</layer>
		<layer id="329" name="InceptionV1/InceptionV1/Mixed_4c/Branch_1/Conv2d_0a_1x1/convolution/fq_weights_1" precision="FP32" type="FakeQuantize">
			<data levels="255.0"/>
			<input>
				<port id="0">
					<dim>112</dim>
					<dim>512</dim>
					<dim>1</dim>
					<dim>1</dim>
				</port>
				<port id="1"/>
				<port id="2"/>
				<port id="3"/>
				<port id="4"/>
			</input>
			<output>
				<port id="5">
					<dim>112</dim>
					<dim>512</dim>
					<dim>1</dim>
					<dim>1</dim>
				</port>
			</output>
		</layer>
		<layer id="330" name="bias_data72177218_const" precision="FP32" type="Const">
			<output>
				<port id="1">
					<dim>112</dim>
				</port>
			</output>
			<blobs>
				<custom offset="4491572" size="448"/>
			</blobs>
		</layer>
		<layer id="331" name="InceptionV1/InceptionV1/Mixed_4c/Branch_1/Conv2d_0a_1x1/convolution" precision="FP32" type="Convolution">
			<data auto_pad="same_upper" dilations="1,1" group="1" kernel="1,1" output="112" pads_begin="0,0" pads_end="0,0" strides="1,1"/>
			<input>
				<port id="0">
					<dim>1</dim>
					<dim>512</dim>
					<dim>14</dim>
					<dim>14</dim>
				</port>
				<port id="1">
					<dim>112</dim>
					<dim>512</dim>
					<dim>1</dim>
					<dim>1</dim>
				</port>
				<port id="2">
					<dim>112</dim>
				</port>
			</input>
			<output>
				<port id="3">
					<dim>1</dim>
					<dim>112</dim>
					<dim>14</dim>
					<dim>14</dim>
				</port>
			</output>
		</layer>
		<layer id="332" name="InceptionV1/InceptionV1/Mixed_4c/Branch_1/Conv2d_0a_1x1/Relu" precision="FP32" type="ReLU">
			<input>
				<port id="0">
					<dim>1</dim>
					<dim>112</dim>
					<dim>14</dim>
					<dim>14</dim>
				</port>
			</input>
			<output>
				<port id="1">
					<dim>1</dim>
					<dim>112</dim>
					<dim>14</dim>
					<dim>14</dim>
				</port>
			</output>
		</layer>
		<layer id="333" name="1206712071_const" precision="FP32" type="Const">
			<output>
				<port id="1"/>
			</output>
			<blobs>
				<custom offset="37928" size="4"/>
			</blobs>
		</layer>
		<layer id="334" name="1206812072_const" precision="FP32" type="Const">
			<output>
				<port id="1"/>
			</output>
			<blobs>
				<custom offset="4492020" size="4"/>
			</blobs>
		</layer>
		<layer id="335" name="1206912073_const" precision="FP32" type="Const">
			<output>
				<port id="1"/>
			</output>
			<blobs>
				<custom offset="37928" size="4"/>
			</blobs>
		</layer>
		<layer id="336" name="1207012074_const" precision="FP32" type="Const">
			<output>
				<port id="1"/>
			</output>
			<blobs>
				<custom offset="4492020" size="4"/>
			</blobs>
		</layer>
		<layer id="337" name="InceptionV1/InceptionV1/Mixed_4c/Branch_1/Conv2d_0b_3x3/convolution/fq_input_0" precision="FP32" type="FakeQuantize">
			<data levels="256.0"/>
			<input>
				<port id="0">
					<dim>1</dim>
					<dim>112</dim>
					<dim>14</dim>
					<dim>14</dim>
				</port>
				<port id="1"/>
				<port id="2"/>
				<port id="3"/>
				<port id="4"/>
			</input>
			<output>
				<port id="5">
					<dim>1</dim>
					<dim>112</dim>
					<dim>14</dim>
					<dim>14</dim>
				</port>
			</output>
		</layer>
		<layer id="338" name="InceptionV1/InceptionV1/Mixed_4c/Branch_1/Conv2d_0b_3x3/BatchNorm/batchnorm/mul72207222_const" precision="FP32" type="Const">
			<output>
				<port id="1">
					<dim>224</dim>
					<dim>112</dim>
					<dim>3</dim>
					<dim>3</dim>
				</port>
			</output>
			<blobs>
				<custom offset="4492024" size="903168"/>
			</blobs>
		</layer>
		<layer id="339" name="1207712081_const" precision="FP32" type="Const">
			<output>
				<port id="1"/>
			</output>
			<blobs>
				<custom offset="5395192" size="4"/>
			</blobs>
		</layer>
		<layer id="340" name="1207812082_const" precision="FP32" type="Const">
			<output>
				<port id="1"/>
			</output>
			<blobs>
				<custom offset="5395196" size="4"/>
			</blobs>
		</layer>
		<layer id="341" name="1207912083_const" precision="FP32" type="Const">
			<output>
				<port id="1"/>
			</output>
			<blobs>
				<custom offset="5395192" size="4"/>
			</blobs>
		</layer>
		<layer id="342" name="1208012084_const" precision="FP32" type="Const">
			<output>
				<port id="1"/>
			</output>
			<blobs>
				<custom offset="5395196" size="4"/>
			</blobs>
		</layer>
		<layer id="343" name="InceptionV1/InceptionV1/Mixed_4c/Branch_1/Conv2d_0b_3x3/convolution/fq_weights_1" precision="FP32" type="FakeQuantize">
			<data levels="255.0"/>
			<input>
				<port id="0">
					<dim>224</dim>
					<dim>112</dim>
					<dim>3</dim>
					<dim>3</dim>
				</port>
				<port id="1"/>
				<port id="2"/>
				<port id="3"/>
				<port id="4"/>
			</input>
			<output>
				<port id="5">
					<dim>224</dim>
					<dim>112</dim>
					<dim>3</dim>
					<dim>3</dim>
				</port>
			</output>
		</layer>
		<layer id="344" name="bias_data72237224_const" precision="FP32" type="Const">
			<output>
				<port id="1">
					<dim>224</dim>
				</port>
			</output>
			<blobs>
				<custom offset="5395200" size="896"/>
			</blobs>
		</layer>
		<layer id="345" name="InceptionV1/InceptionV1/Mixed_4c/Branch_1/Conv2d_0b_3x3/convolution" precision="FP32" type="Convolution">
			<data auto_pad="same_upper" dilations="1,1" group="1" kernel="3,3" output="224" pads_begin="1,1" pads_end="1,1" strides="1,1"/>
			<input>
				<port id="0">
					<dim>1</dim>
					<dim>112</dim>
					<dim>14</dim>
					<dim>14</dim>
				</port>
				<port id="1">
					<dim>224</dim>
					<dim>112</dim>
					<dim>3</dim>
					<dim>3</dim>
				</port>
				<port id="2">
					<dim>224</dim>
				</port>
			</input>
			<output>
				<port id="3">
					<dim>1</dim>
					<dim>224</dim>
					<dim>14</dim>
					<dim>14</dim>
				</port>
			</output>
		</layer>
		<layer id="346" name="InceptionV1/InceptionV1/Mixed_4c/Branch_1/Conv2d_0b_3x3/Relu" precision="FP32" type="ReLU">
			<input>
				<port id="0">
					<dim>1</dim>
					<dim>224</dim>
					<dim>14</dim>
					<dim>14</dim>
				</port>
			</input>
			<output>
				<port id="1">
					<dim>1</dim>
					<dim>224</dim>
					<dim>14</dim>
					<dim>14</dim>
				</port>
			</output>
		</layer>
		<layer id="347" name="1366913673_const" precision="FP32" type="Const">
			<output>
				<port id="1"/>
			</output>
			<blobs>
				<custom offset="37928" size="4"/>
			</blobs>
		</layer>
		<layer id="348" name="1367013674_const" precision="FP32" type="Const">
			<output>
				<port id="1"/>
			</output>
			<blobs>
				<custom offset="5396096" size="4"/>
			</blobs>
		</layer>
		<layer id="349" name="1367113675_const" precision="FP32" type="Const">
			<output>
				<port id="1"/>
			</output>
			<blobs>
				<custom offset="37928" size="4"/>
			</blobs>
		</layer>
		<layer id="350" name="1367213676_const" precision="FP32" type="Const">
			<output>
				<port id="1"/>
			</output>
			<blobs>
				<custom offset="5396096" size="4"/>
			</blobs>
		</layer>
		<layer id="351" name="InceptionV1/InceptionV1/Mixed_4c/concat_v2/fq_input_1" precision="FP32" type="FakeQuantize">
			<data levels="256.0"/>
			<input>
				<port id="0">
					<dim>1</dim>
					<dim>224</dim>
					<dim>14</dim>
					<dim>14</dim>
				</port>
				<port id="1"/>
				<port id="2"/>
				<port id="3"/>
				<port id="4"/>
			</input>
			<output>
				<port id="5">
					<dim>1</dim>
					<dim>224</dim>
					<dim>14</dim>
					<dim>14</dim>
				</port>
			</output>
		</layer>
		<layer id="352" name="InceptionV1/InceptionV1/Mixed_4c/Branch_2/Conv2d_0a_1x1/BatchNorm/batchnorm/mul72007202_const" precision="FP32" type="Const">
			<output>
				<port id="1">
					<dim>24</dim>
					<dim>512</dim>
					<dim>1</dim>
					<dim>1</dim>
				</port>
			</output>
			<blobs>
				<custom offset="5396100" size="49152"/>
			</blobs>
		</layer>
		<layer id="353" name="1268712691_const" precision="FP32" type="Const">
			<output>
				<port id="1"/>
			</output>
			<blobs>
				<custom offset="5445252" size="4"/>
			</blobs>
		</layer>
		<layer id="354" name="1268812692_const" precision="FP32" type="Const">
			<output>
				<port id="1"/>
			</output>
			<blobs>
				<custom offset="5445256" size="4"/>
			</blobs>
		</layer>
		<layer id="355" name="1268912693_const" precision="FP32" type="Const">
			<output>
				<port id="1"/>
			</output>
			<blobs>
				<custom offset="5445252" size="4"/>
			</blobs>
		</layer>
		<layer id="356" name="1269012694_const" precision="FP32" type="Const">
			<output>
				<port id="1"/>
			</output>
			<blobs>
				<custom offset="5445256" size="4"/>
			</blobs>
		</layer>
		<layer id="357" name="InceptionV1/InceptionV1/Mixed_4c/Branch_2/Conv2d_0a_1x1/convolution/fq_weights_1" precision="FP32" type="FakeQuantize">
			<data levels="255.0"/>
			<input>
				<port id="0">
					<dim>24</dim>
					<dim>512</dim>
					<dim>1</dim>
					<dim>1</dim>
				</port>
				<port id="1"/>
				<port id="2"/>
				<port id="3"/>
				<port id="4"/>
			</input>
			<output>
				<port id="5">
					<dim>24</dim>
					<dim>512</dim>
					<dim>1</dim>
					<dim>1</dim>
				</port>
			</output>
		</layer>
		<layer id="358" name="bias_data72037204_const" precision="FP32" type="Const">
			<output>
				<port id="1">
					<dim>24</dim>
				</port>
			</output>
			<blobs>
				<custom offset="5445260" size="96"/>
			</blobs>
		</layer>
		<layer id="359" name="InceptionV1/InceptionV1/Mixed_4c/Branch_2/Conv2d_0a_1x1/convolution" precision="FP32" type="Convolution">
			<data auto_pad="same_upper" dilations="1,1" group="1" kernel="1,1" output="24" pads_begin="0,0" pads_end="0,0" strides="1,1"/>
			<input>
				<port id="0">
					<dim>1</dim>
					<dim>512</dim>
					<dim>14</dim>
					<dim>14</dim>
				</port>
				<port id="1">
					<dim>24</dim>
					<dim>512</dim>
					<dim>1</dim>
					<dim>1</dim>
				</port>
				<port id="2">
					<dim>24</dim>
				</port>
			</input>
			<output>
				<port id="3">
					<dim>1</dim>
					<dim>24</dim>
					<dim>14</dim>
					<dim>14</dim>
				</port>
			</output>
		</layer>
		<layer id="360" name="InceptionV1/InceptionV1/Mixed_4c/Branch_2/Conv2d_0a_1x1/Relu" precision="FP32" type="ReLU">
			<input>
				<port id="0">
					<dim>1</dim>
					<dim>24</dim>
					<dim>14</dim>
					<dim>14</dim>
				</port>
			</input>
			<output>
				<port id="1">
					<dim>1</dim>
					<dim>24</dim>
					<dim>14</dim>
					<dim>14</dim>
				</port>
			</output>
		</layer>
		<layer id="361" name="1235712361_const" precision="FP32" type="Const">
			<output>
				<port id="1"/>
			</output>
			<blobs>
				<custom offset="37928" size="4"/>
			</blobs>
		</layer>
		<layer id="362" name="1235812362_const" precision="FP32" type="Const">
			<output>
				<port id="1"/>
			</output>
			<blobs>
				<custom offset="5445356" size="4"/>
			</blobs>
		</layer>
		<layer id="363" name="1235912363_const" precision="FP32" type="Const">
			<output>
				<port id="1"/>
			</output>
			<blobs>
				<custom offset="37928" size="4"/>
			</blobs>
		</layer>
		<layer id="364" name="1236012364_const" precision="FP32" type="Const">
			<output>
				<port id="1"/>
			</output>
			<blobs>
				<custom offset="5445356" size="4"/>
			</blobs>
		</layer>
		<layer id="365" name="InceptionV1/InceptionV1/Mixed_4c/Branch_2/Conv2d_0b_3x3/convolution/fq_input_0" precision="FP32" type="FakeQuantize">
			<data levels="256.0"/>
			<input>
				<port id="0">
					<dim>1</dim>
					<dim>24</dim>
					<dim>14</dim>
					<dim>14</dim>
				</port>
				<port id="1"/>
				<port id="2"/>
				<port id="3"/>
				<port id="4"/>
			</input>
			<output>
				<port id="5">
					<dim>1</dim>
					<dim>24</dim>
					<dim>14</dim>
					<dim>14</dim>
				</port>
			</output>
		</layer>
		<layer id="366" name="InceptionV1/InceptionV1/Mixed_4c/Branch_2/Conv2d_0b_3x3/BatchNorm/batchnorm/mul72067208_const" precision="FP32" type="Const">
			<output>
				<port id="1">
					<dim>64</dim>
					<dim>24</dim>
					<dim>3</dim>
					<dim>3</dim>
				</port>
			</output>
			<blobs>
				<custom offset="5445360" size="55296"/>
			</blobs>
		</layer>
		<layer id="367" name="1236712371_const" precision="FP32" type="Const">
			<output>
				<port id="1"/>
			</output>
			<blobs>
				<custom offset="5500656" size="4"/>
			</blobs>
		</layer>
		<layer id="368" name="1236812372_const" precision="FP32" type="Const">
			<output>
				<port id="1"/>
			</output>
			<blobs>
				<custom offset="5500660" size="4"/>
			</blobs>
		</layer>
		<layer id="369" name="1236912373_const" precision="FP32" type="Const">
			<output>
				<port id="1"/>
			</output>
			<blobs>
				<custom offset="5500656" size="4"/>
			</blobs>
		</layer>
		<layer id="370" name="1237012374_const" precision="FP32" type="Const">
			<output>
				<port id="1"/>
			</output>
			<blobs>
				<custom offset="5500660" size="4"/>
			</blobs>
		</layer>
		<layer id="371" name="InceptionV1/InceptionV1/Mixed_4c/Branch_2/Conv2d_0b_3x3/convolution/fq_weights_1" precision="FP32" type="FakeQuantize">
			<data levels="255.0"/>
			<input>
				<port id="0">
					<dim>64</dim>
					<dim>24</dim>
					<dim>3</dim>
					<dim>3</dim>
				</port>
				<port id="1"/>
				<port id="2"/>
				<port id="3"/>
				<port id="4"/>
			</input>
			<output>
				<port id="5">
					<dim>64</dim>
					<dim>24</dim>
					<dim>3</dim>
					<dim>3</dim>
				</port>
			</output>
		</layer>
		<layer id="372" name="bias_data72097210_const" precision="FP32" type="Const">
			<output>
				<port id="1">
					<dim>64</dim>
				</port>
			</output>
			<blobs>
				<custom offset="5500664" size="256"/>
			</blobs>
		</layer>
		<layer id="373" name="InceptionV1/InceptionV1/Mixed_4c/Branch_2/Conv2d_0b_3x3/convolution" precision="FP32" type="Convolution">
			<data auto_pad="same_upper" dilations="1,1" group="1" kernel="3,3" output="64" pads_begin="1,1" pads_end="1,1" strides="1,1"/>
			<input>
				<port id="0">
					<dim>1</dim>
					<dim>24</dim>
					<dim>14</dim>
					<dim>14</dim>
				</port>
				<port id="1">
					<dim>64</dim>
					<dim>24</dim>
					<dim>3</dim>
					<dim>3</dim>
				</port>
				<port id="2">
					<dim>64</dim>
				</port>
			</input>
			<output>
				<port id="3">
					<dim>1</dim>
					<dim>64</dim>
					<dim>14</dim>
					<dim>14</dim>
				</port>
			</output>
		</layer>
		<layer id="374" name="InceptionV1/InceptionV1/Mixed_4c/Branch_2/Conv2d_0b_3x3/Relu" precision="FP32" type="ReLU">
			<input>
				<port id="0">
					<dim>1</dim>
					<dim>64</dim>
					<dim>14</dim>
					<dim>14</dim>
				</port>
			</input>
			<output>
				<port id="1">
					<dim>1</dim>
					<dim>64</dim>
					<dim>14</dim>
					<dim>14</dim>
				</port>
			</output>
		</layer>
		<layer id="375" name="1367913683_const" precision="FP32" type="Const">
			<output>
				<port id="1"/>
			</output>
			<blobs>
				<custom offset="37928" size="4"/>
			</blobs>
		</layer>
		<layer id="376" name="1368013684_const" precision="FP32" type="Const">
			<output>
				<port id="1"/>
			</output>
			<blobs>
				<custom offset="5500920" size="4"/>
			</blobs>
		</layer>
		<layer id="377" name="1368113685_const" precision="FP32" type="Const">
			<output>
				<port id="1"/>
			</output>
			<blobs>
				<custom offset="37928" size="4"/>
			</blobs>
		</layer>
		<layer id="378" name="1368213686_const" precision="FP32" type="Const">
			<output>
				<port id="1"/>
			</output>
			<blobs>
				<custom offset="5500920" size="4"/>
			</blobs>
		</layer>
		<layer id="379" name="InceptionV1/InceptionV1/Mixed_4c/concat_v2/fq_input_2" precision="FP32" type="FakeQuantize">
			<data levels="256.0"/>
			<input>
				<port id="0">
					<dim>1</dim>
					<dim>64</dim>
					<dim>14</dim>
					<dim>14</dim>
				</port>
				<port id="1"/>
				<port id="2"/>
				<port id="3"/>
				<port id="4"/>
			</input>
			<output>
				<port id="5">
					<dim>1</dim>
					<dim>64</dim>
					<dim>14</dim>
					<dim>14</dim>
				</port>
			</output>
		</layer>
		<layer id="380" name="InceptionV1/InceptionV1/Mixed_4c/Branch_3/MaxPool_0a_3x3/MaxPool" precision="FP32" type="Pooling">
			<data auto_pad="same_upper" exclude-pad="true" kernel="3,3" pads_begin="1,1" pads_end="1,1" pool-method="max" strides="1,1"/>
			<input>
				<port id="0">
					<dim>1</dim>
					<dim>512</dim>
					<dim>14</dim>
					<dim>14</dim>
				</port>
			</input>
			<output>
				<port id="1">
					<dim>1</dim>
					<dim>512</dim>
					<dim>14</dim>
					<dim>14</dim>
				</port>
			</output>
		</layer>
		<layer id="381" name="InceptionV1/InceptionV1/Mixed_4c/Branch_3/Conv2d_0b_1x1/BatchNorm/batchnorm/mul72127214_const" precision="FP32" type="Const">
			<output>
				<port id="1">
					<dim>64</dim>
					<dim>512</dim>
					<dim>1</dim>
					<dim>1</dim>
				</port>
			</output>
			<blobs>
				<custom offset="5500924" size="131072"/>
			</blobs>
		</layer>
		<layer id="382" name="1256712571_const" precision="FP32" type="Const">
			<output>
				<port id="1"/>
			</output>
			<blobs>
				<custom offset="5631996" size="4"/>
			</blobs>
		</layer>
		<layer id="383" name="1256812572_const" precision="FP32" type="Const">
			<output>
				<port id="1"/>
			</output>
			<blobs>
				<custom offset="5632000" size="4"/>
			</blobs>
		</layer>
		<layer id="384" name="1256912573_const" precision="FP32" type="Const">
			<output>
				<port id="1"/>
			</output>
			<blobs>
				<custom offset="5631996" size="4"/>
			</blobs>
		</layer>
		<layer id="385" name="1257012574_const" precision="FP32" type="Const">
			<output>
				<port id="1"/>
			</output>
			<blobs>
				<custom offset="5632000" size="4"/>
			</blobs>
		</layer>
		<layer id="386" name="InceptionV1/InceptionV1/Mixed_4c/Branch_3/Conv2d_0b_1x1/convolution/fq_weights_1" precision="FP32" type="FakeQuantize">
			<data levels="255.0"/>
			<input>
				<port id="0">
					<dim>64</dim>
					<dim>512</dim>
					<dim>1</dim>
					<dim>1</dim>
				</port>
				<port id="1"/>
				<port id="2"/>
				<port id="3"/>
				<port id="4"/>
			</input>
			<output>
				<port id="5">
					<dim>64</dim>
					<dim>512</dim>
					<dim>1</dim>
					<dim>1</dim>
				</port>
			</output>
		</layer>
		<layer id="387" name="bias_data72157216_const" precision="FP32" type="Const">
			<output>
				<port id="1">
					<dim>64</dim>
				</port>
			</output>
			<blobs>
				<custom offset="5632004" size="256"/>
			</blobs>
		</layer>
		<layer id="388" name="InceptionV1/InceptionV1/Mixed_4c/Branch_3/Conv2d_0b_1x1/convolution" precision="FP32" type="Convolution">
			<data auto_pad="same_upper" dilations="1,1" group="1" kernel="1,1" output="64" pads_begin="0,0" pads_end="0,0" strides="1,1"/>
			<input>
				<port id="0">
					<dim>1</dim>
					<dim>512</dim>
					<dim>14</dim>
					<dim>14</dim>
				</port>
				<port id="1">
					<dim>64</dim>
					<dim>512</dim>
					<dim>1</dim>
					<dim>1</dim>
				</port>
				<port id="2">
					<dim>64</dim>
				</port>
			</input>
			<output>
				<port id="3">
					<dim>1</dim>
					<dim>64</dim>
					<dim>14</dim>
					<dim>14</dim>
				</port>
			</output>
		</layer>
		<layer id="389" name="InceptionV1/InceptionV1/Mixed_4c/Branch_3/Conv2d_0b_1x1/Relu" precision="FP32" type="ReLU">
			<input>
				<port id="0">
					<dim>1</dim>
					<dim>64</dim>
					<dim>14</dim>
					<dim>14</dim>
				</port>
			</input>
			<output>
				<port id="1">
					<dim>1</dim>
					<dim>64</dim>
					<dim>14</dim>
					<dim>14</dim>
				</port>
			</output>
		</layer>
		<layer id="390" name="1368913693_const" precision="FP32" type="Const">
			<output>
				<port id="1"/>
			</output>
			<blobs>
				<custom offset="37928" size="4"/>
			</blobs>
		</layer>
		<layer id="391" name="1369013694_const" precision="FP32" type="Const">
			<output>
				<port id="1"/>
			</output>
			<blobs>
				<custom offset="5632260" size="4"/>
			</blobs>
		</layer>
		<layer id="392" name="1369113695_const" precision="FP32" type="Const">
			<output>
				<port id="1"/>
			</output>
			<blobs>
				<custom offset="37928" size="4"/>
			</blobs>
		</layer>
		<layer id="393" name="1369213696_const" precision="FP32" type="Const">
			<output>
				<port id="1"/>
			</output>
			<blobs>
				<custom offset="5632260" size="4"/>
			</blobs>
		</layer>
		<layer id="394" name="InceptionV1/InceptionV1/Mixed_4c/concat_v2/fq_input_3" precision="FP32" type="FakeQuantize">
			<data levels="256.0"/>
			<input>
				<port id="0">
					<dim>1</dim>
					<dim>64</dim>
					<dim>14</dim>
					<dim>14</dim>
				</port>
				<port id="1"/>
				<port id="2"/>
				<port id="3"/>
				<port id="4"/>
			</input>
			<output>
				<port id="5">
					<dim>1</dim>
					<dim>64</dim>
					<dim>14</dim>
					<dim>14</dim>
				</port>
			</output>
		</layer>
		<layer id="395" name="InceptionV1/InceptionV1/Mixed_4c/concat_v2" precision="FP32" type="Concat">
			<data axis="1"/>
			<input>
				<port id="0">
					<dim>1</dim>
					<dim>160</dim>
					<dim>14</dim>
					<dim>14</dim>
				</port>
				<port id="1">
					<dim>1</dim>
					<dim>224</dim>
					<dim>14</dim>
					<dim>14</dim>
				</port>
				<port id="2">
					<dim>1</dim>
					<dim>64</dim>
					<dim>14</dim>
					<dim>14</dim>
				</port>
				<port id="3">
					<dim>1</dim>
					<dim>64</dim>
					<dim>14</dim>
					<dim>14</dim>
				</port>
			</input>
			<output>
				<port id="4">
					<dim>1</dim>
					<dim>512</dim>
					<dim>14</dim>
					<dim>14</dim>
				</port>
			</output>
		</layer>
		<layer id="396" name="InceptionV1/InceptionV1/Mixed_4d/Branch_0/Conv2d_0a_1x1/BatchNorm/batchnorm/mul72567258_const" precision="FP32" type="Const">
			<output>
				<port id="1">
					<dim>128</dim>
					<dim>512</dim>
					<dim>1</dim>
					<dim>1</dim>
				</port>
			</output>
			<blobs>
				<custom offset="5632264" size="262144"/>
			</blobs>
		</layer>
		<layer id="397" name="1195711961_const" precision="FP32" type="Const">
			<output>
				<port id="1"/>
			</output>
			<blobs>
				<custom offset="5894408" size="4"/>
			</blobs>
		</layer>
		<layer id="398" name="1195811962_const" precision="FP32" type="Const">
			<output>
				<port id="1"/>
			</output>
			<blobs>
				<custom offset="5894412" size="4"/>
			</blobs>
		</layer>
		<layer id="399" name="1195911963_const" precision="FP32" type="Const">
			<output>
				<port id="1"/>
			</output>
			<blobs>
				<custom offset="5894408" size="4"/>
			</blobs>
		</layer>
		<layer id="400" name="1196011964_const" precision="FP32" type="Const">
			<output>
				<port id="1"/>
			</output>
			<blobs>
				<custom offset="5894412" size="4"/>
			</blobs>
		</layer>
		<layer id="401" name="InceptionV1/InceptionV1/Mixed_4d/Branch_0/Conv2d_0a_1x1/convolution/fq_weights_1" precision="FP32" type="FakeQuantize">
			<data levels="255.0"/>
			<input>
				<port id="0">
					<dim>128</dim>
					<dim>512</dim>
					<dim>1</dim>
					<dim>1</dim>
				</port>
				<port id="1"/>
				<port id="2"/>
				<port id="3"/>
				<port id="4"/>
			</input>
			<output>
				<port id="5">
					<dim>128</dim>
					<dim>512</dim>
					<dim>1</dim>
					<dim>1</dim>
				</port>
			</output>
		</layer>
		<layer id="402" name="bias_data72597260_const" precision="FP32" type="Const">
			<output>
				<port id="1">
					<dim>128</dim>
				</port>
			</output>
			<blobs>
				<custom offset="5894416" size="512"/>
			</blobs>
		</layer>
		<layer id="403" name="InceptionV1/InceptionV1/Mixed_4d/Branch_0/Conv2d_0a_1x1/convolution" precision="FP32" type="Convolution">
			<data auto_pad="same_upper" dilations="1,1" group="1" kernel="1,1" output="128" pads_begin="0,0" pads_end="0,0" strides="1,1"/>
			<input>
				<port id="0">
					<dim>1</dim>
					<dim>512</dim>
					<dim>14</dim>
					<dim>14</dim>
				</port>
				<port id="1">
					<dim>128</dim>
					<dim>512</dim>
					<dim>1</dim>
					<dim>1</dim>
				</port>
				<port id="2">
					<dim>128</dim>
				</port>
			</input>
			<output>
				<port id="3">
					<dim>1</dim>
					<dim>128</dim>
					<dim>14</dim>
					<dim>14</dim>
				</port>
			</output>
		</layer>
		<layer id="404" name="InceptionV1/InceptionV1/Mixed_4d/Branch_0/Conv2d_0a_1x1/Relu" precision="FP32" type="ReLU">
			<input>
				<port id="0">
					<dim>1</dim>
					<dim>128</dim>
					<dim>14</dim>
					<dim>14</dim>
				</port>
			</input>
			<output>
				<port id="1">
					<dim>1</dim>
					<dim>128</dim>
					<dim>14</dim>
					<dim>14</dim>
				</port>
			</output>
		</layer>
		<layer id="405" name="1424914253_const" precision="FP32" type="Const">
			<output>
				<port id="1"/>
			</output>
			<blobs>
				<custom offset="37928" size="4"/>
			</blobs>
		</layer>
		<layer id="406" name="1425014254_const" precision="FP32" type="Const">
			<output>
				<port id="1"/>
			</output>
			<blobs>
				<custom offset="5894928" size="4"/>
			</blobs>
		</layer>
		<layer id="407" name="1425114255_const" precision="FP32" type="Const">
			<output>
				<port id="1"/>
			</output>
			<blobs>
				<custom offset="37928" size="4"/>
			</blobs>
		</layer>
		<layer id="408" name="1425214256_const" precision="FP32" type="Const">
			<output>
				<port id="1"/>
			</output>
			<blobs>
				<custom offset="5894928" size="4"/>
			</blobs>
		</layer>
		<layer id="409" name="InceptionV1/InceptionV1/Mixed_4d/concat_v2/fq_input_0" precision="FP32" type="FakeQuantize">
			<data levels="256.0"/>
			<input>
				<port id="0">
					<dim>1</dim>
					<dim>128</dim>
					<dim>14</dim>
					<dim>14</dim>
				</port>
				<port id="1"/>
				<port id="2"/>
				<port id="3"/>
				<port id="4"/>
			</input>
			<output>
				<port id="5">
					<dim>1</dim>
					<dim>128</dim>
					<dim>14</dim>
					<dim>14</dim>
				</port>
			</output>
		</layer>
		<layer id="410" name="InceptionV1/InceptionV1/Mixed_4d/Branch_1/Conv2d_0a_1x1/BatchNorm/batchnorm/mul72267228_const" precision="FP32" type="Const">
			<output>
				<port id="1">
					<dim>128</dim>
					<dim>512</dim>
					<dim>1</dim>
					<dim>1</dim>
				</port>
			</output>
			<blobs>
				<custom offset="5894932" size="262144"/>
			</blobs>
		</layer>
		<layer id="411" name="1282712831_const" precision="FP32" type="Const">
			<output>
				<port id="1"/>
			</output>
			<blobs>
				<custom offset="6157076" size="4"/>
			</blobs>
		</layer>
		<layer id="412" name="1282812832_const" precision="FP32" type="Const">
			<output>
				<port id="1"/>
			</output>
			<blobs>
				<custom offset="6157080" size="4"/>
			</blobs>
		</layer>
		<layer id="413" name="1282912833_const" precision="FP32" type="Const">
			<output>
				<port id="1"/>
			</output>
			<blobs>
				<custom offset="6157076" size="4"/>
			</blobs>
		</layer>
		<layer id="414" name="1283012834_const" precision="FP32" type="Const">
			<output>
				<port id="1"/>
			</output>
			<blobs>
				<custom offset="6157080" size="4"/>
			</blobs>
		</layer>
		<layer id="415" name="InceptionV1/InceptionV1/Mixed_4d/Branch_1/Conv2d_0a_1x1/convolution/fq_weights_1" precision="FP32" type="FakeQuantize">
			<data levels="255.0"/>
			<input>
				<port id="0">
					<dim>128</dim>
					<dim>512</dim>
					<dim>1</dim>
					<dim>1</dim>
				</port>
				<port id="1"/>
				<port id="2"/>
				<port id="3"/>
				<port id="4"/>
			</input>
			<output>
				<port id="5">
					<dim>128</dim>
					<dim>512</dim>
					<dim>1</dim>
					<dim>1</dim>
				</port>
			</output>
		</layer>
		<layer id="416" name="bias_data72297230_const" precision="FP32" type="Const">
			<output>
				<port id="1">
					<dim>128</dim>
				</port>
			</output>
			<blobs>
				<custom offset="6157084" size="512"/>
			</blobs>
		</layer>
		<layer id="417" name="InceptionV1/InceptionV1/Mixed_4d/Branch_1/Conv2d_0a_1x1/convolution" precision="FP32" type="Convolution">
			<data auto_pad="same_upper" dilations="1,1" group="1" kernel="1,1" output="128" pads_begin="0,0" pads_end="0,0" strides="1,1"/>
			<input>
				<port id="0">
					<dim>1</dim>
					<dim>512</dim>
					<dim>14</dim>
					<dim>14</dim>
				</port>
				<port id="1">
					<dim>128</dim>
					<dim>512</dim>
					<dim>1</dim>
					<dim>1</dim>
				</port>
				<port id="2">
					<dim>128</dim>
				</port>
			</input>
			<output>
				<port id="3">
					<dim>1</dim>
					<dim>128</dim>
					<dim>14</dim>
					<dim>14</dim>
				</port>
			</output>
		</layer>
		<layer id="418" name="InceptionV1/InceptionV1/Mixed_4d/Branch_1/Conv2d_0a_1x1/Relu" precision="FP32" type="ReLU">
			<input>
				<port id="0">
					<dim>1</dim>
					<dim>128</dim>
					<dim>14</dim>
					<dim>14</dim>
				</port>
			</input>
			<output>
				<port id="1">
					<dim>1</dim>
					<dim>128</dim>
					<dim>14</dim>
					<dim>14</dim>
				</port>
			</output>
		</layer>
		<layer id="419" name="1279712801_const" precision="FP32" type="Const">
			<output>
				<port id="1"/>
			</output>
			<blobs>
				<custom offset="37928" size="4"/>
			</blobs>
		</layer>
		<layer id="420" name="1279812802_const" precision="FP32" type="Const">
			<output>
				<port id="1"/>
			</output>
			<blobs>
				<custom offset="6157596" size="4"/>
			</blobs>
		</layer>
		<layer id="421" name="1279912803_const" precision="FP32" type="Const">
			<output>
				<port id="1"/>
			</output>
			<blobs>
				<custom offset="37928" size="4"/>
			</blobs>
		</layer>
		<layer id="422" name="1280012804_const" precision="FP32" type="Const">
			<output>
				<port id="1"/>
			</output>
			<blobs>
				<custom offset="6157596" size="4"/>
			</blobs>
		</layer>
		<layer id="423" name="InceptionV1/InceptionV1/Mixed_4d/Branch_1/Conv2d_0b_3x3/convolution/fq_input_0" precision="FP32" type="FakeQuantize">
			<data levels="256.0"/>
			<input>
				<port id="0">
					<dim>1</dim>
					<dim>128</dim>
					<dim>14</dim>
					<dim>14</dim>
				</port>
				<port id="1"/>
				<port id="2"/>
				<port id="3"/>
				<port id="4"/>
			</input>
			<output>
				<port id="5">
					<dim>1</dim>
					<dim>128</dim>
					<dim>14</dim>
					<dim>14</dim>
				</port>
			</output>
		</layer>
		<layer id="424" name="InceptionV1/InceptionV1/Mixed_4d/Branch_1/Conv2d_0b_3x3/BatchNorm/batchnorm/mul72327234_const" precision="FP32" type="Const">
			<output>
				<port id="1">
					<dim>256</dim>
					<dim>128</dim>
					<dim>3</dim>
					<dim>3</dim>
				</port>
			</output>
			<blobs>
				<custom offset="6157600" size="1179648"/>
			</blobs>
		</layer>
		<layer id="425" name="1280712811_const" precision="FP32" type="Const">
			<output>
				<port id="1"/>
			</output>
			<blobs>
				<custom offset="7337248" size="4"/>
			</blobs>
		</layer>
		<layer id="426" name="1280812812_const" precision="FP32" type="Const">
			<output>
				<port id="1"/>
			</output>
			<blobs>
				<custom offset="7337252" size="4"/>
			</blobs>
		</layer>
		<layer id="427" name="1280912813_const" precision="FP32" type="Const">
			<output>
				<port id="1"/>
			</output>
			<blobs>
				<custom offset="7337248" size="4"/>
			</blobs>
		</layer>
		<layer id="428" name="1281012814_const" precision="FP32" type="Const">
			<output>
				<port id="1"/>
			</output>
			<blobs>
				<custom offset="7337252" size="4"/>
			</blobs>
		</layer>
		<layer id="429" name="InceptionV1/InceptionV1/Mixed_4d/Branch_1/Conv2d_0b_3x3/convolution/fq_weights_1" precision="FP32" type="FakeQuantize">
			<data levels="255.0"/>
			<input>
				<port id="0">
					<dim>256</dim>
					<dim>128</dim>
					<dim>3</dim>
					<dim>3</dim>
				</port>
				<port id="1"/>
				<port id="2"/>
				<port id="3"/>
				<port id="4"/>
			</input>
			<output>
				<port id="5">
					<dim>256</dim>
					<dim>128</dim>
					<dim>3</dim>
					<dim>3</dim>
				</port>
			</output>
		</layer>
		<layer id="430" name="bias_data72357236_const" precision="FP32" type="Const">
			<output>
				<port id="1">
					<dim>256</dim>
				</port>
			</output>
			<blobs>
				<custom offset="7337256" size="1024"/>
			</blobs>
		</layer>
		<layer id="431" name="InceptionV1/InceptionV1/Mixed_4d/Branch_1/Conv2d_0b_3x3/convolution" precision="FP32" type="Convolution">
			<data auto_pad="same_upper" dilations="1,1" group="1" kernel="3,3" output="256" pads_begin="1,1" pads_end="1,1" strides="1,1"/>
			<input>
				<port id="0">
					<dim>1</dim>
					<dim>128</dim>
					<dim>14</dim>
					<dim>14</dim>
				</port>
				<port id="1">
					<dim>256</dim>
					<dim>128</dim>
					<dim>3</dim>
					<dim>3</dim>
				</port>
				<port id="2">
					<dim>256</dim>
				</port>
			</input>
			<output>
				<port id="3">
					<dim>1</dim>
					<dim>256</dim>
					<dim>14</dim>
					<dim>14</dim>
				</port>
			</output>
		</layer>
		<layer id="432" name="InceptionV1/InceptionV1/Mixed_4d/Branch_1/Conv2d_0b_3x3/Relu" precision="FP32" type="ReLU">
			<input>
				<port id="0">
					<dim>1</dim>
					<dim>256</dim>
					<dim>14</dim>
					<dim>14</dim>
				</port>
			</input>
			<output>
				<port id="1">
					<dim>1</dim>
					<dim>256</dim>
					<dim>14</dim>
					<dim>14</dim>
				</port>
			</output>
		</layer>
		<layer id="433" name="1425914263_const" precision="FP32" type="Const">
			<output>
				<port id="1"/>
			</output>
			<blobs>
				<custom offset="37928" size="4"/>
			</blobs>
		</layer>
		<layer id="434" name="1426014264_const" precision="FP32" type="Const">
			<output>
				<port id="1"/>
			</output>
			<blobs>
				<custom offset="7338280" size="4"/>
			</blobs>
		</layer>
		<layer id="435" name="1426114265_const" precision="FP32" type="Const">
			<output>
				<port id="1"/>
			</output>
			<blobs>
				<custom offset="37928" size="4"/>
			</blobs>
		</layer>
		<layer id="436" name="1426214266_const" precision="FP32" type="Const">
			<output>
				<port id="1"/>
			</output>
			<blobs>
				<custom offset="7338280" size="4"/>
			</blobs>
		</layer>
		<layer id="437" name="InceptionV1/InceptionV1/Mixed_4d/concat_v2/fq_input_1" precision="FP32" type="FakeQuantize">
			<data levels="256.0"/>
			<input>
				<port id="0">
					<dim>1</dim>
					<dim>256</dim>
					<dim>14</dim>
					<dim>14</dim>
				</port>
				<port id="1"/>
				<port id="2"/>
				<port id="3"/>
				<port id="4"/>
			</input>
			<output>
				<port id="5">
					<dim>1</dim>
					<dim>256</dim>
					<dim>14</dim>
					<dim>14</dim>
				</port>
			</output>
		</layer>
		<layer id="438" name="InceptionV1/InceptionV1/Mixed_4d/Branch_2/Conv2d_0a_1x1/BatchNorm/batchnorm/mul72387240_const" precision="FP32" type="Const">
			<output>
				<port id="1">
					<dim>24</dim>
					<dim>512</dim>
					<dim>1</dim>
					<dim>1</dim>
				</port>
			</output>
			<blobs>
				<custom offset="7338284" size="49152"/>
			</blobs>
		</layer>
		<layer id="439" name="1262712631_const" precision="FP32" type="Const">
			<output>
				<port id="1"/>
			</output>
			<blobs>
				<custom offset="7387436" size="4"/>
			</blobs>
		</layer>
		<layer id="440" name="1262812632_const" precision="FP32" type="Const">
			<output>
				<port id="1"/>
			</output>
			<blobs>
				<custom offset="7387440" size="4"/>
			</blobs>
		</layer>
		<layer id="441" name="1262912633_const" precision="FP32" type="Const">
			<output>
				<port id="1"/>
			</output>
			<blobs>
				<custom offset="7387436" size="4"/>
			</blobs>
		</layer>
		<layer id="442" name="1263012634_const" precision="FP32" type="Const">
			<output>
				<port id="1"/>
			</output>
			<blobs>
				<custom offset="7387440" size="4"/>
			</blobs>
		</layer>
		<layer id="443" name="InceptionV1/InceptionV1/Mixed_4d/Branch_2/Conv2d_0a_1x1/convolution/fq_weights_1" precision="FP32" type="FakeQuantize">
			<data levels="255.0"/>
			<input>
				<port id="0">
					<dim>24</dim>
					<dim>512</dim>
					<dim>1</dim>
					<dim>1</dim>
				</port>
				<port id="1"/>
				<port id="2"/>
				<port id="3"/>
				<port id="4"/>
			</input>
			<output>
				<port id="5">
					<dim>24</dim>
					<dim>512</dim>
					<dim>1</dim>
					<dim>1</dim>
				</port>
			</output>
		</layer>
		<layer id="444" name="bias_data72417242_const" precision="FP32" type="Const">
			<output>
				<port id="1">
					<dim>24</dim>
				</port>
			</output>
			<blobs>
				<custom offset="7387444" size="96"/>
			</blobs>
		</layer>
		<layer id="445" name="InceptionV1/InceptionV1/Mixed_4d/Branch_2/Conv2d_0a_1x1/convolution" precision="FP32" type="Convolution">
			<data auto_pad="same_upper" dilations="1,1" group="1" kernel="1,1" output="24" pads_begin="0,0" pads_end="0,0" strides="1,1"/>
			<input>
				<port id="0">
					<dim>1</dim>
					<dim>512</dim>
					<dim>14</dim>
					<dim>14</dim>
				</port>
				<port id="1">
					<dim>24</dim>
					<dim>512</dim>
					<dim>1</dim>
					<dim>1</dim>
				</port>
				<port id="2">
					<dim>24</dim>
				</port>
			</input>
			<output>
				<port id="3">
					<dim>1</dim>
					<dim>24</dim>
					<dim>14</dim>
					<dim>14</dim>
				</port>
			</output>
		</layer>
		<layer id="446" name="InceptionV1/InceptionV1/Mixed_4d/Branch_2/Conv2d_0a_1x1/Relu" precision="FP32" type="ReLU">
			<input>
				<port id="0">
					<dim>1</dim>
					<dim>24</dim>
					<dim>14</dim>
					<dim>14</dim>
				</port>
			</input>
			<output>
				<port id="1">
					<dim>1</dim>
					<dim>24</dim>
					<dim>14</dim>
					<dim>14</dim>
				</port>
			</output>
		</layer>
		<layer id="447" name="1251712521_const" precision="FP32" type="Const">
			<output>
				<port id="1"/>
			</output>
			<blobs>
				<custom offset="37928" size="4"/>
			</blobs>
		</layer>
		<layer id="448" name="1251812522_const" precision="FP32" type="Const">
			<output>
				<port id="1"/>
			</output>
			<blobs>
				<custom offset="7387540" size="4"/>
			</blobs>
		</layer>
		<layer id="449" name="1251912523_const" precision="FP32" type="Const">
			<output>
				<port id="1"/>
			</output>
			<blobs>
				<custom offset="37928" size="4"/>
			</blobs>
		</layer>
		<layer id="450" name="1252012524_const" precision="FP32" type="Const">
			<output>
				<port id="1"/>
			</output>
			<blobs>
				<custom offset="7387540" size="4"/>
			</blobs>
		</layer>
		<layer id="451" name="InceptionV1/InceptionV1/Mixed_4d/Branch_2/Conv2d_0b_3x3/convolution/fq_input_0" precision="FP32" type="FakeQuantize">
			<data levels="256.0"/>
			<input>
				<port id="0">
					<dim>1</dim>
					<dim>24</dim>
					<dim>14</dim>
					<dim>14</dim>
				</port>
				<port id="1"/>
				<port id="2"/>
				<port id="3"/>
				<port id="4"/>
			</input>
			<output>
				<port id="5">
					<dim>1</dim>
					<dim>24</dim>
					<dim>14</dim>
					<dim>14</dim>
				</port>
			</output>
		</layer>
		<layer id="452" name="InceptionV1/InceptionV1/Mixed_4d/Branch_2/Conv2d_0b_3x3/BatchNorm/batchnorm/mul72447246_const" precision="FP32" type="Const">
			<output>
				<port id="1">
					<dim>64</dim>
					<dim>24</dim>
					<dim>3</dim>
					<dim>3</dim>
				</port>
			</output>
			<blobs>
				<custom offset="7387544" size="55296"/>
			</blobs>
		</layer>
		<layer id="453" name="1252712531_const" precision="FP32" type="Const">
			<output>
				<port id="1"/>
			</output>
			<blobs>
				<custom offset="7442840" size="4"/>
			</blobs>
		</layer>
		<layer id="454" name="1252812532_const" precision="FP32" type="Const">
			<output>
				<port id="1"/>
			</output>
			<blobs>
				<custom offset="7442844" size="4"/>
			</blobs>
		</layer>
		<layer id="455" name="1252912533_const" precision="FP32" type="Const">
			<output>
				<port id="1"/>
			</output>
			<blobs>
				<custom offset="7442840" size="4"/>
			</blobs>
		</layer>
		<layer id="456" name="1253012534_const" precision="FP32" type="Const">
			<output>
				<port id="1"/>
			</output>
			<blobs>
				<custom offset="7442844" size="4"/>
			</blobs>
		</layer>
		<layer id="457" name="InceptionV1/InceptionV1/Mixed_4d/Branch_2/Conv2d_0b_3x3/convolution/fq_weights_1" precision="FP32" type="FakeQuantize">
			<data levels="255.0"/>
			<input>
				<port id="0">
					<dim>64</dim>
					<dim>24</dim>
					<dim>3</dim>
					<dim>3</dim>
				</port>
				<port id="1"/>
				<port id="2"/>
				<port id="3"/>
				<port id="4"/>
			</input>
			<output>
				<port id="5">
					<dim>64</dim>
					<dim>24</dim>
					<dim>3</dim>
					<dim>3</dim>
				</port>
			</output>
		</layer>
		<layer id="458" name="bias_data72477248_const" precision="FP32" type="Const">
			<output>
				<port id="1">
					<dim>64</dim>
				</port>
			</output>
			<blobs>
				<custom offset="7442848" size="256"/>
			</blobs>
		</layer>
		<layer id="459" name="InceptionV1/InceptionV1/Mixed_4d/Branch_2/Conv2d_0b_3x3/convolution" precision="FP32" type="Convolution">
			<data auto_pad="same_upper" dilations="1,1" group="1" kernel="3,3" output="64" pads_begin="1,1" pads_end="1,1" strides="1,1"/>
			<input>
				<port id="0">
					<dim>1</dim>
					<dim>24</dim>
					<dim>14</dim>
					<dim>14</dim>
				</port>
				<port id="1">
					<dim>64</dim>
					<dim>24</dim>
					<dim>3</dim>
					<dim>3</dim>
				</port>
				<port id="2">
					<dim>64</dim>
				</port>
			</input>
			<output>
				<port id="3">
					<dim>1</dim>
					<dim>64</dim>
					<dim>14</dim>
					<dim>14</dim>
				</port>
			</output>
		</layer>
		<layer id="460" name="InceptionV1/InceptionV1/Mixed_4d/Branch_2/Conv2d_0b_3x3/Relu" precision="FP32" type="ReLU">
			<input>
				<port id="0">
					<dim>1</dim>
					<dim>64</dim>
					<dim>14</dim>
					<dim>14</dim>
				</port>
			</input>
			<output>
				<port id="1">
					<dim>1</dim>
					<dim>64</dim>
					<dim>14</dim>
					<dim>14</dim>
				</port>
			</output>
		</layer>
		<layer id="461" name="1426914273_const" precision="FP32" type="Const">
			<output>
				<port id="1"/>
			</output>
			<blobs>
				<custom offset="37928" size="4"/>
			</blobs>
		</layer>
		<layer id="462" name="1427014274_const" precision="FP32" type="Const">
			<output>
				<port id="1"/>
			</output>
			<blobs>
				<custom offset="7443104" size="4"/>
			</blobs>
		</layer>
		<layer id="463" name="1427114275_const" precision="FP32" type="Const">
			<output>
				<port id="1"/>
			</output>
			<blobs>
				<custom offset="37928" size="4"/>
			</blobs>
		</layer>
		<layer id="464" name="1427214276_const" precision="FP32" type="Const">
			<output>
				<port id="1"/>
			</output>
			<blobs>
				<custom offset="7443104" size="4"/>
			</blobs>
		</layer>
		<layer id="465" name="InceptionV1/InceptionV1/Mixed_4d/concat_v2/fq_input_2" precision="FP32" type="FakeQuantize">
			<data levels="256.0"/>
			<input>
				<port id="0">
					<dim>1</dim>
					<dim>64</dim>
					<dim>14</dim>
					<dim>14</dim>
				</port>
				<port id="1"/>
				<port id="2"/>
				<port id="3"/>
				<port id="4"/>
			</input>
			<output>
				<port id="5">
					<dim>1</dim>
					<dim>64</dim>
					<dim>14</dim>
					<dim>14</dim>
				</port>
			</output>
		</layer>
		<layer id="466" name="InceptionV1/InceptionV1/Mixed_4d/Branch_3/MaxPool_0a_3x3/MaxPool" precision="FP32" type="Pooling">
			<data auto_pad="same_upper" exclude-pad="true" kernel="3,3" pads_begin="1,1" pads_end="1,1" pool-method="max" strides="1,1"/>
			<input>
				<port id="0">
					<dim>1</dim>
					<dim>512</dim>
					<dim>14</dim>
					<dim>14</dim>
				</port>
			</input>
			<output>
				<port id="1">
					<dim>1</dim>
					<dim>512</dim>
					<dim>14</dim>
					<dim>14</dim>
				</port>
			</output>
		</layer>
		<layer id="467" name="InceptionV1/InceptionV1/Mixed_4d/Branch_3/Conv2d_0b_1x1/BatchNorm/batchnorm/mul72507252_const" precision="FP32" type="Const">
			<output>
				<port id="1">
					<dim>64</dim>
					<dim>512</dim>
					<dim>1</dim>
					<dim>1</dim>
				</port>
			</output>
			<blobs>
				<custom offset="7443108" size="131072"/>
			</blobs>
		</layer>
		<layer id="468" name="1264712651_const" precision="FP32" type="Const">
			<output>
				<port id="1"/>
			</output>
			<blobs>
				<custom offset="7574180" size="4"/>
			</blobs>
		</layer>
		<layer id="469" name="1264812652_const" precision="FP32" type="Const">
			<output>
				<port id="1"/>
			</output>
			<blobs>
				<custom offset="7574184" size="4"/>
			</blobs>
		</layer>
		<layer id="470" name="1264912653_const" precision="FP32" type="Const">
			<output>
				<port id="1"/>
			</output>
			<blobs>
				<custom offset="7574180" size="4"/>
			</blobs>
		</layer>
		<layer id="471" name="1265012654_const" precision="FP32" type="Const">
			<output>
				<port id="1"/>
			</output>
			<blobs>
				<custom offset="7574184" size="4"/>
			</blobs>
		</layer>
		<layer id="472" name="InceptionV1/InceptionV1/Mixed_4d/Branch_3/Conv2d_0b_1x1/convolution/fq_weights_1" precision="FP32" type="FakeQuantize">
			<data levels="255.0"/>
			<input>
				<port id="0">
					<dim>64</dim>
					<dim>512</dim>
					<dim>1</dim>
					<dim>1</dim>
				</port>
				<port id="1"/>
				<port id="2"/>
				<port id="3"/>
				<port id="4"/>
			</input>
			<output>
				<port id="5">
					<dim>64</dim>
					<dim>512</dim>
					<dim>1</dim>
					<dim>1</dim>
				</port>
			</output>
		</layer>
		<layer id="473" name="bias_data72537254_const" precision="FP32" type="Const">
			<output>
				<port id="1">
					<dim>64</dim>
				</port>
			</output>
			<blobs>
				<custom offset="7574188" size="256"/>
			</blobs>
		</layer>
		<layer id="474" name="InceptionV1/InceptionV1/Mixed_4d/Branch_3/Conv2d_0b_1x1/convolution" precision="FP32" type="Convolution">
			<data auto_pad="same_upper" dilations="1,1" group="1" kernel="1,1" output="64" pads_begin="0,0" pads_end="0,0" strides="1,1"/>
			<input>
				<port id="0">
					<dim>1</dim>
					<dim>512</dim>
					<dim>14</dim>
					<dim>14</dim>
				</port>
				<port id="1">
					<dim>64</dim>
					<dim>512</dim>
					<dim>1</dim>
					<dim>1</dim>
				</port>
				<port id="2">
					<dim>64</dim>
				</port>
			</input>
			<output>
				<port id="3">
					<dim>1</dim>
					<dim>64</dim>
					<dim>14</dim>
					<dim>14</dim>
				</port>
			</output>
		</layer>
		<layer id="475" name="InceptionV1/InceptionV1/Mixed_4d/Branch_3/Conv2d_0b_1x1/Relu" precision="FP32" type="ReLU">
			<input>
				<port id="0">
					<dim>1</dim>
					<dim>64</dim>
					<dim>14</dim>
					<dim>14</dim>
				</port>
			</input>
			<output>
				<port id="1">
					<dim>1</dim>
					<dim>64</dim>
					<dim>14</dim>
					<dim>14</dim>
				</port>
			</output>
		</layer>
		<layer id="476" name="1427914283_const" precision="FP32" type="Const">
			<output>
				<port id="1"/>
			</output>
			<blobs>
				<custom offset="37928" size="4"/>
			</blobs>
		</layer>
		<layer id="477" name="1428014284_const" precision="FP32" type="Const">
			<output>
				<port id="1"/>
			</output>
			<blobs>
				<custom offset="7574444" size="4"/>
			</blobs>
		</layer>
		<layer id="478" name="1428114285_const" precision="FP32" type="Const">
			<output>
				<port id="1"/>
			</output>
			<blobs>
				<custom offset="37928" size="4"/>
			</blobs>
		</layer>
		<layer id="479" name="1428214286_const" precision="FP32" type="Const">
			<output>
				<port id="1"/>
			</output>
			<blobs>
				<custom offset="7574444" size="4"/>
			</blobs>
		</layer>
		<layer id="480" name="InceptionV1/InceptionV1/Mixed_4d/concat_v2/fq_input_3" precision="FP32" type="FakeQuantize">
			<data levels="256.0"/>
			<input>
				<port id="0">
					<dim>1</dim>
					<dim>64</dim>
					<dim>14</dim>
					<dim>14</dim>
				</port>
				<port id="1"/>
				<port id="2"/>
				<port id="3"/>
				<port id="4"/>
			</input>
			<output>
				<port id="5">
					<dim>1</dim>
					<dim>64</dim>
					<dim>14</dim>
					<dim>14</dim>
				</port>
			</output>
		</layer>
		<layer id="481" name="InceptionV1/InceptionV1/Mixed_4d/concat_v2" precision="FP32" type="Concat">
			<data axis="1"/>
			<input>
				<port id="0">
					<dim>1</dim>
					<dim>128</dim>
					<dim>14</dim>
					<dim>14</dim>
				</port>
				<port id="1">
					<dim>1</dim>
					<dim>256</dim>
					<dim>14</dim>
					<dim>14</dim>
				</port>
				<port id="2">
					<dim>1</dim>
					<dim>64</dim>
					<dim>14</dim>
					<dim>14</dim>
				</port>
				<port id="3">
					<dim>1</dim>
					<dim>64</dim>
					<dim>14</dim>
					<dim>14</dim>
				</port>
			</input>
			<output>
				<port id="4">
					<dim>1</dim>
					<dim>512</dim>
					<dim>14</dim>
					<dim>14</dim>
				</port>
			</output>
		</layer>
		<layer id="482" name="InceptionV1/InceptionV1/Mixed_4e/Branch_0/Conv2d_0a_1x1/BatchNorm/batchnorm/mul72807282_const" precision="FP32" type="Const">
			<output>
				<port id="1">
					<dim>112</dim>
					<dim>512</dim>
					<dim>1</dim>
					<dim>1</dim>
				</port>
			</output>
			<blobs>
				<custom offset="7574448" size="229376"/>
			</blobs>
		</layer>
		<layer id="483" name="1234712351_const" precision="FP32" type="Const">
			<output>
				<port id="1"/>
			</output>
			<blobs>
				<custom offset="7803824" size="4"/>
			</blobs>
		</layer>
		<layer id="484" name="1234812352_const" precision="FP32" type="Const">
			<output>
				<port id="1"/>
			</output>
			<blobs>
				<custom offset="7803828" size="4"/>
			</blobs>
		</layer>
		<layer id="485" name="1234912353_const" precision="FP32" type="Const">
			<output>
				<port id="1"/>
			</output>
			<blobs>
				<custom offset="7803824" size="4"/>
			</blobs>
		</layer>
		<layer id="486" name="1235012354_const" precision="FP32" type="Const">
			<output>
				<port id="1"/>
			</output>
			<blobs>
				<custom offset="7803828" size="4"/>
			</blobs>
		</layer>
		<layer id="487" name="InceptionV1/InceptionV1/Mixed_4e/Branch_0/Conv2d_0a_1x1/convolution/fq_weights_1" precision="FP32" type="FakeQuantize">
			<data levels="255.0"/>
			<input>
				<port id="0">
					<dim>112</dim>
					<dim>512</dim>
					<dim>1</dim>
					<dim>1</dim>
				</port>
				<port id="1"/>
				<port id="2"/>
				<port id="3"/>
				<port id="4"/>
			</input>
			<output>
				<port id="5">
					<dim>112</dim>
					<dim>512</dim>
					<dim>1</dim>
					<dim>1</dim>
				</port>
			</output>
		</layer>
		<layer id="488" name="bias_data72837284_const" precision="FP32" type="Const">
			<output>
				<port id="1">
					<dim>112</dim>
				</port>
			</output>
			<blobs>
				<custom offset="7803832" size="448"/>
			</blobs>
		</layer>
		<layer id="489" name="InceptionV1/InceptionV1/Mixed_4e/Branch_0/Conv2d_0a_1x1/convolution" precision="FP32" type="Convolution">
			<data auto_pad="same_upper" dilations="1,1" group="1" kernel="1,1" output="112" pads_begin="0,0" pads_end="0,0" strides="1,1"/>
			<input>
				<port id="0">
					<dim>1</dim>
					<dim>512</dim>
					<dim>14</dim>
					<dim>14</dim>
…
		<edge from-layer="138" from-port="1" to-layer="142" to-port="1"/>
		<edge from-layer="139" from-port="1" to-layer="142" to-port="2"/>
		<edge from-layer="140" from-port="1" to-layer="142" to-port="3"/>
		<edge from-layer="141" from-port="1" to-layer="142" to-port="4"/>
		<edge from-layer="136" from-port="4" to-layer="144" to-port="0"/>
		<edge from-layer="142" from-port="5" to-layer="144" to-port="1"/>
		<edge from-layer="143" from-port="1" to-layer="144" to-port="2"/>
		<edge from-layer="144" from-port="3" to-layer="145" to-port="0"/>
		<edge from-layer="145" from-port="1" to-layer="150" to-port="0"/>
		<edge from-layer="146" from-port="1" to-layer="150" to-port="1"/>
		<edge from-layer="147" from-port="1" to-layer="150" to-port="2"/>
		<edge from-layer="148" from-port="1" to-layer="150" to-port="3"/>
		<edge from-layer="149" from-port="1" to-layer="150" to-port="4"/>
		<edge from-layer="151" from-port="1" to-layer="156" to-port="0"/>
		<edge from-layer="152" from-port="1" to-layer="156" to-port="1"/>
		<edge from-layer="153" from-port="1" to-layer="156" to-port="2"/>
		<edge from-layer="154" from-port="1" to-layer="156" to-port="3"/>
		<edge from-layer="155" from-port="1" to-layer="156" to-port="4"/>
		<edge from-layer="136" from-port="4" to-layer="158" to-port="0"/>
		<edge from-layer="156" from-port="5" to-layer="158" to-port="1"/>
		<edge from-layer="157" from-port="1" to-layer="158" to-port="2"/>
		<edge from-layer="158" from-port="3" to-layer="159" to-port="0"/>
		<edge from-layer="159" from-port="1" to-layer="164" to-port="0"/>
		<edge from-layer="160" from-port="1" to-layer="164" to-port="1"/>
		<edge from-layer="161" from-port="1" to-layer="164" to-port="2"/>
		<edge from-layer="162" from-port="1" to-layer="164" to-port="3"/>
		<edge from-layer="163" from-port="1" to-layer="164" to-port="4"/>
		<edge from-layer="165" from-port="1" to-layer="170" to-port="0"/>
		<edge from-layer="166" from-port="1" to-layer="170" to-port="1"/>
		<edge from-layer="167" from-port="1" to-layer="170" to-port="2"/>
		<edge from-layer="168" from-port="1" to-layer="170" to-port="3"/>
		<edge from-layer="169" from-port="1" to-layer="170" to-port="4"/>
		<edge from-layer="164" from-port="5" to-layer="172" to-port="0"/>
		<edge from-layer="170" from-port="5" to-layer="172" to-port="1"/>
		<edge from-layer="171" from-port="1" to-layer="172" to-port="2"/>
		<edge from-layer="172" from-port="3" to-layer="173" to-port="0"/>
		<edge from-layer="173" from-port="1" to-layer="178" to-port="0"/>
		<edge from-layer="174" from-port="1" to-layer="178" to-port="1"/>
		<edge from-layer="175" from-port="1" to-layer="178" to-port="2"/>
		<edge from-layer="176" from-port="1" to-layer="178" to-port="3"/>
		<edge from-layer="177" from-port="1" to-layer="178" to-port="4"/>
		<edge from-layer="179" from-port="1" to-layer="184" to-port="0"/>
		<edge from-layer="180" from-port="1" to-layer="184" to-port="1"/>
		<edge from-layer="181" from-port="1" to-layer="184" to-port="2"/>
		<edge from-layer="182" from-port="1" to-layer="184" to-port="3"/>
		<edge from-layer="183" from-port="1" to-layer="184" to-port="4"/>
		<edge from-layer="136" from-port="4" to-layer="186" to-port="0"/>
		<edge from-layer="184" from-port="5" to-layer="186" to-port="1"/>
		<edge from-layer="185" from-port="1" to-layer="186" to-port="2"/>
		<edge from-layer="186" from-port="3" to-layer="187" to-port="0"/>
		<edge from-layer="187" from-port="1" to-layer="192" to-port="0"/>
		<edge from-layer="188" from-port="1" to-layer="192" to-port="1"/>
		<edge from-layer="189" from-port="1" to-layer="192" to-port="2"/>
		<edge from-layer="190" from-port="1" to-layer="192" to-port="3"/>
		<edge from-layer="191" from-port="1" to-layer="192" to-port="4"/>
		<edge from-layer="193" from-port="1" to-layer="198" to-port="0"/>
		<edge from-layer="194" from-port="1" to-layer="198" to-port="1"/>
		<edge from-layer="195" from-port="1" to-layer="198" to-port="2"/>
		<edge from-layer="196" from-port="1" to-layer="198" to-port="3"/>
		<edge from-layer="197" from-port="1" to-layer="198" to-port="4"/>
		<edge from-layer="192" from-port="5" to-layer="200" to-port="0"/>
		<edge from-layer="198" from-port="5" to-layer="200" to-port="1"/>
		<edge from-layer="199" from-port="1" to-layer="200" to-port="2"/>
		<edge from-layer="200" from-port="3" to-layer="201" to-port="0"/>
		<edge from-layer="201" from-port="1" to-layer="206" to-port="0"/>
		<edge from-layer="202" from-port="1" to-layer="206" to-port="1"/>
		<edge from-layer="203" from-port="1" to-layer="206" to-port="2"/>
		<edge from-layer="204" from-port="1" to-layer="206" to-port="3"/>
		<edge from-layer="205" from-port="1" to-layer="206" to-port="4"/>
		<edge from-layer="136" from-port="4" to-layer="207" to-port="0"/>
		<edge from-layer="208" from-port="1" to-layer="213" to-port="0"/>
		<edge from-layer="209" from-port="1" to-layer="213" to-port="1"/>
		<edge from-layer="210" from-port="1" to-layer="213" to-port="2"/>
		<edge from-layer="211" from-port="1" to-layer="213" to-port="3"/>
		<edge from-layer="212" from-port="1" to-layer="213" to-port="4"/>
		<edge from-layer="207" from-port="1" to-layer="215" to-port="0"/>
		<edge from-layer="213" from-port="5" to-layer="215" to-port="1"/>
		<edge from-layer="214" from-port="1" to-layer="215" to-port="2"/>
		<edge from-layer="215" from-port="3" to-layer="216" to-port="0"/>
		<edge from-layer="216" from-port="1" to-layer="221" to-port="0"/>
		<edge from-layer="217" from-port="1" to-layer="221" to-port="1"/>
		<edge from-layer="218" from-port="1" to-layer="221" to-port="2"/>
		<edge from-layer="219" from-port="1" to-layer="221" to-port="3"/>
		<edge from-layer="220" from-port="1" to-layer="221" to-port="4"/>
		<edge from-layer="150" from-port="5" to-layer="222" to-port="0"/>
		<edge from-layer="178" from-port="5" to-layer="222" to-port="1"/>
		<edge from-layer="206" from-port="5" to-layer="222" to-port="2"/>
		<edge from-layer="221" from-port="5" to-layer="222" to-port="3"/>
		<edge from-layer="222" from-port="4" to-layer="223" to-port="0"/>
		<edge from-layer="224" from-port="1" to-layer="229" to-port="0"/>
		<edge from-layer="225" from-port="1" to-layer="229" to-port="1"/>
		<edge from-layer="226" from-port="1" to-layer="229" to-port="2"/>
		<edge from-layer="227" from-port="1" to-layer="229" to-port="3"/>
		<edge from-layer="228" from-port="1" to-layer="229" to-port="4"/>
		<edge from-layer="223" from-port="1" to-layer="231" to-port="0"/>
		<edge from-layer="229" from-port="5" to-layer="231" to-port="1"/>
		<edge from-layer="230" from-port="1" to-layer="231" to-port="2"/>
		<edge from-layer="231" from-port="3" to-layer="232" to-port="0"/>
		<edge from-layer="232" from-port="1" to-layer="237" to-port="0"/>
		<edge from-layer="233" from-port="1" to-layer="237" to-port="1"/>
		<edge from-layer="234" from-port="1" to-layer="237" to-port="2"/>
		<edge from-layer="235" from-port="1" to-layer="237" to-port="3"/>
		<edge from-layer="236" from-port="1" to-layer="237" to-port="4"/>
		<edge from-layer="238" from-port="1" to-layer="243" to-port="0"/>
		<edge from-layer="239" from-port="1" to-layer="243" to-port="1"/>
		<edge from-layer="240" from-port="1" to-layer="243" to-port="2"/>
		<edge from-layer="241" from-port="1" to-layer="243" to-port="3"/>
		<edge from-layer="242" from-port="1" to-layer="243" to-port="4"/>
		<edge from-layer="223" from-port="1" to-layer="245" to-port="0"/>
		<edge from-layer="243" from-port="5" to-layer="245" to-port="1"/>
		<edge from-layer="244" from-port="1" to-layer="245" to-port="2"/>
		<edge from-layer="245" from-port="3" to-layer="246" to-port="0"/>
		<edge from-layer="246" from-port="1" to-layer="251" to-port="0"/>
		<edge from-layer="247" from-port="1" to-layer="251" to-port="1"/>
		<edge from-layer="248" from-port="1" to-layer="251" to-port="2"/>
		<edge from-layer="249" from-port="1" to-layer="251" to-port="3"/>
		<edge from-layer="250" from-port="1" to-layer="251" to-port="4"/>
		<edge from-layer="252" from-port="1" to-layer="257" to-port="0"/>
		<edge from-layer="253" from-port="1" to-layer="257" to-port="1"/>
		<edge from-layer="254" from-port="1" to-layer="257" to-port="2"/>
		<edge from-layer="255" from-port="1" to-layer="257" to-port="3"/>
		<edge from-layer="256" from-port="1" to-layer="257" to-port="4"/>
		<edge from-layer="251" from-port="5" to-layer="259" to-port="0"/>
		<edge from-layer="257" from-port="5" to-layer="259" to-port="1"/>
		<edge from-layer="258" from-port="1" to-layer="259" to-port="2"/>
		<edge from-layer="259" from-port="3" to-layer="260" to-port="0"/>
		<edge from-layer="260" from-port="1" to-layer="265" to-port="0"/>
		<edge from-layer="261" from-port="1" to-layer="265" to-port="1"/>
		<edge from-layer="262" from-port="1" to-layer="265" to-port="2"/>
		<edge from-layer="263" from-port="1" to-layer="265" to-port="3"/>
		<edge from-layer="264" from-port="1" to-layer="265" to-port="4"/>
		<edge from-layer="266" from-port="1" to-layer="271" to-port="0"/>
		<edge from-layer="267" from-port="1" to-layer="271" to-port="1"/>
		<edge from-layer="268" from-port="1" to-layer="271" to-port="2"/>
		<edge from-layer="269" from-port="1" to-layer="271" to-port="3"/>
		<edge from-layer="270" from-port="1" to-layer="271" to-port="4"/>
		<edge from-layer="223" from-port="1" to-layer="273" to-port="0"/>
		<edge from-layer="271" from-port="5" to-layer="273" to-port="1"/>
		<edge from-layer="272" from-port="1" to-layer="273" to-port="2"/>
		<edge from-layer="273" from-port="3" to-layer="274" to-port="0"/>
		<edge from-layer="274" from-port="1" to-layer="279" to-port="0"/>
		<edge from-layer="275" from-port="1" to-layer="279" to-port="1"/>
		<edge from-layer="276" from-port="1" to-layer="279" to-port="2"/>
		<edge from-layer="277" from-port="1" to-layer="279" to-port="3"/>
		<edge from-layer="278" from-port="1" to-layer="279" to-port="4"/>
		<edge from-layer="280" from-port="1" to-layer="285" to-port="0"/>
		<edge from-layer="281" from-port="1" to-layer="285" to-port="1"/>
		<edge from-layer="282" from-port="1" to-layer="285" to-port="2"/>
		<edge from-layer="283" from-port="1" to-layer="285" to-port="3"/>
		<edge from-layer="284" from-port="1" to-layer="285" to-port="4"/>
		<edge from-layer="279" from-port="5" to-layer="287" to-port="0"/>
		<edge from-layer="285" from-port="5" to-layer="287" to-port="1"/>
		<edge from-layer="286" from-port="1" to-layer="287" to-port="2"/>
		<edge from-layer="287" from-port="3" to-layer="288" to-port="0"/>
		<edge from-layer="288" from-port="1" to-layer="293" to-port="0"/>
		<edge from-layer="289" from-port="1" to-layer="293" to-port="1"/>
		<edge from-layer="290" from-port="1" to-layer="293" to-port="2"/>
		<edge from-layer="291" from-port="1" to-layer="293" to-port="3"/>
		<edge from-layer="292" from-port="1" to-layer="293" to-port="4"/>
		<edge from-layer="223" from-port="1" to-layer="294" to-port="0"/>
		<edge from-layer="295" from-port="1" to-layer="300" to-port="0"/>
		<edge from-layer="296" from-port="1" to-layer="300" to-port="1"/>
		<edge from-layer="297" from-port="1" to-layer="300" to-port="2"/>
		<edge from-layer="298" from-port="1" to-layer="300" to-port="3"/>
		<edge from-layer="299" from-port="1" to-layer="300" to-port="4"/>
		<edge from-layer="294" from-port="1" to-layer="302" to-port="0"/>
		<edge from-layer="300" from-port="5" to-layer="302" to-port="1"/>
		<edge from-layer="301" from-port="1" to-layer="302" to-port="2"/>
		<edge from-layer="302" from-port="3" to-layer="303" to-port="0"/>
		<edge from-layer="303" from-port="1" to-layer="308" to-port="0"/>
		<edge from-layer="304" from-port="1" to-layer="308" to-port="1"/>
		<edge from-layer="305" from-port="1" to-layer="308" to-port="2"/>
		<edge from-layer="306" from-port="1" to-layer="308" to-port="3"/>
		<edge from-layer="307" from-port="1" to-layer="308" to-port="4"/>
		<edge from-layer="237" from-port="5" to-layer="309" to-port="0"/>
		<edge from-layer="265" from-port="5" to-layer="309" to-port="1"/>
		<edge from-layer="293" from-port="5" to-layer="309" to-port="2"/>
		<edge from-layer="308" from-port="5" to-layer="309" to-port="3"/>
		<edge from-layer="310" from-port="1" to-layer="315" to-port="0"/>
		<edge from-layer="311" from-port="1" to-layer="315" to-port="1"/>
		<edge from-layer="312" from-port="1" to-layer="315" to-port="2"/>
		<edge from-layer="313" from-port="1" to-layer="315" to-port="3"/>
		<edge from-layer="314" from-port="1" to-layer="315" to-port="4"/>
		<edge from-layer="309" from-port="4" to-layer="317" to-port="0"/>
		<edge from-layer="315" from-port="5" to-layer="317" to-port="1"/>
		<edge from-layer="316" from-port="1" to-layer="317" to-port="2"/>
		<edge from-layer="317" from-port="3" to-layer="318" to-port="0"/>
		<edge from-layer="318" from-port="1" to-layer="323" to-port="0"/>
		<edge from-layer="319" from-port="1" to-layer="323" to-port="1"/>
		<edge from-layer="320" from-port="1" to-layer="323" to-port="2"/>
		<edge from-layer="321" from-port="1" to-layer="323" to-port="3"/>
		<edge from-layer="322" from-port="1" to-layer="323" to-port="4"/>
		<edge from-layer="324" from-port="1" to-layer="329" to-port="0"/>
		<edge from-layer="325" from-port="1" to-layer="329" to-port="1"/>
		<edge from-layer="326" from-port="1" to-layer="329" to-port="2"/>
		<edge from-layer="327" from-port="1" to-layer="329" to-port="3"/>
		<edge from-layer="328" from-port="1" to-layer="329" to-port="4"/>
		<edge from-layer="309" from-port="4" to-layer="331" to-port="0"/>
		<edge from-layer="329" from-port="5" to-layer="331" to-port="1"/>
		<edge from-layer="330" from-port="1" to-layer="331" to-port="2"/>
		<edge from-layer="331" from-port="3" to-layer="332" to-port="0"/>
		<edge from-layer="332" from-port="1" to-layer="337" to-port="0"/>
		<edge from-layer="333" from-port="1" to-layer="337" to-port="1"/>
		<edge from-layer="334" from-port="1" to-layer="337" to-port="2"/>
		<edge from-layer="335" from-port="1" to-layer="337" to-port="3"/>
		<edge from-layer="336" from-port="1" to-layer="337" to-port="4"/>
		<edge from-layer="338" from-port="1" to-layer="343" to-port="0"/>
		<edge from-layer="339" from-port="1" to-layer="343" to-port="1"/>
		<edge from-layer="340" from-port="1" to-layer="343" to-port="2"/>
		<edge from-layer="341" from-port="1" to-layer="343" to-port="3"/>
		<edge from-layer="342" from-port="1" to-layer="343" to-port="4"/>
		<edge from-layer="337" from-port="5" to-layer="345" to-port="0"/>
		<edge from-layer="343" from-port="5" to-layer="345" to-port="1"/>
		<edge from-layer="344" from-port="1" to-layer="345" to-port="2"/>
		<edge from-layer="345" from-port="3" to-layer="346" to-port="0"/>
		<edge from-layer="346" from-port="1" to-layer="351" to-port="0"/>
		<edge from-layer="347" from-port="1" to-layer="351" to-port="1"/>
		<edge from-layer="348" from-port="1" to-layer="351" to-port="2"/>
		<edge from-layer="349" from-port="1" to-layer="351" to-port="3"/>
		<edge from-layer="350" from-port="1" to-layer="351" to-port="4"/>
		<edge from-layer="352" from-port="1" to-layer="357" to-port="0"/>
		<edge from-layer="353" from-port="1" to-layer="357" to-port="1"/>
		<edge from-layer="354" from-port="1" to-layer="357" to-port="2"/>
		<edge from-layer="355" from-port="1" to-layer="357" to-port="3"/>
		<edge from-layer="356" from-port="1" to-layer="357" to-port="4"/>
		<edge from-layer="309" from-port="4" to-layer="359" to-port="0"/>
		<edge from-layer="357" from-port="5" to-layer="359" to-port="1"/>
		<edge from-layer="358" from-port="1" to-layer="359" to-port="2"/>
		<edge from-layer="359" from-port="3" to-layer="360" to-port="0"/>
		<edge from-layer="360" from-port="1" to-layer="365" to-port="0"/>
		<edge from-layer="361" from-port="1" to-layer="365" to-port="1"/>
		<edge from-layer="362" from-port="1" to-layer="365" to-port="2"/>
		<edge from-layer="363" from-port="1" to-layer="365" to-port="3"/>
		<edge from-layer="364" from-port="1" to-layer="365" to-port="4"/>
		<edge from-layer="366" from-port="1" to-layer="371" to-port="0"/>
		<edge from-layer="367" from-port="1" to-layer="371" to-port="1"/>
		<edge from-layer="368" from-port="1" to-layer="371" to-port="2"/>
		<edge from-layer="369" from-port="1" to-layer="371" to-port="3"/>
		<edge from-layer="370" from-port="1" to-layer="371" to-port="4"/>
		<edge from-layer="365" from-port="5" to-layer="373" to-port="0"/>
		<edge from-layer="371" from-port="5" to-layer="373" to-port="1"/>
		<edge from-layer="372" from-port="1" to-layer="373" to-port="2"/>
		<edge from-layer="373" from-port="3" to-layer="374" to-port="0"/>
		<edge from-layer="374" from-port="1" to-layer="379" to-port="0"/>
		<edge from-layer="375" from-port="1" to-layer="379" to-port="1"/>
		<edge from-layer="376" from-port="1" to-layer="379" to-port="2"/>
		<edge from-layer="377" from-port="1" to-layer="379" to-port="3"/>
		<edge from-layer="378" from-port="1" to-layer="379" to-port="4"/>
		<edge from-layer="309" from-port="4" to-layer="380" to-port="0"/>
		<edge from-layer="381" from-port="1" to-layer="386" to-port="0"/>
		<edge from-layer="382" from-port="1" to-layer="386" to-port="1"/>
		<edge from-layer="383" from-port="1" to-layer="386" to-port="2"/>
		<edge from-layer="384" from-port="1" to-layer="386" to-port="3"/>
		<edge from-layer="385" from-port="1" to-layer="386" to-port="4"/>
		<edge from-layer="380" from-port="1" to-layer="388" to-port="0"/>
		<edge from-layer="386" from-port="5" to-layer="388" to-port="1"/>
		<edge from-layer="387" from-port="1" to-layer="388" to-port="2"/>
		<edge from-layer="388" from-port="3" to-layer="389" to-port="0"/>
		<edge from-layer="389" from-port="1" to-layer="394" to-port="0"/>
		<edge from-layer="390" from-port="1" to-layer="394" to-port="1"/>
		<edge from-layer="391" from-port="1" to-layer="394" to-port="2"/>
		<edge from-layer="392" from-port="1" to-layer="394" to-port="3"/>
		<edge from-layer="393" from-port="1" to-layer="394" to-port="4"/>
		<edge from-layer="323" from-port="5" to-layer="395" to-port="0"/>
		<edge from-layer="351" from-port="5" to-layer="395" to-port="1"/>
		<edge from-layer="379" from-port="5" to-layer="395" to-port="2"/>
		<edge from-layer="394" from-port="5" to-layer="395" to-port="3"/>
		<edge from-layer="396" from-port="1" to-layer="401" to-port="0"/>
		<edge from-layer="397" from-port="1" to-layer="401" to-port="1"/>
		<edge from-layer="398" from-port="1" to-layer="401" to-port="2"/>
		<edge from-layer="399" from-port="1" to-layer="401" to-port="3"/>
		<edge from-layer="400" from-port="1" to-layer="401" to-port="4"/>
		<edge from-layer="395" from-port="4" to-layer="403" to-port="0"/>
		<edge from-layer="401" from-port="5" to-layer="403" to-port="1"/>
		<edge from-layer="402" from-port="1" to-layer="403" to-port="2"/>
		<edge from-layer="403" from-port="3" to-layer="404" to-port="0"/>
		<edge from-layer="404" from-port="1" to-layer="409" to-port="0"/>
		<edge from-layer="405" from-port="1" to-layer="409" to-port="1"/>
		<edge from-layer="406" from-port="1" to-layer="409" to-port="2"/>
		<edge from-layer="407" from-port="1" to-layer="409" to-port="3"/>
		<edge from-layer="408" from-port="1" to-layer="409" to-port="4"/>
		<edge from-layer="410" from-port="1" to-layer="415" to-port="0"/>
		<edge from-layer="411" from-port="1" to-layer="415" to-port="1"/>
		<edge from-layer="412" from-port="1" to-layer="415" to-port="2"/>
		<edge from-layer="413" from-port="1" to-layer="415" to-port="3"/>
		<edge from-layer="414" from-port="1" to-layer="415" to-port="4"/>
		<edge from-layer="395" from-port="4" to-layer="417" to-port="0"/>
		<edge from-layer="415" from-port="5" to-layer="417" to-port="1"/>
		<edge from-layer="416" from-port="1" to-layer="417" to-port="2"/>
		<edge from-layer="417" from-port="3" to-layer="418" to-port="0"/>
		<edge from-layer="418" from-port="1" to-layer="423" to-port="0"/>
		<edge from-layer="419" from-port="1" to-layer="423" to-port="1"/>
		<edge from-layer="420" from-port="1" to-layer="423" to-port="2"/>
		<edge from-layer="421" from-port="1" to-layer="423" to-port="3"/>
		<edge from-layer="422" from-port="1" to-layer="423" to-port="4"/>
		<edge from-layer="424" from-port="1" to-layer="429" to-port="0"/>
		<edge from-layer="425" from-port="1" to-layer="429" to-port="1"/>
		<edge from-layer="426" from-port="1" to-layer="429" to-port="2"/>
		<edge from-layer="427" from-port="1" to-layer="429" to-port="3"/>
		<edge from-layer="428" from-port="1" to-layer="429" to-port="4"/>
		<edge from-layer="423" from-port="5" to-layer="431" to-port="0"/>
		<edge from-layer="429" from-port="5" to-layer="431" to-port="1"/>
		<edge from-layer="430" from-port="1" to-layer="431" to-port="2"/>
		<edge from-layer="431" from-port="3" to-layer="432" to-port="0"/>
		<edge from-layer="432" from-port="1" to-layer="437" to-port="0"/>
		<edge from-layer="433" from-port="1" to-layer="437" to-port="1"/>
		<edge from-layer="434" from-port="1" to-layer="437" to-port="2"/>
		<edge from-layer="435" from-port="1" to-layer="437" to-port="3"/>
		<edge from-layer="436" from-port="1" to-layer="437" to-port="4"/>
		<edge from-layer="438" from-port="1" to-layer="443" to-port="0"/>
		<edge from-layer="439" from-port="1" to-layer="443" to-port="1"/>
		<edge from-layer="440" from-port="1" to-layer="443" to-port="2"/>
		<edge from-layer="441" from-port="1" to-layer="443" to-port="3"/>
		<edge from-layer="442" from-port="1" to-layer="443" to-port="4"/>
		<edge from-layer="395" from-port="4" to-layer="445" to-port="0"/>
		<edge from-layer="443" from-port="5" to-layer="445" to-port="1"/>
		<edge from-layer="444" from-port="1" to-layer="445" to-port="2"/>
		<edge from-layer="445" from-port="3" to-layer="446" to-port="0"/>
		<edge from-layer="446" from-port="1" to-layer="451" to-port="0"/>
		<edge from-layer="447" from-port="1" to-layer="451" to-port="1"/>
		<edge from-layer="448" from-port="1" to-layer="451" to-port="2"/>
		<edge from-layer="449" from-port="1" to-layer="451" to-port="3"/>
		<edge from-layer="450" from-port="1" to-layer="451" to-port="4"/>
		<edge from-layer="452" from-port="1" to-layer="457" to-port="0"/>
		<edge from-layer="453" from-port="1" to-layer="457" to-port="1"/>
		<edge from-layer="454" from-port="1" to-layer="457" to-port="2"/>
		<edge from-layer="455" from-port="1" to-layer="457" to-port="3"/>
		<edge from-layer="456" from-port="1" to-layer="457" to-port="4"/>
		<edge from-layer="451" from-port="5" to-layer="459" to-port="0"/>
		<edge from-layer="457" from-port="5" to-layer="459" to-port="1"/>
		<edge from-layer="458" from-port="1" to-layer="459" to-port="2"/>
		<edge from-layer="459" from-port="3" to-layer="460" to-port="0"/>
		<edge from-layer="460" from-port="1" to-layer="465" to-port="0"/>
		<edge from-layer="461" from-port="1" to-layer="465" to-port="1"/>
		<edge from-layer="462" from-port="1" to-layer="465" to-port="2"/>
		<edge from-layer="463" from-port="1" to-layer="465" to-port="3"/>
		<edge from-layer="464" from-port="1" to-layer="465" to-port="4"/>
		<edge from-layer="395" from-port="4" to-layer="466" to-port="0"/>
		<edge from-layer="467" from-port="1" to-layer="472" to-port="0"/>
		<edge from-layer="468" from-port="1" to-layer="472" to-port="1"/>
		<edge from-layer="469" from-port="1" to-layer="472" to-port="2"/>
		<edge from-layer="470" from-port="1" to-layer="472" to-port="3"/>
		<edge from-layer="471" from-port="1" to-layer="472" to-port="4"/>
		<edge from-layer="466" from-port="1" to-layer="474" to-port="0"/>
		<edge from-layer="472" from-port="5" to-layer="474" to-port="1"/>
		<edge from-layer="473" from-port="1" to-layer="474" to-port="2"/>
		<edge from-layer="474" from-port="3" to-layer="475" to-port="0"/>
		<edge from-layer="475" from-port="1" to-layer="480" to-port="0"/>
		<edge from-layer="476" from-port="1" to-layer="480" to-port="1"/>
		<edge from-layer="477" from-port="1" to-layer="480" to-port="2"/>
		<edge from-layer="478" from-port="1" to-layer="480" to-port="3"/>
		<edge from-layer="479" from-port="1" to-layer="480" to-port="4"/>
		<edge from-layer="409" from-port="5" to-layer="481" to-port="0"/>
		<edge from-layer="437" from-port="5" to-layer="481" to-port="1"/>
		<edge from-layer="465" from-port="5" to-layer="481" to-port="2"/>
		<edge from-layer="480" from-port="5" to-layer="481" to-port="3"/>
		<edge from-layer="482" from-port="1" to-layer="487" to-port="0"/>
		<edge from-layer="483" from-port="1" to-layer="487" to-port="1"/>
		<edge from-layer="484" from-port="1" to-layer="487" to-port="2"/>
		<edge from-layer="485" from-port="1" to-layer="487" to-port="3"/>
		<edge from-layer="486" from-port="1" to-layer="487" to-port="4"/>
		<edge from-layer="481" from-port="4" to-layer="489" to-port="0"/>
		<edge from-layer="487" from-port="5" to-layer="489" to-port="1"/>
		<edge from-layer="488" from-port="1" to-layer="489" to-port="2"/>
		<edge from-layer="489" from-port="3" to-layer="490" to-port="0"/>
		<edge from-layer="490" from-port="1" to-layer="495" to-port="0"/>
		<edge from-layer="491" from-port="1" to-layer="495" to-port="1"/>
		<edge from-layer="492" from-port="1" to-layer="495" to-port="2"/>
		<edge from-layer="493" from-port="1" to-layer="495" to-port="3"/>
		<edge from-layer="494" from-port="1" to-layer="495" to-port="4"/>
		<edge from-layer="496" from-port="1" to-layer="501" to-port="0"/>
		<edge from-layer="497" from-port="1" to-layer="501" to-port="1"/>
		<edge from-layer="498" from-port="1" to-layer="501" to-port="2"/>
		<edge from-layer="499" from-port="1" to-layer="501" to-port="3"/>
		<edge from-layer="500" from-port="1" to-layer="501" to-port="4"/>
		<edge from-layer="481" from-port="4" to-layer="503" to-port="0"/>
		<edge from-layer="501" from-port="5" to-layer="503" to-port="1"/>
		<edge from-layer="502" from-port="1" to-layer="503" to-port="2"/>
		<edge from-layer="503" from-port="3" to-layer="504" to-port="0"/>
		<edge from-layer="504" from-port="1" to-layer="509" to-port="0"/>
		<edge from-layer="505" from-port="1" to-layer="509" to-port="1"/>
		<edge from-layer="506" from-port="1" to-layer="509" to-port="2"/>
		<edge from-layer="507" from-port="1" to-layer="509" to-port="3"/>
		<edge from-layer="508" from-port="1" to-layer="509" to-port="4"/>
		<edge from-layer="510" from-port="1" to-layer="515" to-port="0"/>
		<edge from-layer="511" from-port="1" to-layer="515" to-port="1"/>
		<edge from-layer="512" from-port="1" to-layer="515" to-port="2"/>
		<edge from-layer="513" from-port="1" to-layer="515" to-port="3"/>
		<edge from-layer="514" from-port="1" to-layer="515" to-port="4"/>
		<edge from-layer="509" from-port="5" to-layer="517" to-port="0"/>
		<edge from-layer="515" from-port="5" to-layer="517" to-port="1"/>
		<edge from-layer="516" from-port="1" to-layer="517" to-port="2"/>
		<edge from-layer="517" from-port="3" to-layer="518" to-port="0"/>
		<edge from-layer="518" from-port="1" to-layer="523" to-port="0"/>
		<edge from-layer="519" from-port="1" to-layer="523" to-port="1"/>
		<edge from-layer="520" from-port="1" to-layer="523" to-port="2"/>
		<edge from-layer="521" from-port="1" to-layer="523" to-port="3"/>
		<edge from-layer="522" from-port="1" to-layer="523" to-port="4"/>
		<edge from-layer="524" from-port="1" to-layer="529" to-port="0"/>
		<edge from-layer="525" from-port="1" to-layer="529" to-port="1"/>
		<edge from-layer="526" from-port="1" to-layer="529" to-port="2"/>
		<edge from-layer="527" from-port="1" to-layer="529" to-port="3"/>
		<edge from-layer="528" from-port="1" to-layer="529" to-port="4"/>
		<edge from-layer="481" from-port="4" to-layer="531" to-port="0"/>
		<edge from-layer="529" from-port="5" to-layer="531" to-port="1"/>
		<edge from-layer="530" from-port="1" to-layer="531" to-port="2"/>
		<edge from-layer="531" from-port="3" to-layer="532" to-port="0"/>
		<edge from-layer="532" from-port="1" to-layer="537" to-port="0"/>
		<edge from-layer="533" from-port="1" to-layer="537" to-port="1"/>
		<edge from-layer="534" from-port="1" to-layer="537" to-port="2"/>
		<edge from-layer="535" from-port="1" to-layer="537" to-port="3"/>
		<edge from-layer="536" from-port="1" to-layer="537" to-port="4"/>
		<edge from-layer="538" from-port="1" to-layer="543" to-port="0"/>
		<edge from-layer="539" from-port="1" to-layer="543" to-port="1"/>
		<edge from-layer="540" from-port="1" to-layer="543" to-port="2"/>
		<edge from-layer="541" from-port="1" to-layer="543" to-port="3"/>
		<edge from-layer="542" from-port="1" to-layer="543" to-port="4"/>
		<edge from-layer="537" from-port="5" to-layer="545" to-port="0"/>
		<edge from-layer="543" from-port="5" to-layer="545" to-port="1"/>
		<edge from-layer="544" from-port="1" to-layer="545" to-port="2"/>
		<edge from-layer="545" from-port="3" to-layer="546" to-port="0"/>
		<edge from-layer="546" from-port="1" to-layer="551" to-port="0"/>
		<edge from-layer="547" from-port="1" to-layer="551" to-port="1"/>
		<edge from-layer="548" from-port="1" to-layer="551" to-port="2"/>
		<edge from-layer="549" from-port="1" to-layer="551" to-port="3"/>
		<edge from-layer="550" from-port="1" to-layer="551" to-port="4"/>
		<edge from-layer="481" from-port="4" to-layer="552" to-port="0"/>
		<edge from-layer="553" from-port="1" to-layer="558" to-port="0"/>
		<edge from-layer="554" from-port="1" to-layer="558" to-port="1"/>
		<edge from-layer="555" from-port="1" to-layer="558" to-port="2"/>
		<edge from-layer="556" from-port="1" to-layer="558" to-port="3"/>
		<edge from-layer="557" from-port="1" to-layer="558" to-port="4"/>
		<edge from-layer="552" from-port="1" to-layer="560" to-port="0"/>
		<edge from-layer="558" from-port="5" to-layer="560" to-port="1"/>
		<edge from-layer="559" from-port="1" to-layer="560" to-port="2"/>
		<edge from-layer="560" from-port="3" to-layer="561" to-port="0"/>
		<edge from-layer="561" from-port="1" to-layer="566" to-port="0"/>
		<edge from-layer="562" from-port="1" to-layer="566" to-port="1"/>
		<edge from-layer="563" from-port="1" to-layer="566" to-port="2"/>
		<edge from-layer="564" from-port="1" to-layer="566" to-port="3"/>
		<edge from-layer="565" from-port="1" to-layer="566" to-port="4"/>
		<edge from-layer="495" from-port="5" to-layer="567" to-port="0"/>
		<edge from-layer="523" from-port="5" to-layer="567" to-port="1"/>
		<edge from-layer="551" from-port="5" to-layer="567" to-port="2"/>
		<edge from-layer="566" from-port="5" to-layer="567" to-port="3"/>
		<edge from-layer="568" from-port="1" to-layer="573" to-port="0"/>
		<edge from-layer="569" from-port="1" to-layer="573" to-port="1"/>
		<edge from-layer="570" from-port="1" to-layer="573" to-port="2"/>
		<edge from-layer="571" from-port="1" to-layer="573" to-port="3"/>
		<edge from-layer="572" from-port="1" to-layer="573" to-port="4"/>
		<edge from-layer="567" from-port="4" to-layer="575" to-port="0"/>
		<edge from-layer="573" from-port="5" to-layer="575" to-port="1"/>
		<edge from-layer="574" from-port="1" to-layer="575" to-port="2"/>
		<edge from-layer="575" from-port="3" to-layer="576" to-port="0"/>
		<edge from-layer="576" from-port="1" to-layer="581" to-port="0"/>
		<edge from-layer="577" from-port="1" to-layer="581" to-port="1"/>
		<edge from-layer="578" from-port="1" to-layer="581" to-port="2"/>
		<edge from-layer="579" from-port="1" to-layer="581" to-port="3"/>
		<edge from-layer="580" from-port="1" to-layer="581" to-port="4"/>
		<edge from-layer="582" from-port="1" to-layer="587" to-port="0"/>
		<edge from-layer="583" from-port="1" to-layer="587" to-port="1"/>
		<edge from-layer="584" from-port="1" to-layer="587" to-port="2"/>
		<edge from-layer="585" from-port="1" to-layer="587" to-port="3"/>
		<edge from-layer="586" from-port="1" to-layer="587" to-port="4"/>
		<edge from-layer="567" from-port="4" to-layer="589" to-port="0"/>
		<edge from-layer="587" from-port="5" to-layer="589" to-port="1"/>
		<edge from-layer="588" from-port="1" to-layer="589" to-port="2"/>
		<edge from-layer="589" from-port="3" to-layer="590" to-port="0"/>
		<edge from-layer="590" from-port="1" to-layer="595" to-port="0"/>
		<edge from-layer="591" from-port="1" to-layer="595" to-port="1"/>
		<edge from-layer="592" from-port="1" to-layer="595" to-port="2"/>
		<edge from-layer="593" from-port="1" to-layer="595" to-port="3"/>
		<edge from-layer="594" from-port="1" to-layer="595" to-port="4"/>
		<edge from-layer="596" from-port="1" to-layer="601" to-port="0"/>
		<edge from-layer="597" from-port="1" to-layer="601" to-port="1"/>
		<edge from-layer="598" from-port="1" to-layer="601" to-port="2"/>
		<edge from-layer="599" from-port="1" to-layer="601" to-port="3"/>
		<edge from-layer="600" from-port="1" to-layer="601" to-port="4"/>
		<edge from-layer="595" from-port="5" to-layer="603" to-port="0"/>
		<edge from-layer="601" from-port="5" to-layer="603" to-port="1"/>
		<edge from-layer="602" from-port="1" to-layer="603" to-port="2"/>
		<edge from-layer="603" from-port="3" to-layer="604" to-port="0"/>
		<edge from-layer="604" from-port="1" to-layer="609" to-port="0"/>
		<edge from-layer="605" from-port="1" to-layer="609" to-port="1"/>
		<edge from-layer="606" from-port="1" to-layer="609" to-port="2"/>
		<edge from-layer="607" from-port="1" to-layer="609" to-port="3"/>
		<edge from-layer="608" from-port="1" to-layer="609" to-port="4"/>
		<edge from-layer="610" from-port="1" to-layer="615" to-port="0"/>
		<edge from-layer="611" from-port="1" to-layer="615" to-port="1"/>
		<edge from-layer="612" from-port="1" to-layer="615" to-port="2"/>
		<edge from-layer="613" from-port="1" to-layer="615" to-port="3"/>
		<edge from-layer="614" from-port="1" to-layer="615" to-port="4"/>
		<edge from-layer="567" from-port="4" to-layer="617" to-port="0"/>
		<edge from-layer="615" from-port="5" to-layer="617" to-port="1"/>
		<edge from-layer="616" from-port="1" to-layer="617" to-port="2"/>
		<edge from-layer="617" from-port="3" to-layer="618" to-port="0"/>
		<edge from-layer="618" from-port="1" to-layer="623" to-port="0"/>
		<edge from-layer="619" from-port="1" to-layer="623" to-port="1"/>
		<edge from-layer="620" from-port="1" to-layer="623" to-port="2"/>
		<edge from-layer="621" from-port="1" to-layer="623" to-port="3"/>
		<edge from-layer="622" from-port="1" to-layer="623" to-port="4"/>
		<edge from-layer="624" from-port="1" to-layer="629" to-port="0"/>
		<edge from-layer="625" from-port="1" to-layer="629" to-port="1"/>
		<edge from-layer="626" from-port="1" to-layer="629" to-port="2"/>
		<edge from-layer="627" from-port="1" to-layer="629" to-port="3"/>
		<edge from-layer="628" from-port="1" to-layer="629" to-port="4"/>
		<edge from-layer="623" from-port="5" to-layer="631" to-port="0"/>
		<edge from-layer="629" from-port="5" to-layer="631" to-port="1"/>
		<edge from-layer="630" from-port="1" to-layer="631" to-port="2"/>
		<edge from-layer="631" from-port="3" to-layer="632" to-port="0"/>
		<edge from-layer="632" from-port="1" to-layer="637" to-port="0"/>
		<edge from-layer="633" from-port="1" to-layer="637" to-port="1"/>
		<edge from-layer="634" from-port="1" to-layer="637" to-port="2"/>
		<edge from-layer="635" from-port="1" to-layer="637" to-port="3"/>
		<edge from-layer="636" from-port="1" to-layer="637" to-port="4"/>
		<edge from-layer="567" from-port="4" to-layer="638" to-port="0"/>
		<edge from-layer="639" from-port="1" to-layer="644" to-port="0"/>
		<edge from-layer="640" from-port="1" to-layer="644" to-port="1"/>
		<edge from-layer="641" from-port="1" to-layer="644" to-port="2"/>
		<edge from-layer="642" from-port="1" to-layer="644" to-port="3"/>
		<edge from-layer="643" from-port="1" to-layer="644" to-port="4"/>
		<edge from-layer="638" from-port="1" to-layer="646" to-port="0"/>
		<edge from-layer="644" from-port="5" to-layer="646" to-port="1"/>
		<edge from-layer="645" from-port="1" to-layer="646" to-port="2"/>
		<edge from-layer="646" from-port="3" to-layer="647" to-port="0"/>
		<edge from-layer="647" from-port="1" to-layer="652" to-port="0"/>
		<edge from-layer="648" from-port="1" to-layer="652" to-port="1"/>
		<edge from-layer="649" from-port="1" to-layer="652" to-port="2"/>
		<edge from-layer="650" from-port="1" to-layer="652" to-port="3"/>
		<edge from-layer="651" from-port="1" to-layer="652" to-port="4"/>
		<edge from-layer="581" from-port="5" to-layer="653" to-port="0"/>
		<edge from-layer="609" from-port="5" to-layer="653" to-port="1"/>
		<edge from-layer="637" from-port="5" to-layer="653" to-port="2"/>
		<edge from-layer="652" from-port="5" to-layer="653" to-port="3"/>
		<edge from-layer="653" from-port="4" to-layer="654" to-port="0"/>
		<edge from-layer="655" from-port="1" to-layer="660" to-port="0"/>
		<edge from-layer="656" from-port="1" to-layer="660" to-port="1"/>
		<edge from-layer="657" from-port="1" to-layer="660" to-port="2"/>
		<edge from-layer="658" from-port="1" to-layer="660" to-port="3"/>
		<edge from-layer="659" from-port="1" to-layer="660" to-port="4"/>
		<edge from-layer="654" from-port="1" to-layer="662" to-port="0"/>
		<edge from-layer="660" from-port="5" to-layer="662" to-port="1"/>
		<edge from-layer="661" from-port="1" to-layer="662" to-port="2"/>
		<edge from-layer="662" from-port="3" to-layer="663" to-port="0"/>
		<edge from-layer="663" from-port="1" to-layer="668" to-port="0"/>
		<edge from-layer="664" from-port="1" to-layer="668" to-port="1"/>
		<edge from-layer="665" from-port="1" to-layer="668" to-port="2"/>
		<edge from-layer="666" from-port="1" to-layer="668" to-port="3"/>
		<edge from-layer="667" from-port="1" to-layer="668" to-port="4"/>
		<edge from-layer="669" from-port="1" to-layer="674" to-port="0"/>
		<edge from-layer="670" from-port="1" to-layer="674" to-port="1"/>
		<edge from-layer="671" from-port="1" to-layer="674" to-port="2"/>
		<edge from-layer="672" from-port="1" to-layer="674" to-port="3"/>
		<edge from-layer="673" from-port="1" to-layer="674" to-port="4"/>
		<edge from-layer="654" from-port="1" to-layer="676" to-port="0"/>
		<edge from-layer="674" from-port="5" to-layer="676" to-port="1"/>
		<edge from-layer="675" from-port="1" to-layer="676" to-port="2"/>
		<edge from-layer="676" from-port="3" to-layer="677" to-port="0"/>
		<edge from-layer="677" from-port="1" to-layer="682" to-port="0"/>
		<edge from-layer="678" from-port="1" to-layer="682" to-port="1"/>
		<edge from-layer="679" from-port="1" to-layer="682" to-port="2"/>
		<edge from-layer="680" from-port="1" to-layer="682" to-port="3"/>
		<edge from-layer="681" from-port="1" to-layer="682" to-port="4"/>
		<edge from-layer="683" from-port="1" to-layer="688" to-port="0"/>
		<edge from-layer="684" from-port="1" to-layer="688" to-port="1"/>
		<edge from-layer="685" from-port="1" to-layer="688" to-port="2"/>
		<edge from-layer="686" from-port="1" to-layer="688" to-port="3"/>
		<edge from-layer="687" from-port="1" to-layer="688" to-port="4"/>
		<edge from-layer="682" from-port="5" to-layer="690" to-port="0"/>
		<edge from-layer="688" from-port="5" to-layer="690" to-port="1"/>
		<edge from-layer="689" from-port="1" to-layer="690" to-port="2"/>
		<edge from-layer="690" from-port="3" to-layer="691" to-port="0"/>
		<edge from-layer="691" from-port="1" to-layer="696" to-port="0"/>
		<edge from-layer="692" from-port="1" to-layer="696" to-port="1"/>
		<edge from-layer="693" from-port="1" to-layer="696" to-port="2"/>
		<edge from-layer="694" from-port="1" to-layer="696" to-port="3"/>
		<edge from-layer="695" from-port="1" to-layer="696" to-port="4"/>
		<edge from-layer="697" from-port="1" to-layer="702" to-port="0"/>
		<edge from-layer="698" from-port="1" to-layer="702" to-port="1"/>
		<edge from-layer="699" from-port="1" to-layer="702" to-port="2"/>
		<edge from-layer="700" from-port="1" to-layer="702" to-port="3"/>
		<edge from-layer="701" from-port="1" to-layer="702" to-port="4"/>
		<edge from-layer="654" from-port="1" to-layer="704" to-port="0"/>
		<edge from-layer="702" from-port="5" to-layer="704" to-port="1"/>
		<edge from-layer="703" from-port="1" to-layer="704" to-port="2"/>
		<edge from-layer="704" from-port="3" to-layer="705" to-port="0"/>
		<edge from-layer="705" from-port="1" to-layer="710" to-port="0"/>
		<edge from-layer="706" from-port="1" to-layer="710" to-port="1"/>
		<edge from-layer="707" from-port="1" to-layer="710" to-port="2"/>
		<edge from-layer="708" from-port="1" to-layer="710" to-port="3"/>
		<edge from-layer="709" from-port="1" to-layer="710" to-port="4"/>
		<edge from-layer="711" from-port="1" to-layer="716" to-port="0"/>
		<edge from-layer="712" from-port="1" to-layer="716" to-port="1"/>
		<edge from-layer="713" from-port="1" to-layer="716" to-port="2"/>
		<edge from-layer="714" from-port="1" to-layer="716" to-port="3"/>
		<edge from-layer="715" from-port="1" to-layer="716" to-port="4"/>
		<edge from-layer="710" from-port="5" to-layer="718" to-port="0"/>
		<edge from-layer="716" from-port="5" to-layer="718" to-port="1"/>
		<edge from-layer="717" from-port="1" to-layer="718" to-port="2"/>
		<edge from-layer="718" from-port="3" to-layer="719" to-port="0"/>
		<edge from-layer="719" from-port="1" to-layer="724" to-port="0"/>
		<edge from-layer="720" from-port="1" to-layer="724" to-port="1"/>
		<edge from-layer="721" from-port="1" to-layer="724" to-port="2"/>
		<edge from-layer="722" from-port="1" to-layer="724" to-port="3"/>
		<edge from-layer="723" from-port="1" to-layer="724" to-port="4"/>
		<edge from-layer="654" from-port="1" to-layer="725" to-port="0"/>
		<edge from-layer="726" from-port="1" to-layer="731" to-port="0"/>
		<edge from-layer="727" from-port="1" to-layer="731" to-port="1"/>
		<edge from-layer="728" from-port="1" to-layer="731" to-port="2"/>
		<edge from-layer="729" from-port="1" to-layer="731" to-port="3"/>
		<edge from-layer="730" from-port="1" to-layer="731" to-port="4"/>
		<edge from-layer="725" from-port="1" to-layer="733" to-port="0"/>
		<edge from-layer="731" from-port="5" to-layer="733" to-port="1"/>
		<edge from-layer="732" from-port="1" to-layer="733" to-port="2"/>
		<edge from-layer="733" from-port="3" to-layer="734" to-port="0"/>
		<edge from-layer="734" from-port="1" to-layer="739" to-port="0"/>
		<edge from-layer="735" from-port="1" to-layer="739" to-port="1"/>
		<edge from-layer="736" from-port="1" to-layer="739" to-port="2"/>
		<edge from-layer="737" from-port="1" to-layer="739" to-port="3"/>
		<edge from-layer="738" from-port="1" to-layer="739" to-port="4"/>
		<edge from-layer="668" from-port="5" to-layer="740" to-port="0"/>
		<edge from-layer="696" from-port="5" to-layer="740" to-port="1"/>
		<edge from-layer="724" from-port="5" to-layer="740" to-port="2"/>
		<edge from-layer="739" from-port="5" to-layer="740" to-port="3"/>
		<edge from-layer="741" from-port="1" to-layer="746" to-port="0"/>
		<edge from-layer="742" from-port="1" to-layer="746" to-port="1"/>
		<edge from-layer="743" from-port="1" to-layer="746" to-port="2"/>
		<edge from-layer="744" from-port="1" to-layer="746" to-port="3"/>
		<edge from-layer="745" from-port="1" to-layer="746" to-port="4"/>
		<edge from-layer="740" from-port="4" to-layer="748" to-port="0"/>
		<edge from-layer="746" from-port="5" to-layer="748" to-port="1"/>
		<edge from-layer="747" from-port="1" to-layer="748" to-port="2"/>
		<edge from-layer="748" from-port="3" to-layer="749" to-port="0"/>
		<edge from-layer="749" from-port="1" to-layer="754" to-port="0"/>
		<edge from-layer="750" from-port="1" to-layer="754" to-port="1"/>
		<edge from-layer="751" from-port="1" to-layer="754" to-port="2"/>
		<edge from-layer="752" from-port="1" to-layer="754" to-port="3"/>
		<edge from-layer="753" from-port="1" to-layer="754" to-port="4"/>
		<edge from-layer="755" from-port="1" to-layer="760" to-port="0"/>
		<edge from-layer="756" from-port="1" to-layer="760" to-port="1"/>
		<edge from-layer="757" from-port="1" to-layer="760" to-port="2"/>
		<edge from-layer="758" from-port="1" to-layer="760" to-port="3"/>
		<edge from-layer="759" from-port="1" to-layer="760" to-port="4"/>
		<edge from-layer="740" from-port="4" to-layer="762" to-port="0"/>
		<edge from-layer="760" from-port="5" to-layer="762" to-port="1"/>
		<edge from-layer="761" from-port="1" to-layer="762" to-port="2"/>
		<edge from-layer="762" from-port="3" to-layer="763" to-port="0"/>
		<edge from-layer="763" from-port="1" to-layer="768" to-port="0"/>
		<edge from-layer="764" from-port="1" to-layer="768" to-port="1"/>
		<edge from-layer="765" from-port="1" to-layer="768" to-port="2"/>
		<edge from-layer="766" from-port="1" to-layer="768" to-port="3"/>
		<edge from-layer="767" from-port="1" to-layer="768" to-port="4"/>
		<edge from-layer="769" from-port="1" to-layer="774" to-port="0"/>
		<edge from-layer="770" from-port="1" to-layer="774" to-port="1"/>
		<edge from-layer="771" from-port="1" to-layer="774" to-port="2"/>
		<edge from-layer="772" from-port="1" to-layer="774" to-port="3"/>
		<edge from-layer="773" from-port="1" to-layer="774" to-port="4"/>
		<edge from-layer="768" from-port="5" to-layer="776" to-port="0"/>
		<edge from-layer="774" from-port="5" to-layer="776" to-port="1"/>
		<edge from-layer="775" from-port="1" to-layer="776" to-port="2"/>
		<edge from-layer="776" from-port="3" to-layer="777" to-port="0"/>
		<edge from-layer="777" from-port="1" to-layer="782" to-port="0"/>
		<edge from-layer="778" from-port="1" to-layer="782" to-port="1"/>
		<edge from-layer="779" from-port="1" to-layer="782" to-port="2"/>
		<edge from-layer="780" from-port="1" to-layer="782" to-port="3"/>
		<edge from-layer="781" from-port="1" to-layer="782" to-port="4"/>
		<edge from-layer="783" from-port="1" to-layer="788" to-port="0"/>
		<edge from-layer="784" from-port="1" to-layer="788" to-port="1"/>
		<edge from-layer="785" from-port="1" to-layer="788" to-port="2"/>
		<edge from-layer="786" from-port="1" to-layer="788" to-port="3"/>
		<edge from-layer="787" from-port="1" to-layer="788" to-port="4"/>
		<edge from-layer="740" from-port="4" to-layer="790" to-port="0"/>
		<edge from-layer="788" from-port="5" to-layer="790" to-port="1"/>
		<edge from-layer="789" from-port="1" to-layer="790" to-port="2"/>
		<edge from-layer="790" from-port="3" to-layer="791" to-port="0"/>
		<edge from-layer="791" from-port="1" to-layer="796" to-port="0"/>
		<edge from-layer="792" from-port="1" to-layer="796" to-port="1"/>
		<edge from-layer="793" from-port="1" to-layer="796" to-port="2"/>
		<edge from-layer="794" from-port="1" to-layer="796" to-port="3"/>
		<edge from-layer="795" from-port="1" to-layer="796" to-port="4"/>
		<edge from-layer="797" from-port="1" to-layer="802" to-port="0"/>
		<edge from-layer="798" from-port="1" to-layer="802" to-port="1"/>
		<edge from-layer="799" from-port="1" to-layer="802" to-port="2"/>
		<edge from-layer="800" from-port="1" to-layer="802" to-port="3"/>
		<edge from-layer="801" from-port="1" to-layer="802" to-port="4"/>
		<edge from-layer="796" from-port="5" to-layer="804" to-port="0"/>
		<edge from-layer="802" from-port="5" to-layer="804" to-port="1"/>
		<edge from-layer="803" from-port="1" to-layer="804" to-port="2"/>
		<edge from-layer="804" from-port="3" to-layer="805" to-port="0"/>
		<edge from-layer="805" from-port="1" to-layer="810" to-port="0"/>
		<edge from-layer="806" from-port="1" to-layer="810" to-port="1"/>
		<edge from-layer="807" from-port="1" to-layer="810" to-port="2"/>
		<edge from-layer="808" from-port="1" to-layer="810" to-port="3"/>
		<edge from-layer="809" from-port="1" to-layer="810" to-port="4"/>
		<edge from-layer="740" from-port="4" to-layer="811" to-port="0"/>
		<edge from-layer="812" from-port="1" to-layer="817" to-port="0"/>
		<edge from-layer="813" from-port="1" to-layer="817" to-port="1"/>
		<edge from-layer="814" from-port="1" to-layer="817" to-port="2"/>
		<edge from-layer="815" from-port="1" to-layer="817" to-port="3"/>
		<edge from-layer="816" from-port="1" to-layer="817" to-port="4"/>
		<edge from-layer="811" from-port="1" to-layer="819" to-port="0"/>
		<edge from-layer="817" from-port="5" to-layer="819" to-port="1"/>
		<edge from-layer="818" from-port="1" to-layer="819" to-port="2"/>
		<edge from-layer="819" from-port="3" to-layer="820" to-port="0"/>
		<edge from-layer="820" from-port="1" to-layer="825" to-port="0"/>
		<edge from-layer="821" from-port="1" to-layer="825" to-port="1"/>
		<edge from-layer="822" from-port="1" to-layer="825" to-port="2"/>
		<edge from-layer="823" from-port="1" to-layer="825" to-port="3"/>
		<edge from-layer="824" from-port="1" to-layer="825" to-port="4"/>
		<edge from-layer="754" from-port="5" to-layer="826" to-port="0"/>
		<edge from-layer="782" from-port="5" to-layer="826" to-port="1"/>
		<edge from-layer="810" from-port="5" to-layer="826" to-port="2"/>
		<edge from-layer="825" from-port="5" to-layer="826" to-port="3"/>
		<edge from-layer="826" from-port="4" to-layer="827" to-port="0"/>
		<edge from-layer="827" from-port="1" to-layer="832" to-port="0"/>
		<edge from-layer="828" from-port="1" to-layer="832" to-port="1"/>
		<edge from-layer="829" from-port="1" to-layer="832" to-port="2"/>
		<edge from-layer="830" from-port="1" to-layer="832" to-port="3"/>
		<edge from-layer="831" from-port="1" to-layer="832" to-port="4"/>
		<edge from-layer="833" from-port="1" to-layer="838" to-port="0"/>
		<edge from-layer="834" from-port="1" to-layer="838" to-port="1"/>
		<edge from-layer="835" from-port="1" to-layer="838" to-port="2"/>
		<edge from-layer="836" from-port="1" to-layer="838" to-port="3"/>
		<edge from-layer="837" from-port="1" to-layer="838" to-port="4"/>
		<edge from-layer="832" from-port="5" to-layer="840" to-port="0"/>
		<edge from-layer="838" from-port="5" to-layer="840" to-port="1"/>
		<edge from-layer="839" from-port="1" to-layer="840" to-port="2"/>
		<edge from-layer="840" from-port="3" to-layer="841" to-port="0"/>
		<edge from-layer="841" from-port="1" to-layer="843" to-port="0"/>
		<edge from-layer="842" from-port="1" to-layer="843" to-port="1"/>
		<edge from-layer="843" from-port="2" to-layer="845" to-port="0"/>
		<edge from-layer="844" from-port="1" to-layer="845" to-port="1"/>
		<edge from-layer="845" from-port="2" to-layer="846" to-port="0"/>
	</edges>
	<meta_data>
		<MO_version value="unknown version"/>
		<cli_parameters>
			<unset unset_cli_parameters=""/>
		</cli_parameters>
	</meta_data>
</net>
