<?xml version="1.0" ?>
<net batch="1" name="inception-v3_tf_uint8_int8_weights_pertensor" precision="FP32" version="7">
	<layers>
		<layer id="0" name="input" type="Input">
			<output>
				<port id="0" precision="FP32">
					<dim>1</dim>
					<dim>3</dim>
					<dim>299</dim>
					<dim>299</dim>
				</port>
			</output>
		</layer>
		<layer id="1" name="Mul_/Fused_Mul_/FusedScaleShift_" type="ScaleShift">
			<input>
				<port id="0">
					<dim>1</dim>
					<dim>3</dim>
					<dim>299</dim>
					<dim>299</dim>
				</port>
			</input>
			<output>
				<port id="3" precision="FP32">
					<dim>1</dim>
					<dim>3</dim>
					<dim>299</dim>
					<dim>299</dim>
				</port>
			</output>
			<blobs>
				<weights offset="0" precision="FP32" size="12"/>
				<biases offset="12" precision="FP32" size="12"/>
			</blobs>
		</layer>
		<layer id="2" name="2266222666_const" type="Const">
			<output>
				<port id="1" precision="FP32"/>
			</output>
			<blobs>
				<custom offset="24" precision="FP32" size="4"/>
			</blobs>
		</layer>
		<layer id="3" name="2266322667_const" type="Const">
			<output>
				<port id="1" precision="FP32"/>
			</output>
			<blobs>
				<custom offset="28" precision="FP32" size="4"/>
			</blobs>
		</layer>
		<layer id="4" name="2266422668_const" type="Const">
			<output>
				<port id="1" precision="FP32"/>
			</output>
			<blobs>
				<custom offset="24" precision="FP32" size="4"/>
			</blobs>
		</layer>
		<layer id="5" name="2266522669_const" type="Const">
			<output>
				<port id="1" precision="FP32"/>
			</output>
			<blobs>
				<custom offset="28" precision="FP32" size="4"/>
			</blobs>
		</layer>
		<layer id="6" name="InceptionV3/InceptionV3/Conv2d_1a_3x3/convolution/fq_input_0" type="FakeQuantize">
			<data levels="256.0"/>
			<input>
				<port id="0">
					<dim>1</dim>
					<dim>3</dim>
					<dim>299</dim>
					<dim>299</dim>
				</port>
				<port id="1"/>
				<port id="2"/>
				<port id="3"/>
				<port id="4"/>
			</input>
			<output>
				<port id="5" precision="FP32">
					<dim>1</dim>
					<dim>3</dim>
					<dim>299</dim>
					<dim>299</dim>
				</port>
			</output>
		</layer>
		<layer id="7" name="InceptionV3/InceptionV3/Conv2d_1a_3x3/BatchNorm/batchnorm/mul1204012042_const" type="Const">
			<output>
				<port id="1" precision="FP32">
					<dim>32</dim>
					<dim>3</dim>
					<dim>3</dim>
					<dim>3</dim>
				</port>
			</output>
			<blobs>
				<custom offset="32" precision="FP32" size="3456"/>
			</blobs>
		</layer>
		<layer id="8" name="2267222676_const" type="Const">
			<output>
				<port id="1" precision="FP32">
					<dim>32</dim>
				</port>
			</output>
			<blobs>
				<custom offset="3488" precision="FP32" size="128"/>
			</blobs>
		</layer>
		<layer id="9" name="2267322677_const" type="Const">
			<output>
				<port id="1" precision="FP32">
					<dim>32</dim>
				</port>
			</output>
			<blobs>
				<custom offset="3616" precision="FP32" size="128"/>
			</blobs>
		</layer>
		<layer id="10" name="2267422678_const" type="Const">
			<output>
				<port id="1" precision="FP32">
					<dim>32</dim>
				</port>
			</output>
			<blobs>
				<custom offset="3488" precision="FP32" size="128"/>
			</blobs>
		</layer>
		<layer id="11" name="2267522679_const" type="Const">
			<output>
				<port id="1" precision="FP32">
					<dim>32</dim>
				</port>
			</output>
			<blobs>
				<custom offset="3616" precision="FP32" size="128"/>
			</blobs>
		</layer>
		<layer id="12" name="InceptionV3/InceptionV3/Conv2d_1a_3x3/convolution/fq_weights_1" type="FakeQuantize">
			<data levels="256"/>
			<input>
				<port id="0">
					<dim>32</dim>
					<dim>3</dim>
					<dim>3</dim>
					<dim>3</dim>
				</port>
				<port id="1">
					<dim>32</dim>
				</port>
				<port id="2">
					<dim>32</dim>
				</port>
				<port id="3">
					<dim>32</dim>
				</port>
				<port id="4">
					<dim>32</dim>
				</port>
			</input>
			<output>
				<port id="5" precision="FP32">
					<dim>32</dim>
					<dim>3</dim>
					<dim>3</dim>
					<dim>3</dim>
				</port>
			</output>
		</layer>
		<layer id="13" name="bias_data12044_const" type="Const">
			<output>
				<port id="1" precision="FP32">
					<dim>32</dim>
				</port>
			</output>
			<blobs>
				<custom offset="3744" precision="FP32" size="128"/>
			</blobs>
		</layer>
		<layer id="14" name="InceptionV3/InceptionV3/Conv2d_1a_3x3/convolution" type="Convolution">
			<data auto_pad="valid" dilations="1,1" group="1" kernel="3,3" output="32" pads_begin="0,0" pads_end="0,0" strides="2,2"/>
			<input>
				<port id="0">
					<dim>1</dim>
					<dim>3</dim>
					<dim>299</dim>
					<dim>299</dim>
				</port>
				<port id="1">
					<dim>32</dim>
					<dim>3</dim>
					<dim>3</dim>
					<dim>3</dim>
				</port>
				<port id="2">
					<dim>32</dim>
				</port>
			</input>
			<output>
				<port id="3" precision="FP32">
					<dim>1</dim>
					<dim>32</dim>
					<dim>149</dim>
					<dim>149</dim>
				</port>
			</output>
		</layer>
		<layer id="15" name="InceptionV3/InceptionV3/Conv2d_1a_3x3/Relu" type="ReLU">
			<input>
				<port id="0">
					<dim>1</dim>
					<dim>32</dim>
					<dim>149</dim>
					<dim>149</dim>
				</port>
			</input>
			<output>
				<port id="1" precision="FP32">
					<dim>1</dim>
					<dim>32</dim>
					<dim>149</dim>
					<dim>149</dim>
				</port>
			</output>
		</layer>
		<layer id="16" name="2154221546_const" type="Const">
			<output>
				<port id="1" precision="FP32"/>
			</output>
			<blobs>
				<custom offset="3872" precision="FP32" size="4"/>
			</blobs>
		</layer>
		<layer id="17" name="2154321547_const" type="Const">
			<output>
				<port id="1" precision="FP32"/>
			</output>
			<blobs>
				<custom offset="3876" precision="FP32" size="4"/>
			</blobs>
		</layer>
		<layer id="18" name="2154421548_const" type="Const">
			<output>
				<port id="1" precision="FP32"/>
			</output>
			<blobs>
				<custom offset="3872" precision="FP32" size="4"/>
			</blobs>
		</layer>
		<layer id="19" name="2154521549_const" type="Const">
			<output>
				<port id="1" precision="FP32"/>
			</output>
			<blobs>
				<custom offset="3876" precision="FP32" size="4"/>
			</blobs>
		</layer>
		<layer id="20" name="InceptionV3/InceptionV3/Conv2d_2a_3x3/convolution/fq_input_0" type="FakeQuantize">
			<data levels="256.0"/>
			<input>
				<port id="0">
					<dim>1</dim>
					<dim>32</dim>
					<dim>149</dim>
					<dim>149</dim>
				</port>
				<port id="1"/>
				<port id="2"/>
				<port id="3"/>
				<port id="4"/>
			</input>
			<output>
				<port id="5" precision="FP32">
					<dim>1</dim>
					<dim>32</dim>
					<dim>149</dim>
					<dim>149</dim>
				</port>
			</output>
		</layer>
		<layer id="21" name="InceptionV3/InceptionV3/Conv2d_2a_3x3/BatchNorm/batchnorm/mul1204612048_const" type="Const">
			<output>
				<port id="1" precision="FP32">
					<dim>32</dim>
					<dim>32</dim>
					<dim>3</dim>
					<dim>3</dim>
				</port>
			</output>
			<blobs>
				<custom offset="3880" precision="FP32" size="36864"/>
			</blobs>
		</layer>
		<layer id="22" name="2155221556_const" type="Const">
			<output>
				<port id="1" precision="FP32">
					<dim>32</dim>
				</port>
			</output>
			<blobs>
				<custom offset="40744" precision="FP32" size="128"/>
			</blobs>
		</layer>
		<layer id="23" name="2155321557_const" type="Const">
			<output>
				<port id="1" precision="FP32">
					<dim>32</dim>
				</port>
			</output>
			<blobs>
				<custom offset="40872" precision="FP32" size="128"/>
			</blobs>
		</layer>
		<layer id="24" name="2155421558_const" type="Const">
			<output>
				<port id="1" precision="FP32">
					<dim>32</dim>
				</port>
			</output>
			<blobs>
				<custom offset="40744" precision="FP32" size="128"/>
			</blobs>
		</layer>
		<layer id="25" name="2155521559_const" type="Const">
			<output>
				<port id="1" precision="FP32">
					<dim>32</dim>
				</port>
			</output>
			<blobs>
				<custom offset="40872" precision="FP32" size="128"/>
			</blobs>
		</layer>
		<layer id="26" name="InceptionV3/InceptionV3/Conv2d_2a_3x3/convolution/fq_weights_1" type="FakeQuantize">
			<data levels="256"/>
			<input>
				<port id="0">
					<dim>32</dim>
					<dim>32</dim>
					<dim>3</dim>
					<dim>3</dim>
				</port>
				<port id="1">
					<dim>32</dim>
				</port>
				<port id="2">
					<dim>32</dim>
				</port>
				<port id="3">
					<dim>32</dim>
				</port>
				<port id="4">
					<dim>32</dim>
				</port>
			</input>
			<output>
				<port id="5" precision="FP32">
					<dim>32</dim>
					<dim>32</dim>
					<dim>3</dim>
					<dim>3</dim>
				</port>
			</output>
		</layer>
		<layer id="27" name="bias_data1204912050_const" type="Const">
			<output>
				<port id="1" precision="FP32">
					<dim>32</dim>
				</port>
			</output>
			<blobs>
				<custom offset="41000" precision="FP32" size="128"/>
			</blobs>
		</layer>
		<layer id="28" name="InceptionV3/InceptionV3/Conv2d_2a_3x3/convolution" type="Convolution">
			<data auto_pad="valid" dilations="1,1" group="1" kernel="3,3" output="32" pads_begin="0,0" pads_end="0,0" strides="1,1"/>
			<input>
				<port id="0">
					<dim>1</dim>
					<dim>32</dim>
					<dim>149</dim>
					<dim>149</dim>
				</port>
				<port id="1">
					<dim>32</dim>
					<dim>32</dim>
					<dim>3</dim>
					<dim>3</dim>
				</port>
				<port id="2">
					<dim>32</dim>
				</port>
			</input>
			<output>
				<port id="3" precision="FP32">
					<dim>1</dim>
					<dim>32</dim>
					<dim>147</dim>
					<dim>147</dim>
				</port>
			</output>
		</layer>
		<layer id="29" name="InceptionV3/InceptionV3/Conv2d_2a_3x3/Relu" type="ReLU">
			<input>
				<port id="0">
					<dim>1</dim>
					<dim>32</dim>
					<dim>147</dim>
					<dim>147</dim>
				</port>
			</input>
			<output>
				<port id="1" precision="FP32">
					<dim>1</dim>
					<dim>32</dim>
					<dim>147</dim>
					<dim>147</dim>
				</port>
			</output>
		</layer>
		<layer id="30" name="2286222866_const" type="Const">
			<output>
				<port id="1" precision="FP32"/>
			</output>
			<blobs>
				<custom offset="3872" precision="FP32" size="4"/>
			</blobs>
		</layer>
		<layer id="31" name="2286322867_const" type="Const">
			<output>
				<port id="1" precision="FP32"/>
			</output>
			<blobs>
				<custom offset="41128" precision="FP32" size="4"/>
			</blobs>
		</layer>
		<layer id="32" name="2286422868_const" type="Const">
			<output>
				<port id="1" precision="FP32"/>
			</output>
			<blobs>
				<custom offset="3872" precision="FP32" size="4"/>
			</blobs>
		</layer>
		<layer id="33" name="2286522869_const" type="Const">
			<output>
				<port id="1" precision="FP32"/>
			</output>
			<blobs>
				<custom offset="41128" precision="FP32" size="4"/>
			</blobs>
		</layer>
		<layer id="34" name="InceptionV3/InceptionV3/Conv2d_2b_3x3/convolution/fq_input_0" type="FakeQuantize">
			<data levels="256.0"/>
			<input>
				<port id="0">
					<dim>1</dim>
					<dim>32</dim>
					<dim>147</dim>
					<dim>147</dim>
				</port>
				<port id="1"/>
				<port id="2"/>
				<port id="3"/>
				<port id="4"/>
			</input>
			<output>
				<port id="5" precision="FP32">
					<dim>1</dim>
					<dim>32</dim>
					<dim>147</dim>
					<dim>147</dim>
				</port>
			</output>
		</layer>
		<layer id="35" name="InceptionV3/InceptionV3/Conv2d_2b_3x3/BatchNorm/batchnorm/mul1205212054_const" type="Const">
			<output>
				<port id="1" precision="FP32">
					<dim>64</dim>
					<dim>32</dim>
					<dim>3</dim>
					<dim>3</dim>
				</port>
			</output>
			<blobs>
				<custom offset="41132" precision="FP32" size="73728"/>
			</blobs>
		</layer>
		<layer id="36" name="2287222876_const" type="Const">
			<output>
				<port id="1" precision="FP32">
					<dim>64</dim>
				</port>
			</output>
			<blobs>
				<custom offset="114860" precision="FP32" size="256"/>
			</blobs>
		</layer>
		<layer id="37" name="2287322877_const" type="Const">
			<output>
				<port id="1" precision="FP32">
					<dim>64</dim>
				</port>
			</output>
			<blobs>
				<custom offset="115116" precision="FP32" size="256"/>
			</blobs>
		</layer>
		<layer id="38" name="2287422878_const" type="Const">
			<output>
				<port id="1" precision="FP32">
					<dim>64</dim>
				</port>
			</output>
			<blobs>
				<custom offset="114860" precision="FP32" size="256"/>
			</blobs>
		</layer>
		<layer id="39" name="2287522879_const" type="Const">
			<output>
				<port id="1" precision="FP32">
					<dim>64</dim>
				</port>
			</output>
			<blobs>
				<custom offset="115116" precision="FP32" size="256"/>
			</blobs>
		</layer>
		<layer id="40" name="InceptionV3/InceptionV3/Conv2d_2b_3x3/convolution/fq_weights_1" type="FakeQuantize">
			<data levels="256"/>
			<input>
				<port id="0">
					<dim>64</dim>
					<dim>32</dim>
					<dim>3</dim>
					<dim>3</dim>
				</port>
				<port id="1">
					<dim>64</dim>
				</port>
				<port id="2">
					<dim>64</dim>
				</port>
				<port id="3">
					<dim>64</dim>
				</port>
				<port id="4">
					<dim>64</dim>
				</port>
			</input>
			<output>
				<port id="5" precision="FP32">
					<dim>64</dim>
					<dim>32</dim>
					<dim>3</dim>
					<dim>3</dim>
				</port>
			</output>
		</layer>
		<layer id="41" name="bias_data1205512056_const" type="Const">
			<output>
				<port id="1" precision="FP32">
					<dim>64</dim>
				</port>
			</output>
			<blobs>
				<custom offset="115372" precision="FP32" size="256"/>
			</blobs>
		</layer>
		<layer id="42" name="InceptionV3/InceptionV3/Conv2d_2b_3x3/convolution" type="Convolution">
			<data auto_pad="same_upper" dilations="1,1" group="1" kernel="3,3" output="64" pads_begin="1,1" pads_end="1,1" strides="1,1"/>
			<input>
				<port id="0">
					<dim>1</dim>
					<dim>32</dim>
					<dim>147</dim>
					<dim>147</dim>
				</port>
				<port id="1">
					<dim>64</dim>
					<dim>32</dim>
					<dim>3</dim>
					<dim>3</dim>
				</port>
				<port id="2">
					<dim>64</dim>
				</port>
			</input>
			<output>
				<port id="3" precision="FP32">
					<dim>1</dim>
					<dim>64</dim>
					<dim>147</dim>
					<dim>147</dim>
				</port>
			</output>
		</layer>
		<layer id="43" name="InceptionV3/InceptionV3/Conv2d_2b_3x3/Relu" type="ReLU">
			<input>
				<port id="0">
					<dim>1</dim>
					<dim>64</dim>
					<dim>147</dim>
					<dim>147</dim>
				</port>
			</input>
			<output>
				<port id="1" precision="FP32">
					<dim>1</dim>
					<dim>64</dim>
					<dim>147</dim>
					<dim>147</dim>
				</port>
			</output>
		</layer>
		<layer id="44" name="2398023984_const" type="Const">
			<output>
				<port id="1" precision="FP32"/>
			</output>
			<blobs>
				<custom offset="3872" precision="FP32" size="4"/>
			</blobs>
		</layer>
		<layer id="45" name="2398123985_const" type="Const">
			<output>
				<port id="1" precision="FP32"/>
			</output>
			<blobs>
				<custom offset="115628" precision="FP32" size="4"/>
			</blobs>
		</layer>
		<layer id="46" name="2398223986_const" type="Const">
			<output>
				<port id="1" precision="FP32"/>
			</output>
			<blobs>
				<custom offset="3872" precision="FP32" size="4"/>
			</blobs>
		</layer>
		<layer id="47" name="2398323987_const" type="Const">
			<output>
				<port id="1" precision="FP32"/>
			</output>
			<blobs>
				<custom offset="115628" precision="FP32" size="4"/>
			</blobs>
		</layer>
		<layer id="48" name="InceptionV3/InceptionV3/MaxPool_3a_3x3/MaxPool/fq_input_0" type="FakeQuantize">
			<data levels="256.0"/>
			<input>
				<port id="0">
					<dim>1</dim>
					<dim>64</dim>
					<dim>147</dim>
					<dim>147</dim>
				</port>
				<port id="1"/>
				<port id="2"/>
				<port id="3"/>
				<port id="4"/>
			</input>
			<output>
				<port id="5" precision="FP32">
					<dim>1</dim>
					<dim>64</dim>
					<dim>147</dim>
					<dim>147</dim>
				</port>
			</output>
		</layer>
		<layer id="49" name="InceptionV3/InceptionV3/MaxPool_3a_3x3/MaxPool" type="Pooling">
			<data auto_pad="valid" exclude-pad="true" kernel="3,3" pads_begin="0,0" pads_end="0,0" pool-method="max" strides="2,2"/>
			<input>
				<port id="0">
					<dim>1</dim>
					<dim>64</dim>
					<dim>147</dim>
					<dim>147</dim>
				</port>
			</input>
			<output>
				<port id="1" precision="FP32">
					<dim>1</dim>
					<dim>64</dim>
					<dim>73</dim>
					<dim>73</dim>
				</port>
			</output>
		</layer>
		<layer id="50" name="InceptionV3/InceptionV3/Conv2d_3b_1x1/BatchNorm/batchnorm/mul1205812060_const" type="Const">
			<output>
				<port id="1" precision="FP32">
					<dim>80</dim>
					<dim>64</dim>
					<dim>1</dim>
					<dim>1</dim>
				</port>
			</output>
			<blobs>
				<custom offset="115632" precision="FP32" size="20480"/>
			</blobs>
		</layer>
		<layer id="51" name="2102221026_const" type="Const">
			<output>
				<port id="1" precision="FP32">
					<dim>80</dim>
				</port>
			</output>
			<blobs>
				<custom offset="136112" precision="FP32" size="320"/>
			</blobs>
		</layer>
		<layer id="52" name="2102321027_const" type="Const">
			<output>
				<port id="1" precision="FP32">
					<dim>80</dim>
				</port>
			</output>
			<blobs>
				<custom offset="136432" precision="FP32" size="320"/>
			</blobs>
		</layer>
		<layer id="53" name="2102421028_const" type="Const">
			<output>
				<port id="1" precision="FP32">
					<dim>80</dim>
				</port>
			</output>
			<blobs>
				<custom offset="136112" precision="FP32" size="320"/>
			</blobs>
		</layer>
		<layer id="54" name="2102521029_const" type="Const">
			<output>
				<port id="1" precision="FP32">
					<dim>80</dim>
				</port>
			</output>
			<blobs>
				<custom offset="136432" precision="FP32" size="320"/>
			</blobs>
		</layer>
		<layer id="55" name="InceptionV3/InceptionV3/Conv2d_3b_1x1/convolution/fq_weights_1" type="FakeQuantize">
			<data levels="256"/>
			<input>
				<port id="0">
					<dim>80</dim>
					<dim>64</dim>
					<dim>1</dim>
					<dim>1</dim>
				</port>
				<port id="1">
					<dim>80</dim>
				</port>
				<port id="2">
					<dim>80</dim>
				</port>
				<port id="3">
					<dim>80</dim>
				</port>
				<port id="4">
					<dim>80</dim>
				</port>
			</input>
			<output>
				<port id="5" precision="FP32">
					<dim>80</dim>
					<dim>64</dim>
					<dim>1</dim>
					<dim>1</dim>
				</port>
			</output>
		</layer>
		<layer id="56" name="bias_data1206112062_const" type="Const">
			<output>
				<port id="1" precision="FP32">
					<dim>80</dim>
				</port>
			</output>
			<blobs>
				<custom offset="136752" precision="FP32" size="320"/>
			</blobs>
		</layer>
		<layer id="57" name="InceptionV3/InceptionV3/Conv2d_3b_1x1/convolution" type="Convolution">
			<data auto_pad="valid" dilations="1,1" group="1" kernel="1,1" output="80" pads_begin="0,0" pads_end="0,0" strides="1,1"/>
			<input>
				<port id="0">
					<dim>1</dim>
					<dim>64</dim>
					<dim>73</dim>
					<dim>73</dim>
				</port>
				<port id="1">
					<dim>80</dim>
					<dim>64</dim>
					<dim>1</dim>
					<dim>1</dim>
				</port>
				<port id="2">
					<dim>80</dim>
				</port>
			</input>
			<output>
				<port id="3" precision="FP32">
					<dim>1</dim>
					<dim>80</dim>
					<dim>73</dim>
					<dim>73</dim>
				</port>
			</output>
		</layer>
		<layer id="58" name="InceptionV3/InceptionV3/Conv2d_3b_1x1/Relu" type="ReLU">
			<input>
				<port id="0">
					<dim>1</dim>
					<dim>80</dim>
					<dim>73</dim>
					<dim>73</dim>
				</port>
			</input>
			<output>
				<port id="1" precision="FP32">
					<dim>1</dim>
					<dim>80</dim>
					<dim>73</dim>
					<dim>73</dim>
				</port>
			</output>
		</layer>
		<layer id="59" name="2103221036_const" type="Const">
			<output>
				<port id="1" precision="FP32"/>
			</output>
			<blobs>
				<custom offset="3872" precision="FP32" size="4"/>
			</blobs>
		</layer>
		<layer id="60" name="2103321037_const" type="Const">
			<output>
				<port id="1" precision="FP32"/>
			</output>
			<blobs>
				<custom offset="137072" precision="FP32" size="4"/>
			</blobs>
		</layer>
		<layer id="61" name="2103421038_const" type="Const">
			<output>
				<port id="1" precision="FP32"/>
			</output>
			<blobs>
				<custom offset="3872" precision="FP32" size="4"/>
			</blobs>
		</layer>
		<layer id="62" name="2103521039_const" type="Const">
			<output>
				<port id="1" precision="FP32"/>
			</output>
			<blobs>
				<custom offset="137072" precision="FP32" size="4"/>
			</blobs>
		</layer>
		<layer id="63" name="InceptionV3/InceptionV3/Conv2d_4a_3x3/convolution/fq_input_0" type="FakeQuantize">
			<data levels="256.0"/>
			<input>
				<port id="0">
					<dim>1</dim>
					<dim>80</dim>
					<dim>73</dim>
					<dim>73</dim>
				</port>
				<port id="1"/>
				<port id="2"/>
				<port id="3"/>
				<port id="4"/>
			</input>
			<output>
				<port id="5" precision="FP32">
					<dim>1</dim>
					<dim>80</dim>
					<dim>73</dim>
					<dim>73</dim>
				</port>
			</output>
		</layer>
		<layer id="64" name="InceptionV3/InceptionV3/Conv2d_4a_3x3/BatchNorm/batchnorm/mul1206412066_const" type="Const">
			<output>
				<port id="1" precision="FP32">
					<dim>192</dim>
					<dim>80</dim>
					<dim>3</dim>
					<dim>3</dim>
				</port>
			</output>
			<blobs>
				<custom offset="137076" precision="FP32" size="552960"/>
			</blobs>
		</layer>
		<layer id="65" name="2104221046_const" type="Const">
			<output>
				<port id="1" precision="FP32">
					<dim>192</dim>
				</port>
			</output>
			<blobs>
				<custom offset="690036" precision="FP32" size="768"/>
			</blobs>
		</layer>
		<layer id="66" name="2104321047_const" type="Const">
			<output>
				<port id="1" precision="FP32">
					<dim>192</dim>
				</port>
			</output>
			<blobs>
				<custom offset="690804" precision="FP32" size="768"/>
			</blobs>
		</layer>
		<layer id="67" name="2104421048_const" type="Const">
			<output>
				<port id="1" precision="FP32">
					<dim>192</dim>
				</port>
			</output>
			<blobs>
				<custom offset="690036" precision="FP32" size="768"/>
			</blobs>
		</layer>
		<layer id="68" name="2104521049_const" type="Const">
			<output>
				<port id="1" precision="FP32">
					<dim>192</dim>
				</port>
			</output>
			<blobs>
				<custom offset="690804" precision="FP32" size="768"/>
			</blobs>
		</layer>
		<layer id="69" name="InceptionV3/InceptionV3/Conv2d_4a_3x3/convolution/fq_weights_1" type="FakeQuantize">
			<data levels="256"/>
			<input>
				<port id="0">
					<dim>192</dim>
					<dim>80</dim>
					<dim>3</dim>
					<dim>3</dim>
				</port>
				<port id="1">
					<dim>192</dim>
				</port>
				<port id="2">
					<dim>192</dim>
				</port>
				<port id="3">
					<dim>192</dim>
				</port>
				<port id="4">
					<dim>192</dim>
				</port>
			</input>
			<output>
				<port id="5" precision="FP32">
					<dim>192</dim>
					<dim>80</dim>
					<dim>3</dim>
					<dim>3</dim>
				</port>
			</output>
		</layer>
		<layer id="70" name="bias_data1206712068_const" type="Const">
			<output>
				<port id="1" precision="FP32">
					<dim>192</dim>
				</port>
			</output>
			<blobs>
				<custom offset="691572" precision="FP32" size="768"/>
			</blobs>
		</layer>
		<layer id="71" name="InceptionV3/InceptionV3/Conv2d_4a_3x3/convolution" type="Convolution">
			<data auto_pad="valid" dilations="1,1" group="1" kernel="3,3" output="192" pads_begin="0,0" pads_end="0,0" strides="1,1"/>
			<input>
				<port id="0">
					<dim>1</dim>
					<dim>80</dim>
					<dim>73</dim>
					<dim>73</dim>
				</port>
				<port id="1">
					<dim>192</dim>
					<dim>80</dim>
					<dim>3</dim>
					<dim>3</dim>
				</port>
				<port id="2">
					<dim>192</dim>
				</port>
			</input>
			<output>
				<port id="3" precision="FP32">
					<dim>1</dim>
					<dim>192</dim>
					<dim>71</dim>
					<dim>71</dim>
				</port>
			</output>
		</layer>
		<layer id="72" name="InceptionV3/InceptionV3/Conv2d_4a_3x3/Relu" type="ReLU">
			<input>
				<port id="0">
					<dim>1</dim>
					<dim>192</dim>
					<dim>71</dim>
					<dim>71</dim>
				</port>
			</input>
			<output>
				<port id="1" precision="FP32">
					<dim>1</dim>
					<dim>192</dim>
					<dim>71</dim>
					<dim>71</dim>
				</port>
			</output>
		</layer>
		<layer id="73" name="2399023994_const" type="Const">
			<output>
				<port id="1" precision="FP32"/>
			</output>
			<blobs>
				<custom offset="3872" precision="FP32" size="4"/>
			</blobs>
		</layer>
		<layer id="74" name="2399123995_const" type="Const">
			<output>
				<port id="1" precision="FP32"/>
			</output>
			<blobs>
				<custom offset="692340" precision="FP32" size="4"/>
			</blobs>
		</layer>
		<layer id="75" name="2399223996_const" type="Const">
			<output>
				<port id="1" precision="FP32"/>
			</output>
			<blobs>
				<custom offset="3872" precision="FP32" size="4"/>
			</blobs>
		</layer>
		<layer id="76" name="2399323997_const" type="Const">
			<output>
				<port id="1" precision="FP32"/>
			</output>
			<blobs>
				<custom offset="692340" precision="FP32" size="4"/>
			</blobs>
		</layer>
		<layer id="77" name="InceptionV3/InceptionV3/MaxPool_5a_3x3/MaxPool/fq_input_0" type="FakeQuantize">
			<data levels="256.0"/>
			<input>
				<port id="0">
					<dim>1</dim>
					<dim>192</dim>
					<dim>71</dim>
					<dim>71</dim>
				</port>
				<port id="1"/>
				<port id="2"/>
				<port id="3"/>
				<port id="4"/>
			</input>
			<output>
				<port id="5" precision="FP32">
					<dim>1</dim>
					<dim>192</dim>
					<dim>71</dim>
					<dim>71</dim>
				</port>
			</output>
		</layer>
		<layer id="78" name="InceptionV3/InceptionV3/MaxPool_5a_3x3/MaxPool" type="Pooling">
			<data auto_pad="valid" exclude-pad="true" kernel="3,3" pads_begin="0,0" pads_end="0,0" pool-method="max" strides="2,2"/>
			<input>
				<port id="0">
					<dim>1</dim>
					<dim>192</dim>
					<dim>71</dim>
					<dim>71</dim>
				</port>
			</input>
			<output>
				<port id="1" precision="FP32">
					<dim>1</dim>
					<dim>192</dim>
					<dim>35</dim>
					<dim>35</dim>
				</port>
			</output>
		</layer>
		<layer id="79" name="InceptionV3/InceptionV3/Mixed_5b/Branch_0/Conv2d_0a_1x1/BatchNorm/batchnorm/mul1207012072_const" type="Const">
			<output>
				<port id="1" precision="FP32">
					<dim>64</dim>
					<dim>192</dim>
					<dim>1</dim>
					<dim>1</dim>
				</port>
			</output>
			<blobs>
				<custom offset="692344" precision="FP32" size="49152"/>
			</blobs>
		</layer>
		<layer id="80" name="2164221646_const" type="Const">
			<output>
				<port id="1" precision="FP32">
					<dim>64</dim>
				</port>
			</output>
			<blobs>
				<custom offset="741496" precision="FP32" size="256"/>
			</blobs>
		</layer>
		<layer id="81" name="2164321647_const" type="Const">
			<output>
				<port id="1" precision="FP32">
					<dim>64</dim>
				</port>
			</output>
			<blobs>
				<custom offset="741752" precision="FP32" size="256"/>
			</blobs>
		</layer>
		<layer id="82" name="2164421648_const" type="Const">
			<output>
				<port id="1" precision="FP32">
					<dim>64</dim>
				</port>
			</output>
			<blobs>
				<custom offset="741496" precision="FP32" size="256"/>
			</blobs>
		</layer>
		<layer id="83" name="2164521649_const" type="Const">
			<output>
				<port id="1" precision="FP32">
					<dim>64</dim>
				</port>
			</output>
			<blobs>
				<custom offset="741752" precision="FP32" size="256"/>
			</blobs>
		</layer>
		<layer id="84" name="InceptionV3/InceptionV3/Mixed_5b/Branch_0/Conv2d_0a_1x1/convolution/fq_weights_1" type="FakeQuantize">
			<data levels="256"/>
			<input>
				<port id="0">
					<dim>64</dim>
					<dim>192</dim>
					<dim>1</dim>
					<dim>1</dim>
				</port>
				<port id="1">
					<dim>64</dim>
				</port>
				<port id="2">
					<dim>64</dim>
				</port>
				<port id="3">
					<dim>64</dim>
				</port>
				<port id="4">
					<dim>64</dim>
				</port>
			</input>
			<output>
				<port id="5" precision="FP32">
					<dim>64</dim>
					<dim>192</dim>
					<dim>1</dim>
					<dim>1</dim>
				</port>
			</output>
		</layer>
		<layer id="85" name="bias_data1207312074_const" type="Const">
			<output>
				<port id="1" precision="FP32">
					<dim>64</dim>
				</port>
			</output>
			<blobs>
				<custom offset="742008" precision="FP32" size="256"/>
			</blobs>
		</layer>
		<layer id="86" name="InceptionV3/InceptionV3/Mixed_5b/Branch_0/Conv2d_0a_1x1/convolution" type="Convolution">
			<data auto_pad="same_upper" dilations="1,1" group="1" kernel="1,1" output="64" pads_begin="0,0" pads_end="0,0" strides="1,1"/>
			<input>
				<port id="0">
					<dim>1</dim>
					<dim>192</dim>
					<dim>35</dim>
					<dim>35</dim>
				</port>
				<port id="1">
					<dim>64</dim>
					<dim>192</dim>
					<dim>1</dim>
					<dim>1</dim>
				</port>
				<port id="2">
					<dim>64</dim>
				</port>
			</input>
			<output>
				<port id="3" precision="FP32">
					<dim>1</dim>
					<dim>64</dim>
					<dim>35</dim>
					<dim>35</dim>
				</port>
			</output>
		</layer>
		<layer id="87" name="InceptionV3/InceptionV3/Mixed_5b/Branch_0/Conv2d_0a_1x1/Relu" type="ReLU">
			<input>
				<port id="0">
					<dim>1</dim>
					<dim>64</dim>
					<dim>35</dim>
					<dim>35</dim>
				</port>
			</input>
			<output>
				<port id="1" precision="FP32">
					<dim>1</dim>
					<dim>64</dim>
					<dim>35</dim>
					<dim>35</dim>
				</port>
			</output>
		</layer>
		<layer id="88" name="2403024034_const" type="Const">
			<output>
				<port id="1" precision="FP32"/>
			</output>
			<blobs>
				<custom offset="3872" precision="FP32" size="4"/>
			</blobs>
		</layer>
		<layer id="89" name="2403124035_const" type="Const">
			<output>
				<port id="1" precision="FP32"/>
			</output>
			<blobs>
				<custom offset="742264" precision="FP32" size="4"/>
			</blobs>
		</layer>
		<layer id="90" name="2403224036_const" type="Const">
			<output>
				<port id="1" precision="FP32"/>
			</output>
			<blobs>
				<custom offset="3872" precision="FP32" size="4"/>
			</blobs>
		</layer>
		<layer id="91" name="2403324037_const" type="Const">
			<output>
				<port id="1" precision="FP32"/>
			</output>
			<blobs>
				<custom offset="742264" precision="FP32" size="4"/>
			</blobs>
		</layer>
		<layer id="92" name="InceptionV3/InceptionV3/Mixed_5b/concat_v2/fq_input_0" type="FakeQuantize">
			<data levels="256.0"/>
			<input>
				<port id="0">
					<dim>1</dim>
					<dim>64</dim>
					<dim>35</dim>
					<dim>35</dim>
				</port>
				<port id="1"/>
				<port id="2"/>
				<port id="3"/>
				<port id="4"/>
			</input>
			<output>
				<port id="5" precision="FP32">
					<dim>1</dim>
					<dim>64</dim>
					<dim>35</dim>
					<dim>35</dim>
				</port>
			</output>
		</layer>
		<layer id="93" name="InceptionV3/InceptionV3/Mixed_5b/Branch_1/Conv2d_0a_1x1/BatchNorm/batchnorm/mul1210012102_const" type="Const">
			<output>
				<port id="1" precision="FP32">
					<dim>48</dim>
					<dim>192</dim>
					<dim>1</dim>
					<dim>1</dim>
				</port>
			</output>
			<blobs>
				<custom offset="742268" precision="FP32" size="36864"/>
			</blobs>
		</layer>
		<layer id="94" name="2258222586_const" type="Const">
			<output>
				<port id="1" precision="FP32">
					<dim>48</dim>
				</port>
			</output>
			<blobs>
				<custom offset="779132" precision="FP32" size="192"/>
			</blobs>
		</layer>
		<layer id="95" name="2258322587_const" type="Const">
			<output>
				<port id="1" precision="FP32">
					<dim>48</dim>
				</port>
			</output>
			<blobs>
				<custom offset="779324" precision="FP32" size="192"/>
			</blobs>
		</layer>
		<layer id="96" name="2258422588_const" type="Const">
			<output>
				<port id="1" precision="FP32">
					<dim>48</dim>
				</port>
			</output>
			<blobs>
				<custom offset="779132" precision="FP32" size="192"/>
			</blobs>
		</layer>
		<layer id="97" name="2258522589_const" type="Const">
			<output>
				<port id="1" precision="FP32">
					<dim>48</dim>
				</port>
			</output>
			<blobs>
				<custom offset="779324" precision="FP32" size="192"/>
			</blobs>
		</layer>
		<layer id="98" name="InceptionV3/InceptionV3/Mixed_5b/Branch_1/Conv2d_0a_1x1/convolution/fq_weights_1" type="FakeQuantize">
			<data levels="256"/>
			<input>
				<port id="0">
					<dim>48</dim>
					<dim>192</dim>
					<dim>1</dim>
					<dim>1</dim>
				</port>
				<port id="1">
					<dim>48</dim>
				</port>
				<port id="2">
					<dim>48</dim>
				</port>
				<port id="3">
					<dim>48</dim>
				</port>
				<port id="4">
					<dim>48</dim>
				</port>
			</input>
			<output>
				<port id="5" precision="FP32">
					<dim>48</dim>
					<dim>192</dim>
					<dim>1</dim>
					<dim>1</dim>
				</port>
			</output>
		</layer>
		<layer id="99" name="bias_data1210312104_const" type="Const">
			<output>
				<port id="1" precision="FP32">
					<dim>48</dim>
				</port>
			</output>
			<blobs>
				<custom offset="779516" precision="FP32" size="192"/>
			</blobs>
		</layer>
		<layer id="100" name="InceptionV3/InceptionV3/Mixed_5b/Branch_1/Conv2d_0a_1x1/convolution" type="Convolution">
			<data auto_pad="same_upper" dilations="1,1" group="1" kernel="1,1" output="48" pads_begin="0,0" pads_end="0,0" strides="1,1"/>
			<input>
				<port id="0">
					<dim>1</dim>
					<dim>192</dim>
					<dim>35</dim>
					<dim>35</dim>
				</port>
				<port id="1">
					<dim>48</dim>
					<dim>192</dim>
					<dim>1</dim>
					<dim>1</dim>
				</port>
				<port id="2">
					<dim>48</dim>
				</port>
			</input>
			<output>
				<port id="3" precision="FP32">
					<dim>1</dim>
					<dim>48</dim>
					<dim>35</dim>
					<dim>35</dim>
				</port>
			</output>
		</layer>
		<layer id="101" name="InceptionV3/InceptionV3/Mixed_5b/Branch_1/Conv2d_0a_1x1/Relu" type="ReLU">
			<input>
				<port id="0">
					<dim>1</dim>
					<dim>48</dim>
					<dim>35</dim>
					<dim>35</dim>
				</port>
			</input>
			<output>
				<port id="1" precision="FP32">
					<dim>1</dim>
					<dim>48</dim>
					<dim>35</dim>
					<dim>35</dim>
				</port>
			</output>
		</layer>
		<layer id="102" name="2124221246_const" type="Const">
			<output>
				<port id="1" precision="FP32"/>
			</output>
			<blobs>
				<custom offset="3872" precision="FP32" size="4"/>
			</blobs>
		</layer>
		<layer id="103" name="2124321247_const" type="Const">
			<output>
				<port id="1" precision="FP32"/>
			</output>
			<blobs>
				<custom offset="779708" precision="FP32" size="4"/>
			</blobs>
		</layer>
		<layer id="104" name="2124421248_const" type="Const">
			<output>
				<port id="1" precision="FP32"/>
			</output>
			<blobs>
				<custom offset="3872" precision="FP32" size="4"/>
			</blobs>
		</layer>
		<layer id="105" name="2124521249_const" type="Const">
			<output>
				<port id="1" precision="FP32"/>
			</output>
			<blobs>
				<custom offset="779708" precision="FP32" size="4"/>
			</blobs>
		</layer>
		<layer id="106" name="InceptionV3/InceptionV3/Mixed_5b/Branch_1/Conv2d_0b_5x5/convolution/fq_input_0" type="FakeQuantize">
			<data levels="256.0"/>
			<input>
				<port id="0">
					<dim>1</dim>
					<dim>48</dim>
					<dim>35</dim>
					<dim>35</dim>
				</port>
				<port id="1"/>
				<port id="2"/>
				<port id="3"/>
				<port id="4"/>
			</input>
			<output>
				<port id="5" precision="FP32">
					<dim>1</dim>
					<dim>48</dim>
					<dim>35</dim>
					<dim>35</dim>
				</port>
			</output>
		</layer>
		<layer id="107" name="InceptionV3/InceptionV3/Mixed_5b/Branch_1/Conv2d_0b_5x5/BatchNorm/batchnorm/mul1210612108_const" type="Const">
			<output>
				<port id="1" precision="FP32">
					<dim>64</dim>
					<dim>48</dim>
					<dim>5</dim>
					<dim>5</dim>
				</port>
			</output>
			<blobs>
				<custom offset="779712" precision="FP32" size="307200"/>
			</blobs>
		</layer>
		<layer id="108" name="2125221256_const" type="Const">
			<output>
				<port id="1" precision="FP32">
					<dim>64</dim>
				</port>
			</output>
			<blobs>
				<custom offset="1086912" precision="FP32" size="256"/>
			</blobs>
		</layer>
		<layer id="109" name="2125321257_const" type="Const">
			<output>
				<port id="1" precision="FP32">
					<dim>64</dim>
				</port>
			</output>
			<blobs>
				<custom offset="1087168" precision="FP32" size="256"/>
			</blobs>
		</layer>
		<layer id="110" name="2125421258_const" type="Const">
			<output>
				<port id="1" precision="FP32">
					<dim>64</dim>
				</port>
			</output>
			<blobs>
				<custom offset="1086912" precision="FP32" size="256"/>
			</blobs>
		</layer>
		<layer id="111" name="2125521259_const" type="Const">
			<output>
				<port id="1" precision="FP32">
					<dim>64</dim>
				</port>
			</output>
			<blobs>
				<custom offset="1087168" precision="FP32" size="256"/>
			</blobs>
		</layer>
		<layer id="112" name="InceptionV3/InceptionV3/Mixed_5b/Branch_1/Conv2d_0b_5x5/convolution/fq_weights_1" type="FakeQuantize">
			<data levels="256"/>
			<input>
				<port id="0">
					<dim>64</dim>
					<dim>48</dim>
					<dim>5</dim>
					<dim>5</dim>
				</port>
				<port id="1">
					<dim>64</dim>
				</port>
				<port id="2">
					<dim>64</dim>
				</port>
				<port id="3">
					<dim>64</dim>
				</port>
				<port id="4">
					<dim>64</dim>
				</port>
			</input>
			<output>
				<port id="5" precision="FP32">
					<dim>64</dim>
					<dim>48</dim>
					<dim>5</dim>
					<dim>5</dim>
				</port>
			</output>
		</layer>
		<layer id="113" name="bias_data1210912110_const" type="Const">
			<output>
				<port id="1" precision="FP32">
					<dim>64</dim>
				</port>
			</output>
			<blobs>
				<custom offset="1087424" precision="FP32" size="256"/>
			</blobs>
		</layer>
		<layer id="114" name="InceptionV3/InceptionV3/Mixed_5b/Branch_1/Conv2d_0b_5x5/convolution" type="Convolution">
			<data auto_pad="same_upper" dilations="1,1" group="1" kernel="5,5" output="64" pads_begin="2,2" pads_end="2,2" strides="1,1"/>
			<input>
				<port id="0">
					<dim>1</dim>
					<dim>48</dim>
					<dim>35</dim>
					<dim>35</dim>
				</port>
				<port id="1">
					<dim>64</dim>
					<dim>48</dim>
					<dim>5</dim>
					<dim>5</dim>
				</port>
				<port id="2">
					<dim>64</dim>
				</port>
			</input>
			<output>
				<port id="3" precision="FP32">
					<dim>1</dim>
					<dim>64</dim>
					<dim>35</dim>
					<dim>35</dim>
				</port>
			</output>
		</layer>
		<layer id="115" name="InceptionV3/InceptionV3/Mixed_5b/Branch_1/Conv2d_0b_5x5/Relu" type="ReLU">
			<input>
				<port id="0">
					<dim>1</dim>
					<dim>64</dim>
					<dim>35</dim>
					<dim>35</dim>
				</port>
			</input>
			<output>
				<port id="1" precision="FP32">
					<dim>1</dim>
					<dim>64</dim>
					<dim>35</dim>
					<dim>35</dim>
				</port>
			</output>
		</layer>
		<layer id="116" name="2404024044_const" type="Const">
			<output>
				<port id="1" precision="FP32"/>
			</output>
			<blobs>
				<custom offset="3872" precision="FP32" size="4"/>
			</blobs>
		</layer>
		<layer id="117" name="2404124045_const" type="Const">
			<output>
				<port id="1" precision="FP32"/>
			</output>
			<blobs>
				<custom offset="1087680" precision="FP32" size="4"/>
			</blobs>
		</layer>
		<layer id="118" name="2404224046_const" type="Const">
			<output>
				<port id="1" precision="FP32"/>
			</output>
			<blobs>
				<custom offset="3872" precision="FP32" size="4"/>
			</blobs>
		</layer>
		<layer id="119" name="2404324047_const" type="Const">
			<output>
				<port id="1" precision="FP32"/>
			</output>
			<blobs>
				<custom offset="1087680" precision="FP32" size="4"/>
			</blobs>
		</layer>
		<layer id="120" name="InceptionV3/InceptionV3/Mixed_5b/concat_v2/fq_input_1" type="FakeQuantize">
			<data levels="256.0"/>
			<input>
				<port id="0">
					<dim>1</dim>
					<dim>64</dim>
					<dim>35</dim>
					<dim>35</dim>
				</port>
				<port id="1"/>
				<port id="2"/>
				<port id="3"/>
				<port id="4"/>
			</input>
			<output>
				<port id="5" precision="FP32">
					<dim>1</dim>
					<dim>64</dim>
					<dim>35</dim>
					<dim>35</dim>
				</port>
			</output>
		</layer>
		<layer id="121" name="InceptionV3/InceptionV3/Mixed_5b/Branch_2/Conv2d_0a_1x1/BatchNorm/batchnorm/mul1207612078_const" type="Const">
			<output>
				<port id="1" precision="FP32">
					<dim>64</dim>
					<dim>192</dim>
					<dim>1</dim>
					<dim>1</dim>
				</port>
			</output>
			<blobs>
				<custom offset="1087684" precision="FP32" size="49152"/>
			</blobs>
		</layer>
		<layer id="122" name="2248222486_const" type="Const">
			<output>
				<port id="1" precision="FP32">
					<dim>64</dim>
				</port>
			</output>
			<blobs>
				<custom offset="1136836" precision="FP32" size="256"/>
			</blobs>
		</layer>
		<layer id="123" name="2248322487_const" type="Const">
			<output>
				<port id="1" precision="FP32">
					<dim>64</dim>
				</port>
			</output>
			<blobs>
				<custom offset="1137092" precision="FP32" size="256"/>
			</blobs>
		</layer>
		<layer id="124" name="2248422488_const" type="Const">
			<output>
				<port id="1" precision="FP32">
					<dim>64</dim>
				</port>
			</output>
			<blobs>
				<custom offset="1136836" precision="FP32" size="256"/>
			</blobs>
		</layer>
		<layer id="125" name="2248522489_const" type="Const">
			<output>
				<port id="1" precision="FP32">
					<dim>64</dim>
				</port>
			</output>
			<blobs>
				<custom offset="1137092" precision="FP32" size="256"/>
			</blobs>
		</layer>
		<layer id="126" name="InceptionV3/InceptionV3/Mixed_5b/Branch_2/Conv2d_0a_1x1/convolution/fq_weights_1" type="FakeQuantize">
			<data levels="256"/>
			<input>
				<port id="0">
					<dim>64</dim>
					<dim>192</dim>
					<dim>1</dim>
					<dim>1</dim>
				</port>
				<port id="1">
					<dim>64</dim>
				</port>
				<port id="2">
					<dim>64</dim>
				</port>
				<port id="3">
					<dim>64</dim>
				</port>
				<port id="4">
					<dim>64</dim>
				</port>
			</input>
			<output>
				<port id="5" precision="FP32">
					<dim>64</dim>
					<dim>192</dim>
					<dim>1</dim>
					<dim>1</dim>
				</port>
			</output>
		</layer>
		<layer id="127" name="bias_data1207912080_const" type="Const">
			<output>
				<port id="1" precision="FP32">
					<dim>64</dim>
				</port>
			</output>
			<blobs>
				<custom offset="1137348" precision="FP32" size="256"/>
			</blobs>
		</layer>
		<layer id="128" name="InceptionV3/InceptionV3/Mixed_5b/Branch_2/Conv2d_0a_1x1/convolution" type="Convolution">
			<data auto_pad="same_upper" dilations="1,1" group="1" kernel="1,1" output="64" pads_begin="0,0" pads_end="0,0" strides="1,1"/>
			<input>
				<port id="0">
					<dim>1</dim>
					<dim>192</dim>
					<dim>35</dim>
					<dim>35</dim>
				</port>
				<port id="1">
					<dim>64</dim>
					<dim>192</dim>
					<dim>1</dim>
					<dim>1</dim>
				</port>
				<port id="2">
					<dim>64</dim>
				</port>
			</input>
			<output>
				<port id="3" precision="FP32">
					<dim>1</dim>
					<dim>64</dim>
					<dim>35</dim>
					<dim>35</dim>
				</port>
			</output>
		</layer>
		<layer id="129" name="InceptionV3/InceptionV3/Mixed_5b/Branch_2/Conv2d_0a_1x1/Relu" type="ReLU">
			<input>
				<port id="0">
					<dim>1</dim>
					<dim>64</dim>
					<dim>35</dim>
					<dim>35</dim>
				</port>
			</input>
			<output>
				<port id="1" precision="FP32">
					<dim>1</dim>
					<dim>64</dim>
					<dim>35</dim>
					<dim>35</dim>
				</port>
			</output>
		</layer>
		<layer id="130" name="2185221856_const" type="Const">
			<output>
				<port id="1" precision="FP32"/>
			</output>
			<blobs>
				<custom offset="3872" precision="FP32" size="4"/>
			</blobs>
		</layer>
		<layer id="131" name="2185321857_const" type="Const">
			<output>
				<port id="1" precision="FP32"/>
			</output>
			<blobs>
				<custom offset="1137604" precision="FP32" size="4"/>
			</blobs>
		</layer>
		<layer id="132" name="2185421858_const" type="Const">
			<output>
				<port id="1" precision="FP32"/>
			</output>
			<blobs>
				<custom offset="3872" precision="FP32" size="4"/>
			</blobs>
		</layer>
		<layer id="133" name="2185521859_const" type="Const">
			<output>
				<port id="1" precision="FP32"/>
			</output>
			<blobs>
				<custom offset="1137604" precision="FP32" size="4"/>
			</blobs>
		</layer>
		<layer id="134" name="InceptionV3/InceptionV3/Mixed_5b/Branch_2/Conv2d_0b_3x3/convolution/fq_input_0" type="FakeQuantize">
			<data levels="256.0"/>
			<input>
				<port id="0">
					<dim>1</dim>
					<dim>64</dim>
					<dim>35</dim>
					<dim>35</dim>
				</port>
				<port id="1"/>
				<port id="2"/>
				<port id="3"/>
				<port id="4"/>
			</input>
			<output>
				<port id="5" precision="FP32">
					<dim>1</dim>
					<dim>64</dim>
					<dim>35</dim>
					<dim>35</dim>
				</port>
			</output>
		</layer>
		<layer id="135" name="InceptionV3/InceptionV3/Mixed_5b/Branch_2/Conv2d_0b_3x3/BatchNorm/batchnorm/mul1208212084_const" type="Const">
			<output>
				<port id="1" precision="FP32">
					<dim>96</dim>
					<dim>64</dim>
					<dim>3</dim>
					<dim>3</dim>
				</port>
			</output>
			<blobs>
				<custom offset="1137608" precision="FP32" size="221184"/>
			</blobs>
		</layer>
		<layer id="136" name="2186221866_const" type="Const">
			<output>
				<port id="1" precision="FP32">
					<dim>96</dim>
				</port>
			</output>
			<blobs>
				<custom offset="1358792" precision="FP32" size="384"/>
			</blobs>
		</layer>
		<layer id="137" name="2186321867_const" type="Const">
			<output>
				<port id="1" precision="FP32">
					<dim>96</dim>
				</port>
			</output>
			<blobs>
				<custom offset="1359176" precision="FP32" size="384"/>
			</blobs>
		</layer>
		<layer id="138" name="2186421868_const" type="Const">
			<output>
				<port id="1" precision="FP32">
					<dim>96</dim>
				</port>
			</output>
			<blobs>
				<custom offset="1358792" precision="FP32" size="384"/>
			</blobs>
		</layer>
		<layer id="139" name="2186521869_const" type="Const">
			<output>
				<port id="1" precision="FP32">
					<dim>96</dim>
				</port>
			</output>
			<blobs>
				<custom offset="1359176" precision="FP32" size="384"/>
			</blobs>
		</layer>
		<layer id="140" name="InceptionV3/InceptionV3/Mixed_5b/Branch_2/Conv2d_0b_3x3/convolution/fq_weights_1" type="FakeQuantize">
			<data levels="256"/>
			<input>
				<port id="0">
					<dim>96</dim>
					<dim>64</dim>
					<dim>3</dim>
					<dim>3</dim>
				</port>
				<port id="1">
					<dim>96</dim>
				</port>
				<port id="2">
					<dim>96</dim>
				</port>
				<port id="3">
					<dim>96</dim>
				</port>
				<port id="4">
					<dim>96</dim>
				</port>
			</input>
			<output>
				<port id="5" precision="FP32">
					<dim>96</dim>
					<dim>64</dim>
					<dim>3</dim>
					<dim>3</dim>
				</port>
			</output>
		</layer>
		<layer id="141" name="bias_data1208512086_const" type="Const">
			<output>
				<port id="1" precision="FP32">
					<dim>96</dim>
				</port>
			</output>
			<blobs>
				<custom offset="1359560" precision="FP32" size="384"/>
			</blobs>
		</layer>
		<layer id="142" name="InceptionV3/InceptionV3/Mixed_5b/Branch_2/Conv2d_0b_3x3/convolution" type="Convolution">
			<data auto_pad="same_upper" dilations="1,1" group="1" kernel="3,3" output="96" pads_begin="1,1" pads_end="1,1" strides="1,1"/>
			<input>
				<port id="0">
					<dim>1</dim>
					<dim>64</dim>
					<dim>35</dim>
					<dim>35</dim>
				</port>
				<port id="1">
					<dim>96</dim>
					<dim>64</dim>
					<dim>3</dim>
					<dim>3</dim>
				</port>
				<port id="2">
					<dim>96</dim>
				</port>
			</input>
			<output>
				<port id="3" precision="FP32">
					<dim>1</dim>
					<dim>96</dim>
					<dim>35</dim>
					<dim>35</dim>
				</port>
			</output>
		</layer>
		<layer id="143" name="InceptionV3/InceptionV3/Mixed_5b/Branch_2/Conv2d_0b_3x3/Relu" type="ReLU">
			<input>
				<port id="0">
					<dim>1</dim>
					<dim>96</dim>
					<dim>35</dim>
					<dim>35</dim>
				</port>
			</input>
			<output>
				<port id="1" precision="FP32">
					<dim>1</dim>
					<dim>96</dim>
					<dim>35</dim>
					<dim>35</dim>
				</port>
			</output>
		</layer>
		<layer id="144" name="2195221956_const" type="Const">
			<output>
				<port id="1" precision="FP32"/>
			</output>
			<blobs>
				<custom offset="3872" precision="FP32" size="4"/>
			</blobs>
		</layer>
		<layer id="145" name="2195321957_const" type="Const">
			<output>
				<port id="1" precision="FP32"/>
			</output>
			<blobs>
				<custom offset="1359944" precision="FP32" size="4"/>
			</blobs>
		</layer>
		<layer id="146" name="2195421958_const" type="Const">
			<output>
				<port id="1" precision="FP32"/>
			</output>
			<blobs>
				<custom offset="3872" precision="FP32" size="4"/>
			</blobs>
		</layer>
		<layer id="147" name="2195521959_const" type="Const">
			<output>
				<port id="1" precision="FP32"/>
			</output>
			<blobs>
				<custom offset="1359944" precision="FP32" size="4"/>
			</blobs>
		</layer>
		<layer id="148" name="InceptionV3/InceptionV3/Mixed_5b/Branch_2/Conv2d_0c_3x3/convolution/fq_input_0" type="FakeQuantize">
			<data levels="256.0"/>
			<input>
				<port id="0">
					<dim>1</dim>
					<dim>96</dim>
					<dim>35</dim>
					<dim>35</dim>
				</port>
				<port id="1"/>
				<port id="2"/>
				<port id="3"/>
				<port id="4"/>
			</input>
			<output>
				<port id="5" precision="FP32">
					<dim>1</dim>
					<dim>96</dim>
					<dim>35</dim>
					<dim>35</dim>
				</port>
			</output>
		</layer>
		<layer id="149" name="InceptionV3/InceptionV3/Mixed_5b/Branch_2/Conv2d_0c_3x3/BatchNorm/batchnorm/mul1208812090_const" type="Const">
			<output>
				<port id="1" precision="FP32">
					<dim>96</dim>
					<dim>96</dim>
					<dim>3</dim>
					<dim>3</dim>
				</port>
			</output>
			<blobs>
				<custom offset="1359948" precision="FP32" size="331776"/>
			</blobs>
		</layer>
		<layer id="150" name="2196221966_const" type="Const">
			<output>
				<port id="1" precision="FP32">
					<dim>96</dim>
				</port>
			</output>
			<blobs>
				<custom offset="1691724" precision="FP32" size="384"/>
			</blobs>
		</layer>
		<layer id="151" name="2196321967_const" type="Const">
			<output>
				<port id="1" precision="FP32">
					<dim>96</dim>
				</port>
			</output>
			<blobs>
				<custom offset="1692108" precision="FP32" size="384"/>
			</blobs>
		</layer>
		<layer id="152" name="2196421968_const" type="Const">
			<output>
				<port id="1" precision="FP32">
					<dim>96</dim>
				</port>
			</output>
			<blobs>
				<custom offset="1691724" precision="FP32" size="384"/>
			</blobs>
		</layer>
		<layer id="153" name="2196521969_const" type="Const">
			<output>
				<port id="1" precision="FP32">
					<dim>96</dim>
				</port>
			</output>
			<blobs>
				<custom offset="1692108" precision="FP32" size="384"/>
			</blobs>
		</layer>
		<layer id="154" name="InceptionV3/InceptionV3/Mixed_5b/Branch_2/Conv2d_0c_3x3/convolution/fq_weights_1" type="FakeQuantize">
			<data levels="256"/>
			<input>
				<port id="0">
					<dim>96</dim>
					<dim>96</dim>
					<dim>3</dim>
					<dim>3</dim>
				</port>
				<port id="1">
					<dim>96</dim>
				</port>
				<port id="2">
					<dim>96</dim>
				</port>
				<port id="3">
					<dim>96</dim>
				</port>
				<port id="4">
					<dim>96</dim>
				</port>
			</input>
			<output>
				<port id="5" precision="FP32">
					<dim>96</dim>
					<dim>96</dim>
					<dim>3</dim>
					<dim>3</dim>
				</port>
			</output>
		</layer>
		<layer id="155" name="bias_data1209112092_const" type="Const">
			<output>
				<port id="1" precision="FP32">
					<dim>96</dim>
				</port>
			</output>
			<blobs>
				<custom offset="1692492" precision="FP32" size="384"/>
			</blobs>
		</layer>
		<layer id="156" name="InceptionV3/InceptionV3/Mixed_5b/Branch_2/Conv2d_0c_3x3/convolution" type="Convolution">
			<data auto_pad="same_upper" dilations="1,1" group="1" kernel="3,3" output="96" pads_begin="1,1" pads_end="1,1" strides="1,1"/>
			<input>
				<port id="0">
					<dim>1</dim>
					<dim>96</dim>
					<dim>35</dim>
					<dim>35</dim>
				</port>
				<port id="1">
					<dim>96</dim>
					<dim>96</dim>
					<dim>3</dim>
					<dim>3</dim>
				</port>
				<port id="2">
					<dim>96</dim>
				</port>
			</input>
			<output>
				<port id="3" precision="FP32">
					<dim>1</dim>
					<dim>96</dim>
					<dim>35</dim>
					<dim>35</dim>
				</port>
			</output>
		</layer>
		<layer id="157" name="InceptionV3/InceptionV3/Mixed_5b/Branch_2/Conv2d_0c_3x3/Relu" type="ReLU">
			<input>
				<port id="0">
					<dim>1</dim>
					<dim>96</dim>
					<dim>35</dim>
					<dim>35</dim>
				</port>
			</input>
			<output>
				<port id="1" precision="FP32">
					<dim>1</dim>
					<dim>96</dim>
					<dim>35</dim>
					<dim>35</dim>
				</port>
			</output>
		</layer>
		<layer id="158" name="2405024054_const" type="Const">
			<output>
				<port id="1" precision="FP32"/>
			</output>
			<blobs>
				<custom offset="3872" precision="FP32" size="4"/>
			</blobs>
		</layer>
		<layer id="159" name="2405124055_const" type="Const">
			<output>
				<port id="1" precision="FP32"/>
			</output>
			<blobs>
				<custom offset="1692876" precision="FP32" size="4"/>
			</blobs>
		</layer>
		<layer id="160" name="2405224056_const" type="Const">
			<output>
				<port id="1" precision="FP32"/>
			</output>
			<blobs>
				<custom offset="3872" precision="FP32" size="4"/>
			</blobs>
		</layer>
		<layer id="161" name="2405324057_const" type="Const">
			<output>
				<port id="1" precision="FP32"/>
			</output>
			<blobs>
				<custom offset="1692876" precision="FP32" size="4"/>
			</blobs>
		</layer>
		<layer id="162" name="InceptionV3/InceptionV3/Mixed_5b/concat_v2/fq_input_2" type="FakeQuantize">
			<data levels="256.0"/>
			<input>
				<port id="0">
					<dim>1</dim>
					<dim>96</dim>
					<dim>35</dim>
					<dim>35</dim>
				</port>
				<port id="1"/>
				<port id="2"/>
				<port id="3"/>
				<port id="4"/>
			</input>
			<output>
				<port id="5" precision="FP32">
					<dim>1</dim>
					<dim>96</dim>
					<dim>35</dim>
					<dim>35</dim>
				</port>
			</output>
		</layer>
		<layer id="163" name="InceptionV3/InceptionV3/Mixed_5b/Branch_3/AvgPool_0a_3x3/AvgPool" type="Pooling">
			<data auto_pad="same_upper" exclude-pad="true" kernel="3,3" pads_begin="1,1" pads_end="1,1" pool-method="avg" strides="1,1"/>
			<input>
				<port id="0">
					<dim>1</dim>
					<dim>192</dim>
					<dim>35</dim>
					<dim>35</dim>
				</port>
			</input>
			<output>
				<port id="1" precision="FP32">
					<dim>1</dim>
					<dim>192</dim>
					<dim>35</dim>
					<dim>35</dim>
				</port>
			</output>
		</layer>
		<layer id="164" name="2225222256_const" type="Const">
			<output>
				<port id="1" precision="FP32"/>
			</output>
			<blobs>
				<custom offset="3872" precision="FP32" size="4"/>
			</blobs>
		</layer>
		<layer id="165" name="2225322257_const" type="Const">
			<output>
				<port id="1" precision="FP32"/>
			</output>
			<blobs>
				<custom offset="1692880" precision="FP32" size="4"/>
			</blobs>
		</layer>
		<layer id="166" name="2225422258_const" type="Const">
			<output>
				<port id="1" precision="FP32"/>
			</output>
			<blobs>
				<custom offset="3872" precision="FP32" size="4"/>
			</blobs>
		</layer>
		<layer id="167" name="2225522259_const" type="Const">
			<output>
				<port id="1" precision="FP32"/>
			</output>
			<blobs>
				<custom offset="1692880" precision="FP32" size="4"/>
			</blobs>
		</layer>
		<layer id="168" name="InceptionV3/InceptionV3/Mixed_5b/Branch_3/Conv2d_0b_1x1/convolution/fq_input_0" type="FakeQuantize">
			<data levels="256.0"/>
			<input>
				<port id="0">
					<dim>1</dim>
					<dim>192</dim>
					<dim>35</dim>
					<dim>35</dim>
				</port>
				<port id="1"/>
				<port id="2"/>
				<port id="3"/>
				<port id="4"/>
			</input>
			<output>
				<port id="5" precision="FP32">
					<dim>1</dim>
					<dim>192</dim>
					<dim>35</dim>
					<dim>35</dim>
				</port>
			</output>
		</layer>
		<layer id="169" name="InceptionV3/InceptionV3/Mixed_5b/Branch_3/Conv2d_0b_1x1/BatchNorm/batchnorm/mul1209412096_const" type="Const">
			<output>
				<port id="1" precision="FP32">
					<dim>32</dim>
					<dim>192</dim>
					<dim>1</dim>
					<dim>1</dim>
				</port>
			</output>
			<blobs>
				<custom offset="1692884" precision="FP32" size="24576"/>
			</blobs>
		</layer>
		<layer id="170" name="2226222266_const" type="Const">
			<output>
				<port id="1" precision="FP32">
					<dim>32</dim>
				</port>
			</output>
			<blobs>
				<custom offset="1717460" precision="FP32" size="128"/>
			</blobs>
		</layer>
		<layer id="171" name="2226322267_const" type="Const">
			<output>
				<port id="1" precision="FP32">
					<dim>32</dim>
				</port>
			</output>
			<blobs>
				<custom offset="1717588" precision="FP32" size="128"/>
			</blobs>
		</layer>
		<layer id="172" name="2226422268_const" type="Const">
			<output>
				<port id="1" precision="FP32">
					<dim>32</dim>
				</port>
			</output>
			<blobs>
				<custom offset="1717460" precision="FP32" size="128"/>
			</blobs>
		</layer>
		<layer id="173" name="2226522269_const" type="Const">
			<output>
				<port id="1" precision="FP32">
					<dim>32</dim>
				</port>
			</output>
			<blobs>
				<custom offset="1717588" precision="FP32" size="128"/>
			</blobs>
		</layer>
		<layer id="174" name="InceptionV3/InceptionV3/Mixed_5b/Branch_3/Conv2d_0b_1x1/convolution/fq_weights_1" type="FakeQuantize">
			<data levels="256"/>
			<input>
				<port id="0">
					<dim>32</dim>
					<dim>192</dim>
					<dim>1</dim>
					<dim>1</dim>
				</port>
				<port id="1">
					<dim>32</dim>
				</port>
				<port id="2">
					<dim>32</dim>
				</port>
				<port id="3">
					<dim>32</dim>
				</port>
				<port id="4">
					<dim>32</dim>
				</port>
			</input>
			<output>
				<port id="5" precision="FP32">
					<dim>32</dim>
					<dim>192</dim>
					<dim>1</dim>
					<dim>1</dim>
				</port>
			</output>
		</layer>
		<layer id="175" name="bias_data1209712098_const" type="Const">
			<output>
				<port id="1" precision="FP32">
					<dim>32</dim>
				</port>
			</output>
			<blobs>
				<custom offset="1717716" precision="FP32" size="128"/>
			</blobs>
		</layer>
		<layer id="176" name="InceptionV3/InceptionV3/Mixed_5b/Branch_3/Conv2d_0b_1x1/convolution" type="Convolution">
			<data auto_pad="same_upper" dilations="1,1" group="1" kernel="1,1" output="32" pads_begin="0,0" pads_end="0,0" strides="1,1"/>
			<input>
				<port id="0">
					<dim>1</dim>
					<dim>192</dim>
					<dim>35</dim>
					<dim>35</dim>
				</port>
				<port id="1">
					<dim>32</dim>
					<dim>192</dim>
					<dim>1</dim>
					<dim>1</dim>
				</port>
				<port id="2">
					<dim>32</dim>
				</port>
			</input>
			<output>
				<port id="3" precision="FP32">
					<dim>1</dim>
					<dim>32</dim>
					<dim>35</dim>
					<dim>35</dim>
				</port>
			</output>
		</layer>
		<layer id="177" name="InceptionV3/InceptionV3/Mixed_5b/Branch_3/Conv2d_0b_1x1/Relu" type="ReLU">
			<input>
				<port id="0">
					<dim>1</dim>
					<dim>32</dim>
					<dim>35</dim>
					<dim>35</dim>
				</port>
			</input>
			<output>
				<port id="1" precision="FP32">
					<dim>1</dim>
					<dim>32</dim>
					<dim>35</dim>
					<dim>35</dim>
				</port>
			</output>
		</layer>
		<layer id="178" name="2406024064_const" type="Const">
			<output>
				<port id="1" precision="FP32"/>
			</output>
			<blobs>
				<custom offset="3872" precision="FP32" size="4"/>
			</blobs>
		</layer>
		<layer id="179" name="2406124065_const" type="Const">
			<output>
				<port id="1" precision="FP32"/>
			</output>
			<blobs>
				<custom offset="1717844" precision="FP32" size="4"/>
			</blobs>
		</layer>
		<layer id="180" name="2406224066_const" type="Const">
			<output>
				<port id="1" precision="FP32"/>
			</output>
			<blobs>
				<custom offset="3872" precision="FP32" size="4"/>
			</blobs>
		</layer>
		<layer id="181" name="2406324067_const" type="Const">
			<output>
				<port id="1" precision="FP32"/>
			</output>
			<blobs>
				<custom offset="1717844" precision="FP32" size="4"/>
			</blobs>
		</layer>
		<layer id="182" name="InceptionV3/InceptionV3/Mixed_5b/concat_v2/fq_input_3" type="FakeQuantize">
			<data levels="256.0"/>
			<input>
				<port id="0">
					<dim>1</dim>
					<dim>32</dim>
					<dim>35</dim>
					<dim>35</dim>
				</port>
				<port id="1"/>
				<port id="2"/>
				<port id="3"/>
				<port id="4"/>
			</input>
			<output>
				<port id="5" precision="FP32">
					<dim>1</dim>
					<dim>32</dim>
					<dim>35</dim>
					<dim>35</dim>
				</port>
			</output>
		</layer>
		<layer id="183" name="InceptionV3/InceptionV3/Mixed_5b/concat_v2" type="Concat">
			<data axis="1"/>
			<input>
				<port id="0">
					<dim>1</dim>
					<dim>64</dim>
					<dim>35</dim>
					<dim>35</dim>
				</port>
				<port id="1">
					<dim>1</dim>
					<dim>64</dim>
					<dim>35</dim>
					<dim>35</dim>
				</port>
				<port id="2">
					<dim>1</dim>
					<dim>96</dim>
					<dim>35</dim>
					<dim>35</dim>
				</port>
				<port id="3">
					<dim>1</dim>
					<dim>32</dim>
					<dim>35</dim>
					<dim>35</dim>
				</port>
			</input>
			<output>
				<port id="4" precision="FP32">
					<dim>1</dim>
					<dim>256</dim>
					<dim>35</dim>
					<dim>35</dim>
				</port>
			</output>
		</layer>
		<layer id="184" name="InceptionV3/InceptionV3/Mixed_5c/Branch_0/Conv2d_0a_1x1/BatchNorm/batchnorm/mul1211612118_const" type="Const">
			<output>
				<port id="1" precision="FP32">
					<dim>64</dim>
					<dim>256</dim>
					<dim>1</dim>
					<dim>1</dim>
				</port>
			</output>
			<blobs>
				<custom offset="1717848" precision="FP32" size="65536"/>
			</blobs>
		</layer>
		<layer id="185" name="2134221346_const" type="Const">
			<output>
				<port id="1" precision="FP32">
					<dim>64</dim>
				</port>
			</output>
			<blobs>
				<custom offset="1783384" precision="FP32" size="256"/>
			</blobs>
		</layer>
		<layer id="186" name="2134321347_const" type="Const">
			<output>
				<port id="1" precision="FP32">
					<dim>64</dim>
				</port>
			</output>
			<blobs>
				<custom offset="1783640" precision="FP32" size="256"/>
			</blobs>
		</layer>
		<layer id="187" name="2134421348_const" type="Const">
			<output>
				<port id="1" precision="FP32">
					<dim>64</dim>
				</port>
			</output>
			<blobs>
				<custom offset="1783384" precision="FP32" size="256"/>
			</blobs>
		</layer>
		<layer id="188" name="2134521349_const" type="Const">
			<output>
				<port id="1" precision="FP32">
					<dim>64</dim>
				</port>
			</output>
			<blobs>
				<custom offset="1783640" precision="FP32" size="256"/>
			</blobs>
		</layer>
		<layer id="189" name="InceptionV3/InceptionV3/Mixed_5c/Branch_0/Conv2d_0a_1x1/convolution/fq_weights_1" type="FakeQuantize">
			<data levels="256"/>
			<input>
				<port id="0">
					<dim>64</dim>
					<dim>256</dim>
					<dim>1</dim>
					<dim>1</dim>
				</port>
				<port id="1">
					<dim>64</dim>
				</port>
				<port id="2">
					<dim>64</dim>
				</port>
				<port id="3">
					<dim>64</dim>
				</port>
				<port id="4">
					<dim>64</dim>
				</port>
			</input>
			<output>
				<port id="5" precision="FP32">
					<dim>64</dim>
					<dim>256</dim>
					<dim>1</dim>
					<dim>1</dim>
				</port>
			</output>
		</layer>
		<layer id="190" name="bias_data1211912120_const" type="Const">
			<output>
				<port id="1" precision="FP32">
					<dim>64</dim>
				</port>
			</output>
			<blobs>
				<custom offset="1783896" precision="FP32" size="256"/>
			</blobs>
		</layer>
		<layer id="191" name="InceptionV3/InceptionV3/Mixed_5c/Branch_0/Conv2d_0a_1x1/convolution" type="Convolution">
			<data auto_pad="same_upper" dilations="1,1" group="1" kernel="1,1" output="64" pads_begin="0,0" pads_end="0,0" strides="1,1"/>
			<input>
				<port id="0">
					<dim>1</dim>
					<dim>256</dim>
					<dim>35</dim>
					<dim>35</dim>
				</port>
				<port id="1">
					<dim>64</dim>
					<dim>256</dim>
					<dim>1</dim>
					<dim>1</dim>
				</port>
				<port id="2">
					<dim>64</dim>
				</port>
			</input>
			<output>
				<port id="3" precision="FP32">
					<dim>1</dim>
					<dim>64</dim>
					<dim>35</dim>
					<dim>35</dim>
				</port>
			</output>
		</layer>
		<layer id="192" name="InceptionV3/InceptionV3/Mixed_5c/Branch_0/Conv2d_0a_1x1/Relu" type="ReLU">
			<input>
				<port id="0">
					<dim>1</dim>
					<dim>64</dim>
					<dim>35</dim>
					<dim>35</dim>
				</port>
			</input>
			<output>
				<port id="1" precision="FP32">
					<dim>1</dim>
					<dim>64</dim>
					<dim>35</dim>
					<dim>35</dim>
				</port>
			</output>
		</layer>
		<layer id="193" name="2419024194_const" type="Const">
			<output>
				<port id="1" precision="FP32"/>
			</output>
			<blobs>
				<custom offset="3872" precision="FP32" size="4"/>
			</blobs>
		</layer>
		<layer id="194" name="2419124195_const" type="Const">
			<output>
				<port id="1" precision="FP32"/>
			</output>
			<blobs>
				<custom offset="1784152" precision="FP32" size="4"/>
			</blobs>
		</layer>
		<layer id="195" name="2419224196_const" type="Const">
			<output>
				<port id="1" precision="FP32"/>
			</output>
			<blobs>
				<custom offset="3872" precision="FP32" size="4"/>
			</blobs>
		</layer>
		<layer id="196" name="2419324197_const" type="Const">
			<output>
				<port id="1" precision="FP32"/>
			</output>
			<blobs>
				<custom offset="1784152" precision="FP32" size="4"/>
			</blobs>
		</layer>
		<layer id="197" name="InceptionV3/InceptionV3/Mixed_5c/concat_v2/fq_input_0" type="FakeQuantize">
			<data levels="256.0"/>
			<input>
				<port id="0">
					<dim>1</dim>
					<dim>64</dim>
					<dim>35</dim>
					<dim>35</dim>
				</port>
				<port id="1"/>
				<port id="2"/>
				<port id="3"/>
				<port id="4"/>
			</input>
			<output>
				<port id="5" precision="FP32">
					<dim>1</dim>
					<dim>64</dim>
					<dim>35</dim>
					<dim>35</dim>
				</port>
			</output>
		</layer>
		<layer id="198" name="InceptionV3/InceptionV3/Mixed_5c/Branch_1/Conv2d_0b_1x1/BatchNorm/batchnorm/mul1211212114_const" type="Const">
			<output>
				<port id="1" precision="FP32">
					<dim>48</dim>
					<dim>256</dim>
					<dim>1</dim>
					<dim>1</dim>
				</port>
			</output>
			<blobs>
				<custom offset="1784156" precision="FP32" size="49152"/>
			</blobs>
		</layer>
		<layer id="199" name="2206222066_const" type="Const">
			<output>
				<port id="1" precision="FP32">
					<dim>48</dim>
				</port>
			</output>
			<blobs>
				<custom offset="1833308" precision="FP32" size="192"/>
			</blobs>
		</layer>
		<layer id="200" name="2206322067_const" type="Const">
			<output>
				<port id="1" precision="FP32">
					<dim>48</dim>
				</port>
			</output>
			<blobs>
				<custom offset="1833500" precision="FP32" size="192"/>
			</blobs>
		</layer>
		<layer id="201" name="2206422068_const" type="Const">
			<output>
				<port id="1" precision="FP32">
					<dim>48</dim>
				</port>
			</output>
			<blobs>
				<custom offset="1833308" precision="FP32" size="192"/>
			</blobs>
		</layer>
		<layer id="202" name="2206522069_const" type="Const">
			<output>
				<port id="1" precision="FP32">
					<dim>48</dim>
				</port>
			</output>
			<blobs>
				<custom offset="1833500" precision="FP32" size="192"/>
			</blobs>
		</layer>
		<layer id="203" name="InceptionV3/InceptionV3/Mixed_5c/Branch_1/Conv2d_0b_1x1/convolution/fq_weights_1" type="FakeQuantize">
			<data levels="256"/>
			<input>
				<port id="0">
					<dim>48</dim>
					<dim>256</dim>
					<dim>1</dim>
					<dim>1</dim>
				</port>
				<port id="1">
					<dim>48</dim>
				</port>
				<port id="2">
					<dim>48</dim>
				</port>
				<port id="3">
					<dim>48</dim>
				</port>
				<port id="4">
					<dim>48</dim>
				</port>
			</input>
			<output>
				<port id="5" precision="FP32">
					<dim>48</dim>
					<dim>256</dim>
					<dim>1</dim>
					<dim>1</dim>
				</port>
			</output>
		</layer>
		<layer id="204" name="bias_data1212712128_const" type="Const">
			<output>
				<port id="1" precision="FP32">
					<dim>48</dim>
				</port>
			</output>
			<blobs>
				<custom offset="1833692" precision="FP32" size="192"/>
			</blobs>
		</layer>
		<layer id="205" name="InceptionV3/InceptionV3/Mixed_5c/Branch_1/Conv2d_0b_1x1/convolution" type="Convolution">
			<data auto_pad="same_upper" dilations="1,1" group="1" kernel="1,1" output="48" pads_begin="0,0" pads_end="0,0" strides="1,1"/>
			<input>
				<port id="0">
					<dim>1</dim>
					<dim>256</dim>
					<dim>35</dim>
					<dim>35</dim>
				</port>
				<port id="1">
					<dim>48</dim>
					<dim>256</dim>
					<dim>1</dim>
					<dim>1</dim>
				</port>
				<port id="2">
					<dim>48</dim>
				</port>
			</input>
			<output>
				<port id="3" precision="FP32">
					<dim>1</dim>
					<dim>48</dim>
					<dim>35</dim>
					<dim>35</dim>
				</port>
			</output>
		</layer>
		<layer id="206" name="InceptionV3/InceptionV3/Mixed_5c/Branch_1/Conv2d_0b_1x1/Relu" type="ReLU">
			<input>
				<port id="0">
					<dim>1</dim>
					<dim>48</dim>
					<dim>35</dim>
					<dim>35</dim>
				</port>
			</input>
			<output>
				<port id="1" precision="FP32">
					<dim>1</dim>
					<dim>48</dim>
					<dim>35</dim>
					<dim>35</dim>
				</port>
			</output>
		</layer>
		<layer id="207" name="2215222156_const" type="Const">
			<output>
				<port id="1" precision="FP32"/>
			</output>
			<blobs>
				<custom offset="3872" precision="FP32" size="4"/>
			</blobs>
		</layer>
		<layer id="208" name="2215322157_const" type="Const">
			<output>
				<port id="1" precision="FP32"/>
			</output>
			<blobs>
				<custom offset="1833884" precision="FP32" size="4"/>
			</blobs>
		</layer>
		<layer id="209" name="2215422158_const" type="Const">
			<output>
				<port id="1" precision="FP32"/>
			</output>
			<blobs>
				<custom offset="3872" precision="FP32" size="4"/>
			</blobs>
		</layer>
		<layer id="210" name="2215522159_const" type="Const">
			<output>
				<port id="1" precision="FP32"/>
			</output>
			<blobs>
				<custom offset="1833884" precision="FP32" size="4"/>
			</blobs>
		</layer>
		<layer id="211" name="InceptionV3/InceptionV3/Mixed_5c/Branch_1/Conv_1_0c_5x5/convolution/fq_input_0" type="FakeQuantize">
			<data levels="256.0"/>
			<input>
				<port id="0">
					<dim>1</dim>
					<dim>48</dim>
					<dim>35</dim>
					<dim>35</dim>
				</port>
				<port id="1"/>
				<port id="2"/>
				<port id="3"/>
				<port id="4"/>
			</input>
			<output>
				<port id="5" precision="FP32">
					<dim>1</dim>
					<dim>48</dim>
					<dim>35</dim>
					<dim>35</dim>
				</port>
			</output>
		</layer>
		<layer id="212" name="InceptionV3/InceptionV3/Mixed_5c/Branch_1/Conv_1_0c_5x5/BatchNorm/batchnorm/mul1213012132_const" type="Const">
			<output>
				<port id="1" precision="FP32">
					<dim>64</dim>
					<dim>48</dim>
					<dim>5</dim>
					<dim>5</dim>
				</port>
			</output>
			<blobs>
				<custom offset="1833888" precision="FP32" size="307200"/>
			</blobs>
		</layer>
		<layer id="213" name="2216222166_const" type="Const">
			<output>
				<port id="1" precision="FP32">
					<dim>64</dim>
				</port>
			</output>
			<blobs>
				<custom offset="2141088" precision="FP32" size="256"/>
			</blobs>
		</layer>
		<layer id="214" name="2216322167_const" type="Const">
			<output>
				<port id="1" precision="FP32">
					<dim>64</dim>
				</port>
			</output>
			<blobs>
				<custom offset="2141344" precision="FP32" size="256"/>
			</blobs>
		</layer>
		<layer id="215" name="2216422168_const" type="Const">
			<output>
				<port id="1" precision="FP32">
					<dim>64</dim>
				</port>
			</output>
			<blobs>
				<custom offset="2141088" precision="FP32" size="256"/>
			</blobs>
		</layer>
		<layer id="216" name="2216522169_const" type="Const">
			<output>
				<port id="1" precision="FP32">
					<dim>64</dim>
				</port>
			</output>
			<blobs>
				<custom offset="2141344" precision="FP32" size="256"/>
			</blobs>
		</layer>
		<layer id="217" name="InceptionV3/InceptionV3/Mixed_5c/Branch_1/Conv_1_0c_5x5/convolution/fq_weights_1" type="FakeQuantize">
			<data levels="256"/>
			<input>
				<port id="0">
					<dim>64</dim>
					<dim>48</dim>
					<dim>5</dim>
					<dim>5</dim>
				</port>
				<port id="1">
					<dim>64</dim>
				</port>
				<port id="2">
					<dim>64</dim>
				</port>
				<port id="3">
					<dim>64</dim>
				</port>
				<port id="4">
					<dim>64</dim>
				</port>
			</input>
			<output>
				<port id="5" precision="FP32">
					<dim>64</dim>
					<dim>48</dim>
					<dim>5</dim>
					<dim>5</dim>
				</port>
			</output>
		</layer>
		<layer id="218" name="bias_data1213312134_const" type="Const">
			<output>
				<port id="1" precision="FP32">
					<dim>64</dim>
				</port>
			</output>
			<blobs>
				<custom offset="2141600" precision="FP32" size="256"/>
			</blobs>
		</layer>
		<layer id="219" name="InceptionV3/InceptionV3/Mixed_5c/Branch_1/Conv_1_0c_5x5/convolution" type="Convolution">
			<data auto_pad="same_upper" dilations="1,1" group="1" kernel="5,5" output="64" pads_begin="2,2" pads_end="2,2" strides="1,1"/>
			<input>
				<port id="0">
					<dim>1</dim>
					<dim>48</dim>
					<dim>35</dim>
					<dim>35</dim>
				</port>
				<port id="1">
					<dim>64</dim>
					<dim>48</dim>
					<dim>5</dim>
					<dim>5</dim>
				</port>
				<port id="2">
					<dim>64</dim>
				</port>
			</input>
			<output>
				<port id="3" precision="FP32">
					<dim>1</dim>
					<dim>64</dim>
					<dim>35</dim>
					<dim>35</dim>
				</port>
			</output>
		</layer>
		<layer id="220" name="InceptionV3/InceptionV3/Mixed_5c/Branch_1/Conv_1_0c_5x5/Relu" type="ReLU">
			<input>
				<port id="0">
					<dim>1</dim>
					<dim>64</dim>
					<dim>35</dim>
					<dim>35</dim>
				</port>
			</input>
			<output>
				<port id="1" precision="FP32">
					<dim>1</dim>
					<dim>64</dim>
					<dim>35</dim>
					<dim>35</dim>
				</port>
			</output>
		</layer>
		<layer id="221" name="2420024204_const" type="Const">
			<output>
				<port id="1" precision="FP32"/>
			</output>
			<blobs>
				<custom offset="3872" precision="FP32" size="4"/>
			</blobs>
		</layer>
		<layer id="222" name="2420124205_const" type="Const">
			<output>
				<port id="1" precision="FP32"/>
			</output>
			<blobs>
				<custom offset="2141856" precision="FP32" size="4"/>
			</blobs>
		</layer>
		<layer id="223" name="2420224206_const" type="Const">
			<output>
				<port id="1" precision="FP32"/>
			</output>
			<blobs>
				<custom offset="3872" precision="FP32" size="4"/>
			</blobs>
		</layer>
		<layer id="224" name="2420324207_const" type="Const">
			<output>
				<port id="1" precision="FP32"/>
			</output>
			<blobs>
				<custom offset="2141856" precision="FP32" size="4"/>
			</blobs>
		</layer>
		<layer id="225" name="InceptionV3/InceptionV3/Mixed_5c/concat_v2/fq_input_1" type="FakeQuantize">
			<data levels="256.0"/>
			<input>
				<port id="0">
					<dim>1</dim>
					<dim>64</dim>
					<dim>35</dim>
					<dim>35</dim>
				</port>
				<port id="1"/>
				<port id="2"/>
				<port id="3"/>
				<port id="4"/>
			</input>
			<output>
				<port id="5" precision="FP32">
					<dim>1</dim>
					<dim>64</dim>
					<dim>35</dim>
					<dim>35</dim>
				</port>
			</output>
		</layer>
		<layer id="226" name="InceptionV3/InceptionV3/Mixed_5c/Branch_2/Conv2d_0a_1x1/BatchNorm/batchnorm/mul1213612138_const" type="Const">
			<output>
				<port id="1" precision="FP32">
					<dim>64</dim>
					<dim>256</dim>
					<dim>1</dim>
					<dim>1</dim>
				</port>
			</output>
			<blobs>
				<custom offset="2141860" precision="FP32" size="65536"/>
			</blobs>
		</layer>
		<layer id="227" name="2236222366_const" type="Const">
			<output>
				<port id="1" precision="FP32">
					<dim>64</dim>
				</port>
			</output>
			<blobs>
				<custom offset="2207396" precision="FP32" size="256"/>
			</blobs>
		</layer>
		<layer id="228" name="2236322367_const" type="Const">
			<output>
				<port id="1" precision="FP32">
					<dim>64</dim>
				</port>
			</output>
			<blobs>
				<custom offset="2207652" precision="FP32" size="256"/>
			</blobs>
		</layer>
		<layer id="229" name="2236422368_const" type="Const">
			<output>
				<port id="1" precision="FP32">
					<dim>64</dim>
				</port>
			</output>
			<blobs>
				<custom offset="2207396" precision="FP32" size="256"/>
			</blobs>
		</layer>
		<layer id="230" name="2236522369_const" type="Const">
			<output>
				<port id="1" precision="FP32">
					<dim>64</dim>
				</port>
			</output>
			<blobs>
				<custom offset="2207652" precision="FP32" size="256"/>
			</blobs>
		</layer>
		<layer id="231" name="InceptionV3/InceptionV3/Mixed_5c/Branch_2/Conv2d_0a_1x1/convolution/fq_weights_1" type="FakeQuantize">
			<data levels="256"/>
			<input>
				<port id="0">
					<dim>64</dim>
					<dim>256</dim>
					<dim>1</dim>
					<dim>1</dim>
				</port>
				<port id="1">
					<dim>64</dim>
				</port>
				<port id="2">
					<dim>64</dim>
				</port>
				<port id="3">
					<dim>64</dim>
				</port>
				<port id="4">
					<dim>64</dim>
				</port>
			</input>
			<output>
				<port id="5" precision="FP32">
					<dim>64</dim>
					<dim>256</dim>
					<dim>1</dim>
					<dim>1</dim>
				</port>
			</output>
		</layer>
		<layer id="232" name="bias_data1213912140_const" type="Const">
			<output>
				<port id="1" precision="FP32">
					<dim>64</dim>
				</port>
			</output>
			<blobs>
				<custom offset="2207908" precision="FP32" size="256"/>
			</blobs>
		</layer>
		<layer id="233" name="InceptionV3/InceptionV3/Mixed_5c/Branch_2/Conv2d_0a_1x1/convolution" type="Convolution">
			<data auto_pad="same_upper" dilations="1,1" group="1" kernel="1,1" output="64" pads_begin="0,0" pads_end="0,0" strides="1,1"/>
			<input>
				<port id="0">
					<dim>1</dim>
					<dim>256</dim>
					<dim>35</dim>
					<dim>35</dim>
				</port>
				<port id="1">
					<dim>64</dim>
					<dim>256</dim>
					<dim>1</dim>
					<dim>1</dim>
				</port>
				<port id="2">
					<dim>64</dim>
				</port>
			</input>
			<output>
				<port id="3" precision="FP32">
					<dim>1</dim>
					<dim>64</dim>
					<dim>35</dim>
					<dim>35</dim>
				</port>
			</output>
		</layer>
		<layer id="234" name="InceptionV3/InceptionV3/Mixed_5c/Branch_2/Conv2d_0a_1x1/Relu" type="ReLU">
			<input>
				<port id="0">
					<dim>1</dim>
					<dim>64</dim>
					<dim>35</dim>
					<dim>35</dim>
				</port>
			</input>
			<output>
				<port id="1" precision="FP32">
					<dim>1</dim>
					<dim>64</dim>
					<dim>35</dim>
					<dim>35</dim>
				</port>
			</output>
		</layer>
		<layer id="235" name="2241222416_const" type="Const">
			<output>
				<port id="1" precision="FP32"/>
			</output>
			<blobs>
				<custom offset="3872" precision="FP32" size="4"/>
			</blobs>
		</layer>
		<layer id="236" name="2241322417_const" type="Const">
			<output>
				<port id="1" precision="FP32"/>
			</output>
			<blobs>
				<custom offset="2208164" precision="FP32" size="4"/>
			</blobs>
		</layer>
		<layer id="237" name="2241422418_const" type="Const">
			<output>
				<port id="1" precision="FP32"/>
			</output>
			<blobs>
				<custom offset="3872" precision="FP32" size="4"/>
			</blobs>
		</layer>
		<layer id="238" name="2241522419_const" type="Const">
			<output>
				<port id="1" precision="FP32"/>
			</output>
			<blobs>
				<custom offset="2208164" precision="FP32" size="4"/>
			</blobs>
		</layer>
		<layer id="239" name="InceptionV3/InceptionV3/Mixed_5c/Branch_2/Conv2d_0b_3x3/convolution/fq_input_0" type="FakeQuantize">
			<data levels="256.0"/>
			<input>
				<port id="0">
					<dim>1</dim>
					<dim>64</dim>
					<dim>35</dim>
					<dim>35</dim>
				</port>
				<port id="1"/>
				<port id="2"/>
				<port id="3"/>
				<port id="4"/>
			</input>
			<output>
				<port id="5" precision="FP32">
					<dim>1</dim>
					<dim>64</dim>
					<dim>35</dim>
					<dim>35</dim>
				</port>
			</output>
		</layer>
		<layer id="240" name="InceptionV3/InceptionV3/Mixed_5c/Branch_2/Conv2d_0b_3x3/BatchNorm/batchnorm/mul1214212144_const" type="Const">
			<output>
				<port id="1" precision="FP32">
					<dim>96</dim>
					<dim>64</dim>
					<dim>3</dim>
					<dim>3</dim>
				</port>
			</output>
			<blobs>
				<custom offset="2208168" precision="FP32" size="221184"/>
			</blobs>
		</layer>
		<layer id="241" name="2242222426_const" type="Const">
			<output>
				<port id="1" precision="FP32">
					<dim>96</dim>
				</port>
			</output>
			<blobs>
				<custom offset="2429352" precision="FP32" size="384"/>
			</blobs>
		</layer>
		<layer id="242" name="2242322427_const" type="Const">
			<output>
				<port id="1" precision="FP32">
					<dim>96</dim>
				</port>
			</output>
			<blobs>
				<custom offset="2429736" precision="FP32" size="384"/>
			</blobs>
		</layer>
		<layer id="243" name="2242422428_const" type="Const">
			<output>
				<port id="1" precision="FP32">
					<dim>96</dim>
				</port>
			</output>
			<blobs>
				<custom offset="2429352" precision="FP32" size="384"/>
			</blobs>
		</layer>
		<layer id="244" name="2242522429_const" type="Const">
			<output>
				<port id="1" precision="FP32">
					<dim>96</dim>
				</port>
			</output>
			<blobs>
				<custom offset="2429736" precision="FP32" size="384"/>
			</blobs>
		</layer>
		<layer id="245" name="InceptionV3/InceptionV3/Mixed_5c/Branch_2/Conv2d_0b_3x3/convolution/fq_weights_1" type="FakeQuantize">
			<data levels="256"/>
			<input>
				<port id="0">
					<dim>96</dim>
					<dim>64</dim>
					<dim>3</dim>
					<dim>3</dim>
				</port>
				<port id="1">
					<dim>96</dim>
				</port>
				<port id="2">
					<dim>96</dim>
				</port>
				<port id="3">
					<dim>96</dim>
				</port>
				<port id="4">
					<dim>96</dim>
				</port>
			</input>
			<output>
				<port id="5" precision="FP32">
					<dim>96</dim>
					<dim>64</dim>
					<dim>3</dim>
					<dim>3</dim>
				</port>
			</output>
		</layer>
		<layer id="246" name="bias_data1214512146_const" type="Const">
			<output>
				<port id="1" precision="FP32">
					<dim>96</dim>
				</port>
			</output>
			<blobs>
				<custom offset="2430120" precision="FP32" size="384"/>
			</blobs>
		</layer>
		<layer id="247" name="InceptionV3/InceptionV3/Mixed_5c/Branch_2/Conv2d_0b_3x3/convolution" type="Convolution">
			<data auto_pad="same_upper" dilations="1,1" group="1" kernel="3,3" output="96" pads_begin="1,1" pads_end="1,1" strides="1,1"/>
			<input>
				<port id="0">
					<dim>1</dim>
					<dim>64</dim>
					<dim>35</dim>
					<dim>35</dim>
				</port>
				<port id="1">
					<dim>96</dim>
					<dim>64</dim>
					<dim>3</dim>
					<dim>3</dim>
				</port>
				<port id="2">
					<dim>96</dim>
				</port>
			</input>
			<output>
				<port id="3" precision="FP32">
					<dim>1</dim>
					<dim>96</dim>
					<dim>35</dim>
					<dim>35</dim>
				</port>
			</output>
		</layer>
		<layer id="248" name="InceptionV3/InceptionV3/Mixed_5c/Branch_2/Conv2d_0b_3x3/Relu" type="ReLU">
			<input>
				<port id="0">
					<dim>1</dim>
					<dim>96</dim>
					<dim>35</dim>
					<dim>35</dim>
				</port>
			</input>
			<output>
				<port id="1" precision="FP32">
					<dim>1</dim>
					<dim>96</dim>
					<dim>35</dim>
					<dim>35</dim>
				</port>
			</output>
		</layer>
		<layer id="249" name="2118221186_const" type="Const">
			<output>
				<port id="1" precision="FP32"/>
			</output>
			<blobs>
				<custom offset="3872" precision="FP32" size="4"/>
			</blobs>
		</layer>
		<layer id="250" name="2118321187_const" type="Const">
			<output>
				<port id="1" precision="FP32"/>
			</output>
			<blobs>
				<custom offset="2430504" precision="FP32" size="4"/>
			</blobs>
		</layer>
		<layer id="251" name="2118421188_const" type="Const">
			<output>
				<port id="1" precision="FP32"/>
			</output>
			<blobs>
				<custom offset="3872" precision="FP32" size="4"/>
			</blobs>
		</layer>
		<layer id="252" name="2118521189_const" type="Const">
			<output>
				<port id="1" precision="FP32"/>
			</output>
			<blobs>
				<custom offset="2430504" precision="FP32" size="4"/>
			</blobs>
		</layer>
		<layer id="253" name="InceptionV3/InceptionV3/Mixed_5c/Branch_2/Conv2d_0c_3x3/convolution/fq_input_0" type="FakeQuantize">
			<data levels="256.0"/>
			<input>
				<port id="0">
					<dim>1</dim>
					<dim>96</dim>
					<dim>35</dim>
					<dim>35</dim>
				</port>
				<port id="1"/>
				<port id="2"/>
				<port id="3"/>
				<port id="4"/>
			</input>
			<output>
				<port id="5" precision="FP32">
					<dim>1</dim>
					<dim>96</dim>
					<dim>35</dim>
					<dim>35</dim>
				</port>
			</output>
		</layer>
		<layer id="254" name="InceptionV3/InceptionV3/Mixed_5c/Branch_2/Conv2d_0c_3x3/BatchNorm/batchnorm/mul1214812150_const" type="Const">
			<output>
				<port id="1" precision="FP32">
					<dim>96</dim>
					<dim>96</dim>
					<dim>3</dim>
					<dim>3</dim>
				</port>
			</output>
			<blobs>
				<custom offset="2430508" precision="FP32" size="331776"/>
			</blobs>
		</layer>
		<layer id="255" name="2119221196_const" type="Const">
			<output>
				<port id="1" precision="FP32">
					<dim>96</dim>
				</port>
			</output>
			<blobs>
				<custom offset="2762284" precision="FP32" size="384"/>
			</blobs>
		</layer>
		<layer id="256" name="2119321197_const" type="Const">
			<output>
				<port id="1" precision="FP32">
					<dim>96</dim>
				</port>
			</output>
			<blobs>
				<custom offset="2762668" precision="FP32" size="384"/>
			</blobs>
		</layer>
		<layer id="257" name="2119421198_const" type="Const">
			<output>
				<port id="1" precision="FP32">
					<dim>96</dim>
				</port>
			</output>
			<blobs>
				<custom offset="2762284" precision="FP32" size="384"/>
			</blobs>
		</layer>
		<layer id="258" name="2119521199_const" type="Const">
			<output>
				<port id="1" precision="FP32">
					<dim>96</dim>
				</port>
			</output>
			<blobs>
				<custom offset="2762668" precision="FP32" size="384"/>
			</blobs>
		</layer>
		<layer id="259" name="InceptionV3/InceptionV3/Mixed_5c/Branch_2/Conv2d_0c_3x3/convolution/fq_weights_1" type="FakeQuantize">
			<data levels="256"/>
			<input>
				<port id="0">
					<dim>96</dim>
					<dim>96</dim>
					<dim>3</dim>
					<dim>3</dim>
				</port>
				<port id="1">
					<dim>96</dim>
				</port>
				<port id="2">
					<dim>96</dim>
				</port>
				<port id="3">
					<dim>96</dim>
				</port>
				<port id="4">
					<dim>96</dim>
				</port>
			</input>
			<output>
				<port id="5" precision="FP32">
					<dim>96</dim>
					<dim>96</dim>
					<dim>3</dim>
					<dim>3</dim>
				</port>
			</output>
		</layer>
		<layer id="260" name="bias_data1215112152_const" type="Const">
			<output>
				<port id="1" precision="FP32">
					<dim>96</dim>
				</port>
			</output>
			<blobs>
				<custom offset="2763052" precision="FP32" size="384"/>
			</blobs>
		</layer>
		<layer id="261" name="InceptionV3/InceptionV3/Mixed_5c/Branch_2/Conv2d_0c_3x3/convolution" type="Convolution">
			<data auto_pad="same_upper" dilations="1,1" group="1" kernel="3,3" output="96" pads_begin="1,1" pads_end="1,1" strides="1,1"/>
			<input>
				<port id="0">
					<dim>1</dim>
					<dim>96</dim>
					<dim>35</dim>
					<dim>35</dim>
				</port>
				<port id="1">
					<dim>96</dim>
					<dim>96</dim>
					<dim>3</dim>
					<dim>3</dim>
				</port>
				<port id="2">
					<dim>96</dim>
				</port>
			</input>
			<output>
				<port id="3" precision="FP32">
					<dim>1</dim>
					<dim>96</dim>
					<dim>35</dim>
					<dim>35</dim>
				</port>
			</output>
		</layer>
		<layer id="262" name="InceptionV3/InceptionV3/Mixed_5c/Branch_2/Conv2d_0c_3x3/Relu" type="ReLU">
			<input>
				<port id="0">
					<dim>1</dim>
					<dim>96</dim>
					<dim>35</dim>
					<dim>35</dim>
				</port>
			</input>
			<output>
				<port id="1" precision="FP32">
					<dim>1</dim>
					<dim>96</dim>
					<dim>35</dim>
					<dim>35</dim>
				</port>
			</output>
		</layer>
		<layer id="263" name="2421024214_const" type="Const">
			<output>
				<port id="1" precision="FP32"/>
			</output>
			<blobs>
				<custom offset="3872" precision="FP32" size="4"/>
			</blobs>
		</layer>
		<layer id="264" name="2421124215_const" type="Const">
			<output>
				<port id="1" precision="FP32"/>
			</output>
			<blobs>
				<custom offset="2763436" precision="FP32" size="4"/>
			</blobs>
		</layer>
		<layer id="265" name="2421224216_const" type="Const">
			<output>
				<port id="1" precision="FP32"/>
			</output>
			<blobs>
				<custom offset="3872" precision="FP32" size="4"/>
			</blobs>
		</layer>
		<layer id="266" name="2421324217_const" type="Const">
			<output>
				<port id="1" precision="FP32"/>
			</output>
			<blobs>
				<custom offset="2763436" precision="FP32" size="4"/>
			</blobs>
		</layer>
		<layer id="267" name="InceptionV3/InceptionV3/Mixed_5c/concat_v2/fq_input_2" type="FakeQuantize">
			<data levels="256.0"/>
			<input>
				<port id="0">
					<dim>1</dim>
					<dim>96</dim>
					<dim>35</dim>
					<dim>35</dim>
				</port>
				<port id="1"/>
				<port id="2"/>
				<port id="3"/>
				<port id="4"/>
			</input>
			<output>
				<port id="5" precision="FP32">
					<dim>1</dim>
					<dim>96</dim>
					<dim>35</dim>
					<dim>35</dim>
				</port>
			</output>
		</layer>
		<layer id="268" name="InceptionV3/InceptionV3/Mixed_5c/Branch_3/AvgPool_0a_3x3/AvgPool" type="Pooling">
			<data auto_pad="same_upper" exclude-pad="true" kernel="3,3" pads_begin="1,1" pads_end="1,1" pool-method="avg" strides="1,1"/>
			<input>
				<port id="0">
					<dim>1</dim>
					<dim>256</dim>
					<dim>35</dim>
					<dim>35</dim>
				</port>
			</input>
			<output>
				<port id="1" precision="FP32">
					<dim>1</dim>
					<dim>256</dim>
					<dim>35</dim>
					<dim>35</dim>
				</port>
			</output>
		</layer>
		<layer id="269" name="2158221586_const" type="Const">
			<output>
				<port id="1" precision="FP32"/>
			</output>
			<blobs>
				<custom offset="3872" precision="FP32" size="4"/>
			</blobs>
		</layer>
		<layer id="270" name="2158321587_const" type="Const">
			<output>
				<port id="1" precision="FP32"/>
			</output>
			<blobs>
				<custom offset="2763440" precision="FP32" size="4"/>
			</blobs>
		</layer>
		<layer id="271" name="2158421588_const" type="Const">
			<output>
				<port id="1" precision="FP32"/>
			</output>
			<blobs>
				<custom offset="3872" precision="FP32" size="4"/>
			</blobs>
		</layer>
		<layer id="272" name="2158521589_const" type="Const">
			<output>
				<port id="1" precision="FP32"/>
			</output>
			<blobs>
				<custom offset="2763440" precision="FP32" size="4"/>
			</blobs>
		</layer>
		<layer id="273" name="InceptionV3/InceptionV3/Mixed_5c/Branch_3/Conv2d_0b_1x1/convolution/fq_input_0" type="FakeQuantize">
			<data levels="256.0"/>
			<input>
				<port id="0">
					<dim>1</dim>
					<dim>256</dim>
					<dim>35</dim>
					<dim>35</dim>
				</port>
				<port id="1"/>
				<port id="2"/>
				<port id="3"/>
				<port id="4"/>
			</input>
			<output>
				<port id="5" precision="FP32">
					<dim>1</dim>
					<dim>256</dim>
					<dim>35</dim>
					<dim>35</dim>
				</port>
			</output>
		</layer>
		<layer id="274" name="InceptionV3/InceptionV3/Mixed_5c/Branch_3/Conv2d_0b_1x1/BatchNorm/batchnorm/mul1212212124_const" type="Const">
			<output>
				<port id="1" precision="FP32">
					<dim>64</dim>
					<dim>256</dim>
					<dim>1</dim>
					<dim>1</dim>
				</port>
			</output>
			<blobs>
				<custom offset="2763444" precision="FP32" size="65536"/>
			</blobs>
		</layer>
		<layer id="275" name="2159221596_const" type="Const">
			<output>
				<port id="1" precision="FP32">
					<dim>64</dim>
				</port>
			</output>
			<blobs>
				<custom offset="2828980" precision="FP32" size="256"/>
			</blobs>
		</layer>
		<layer id="276" name="2159321597_const" type="Const">
			<output>
				<port id="1" precision="FP32">
					<dim>64</dim>
				</port>
			</output>
			<blobs>
				<custom offset="2829236" precision="FP32" size="256"/>
			</blobs>
		</layer>
		<layer id="277" name="2159421598_const" type="Const">
			<output>
				<port id="1" precision="FP32">
					<dim>64</dim>
				</port>
			</output>
			<blobs>
				<custom offset="2828980" precision="FP32" size="256"/>
			</blobs>
		</layer>
		<layer id="278" name="2159521599_const" type="Const">
			<output>
				<port id="1" precision="FP32">
					<dim>64</dim>
				</port>
			</output>
			<blobs>
				<custom offset="2829236" precision="FP32" size="256"/>
			</blobs>
		</layer>
		<layer id="279" name="InceptionV3/InceptionV3/Mixed_5c/Branch_3/Conv2d_0b_1x1/convolution/fq_weights_1" type="FakeQuantize">
			<data levels="256"/>
			<input>
				<port id="0">
					<dim>64</dim>
					<dim>256</dim>
					<dim>1</dim>
					<dim>1</dim>
				</port>
				<port id="1">
					<dim>64</dim>
				</port>
				<port id="2">
					<dim>64</dim>
				</port>
				<port id="3">
					<dim>64</dim>
				</port>
				<port id="4">
					<dim>64</dim>
				</port>
			</input>
			<output>
				<port id="5" precision="FP32">
					<dim>64</dim>
					<dim>256</dim>
					<dim>1</dim>
					<dim>1</dim>
				</port>
			</output>
		</layer>
		<layer id="280" name="bias_data1212512126_const" type="Const">
			<output>
				<port id="1" precision="FP32">
					<dim>64</dim>
				</port>
			</output>
			<blobs>
				<custom offset="2829492" precision="FP32" size="256"/>
			</blobs>
		</layer>
		<layer id="281" name="InceptionV3/InceptionV3/Mixed_5c/Branch_3/Conv2d_0b_1x1/convolution" type="Convolution">
			<data auto_pad="same_upper" dilations="1,1" group="1" kernel="1,1" output="64" pads_begin="0,0" pads_end="0,0" strides="1,1"/>
			<input>
				<port id="0">
					<dim>1</dim>
					<dim>256</dim>
					<dim>35</dim>
					<dim>35</dim>
				</port>
				<port id="1">
					<dim>64</dim>
					<dim>256</dim>
					<dim>1</dim>
					<dim>1</dim>
				</port>
				<port id="2">
					<dim>64</dim>
				</port>
			</input>
			<output>
				<port id="3" precision="FP32">
					<dim>1</dim>
					<dim>64</dim>
					<dim>35</dim>
					<dim>35</dim>
				</port>
			</output>
		</layer>
		<layer id="282" name="InceptionV3/InceptionV3/Mixed_5c/Branch_3/Conv2d_0b_1x1/Relu" type="ReLU">
			<input>
				<port id="0">
					<dim>1</dim>
					<dim>64</dim>
					<dim>35</dim>
					<dim>35</dim>
				</port>
			</input>
			<output>
				<port id="1" precision="FP32">
					<dim>1</dim>
					<dim>64</dim>
					<dim>35</dim>
					<dim>35</dim>
				</port>
			</output>
		</layer>
		<layer id="283" name="2422024224_const" type="Const">
			<output>
				<port id="1" precision="FP32"/>
			</output>
			<blobs>
				<custom offset="3872" precision="FP32" size="4"/>
			</blobs>
		</layer>
		<layer id="284" name="2422124225_const" type="Const">
			<output>
				<port id="1" precision="FP32"/>
			</output>
			<blobs>
				<custom offset="2829748" precision="FP32" size="4"/>
			</blobs>
		</layer>
		<layer id="285" name="2422224226_const" type="Const">
			<output>
				<port id="1" precision="FP32"/>
			</output>
			<blobs>
				<custom offset="3872" precision="FP32" size="4"/>
			</blobs>
		</layer>
		<layer id="286" name="2422324227_const" type="Const">
			<output>
				<port id="1" precision="FP32"/>
			</output>
			<blobs>
				<custom offset="2829748" precision="FP32" size="4"/>
			</blobs>
		</layer>
		<layer id="287" name="InceptionV3/InceptionV3/Mixed_5c/concat_v2/fq_input_3" type="FakeQuantize">
			<data levels="256.0"/>
			<input>
				<port id="0">
					<dim>1</dim>
					<dim>64</dim>
					<dim>35</dim>
					<dim>35</dim>
				</port>
				<port id="1"/>
				<port id="2"/>
				<port id="3"/>
				<port id="4"/>
			</input>
			<output>
				<port id="5" precision="FP32">
					<dim>1</dim>
					<dim>64</dim>
					<dim>35</dim>
					<dim>35</dim>
				</port>
			</output>
		</layer>
		<layer id="288" name="InceptionV3/InceptionV3/Mixed_5c/concat_v2" type="Concat">
			<data axis="1"/>
			<input>
				<port id="0">
					<dim>1</dim>
					<dim>64</dim>
					<dim>35</dim>
					<dim>35</dim>
				</port>
				<port id="1">
					<dim>1</dim>
					<dim>64</dim>
					<dim>35</dim>
					<dim>35</dim>
				</port>
				<port id="2">
					<dim>1</dim>
					<dim>96</dim>
					<dim>35</dim>
					<dim>35</dim>
				</port>
				<port id="3">
					<dim>1</dim>
					<dim>64</dim>
					<dim>35</dim>
					<dim>35</dim>
				</port>
			</input>
			<output>
				<port id="4" precision="FP32">
					<dim>1</dim>
					<dim>288</dim>
					<dim>35</dim>
					<dim>35</dim>
				</port>
			</output>
		</layer>
		<layer id="289" name="InceptionV3/InceptionV3/Mixed_5d/Branch_0/Conv2d_0a_1x1/BatchNorm/batchnorm/mul1217812180_const" type="Const">
			<output>
				<port id="1" precision="FP32">
					<dim>64</dim>
					<dim>288</dim>
					<dim>1</dim>
					<dim>1</dim>
				</port>
			</output>
			<blobs>
				<custom offset="2829752" precision="FP32" size="73728"/>
			</blobs>
		</layer>
		<layer id="290" name="2200222006_const" type="Const">
			<output>
				<port id="1" precision="FP32">
					<dim>64</dim>
				</port>
			</output>
			<blobs>
				<custom offset="2903480" precision="FP32" size="256"/>
			</blobs>
		</layer>
		<layer id="291" name="2200322007_const" type="Const">
			<output>
				<port id="1" precision="FP32">
					<dim>64</dim>
				</port>
			</output>
			<blobs>
				<custom offset="2903736" precision="FP32" size="256"/>
			</blobs>
		</layer>
		<layer id="292" name="2200422008_const" type="Const">
			<output>
				<port id="1" precision="FP32">
					<dim>64</dim>
				</port>
			</output>
			<blobs>
				<custom offset="2903480" precision="FP32" size="256"/>
			</blobs>
		</layer>
		<layer id="293" name="2200522009_const" type="Const">
			<output>
				<port id="1" precision="FP32">
					<dim>64</dim>
				</port>
			</output>
			<blobs>
				<custom offset="2903736" precision="FP32" size="256"/>
			</blobs>
		</layer>
		<layer id="294" name="InceptionV3/InceptionV3/Mixed_5d/Branch_0/Conv2d_0a_1x1/convolution/fq_weights_1" type="FakeQuantize">
			<data levels="256"/>
			<input>
				<port id="0">
					<dim>64</dim>
					<dim>288</dim>
					<dim>1</dim>
					<dim>1</dim>
				</port>
				<port id="1">
					<dim>64</dim>
				</port>
				<port id="2">
					<dim>64</dim>
				</port>
				<port id="3">
					<dim>64</dim>
				</port>
				<port id="4">
					<dim>64</dim>
				</port>
			</input>
			<output>
				<port id="5" precision="FP32">
					<dim>64</dim>
					<dim>288</dim>
					<dim>1</dim>
					<dim>1</dim>
				</port>
			</output>
		</layer>
		<layer id="295" name="bias_data1218112182_const" type="Const">
			<output>
				<port id="1" precision="FP32">
					<dim>64</dim>
				</port>
			</output>
			<blobs>
				<custom offset="2903992" precision="FP32" size="256"/>
			</blobs>
		</layer>
		<layer id="296" name="InceptionV3/InceptionV3/Mixed_5d/Branch_0/Conv2d_0a_1x1/convolution" type="Convolution">
			<data auto_pad="same_upper" dilations="1,1" group="1" kernel="1,1" output="64" pads_begin="0,0" pads_end="0,0" strides="1,1"/>
			<input>
				<port id="0">
					<dim>1</dim>
					<dim>288</dim>
					<dim>35</dim>
					<dim>35</dim>
				</port>
				<port id="1">
					<dim>64</dim>
					<dim>288</dim>
					<dim>1</dim>
					<dim>1</dim>
				</port>
				<port id="2">
					<dim>64</dim>
				</port>
			</input>
			<output>
				<port id="3" precision="FP32">
					<dim>1</dim>
					<dim>64</dim>
					<dim>35</dim>
					<dim>35</dim>
				</port>
			</output>
		</layer>
		<layer id="297" name="InceptionV3/InceptionV3/Mixed_5d/Branch_0/Conv2d_0a_1x1/Relu" type="ReLU">
			<input>
				<port id="0">
					<dim>1</dim>
					<dim>64</dim>
					<dim>35</dim>
					<dim>35</dim>
				</port>
			</input>
			<output>
				<port id="1" precision="FP32">
					<dim>1</dim>
					<dim>64</dim>
					<dim>35</dim>
					<dim>35</dim>
				</port>
			</output>
		</layer>
		<layer id="298" name="2435024354_const" type="Const">
			<output>
				<port id="1" precision="FP32"/>
			</output>
			<blobs>
				<custom offset="3872" precision="FP32" size="4"/>
			</blobs>
		</layer>
		<layer id="299" name="2435124355_const" type="Const">
			<output>
				<port id="1" precision="FP32"/>
			</output>
			<blobs>
				<custom offset="2904248" precision="FP32" size="4"/>
			</blobs>
		</layer>
		<layer id="300" name="2435224356_const" type="Const">
			<output>
				<port id="1" precision="FP32"/>
			</output>
			<blobs>
				<custom offset="3872" precision="FP32" size="4"/>
			</blobs>
		</layer>
		<layer id="301" name="2435324357_const" type="Const">
			<output>
				<port id="1" precision="FP32"/>
			</output>
			<blobs>
				<custom offset="2904248" precision="FP32" size="4"/>
			</blobs>
		</layer>
		<layer id="302" name="InceptionV3/InceptionV3/Mixed_5d/concat_v2/fq_input_0" type="FakeQuantize">
			<data levels="256.0"/>
			<input>
				<port id="0">
					<dim>1</dim>
					<dim>64</dim>
					<dim>35</dim>
					<dim>35</dim>
				</port>
				<port id="1"/>
				<port id="2"/>
				<port id="3"/>
				<port id="4"/>
			</input>
			<output>
				<port id="5" precision="FP32">
					<dim>1</dim>
					<dim>64</dim>
					<dim>35</dim>
					<dim>35</dim>
				</port>
			</output>
		</layer>
		<layer id="303" name="InceptionV3/InceptionV3/Mixed_5d/Branch_1/Conv2d_0a_1x1/BatchNorm/batchnorm/mul1218412186_const" type="Const">
			<output>
				<port id="1" precision="FP32">
					<dim>48</dim>
					<dim>288</dim>
					<dim>1</dim>
					<dim>1</dim>
				</port>
			</output>
			<blobs>
				<custom offset="2904252" precision="FP32" size="55296"/>
			</blobs>
		</layer>
		<layer id="304" name="2157221576_const" type="Const">
			<output>
				<port id="1" precision="FP32">
					<dim>48</dim>
				</port>
			</output>
			<blobs>
				<custom offset="2959548" precision="FP32" size="192"/>
			</blobs>
		</layer>
		<layer id="305" name="2157321577_const" type="Const">
			<output>
				<port id="1" precision="FP32">
					<dim>48</dim>
				</port>
			</output>
			<blobs>
				<custom offset="2959740" precision="FP32" size="192"/>
			</blobs>
		</layer>
		<layer id="306" name="2157421578_const" type="Const">
			<output>
				<port id="1" precision="FP32">
					<dim>48</dim>
				</port>
			</output>
			<blobs>
				<custom offset="2959548" precision="FP32" size="192"/>
			</blobs>
		</layer>
		<layer id="307" name="2157521579_const" type="Const">
			<output>
				<port id="1" precision="FP32">
					<dim>48</dim>
				</port>
			</output>
			<blobs>
				<custom offset="2959740" precision="FP32" size="192"/>
			</blobs>
		</layer>
		<layer id="308" name="InceptionV3/InceptionV3/Mixed_5d/Branch_1/Conv2d_0a_1x1/convolution/fq_weights_1" type="FakeQuantize">
			<data levels="256"/>
			<input>
				<port id="0">
					<dim>48</dim>
					<dim>288</dim>
					<dim>1</dim>
					<dim>1</dim>
				</port>
				<port id="1">
					<dim>48</dim>
				</port>
				<port id="2">
					<dim>48</dim>
				</port>
				<port id="3">
					<dim>48</dim>
				</port>
				<port id="4">
					<dim>48</dim>
				</port>
			</input>
			<output>
				<port id="5" precision="FP32">
					<dim>48</dim>
					<dim>288</dim>
					<dim>1</dim>
					<dim>1</dim>
				</port>
			</output>
		</layer>
		<layer id="309" name="bias_data1218712188_const" type="Const">
			<output>
				<port id="1" precision="FP32">
					<dim>48</dim>
				</port>
			</output>
			<blobs>
				<custom offset="2959932" precision="FP32" size="192"/>
			</blobs>
		</layer>
		<layer id="310" name="InceptionV3/InceptionV3/Mixed_5d/Branch_1/Conv2d_0a_1x1/convolution" type="Convolution">
			<data auto_pad="same_upper" dilations="1,1" group="1" kernel="1,1" output="48" pads_begin="0,0" pads_end="0,0" strides="1,1"/>
			<input>
				<port id="0">
					<dim>1</dim>
					<dim>288</dim>
					<dim>35</dim>
					<dim>35</dim>
				</port>
				<port id="1">
					<dim>48</dim>
					<dim>288</dim>
					<dim>1</dim>
					<dim>1</dim>
				</port>
				<port id="2">
					<dim>48</dim>
				</port>
			</input>
			<output>
				<port id="3" precision="FP32">
					<dim>1</dim>
					<dim>48</dim>
					<dim>35</dim>
					<dim>35</dim>
				</port>
			</output>
		</layer>
		<layer id="311" name="InceptionV3/InceptionV3/Mixed_5d/Branch_1/Conv2d_0a_1x1/Relu" type="ReLU">
			<input>
				<port id="0">
					<dim>1</dim>
					<dim>48</dim>
					<dim>35</dim>
					<dim>35</dim>
				</port>
			</input>
			<output>
				<port id="1" precision="FP32">
					<dim>1</dim>
					<dim>48</dim>
					<dim>35</dim>
					<dim>35</dim>
				</port>
			</output>
		</layer>
		<layer id="312" name="2262222626_const" type="Const">
			<output>
				<port id="1" precision="FP32"/>
			</output>
			<blobs>
				<custom offset="3872" precision="FP32" size="4"/>
			</blobs>
		</layer>
		<layer id="313" name="2262322627_const" type="Const">
			<output>
				<port id="1" precision="FP32"/>
			</output>
			<blobs>
				<custom offset="2960124" precision="FP32" size="4"/>
			</blobs>
		</layer>
		<layer id="314" name="2262422628_const" type="Const">
			<output>
				<port id="1" precision="FP32"/>
			</output>
			<blobs>
				<custom offset="3872" precision="FP32" size="4"/>
			</blobs>
		</layer>
		<layer id="315" name="2262522629_const" type="Const">
			<output>
				<port id="1" precision="FP32"/>
			</output>
			<blobs>
				<custom offset="2960124" precision="FP32" size="4"/>
			</blobs>
		</layer>
		<layer id="316" name="InceptionV3/InceptionV3/Mixed_5d/Branch_1/Conv2d_0b_5x5/convolution/fq_input_0" type="FakeQuantize">
			<data levels="256.0"/>
			<input>
				<port id="0">
					<dim>1</dim>
					<dim>48</dim>
					<dim>35</dim>
					<dim>35</dim>
				</port>
				<port id="1"/>
				<port id="2"/>
				<port id="3"/>
				<port id="4"/>
			</input>
			<output>
				<port id="5" precision="FP32">
					<dim>1</dim>
					<dim>48</dim>
					<dim>35</dim>
					<dim>35</dim>
				</port>
			</output>
		</layer>
		<layer id="317" name="InceptionV3/InceptionV3/Mixed_5d/Branch_1/Conv2d_0b_5x5/BatchNorm/batchnorm/mul1219012192_const" type="Const">
			<output>
				<port id="1" precision="FP32">
					<dim>64</dim>
					<dim>48</dim>
					<dim>5</dim>
					<dim>5</dim>
				</port>
			</output>
			<blobs>
				<custom offset="2960128" precision="FP32" size="307200"/>
			</blobs>
		</layer>
		<layer id="318" name="2263222636_const" type="Const">
			<output>
				<port id="1" precision="FP32">
					<dim>64</dim>
				</port>
			</output>
			<blobs>
				<custom offset="3267328" precision="FP32" size="256"/>
			</blobs>
		</layer>
		<layer id="319" name="2263322637_const" type="Const">
			<output>
				<port id="1" precision="FP32">
					<dim>64</dim>
				</port>
			</output>
			<blobs>
				<custom offset="3267584" precision="FP32" size="256"/>
			</blobs>
		</layer>
		<layer id="320" name="2263422638_const" type="Const">
			<output>
				<port id="1" precision="FP32">
					<dim>64</dim>
				</port>
			</output>
			<blobs>
				<custom offset="3267328" precision="FP32" size="256"/>
			</blobs>
		</layer>
		<layer id="321" name="2263522639_const" type="Const">
			<output>
				<port id="1" precision="FP32">
					<dim>64</dim>
				</port>
			</output>
			<blobs>
				<custom offset="3267584" precision="FP32" size="256"/>
			</blobs>
		</layer>
		<layer id="322" name="InceptionV3/InceptionV3/Mixed_5d/Branch_1/Conv2d_0b_5x5/convolution/fq_weights_1" type="FakeQuantize">
			<data levels="256"/>
			<input>
				<port id="0">
					<dim>64</dim>
					<dim>48</dim>
					<dim>5</dim>
					<dim>5</dim>
				</port>
				<port id="1">
					<dim>64</dim>
				</port>
				<port id="2">
					<dim>64</dim>
				</port>
				<port id="3">
					<dim>64</dim>
				</port>
				<port id="4">
					<dim>64</dim>
				</port>
			</input>
			<output>
				<port id="5" precision="FP32">
					<dim>64</dim>
					<dim>48</dim>
					<dim>5</dim>
					<dim>5</dim>
				</port>
			</output>
		</layer>
		<layer id="323" name="bias_data1219312194_const" type="Const">
			<output>
				<port id="1" precision="FP32">
					<dim>64</dim>
				</port>
			</output>
			<blobs>
				<custom offset="3267840" precision="FP32" size="256"/>
			</blobs>
		</layer>
		<layer id="324" name="InceptionV3/InceptionV3/Mixed_5d/Branch_1/Conv2d_0b_5x5/convolution" type="Convolution">
			<data auto_pad="same_upper" dilations="1,1" group="1" kernel="5,5" output="64" pads_begin="2,2" pads_end="2,2" strides="1,1"/>
			<input>
				<port id="0">
					<dim>1</dim>
					<dim>48</dim>
					<dim>35</dim>
					<dim>35</dim>
				</port>
				<port id="1">
					<dim>64</dim>
					<dim>48</dim>
					<dim>5</dim>
					<dim>5</dim>
				</port>
				<port id="2">
					<dim>64</dim>
				</port>
			</input>
			<output>
				<port id="3" precision="FP32">
					<dim>1</dim>
					<dim>64</dim>
					<dim>35</dim>
					<dim>35</dim>
				</port>
			</output>
		</layer>
		<layer id="325" name="InceptionV3/InceptionV3/Mixed_5d/Branch_1/Conv2d_0b_5x5/Relu" type="ReLU">
			<input>
				<port id="0">
					<dim>1</dim>
					<dim>64</dim>
					<dim>35</dim>
					<dim>35</dim>
				</port>
			</input>
			<output>
				<port id="1" precision="FP32">
					<dim>1</dim>
					<dim>64</dim>
					<dim>35</dim>
					<dim>35</dim>
				</port>
			</output>
		</layer>
		<layer id="326" name="2436024364_const" type="Const">
			<output>
				<port id="1" precision="FP32"/>
			</output>
			<blobs>
				<custom offset="3872" precision="FP32" size="4"/>
			</blobs>
		</layer>
		<layer id="327" name="2436124365_const" type="Const">
			<output>
				<port id="1" precision="FP32"/>
			</output>
			<blobs>
				<custom offset="3268096" precision="FP32" size="4"/>
			</blobs>
		</layer>
		<layer id="328" name="2436224366_const" type="Const">
			<output>
				<port id="1" precision="FP32"/>
			</output>
			<blobs>
				<custom offset="3872" precision="FP32" size="4"/>
			</blobs>
		</layer>
		<layer id="329" name="2436324367_const" type="Const">
			<output>
				<port id="1" precision="FP32"/>
			</output>
			<blobs>
				<custom offset="3268096" precision="FP32" size="4"/>
			</blobs>
		</layer>
		<layer id="330" name="InceptionV3/InceptionV3/Mixed_5d/concat_v2/fq_input_1" type="FakeQuantize">
			<data levels="256.0"/>
			<input>
				<port id="0">
					<dim>1</dim>
					<dim>64</dim>
					<dim>35</dim>
					<dim>35</dim>
				</port>
				<port id="1"/>
				<port id="2"/>
				<port id="3"/>
				<port id="4"/>
			</input>
			<output>
				<port id="5" precision="FP32">
					<dim>1</dim>
					<dim>64</dim>
					<dim>35</dim>
					<dim>35</dim>
				</port>
			</output>
		</layer>
		<layer id="331" name="InceptionV3/InceptionV3/Mixed_5d/Branch_2/Conv2d_0a_1x1/BatchNorm/batchnorm/mul1215412156_const" type="Const">
			<output>
				<port id="1" precision="FP32">
					<dim>64</dim>
					<dim>288</dim>
					<dim>1</dim>
					<dim>1</dim>
				</port>
			</output>
			<blobs>
				<custom offset="3268100" precision="FP32" size="73728"/>
			</blobs>
		</layer>
		<layer id="332" name="2204222046_const" type="Const">
			<output>
				<port id="1" precision="FP32">
					<dim>64</dim>
				</port>
			</output>
			<blobs>
				<custom offset="3341828" precision="FP32" size="256"/>
			</blobs>
		</layer>
		<layer id="333" name="2204322047_const" type="Const">
			<output>
				<port id="1" precision="FP32">
					<dim>64</dim>
				</port>
			</output>
			<blobs>
				<custom offset="3342084" precision="FP32" size="256"/>
			</blobs>
		</layer>
		<layer id="334" name="2204422048_const" type="Const">
			<output>
				<port id="1" precision="FP32">
					<dim>64</dim>
				</port>
			</output>
			<blobs>
				<custom offset="3341828" precision="FP32" size="256"/>
			</blobs>
		</layer>
		<layer id="335" name="2204522049_const" type="Const">
			<output>
				<port id="1" precision="FP32">
					<dim>64</dim>
				</port>
			</output>
			<blobs>
				<custom offset="3342084" precision="FP32" size="256"/>
			</blobs>
		</layer>
		<layer id="336" name="InceptionV3/InceptionV3/Mixed_5d/Branch_2/Conv2d_0a_1x1/convolution/fq_weights_1" type="FakeQuantize">
			<data levels="256"/>
			<input>
				<port id="0">
					<dim>64</dim>
					<dim>288</dim>
					<dim>1</dim>
					<dim>1</dim>
				</port>
				<port id="1">
					<dim>64</dim>
				</port>
				<port id="2">
					<dim>64</dim>
				</port>
				<port id="3">
					<dim>64</dim>
				</port>
				<port id="4">
					<dim>64</dim>
				</port>
			</input>
			<output>
				<port id="5" precision="FP32">
					<dim>64</dim>
					<dim>288</dim>
					<dim>1</dim>
					<dim>1</dim>
				</port>
			</output>
		</layer>
		<layer id="337" name="bias_data1215712158_const" type="Const">
			<output>
				<port id="1" precision="FP32">
					<dim>64</dim>
				</port>
			</output>
			<blobs>
				<custom offset="3342340" precision="FP32" size="256"/>
			</blobs>
		</layer>
		<layer id="338" name="InceptionV3/InceptionV3/Mixed_5d/Branch_2/Conv2d_0a_1x1/convolution" type="Convolution">
			<data auto_pad="same_upper" dilations="1,1" group="1" kernel="1,1" output="64" pads_begin="0,0" pads_end="0,0" strides="1,1"/>
			<input>
				<port id="0">
					<dim>1</dim>
					<dim>288</dim>
					<dim>35</dim>
					<dim>35</dim>
				</port>
				<port id="1">
					<dim>64</dim>
					<dim>288</dim>
					<dim>1</dim>
					<dim>1</dim>
				</port>
				<port id="2">
					<dim>64</dim>
				</port>
			</input>
			<output>
				<port id="3" precision="FP32">
					<dim>1</dim>
					<dim>64</dim>
					<dim>35</dim>
					<dim>35</dim>
				</port>
			</output>
		</layer>
		<layer id="339" name="InceptionV3/InceptionV3/Mixed_5d/Branch_2/Conv2d_0a_1x1/Relu" type="ReLU">
			<input>
				<port id="0">
					<dim>1</dim>
					<dim>64</dim>
					<dim>35</dim>
					<dim>35</dim>
				</port>
			</input>
			<output>
				<port id="1" precision="FP32">
					<dim>1</dim>
					<dim>64</dim>
					<dim>35</dim>
					<dim>35</dim>
				</port>
			</output>
		</layer>
		<layer id="340" name="2268222686_const" type="Const">
			<output>
				<port id="1" precision="FP32"/>
			</output>
			<blobs>
				<custom offset="3872" precision="FP32" size="4"/>
			</blobs>
		</layer>
		<layer id="341" name="2268322687_const" type="Const">
			<output>
				<port id="1" precision="FP32"/>
			</output>
			<blobs>
				<custom offset="3342596" precision="FP32" size="4"/>
			</blobs>
		</layer>
		<layer id="342" name="2268422688_const" type="Const">
			<output>
				<port id="1" precision="FP32"/>
			</output>
			<blobs>
				<custom offset="3872" precision="FP32" size="4"/>
			</blobs>
		</layer>
		<layer id="343" name="2268522689_const" type="Const">
			<output>
				<port id="1" precision="FP32"/>
			</output>
			<blobs>
				<custom offset="3342596" precision="FP32" size="4"/>
			</blobs>
		</layer>
		<layer id="344" name="InceptionV3/InceptionV3/Mixed_5d/Branch_2/Conv2d_0b_3x3/convolution/fq_input_0" type="FakeQuantize">
			<data levels="256.0"/>
			<input>
				<port id="0">
					<dim>1</dim>
					<dim>64</dim>
					<dim>35</dim>
					<dim>35</dim>
				</port>
				<port id="1"/>
				<port id="2"/>
				<port id="3"/>
				<port id="4"/>
			</input>
			<output>
				<port id="5" precision="FP32">
					<dim>1</dim>
					<dim>64</dim>
					<dim>35</dim>
					<dim>35</dim>
				</port>
			</output>
		</layer>
		<layer id="345" name="InceptionV3/InceptionV3/Mixed_5d/Branch_2/Conv2d_0b_3x3/BatchNorm/batchnorm/mul1216012162_const" type="Const">
			<output>
				<port id="1" precision="FP32">
					<dim>96</dim>
					<dim>64</dim>
					<dim>3</dim>
					<dim>3</dim>
				</port>
			</output>
			<blobs>
				<custom offset="3342600" precision="FP32" size="221184"/>
			</blobs>
		</layer>
		<layer id="346" name="2269222696_const" type="Const">
			<output>
				<port id="1" precision="FP32">
					<dim>96</dim>
				</port>
			</output>
			<blobs>
				<custom offset="3563784" precision="FP32" size="384"/>
			</blobs>
		</layer>
		<layer id="347" name="2269322697_const" type="Const">
			<output>
				<port id="1" precision="FP32">
					<dim>96</dim>
				</port>
			</output>
			<blobs>
				<custom offset="3564168" precision="FP32" size="384"/>
			</blobs>
		</layer>
		<layer id="348" name="2269422698_const" type="Const">
			<output>
				<port id="1" precision="FP32">
					<dim>96</dim>
				</port>
			</output>
			<blobs>
				<custom offset="3563784" precision="FP32" size="384"/>
			</blobs>
		</layer>
		<layer id="349" name="2269522699_const" type="Const">
			<output>
				<port id="1" precision="FP32">
					<dim>96</dim>
				</port>
			</output>
			<blobs>
				<custom offset="3564168" precision="FP32" size="384"/>
			</blobs>
		</layer>
		<layer id="350" name="InceptionV3/InceptionV3/Mixed_5d/Branch_2/Conv2d_0b_3x3/convolution/fq_weights_1" type="FakeQuantize">
			<data levels="256"/>
			<input>
				<port id="0">
					<dim>96</dim>
					<dim>64</dim>
					<dim>3</dim>
					<dim>3</dim>
				</port>
				<port id="1">
					<dim>96</dim>
				</port>
				<port id="2">
					<dim>96</dim>
				</port>
				<port id="3">
					<dim>96</dim>
				</port>
				<port id="4">
					<dim>96</dim>
				</port>
			</input>
			<output>
				<port id="5" precision="FP32">
					<dim>96</dim>
					<dim>64</dim>
					<dim>3</dim>
					<dim>3</dim>
				</port>
			</output>
		</layer>
		<layer id="351" name="bias_data1216312164_const" type="Const">
			<output>
				<port id="1" precision="FP32">
					<dim>96</dim>
				</port>
			</output>
			<blobs>
				<custom offset="3564552" precision="FP32" size="384"/>
			</blobs>
		</layer>
		<layer id="352" name="InceptionV3/InceptionV3/Mixed_5d/Branch_2/Conv2d_0b_3x3/convolution" type="Convolution">
			<data auto_pad="same_upper" dilations="1,1" group="1" kernel="3,3" output="96" pads_begin="1,1" pads_end="1,1" strides="1,1"/>
			<input>
				<port id="0">
					<dim>1</dim>
					<dim>64</dim>
					<dim>35</dim>
					<dim>35</dim>
				</port>
				<port id="1">
					<dim>96</dim>
					<dim>64</dim>
					<dim>3</dim>
					<dim>3</dim>
				</port>
				<port id="2">
					<dim>96</dim>
				</port>
			</input>
			<output>
				<port id="3" precision="FP32">
					<dim>1</dim>
					<dim>96</dim>
					<dim>35</dim>
					<dim>35</dim>
				</port>
			</output>
		</layer>
		<layer id="353" name="InceptionV3/InceptionV3/Mixed_5d/Branch_2/Conv2d_0b_3x3/Relu" type="ReLU">
			<input>
				<port id="0">
					<dim>1</dim>
					<dim>96</dim>
					<dim>35</dim>
					<dim>35</dim>
				</port>
			</input>
			<output>
				<port id="1" precision="FP32">
					<dim>1</dim>
					<dim>96</dim>
					<dim>35</dim>
					<dim>35</dim>
				</port>
			</output>
		</layer>
		<layer id="354" name="2138221386_const" type="Const">
			<output>
				<port id="1" precision="FP32"/>
			</output>
			<blobs>
				<custom offset="3872" precision="FP32" size="4"/>
			</blobs>
		</layer>
		<layer id="355" name="2138321387_const" type="Const">
			<output>
				<port id="1" precision="FP32"/>
			</output>
			<blobs>
				<custom offset="3564936" precision="FP32" size="4"/>
			</blobs>
		</layer>
		<layer id="356" name="2138421388_const" type="Const">
			<output>
				<port id="1" precision="FP32"/>
			</output>
			<blobs>
				<custom offset="3872" precision="FP32" size="4"/>
			</blobs>
		</layer>
		<layer id="357" name="2138521389_const" type="Const">
			<output>
				<port id="1" precision="FP32"/>
			</output>
			<blobs>
				<custom offset="3564936" precision="FP32" size="4"/>
			</blobs>
		</layer>
		<layer id="358" name="InceptionV3/InceptionV3/Mixed_5d/Branch_2/Conv2d_0c_3x3/convolution/fq_input_0" type="FakeQuantize">
			<data levels="256.0"/>
			<input>
				<port id="0">
					<dim>1</dim>
					<dim>96</dim>
					<dim>35</dim>
					<dim>35</dim>
				</port>
				<port id="1"/>
				<port id="2"/>
				<port id="3"/>
				<port id="4"/>
			</input>
			<output>
				<port id="5" precision="FP32">
					<dim>1</dim>
					<dim>96</dim>
					<dim>35</dim>
					<dim>35</dim>
				</port>
			</output>
		</layer>
		<layer id="359" name="InceptionV3/InceptionV3/Mixed_5d/Branch_2/Conv2d_0c_3x3/BatchNorm/batchnorm/mul1216612168_const" type="Const">
			<output>
				<port id="1" precision="FP32">
					<dim>96</dim>
					<dim>96</dim>
					<dim>3</dim>
					<dim>3</dim>
				</port>
			</output>
			<blobs>
				<custom offset="3564940" precision="FP32" size="331776"/>
			</blobs>
		</layer>
		<layer id="360" name="2139221396_const" type="Const">
			<output>
				<port id="1" precision="FP32">
					<dim>96</dim>
				</port>
			</output>
			<blobs>
				<custom offset="3896716" precision="FP32" size="384"/>
			</blobs>
		</layer>
		<layer id="361" name="2139321397_const" type="Const">
			<output>
				<port id="1" precision="FP32">
					<dim>96</dim>
				</port>
			</output>
			<blobs>
				<custom offset="3897100" precision="FP32" size="384"/>
			</blobs>
		</layer>
		<layer id="362" name="2139421398_const" type="Const">
			<output>
				<port id="1" precision="FP32">
					<dim>96</dim>
				</port>
			</output>
			<blobs>
				<custom offset="3896716" precision="FP32" size="384"/>
			</blobs>
		</layer>
		<layer id="363" name="2139521399_const" type="Const">
			<output>
				<port id="1" precision="FP32">
					<dim>96</dim>
				</port>
			</output>
			<blobs>
				<custom offset="3897100" precision="FP32" size="384"/>
			</blobs>
		</layer>
		<layer id="364" name="InceptionV3/InceptionV3/Mixed_5d/Branch_2/Conv2d_0c_3x3/convolution/fq_weights_1" type="FakeQuantize">
			<data levels="256"/>
			<input>
				<port id="0">
					<dim>96</dim>
					<dim>96</dim>
					<dim>3</dim>
					<dim>3</dim>
				</port>
				<port id="1">
					<dim>96</dim>
				</port>
				<port id="2">
					<dim>96</dim>
				</port>
				<port id="3">
					<dim>96</dim>
				</port>
				<port id="4">
					<dim>96</dim>
				</port>
			</input>
			<output>
				<port id="5" precision="FP32">
					<dim>96</dim>
					<dim>96</dim>
					<dim>3</dim>
					<dim>3</dim>
				</port>
			</output>
		</layer>
		<layer id="365" name="bias_data1216912170_const" type="Const">
			<output>
				<port id="1" precision="FP32">
					<dim>96</dim>
				</port>
			</output>
			<blobs>
				<custom offset="3897484" precision="FP32" size="384"/>
			</blobs>
		</layer>
		<layer id="366" name="InceptionV3/InceptionV3/Mixed_5d/Branch_2/Conv2d_0c_3x3/convolution" type="Convolution">
			<data auto_pad="same_upper" dilations="1,1" group="1" kernel="3,3" output="96" pads_begin="1,1" pads_end="1,1" strides="1,1"/>
			<input>
				<port id="0">
					<dim>1</dim>
					<dim>96</dim>
					<dim>35</dim>
					<dim>35</dim>
				</port>
				<port id="1">
					<dim>96</dim>
					<dim>96</dim>
					<dim>3</dim>
					<dim>3</dim>
				</port>
				<port id="2">
					<dim>96</dim>
				</port>
			</input>
			<output>
				<port id="3" precision="FP32">
					<dim>1</dim>
					<dim>96</dim>
					<dim>35</dim>
					<dim>35</dim>
				</port>
			</output>
		</layer>
		<layer id="367" name="InceptionV3/InceptionV3/Mixed_5d/Branch_2/Conv2d_0c_3x3/Relu" type="ReLU">
			<input>
				<port id="0">
					<dim>1</dim>
					<dim>96</dim>
					<dim>35</dim>
					<dim>35</dim>
				</port>
			</input>
			<output>
				<port id="1" precision="FP32">
					<dim>1</dim>
					<dim>96</dim>
					<dim>35</dim>
					<dim>35</dim>
				</port>
			</output>
		</layer>
		<layer id="368" name="2437024374_const" type="Const">
			<output>
				<port id="1" precision="FP32"/>
			</output>
			<blobs>
				<custom offset="3872" precision="FP32" size="4"/>
			</blobs>
		</layer>
		<layer id="369" name="2437124375_const" type="Const">
			<output>
				<port id="1" precision="FP32"/>
			</output>
			<blobs>
				<custom offset="3897868" precision="FP32" size="4"/>
			</blobs>
		</layer>
		<layer id="370" name="2437224376_const" type="Const">
			<output>
				<port id="1" precision="FP32"/>
			</output>
			<blobs>
				<custom offset="3872" precision="FP32" size="4"/>
			</blobs>
		</layer>
		<layer id="371" name="2437324377_const" type="Const">
			<output>
				<port id="1" precision="FP32"/>
			</output>
			<blobs>
				<custom offset="3897868" precision="FP32" size="4"/>
			</blobs>
		</layer>
		<layer id="372" name="InceptionV3/InceptionV3/Mixed_5d/concat_v2/fq_input_2" type="FakeQuantize">
			<data levels="256.0"/>
			<input>
				<port id="0">
					<dim>1</dim>
					<dim>96</dim>
					<dim>35</dim>
					<dim>35</dim>
				</port>
				<port id="1"/>
				<port id="2"/>
				<port id="3"/>
				<port id="4"/>
			</input>
			<output>
				<port id="5" precision="FP32">
					<dim>1</dim>
					<dim>96</dim>
					<dim>35</dim>
					<dim>35</dim>
				</port>
			</output>
		</layer>
		<layer id="373" name="InceptionV3/InceptionV3/Mixed_5d/Branch_3/AvgPool_0a_3x3/AvgPool" type="Pooling">
			<data auto_pad="same_upper" exclude-pad="true" kernel="3,3" pads_begin="1,1" pads_end="1,1" pool-method="avg" strides="1,1"/>
			<input>
				<port id="0">
					<dim>1</dim>
					<dim>288</dim>
					<dim>35</dim>
					<dim>35</dim>
				</port>
			</input>
			<output>
				<port id="1" precision="FP32">
					<dim>1</dim>
					<dim>288</dim>
					<dim>35</dim>
					<dim>35</dim>
				</port>
			</output>
		</layer>
		<layer id="374" name="2183221836_const" type="Const">
			<output>
				<port id="1" precision="FP32"/>
			</output>
			<blobs>
				<custom offset="3872" precision="FP32" size="4"/>
			</blobs>
		</layer>
		<layer id="375" name="2183321837_const" type="Const">
			<output>
				<port id="1" precision="FP32"/>
			</output>
			<blobs>
				<custom offset="3897872" precision="FP32" size="4"/>
			</blobs>
		</layer>
		<layer id="376" name="2183421838_const" type="Const">
			<output>
				<port id="1" precision="FP32"/>
			</output>
			<blobs>
				<custom offset="3872" precision="FP32" size="4"/>
			</blobs>
		</layer>
		<layer id="377" name="2183521839_const" type="Const">
			<output>
				<port id="1" precision="FP32"/>
			</output>
			<blobs>
				<custom offset="3897872" precision="FP32" size="4"/>
			</blobs>
		</layer>
		<layer id="378" name="InceptionV3/InceptionV3/Mixed_5d/Branch_3/Conv2d_0b_1x1/convolution/fq_input_0" type="FakeQuantize">
			<data levels="256.0"/>
			<input>
				<port id="0">
					<dim>1</dim>
					<dim>288</dim>
					<dim>35</dim>
					<dim>35</dim>
				</port>
				<port id="1"/>
				<port id="2"/>
				<port id="3"/>
				<port id="4"/>
			</input>
			<output>
				<port id="5" precision="FP32">
					<dim>1</dim>
					<dim>288</dim>
					<dim>35</dim>
					<dim>35</dim>
				</port>
			</output>
		</layer>
		<layer id="379" name="InceptionV3/InceptionV3/Mixed_5d/Branch_3/Conv2d_0b_1x1/BatchNorm/batchnorm/mul1217212174_const" type="Const">
			<output>
				<port id="1" precision="FP32">
					<dim>64</dim>
					<dim>288</dim>
					<dim>1</dim>
					<dim>1</dim>
				</port>
			</output>
			<blobs>
				<custom offset="3897876" precision="FP32" size="73728"/>
			</blobs>
		</layer>
		<layer id="380" name="2184221846_const" type="Const">
			<output>
				<port id="1" precision="FP32">
					<dim>64</dim>
				</port>
			</output>
			<blobs>
				<custom offset="3971604" precision="FP32" size="256"/>
			</blobs>
		</layer>
		<layer id="381" name="2184321847_const" type="Const">
			<output>
				<port id="1" precision="FP32">
					<dim>64</dim>
				</port>
			</output>
			<blobs>
				<custom offset="3971860" precision="FP32" size="256"/>
			</blobs>
		</layer>
		<layer id="382" name="2184421848_const" type="Const">
			<output>
				<port id="1" precision="FP32">
					<dim>64</dim>
				</port>
			</output>
			<blobs>
				<custom offset="3971604" precision="FP32" size="256"/>
			</blobs>
		</layer>
		<layer id="383" name="2184521849_const" type="Const">
			<output>
				<port id="1" precision="FP32">
					<dim>64</dim>
				</port>
			</output>
			<blobs>
				<custom offset="3971860" precision="FP32" size="256"/>
			</blobs>
		</layer>
		<layer id="384" name="InceptionV3/InceptionV3/Mixed_5d/Branch_3/Conv2d_0b_1x1/convolution/fq_weights_1" type="FakeQuantize">
			<data levels="256"/>
			<input>
				<port id="0">
					<dim>64</dim>
					<dim>288</dim>
					<dim>1</dim>
					<dim>1</dim>
				</port>
				<port id="1">
					<dim>64</dim>
				</port>
				<port id="2">
					<dim>64</dim>
				</port>
				<port id="3">
					<dim>64</dim>
				</port>
				<port id="4">
					<dim>64</dim>
				</port>
			</input>
			<output>
				<port id="5" precision="FP32">
					<dim>64</dim>
					<dim>288</dim>
					<dim>1</dim>
					<dim>1</dim>
				</port>
			</output>
		</layer>
		<layer id="385" name="bias_data1217512176_const" type="Const">
			<output>
				<port id="1" precision="FP32">
					<dim>64</dim>
				</port>
			</output>
			<blobs>
				<custom offset="3972116" precision="FP32" size="256"/>
			</blobs>
		</layer>
		<layer id="386" name="InceptionV3/InceptionV3/Mixed_5d/Branch_3/Conv2d_0b_1x1/convolution" type="Convolution">
			<data auto_pad="same_upper" dilations="1,1" group="1" kernel="1,1" output="64" pads_begin="0,0" pads_end="0,0" strides="1,1"/>
			<input>
				<port id="0">
					<dim>1</dim>
					<dim>288</dim>
					<dim>35</dim>
					<dim>35</dim>
				</port>
				<port id="1">
					<dim>64</dim>
					<dim>288</dim>
					<dim>1</dim>
					<dim>1</dim>
				</port>
				<port id="2">
					<dim>64</dim>
				</port>
			</input>
			<output>
				<port id="3" precision="FP32">
					<dim>1</dim>
					<dim>64</dim>
					<dim>35</dim>
					<dim>35</dim>
				</port>
			</output>
		</layer>
		<layer id="387" name="InceptionV3/InceptionV3/Mixed_5d/Branch_3/Conv2d_0b_1x1/Relu" type="ReLU">
			<input>
				<port id="0">
					<dim>1</dim>
					<dim>64</dim>
					<dim>35</dim>
					<dim>35</dim>
				</port>
			</input>
			<output>
				<port id="1" precision="FP32">
					<dim>1</dim>
					<dim>64</dim>
					<dim>35</dim>
					<dim>35</dim>
				</port>
			</output>
		</layer>
		<layer id="388" name="2438024384_const" type="Const">
			<output>
				<port id="1" precision="FP32"/>
			</output>
			<blobs>
				<custom offset="3872" precision="FP32" size="4"/>
			</blobs>
		</layer>
		<layer id="389" name="2438124385_const" type="Const">
			<output>
				<port id="1" precision="FP32"/>
			</output>
			<blobs>
				<custom offset="3972372" precision="FP32" size="4"/>
			</blobs>
		</layer>
		<layer id="390" name="2438224386_const" type="Const">
			<output>
				<port id="1" precision="FP32"/>
			</output>
			<blobs>
				<custom offset="3872" precision="FP32" size="4"/>
			</blobs>
		</layer>
		<layer id="391" name="2438324387_const" type="Const">
			<output>
				<port id="1" precision="FP32"/>
			</output>
			<blobs>
				<custom offset="3972372" precision="FP32" size="4"/>
			</blobs>
		</layer>
		<layer id="392" name="InceptionV3/InceptionV3/Mixed_5d/concat_v2/fq_input_3" type="FakeQuantize">
			<data levels="256.0"/>
			<input>
				<port id="0">
					<dim>1</dim>
					<dim>64</dim>
					<dim>35</dim>
					<dim>35</dim>
				</port>
				<port id="1"/>
				<port id="2"/>
				<port id="3"/>
				<port id="4"/>
			</input>
			<output>
				<port id="5" precision="FP32">
					<dim>1</dim>
					<dim>64</dim>
					<dim>35</dim>
					<dim>35</dim>
				</port>
			</output>
		</layer>
		<layer id="393" name="InceptionV3/InceptionV3/Mixed_5d/concat_v2" type="Concat">
			<data axis="1"/>
			<input>
				<port id="0">
					<dim>1</dim>
					<dim>64</dim>
					<dim>35</dim>
					<dim>35</dim>
				</port>
				<port id="1">
					<dim>1</dim>
					<dim>64</dim>
					<dim>35</dim>
					<dim>35</dim>
				</port>
				<port id="2">
					<dim>1</dim>
					<dim>96</dim>
					<dim>35</dim>
					<dim>35</dim>
				</port>
				<port id="3">
					<dim>1</dim>
					<dim>64</dim>
					<dim>35</dim>
					<dim>35</dim>
				</port>
			</input>
			<output>
				<port id="4" precision="FP32">
					<dim>1</dim>
					<dim>288</dim>
					<dim>35</dim>
					<dim>35</dim>
				</port>
			</output>
		</layer>
		<layer id="394" name="InceptionV3/InceptionV3/Mixed_6a/Branch_0/Conv2d_1a_1x1/BatchNorm/batchnorm/mul1221412216_const" type="Const">
			<output>
				<port id="1" precision="FP32">
					<dim>384</dim>
					<dim>288</dim>
					<dim>3</dim>
					<dim>3</dim>
				</port>
			</output>
			<blobs>
				<custom offset="3972376" precision="FP32" size="3981312"/>
			</blobs>
		</layer>
		<layer id="395" name="2194221946_const" type="Const">
			<output>
				<port id="1" precision="FP32">
					<dim>384</dim>
				</port>
			</output>
			<blobs>
				<custom offset="7953688" precision="FP32" size="1536"/>
			</blobs>
		</layer>
		<layer id="396" name="2194321947_const" type="Const">
			<output>
				<port id="1" precision="FP32">
					<dim>384</dim>
				</port>
			</output>
			<blobs>
				<custom offset="7955224" precision="FP32" size="1536"/>
			</blobs>
		</layer>
		<layer id="397" name="2194421948_const" type="Const">
			<output>
				<port id="1" precision="FP32">
					<dim>384</dim>
				</port>
			</output>
			<blobs>
				<custom offset="7953688" precision="FP32" size="1536"/>
			</blobs>
		</layer>
		<layer id="398" name="2194521949_const" type="Const">
			<output>
				<port id="1" precision="FP32">
					<dim>384</dim>
				</port>
			</output>
			<blobs>
				<custom offset="7955224" precision="FP32" size="1536"/>
			</blobs>
		</layer>
		<layer id="399" name="InceptionV3/InceptionV3/Mixed_6a/Branch_0/Conv2d_1a_1x1/convolution/fq_weights_1" type="FakeQuantize">
			<data levels="256"/>
			<input>
				<port id="0">
					<dim>384</dim>
					<dim>288</dim>
					<dim>3</dim>
					<dim>3</dim>
				</port>
				<port id="1">
					<dim>384</dim>
				</port>
				<port id="2">
					<dim>384</dim>
				</port>
				<port id="3">
					<dim>384</dim>
				</port>
				<port id="4">
					<dim>384</dim>
				</port>
			</input>
			<output>
				<port id="5" precision="FP32">
					<dim>384</dim>
					<dim>288</dim>
					<dim>3</dim>
					<dim>3</dim>
				</port>
			</output>
		</layer>
		<layer id="400" name="bias_data1221712218_const" type="Const">
			<output>
				<port id="1" precision="FP32">
					<dim>384</dim>
				</port>
			</output>
			<blobs>
				<custom offset="7956760" precision="FP32" size="1536"/>
			</blobs>
		</layer>
		<layer id="401" name="InceptionV3/InceptionV3/Mixed_6a/Branch_0/Conv2d_1a_1x1/convolution" type="Convolution">
			<data auto_pad="valid" dilations="1,1" group="1" kernel="3,3" output="384" pads_begin="0,0" pads_end="0,0" strides="2,2"/>
			<input>
				<port id="0">
					<dim>1</dim>
					<dim>288</dim>
					<dim>35</dim>
					<dim>35</dim>
				</port>
				<port id="1">
					<dim>384</dim>
					<dim>288</dim>
					<dim>3</dim>
					<dim>3</dim>
				</port>
				<port id="2">
					<dim>384</dim>
				</port>
			</input>
			<output>
				<port id="3" precision="FP32">
					<dim>1</dim>
					<dim>384</dim>
					<dim>17</dim>
					<dim>17</dim>
				</port>
			</output>
		</layer>
		<layer id="402" name="InceptionV3/InceptionV3/Mixed_6a/Branch_0/Conv2d_1a_1x1/Relu" type="ReLU">
			<input>
				<port id="0">
					<dim>1</dim>
					<dim>384</dim>
					<dim>17</dim>
					<dim>17</dim>
				</port>
			</input>
			<output>
				<port id="1" precision="FP32">
					<dim>1</dim>
					<dim>384</dim>
					<dim>17</dim>
					<dim>17</dim>
				</port>
			</output>
		</layer>
		<layer id="403" name="2443024434_const" type="Const">
			<output>
				<port id="1" precision="FP32"/>
			</output>
			<blobs>
				<custom offset="3872" precision="FP32" size="4"/>
			</blobs>
		</layer>
		<layer id="404" name="2443124435_const" type="Const">
			<output>
				<port id="1" precision="FP32"/>
			</output>
			<blobs>
				<custom offset="7958296" precision="FP32" size="4"/>
			</blobs>
		</layer>
		<layer id="405" name="2443224436_const" type="Const">
			<output>
				<port id="1" precision="FP32"/>
			</output>
			<blobs>
				<custom offset="3872" precision="FP32" size="4"/>
			</blobs>
		</layer>
		<layer id="406" name="2443324437_const" type="Const">
			<output>
				<port id="1" precision="FP32"/>
			</output>
			<blobs>
				<custom offset="7958296" precision="FP32" size="4"/>
			</blobs>
		</layer>
		<layer id="407" name="InceptionV3/InceptionV3/Mixed_6a/concat_v2/fq_input_0" type="FakeQuantize">
			<data levels="256.0"/>
			<input>
				<port id="0">
					<dim>1</dim>
					<dim>384</dim>
					<dim>17</dim>
					<dim>17</dim>
				</port>
				<port id="1"/>
				<port id="2"/>
				<port id="3"/>
				<port id="4"/>
			</input>
			<output>
				<port id="5" precision="FP32">
					<dim>1</dim>
					<dim>384</dim>
					<dim>17</dim>
					<dim>17</dim>
				</port>
			</output>
		</layer>
		<layer id="408" name="InceptionV3/InceptionV3/Mixed_6a/Branch_1/Conv2d_0a_1x1/BatchNorm/batchnorm/mul1219612198_const" type="Const">
			<output>
				<port id="1" precision="FP32">
					<dim>64</dim>
					<dim>288</dim>
					<dim>1</dim>
					<dim>1</dim>
				</port>
			</output>
			<blobs>
				<custom offset="7958300" precision="FP32" size="73728"/>
			</blobs>
		</layer>
		<layer id="409" name="2210222106_const" type="Const">
			<output>
				<port id="1" precision="FP32">
					<dim>64</dim>
				</port>
			</output>
			<blobs>
				<custom offset="8032028" precision="FP32" size="256"/>
			</blobs>
		</layer>
		<layer id="410" name="2210322107_const" type="Const">
			<output>
				<port id="1" precision="FP32">
					<dim>64</dim>
				</port>
			</output>
			<blobs>
				<custom offset="8032284" precision="FP32" size="256"/>
			</blobs>
		</layer>
		<layer id="411" name="2210422108_const" type="Const">
			<output>
				<port id="1" precision="FP32">
					<dim>64</dim>
				</port>
			</output>
			<blobs>
				<custom offset="8032028" precision="FP32" size="256"/>
			</blobs>
		</layer>
		<layer id="412" name="2210522109_const" type="Const">
			<output>
				<port id="1" precision="FP32">
					<dim>64</dim>
				</port>
			</output>
			<blobs>
				<custom offset="8032284" precision="FP32" size="256"/>
			</blobs>
		</layer>
		<layer id="413" name="InceptionV3/InceptionV3/Mixed_6a/Branch_1/Conv2d_0a_1x1/convolution/fq_weights_1" type="FakeQuantize">
			<data levels="256"/>
			<input>
				<port id="0">
					<dim>64</dim>
					<dim>288</dim>
					<dim>1</dim>
					<dim>1</dim>
				</port>
				<port id="1">
					<dim>64</dim>
				</port>
				<port id="2">
					<dim>64</dim>
				</port>
				<port id="3">
					<dim>64</dim>
				</port>
				<port id="4">
					<dim>64</dim>
				</port>
			</input>
			<output>
				<port id="5" precision="FP32">
					<dim>64</dim>
					<dim>288</dim>
					<dim>1</dim>
					<dim>1</dim>
				</port>
			</output>
		</layer>
		<layer id="414" name="bias_data1219912200_const" type="Const">
			<output>
				<port id="1" precision="FP32">
					<dim>64</dim>
				</port>
			</output>
			<blobs>
				<custom offset="8032540" precision="FP32" size="256"/>
			</blobs>
		</layer>
		<layer id="415" name="InceptionV3/InceptionV3/Mixed_6a/Branch_1/Conv2d_0a_1x1/convolution" type="Convolution">
			<data auto_pad="same_upper" dilations="1,1" group="1" kernel="1,1" output="64" pads_begin="0,0" pads_end="0,0" strides="1,1"/>
			<input>
				<port id="0">
					<dim>1</dim>
					<dim>288</dim>
					<dim>35</dim>
					<dim>35</dim>
				</port>
				<port id="1">
					<dim>64</dim>
					<dim>288</dim>
					<dim>1</dim>
					<dim>1</dim>
				</port>
				<port id="2">
					<dim>64</dim>
				</port>
			</input>
			<output>
				<port id="3" precision="FP32">
					<dim>1</dim>
					<dim>64</dim>
					<dim>35</dim>
					<dim>35</dim>
				</port>
			</output>
		</layer>
		<layer id="416" name="InceptionV3/InceptionV3/Mixed_6a/Branch_1/Conv2d_0a_1x1/Relu" type="ReLU">
			<input>
				<port id="0">
					<dim>1</dim>
					<dim>64</dim>
					<dim>35</dim>
					<dim>35</dim>
				</port>
			</input>
			<output>
				<port id="1" precision="FP32">
					<dim>1</dim>
					<dim>64</dim>
					<dim>35</dim>
					<dim>35</dim>
				</port>
			</output>
		</layer>
		<layer id="417" name="2253222536_const" type="Const">
			<output>
				<port id="1" precision="FP32"/>
			</output>
			<blobs>
				<custom offset="3872" precision="FP32" size="4"/>
			</blobs>
		</layer>
		<layer id="418" name="2253322537_const" type="Const">
			<output>
				<port id="1" precision="FP32"/>
			</output>
			<blobs>
				<custom offset="8032796" precision="FP32" size="4"/>
			</blobs>
		</layer>
		<layer id="419" name="2253422538_const" type="Const">
			<output>
				<port id="1" precision="FP32"/>
			</output>
			<blobs>
				<custom offset="3872" precision="FP32" size="4"/>
			</blobs>
		</layer>
		<layer id="420" name="2253522539_const" type="Const">
			<output>
				<port id="1" precision="FP32"/>
			</output>
			<blobs>
				<custom offset="8032796" precision="FP32" size="4"/>
			</blobs>
		</layer>
		<layer id="421" name="InceptionV3/InceptionV3/Mixed_6a/Branch_1/Conv2d_0b_3x3/convolution/fq_input_0" type="FakeQuantize">
			<data levels="256.0"/>
			<input>
				<port id="0">
					<dim>1</dim>
					<dim>64</dim>
					<dim>35</dim>
					<dim>35</dim>
				</port>
				<port id="1"/>
				<port id="2"/>
				<port id="3"/>
				<port id="4"/>
			</input>
			<output>
				<port id="5" precision="FP32">
					<dim>1</dim>
					<dim>64</dim>
					<dim>35</dim>
					<dim>35</dim>
				</port>
			</output>
		</layer>
		<layer id="422" name="InceptionV3/InceptionV3/Mixed_6a/Branch_1/Conv2d_0b_3x3/BatchNorm/batchnorm/mul1220212204_const" type="Const">
			<output>
				<port id="1" precision="FP32">
					<dim>96</dim>
					<dim>64</dim>
					<dim>3</dim>
					<dim>3</dim>
				</port>
			</output>
			<blobs>
				<custom offset="8032800" precision="FP32" size="221184"/>
			</blobs>
		</layer>
		<layer id="423" name="2254222546_const" type="Const">
			<output>
				<port id="1" precision="FP32">
					<dim>96</dim>
				</port>
			</output>
			<blobs>
				<custom offset="8253984" precision="FP32" size="384"/>
			</blobs>
		</layer>
		<layer id="424" name="2254322547_const" type="Const">
			<output>
				<port id="1" precision="FP32">
					<dim>96</dim>
				</port>
			</output>
			<blobs>
				<custom offset="8254368" precision="FP32" size="384"/>
			</blobs>
		</layer>
		<layer id="425" name="2254422548_const" type="Const">
			<output>
				<port id="1" precision="FP32">
					<dim>96</dim>
				</port>
			</output>
			<blobs>
				<custom offset="8253984" precision="FP32" size="384"/>
			</blobs>
		</layer>
		<layer id="426" name="2254522549_const" type="Const">
			<output>
				<port id="1" precision="FP32">
					<dim>96</dim>
				</port>
			</output>
			<blobs>
				<custom offset="8254368" precision="FP32" size="384"/>
			</blobs>
		</layer>
		<layer id="427" name="InceptionV3/InceptionV3/Mixed_6a/Branch_1/Conv2d_0b_3x3/convolution/fq_weights_1" type="FakeQuantize">
			<data levels="256"/>
			<input>
				<port id="0">
					<dim>96</dim>
					<dim>64</dim>
					<dim>3</dim>
					<dim>3</dim>
				</port>
				<port id="1">
					<dim>96</dim>
				</port>
				<port id="2">
					<dim>96</dim>
				</port>
				<port id="3">
					<dim>96</dim>
				</port>
				<port id="4">
					<dim>96</dim>
				</port>
			</input>
			<output>
				<port id="5" precision="FP32">
					<dim>96</dim>
					<dim>64</dim>
					<dim>3</dim>
					<dim>3</dim>
				</port>
			</output>
		</layer>
		<layer id="428" name="bias_data1220512206_const" type="Const">
			<output>
				<port id="1" precision="FP32">
					<dim>96</dim>
				</port>
			</output>
			<blobs>
				<custom offset="8254752" precision="FP32" size="384"/>
			</blobs>
		</layer>
		<layer id="429" name="InceptionV3/InceptionV3/Mixed_6a/Branch_1/Conv2d_0b_3x3/convolution" type="Convolution">
			<data auto_pad="same_upper" dilations="1,1" group="1" kernel="3,3" output="96" pads_begin="1,1" pads_end="1,1" strides="1,1"/>
			<input>
				<port id="0">
					<dim>1</dim>
					<dim>64</dim>
					<dim>35</dim>
					<dim>35</dim>
				</port>
				<port id="1">
					<dim>96</dim>
					<dim>64</dim>
					<dim>3</dim>
					<dim>3</dim>
				</port>
				<port id="2">
					<dim>96</dim>
				</port>
			</input>
			<output>
				<port id="3" precision="FP32">
					<dim>1</dim>
					<dim>96</dim>
					<dim>35</dim>
					<dim>35</dim>
				</port>
			</output>
		</layer>
		<layer id="430" name="InceptionV3/InceptionV3/Mixed_6a/Branch_1/Conv2d_0b_3x3/Relu" type="ReLU">
			<input>
				<port id="0">
					<dim>1</dim>
					<dim>96</dim>
					<dim>35</dim>
					<dim>35</dim>
				</port>
			</input>
			<output>
				<port id="1" precision="FP32">
					<dim>1</dim>
					<dim>96</dim>
					<dim>35</dim>
					<dim>35</dim>
				</port>
			</output>
		</layer>
		<layer id="431" name="2284222846_const" type="Const">
			<output>
				<port id="1" precision="FP32"/>
			</output>
			<blobs>
				<custom offset="3872" precision="FP32" size="4"/>
			</blobs>
		</layer>
		<layer id="432" name="2284322847_const" type="Const">
			<output>
				<port id="1" precision="FP32"/>
			</output>
			<blobs>
				<custom offset="8255136" precision="FP32" size="4"/>
			</blobs>
		</layer>
		<layer id="433" name="2284422848_const" type="Const">
			<output>
				<port id="1" precision="FP32"/>
			</output>
			<blobs>
				<custom offset="3872" precision="FP32" size="4"/>
			</blobs>
		</layer>
		<layer id="434" name="2284522849_const" type="Const">
			<output>
				<port id="1" precision="FP32"/>
			</output>
			<blobs>
				<custom offset="8255136" precision="FP32" size="4"/>
			</blobs>
		</layer>
		<layer id="435" name="InceptionV3/InceptionV3/Mixed_6a/Branch_1/Conv2d_1a_1x1/convolution/fq_input_0" type="FakeQuantize">
			<data levels="256.0"/>
			<input>
				<port id="0">
					<dim>1</dim>
					<dim>96</dim>
					<dim>35</dim>
					<dim>35</dim>
				</port>
				<port id="1"/>
				<port id="2"/>
				<port id="3"/>
				<port id="4"/>
			</input>
			<output>
				<port id="5" precision="FP32">
					<dim>1</dim>
					<dim>96</dim>
					<dim>35</dim>
					<dim>35</dim>
				</port>
			</output>
		</layer>
		<layer id="436" name="InceptionV3/InceptionV3/Mixed_6a/Branch_1/Conv2d_1a_1x1/BatchNorm/batchnorm/mul1220812210_const" type="Const">
			<output>
				<port id="1" precision="FP32">
					<dim>96</dim>
					<dim>96</dim>
					<dim>3</dim>
					<dim>3</dim>
				</port>
			</output>
			<blobs>
				<custom offset="8255140" precision="FP32" size="331776"/>
			</blobs>
		</layer>
		<layer id="437" name="2285222856_const" type="Const">
			<output>
				<port id="1" precision="FP32">
					<dim>96</dim>
				</port>
			</output>
			<blobs>
				<custom offset="8586916" precision="FP32" size="384"/>
			</blobs>
		</layer>
		<layer id="438" name="2285322857_const" type="Const">
			<output>
				<port id="1" precision="FP32">
					<dim>96</dim>
				</port>
			</output>
			<blobs>
				<custom offset="8587300" precision="FP32" size="384"/>
			</blobs>
		</layer>
		<layer id="439" name="2285422858_const" type="Const">
			<output>
				<port id="1" precision="FP32">
					<dim>96</dim>
				</port>
			</output>
			<blobs>
				<custom offset="8586916" precision="FP32" size="384"/>
			</blobs>
		</layer>
		<layer id="440" name="2285522859_const" type="Const">
			<output>
				<port id="1" precision="FP32">
					<dim>96</dim>
				</port>
			</output>
			<blobs>
				<custom offset="8587300" precision="FP32" size="384"/>
			</blobs>
		</layer>
		<layer id="441" name="InceptionV3/InceptionV3/Mixed_6a/Branch_1/Conv2d_1a_1x1/convolution/fq_weights_1" type="FakeQuantize">
			<data levels="256"/>
			<input>
				<port id="0">
					<dim>96</dim>
					<dim>96</dim>
					<dim>3</dim>
					<dim>3</dim>
				</port>
				<port id="1">
					<dim>96</dim>
				</port>
				<port id="2">
					<dim>96</dim>
				</port>
				<port id="3">
					<dim>96</dim>
				</port>
				<port id="4">
					<dim>96</dim>
				</port>
			</input>
			<output>
				<port id="5" precision="FP32">
					<dim>96</dim>
					<dim>96</dim>
					<dim>3</dim>
					<dim>3</dim>
				</port>
			</output>
		</layer>
		<layer id="442" name="bias_data1221112212_const" type="Const">
			<output>
				<port id="1" precision="FP32">
					<dim>96</dim>
				</port>
			</output>
			<blobs>
				<custom offset="8587684" precision="FP32" size="384"/>
			</blobs>
		</layer>
		<layer id="443" name="InceptionV3/InceptionV3/Mixed_6a/Branch_1/Conv2d_1a_1x1/convolution" type="Convolution">
			<data auto_pad="valid" dilations="1,1" group="1" kernel="3,3" output="96" pads_begin="0,0" pads_end="0,0" strides="2,2"/>
			<input>
				<port id="0">
					<dim>1</dim>
					<dim>96</dim>
					<dim>35</dim>
					<dim>35</dim>
				</port>
				<port id="1">
					<dim>96</dim>
					<dim>96</dim>
					<dim>3</dim>
					<dim>3</dim>
				</port>
				<port id="2">
					<dim>96</dim>
				</port>
			</input>
			<output>
				<port id="3" precision="FP32">
					<dim>1</dim>
					<dim>96</dim>
					<dim>17</dim>
					<dim>17</dim>
				</port>
			</output>
		</layer>
		<layer id="444" name="InceptionV3/InceptionV3/Mixed_6a/Branch_1/Conv2d_1a_1x1/Relu" type="ReLU">
			<input>
				<port id="0">
					<dim>1</dim>
					<dim>96</dim>
					<dim>17</dim>
					<dim>17</dim>
				</port>
			</input>
			<output>
				<port id="1" precision="FP32">
					<dim>1</dim>
					<dim>96</dim>
					<dim>17</dim>
					<dim>17</dim>
				</port>
			</output>
		</layer>
		<layer id="445" name="2444024444_const" type="Const">
			<output>
				<port id="1" precision="FP32"/>
			</output>
			<blobs>
				<custom offset="3872" precision="FP32" size="4"/>
			</blobs>
		</layer>
		<layer id="446" name="2444124445_const" type="Const">
			<output>
				<port id="1" precision="FP32"/>
			</output>
			<blobs>
				<custom offset="8588068" precision="FP32" size="4"/>
			</blobs>
		</layer>
		<layer id="447" name="2444224446_const" type="Const">
			<output>
				<port id="1" precision="FP32"/>
			</output>
			<blobs>
				<custom offset="3872" precision="FP32" size="4"/>
			</blobs>
		</layer>
		<layer id="448" name="2444324447_const" type="Const">
			<output>
				<port id="1" precision="FP32"/>
			</output>
			<blobs>
				<custom offset="8588068" precision="FP32" size="4"/>
			</blobs>
		</layer>
		<layer id="449" name="InceptionV3/InceptionV3/Mixed_6a/concat_v2/fq_input_1" type="FakeQuantize">
			<data levels="256.0"/>
			<input>
				<port id="0">
					<dim>1</dim>
					<dim>96</dim>
					<dim>17</dim>
					<dim>17</dim>
				</port>
				<port id="1"/>
				<port id="2"/>
				<port id="3"/>
				<port id="4"/>
			</input>
			<output>
				<port id="5" precision="FP32">
					<dim>1</dim>
					<dim>96</dim>
					<dim>17</dim>
					<dim>17</dim>
				</port>
			</output>
		</layer>
		<layer id="450" name="InceptionV3/InceptionV3/Mixed_6a/Branch_2/MaxPool_1a_3x3/MaxPool" type="Pooling">
			<data auto_pad="valid" exclude-pad="true" kernel="3,3" pads_begin="0,0" pads_end="0,0" pool-method="max" strides="2,2"/>
			<input>
				<port id="0">
					<dim>1</dim>
					<dim>288</dim>
					<dim>35</dim>
					<dim>35</dim>
				</port>
			</input>
			<output>
				<port id="1" precision="FP32">
					<dim>1</dim>
					<dim>288</dim>
					<dim>17</dim>
					<dim>17</dim>
				</port>
			</output>
		</layer>
		<layer id="451" name="InceptionV3/InceptionV3/Mixed_6a/concat_v2" type="Concat">
			<data axis="1"/>
			<input>
				<port id="0">
					<dim>1</dim>
					<dim>384</dim>
					<dim>17</dim>
					<dim>17</dim>
				</port>
				<port id="1">
					<dim>1</dim>
					<dim>96</dim>
					<dim>17</dim>
					<dim>17</dim>
				</port>
				<port id="2">
					<dim>1</dim>
					<dim>288</dim>
					<dim>17</dim>
					<dim>17</dim>
				</port>
			</input>
			<output>
				<port id="3" precision="FP32">
					<dim>1</dim>
					<dim>768</dim>
					<dim>17</dim>
					<dim>17</dim>
				</port>
			</output>
		</layer>
		<layer id="452" name="InceptionV3/InceptionV3/Mixed_6b/Branch_0/Conv2d_0a_1x1/BatchNorm/batchnorm/mul1224412246_const" type="Const">
			<output>
				<port id="1" precision="FP32">
					<dim>192</dim>
					<dim>768</dim>
					<dim>1</dim>
…
		<edge from-layer="710" from-port="5" to-layer="718" to-port="0"/>
		<edge from-layer="716" from-port="5" to-layer="718" to-port="1"/>
		<edge from-layer="717" from-port="1" to-layer="718" to-port="2"/>
		<edge from-layer="718" from-port="3" to-layer="719" to-port="0"/>
		<edge from-layer="719" from-port="1" to-layer="724" to-port="0"/>
		<edge from-layer="720" from-port="1" to-layer="724" to-port="1"/>
		<edge from-layer="721" from-port="1" to-layer="724" to-port="2"/>
		<edge from-layer="722" from-port="1" to-layer="724" to-port="3"/>
		<edge from-layer="723" from-port="1" to-layer="724" to-port="4"/>
		<edge from-layer="598" from-port="4" to-layer="725" to-port="0"/>
		<edge from-layer="725" from-port="1" to-layer="730" to-port="0"/>
		<edge from-layer="726" from-port="1" to-layer="730" to-port="1"/>
		<edge from-layer="727" from-port="1" to-layer="730" to-port="2"/>
		<edge from-layer="728" from-port="1" to-layer="730" to-port="3"/>
		<edge from-layer="729" from-port="1" to-layer="730" to-port="4"/>
		<edge from-layer="731" from-port="1" to-layer="736" to-port="0"/>
		<edge from-layer="732" from-port="1" to-layer="736" to-port="1"/>
		<edge from-layer="733" from-port="1" to-layer="736" to-port="2"/>
		<edge from-layer="734" from-port="1" to-layer="736" to-port="3"/>
		<edge from-layer="735" from-port="1" to-layer="736" to-port="4"/>
		<edge from-layer="730" from-port="5" to-layer="738" to-port="0"/>
		<edge from-layer="736" from-port="5" to-layer="738" to-port="1"/>
		<edge from-layer="737" from-port="1" to-layer="738" to-port="2"/>
		<edge from-layer="738" from-port="3" to-layer="739" to-port="0"/>
		<edge from-layer="739" from-port="1" to-layer="744" to-port="0"/>
		<edge from-layer="740" from-port="1" to-layer="744" to-port="1"/>
		<edge from-layer="741" from-port="1" to-layer="744" to-port="2"/>
		<edge from-layer="742" from-port="1" to-layer="744" to-port="3"/>
		<edge from-layer="743" from-port="1" to-layer="744" to-port="4"/>
		<edge from-layer="612" from-port="5" to-layer="745" to-port="0"/>
		<edge from-layer="654" from-port="5" to-layer="745" to-port="1"/>
		<edge from-layer="724" from-port="5" to-layer="745" to-port="2"/>
		<edge from-layer="744" from-port="5" to-layer="745" to-port="3"/>
		<edge from-layer="746" from-port="1" to-layer="751" to-port="0"/>
		<edge from-layer="747" from-port="1" to-layer="751" to-port="1"/>
		<edge from-layer="748" from-port="1" to-layer="751" to-port="2"/>
		<edge from-layer="749" from-port="1" to-layer="751" to-port="3"/>
		<edge from-layer="750" from-port="1" to-layer="751" to-port="4"/>
		<edge from-layer="745" from-port="4" to-layer="753" to-port="0"/>
		<edge from-layer="751" from-port="5" to-layer="753" to-port="1"/>
		<edge from-layer="752" from-port="1" to-layer="753" to-port="2"/>
		<edge from-layer="753" from-port="3" to-layer="754" to-port="0"/>
		<edge from-layer="754" from-port="1" to-layer="759" to-port="0"/>
		<edge from-layer="755" from-port="1" to-layer="759" to-port="1"/>
		<edge from-layer="756" from-port="1" to-layer="759" to-port="2"/>
		<edge from-layer="757" from-port="1" to-layer="759" to-port="3"/>
		<edge from-layer="758" from-port="1" to-layer="759" to-port="4"/>
		<edge from-layer="760" from-port="1" to-layer="765" to-port="0"/>
		<edge from-layer="761" from-port="1" to-layer="765" to-port="1"/>
		<edge from-layer="762" from-port="1" to-layer="765" to-port="2"/>
		<edge from-layer="763" from-port="1" to-layer="765" to-port="3"/>
		<edge from-layer="764" from-port="1" to-layer="765" to-port="4"/>
		<edge from-layer="745" from-port="4" to-layer="767" to-port="0"/>
		<edge from-layer="765" from-port="5" to-layer="767" to-port="1"/>
		<edge from-layer="766" from-port="1" to-layer="767" to-port="2"/>
		<edge from-layer="767" from-port="3" to-layer="768" to-port="0"/>
		<edge from-layer="768" from-port="1" to-layer="773" to-port="0"/>
		<edge from-layer="769" from-port="1" to-layer="773" to-port="1"/>
		<edge from-layer="770" from-port="1" to-layer="773" to-port="2"/>
		<edge from-layer="771" from-port="1" to-layer="773" to-port="3"/>
		<edge from-layer="772" from-port="1" to-layer="773" to-port="4"/>
		<edge from-layer="774" from-port="1" to-layer="779" to-port="0"/>
		<edge from-layer="775" from-port="1" to-layer="779" to-port="1"/>
		<edge from-layer="776" from-port="1" to-layer="779" to-port="2"/>
		<edge from-layer="777" from-port="1" to-layer="779" to-port="3"/>
		<edge from-layer="778" from-port="1" to-layer="779" to-port="4"/>
		<edge from-layer="773" from-port="5" to-layer="781" to-port="0"/>
		<edge from-layer="779" from-port="5" to-layer="781" to-port="1"/>
		<edge from-layer="780" from-port="1" to-layer="781" to-port="2"/>
		<edge from-layer="781" from-port="3" to-layer="782" to-port="0"/>
		<edge from-layer="782" from-port="1" to-layer="787" to-port="0"/>
		<edge from-layer="783" from-port="1" to-layer="787" to-port="1"/>
		<edge from-layer="784" from-port="1" to-layer="787" to-port="2"/>
		<edge from-layer="785" from-port="1" to-layer="787" to-port="3"/>
		<edge from-layer="786" from-port="1" to-layer="787" to-port="4"/>
		<edge from-layer="788" from-port="1" to-layer="793" to-port="0"/>
		<edge from-layer="789" from-port="1" to-layer="793" to-port="1"/>
		<edge from-layer="790" from-port="1" to-layer="793" to-port="2"/>
		<edge from-layer="791" from-port="1" to-layer="793" to-port="3"/>
		<edge from-layer="792" from-port="1" to-layer="793" to-port="4"/>
		<edge from-layer="787" from-port="5" to-layer="795" to-port="0"/>
		<edge from-layer="793" from-port="5" to-layer="795" to-port="1"/>
		<edge from-layer="794" from-port="1" to-layer="795" to-port="2"/>
		<edge from-layer="795" from-port="3" to-layer="796" to-port="0"/>
		<edge from-layer="796" from-port="1" to-layer="801" to-port="0"/>
		<edge from-layer="797" from-port="1" to-layer="801" to-port="1"/>
		<edge from-layer="798" from-port="1" to-layer="801" to-port="2"/>
		<edge from-layer="799" from-port="1" to-layer="801" to-port="3"/>
		<edge from-layer="800" from-port="1" to-layer="801" to-port="4"/>
		<edge from-layer="802" from-port="1" to-layer="807" to-port="0"/>
		<edge from-layer="803" from-port="1" to-layer="807" to-port="1"/>
		<edge from-layer="804" from-port="1" to-layer="807" to-port="2"/>
		<edge from-layer="805" from-port="1" to-layer="807" to-port="3"/>
		<edge from-layer="806" from-port="1" to-layer="807" to-port="4"/>
		<edge from-layer="745" from-port="4" to-layer="809" to-port="0"/>
		<edge from-layer="807" from-port="5" to-layer="809" to-port="1"/>
		<edge from-layer="808" from-port="1" to-layer="809" to-port="2"/>
		<edge from-layer="809" from-port="3" to-layer="810" to-port="0"/>
		<edge from-layer="810" from-port="1" to-layer="815" to-port="0"/>
		<edge from-layer="811" from-port="1" to-layer="815" to-port="1"/>
		<edge from-layer="812" from-port="1" to-layer="815" to-port="2"/>
		<edge from-layer="813" from-port="1" to-layer="815" to-port="3"/>
		<edge from-layer="814" from-port="1" to-layer="815" to-port="4"/>
		<edge from-layer="816" from-port="1" to-layer="821" to-port="0"/>
		<edge from-layer="817" from-port="1" to-layer="821" to-port="1"/>
		<edge from-layer="818" from-port="1" to-layer="821" to-port="2"/>
		<edge from-layer="819" from-port="1" to-layer="821" to-port="3"/>
		<edge from-layer="820" from-port="1" to-layer="821" to-port="4"/>
		<edge from-layer="815" from-port="5" to-layer="823" to-port="0"/>
		<edge from-layer="821" from-port="5" to-layer="823" to-port="1"/>
		<edge from-layer="822" from-port="1" to-layer="823" to-port="2"/>
		<edge from-layer="823" from-port="3" to-layer="824" to-port="0"/>
		<edge from-layer="824" from-port="1" to-layer="829" to-port="0"/>
		<edge from-layer="825" from-port="1" to-layer="829" to-port="1"/>
		<edge from-layer="826" from-port="1" to-layer="829" to-port="2"/>
		<edge from-layer="827" from-port="1" to-layer="829" to-port="3"/>
		<edge from-layer="828" from-port="1" to-layer="829" to-port="4"/>
		<edge from-layer="830" from-port="1" to-layer="835" to-port="0"/>
		<edge from-layer="831" from-port="1" to-layer="835" to-port="1"/>
		<edge from-layer="832" from-port="1" to-layer="835" to-port="2"/>
		<edge from-layer="833" from-port="1" to-layer="835" to-port="3"/>
		<edge from-layer="834" from-port="1" to-layer="835" to-port="4"/>
		<edge from-layer="829" from-port="5" to-layer="837" to-port="0"/>
		<edge from-layer="835" from-port="5" to-layer="837" to-port="1"/>
		<edge from-layer="836" from-port="1" to-layer="837" to-port="2"/>
		<edge from-layer="837" from-port="3" to-layer="838" to-port="0"/>
		<edge from-layer="838" from-port="1" to-layer="843" to-port="0"/>
		<edge from-layer="839" from-port="1" to-layer="843" to-port="1"/>
		<edge from-layer="840" from-port="1" to-layer="843" to-port="2"/>
		<edge from-layer="841" from-port="1" to-layer="843" to-port="3"/>
		<edge from-layer="842" from-port="1" to-layer="843" to-port="4"/>
		<edge from-layer="844" from-port="1" to-layer="849" to-port="0"/>
		<edge from-layer="845" from-port="1" to-layer="849" to-port="1"/>
		<edge from-layer="846" from-port="1" to-layer="849" to-port="2"/>
		<edge from-layer="847" from-port="1" to-layer="849" to-port="3"/>
		<edge from-layer="848" from-port="1" to-layer="849" to-port="4"/>
		<edge from-layer="843" from-port="5" to-layer="851" to-port="0"/>
		<edge from-layer="849" from-port="5" to-layer="851" to-port="1"/>
		<edge from-layer="850" from-port="1" to-layer="851" to-port="2"/>
		<edge from-layer="851" from-port="3" to-layer="852" to-port="0"/>
		<edge from-layer="852" from-port="1" to-layer="857" to-port="0"/>
		<edge from-layer="853" from-port="1" to-layer="857" to-port="1"/>
		<edge from-layer="854" from-port="1" to-layer="857" to-port="2"/>
		<edge from-layer="855" from-port="1" to-layer="857" to-port="3"/>
		<edge from-layer="856" from-port="1" to-layer="857" to-port="4"/>
		<edge from-layer="858" from-port="1" to-layer="863" to-port="0"/>
		<edge from-layer="859" from-port="1" to-layer="863" to-port="1"/>
		<edge from-layer="860" from-port="1" to-layer="863" to-port="2"/>
		<edge from-layer="861" from-port="1" to-layer="863" to-port="3"/>
		<edge from-layer="862" from-port="1" to-layer="863" to-port="4"/>
		<edge from-layer="857" from-port="5" to-layer="865" to-port="0"/>
		<edge from-layer="863" from-port="5" to-layer="865" to-port="1"/>
		<edge from-layer="864" from-port="1" to-layer="865" to-port="2"/>
		<edge from-layer="865" from-port="3" to-layer="866" to-port="0"/>
		<edge from-layer="866" from-port="1" to-layer="871" to-port="0"/>
		<edge from-layer="867" from-port="1" to-layer="871" to-port="1"/>
		<edge from-layer="868" from-port="1" to-layer="871" to-port="2"/>
		<edge from-layer="869" from-port="1" to-layer="871" to-port="3"/>
		<edge from-layer="870" from-port="1" to-layer="871" to-port="4"/>
		<edge from-layer="745" from-port="4" to-layer="872" to-port="0"/>
		<edge from-layer="872" from-port="1" to-layer="877" to-port="0"/>
		<edge from-layer="873" from-port="1" to-layer="877" to-port="1"/>
		<edge from-layer="874" from-port="1" to-layer="877" to-port="2"/>
		<edge from-layer="875" from-port="1" to-layer="877" to-port="3"/>
		<edge from-layer="876" from-port="1" to-layer="877" to-port="4"/>
		<edge from-layer="878" from-port="1" to-layer="883" to-port="0"/>
		<edge from-layer="879" from-port="1" to-layer="883" to-port="1"/>
		<edge from-layer="880" from-port="1" to-layer="883" to-port="2"/>
		<edge from-layer="881" from-port="1" to-layer="883" to-port="3"/>
		<edge from-layer="882" from-port="1" to-layer="883" to-port="4"/>
		<edge from-layer="877" from-port="5" to-layer="885" to-port="0"/>
		<edge from-layer="883" from-port="5" to-layer="885" to-port="1"/>
		<edge from-layer="884" from-port="1" to-layer="885" to-port="2"/>
		<edge from-layer="885" from-port="3" to-layer="886" to-port="0"/>
		<edge from-layer="886" from-port="1" to-layer="891" to-port="0"/>
		<edge from-layer="887" from-port="1" to-layer="891" to-port="1"/>
		<edge from-layer="888" from-port="1" to-layer="891" to-port="2"/>
		<edge from-layer="889" from-port="1" to-layer="891" to-port="3"/>
		<edge from-layer="890" from-port="1" to-layer="891" to-port="4"/>
		<edge from-layer="759" from-port="5" to-layer="892" to-port="0"/>
		<edge from-layer="801" from-port="5" to-layer="892" to-port="1"/>
		<edge from-layer="871" from-port="5" to-layer="892" to-port="2"/>
		<edge from-layer="891" from-port="5" to-layer="892" to-port="3"/>
		<edge from-layer="893" from-port="1" to-layer="898" to-port="0"/>
		<edge from-layer="894" from-port="1" to-layer="898" to-port="1"/>
		<edge from-layer="895" from-port="1" to-layer="898" to-port="2"/>
		<edge from-layer="896" from-port="1" to-layer="898" to-port="3"/>
		<edge from-layer="897" from-port="1" to-layer="898" to-port="4"/>
		<edge from-layer="892" from-port="4" to-layer="900" to-port="0"/>
		<edge from-layer="898" from-port="5" to-layer="900" to-port="1"/>
		<edge from-layer="899" from-port="1" to-layer="900" to-port="2"/>
		<edge from-layer="900" from-port="3" to-layer="901" to-port="0"/>
		<edge from-layer="901" from-port="1" to-layer="906" to-port="0"/>
		<edge from-layer="902" from-port="1" to-layer="906" to-port="1"/>
		<edge from-layer="903" from-port="1" to-layer="906" to-port="2"/>
		<edge from-layer="904" from-port="1" to-layer="906" to-port="3"/>
		<edge from-layer="905" from-port="1" to-layer="906" to-port="4"/>
		<edge from-layer="907" from-port="1" to-layer="912" to-port="0"/>
		<edge from-layer="908" from-port="1" to-layer="912" to-port="1"/>
		<edge from-layer="909" from-port="1" to-layer="912" to-port="2"/>
		<edge from-layer="910" from-port="1" to-layer="912" to-port="3"/>
		<edge from-layer="911" from-port="1" to-layer="912" to-port="4"/>
		<edge from-layer="892" from-port="4" to-layer="914" to-port="0"/>
		<edge from-layer="912" from-port="5" to-layer="914" to-port="1"/>
		<edge from-layer="913" from-port="1" to-layer="914" to-port="2"/>
		<edge from-layer="914" from-port="3" to-layer="915" to-port="0"/>
		<edge from-layer="915" from-port="1" to-layer="920" to-port="0"/>
		<edge from-layer="916" from-port="1" to-layer="920" to-port="1"/>
		<edge from-layer="917" from-port="1" to-layer="920" to-port="2"/>
		<edge from-layer="918" from-port="1" to-layer="920" to-port="3"/>
		<edge from-layer="919" from-port="1" to-layer="920" to-port="4"/>
		<edge from-layer="921" from-port="1" to-layer="926" to-port="0"/>
		<edge from-layer="922" from-port="1" to-layer="926" to-port="1"/>
		<edge from-layer="923" from-port="1" to-layer="926" to-port="2"/>
		<edge from-layer="924" from-port="1" to-layer="926" to-port="3"/>
		<edge from-layer="925" from-port="1" to-layer="926" to-port="4"/>
		<edge from-layer="920" from-port="5" to-layer="928" to-port="0"/>
		<edge from-layer="926" from-port="5" to-layer="928" to-port="1"/>
		<edge from-layer="927" from-port="1" to-layer="928" to-port="2"/>
		<edge from-layer="928" from-port="3" to-layer="929" to-port="0"/>
		<edge from-layer="929" from-port="1" to-layer="934" to-port="0"/>
		<edge from-layer="930" from-port="1" to-layer="934" to-port="1"/>
		<edge from-layer="931" from-port="1" to-layer="934" to-port="2"/>
		<edge from-layer="932" from-port="1" to-layer="934" to-port="3"/>
		<edge from-layer="933" from-port="1" to-layer="934" to-port="4"/>
		<edge from-layer="935" from-port="1" to-layer="940" to-port="0"/>
		<edge from-layer="936" from-port="1" to-layer="940" to-port="1"/>
		<edge from-layer="937" from-port="1" to-layer="940" to-port="2"/>
		<edge from-layer="938" from-port="1" to-layer="940" to-port="3"/>
		<edge from-layer="939" from-port="1" to-layer="940" to-port="4"/>
		<edge from-layer="934" from-port="5" to-layer="942" to-port="0"/>
		<edge from-layer="940" from-port="5" to-layer="942" to-port="1"/>
		<edge from-layer="941" from-port="1" to-layer="942" to-port="2"/>
		<edge from-layer="942" from-port="3" to-layer="943" to-port="0"/>
		<edge from-layer="943" from-port="1" to-layer="948" to-port="0"/>
		<edge from-layer="944" from-port="1" to-layer="948" to-port="1"/>
		<edge from-layer="945" from-port="1" to-layer="948" to-port="2"/>
		<edge from-layer="946" from-port="1" to-layer="948" to-port="3"/>
		<edge from-layer="947" from-port="1" to-layer="948" to-port="4"/>
		<edge from-layer="949" from-port="1" to-layer="954" to-port="0"/>
		<edge from-layer="950" from-port="1" to-layer="954" to-port="1"/>
		<edge from-layer="951" from-port="1" to-layer="954" to-port="2"/>
		<edge from-layer="952" from-port="1" to-layer="954" to-port="3"/>
		<edge from-layer="953" from-port="1" to-layer="954" to-port="4"/>
		<edge from-layer="892" from-port="4" to-layer="956" to-port="0"/>
		<edge from-layer="954" from-port="5" to-layer="956" to-port="1"/>
		<edge from-layer="955" from-port="1" to-layer="956" to-port="2"/>
		<edge from-layer="956" from-port="3" to-layer="957" to-port="0"/>
		<edge from-layer="957" from-port="1" to-layer="962" to-port="0"/>
		<edge from-layer="958" from-port="1" to-layer="962" to-port="1"/>
		<edge from-layer="959" from-port="1" to-layer="962" to-port="2"/>
		<edge from-layer="960" from-port="1" to-layer="962" to-port="3"/>
		<edge from-layer="961" from-port="1" to-layer="962" to-port="4"/>
		<edge from-layer="963" from-port="1" to-layer="968" to-port="0"/>
		<edge from-layer="964" from-port="1" to-layer="968" to-port="1"/>
		<edge from-layer="965" from-port="1" to-layer="968" to-port="2"/>
		<edge from-layer="966" from-port="1" to-layer="968" to-port="3"/>
		<edge from-layer="967" from-port="1" to-layer="968" to-port="4"/>
		<edge from-layer="962" from-port="5" to-layer="970" to-port="0"/>
		<edge from-layer="968" from-port="5" to-layer="970" to-port="1"/>
		<edge from-layer="969" from-port="1" to-layer="970" to-port="2"/>
		<edge from-layer="970" from-port="3" to-layer="971" to-port="0"/>
		<edge from-layer="971" from-port="1" to-layer="976" to-port="0"/>
		<edge from-layer="972" from-port="1" to-layer="976" to-port="1"/>
		<edge from-layer="973" from-port="1" to-layer="976" to-port="2"/>
		<edge from-layer="974" from-port="1" to-layer="976" to-port="3"/>
		<edge from-layer="975" from-port="1" to-layer="976" to-port="4"/>
		<edge from-layer="977" from-port="1" to-layer="982" to-port="0"/>
		<edge from-layer="978" from-port="1" to-layer="982" to-port="1"/>
		<edge from-layer="979" from-port="1" to-layer="982" to-port="2"/>
		<edge from-layer="980" from-port="1" to-layer="982" to-port="3"/>
		<edge from-layer="981" from-port="1" to-layer="982" to-port="4"/>
		<edge from-layer="976" from-port="5" to-layer="984" to-port="0"/>
		<edge from-layer="982" from-port="5" to-layer="984" to-port="1"/>
		<edge from-layer="983" from-port="1" to-layer="984" to-port="2"/>
		<edge from-layer="984" from-port="3" to-layer="985" to-port="0"/>
		<edge from-layer="985" from-port="1" to-layer="990" to-port="0"/>
		<edge from-layer="986" from-port="1" to-layer="990" to-port="1"/>
		<edge from-layer="987" from-port="1" to-layer="990" to-port="2"/>
		<edge from-layer="988" from-port="1" to-layer="990" to-port="3"/>
		<edge from-layer="989" from-port="1" to-layer="990" to-port="4"/>
		<edge from-layer="991" from-port="1" to-layer="996" to-port="0"/>
		<edge from-layer="992" from-port="1" to-layer="996" to-port="1"/>
		<edge from-layer="993" from-port="1" to-layer="996" to-port="2"/>
		<edge from-layer="994" from-port="1" to-layer="996" to-port="3"/>
		<edge from-layer="995" from-port="1" to-layer="996" to-port="4"/>
		<edge from-layer="990" from-port="5" to-layer="998" to-port="0"/>
		<edge from-layer="996" from-port="5" to-layer="998" to-port="1"/>
		<edge from-layer="997" from-port="1" to-layer="998" to-port="2"/>
		<edge from-layer="998" from-port="3" to-layer="999" to-port="0"/>
		<edge from-layer="999" from-port="1" to-layer="1004" to-port="0"/>
		<edge from-layer="1000" from-port="1" to-layer="1004" to-port="1"/>
		<edge from-layer="1001" from-port="1" to-layer="1004" to-port="2"/>
		<edge from-layer="1002" from-port="1" to-layer="1004" to-port="3"/>
		<edge from-layer="1003" from-port="1" to-layer="1004" to-port="4"/>
		<edge from-layer="1005" from-port="1" to-layer="1010" to-port="0"/>
		<edge from-layer="1006" from-port="1" to-layer="1010" to-port="1"/>
		<edge from-layer="1007" from-port="1" to-layer="1010" to-port="2"/>
		<edge from-layer="1008" from-port="1" to-layer="1010" to-port="3"/>
		<edge from-layer="1009" from-port="1" to-layer="1010" to-port="4"/>
		<edge from-layer="1004" from-port="5" to-layer="1012" to-port="0"/>
		<edge from-layer="1010" from-port="5" to-layer="1012" to-port="1"/>
		<edge from-layer="1011" from-port="1" to-layer="1012" to-port="2"/>
		<edge from-layer="1012" from-port="3" to-layer="1013" to-port="0"/>
		<edge from-layer="1013" from-port="1" to-layer="1018" to-port="0"/>
		<edge from-layer="1014" from-port="1" to-layer="1018" to-port="1"/>
		<edge from-layer="1015" from-port="1" to-layer="1018" to-port="2"/>
		<edge from-layer="1016" from-port="1" to-layer="1018" to-port="3"/>
		<edge from-layer="1017" from-port="1" to-layer="1018" to-port="4"/>
		<edge from-layer="892" from-port="4" to-layer="1019" to-port="0"/>
		<edge from-layer="1019" from-port="1" to-layer="1024" to-port="0"/>
		<edge from-layer="1020" from-port="1" to-layer="1024" to-port="1"/>
		<edge from-layer="1021" from-port="1" to-layer="1024" to-port="2"/>
		<edge from-layer="1022" from-port="1" to-layer="1024" to-port="3"/>
		<edge from-layer="1023" from-port="1" to-layer="1024" to-port="4"/>
		<edge from-layer="1025" from-port="1" to-layer="1030" to-port="0"/>
		<edge from-layer="1026" from-port="1" to-layer="1030" to-port="1"/>
		<edge from-layer="1027" from-port="1" to-layer="1030" to-port="2"/>
		<edge from-layer="1028" from-port="1" to-layer="1030" to-port="3"/>
		<edge from-layer="1029" from-port="1" to-layer="1030" to-port="4"/>
		<edge from-layer="1024" from-port="5" to-layer="1032" to-port="0"/>
		<edge from-layer="1030" from-port="5" to-layer="1032" to-port="1"/>
		<edge from-layer="1031" from-port="1" to-layer="1032" to-port="2"/>
		<edge from-layer="1032" from-port="3" to-layer="1033" to-port="0"/>
		<edge from-layer="1033" from-port="1" to-layer="1038" to-port="0"/>
		<edge from-layer="1034" from-port="1" to-layer="1038" to-port="1"/>
		<edge from-layer="1035" from-port="1" to-layer="1038" to-port="2"/>
		<edge from-layer="1036" from-port="1" to-layer="1038" to-port="3"/>
		<edge from-layer="1037" from-port="1" to-layer="1038" to-port="4"/>
		<edge from-layer="906" from-port="5" to-layer="1039" to-port="0"/>
		<edge from-layer="948" from-port="5" to-layer="1039" to-port="1"/>
		<edge from-layer="1018" from-port="5" to-layer="1039" to-port="2"/>
		<edge from-layer="1038" from-port="5" to-layer="1039" to-port="3"/>
		<edge from-layer="1040" from-port="1" to-layer="1045" to-port="0"/>
		<edge from-layer="1041" from-port="1" to-layer="1045" to-port="1"/>
		<edge from-layer="1042" from-port="1" to-layer="1045" to-port="2"/>
		<edge from-layer="1043" from-port="1" to-layer="1045" to-port="3"/>
		<edge from-layer="1044" from-port="1" to-layer="1045" to-port="4"/>
		<edge from-layer="1039" from-port="4" to-layer="1047" to-port="0"/>
		<edge from-layer="1045" from-port="5" to-layer="1047" to-port="1"/>
		<edge from-layer="1046" from-port="1" to-layer="1047" to-port="2"/>
		<edge from-layer="1047" from-port="3" to-layer="1048" to-port="0"/>
		<edge from-layer="1048" from-port="1" to-layer="1053" to-port="0"/>
		<edge from-layer="1049" from-port="1" to-layer="1053" to-port="1"/>
		<edge from-layer="1050" from-port="1" to-layer="1053" to-port="2"/>
		<edge from-layer="1051" from-port="1" to-layer="1053" to-port="3"/>
		<edge from-layer="1052" from-port="1" to-layer="1053" to-port="4"/>
		<edge from-layer="1054" from-port="1" to-layer="1059" to-port="0"/>
		<edge from-layer="1055" from-port="1" to-layer="1059" to-port="1"/>
		<edge from-layer="1056" from-port="1" to-layer="1059" to-port="2"/>
		<edge from-layer="1057" from-port="1" to-layer="1059" to-port="3"/>
		<edge from-layer="1058" from-port="1" to-layer="1059" to-port="4"/>
		<edge from-layer="1053" from-port="5" to-layer="1061" to-port="0"/>
		<edge from-layer="1059" from-port="5" to-layer="1061" to-port="1"/>
		<edge from-layer="1060" from-port="1" to-layer="1061" to-port="2"/>
		<edge from-layer="1061" from-port="3" to-layer="1062" to-port="0"/>
		<edge from-layer="1062" from-port="1" to-layer="1067" to-port="0"/>
		<edge from-layer="1063" from-port="1" to-layer="1067" to-port="1"/>
		<edge from-layer="1064" from-port="1" to-layer="1067" to-port="2"/>
		<edge from-layer="1065" from-port="1" to-layer="1067" to-port="3"/>
		<edge from-layer="1066" from-port="1" to-layer="1067" to-port="4"/>
		<edge from-layer="1068" from-port="1" to-layer="1073" to-port="0"/>
		<edge from-layer="1069" from-port="1" to-layer="1073" to-port="1"/>
		<edge from-layer="1070" from-port="1" to-layer="1073" to-port="2"/>
		<edge from-layer="1071" from-port="1" to-layer="1073" to-port="3"/>
		<edge from-layer="1072" from-port="1" to-layer="1073" to-port="4"/>
		<edge from-layer="1039" from-port="4" to-layer="1075" to-port="0"/>
		<edge from-layer="1073" from-port="5" to-layer="1075" to-port="1"/>
		<edge from-layer="1074" from-port="1" to-layer="1075" to-port="2"/>
		<edge from-layer="1075" from-port="3" to-layer="1076" to-port="0"/>
		<edge from-layer="1076" from-port="1" to-layer="1081" to-port="0"/>
		<edge from-layer="1077" from-port="1" to-layer="1081" to-port="1"/>
		<edge from-layer="1078" from-port="1" to-layer="1081" to-port="2"/>
		<edge from-layer="1079" from-port="1" to-layer="1081" to-port="3"/>
		<edge from-layer="1080" from-port="1" to-layer="1081" to-port="4"/>
		<edge from-layer="1082" from-port="1" to-layer="1087" to-port="0"/>
		<edge from-layer="1083" from-port="1" to-layer="1087" to-port="1"/>
		<edge from-layer="1084" from-port="1" to-layer="1087" to-port="2"/>
		<edge from-layer="1085" from-port="1" to-layer="1087" to-port="3"/>
		<edge from-layer="1086" from-port="1" to-layer="1087" to-port="4"/>
		<edge from-layer="1081" from-port="5" to-layer="1089" to-port="0"/>
		<edge from-layer="1087" from-port="5" to-layer="1089" to-port="1"/>
		<edge from-layer="1088" from-port="1" to-layer="1089" to-port="2"/>
		<edge from-layer="1089" from-port="3" to-layer="1090" to-port="0"/>
		<edge from-layer="1090" from-port="1" to-layer="1095" to-port="0"/>
		<edge from-layer="1091" from-port="1" to-layer="1095" to-port="1"/>
		<edge from-layer="1092" from-port="1" to-layer="1095" to-port="2"/>
		<edge from-layer="1093" from-port="1" to-layer="1095" to-port="3"/>
		<edge from-layer="1094" from-port="1" to-layer="1095" to-port="4"/>
		<edge from-layer="1096" from-port="1" to-layer="1101" to-port="0"/>
		<edge from-layer="1097" from-port="1" to-layer="1101" to-port="1"/>
		<edge from-layer="1098" from-port="1" to-layer="1101" to-port="2"/>
		<edge from-layer="1099" from-port="1" to-layer="1101" to-port="3"/>
		<edge from-layer="1100" from-port="1" to-layer="1101" to-port="4"/>
		<edge from-layer="1095" from-port="5" to-layer="1103" to-port="0"/>
		<edge from-layer="1101" from-port="5" to-layer="1103" to-port="1"/>
		<edge from-layer="1102" from-port="1" to-layer="1103" to-port="2"/>
		<edge from-layer="1103" from-port="3" to-layer="1104" to-port="0"/>
		<edge from-layer="1104" from-port="1" to-layer="1109" to-port="0"/>
		<edge from-layer="1105" from-port="1" to-layer="1109" to-port="1"/>
		<edge from-layer="1106" from-port="1" to-layer="1109" to-port="2"/>
		<edge from-layer="1107" from-port="1" to-layer="1109" to-port="3"/>
		<edge from-layer="1108" from-port="1" to-layer="1109" to-port="4"/>
		<edge from-layer="1110" from-port="1" to-layer="1115" to-port="0"/>
		<edge from-layer="1111" from-port="1" to-layer="1115" to-port="1"/>
		<edge from-layer="1112" from-port="1" to-layer="1115" to-port="2"/>
		<edge from-layer="1113" from-port="1" to-layer="1115" to-port="3"/>
		<edge from-layer="1114" from-port="1" to-layer="1115" to-port="4"/>
		<edge from-layer="1109" from-port="5" to-layer="1117" to-port="0"/>
		<edge from-layer="1115" from-port="5" to-layer="1117" to-port="1"/>
		<edge from-layer="1116" from-port="1" to-layer="1117" to-port="2"/>
		<edge from-layer="1117" from-port="3" to-layer="1118" to-port="0"/>
		<edge from-layer="1118" from-port="1" to-layer="1123" to-port="0"/>
		<edge from-layer="1119" from-port="1" to-layer="1123" to-port="1"/>
		<edge from-layer="1120" from-port="1" to-layer="1123" to-port="2"/>
		<edge from-layer="1121" from-port="1" to-layer="1123" to-port="3"/>
		<edge from-layer="1122" from-port="1" to-layer="1123" to-port="4"/>
		<edge from-layer="1039" from-port="4" to-layer="1124" to-port="0"/>
		<edge from-layer="1067" from-port="5" to-layer="1125" to-port="0"/>
		<edge from-layer="1123" from-port="5" to-layer="1125" to-port="1"/>
		<edge from-layer="1124" from-port="1" to-layer="1125" to-port="2"/>
		<edge from-layer="1126" from-port="1" to-layer="1131" to-port="0"/>
		<edge from-layer="1127" from-port="1" to-layer="1131" to-port="1"/>
		<edge from-layer="1128" from-port="1" to-layer="1131" to-port="2"/>
		<edge from-layer="1129" from-port="1" to-layer="1131" to-port="3"/>
		<edge from-layer="1130" from-port="1" to-layer="1131" to-port="4"/>
		<edge from-layer="1125" from-port="3" to-layer="1133" to-port="0"/>
		<edge from-layer="1131" from-port="5" to-layer="1133" to-port="1"/>
		<edge from-layer="1132" from-port="1" to-layer="1133" to-port="2"/>
		<edge from-layer="1133" from-port="3" to-layer="1134" to-port="0"/>
		<edge from-layer="1134" from-port="1" to-layer="1139" to-port="0"/>
		<edge from-layer="1135" from-port="1" to-layer="1139" to-port="1"/>
		<edge from-layer="1136" from-port="1" to-layer="1139" to-port="2"/>
		<edge from-layer="1137" from-port="1" to-layer="1139" to-port="3"/>
		<edge from-layer="1138" from-port="1" to-layer="1139" to-port="4"/>
		<edge from-layer="1140" from-port="1" to-layer="1145" to-port="0"/>
		<edge from-layer="1141" from-port="1" to-layer="1145" to-port="1"/>
		<edge from-layer="1142" from-port="1" to-layer="1145" to-port="2"/>
		<edge from-layer="1143" from-port="1" to-layer="1145" to-port="3"/>
		<edge from-layer="1144" from-port="1" to-layer="1145" to-port="4"/>
		<edge from-layer="1125" from-port="3" to-layer="1147" to-port="0"/>
		<edge from-layer="1145" from-port="5" to-layer="1147" to-port="1"/>
		<edge from-layer="1146" from-port="1" to-layer="1147" to-port="2"/>
		<edge from-layer="1147" from-port="3" to-layer="1148" to-port="0"/>
		<edge from-layer="1148" from-port="1" to-layer="1153" to-port="0"/>
		<edge from-layer="1149" from-port="1" to-layer="1153" to-port="1"/>
		<edge from-layer="1150" from-port="1" to-layer="1153" to-port="2"/>
		<edge from-layer="1151" from-port="1" to-layer="1153" to-port="3"/>
		<edge from-layer="1152" from-port="1" to-layer="1153" to-port="4"/>
		<edge from-layer="1154" from-port="1" to-layer="1159" to-port="0"/>
		<edge from-layer="1155" from-port="1" to-layer="1159" to-port="1"/>
		<edge from-layer="1156" from-port="1" to-layer="1159" to-port="2"/>
		<edge from-layer="1157" from-port="1" to-layer="1159" to-port="3"/>
		<edge from-layer="1158" from-port="1" to-layer="1159" to-port="4"/>
		<edge from-layer="1153" from-port="5" to-layer="1161" to-port="0"/>
		<edge from-layer="1159" from-port="5" to-layer="1161" to-port="1"/>
		<edge from-layer="1160" from-port="1" to-layer="1161" to-port="2"/>
		<edge from-layer="1161" from-port="3" to-layer="1162" to-port="0"/>
		<edge from-layer="1162" from-port="1" to-layer="1167" to-port="0"/>
		<edge from-layer="1163" from-port="1" to-layer="1167" to-port="1"/>
		<edge from-layer="1164" from-port="1" to-layer="1167" to-port="2"/>
		<edge from-layer="1165" from-port="1" to-layer="1167" to-port="3"/>
		<edge from-layer="1166" from-port="1" to-layer="1167" to-port="4"/>
		<edge from-layer="1168" from-port="1" to-layer="1173" to-port="0"/>
		<edge from-layer="1169" from-port="1" to-layer="1173" to-port="1"/>
		<edge from-layer="1170" from-port="1" to-layer="1173" to-port="2"/>
		<edge from-layer="1171" from-port="1" to-layer="1173" to-port="3"/>
		<edge from-layer="1172" from-port="1" to-layer="1173" to-port="4"/>
		<edge from-layer="1153" from-port="5" to-layer="1175" to-port="0"/>
		<edge from-layer="1173" from-port="5" to-layer="1175" to-port="1"/>
		<edge from-layer="1174" from-port="1" to-layer="1175" to-port="2"/>
		<edge from-layer="1175" from-port="3" to-layer="1176" to-port="0"/>
		<edge from-layer="1176" from-port="1" to-layer="1181" to-port="0"/>
		<edge from-layer="1177" from-port="1" to-layer="1181" to-port="1"/>
		<edge from-layer="1178" from-port="1" to-layer="1181" to-port="2"/>
		<edge from-layer="1179" from-port="1" to-layer="1181" to-port="3"/>
		<edge from-layer="1180" from-port="1" to-layer="1181" to-port="4"/>
		<edge from-layer="1167" from-port="5" to-layer="1182" to-port="0"/>
		<edge from-layer="1181" from-port="5" to-layer="1182" to-port="1"/>
		<edge from-layer="1183" from-port="1" to-layer="1188" to-port="0"/>
		<edge from-layer="1184" from-port="1" to-layer="1188" to-port="1"/>
		<edge from-layer="1185" from-port="1" to-layer="1188" to-port="2"/>
		<edge from-layer="1186" from-port="1" to-layer="1188" to-port="3"/>
		<edge from-layer="1187" from-port="1" to-layer="1188" to-port="4"/>
		<edge from-layer="1125" from-port="3" to-layer="1190" to-port="0"/>
		<edge from-layer="1188" from-port="5" to-layer="1190" to-port="1"/>
		<edge from-layer="1189" from-port="1" to-layer="1190" to-port="2"/>
		<edge from-layer="1190" from-port="3" to-layer="1191" to-port="0"/>
		<edge from-layer="1191" from-port="1" to-layer="1196" to-port="0"/>
		<edge from-layer="1192" from-port="1" to-layer="1196" to-port="1"/>
		<edge from-layer="1193" from-port="1" to-layer="1196" to-port="2"/>
		<edge from-layer="1194" from-port="1" to-layer="1196" to-port="3"/>
		<edge from-layer="1195" from-port="1" to-layer="1196" to-port="4"/>
		<edge from-layer="1197" from-port="1" to-layer="1202" to-port="0"/>
		<edge from-layer="1198" from-port="1" to-layer="1202" to-port="1"/>
		<edge from-layer="1199" from-port="1" to-layer="1202" to-port="2"/>
		<edge from-layer="1200" from-port="1" to-layer="1202" to-port="3"/>
		<edge from-layer="1201" from-port="1" to-layer="1202" to-port="4"/>
		<edge from-layer="1196" from-port="5" to-layer="1204" to-port="0"/>
		<edge from-layer="1202" from-port="5" to-layer="1204" to-port="1"/>
		<edge from-layer="1203" from-port="1" to-layer="1204" to-port="2"/>
		<edge from-layer="1204" from-port="3" to-layer="1205" to-port="0"/>
		<edge from-layer="1205" from-port="1" to-layer="1210" to-port="0"/>
		<edge from-layer="1206" from-port="1" to-layer="1210" to-port="1"/>
		<edge from-layer="1207" from-port="1" to-layer="1210" to-port="2"/>
		<edge from-layer="1208" from-port="1" to-layer="1210" to-port="3"/>
		<edge from-layer="1209" from-port="1" to-layer="1210" to-port="4"/>
		<edge from-layer="1211" from-port="1" to-layer="1216" to-port="0"/>
		<edge from-layer="1212" from-port="1" to-layer="1216" to-port="1"/>
		<edge from-layer="1213" from-port="1" to-layer="1216" to-port="2"/>
		<edge from-layer="1214" from-port="1" to-layer="1216" to-port="3"/>
		<edge from-layer="1215" from-port="1" to-layer="1216" to-port="4"/>
		<edge from-layer="1210" from-port="5" to-layer="1218" to-port="0"/>
		<edge from-layer="1216" from-port="5" to-layer="1218" to-port="1"/>
		<edge from-layer="1217" from-port="1" to-layer="1218" to-port="2"/>
		<edge from-layer="1218" from-port="3" to-layer="1219" to-port="0"/>
		<edge from-layer="1219" from-port="1" to-layer="1224" to-port="0"/>
		<edge from-layer="1220" from-port="1" to-layer="1224" to-port="1"/>
		<edge from-layer="1221" from-port="1" to-layer="1224" to-port="2"/>
		<edge from-layer="1222" from-port="1" to-layer="1224" to-port="3"/>
		<edge from-layer="1223" from-port="1" to-layer="1224" to-port="4"/>
		<edge from-layer="1225" from-port="1" to-layer="1230" to-port="0"/>
		<edge from-layer="1226" from-port="1" to-layer="1230" to-port="1"/>
		<edge from-layer="1227" from-port="1" to-layer="1230" to-port="2"/>
		<edge from-layer="1228" from-port="1" to-layer="1230" to-port="3"/>
		<edge from-layer="1229" from-port="1" to-layer="1230" to-port="4"/>
		<edge from-layer="1210" from-port="5" to-layer="1232" to-port="0"/>
		<edge from-layer="1230" from-port="5" to-layer="1232" to-port="1"/>
		<edge from-layer="1231" from-port="1" to-layer="1232" to-port="2"/>
		<edge from-layer="1232" from-port="3" to-layer="1233" to-port="0"/>
		<edge from-layer="1233" from-port="1" to-layer="1238" to-port="0"/>
		<edge from-layer="1234" from-port="1" to-layer="1238" to-port="1"/>
		<edge from-layer="1235" from-port="1" to-layer="1238" to-port="2"/>
		<edge from-layer="1236" from-port="1" to-layer="1238" to-port="3"/>
		<edge from-layer="1237" from-port="1" to-layer="1238" to-port="4"/>
		<edge from-layer="1224" from-port="5" to-layer="1239" to-port="0"/>
		<edge from-layer="1238" from-port="5" to-layer="1239" to-port="1"/>
		<edge from-layer="1125" from-port="3" to-layer="1240" to-port="0"/>
		<edge from-layer="1240" from-port="1" to-layer="1245" to-port="0"/>
		<edge from-layer="1241" from-port="1" to-layer="1245" to-port="1"/>
		<edge from-layer="1242" from-port="1" to-layer="1245" to-port="2"/>
		<edge from-layer="1243" from-port="1" to-layer="1245" to-port="3"/>
		<edge from-layer="1244" from-port="1" to-layer="1245" to-port="4"/>
		<edge from-layer="1246" from-port="1" to-layer="1251" to-port="0"/>
		<edge from-layer="1247" from-port="1" to-layer="1251" to-port="1"/>
		<edge from-layer="1248" from-port="1" to-layer="1251" to-port="2"/>
		<edge from-layer="1249" from-port="1" to-layer="1251" to-port="3"/>
		<edge from-layer="1250" from-port="1" to-layer="1251" to-port="4"/>
		<edge from-layer="1245" from-port="5" to-layer="1253" to-port="0"/>
		<edge from-layer="1251" from-port="5" to-layer="1253" to-port="1"/>
		<edge from-layer="1252" from-port="1" to-layer="1253" to-port="2"/>
		<edge from-layer="1253" from-port="3" to-layer="1254" to-port="0"/>
		<edge from-layer="1254" from-port="1" to-layer="1259" to-port="0"/>
		<edge from-layer="1255" from-port="1" to-layer="1259" to-port="1"/>
		<edge from-layer="1256" from-port="1" to-layer="1259" to-port="2"/>
		<edge from-layer="1257" from-port="1" to-layer="1259" to-port="3"/>
		<edge from-layer="1258" from-port="1" to-layer="1259" to-port="4"/>
		<edge from-layer="1139" from-port="5" to-layer="1260" to-port="0"/>
		<edge from-layer="1182" from-port="2" to-layer="1260" to-port="1"/>
		<edge from-layer="1239" from-port="2" to-layer="1260" to-port="2"/>
		<edge from-layer="1259" from-port="5" to-layer="1260" to-port="3"/>
		<edge from-layer="1261" from-port="1" to-layer="1266" to-port="0"/>
		<edge from-layer="1262" from-port="1" to-layer="1266" to-port="1"/>
		<edge from-layer="1263" from-port="1" to-layer="1266" to-port="2"/>
		<edge from-layer="1264" from-port="1" to-layer="1266" to-port="3"/>
		<edge from-layer="1265" from-port="1" to-layer="1266" to-port="4"/>
		<edge from-layer="1260" from-port="4" to-layer="1268" to-port="0"/>
		<edge from-layer="1266" from-port="5" to-layer="1268" to-port="1"/>
		<edge from-layer="1267" from-port="1" to-layer="1268" to-port="2"/>
		<edge from-layer="1268" from-port="3" to-layer="1269" to-port="0"/>
		<edge from-layer="1269" from-port="1" to-layer="1274" to-port="0"/>
		<edge from-layer="1270" from-port="1" to-layer="1274" to-port="1"/>
		<edge from-layer="1271" from-port="1" to-layer="1274" to-port="2"/>
		<edge from-layer="1272" from-port="1" to-layer="1274" to-port="3"/>
		<edge from-layer="1273" from-port="1" to-layer="1274" to-port="4"/>
		<edge from-layer="1275" from-port="1" to-layer="1280" to-port="0"/>
		<edge from-layer="1276" from-port="1" to-layer="1280" to-port="1"/>
		<edge from-layer="1277" from-port="1" to-layer="1280" to-port="2"/>
		<edge from-layer="1278" from-port="1" to-layer="1280" to-port="3"/>
		<edge from-layer="1279" from-port="1" to-layer="1280" to-port="4"/>
		<edge from-layer="1260" from-port="4" to-layer="1282" to-port="0"/>
		<edge from-layer="1280" from-port="5" to-layer="1282" to-port="1"/>
		<edge from-layer="1281" from-port="1" to-layer="1282" to-port="2"/>
		<edge from-layer="1282" from-port="3" to-layer="1283" to-port="0"/>
		<edge from-layer="1283" from-port="1" to-layer="1288" to-port="0"/>
		<edge from-layer="1284" from-port="1" to-layer="1288" to-port="1"/>
		<edge from-layer="1285" from-port="1" to-layer="1288" to-port="2"/>
		<edge from-layer="1286" from-port="1" to-layer="1288" to-port="3"/>
		<edge from-layer="1287" from-port="1" to-layer="1288" to-port="4"/>
		<edge from-layer="1289" from-port="1" to-layer="1294" to-port="0"/>
		<edge from-layer="1290" from-port="1" to-layer="1294" to-port="1"/>
		<edge from-layer="1291" from-port="1" to-layer="1294" to-port="2"/>
		<edge from-layer="1292" from-port="1" to-layer="1294" to-port="3"/>
		<edge from-layer="1293" from-port="1" to-layer="1294" to-port="4"/>
		<edge from-layer="1288" from-port="5" to-layer="1296" to-port="0"/>
		<edge from-layer="1294" from-port="5" to-layer="1296" to-port="1"/>
		<edge from-layer="1295" from-port="1" to-layer="1296" to-port="2"/>
		<edge from-layer="1296" from-port="3" to-layer="1297" to-port="0"/>
		<edge from-layer="1297" from-port="1" to-layer="1302" to-port="0"/>
		<edge from-layer="1298" from-port="1" to-layer="1302" to-port="1"/>
		<edge from-layer="1299" from-port="1" to-layer="1302" to-port="2"/>
		<edge from-layer="1300" from-port="1" to-layer="1302" to-port="3"/>
		<edge from-layer="1301" from-port="1" to-layer="1302" to-port="4"/>
		<edge from-layer="1303" from-port="1" to-layer="1308" to-port="0"/>
		<edge from-layer="1304" from-port="1" to-layer="1308" to-port="1"/>
		<edge from-layer="1305" from-port="1" to-layer="1308" to-port="2"/>
		<edge from-layer="1306" from-port="1" to-layer="1308" to-port="3"/>
		<edge from-layer="1307" from-port="1" to-layer="1308" to-port="4"/>
		<edge from-layer="1288" from-port="5" to-layer="1310" to-port="0"/>
		<edge from-layer="1308" from-port="5" to-layer="1310" to-port="1"/>
		<edge from-layer="1309" from-port="1" to-layer="1310" to-port="2"/>
		<edge from-layer="1310" from-port="3" to-layer="1311" to-port="0"/>
		<edge from-layer="1311" from-port="1" to-layer="1316" to-port="0"/>
		<edge from-layer="1312" from-port="1" to-layer="1316" to-port="1"/>
		<edge from-layer="1313" from-port="1" to-layer="1316" to-port="2"/>
		<edge from-layer="1314" from-port="1" to-layer="1316" to-port="3"/>
		<edge from-layer="1315" from-port="1" to-layer="1316" to-port="4"/>
		<edge from-layer="1302" from-port="5" to-layer="1317" to-port="0"/>
		<edge from-layer="1316" from-port="5" to-layer="1317" to-port="1"/>
		<edge from-layer="1318" from-port="1" to-layer="1323" to-port="0"/>
		<edge from-layer="1319" from-port="1" to-layer="1323" to-port="1"/>
		<edge from-layer="1320" from-port="1" to-layer="1323" to-port="2"/>
		<edge from-layer="1321" from-port="1" to-layer="1323" to-port="3"/>
		<edge from-layer="1322" from-port="1" to-layer="1323" to-port="4"/>
		<edge from-layer="1260" from-port="4" to-layer="1325" to-port="0"/>
		<edge from-layer="1323" from-port="5" to-layer="1325" to-port="1"/>
		<edge from-layer="1324" from-port="1" to-layer="1325" to-port="2"/>
		<edge from-layer="1325" from-port="3" to-layer="1326" to-port="0"/>
		<edge from-layer="1326" from-port="1" to-layer="1331" to-port="0"/>
		<edge from-layer="1327" from-port="1" to-layer="1331" to-port="1"/>
		<edge from-layer="1328" from-port="1" to-layer="1331" to-port="2"/>
		<edge from-layer="1329" from-port="1" to-layer="1331" to-port="3"/>
		<edge from-layer="1330" from-port="1" to-layer="1331" to-port="4"/>
		<edge from-layer="1332" from-port="1" to-layer="1337" to-port="0"/>
		<edge from-layer="1333" from-port="1" to-layer="1337" to-port="1"/>
		<edge from-layer="1334" from-port="1" to-layer="1337" to-port="2"/>
		<edge from-layer="1335" from-port="1" to-layer="1337" to-port="3"/>
		<edge from-layer="1336" from-port="1" to-layer="1337" to-port="4"/>
		<edge from-layer="1331" from-port="5" to-layer="1339" to-port="0"/>
		<edge from-layer="1337" from-port="5" to-layer="1339" to-port="1"/>
		<edge from-layer="1338" from-port="1" to-layer="1339" to-port="2"/>
		<edge from-layer="1339" from-port="3" to-layer="1340" to-port="0"/>
		<edge from-layer="1340" from-port="1" to-layer="1345" to-port="0"/>
		<edge from-layer="1341" from-port="1" to-layer="1345" to-port="1"/>
		<edge from-layer="1342" from-port="1" to-layer="1345" to-port="2"/>
		<edge from-layer="1343" from-port="1" to-layer="1345" to-port="3"/>
		<edge from-layer="1344" from-port="1" to-layer="1345" to-port="4"/>
		<edge from-layer="1346" from-port="1" to-layer="1351" to-port="0"/>
		<edge from-layer="1347" from-port="1" to-layer="1351" to-port="1"/>
		<edge from-layer="1348" from-port="1" to-layer="1351" to-port="2"/>
		<edge from-layer="1349" from-port="1" to-layer="1351" to-port="3"/>
		<edge from-layer="1350" from-port="1" to-layer="1351" to-port="4"/>
		<edge from-layer="1345" from-port="5" to-layer="1353" to-port="0"/>
		<edge from-layer="1351" from-port="5" to-layer="1353" to-port="1"/>
		<edge from-layer="1352" from-port="1" to-layer="1353" to-port="2"/>
		<edge from-layer="1353" from-port="3" to-layer="1354" to-port="0"/>
		<edge from-layer="1354" from-port="1" to-layer="1359" to-port="0"/>
		<edge from-layer="1355" from-port="1" to-layer="1359" to-port="1"/>
		<edge from-layer="1356" from-port="1" to-layer="1359" to-port="2"/>
		<edge from-layer="1357" from-port="1" to-layer="1359" to-port="3"/>
		<edge from-layer="1358" from-port="1" to-layer="1359" to-port="4"/>
		<edge from-layer="1360" from-port="1" to-layer="1365" to-port="0"/>
		<edge from-layer="1361" from-port="1" to-layer="1365" to-port="1"/>
		<edge from-layer="1362" from-port="1" to-layer="1365" to-port="2"/>
		<edge from-layer="1363" from-port="1" to-layer="1365" to-port="3"/>
		<edge from-layer="1364" from-port="1" to-layer="1365" to-port="4"/>
		<edge from-layer="1345" from-port="5" to-layer="1367" to-port="0"/>
		<edge from-layer="1365" from-port="5" to-layer="1367" to-port="1"/>
		<edge from-layer="1366" from-port="1" to-layer="1367" to-port="2"/>
		<edge from-layer="1367" from-port="3" to-layer="1368" to-port="0"/>
		<edge from-layer="1368" from-port="1" to-layer="1373" to-port="0"/>
		<edge from-layer="1369" from-port="1" to-layer="1373" to-port="1"/>
		<edge from-layer="1370" from-port="1" to-layer="1373" to-port="2"/>
		<edge from-layer="1371" from-port="1" to-layer="1373" to-port="3"/>
		<edge from-layer="1372" from-port="1" to-layer="1373" to-port="4"/>
		<edge from-layer="1359" from-port="5" to-layer="1374" to-port="0"/>
		<edge from-layer="1373" from-port="5" to-layer="1374" to-port="1"/>
		<edge from-layer="1260" from-port="4" to-layer="1375" to-port="0"/>
		<edge from-layer="1375" from-port="1" to-layer="1380" to-port="0"/>
		<edge from-layer="1376" from-port="1" to-layer="1380" to-port="1"/>
		<edge from-layer="1377" from-port="1" to-layer="1380" to-port="2"/>
		<edge from-layer="1378" from-port="1" to-layer="1380" to-port="3"/>
		<edge from-layer="1379" from-port="1" to-layer="1380" to-port="4"/>
		<edge from-layer="1381" from-port="1" to-layer="1386" to-port="0"/>
		<edge from-layer="1382" from-port="1" to-layer="1386" to-port="1"/>
		<edge from-layer="1383" from-port="1" to-layer="1386" to-port="2"/>
		<edge from-layer="1384" from-port="1" to-layer="1386" to-port="3"/>
		<edge from-layer="1385" from-port="1" to-layer="1386" to-port="4"/>
		<edge from-layer="1380" from-port="5" to-layer="1388" to-port="0"/>
		<edge from-layer="1386" from-port="5" to-layer="1388" to-port="1"/>
		<edge from-layer="1387" from-port="1" to-layer="1388" to-port="2"/>
		<edge from-layer="1388" from-port="3" to-layer="1389" to-port="0"/>
		<edge from-layer="1389" from-port="1" to-layer="1394" to-port="0"/>
		<edge from-layer="1390" from-port="1" to-layer="1394" to-port="1"/>
		<edge from-layer="1391" from-port="1" to-layer="1394" to-port="2"/>
		<edge from-layer="1392" from-port="1" to-layer="1394" to-port="3"/>
		<edge from-layer="1393" from-port="1" to-layer="1394" to-port="4"/>
		<edge from-layer="1274" from-port="5" to-layer="1395" to-port="0"/>
		<edge from-layer="1317" from-port="2" to-layer="1395" to-port="1"/>
		<edge from-layer="1374" from-port="2" to-layer="1395" to-port="2"/>
		<edge from-layer="1394" from-port="5" to-layer="1395" to-port="3"/>
		<edge from-layer="1395" from-port="4" to-layer="1396" to-port="0"/>
		<edge from-layer="1396" from-port="1" to-layer="1401" to-port="0"/>
		<edge from-layer="1397" from-port="1" to-layer="1401" to-port="1"/>
		<edge from-layer="1398" from-port="1" to-layer="1401" to-port="2"/>
		<edge from-layer="1399" from-port="1" to-layer="1401" to-port="3"/>
		<edge from-layer="1400" from-port="1" to-layer="1401" to-port="4"/>
		<edge from-layer="1402" from-port="1" to-layer="1407" to-port="0"/>
		<edge from-layer="1403" from-port="1" to-layer="1407" to-port="1"/>
		<edge from-layer="1404" from-port="1" to-layer="1407" to-port="2"/>
		<edge from-layer="1405" from-port="1" to-layer="1407" to-port="3"/>
		<edge from-layer="1406" from-port="1" to-layer="1407" to-port="4"/>
		<edge from-layer="1401" from-port="5" to-layer="1409" to-port="0"/>
		<edge from-layer="1407" from-port="5" to-layer="1409" to-port="1"/>
		<edge from-layer="1408" from-port="1" to-layer="1409" to-port="2"/>
		<edge from-layer="1409" from-port="3" to-layer="1410" to-port="0"/>
		<edge from-layer="1410" from-port="1" to-layer="1412" to-port="0"/>
		<edge from-layer="1411" from-port="1" to-layer="1412" to-port="1"/>
		<edge from-layer="1412" from-port="2" to-layer="1414" to-port="0"/>
		<edge from-layer="1413" from-port="1" to-layer="1414" to-port="1"/>
		<edge from-layer="1414" from-port="2" to-layer="1415" to-port="0"/>
	</edges>
	<meta_data>
		<MO_version value="unknown version"/>
		<cli_parameters>
			<unset unset_cli_parameters=""/>
		</cli_parameters>
	</meta_data>
</net>
