<?xml version="1.0" ?>
<net batch="1" name="mobilenet_v2_uint8_int8_weights_perchannel" version="6">
	<layers>
		<layer id="0" name="data" precision="FP32" type="Input">
			<output>
				<port id="0">
					<dim>1</dim>
					<dim>3</dim>
					<dim>224</dim>
					<dim>224</dim>
				</port>
			</output>
		</layer>
		<layer id="1" name="Mul_/Fused_Mul_/FusedScaleShift_" precision="FP32" type="ScaleShift">
			<input>
				<port id="0">
					<dim>1</dim>
					<dim>3</dim>
					<dim>224</dim>
					<dim>224</dim>
				</port>
			</input>
			<output>
				<port id="3">
					<dim>1</dim>
					<dim>3</dim>
					<dim>224</dim>
					<dim>224</dim>
				</port>
			</output>
			<blobs>
				<weights offset="0" size="12"/>
				<biases offset="12" size="12"/>
			</blobs>
		</layer>
		<layer id="2" name="1296112965_const" precision="FP32" type="Const">
			<output>
				<port id="1"/>
			</output>
			<blobs>
				<custom offset="24" size="4"/>
			</blobs>
		</layer>
		<layer id="3" name="1296212966_const" precision="FP32" type="Const">
			<output>
				<port id="1"/>
			</output>
			<blobs>
				<custom offset="28" size="4"/>
			</blobs>
		</layer>
		<layer id="4" name="1296312967_const" precision="FP32" type="Const">
			<output>
				<port id="1"/>
			</output>
			<blobs>
				<custom offset="24" size="4"/>
			</blobs>
		</layer>
		<layer id="5" name="1296412968_const" precision="FP32" type="Const">
			<output>
				<port id="1"/>
			</output>
			<blobs>
				<custom offset="28" size="4"/>
			</blobs>
		</layer>
		<layer id="6" name="315/fq_input_0" precision="FP32" type="FakeQuantize">
			<data levels="256.0"/>
			<input>
				<port id="0">
					<dim>1</dim>
					<dim>3</dim>
					<dim>224</dim>
					<dim>224</dim>
				</port>
				<port id="1"/>
				<port id="2"/>
				<port id="3"/>
				<port id="4"/>
			</input>
			<output>
				<port id="5">
					<dim>1</dim>
					<dim>3</dim>
					<dim>224</dim>
					<dim>224</dim>
				</port>
			</output>
		</layer>
		<layer id="7" name="Mul1_6100/Fused_Mul_79567958_const" precision="FP32" type="Const">
			<output>
				<port id="1">
					<dim>32</dim>
					<dim>3</dim>
					<dim>3</dim>
					<dim>3</dim>
				</port>
			</output>
			<blobs>
				<custom offset="32" size="3456"/>
			</blobs>
		</layer>
		<layer id="8" name="1297112975_const" precision="FP32" type="Const">
			<output>
				<port id="1">
					<dim>32</dim>
				</port>
			</output>
			<blobs>
				<custom offset="3488" size="128"/>
			</blobs>
		</layer>
		<layer id="9" name="1297212976_const" precision="FP32" type="Const">
			<output>
				<port id="1">
					<dim>32</dim>
				</port>
			</output>
			<blobs>
				<custom offset="3616" size="128"/>
			</blobs>
		</layer>
		<layer id="10" name="1297312977_const" precision="FP32" type="Const">
			<output>
				<port id="1">
					<dim>32</dim>
				</port>
			</output>
			<blobs>
				<custom offset="3488" size="128"/>
			</blobs>
		</layer>
		<layer id="11" name="1297412978_const" precision="FP32" type="Const">
			<output>
				<port id="1">
					<dim>32</dim>
				</port>
			</output>
			<blobs>
				<custom offset="3616" size="128"/>
			</blobs>
		</layer>
		<layer id="12" name="315/fq_weights_1" precision="FP32" type="FakeQuantize">
			<data levels="255"/>
			<input>
				<port id="0">
					<dim>32</dim>
					<dim>3</dim>
					<dim>3</dim>
					<dim>3</dim>
				</port>
				<port id="1">
					<dim>32</dim>
				</port>
				<port id="2">
					<dim>32</dim>
				</port>
				<port id="3">
					<dim>32</dim>
				</port>
				<port id="4">
					<dim>32</dim>
				</port>
			</input>
			<output>
				<port id="5">
					<dim>32</dim>
					<dim>3</dim>
					<dim>3</dim>
					<dim>3</dim>
				</port>
			</output>
		</layer>
		<layer id="13" name="bias_data7960_const" precision="FP32" type="Const">
			<output>
				<port id="1">
					<dim>32</dim>
				</port>
			</output>
			<blobs>
				<custom offset="3744" size="128"/>
			</blobs>
		</layer>
		<layer id="14" name="315" precision="FP32" type="Convolution">
			<data dilations="1,1" group="1" kernel="3,3" output="32" pads_begin="1,1" pads_end="1,1" strides="2,2"/>
			<input>
				<port id="0">
					<dim>1</dim>
					<dim>3</dim>
					<dim>224</dim>
					<dim>224</dim>
				</port>
				<port id="1">
					<dim>32</dim>
					<dim>3</dim>
					<dim>3</dim>
					<dim>3</dim>
				</port>
				<port id="2">
					<dim>32</dim>
				</port>
			</input>
			<output>
				<port id="3">
					<dim>1</dim>
					<dim>32</dim>
					<dim>112</dim>
					<dim>112</dim>
				</port>
			</output>
		</layer>
		<layer id="15" name="317" precision="FP32" type="Clamp">
			<data max="6.0" min="0.0"/>
			<input>
				<port id="0">
					<dim>1</dim>
					<dim>32</dim>
					<dim>112</dim>
					<dim>112</dim>
				</port>
			</input>
			<output>
				<port id="1">
					<dim>1</dim>
					<dim>32</dim>
					<dim>112</dim>
					<dim>112</dim>
				</port>
			</output>
		</layer>
		<layer id="16" name="1333113335_const" precision="FP32" type="Const">
			<output>
				<port id="1"/>
			</output>
			<blobs>
				<custom offset="3872" size="4"/>
			</blobs>
		</layer>
		<layer id="17" name="1333213336_const" precision="FP32" type="Const">
			<output>
				<port id="1"/>
			</output>
			<blobs>
				<custom offset="3876" size="4"/>
			</blobs>
		</layer>
		<layer id="18" name="1333313337_const" precision="FP32" type="Const">
			<output>
				<port id="1"/>
			</output>
			<blobs>
				<custom offset="3872" size="4"/>
			</blobs>
		</layer>
		<layer id="19" name="1333413338_const" precision="FP32" type="Const">
			<output>
				<port id="1"/>
			</output>
			<blobs>
				<custom offset="3876" size="4"/>
			</blobs>
		</layer>
		<layer id="20" name="318/fq_input_0" precision="FP32" type="FakeQuantize">
			<data levels="256.0"/>
			<input>
				<port id="0">
					<dim>1</dim>
					<dim>32</dim>
					<dim>112</dim>
					<dim>112</dim>
				</port>
				<port id="1"/>
				<port id="2"/>
				<port id="3"/>
				<port id="4"/>
			</input>
			<output>
				<port id="5">
					<dim>1</dim>
					<dim>32</dim>
					<dim>112</dim>
					<dim>112</dim>
				</port>
			</output>
		</layer>
		<layer id="21" name="Mul1_6340/Fused_Mul_79627964_const" precision="FP32" type="Const">
			<output>
				<port id="1">
					<dim>32</dim>
					<dim>1</dim>
					<dim>3</dim>
					<dim>3</dim>
				</port>
			</output>
			<blobs>
				<custom offset="3880" size="1152"/>
			</blobs>
		</layer>
		<layer id="22" name="1334113345_const" precision="FP32" type="Const">
			<output>
				<port id="1">
					<dim>32</dim>
				</port>
			</output>
			<blobs>
				<custom offset="5032" size="128"/>
			</blobs>
		</layer>
		<layer id="23" name="1334213346_const" precision="FP32" type="Const">
			<output>
				<port id="1">
					<dim>32</dim>
				</port>
			</output>
			<blobs>
				<custom offset="5160" size="128"/>
			</blobs>
		</layer>
		<layer id="24" name="1334313347_const" precision="FP32" type="Const">
			<output>
				<port id="1">
					<dim>32</dim>
				</port>
			</output>
			<blobs>
				<custom offset="5032" size="128"/>
			</blobs>
		</layer>
		<layer id="25" name="1334413348_const" precision="FP32" type="Const">
			<output>
				<port id="1">
					<dim>32</dim>
				</port>
			</output>
			<blobs>
				<custom offset="5160" size="128"/>
			</blobs>
		</layer>
		<layer id="26" name="318/fq_weights_1" precision="FP32" type="FakeQuantize">
			<data levels="255"/>
			<input>
				<port id="0">
					<dim>32</dim>
					<dim>1</dim>
					<dim>3</dim>
					<dim>3</dim>
				</port>
				<port id="1">
					<dim>32</dim>
				</port>
				<port id="2">
					<dim>32</dim>
				</port>
				<port id="3">
					<dim>32</dim>
				</port>
				<port id="4">
					<dim>32</dim>
				</port>
			</input>
			<output>
				<port id="5">
					<dim>32</dim>
					<dim>1</dim>
					<dim>3</dim>
					<dim>3</dim>
				</port>
			</output>
		</layer>
		<layer id="27" name="bias_data79657966_const" precision="FP32" type="Const">
			<output>
				<port id="1">
					<dim>32</dim>
				</port>
			</output>
			<blobs>
				<custom offset="5288" size="128"/>
			</blobs>
		</layer>
		<layer id="28" name="318" precision="FP32" type="Convolution">
			<data dilations="1,1" group="32" kernel="3,3" output="32" pads_begin="1,1" pads_end="1,1" strides="1,1"/>
			<input>
				<port id="0">
					<dim>1</dim>
					<dim>32</dim>
					<dim>112</dim>
					<dim>112</dim>
				</port>
				<port id="1">
					<dim>32</dim>
					<dim>1</dim>
					<dim>3</dim>
					<dim>3</dim>
				</port>
				<port id="2">
					<dim>32</dim>
				</port>
			</input>
			<output>
				<port id="3">
					<dim>1</dim>
					<dim>32</dim>
					<dim>112</dim>
					<dim>112</dim>
				</port>
			</output>
		</layer>
		<layer id="29" name="320" precision="FP32" type="Clamp">
			<data max="6.0" min="0.0"/>
			<input>
				<port id="0">
					<dim>1</dim>
					<dim>32</dim>
					<dim>112</dim>
					<dim>112</dim>
				</port>
			</input>
			<output>
				<port id="1">
					<dim>1</dim>
					<dim>32</dim>
					<dim>112</dim>
					<dim>112</dim>
				</port>
			</output>
		</layer>
		<layer id="30" name="1310113105_const" precision="FP32" type="Const">
			<output>
				<port id="1"/>
			</output>
			<blobs>
				<custom offset="3872" size="4"/>
			</blobs>
		</layer>
		<layer id="31" name="1310213106_const" precision="FP32" type="Const">
			<output>
				<port id="1"/>
			</output>
			<blobs>
				<custom offset="5416" size="4"/>
			</blobs>
		</layer>
		<layer id="32" name="1310313107_const" precision="FP32" type="Const">
			<output>
				<port id="1"/>
			</output>
			<blobs>
				<custom offset="3872" size="4"/>
			</blobs>
		</layer>
		<layer id="33" name="1310413108_const" precision="FP32" type="Const">
			<output>
				<port id="1"/>
			</output>
			<blobs>
				<custom offset="5416" size="4"/>
			</blobs>
		</layer>
		<layer id="34" name="321/fq_input_0" precision="FP32" type="FakeQuantize">
			<data levels="256.0"/>
			<input>
				<port id="0">
					<dim>1</dim>
					<dim>32</dim>
					<dim>112</dim>
					<dim>112</dim>
				</port>
				<port id="1"/>
				<port id="2"/>
				<port id="3"/>
				<port id="4"/>
			</input>
			<output>
				<port id="5">
					<dim>1</dim>
					<dim>32</dim>
					<dim>112</dim>
					<dim>112</dim>
				</port>
			</output>
		</layer>
		<layer id="35" name="Mul1_6472/Fused_Mul_79687970_const" precision="FP32" type="Const">
			<output>
				<port id="1">
					<dim>16</dim>
					<dim>32</dim>
					<dim>1</dim>
					<dim>1</dim>
				</port>
			</output>
			<blobs>
				<custom offset="5420" size="2048"/>
			</blobs>
		</layer>
		<layer id="36" name="1311113115_const" precision="FP32" type="Const">
			<output>
				<port id="1">
					<dim>16</dim>
				</port>
			</output>
			<blobs>
				<custom offset="7468" size="64"/>
			</blobs>
		</layer>
		<layer id="37" name="1311213116_const" precision="FP32" type="Const">
			<output>
				<port id="1">
					<dim>16</dim>
				</port>
			</output>
			<blobs>
				<custom offset="7532" size="64"/>
			</blobs>
		</layer>
		<layer id="38" name="1311313117_const" precision="FP32" type="Const">
			<output>
				<port id="1">
					<dim>16</dim>
				</port>
			</output>
			<blobs>
				<custom offset="7468" size="64"/>
			</blobs>
		</layer>
		<layer id="39" name="1311413118_const" precision="FP32" type="Const">
			<output>
				<port id="1">
					<dim>16</dim>
				</port>
			</output>
			<blobs>
				<custom offset="7532" size="64"/>
			</blobs>
		</layer>
		<layer id="40" name="321/fq_weights_1" precision="FP32" type="FakeQuantize">
			<data levels="255"/>
			<input>
				<port id="0">
					<dim>16</dim>
					<dim>32</dim>
					<dim>1</dim>
					<dim>1</dim>
				</port>
				<port id="1">
					<dim>16</dim>
				</port>
				<port id="2">
					<dim>16</dim>
				</port>
				<port id="3">
					<dim>16</dim>
				</port>
				<port id="4">
					<dim>16</dim>
				</port>
			</input>
			<output>
				<port id="5">
					<dim>16</dim>
					<dim>32</dim>
					<dim>1</dim>
					<dim>1</dim>
				</port>
			</output>
		</layer>
		<layer id="41" name="bias_data79717972_const" precision="FP32" type="Const">
			<output>
				<port id="1">
					<dim>16</dim>
				</port>
			</output>
			<blobs>
				<custom offset="7596" size="64"/>
			</blobs>
		</layer>
		<layer id="42" name="321" precision="FP32" type="Convolution">
			<data dilations="1,1" group="1" kernel="1,1" output="16" pads_begin="0,0" pads_end="0,0" strides="1,1"/>
			<input>
				<port id="0">
					<dim>1</dim>
					<dim>32</dim>
					<dim>112</dim>
					<dim>112</dim>
				</port>
				<port id="1">
					<dim>16</dim>
					<dim>32</dim>
					<dim>1</dim>
					<dim>1</dim>
				</port>
				<port id="2">
					<dim>16</dim>
				</port>
			</input>
			<output>
				<port id="3">
					<dim>1</dim>
					<dim>16</dim>
					<dim>112</dim>
					<dim>112</dim>
				</port>
			</output>
		</layer>
		<layer id="43" name="1236112365_const" precision="FP32" type="Const">
			<output>
				<port id="1"/>
			</output>
			<blobs>
				<custom offset="7660" size="4"/>
			</blobs>
		</layer>
		<layer id="44" name="1236212366_const" precision="FP32" type="Const">
			<output>
				<port id="1"/>
			</output>
			<blobs>
				<custom offset="7664" size="4"/>
			</blobs>
		</layer>
		<layer id="45" name="1236312367_const" precision="FP32" type="Const">
			<output>
				<port id="1"/>
			</output>
			<blobs>
				<custom offset="7660" size="4"/>
			</blobs>
		</layer>
		<layer id="46" name="1236412368_const" precision="FP32" type="Const">
			<output>
				<port id="1"/>
			</output>
			<blobs>
				<custom offset="7664" size="4"/>
			</blobs>
		</layer>
		<layer id="47" name="323/fq_input_0" precision="FP32" type="FakeQuantize">
			<data levels="256.0"/>
			<input>
				<port id="0">
					<dim>1</dim>
					<dim>16</dim>
					<dim>112</dim>
					<dim>112</dim>
				</port>
				<port id="1"/>
				<port id="2"/>
				<port id="3"/>
				<port id="4"/>
			</input>
			<output>
				<port id="5">
					<dim>1</dim>
					<dim>16</dim>
					<dim>112</dim>
					<dim>112</dim>
				</port>
			</output>
		</layer>
		<layer id="48" name="Mul1_6364/Fused_Mul_79747976_const" precision="FP32" type="Const">
			<output>
				<port id="1">
					<dim>96</dim>
					<dim>16</dim>
					<dim>1</dim>
					<dim>1</dim>
				</port>
			</output>
			<blobs>
				<custom offset="7668" size="6144"/>
			</blobs>
		</layer>
		<layer id="49" name="1237112375_const" precision="FP32" type="Const">
			<output>
				<port id="1">
					<dim>96</dim>
				</port>
			</output>
			<blobs>
				<custom offset="13812" size="384"/>
			</blobs>
		</layer>
		<layer id="50" name="1237212376_const" precision="FP32" type="Const">
			<output>
				<port id="1">
					<dim>96</dim>
				</port>
			</output>
			<blobs>
				<custom offset="14196" size="384"/>
			</blobs>
		</layer>
		<layer id="51" name="1237312377_const" precision="FP32" type="Const">
			<output>
				<port id="1">
					<dim>96</dim>
				</port>
			</output>
			<blobs>
				<custom offset="13812" size="384"/>
			</blobs>
		</layer>
		<layer id="52" name="1237412378_const" precision="FP32" type="Const">
			<output>
				<port id="1">
					<dim>96</dim>
				</port>
			</output>
			<blobs>
				<custom offset="14196" size="384"/>
			</blobs>
		</layer>
		<layer id="53" name="323/fq_weights_1" precision="FP32" type="FakeQuantize">
			<data levels="255"/>
			<input>
				<port id="0">
					<dim>96</dim>
					<dim>16</dim>
					<dim>1</dim>
					<dim>1</dim>
				</port>
				<port id="1">
					<dim>96</dim>
				</port>
				<port id="2">
					<dim>96</dim>
				</port>
				<port id="3">
					<dim>96</dim>
				</port>
				<port id="4">
					<dim>96</dim>
				</port>
			</input>
			<output>
				<port id="5">
					<dim>96</dim>
					<dim>16</dim>
					<dim>1</dim>
					<dim>1</dim>
				</port>
			</output>
		</layer>
		<layer id="54" name="bias_data79777978_const" precision="FP32" type="Const">
			<output>
				<port id="1">
					<dim>96</dim>
				</port>
			</output>
			<blobs>
				<custom offset="14580" size="384"/>
			</blobs>
		</layer>
		<layer id="55" name="323" precision="FP32" type="Convolution">
			<data dilations="1,1" group="1" kernel="1,1" output="96" pads_begin="0,0" pads_end="0,0" strides="1,1"/>
			<input>
				<port id="0">
					<dim>1</dim>
					<dim>16</dim>
					<dim>112</dim>
					<dim>112</dim>
				</port>
				<port id="1">
					<dim>96</dim>
					<dim>16</dim>
					<dim>1</dim>
					<dim>1</dim>
				</port>
				<port id="2">
					<dim>96</dim>
				</port>
			</input>
			<output>
				<port id="3">
					<dim>1</dim>
					<dim>96</dim>
					<dim>112</dim>
					<dim>112</dim>
				</port>
			</output>
		</layer>
		<layer id="56" name="325" precision="FP32" type="Clamp">
			<data max="6.0" min="0.0"/>
			<input>
				<port id="0">
					<dim>1</dim>
					<dim>96</dim>
					<dim>112</dim>
					<dim>112</dim>
				</port>
			</input>
			<output>
				<port id="1">
					<dim>1</dim>
					<dim>96</dim>
					<dim>112</dim>
					<dim>112</dim>
				</port>
			</output>
		</layer>
		<layer id="57" name="1335113355_const" precision="FP32" type="Const">
			<output>
				<port id="1"/>
			</output>
			<blobs>
				<custom offset="3872" size="4"/>
			</blobs>
		</layer>
		<layer id="58" name="1335213356_const" precision="FP32" type="Const">
			<output>
				<port id="1"/>
			</output>
			<blobs>
				<custom offset="5416" size="4"/>
			</blobs>
		</layer>
		<layer id="59" name="1335313357_const" precision="FP32" type="Const">
			<output>
				<port id="1"/>
			</output>
			<blobs>
				<custom offset="3872" size="4"/>
			</blobs>
		</layer>
		<layer id="60" name="1335413358_const" precision="FP32" type="Const">
			<output>
				<port id="1"/>
			</output>
			<blobs>
				<custom offset="5416" size="4"/>
			</blobs>
		</layer>
		<layer id="61" name="326/fq_input_0" precision="FP32" type="FakeQuantize">
			<data levels="256.0"/>
			<input>
				<port id="0">
					<dim>1</dim>
					<dim>96</dim>
					<dim>112</dim>
					<dim>112</dim>
				</port>
				<port id="1"/>
				<port id="2"/>
				<port id="3"/>
				<port id="4"/>
			</input>
			<output>
				<port id="5">
					<dim>1</dim>
					<dim>96</dim>
					<dim>112</dim>
					<dim>112</dim>
				</port>
			</output>
		</layer>
		<layer id="62" name="Mul1_6124/Fused_Mul_79807982_const" precision="FP32" type="Const">
			<output>
				<port id="1">
					<dim>96</dim>
					<dim>1</dim>
					<dim>3</dim>
					<dim>3</dim>
				</port>
			</output>
			<blobs>
				<custom offset="14964" size="3456"/>
			</blobs>
		</layer>
		<layer id="63" name="1336113365_const" precision="FP32" type="Const">
			<output>
				<port id="1">
					<dim>96</dim>
				</port>
			</output>
			<blobs>
				<custom offset="18420" size="384"/>
			</blobs>
		</layer>
		<layer id="64" name="1336213366_const" precision="FP32" type="Const">
			<output>
				<port id="1">
					<dim>96</dim>
				</port>
			</output>
			<blobs>
				<custom offset="18804" size="384"/>
			</blobs>
		</layer>
		<layer id="65" name="1336313367_const" precision="FP32" type="Const">
			<output>
				<port id="1">
					<dim>96</dim>
				</port>
			</output>
			<blobs>
				<custom offset="18420" size="384"/>
			</blobs>
		</layer>
		<layer id="66" name="1336413368_const" precision="FP32" type="Const">
			<output>
				<port id="1">
					<dim>96</dim>
				</port>
			</output>
			<blobs>
				<custom offset="18804" size="384"/>
			</blobs>
		</layer>
		<layer id="67" name="326/fq_weights_1" precision="FP32" type="FakeQuantize">
			<data levels="255"/>
			<input>
				<port id="0">
					<dim>96</dim>
					<dim>1</dim>
					<dim>3</dim>
					<dim>3</dim>
				</port>
				<port id="1">
					<dim>96</dim>
				</port>
				<port id="2">
					<dim>96</dim>
				</port>
				<port id="3">
					<dim>96</dim>
				</port>
				<port id="4">
					<dim>96</dim>
				</port>
			</input>
			<output>
				<port id="5">
					<dim>96</dim>
					<dim>1</dim>
					<dim>3</dim>
					<dim>3</dim>
				</port>
			</output>
		</layer>
		<layer id="68" name="bias_data79837984_const" precision="FP32" type="Const">
			<output>
				<port id="1">
					<dim>96</dim>
				</port>
			</output>
			<blobs>
				<custom offset="19188" size="384"/>
			</blobs>
		</layer>
		<layer id="69" name="326" precision="FP32" type="Convolution">
			<data dilations="1,1" group="96" kernel="3,3" output="96" pads_begin="1,1" pads_end="1,1" strides="2,2"/>
			<input>
				<port id="0">
					<dim>1</dim>
					<dim>96</dim>
					<dim>112</dim>
					<dim>112</dim>
				</port>
				<port id="1">
					<dim>96</dim>
					<dim>1</dim>
					<dim>3</dim>
					<dim>3</dim>
				</port>
				<port id="2">
					<dim>96</dim>
				</port>
			</input>
			<output>
				<port id="3">
					<dim>1</dim>
					<dim>96</dim>
					<dim>56</dim>
					<dim>56</dim>
				</port>
			</output>
		</layer>
		<layer id="70" name="328" precision="FP32" type="Clamp">
			<data max="6.0" min="0.0"/>
			<input>
				<port id="0">
					<dim>1</dim>
					<dim>96</dim>
					<dim>56</dim>
					<dim>56</dim>
				</port>
			</input>
			<output>
				<port id="1">
					<dim>1</dim>
					<dim>96</dim>
					<dim>56</dim>
					<dim>56</dim>
				</port>
			</output>
		</layer>
		<layer id="71" name="1232112325_const" precision="FP32" type="Const">
			<output>
				<port id="1"/>
			</output>
			<blobs>
				<custom offset="3872" size="4"/>
			</blobs>
		</layer>
		<layer id="72" name="1232212326_const" precision="FP32" type="Const">
			<output>
				<port id="1"/>
			</output>
			<blobs>
				<custom offset="19572" size="4"/>
			</blobs>
		</layer>
		<layer id="73" name="1232312327_const" precision="FP32" type="Const">
			<output>
				<port id="1"/>
			</output>
			<blobs>
				<custom offset="3872" size="4"/>
			</blobs>
		</layer>
		<layer id="74" name="1232412328_const" precision="FP32" type="Const">
			<output>
				<port id="1"/>
			</output>
			<blobs>
				<custom offset="19572" size="4"/>
			</blobs>
		</layer>
		<layer id="75" name="329/fq_input_0" precision="FP32" type="FakeQuantize">
			<data levels="256.0"/>
			<input>
				<port id="0">
					<dim>1</dim>
					<dim>96</dim>
					<dim>56</dim>
					<dim>56</dim>
				</port>
				<port id="1"/>
				<port id="2"/>
				<port id="3"/>
				<port id="4"/>
			</input>
			<output>
				<port id="5">
					<dim>1</dim>
					<dim>96</dim>
					<dim>56</dim>
					<dim>56</dim>
				</port>
			</output>
		</layer>
		<layer id="76" name="Mul1_5956/Fused_Mul_79867988_const" precision="FP32" type="Const">
			<output>
				<port id="1">
					<dim>24</dim>
					<dim>96</dim>
					<dim>1</dim>
					<dim>1</dim>
				</port>
			</output>
			<blobs>
				<custom offset="19576" size="9216"/>
			</blobs>
		</layer>
		<layer id="77" name="1233112335_const" precision="FP32" type="Const">
			<output>
				<port id="1">
					<dim>24</dim>
				</port>
			</output>
			<blobs>
				<custom offset="28792" size="96"/>
			</blobs>
		</layer>
		<layer id="78" name="1233212336_const" precision="FP32" type="Const">
			<output>
				<port id="1">
					<dim>24</dim>
				</port>
			</output>
			<blobs>
				<custom offset="28888" size="96"/>
			</blobs>
		</layer>
		<layer id="79" name="1233312337_const" precision="FP32" type="Const">
			<output>
				<port id="1">
					<dim>24</dim>
				</port>
			</output>
			<blobs>
				<custom offset="28792" size="96"/>
			</blobs>
		</layer>
		<layer id="80" name="1233412338_const" precision="FP32" type="Const">
			<output>
				<port id="1">
					<dim>24</dim>
				</port>
			</output>
			<blobs>
				<custom offset="28888" size="96"/>
			</blobs>
		</layer>
		<layer id="81" name="329/fq_weights_1" precision="FP32" type="FakeQuantize">
			<data levels="255"/>
			<input>
				<port id="0">
					<dim>24</dim>
					<dim>96</dim>
					<dim>1</dim>
					<dim>1</dim>
				</port>
				<port id="1">
					<dim>24</dim>
				</port>
				<port id="2">
					<dim>24</dim>
				</port>
				<port id="3">
					<dim>24</dim>
				</port>
				<port id="4">
					<dim>24</dim>
				</port>
			</input>
			<output>
				<port id="5">
					<dim>24</dim>
					<dim>96</dim>
					<dim>1</dim>
					<dim>1</dim>
				</port>
			</output>
		</layer>
		<layer id="82" name="bias_data79897990_const" precision="FP32" type="Const">
			<output>
				<port id="1">
					<dim>24</dim>
				</port>
			</output>
			<blobs>
				<custom offset="28984" size="96"/>
			</blobs>
		</layer>
		<layer id="83" name="329" precision="FP32" type="Convolution">
			<data dilations="1,1" group="1" kernel="1,1" output="24" pads_begin="0,0" pads_end="0,0" strides="1,1"/>
			<input>
				<port id="0">
					<dim>1</dim>
					<dim>96</dim>
					<dim>56</dim>
					<dim>56</dim>
				</port>
				<port id="1">
					<dim>24</dim>
					<dim>96</dim>
					<dim>1</dim>
					<dim>1</dim>
				</port>
				<port id="2">
					<dim>24</dim>
				</port>
			</input>
			<output>
				<port id="3">
					<dim>1</dim>
					<dim>24</dim>
					<dim>56</dim>
					<dim>56</dim>
				</port>
			</output>
		</layer>
		<layer id="84" name="1273112735_const" precision="FP32" type="Const">
			<output>
				<port id="1"/>
			</output>
			<blobs>
				<custom offset="29080" size="4"/>
			</blobs>
		</layer>
		<layer id="85" name="1273212736_const" precision="FP32" type="Const">
			<output>
				<port id="1"/>
			</output>
			<blobs>
				<custom offset="29084" size="4"/>
			</blobs>
		</layer>
		<layer id="86" name="1273312737_const" precision="FP32" type="Const">
			<output>
				<port id="1"/>
			</output>
			<blobs>
				<custom offset="29080" size="4"/>
			</blobs>
		</layer>
		<layer id="87" name="1273412738_const" precision="FP32" type="Const">
			<output>
				<port id="1"/>
			</output>
			<blobs>
				<custom offset="29084" size="4"/>
			</blobs>
		</layer>
		<layer id="88" name="339/fq_input_0" precision="FP32" type="FakeQuantize">
			<data levels="256.0"/>
			<input>
				<port id="0">
					<dim>1</dim>
					<dim>24</dim>
					<dim>56</dim>
					<dim>56</dim>
				</port>
				<port id="1"/>
				<port id="2"/>
				<port id="3"/>
				<port id="4"/>
			</input>
			<output>
				<port id="5">
					<dim>1</dim>
					<dim>24</dim>
					<dim>56</dim>
					<dim>56</dim>
				</port>
			</output>
		</layer>
		<layer id="89" name="Mul1_6436/Fused_Mul_79927994_const" precision="FP32" type="Const">
			<output>
				<port id="1">
					<dim>144</dim>
					<dim>24</dim>
					<dim>1</dim>
					<dim>1</dim>
				</port>
			</output>
			<blobs>
				<custom offset="29088" size="13824"/>
			</blobs>
		</layer>
		<layer id="90" name="1356113565_const" precision="FP32" type="Const">
			<output>
				<port id="1">
					<dim>144</dim>
				</port>
			</output>
			<blobs>
				<custom offset="42912" size="576"/>
			</blobs>
		</layer>
		<layer id="91" name="1356213566_const" precision="FP32" type="Const">
			<output>
				<port id="1">
					<dim>144</dim>
				</port>
			</output>
			<blobs>
				<custom offset="43488" size="576"/>
			</blobs>
		</layer>
		<layer id="92" name="1356313567_const" precision="FP32" type="Const">
			<output>
				<port id="1">
					<dim>144</dim>
				</port>
			</output>
			<blobs>
				<custom offset="42912" size="576"/>
			</blobs>
		</layer>
		<layer id="93" name="1356413568_const" precision="FP32" type="Const">
			<output>
				<port id="1">
					<dim>144</dim>
				</port>
			</output>
			<blobs>
				<custom offset="43488" size="576"/>
			</blobs>
		</layer>
		<layer id="94" name="331/fq_weights_1" precision="FP32" type="FakeQuantize">
			<data levels="255"/>
			<input>
				<port id="0">
					<dim>144</dim>
					<dim>24</dim>
					<dim>1</dim>
					<dim>1</dim>
				</port>
				<port id="1">
					<dim>144</dim>
				</port>
				<port id="2">
					<dim>144</dim>
				</port>
				<port id="3">
					<dim>144</dim>
				</port>
				<port id="4">
					<dim>144</dim>
				</port>
			</input>
			<output>
				<port id="5">
					<dim>144</dim>
					<dim>24</dim>
					<dim>1</dim>
					<dim>1</dim>
				</port>
			</output>
		</layer>
		<layer id="95" name="bias_data79957996_const" precision="FP32" type="Const">
			<output>
				<port id="1">
					<dim>144</dim>
				</port>
			</output>
			<blobs>
				<custom offset="44064" size="576"/>
			</blobs>
		</layer>
		<layer id="96" name="331" precision="FP32" type="Convolution">
			<data dilations="1,1" group="1" kernel="1,1" output="144" pads_begin="0,0" pads_end="0,0" strides="1,1"/>
			<input>
				<port id="0">
					<dim>1</dim>
					<dim>24</dim>
					<dim>56</dim>
					<dim>56</dim>
				</port>
				<port id="1">
					<dim>144</dim>
					<dim>24</dim>
					<dim>1</dim>
					<dim>1</dim>
				</port>
				<port id="2">
					<dim>144</dim>
				</port>
			</input>
			<output>
				<port id="3">
					<dim>1</dim>
					<dim>144</dim>
					<dim>56</dim>
					<dim>56</dim>
				</port>
			</output>
		</layer>
		<layer id="97" name="333" precision="FP32" type="Clamp">
			<data max="6.0" min="0.0"/>
			<input>
				<port id="0">
					<dim>1</dim>
					<dim>144</dim>
					<dim>56</dim>
					<dim>56</dim>
				</port>
			</input>
			<output>
				<port id="1">
					<dim>1</dim>
					<dim>144</dim>
					<dim>56</dim>
					<dim>56</dim>
				</port>
			</output>
		</layer>
		<layer id="98" name="1281112815_const" precision="FP32" type="Const">
			<output>
				<port id="1"/>
			</output>
			<blobs>
				<custom offset="3872" size="4"/>
			</blobs>
		</layer>
		<layer id="99" name="1281212816_const" precision="FP32" type="Const">
			<output>
				<port id="1"/>
			</output>
			<blobs>
				<custom offset="44640" size="4"/>
			</blobs>
		</layer>
		<layer id="100" name="1281312817_const" precision="FP32" type="Const">
			<output>
				<port id="1"/>
			</output>
			<blobs>
				<custom offset="3872" size="4"/>
			</blobs>
		</layer>
		<layer id="101" name="1281412818_const" precision="FP32" type="Const">
			<output>
				<port id="1"/>
			</output>
			<blobs>
				<custom offset="44640" size="4"/>
			</blobs>
		</layer>
		<layer id="102" name="334/fq_input_0" precision="FP32" type="FakeQuantize">
			<data levels="256.0"/>
			<input>
				<port id="0">
					<dim>1</dim>
					<dim>144</dim>
					<dim>56</dim>
					<dim>56</dim>
				</port>
				<port id="1"/>
				<port id="2"/>
				<port id="3"/>
				<port id="4"/>
			</input>
			<output>
				<port id="5">
					<dim>1</dim>
					<dim>144</dim>
					<dim>56</dim>
					<dim>56</dim>
				</port>
			</output>
		</layer>
		<layer id="103" name="Mul1_6412/Fused_Mul_79988000_const" precision="FP32" type="Const">
			<output>
				<port id="1">
					<dim>144</dim>
					<dim>1</dim>
					<dim>3</dim>
					<dim>3</dim>
				</port>
			</output>
			<blobs>
				<custom offset="44644" size="5184"/>
			</blobs>
		</layer>
		<layer id="104" name="1282112825_const" precision="FP32" type="Const">
			<output>
				<port id="1">
					<dim>144</dim>
				</port>
			</output>
			<blobs>
				<custom offset="49828" size="576"/>
			</blobs>
		</layer>
		<layer id="105" name="1282212826_const" precision="FP32" type="Const">
			<output>
				<port id="1">
					<dim>144</dim>
				</port>
			</output>
			<blobs>
				<custom offset="50404" size="576"/>
			</blobs>
		</layer>
		<layer id="106" name="1282312827_const" precision="FP32" type="Const">
			<output>
				<port id="1">
					<dim>144</dim>
				</port>
			</output>
			<blobs>
				<custom offset="49828" size="576"/>
			</blobs>
		</layer>
		<layer id="107" name="1282412828_const" precision="FP32" type="Const">
			<output>
				<port id="1">
					<dim>144</dim>
				</port>
			</output>
			<blobs>
				<custom offset="50404" size="576"/>
			</blobs>
		</layer>
		<layer id="108" name="334/fq_weights_1" precision="FP32" type="FakeQuantize">
			<data levels="255"/>
			<input>
				<port id="0">
					<dim>144</dim>
					<dim>1</dim>
					<dim>3</dim>
					<dim>3</dim>
				</port>
				<port id="1">
					<dim>144</dim>
				</port>
				<port id="2">
					<dim>144</dim>
				</port>
				<port id="3">
					<dim>144</dim>
				</port>
				<port id="4">
					<dim>144</dim>
				</port>
			</input>
			<output>
				<port id="5">
					<dim>144</dim>
					<dim>1</dim>
					<dim>3</dim>
					<dim>3</dim>
				</port>
			</output>
		</layer>
		<layer id="109" name="bias_data80018002_const" precision="FP32" type="Const">
			<output>
				<port id="1">
					<dim>144</dim>
				</port>
			</output>
			<blobs>
				<custom offset="50980" size="576"/>
			</blobs>
		</layer>
		<layer id="110" name="334" precision="FP32" type="Convolution">
			<data dilations="1,1" group="144" kernel="3,3" output="144" pads_begin="1,1" pads_end="1,1" strides="1,1"/>
			<input>
				<port id="0">
					<dim>1</dim>
					<dim>144</dim>
					<dim>56</dim>
					<dim>56</dim>
				</port>
				<port id="1">
					<dim>144</dim>
					<dim>1</dim>
					<dim>3</dim>
					<dim>3</dim>
				</port>
				<port id="2">
					<dim>144</dim>
				</port>
			</input>
			<output>
				<port id="3">
					<dim>1</dim>
					<dim>144</dim>
					<dim>56</dim>
					<dim>56</dim>
				</port>
			</output>
		</layer>
		<layer id="111" name="336" precision="FP32" type="Clamp">
			<data max="6.0" min="0.0"/>
			<input>
				<port id="0">
					<dim>1</dim>
					<dim>144</dim>
					<dim>56</dim>
					<dim>56</dim>
				</port>
			</input>
			<output>
				<port id="1">
					<dim>1</dim>
					<dim>144</dim>
					<dim>56</dim>
					<dim>56</dim>
				</port>
			</output>
		</layer>
		<layer id="112" name="1290112905_const" precision="FP32" type="Const">
			<output>
				<port id="1"/>
			</output>
			<blobs>
				<custom offset="3872" size="4"/>
			</blobs>
		</layer>
		<layer id="113" name="1290212906_const" precision="FP32" type="Const">
			<output>
				<port id="1"/>
			</output>
			<blobs>
				<custom offset="51556" size="4"/>
			</blobs>
		</layer>
		<layer id="114" name="1290312907_const" precision="FP32" type="Const">
			<output>
				<port id="1"/>
			</output>
			<blobs>
				<custom offset="3872" size="4"/>
			</blobs>
		</layer>
		<layer id="115" name="1290412908_const" precision="FP32" type="Const">
			<output>
				<port id="1"/>
			</output>
			<blobs>
				<custom offset="51556" size="4"/>
			</blobs>
		</layer>
		<layer id="116" name="337/fq_input_0" precision="FP32" type="FakeQuantize">
			<data levels="256.0"/>
			<input>
				<port id="0">
					<dim>1</dim>
					<dim>144</dim>
					<dim>56</dim>
					<dim>56</dim>
				</port>
				<port id="1"/>
				<port id="2"/>
				<port id="3"/>
				<port id="4"/>
			</input>
			<output>
				<port id="5">
					<dim>1</dim>
					<dim>144</dim>
					<dim>56</dim>
					<dim>56</dim>
				</port>
			</output>
		</layer>
		<layer id="117" name="Mul1_6208/Fused_Mul_80048006_const" precision="FP32" type="Const">
			<output>
				<port id="1">
					<dim>24</dim>
					<dim>144</dim>
					<dim>1</dim>
					<dim>1</dim>
				</port>
			</output>
			<blobs>
				<custom offset="51560" size="13824"/>
			</blobs>
		</layer>
		<layer id="118" name="1291112915_const" precision="FP32" type="Const">
			<output>
				<port id="1">
					<dim>24</dim>
				</port>
			</output>
			<blobs>
				<custom offset="65384" size="96"/>
			</blobs>
		</layer>
		<layer id="119" name="1291212916_const" precision="FP32" type="Const">
			<output>
				<port id="1">
					<dim>24</dim>
				</port>
			</output>
			<blobs>
				<custom offset="65480" size="96"/>
			</blobs>
		</layer>
		<layer id="120" name="1291312917_const" precision="FP32" type="Const">
			<output>
				<port id="1">
					<dim>24</dim>
				</port>
			</output>
			<blobs>
				<custom offset="65384" size="96"/>
			</blobs>
		</layer>
		<layer id="121" name="1291412918_const" precision="FP32" type="Const">
			<output>
				<port id="1">
					<dim>24</dim>
				</port>
			</output>
			<blobs>
				<custom offset="65480" size="96"/>
			</blobs>
		</layer>
		<layer id="122" name="337/fq_weights_1" precision="FP32" type="FakeQuantize">
			<data levels="255"/>
			<input>
				<port id="0">
					<dim>24</dim>
					<dim>144</dim>
					<dim>1</dim>
					<dim>1</dim>
				</port>
				<port id="1">
					<dim>24</dim>
				</port>
				<port id="2">
					<dim>24</dim>
				</port>
				<port id="3">
					<dim>24</dim>
				</port>
				<port id="4">
					<dim>24</dim>
				</port>
			</input>
			<output>
				<port id="5">
					<dim>24</dim>
					<dim>144</dim>
					<dim>1</dim>
					<dim>1</dim>
				</port>
			</output>
		</layer>
		<layer id="123" name="bias_data80078008_const" precision="FP32" type="Const">
			<output>
				<port id="1">
					<dim>24</dim>
				</port>
			</output>
			<blobs>
				<custom offset="65576" size="96"/>
			</blobs>
		</layer>
		<layer id="124" name="337" precision="FP32" type="Convolution">
			<data dilations="1,1" group="1" kernel="1,1" output="24" pads_begin="0,0" pads_end="0,0" strides="1,1"/>
			<input>
				<port id="0">
					<dim>1</dim>
					<dim>144</dim>
					<dim>56</dim>
					<dim>56</dim>
				</port>
				<port id="1">
					<dim>24</dim>
					<dim>144</dim>
					<dim>1</dim>
					<dim>1</dim>
				</port>
				<port id="2">
					<dim>24</dim>
				</port>
			</input>
			<output>
				<port id="3">
					<dim>1</dim>
					<dim>24</dim>
					<dim>56</dim>
					<dim>56</dim>
				</port>
			</output>
		</layer>
		<layer id="125" name="1274112745_const" precision="FP32" type="Const">
			<output>
				<port id="1"/>
			</output>
			<blobs>
				<custom offset="65672" size="4"/>
			</blobs>
		</layer>
		<layer id="126" name="1274212746_const" precision="FP32" type="Const">
			<output>
				<port id="1"/>
			</output>
			<blobs>
				<custom offset="65676" size="4"/>
			</blobs>
		</layer>
		<layer id="127" name="1274312747_const" precision="FP32" type="Const">
			<output>
				<port id="1"/>
			</output>
			<blobs>
				<custom offset="65672" size="4"/>
			</blobs>
		</layer>
		<layer id="128" name="1274412748_const" precision="FP32" type="Const">
			<output>
				<port id="1"/>
			</output>
			<blobs>
				<custom offset="65676" size="4"/>
			</blobs>
		</layer>
		<layer id="129" name="339/fq_input_1" precision="FP32" type="FakeQuantize">
			<data levels="256.0"/>
			<input>
				<port id="0">
					<dim>1</dim>
					<dim>24</dim>
					<dim>56</dim>
					<dim>56</dim>
				</port>
				<port id="1"/>
				<port id="2"/>
				<port id="3"/>
				<port id="4"/>
			</input>
			<output>
				<port id="5">
					<dim>1</dim>
					<dim>24</dim>
					<dim>56</dim>
					<dim>56</dim>
				</port>
			</output>
		</layer>
		<layer id="130" name="339" precision="FP32" type="Eltwise">
			<data operation="sum"/>
			<input>
				<port id="0">
					<dim>1</dim>
					<dim>24</dim>
					<dim>56</dim>
					<dim>56</dim>
				</port>
				<port id="1">
					<dim>1</dim>
					<dim>24</dim>
					<dim>56</dim>
					<dim>56</dim>
				</port>
			</input>
			<output>
				<port id="2">
					<dim>1</dim>
					<dim>24</dim>
					<dim>56</dim>
					<dim>56</dim>
				</port>
			</output>
		</layer>
		<layer id="131" name="1351113515_const" precision="FP32" type="Const">
			<output>
				<port id="1"/>
			</output>
			<blobs>
				<custom offset="65680" size="4"/>
			</blobs>
		</layer>
		<layer id="132" name="1351213516_const" precision="FP32" type="Const">
			<output>
				<port id="1"/>
			</output>
			<blobs>
				<custom offset="65684" size="4"/>
			</blobs>
		</layer>
		<layer id="133" name="1351313517_const" precision="FP32" type="Const">
			<output>
				<port id="1"/>
			</output>
			<blobs>
				<custom offset="65680" size="4"/>
			</blobs>
		</layer>
		<layer id="134" name="1351413518_const" precision="FP32" type="Const">
			<output>
				<port id="1"/>
			</output>
			<blobs>
				<custom offset="65684" size="4"/>
			</blobs>
		</layer>
		<layer id="135" name="340/fq_input_0" precision="FP32" type="FakeQuantize">
			<data levels="256.0"/>
			<input>
				<port id="0">
					<dim>1</dim>
					<dim>24</dim>
					<dim>56</dim>
					<dim>56</dim>
				</port>
				<port id="1"/>
				<port id="2"/>
				<port id="3"/>
				<port id="4"/>
			</input>
			<output>
				<port id="5">
					<dim>1</dim>
					<dim>24</dim>
					<dim>56</dim>
					<dim>56</dim>
				</port>
			</output>
		</layer>
		<layer id="136" name="Mul1_6268/Fused_Mul_80108012_const" precision="FP32" type="Const">
			<output>
				<port id="1">
					<dim>144</dim>
					<dim>24</dim>
					<dim>1</dim>
					<dim>1</dim>
				</port>
			</output>
			<blobs>
				<custom offset="65688" size="13824"/>
			</blobs>
		</layer>
		<layer id="137" name="1352113525_const" precision="FP32" type="Const">
			<output>
				<port id="1">
					<dim>144</dim>
				</port>
			</output>
			<blobs>
				<custom offset="79512" size="576"/>
			</blobs>
		</layer>
		<layer id="138" name="1352213526_const" precision="FP32" type="Const">
			<output>
				<port id="1">
					<dim>144</dim>
				</port>
			</output>
			<blobs>
				<custom offset="80088" size="576"/>
			</blobs>
		</layer>
		<layer id="139" name="1352313527_const" precision="FP32" type="Const">
			<output>
				<port id="1">
					<dim>144</dim>
				</port>
			</output>
			<blobs>
				<custom offset="79512" size="576"/>
			</blobs>
		</layer>
		<layer id="140" name="1352413528_const" precision="FP32" type="Const">
			<output>
				<port id="1">
					<dim>144</dim>
				</port>
			</output>
			<blobs>
				<custom offset="80088" size="576"/>
			</blobs>
		</layer>
		<layer id="141" name="340/fq_weights_1" precision="FP32" type="FakeQuantize">
			<data levels="255"/>
			<input>
				<port id="0">
					<dim>144</dim>
					<dim>24</dim>
					<dim>1</dim>
					<dim>1</dim>
				</port>
				<port id="1">
					<dim>144</dim>
				</port>
				<port id="2">
					<dim>144</dim>
				</port>
				<port id="3">
					<dim>144</dim>
				</port>
				<port id="4">
					<dim>144</dim>
				</port>
			</input>
			<output>
				<port id="5">
					<dim>144</dim>
					<dim>24</dim>
					<dim>1</dim>
					<dim>1</dim>
				</port>
			</output>
		</layer>
		<layer id="142" name="bias_data80138014_const" precision="FP32" type="Const">
			<output>
				<port id="1">
					<dim>144</dim>
				</port>
			</output>
			<blobs>
				<custom offset="80664" size="576"/>
			</blobs>
		</layer>
		<layer id="143" name="340" precision="FP32" type="Convolution">
			<data dilations="1,1" group="1" kernel="1,1" output="144" pads_begin="0,0" pads_end="0,0" strides="1,1"/>
			<input>
				<port id="0">
					<dim>1</dim>
					<dim>24</dim>
					<dim>56</dim>
					<dim>56</dim>
				</port>
				<port id="1">
					<dim>144</dim>
					<dim>24</dim>
					<dim>1</dim>
					<dim>1</dim>
				</port>
				<port id="2">
					<dim>144</dim>
				</port>
			</input>
			<output>
				<port id="3">
					<dim>1</dim>
					<dim>144</dim>
					<dim>56</dim>
					<dim>56</dim>
				</port>
			</output>
		</layer>
		<layer id="144" name="342" precision="FP32" type="Clamp">
			<data max="6.0" min="0.0"/>
			<input>
				<port id="0">
					<dim>1</dim>
					<dim>144</dim>
					<dim>56</dim>
					<dim>56</dim>
				</port>
			</input>
			<output>
				<port id="1">
					<dim>1</dim>
					<dim>144</dim>
					<dim>56</dim>
					<dim>56</dim>
				</port>
			</output>
		</layer>
		<layer id="145" name="1316113165_const" precision="FP32" type="Const">
			<output>
				<port id="1"/>
			</output>
			<blobs>
				<custom offset="3872" size="4"/>
			</blobs>
		</layer>
		<layer id="146" name="1316213166_const" precision="FP32" type="Const">
			<output>
				<port id="1"/>
			</output>
			<blobs>
				<custom offset="81240" size="4"/>
			</blobs>
		</layer>
		<layer id="147" name="1316313167_const" precision="FP32" type="Const">
			<output>
				<port id="1"/>
			</output>
			<blobs>
				<custom offset="3872" size="4"/>
			</blobs>
		</layer>
		<layer id="148" name="1316413168_const" precision="FP32" type="Const">
			<output>
				<port id="1"/>
			</output>
			<blobs>
				<custom offset="81240" size="4"/>
			</blobs>
		</layer>
		<layer id="149" name="343/fq_input_0" precision="FP32" type="FakeQuantize">
			<data levels="256.0"/>
			<input>
				<port id="0">
					<dim>1</dim>
					<dim>144</dim>
					<dim>56</dim>
					<dim>56</dim>
				</port>
				<port id="1"/>
				<port id="2"/>
				<port id="3"/>
				<port id="4"/>
			</input>
			<output>
				<port id="5">
					<dim>1</dim>
					<dim>144</dim>
					<dim>56</dim>
					<dim>56</dim>
				</port>
			</output>
		</layer>
		<layer id="150" name="Mul1_6160/Fused_Mul_80168018_const" precision="FP32" type="Const">
			<output>
				<port id="1">
					<dim>144</dim>
					<dim>1</dim>
					<dim>3</dim>
					<dim>3</dim>
				</port>
			</output>
			<blobs>
				<custom offset="81244" size="5184"/>
			</blobs>
		</layer>
		<layer id="151" name="1317113175_const" precision="FP32" type="Const">
			<output>
				<port id="1">
					<dim>144</dim>
				</port>
			</output>
			<blobs>
				<custom offset="86428" size="576"/>
			</blobs>
		</layer>
		<layer id="152" name="1317213176_const" precision="FP32" type="Const">
			<output>
				<port id="1">
					<dim>144</dim>
				</port>
			</output>
			<blobs>
				<custom offset="87004" size="576"/>
			</blobs>
		</layer>
		<layer id="153" name="1317313177_const" precision="FP32" type="Const">
			<output>
				<port id="1">
					<dim>144</dim>
				</port>
			</output>
			<blobs>
				<custom offset="86428" size="576"/>
			</blobs>
		</layer>
		<layer id="154" name="1317413178_const" precision="FP32" type="Const">
			<output>
				<port id="1">
					<dim>144</dim>
				</port>
			</output>
			<blobs>
				<custom offset="87004" size="576"/>
			</blobs>
		</layer>
		<layer id="155" name="343/fq_weights_1" precision="FP32" type="FakeQuantize">
			<data levels="255"/>
			<input>
				<port id="0">
					<dim>144</dim>
					<dim>1</dim>
					<dim>3</dim>
					<dim>3</dim>
				</port>
				<port id="1">
					<dim>144</dim>
				</port>
				<port id="2">
					<dim>144</dim>
				</port>
				<port id="3">
					<dim>144</dim>
				</port>
				<port id="4">
					<dim>144</dim>
				</port>
			</input>
			<output>
				<port id="5">
					<dim>144</dim>
					<dim>1</dim>
					<dim>3</dim>
					<dim>3</dim>
				</port>
			</output>
		</layer>
		<layer id="156" name="bias_data80198020_const" precision="FP32" type="Const">
			<output>
				<port id="1">
					<dim>144</dim>
				</port>
			</output>
			<blobs>
				<custom offset="87580" size="576"/>
			</blobs>
		</layer>
		<layer id="157" name="343" precision="FP32" type="Convolution">
			<data dilations="1,1" group="144" kernel="3,3" output="144" pads_begin="1,1" pads_end="1,1" strides="2,2"/>
			<input>
				<port id="0">
					<dim>1</dim>
					<dim>144</dim>
					<dim>56</dim>
					<dim>56</dim>
				</port>
				<port id="1">
					<dim>144</dim>
					<dim>1</dim>
					<dim>3</dim>
					<dim>3</dim>
				</port>
				<port id="2">
					<dim>144</dim>
				</port>
			</input>
			<output>
				<port id="3">
					<dim>1</dim>
					<dim>144</dim>
					<dim>28</dim>
					<dim>28</dim>
				</port>
			</output>
		</layer>
		<layer id="158" name="345" precision="FP32" type="Clamp">
			<data max="6.0" min="0.0"/>
			<input>
				<port id="0">
					<dim>1</dim>
					<dim>144</dim>
					<dim>28</dim>
					<dim>28</dim>
				</port>
			</input>
			<output>
				<port id="1">
					<dim>1</dim>
					<dim>144</dim>
					<dim>28</dim>
					<dim>28</dim>
				</port>
			</output>
		</layer>
		<layer id="159" name="1234112345_const" precision="FP32" type="Const">
			<output>
				<port id="1"/>
			</output>
			<blobs>
				<custom offset="3872" size="4"/>
			</blobs>
		</layer>
		<layer id="160" name="1234212346_const" precision="FP32" type="Const">
			<output>
				<port id="1"/>
			</output>
			<blobs>
				<custom offset="88156" size="4"/>
			</blobs>
		</layer>
		<layer id="161" name="1234312347_const" precision="FP32" type="Const">
			<output>
				<port id="1"/>
			</output>
			<blobs>
				<custom offset="3872" size="4"/>
			</blobs>
		</layer>
		<layer id="162" name="1234412348_const" precision="FP32" type="Const">
			<output>
				<port id="1"/>
			</output>
			<blobs>
				<custom offset="88156" size="4"/>
			</blobs>
		</layer>
		<layer id="163" name="346/fq_input_0" precision="FP32" type="FakeQuantize">
			<data levels="256.0"/>
			<input>
				<port id="0">
					<dim>1</dim>
					<dim>144</dim>
					<dim>28</dim>
					<dim>28</dim>
				</port>
				<port id="1"/>
				<port id="2"/>
				<port id="3"/>
				<port id="4"/>
			</input>
			<output>
				<port id="5">
					<dim>1</dim>
					<dim>144</dim>
					<dim>28</dim>
					<dim>28</dim>
				</port>
			</output>
		</layer>
		<layer id="164" name="Mul1_5992/Fused_Mul_80228024_const" precision="FP32" type="Const">
			<output>
				<port id="1">
					<dim>32</dim>
					<dim>144</dim>
					<dim>1</dim>
					<dim>1</dim>
				</port>
			</output>
			<blobs>
				<custom offset="88160" size="18432"/>
			</blobs>
		</layer>
		<layer id="165" name="1235112355_const" precision="FP32" type="Const">
			<output>
				<port id="1">
					<dim>32</dim>
				</port>
			</output>
			<blobs>
				<custom offset="106592" size="128"/>
			</blobs>
		</layer>
		<layer id="166" name="1235212356_const" precision="FP32" type="Const">
			<output>
				<port id="1">
					<dim>32</dim>
				</port>
			</output>
			<blobs>
				<custom offset="106720" size="128"/>
			</blobs>
		</layer>
		<layer id="167" name="1235312357_const" precision="FP32" type="Const">
			<output>
				<port id="1">
					<dim>32</dim>
				</port>
			</output>
			<blobs>
				<custom offset="106592" size="128"/>
			</blobs>
		</layer>
		<layer id="168" name="1235412358_const" precision="FP32" type="Const">
			<output>
				<port id="1">
					<dim>32</dim>
				</port>
			</output>
			<blobs>
				<custom offset="106720" size="128"/>
			</blobs>
		</layer>
		<layer id="169" name="346/fq_weights_1" precision="FP32" type="FakeQuantize">
			<data levels="255"/>
			<input>
				<port id="0">
					<dim>32</dim>
					<dim>144</dim>
					<dim>1</dim>
					<dim>1</dim>
				</port>
				<port id="1">
					<dim>32</dim>
				</port>
				<port id="2">
					<dim>32</dim>
				</port>
				<port id="3">
					<dim>32</dim>
				</port>
				<port id="4">
					<dim>32</dim>
				</port>
			</input>
			<output>
				<port id="5">
					<dim>32</dim>
					<dim>144</dim>
					<dim>1</dim>
					<dim>1</dim>
				</port>
			</output>
		</layer>
		<layer id="170" name="bias_data80258026_const" precision="FP32" type="Const">
			<output>
				<port id="1">
					<dim>32</dim>
				</port>
			</output>
			<blobs>
				<custom offset="106848" size="128"/>
			</blobs>
		</layer>
		<layer id="171" name="346" precision="FP32" type="Convolution">
			<data dilations="1,1" group="1" kernel="1,1" output="32" pads_begin="0,0" pads_end="0,0" strides="1,1"/>
			<input>
				<port id="0">
					<dim>1</dim>
					<dim>144</dim>
					<dim>28</dim>
					<dim>28</dim>
				</port>
				<port id="1">
					<dim>32</dim>
					<dim>144</dim>
					<dim>1</dim>
					<dim>1</dim>
				</port>
				<port id="2">
					<dim>32</dim>
				</port>
			</input>
			<output>
				<port id="3">
					<dim>1</dim>
					<dim>32</dim>
					<dim>28</dim>
					<dim>28</dim>
				</port>
			</output>
		</layer>
		<layer id="172" name="1324113245_const" precision="FP32" type="Const">
			<output>
				<port id="1"/>
			</output>
			<blobs>
				<custom offset="106976" size="4"/>
			</blobs>
		</layer>
		<layer id="173" name="1324213246_const" precision="FP32" type="Const">
			<output>
				<port id="1"/>
			</output>
			<blobs>
				<custom offset="106980" size="4"/>
			</blobs>
		</layer>
		<layer id="174" name="1324313247_const" precision="FP32" type="Const">
			<output>
				<port id="1"/>
			</output>
			<blobs>
				<custom offset="106976" size="4"/>
			</blobs>
		</layer>
		<layer id="175" name="1324413248_const" precision="FP32" type="Const">
			<output>
				<port id="1"/>
			</output>
			<blobs>
				<custom offset="106980" size="4"/>
			</blobs>
		</layer>
		<layer id="176" name="348/fq_input_0" precision="FP32" type="FakeQuantize">
			<data levels="256.0"/>
			<input>
				<port id="0">
					<dim>1</dim>
					<dim>32</dim>
					<dim>28</dim>
					<dim>28</dim>
				</port>
				<port id="1"/>
				<port id="2"/>
				<port id="3"/>
				<port id="4"/>
			</input>
			<output>
				<port id="5">
					<dim>1</dim>
					<dim>32</dim>
					<dim>28</dim>
					<dim>28</dim>
				</port>
			</output>
		</layer>
		<layer id="177" name="Mul1_6352/Fused_Mul_80288030_const" precision="FP32" type="Const">
			<output>
				<port id="1">
					<dim>192</dim>
					<dim>32</dim>
					<dim>1</dim>
					<dim>1</dim>
				</port>
			</output>
			<blobs>
				<custom offset="106984" size="24576"/>
			</blobs>
		</layer>
		<layer id="178" name="1325113255_const" precision="FP32" type="Const">
			<output>
				<port id="1">
					<dim>192</dim>
				</port>
			</output>
			<blobs>
				<custom offset="131560" size="768"/>
			</blobs>
		</layer>
		<layer id="179" name="1325213256_const" precision="FP32" type="Const">
			<output>
				<port id="1">
					<dim>192</dim>
				</port>
			</output>
			<blobs>
				<custom offset="132328" size="768"/>
			</blobs>
		</layer>
		<layer id="180" name="1325313257_const" precision="FP32" type="Const">
			<output>
				<port id="1">
					<dim>192</dim>
				</port>
			</output>
			<blobs>
				<custom offset="131560" size="768"/>
			</blobs>
		</layer>
		<layer id="181" name="1325413258_const" precision="FP32" type="Const">
			<output>
				<port id="1">
					<dim>192</dim>
				</port>
			</output>
			<blobs>
				<custom offset="132328" size="768"/>
			</blobs>
		</layer>
		<layer id="182" name="348/fq_weights_1" precision="FP32" type="FakeQuantize">
			<data levels="255"/>
			<input>
				<port id="0">
					<dim>192</dim>
					<dim>32</dim>
					<dim>1</dim>
					<dim>1</dim>
				</port>
				<port id="1">
					<dim>192</dim>
				</port>
				<port id="2">
					<dim>192</dim>
				</port>
				<port id="3">
					<dim>192</dim>
				</port>
				<port id="4">
					<dim>192</dim>
				</port>
			</input>
			<output>
				<port id="5">
					<dim>192</dim>
					<dim>32</dim>
					<dim>1</dim>
					<dim>1</dim>
				</port>
			</output>
		</layer>
		<layer id="183" name="bias_data80318032_const" precision="FP32" type="Const">
			<output>
				<port id="1">
					<dim>192</dim>
				</port>
			</output>
			<blobs>
				<custom offset="133096" size="768"/>
			</blobs>
		</layer>
		<layer id="184" name="348" precision="FP32" type="Convolution">
			<data dilations="1,1" group="1" kernel="1,1" output="192" pads_begin="0,0" pads_end="0,0" strides="1,1"/>
			<input>
				<port id="0">
					<dim>1</dim>
					<dim>32</dim>
					<dim>28</dim>
					<dim>28</dim>
				</port>
				<port id="1">
					<dim>192</dim>
					<dim>32</dim>
					<dim>1</dim>
					<dim>1</dim>
				</port>
				<port id="2">
					<dim>192</dim>
				</port>
			</input>
			<output>
				<port id="3">
					<dim>1</dim>
					<dim>192</dim>
					<dim>28</dim>
					<dim>28</dim>
				</port>
			</output>
		</layer>
		<layer id="185" name="350" precision="FP32" type="Clamp">
			<data max="6.0" min="0.0"/>
			<input>
				<port id="0">
					<dim>1</dim>
					<dim>192</dim>
					<dim>28</dim>
					<dim>28</dim>
				</port>
			</input>
			<output>
				<port id="1">
					<dim>1</dim>
					<dim>192</dim>
					<dim>28</dim>
					<dim>28</dim>
				</port>
			</output>
		</layer>
		<layer id="186" name="1241112415_const" precision="FP32" type="Const">
			<output>
				<port id="1"/>
			</output>
			<blobs>
				<custom offset="3872" size="4"/>
			</blobs>
		</layer>
		<layer id="187" name="1241212416_const" precision="FP32" type="Const">
			<output>
				<port id="1"/>
			</output>
			<blobs>
				<custom offset="133864" size="4"/>
			</blobs>
		</layer>
		<layer id="188" name="1241312417_const" precision="FP32" type="Const">
			<output>
				<port id="1"/>
			</output>
			<blobs>
				<custom offset="3872" size="4"/>
			</blobs>
		</layer>
		<layer id="189" name="1241412418_const" precision="FP32" type="Const">
			<output>
				<port id="1"/>
			</output>
			<blobs>
				<custom offset="133864" size="4"/>
			</blobs>
		</layer>
		<layer id="190" name="351/fq_input_0" precision="FP32" type="FakeQuantize">
			<data levels="256.0"/>
			<input>
				<port id="0">
					<dim>1</dim>
					<dim>192</dim>
					<dim>28</dim>
					<dim>28</dim>
				</port>
				<port id="1"/>
				<port id="2"/>
				<port id="3"/>
				<port id="4"/>
			</input>
			<output>
				<port id="5">
					<dim>1</dim>
					<dim>192</dim>
					<dim>28</dim>
					<dim>28</dim>
				</port>
			</output>
		</layer>
		<layer id="191" name="Mul1_6400/Fused_Mul_80348036_const" precision="FP32" type="Const">
			<output>
				<port id="1">
					<dim>192</dim>
					<dim>1</dim>
					<dim>3</dim>
					<dim>3</dim>
				</port>
			</output>
			<blobs>
				<custom offset="133868" size="6912"/>
			</blobs>
		</layer>
		<layer id="192" name="1242112425_const" precision="FP32" type="Const">
			<output>
				<port id="1">
					<dim>192</dim>
				</port>
			</output>
			<blobs>
				<custom offset="140780" size="768"/>
			</blobs>
		</layer>
		<layer id="193" name="1242212426_const" precision="FP32" type="Const">
			<output>
				<port id="1">
					<dim>192</dim>
				</port>
			</output>
			<blobs>
				<custom offset="141548" size="768"/>
			</blobs>
		</layer>
		<layer id="194" name="1242312427_const" precision="FP32" type="Const">
			<output>
				<port id="1">
					<dim>192</dim>
				</port>
			</output>
			<blobs>
				<custom offset="140780" size="768"/>
			</blobs>
		</layer>
		<layer id="195" name="1242412428_const" precision="FP32" type="Const">
			<output>
				<port id="1">
					<dim>192</dim>
				</port>
			</output>
			<blobs>
				<custom offset="141548" size="768"/>
			</blobs>
		</layer>
		<layer id="196" name="351/fq_weights_1" precision="FP32" type="FakeQuantize">
			<data levels="255"/>
			<input>
				<port id="0">
					<dim>192</dim>
					<dim>1</dim>
					<dim>3</dim>
					<dim>3</dim>
				</port>
				<port id="1">
					<dim>192</dim>
				</port>
				<port id="2">
					<dim>192</dim>
				</port>
				<port id="3">
					<dim>192</dim>
				</port>
				<port id="4">
					<dim>192</dim>
				</port>
			</input>
			<output>
				<port id="5">
					<dim>192</dim>
					<dim>1</dim>
					<dim>3</dim>
					<dim>3</dim>
				</port>
			</output>
		</layer>
		<layer id="197" name="bias_data80378038_const" precision="FP32" type="Const">
			<output>
				<port id="1">
					<dim>192</dim>
				</port>
			</output>
			<blobs>
				<custom offset="142316" size="768"/>
			</blobs>
		</layer>
		<layer id="198" name="351" precision="FP32" type="Convolution">
			<data dilations="1,1" group="192" kernel="3,3" output="192" pads_begin="1,1" pads_end="1,1" strides="1,1"/>
			<input>
				<port id="0">
					<dim>1</dim>
					<dim>192</dim>
					<dim>28</dim>
					<dim>28</dim>
				</port>
				<port id="1">
					<dim>192</dim>
					<dim>1</dim>
					<dim>3</dim>
					<dim>3</dim>
				</port>
				<port id="2">
					<dim>192</dim>
				</port>
			</input>
			<output>
				<port id="3">
					<dim>1</dim>
					<dim>192</dim>
					<dim>28</dim>
					<dim>28</dim>
				</port>
			</output>
		</layer>
		<layer id="199" name="353" precision="FP32" type="Clamp">
			<data max="6.0" min="0.0"/>
			<input>
				<port id="0">
					<dim>1</dim>
					<dim>192</dim>
					<dim>28</dim>
					<dim>28</dim>
				</port>
			</input>
			<output>
				<port id="1">
					<dim>1</dim>
					<dim>192</dim>
					<dim>28</dim>
					<dim>28</dim>
				</port>
			</output>
		</layer>
		<layer id="200" name="1312113125_const" precision="FP32" type="Const">
			<output>
				<port id="1"/>
			</output>
			<blobs>
				<custom offset="3872" size="4"/>
			</blobs>
		</layer>
		<layer id="201" name="1312213126_const" precision="FP32" type="Const">
			<output>
				<port id="1"/>
			</output>
			<blobs>
				<custom offset="143084" size="4"/>
			</blobs>
		</layer>
		<layer id="202" name="1312313127_const" precision="FP32" type="Const">
			<output>
				<port id="1"/>
			</output>
			<blobs>
				<custom offset="3872" size="4"/>
			</blobs>
		</layer>
		<layer id="203" name="1312413128_const" precision="FP32" type="Const">
			<output>
				<port id="1"/>
			</output>
			<blobs>
				<custom offset="143084" size="4"/>
			</blobs>
		</layer>
		<layer id="204" name="354/fq_input_0" precision="FP32" type="FakeQuantize">
			<data levels="256.0"/>
			<input>
				<port id="0">
					<dim>1</dim>
					<dim>192</dim>
					<dim>28</dim>
					<dim>28</dim>
				</port>
				<port id="1"/>
				<port id="2"/>
				<port id="3"/>
				<port id="4"/>
			</input>
			<output>
				<port id="5">
					<dim>1</dim>
					<dim>192</dim>
					<dim>28</dim>
					<dim>28</dim>
				</port>
			</output>
		</layer>
		<layer id="205" name="Mul1_6280/Fused_Mul_80408042_const" precision="FP32" type="Const">
			<output>
				<port id="1">
					<dim>32</dim>
					<dim>192</dim>
					<dim>1</dim>
					<dim>1</dim>
				</port>
			</output>
			<blobs>
				<custom offset="143088" size="24576"/>
			</blobs>
		</layer>
		<layer id="206" name="1313113135_const" precision="FP32" type="Const">
			<output>
				<port id="1">
					<dim>32</dim>
				</port>
			</output>
			<blobs>
				<custom offset="167664" size="128"/>
			</blobs>
		</layer>
		<layer id="207" name="1313213136_const" precision="FP32" type="Const">
			<output>
				<port id="1">
					<dim>32</dim>
				</port>
			</output>
			<blobs>
				<custom offset="167792" size="128"/>
			</blobs>
		</layer>
		<layer id="208" name="1313313137_const" precision="FP32" type="Const">
			<output>
				<port id="1">
					<dim>32</dim>
				</port>
			</output>
			<blobs>
				<custom offset="167664" size="128"/>
			</blobs>
		</layer>
		<layer id="209" name="1313413138_const" precision="FP32" type="Const">
			<output>
				<port id="1">
					<dim>32</dim>
				</port>
			</output>
			<blobs>
				<custom offset="167792" size="128"/>
			</blobs>
		</layer>
		<layer id="210" name="354/fq_weights_1" precision="FP32" type="FakeQuantize">
			<data levels="255"/>
			<input>
				<port id="0">
					<dim>32</dim>
					<dim>192</dim>
					<dim>1</dim>
					<dim>1</dim>
				</port>
				<port id="1">
					<dim>32</dim>
				</port>
				<port id="2">
					<dim>32</dim>
				</port>
				<port id="3">
					<dim>32</dim>
				</port>
				<port id="4">
					<dim>32</dim>
				</port>
			</input>
			<output>
				<port id="5">
					<dim>32</dim>
					<dim>192</dim>
					<dim>1</dim>
					<dim>1</dim>
				</port>
			</output>
		</layer>
		<layer id="211" name="bias_data80438044_const" precision="FP32" type="Const">
			<output>
				<port id="1">
					<dim>32</dim>
				</port>
			</output>
			<blobs>
				<custom offset="167920" size="128"/>
			</blobs>
		</layer>
		<layer id="212" name="354" precision="FP32" type="Convolution">
			<data dilations="1,1" group="1" kernel="1,1" output="32" pads_begin="0,0" pads_end="0,0" strides="1,1"/>
			<input>
				<port id="0">
					<dim>1</dim>
					<dim>192</dim>
					<dim>28</dim>
					<dim>28</dim>
				</port>
				<port id="1">
					<dim>32</dim>
					<dim>192</dim>
					<dim>1</dim>
					<dim>1</dim>
				</port>
				<port id="2">
					<dim>32</dim>
				</port>
			</input>
			<output>
				<port id="3">
					<dim>1</dim>
					<dim>32</dim>
					<dim>28</dim>
					<dim>28</dim>
				</port>
			</output>
		</layer>
		<layer id="213" name="1323113235_const" precision="FP32" type="Const">
			<output>
				<port id="1"/>
			</output>
			<blobs>
				<custom offset="168048" size="4"/>
			</blobs>
		</layer>
		<layer id="214" name="1323213236_const" precision="FP32" type="Const">
			<output>
				<port id="1"/>
			</output>
			<blobs>
				<custom offset="168052" size="4"/>
			</blobs>
		</layer>
		<layer id="215" name="1323313237_const" precision="FP32" type="Const">
			<output>
				<port id="1"/>
			</output>
			<blobs>
				<custom offset="168048" size="4"/>
			</blobs>
		</layer>
		<layer id="216" name="1323413238_const" precision="FP32" type="Const">
			<output>
				<port id="1"/>
			</output>
			<blobs>
				<custom offset="168052" size="4"/>
			</blobs>
		</layer>
		<layer id="217" name="356/fq_input_1" precision="FP32" type="FakeQuantize">
			<data levels="256.0"/>
			<input>
				<port id="0">
					<dim>1</dim>
					<dim>32</dim>
					<dim>28</dim>
					<dim>28</dim>
				</port>
				<port id="1"/>
				<port id="2"/>
				<port id="3"/>
				<port id="4"/>
			</input>
			<output>
				<port id="5">
					<dim>1</dim>
					<dim>32</dim>
					<dim>28</dim>
					<dim>28</dim>
				</port>
			</output>
		</layer>
		<layer id="218" name="356" precision="FP32" type="Eltwise">
			<data operation="sum"/>
			<input>
				<port id="0">
					<dim>1</dim>
					<dim>32</dim>
					<dim>28</dim>
					<dim>28</dim>
				</port>
				<port id="1">
					<dim>1</dim>
					<dim>32</dim>
					<dim>28</dim>
					<dim>28</dim>
				</port>
			</input>
			<output>
				<port id="2">
					<dim>1</dim>
					<dim>32</dim>
					<dim>28</dim>
					<dim>28</dim>
				</port>
			</output>
		</layer>
		<layer id="219" name="1345113455_const" precision="FP32" type="Const">
			<output>
				<port id="1"/>
			</output>
			<blobs>
				<custom offset="168056" size="4"/>
			</blobs>
		</layer>
		<layer id="220" name="1345213456_const" precision="FP32" type="Const">
			<output>
				<port id="1"/>
			</output>
			<blobs>
				<custom offset="168060" size="4"/>
			</blobs>
		</layer>
		<layer id="221" name="1345313457_const" precision="FP32" type="Const">
			<output>
				<port id="1"/>
			</output>
			<blobs>
				<custom offset="168056" size="4"/>
			</blobs>
		</layer>
		<layer id="222" name="1345413458_const" precision="FP32" type="Const">
			<output>
				<port id="1"/>
			</output>
			<blobs>
				<custom offset="168060" size="4"/>
			</blobs>
		</layer>
		<layer id="223" name="365/fq_input_0" precision="FP32" type="FakeQuantize">
			<data levels="256.0"/>
			<input>
				<port id="0">
					<dim>1</dim>
					<dim>32</dim>
					<dim>28</dim>
					<dim>28</dim>
				</port>
				<port id="1"/>
				<port id="2"/>
				<port id="3"/>
				<port id="4"/>
			</input>
			<output>
				<port id="5">
					<dim>1</dim>
					<dim>32</dim>
					<dim>28</dim>
					<dim>28</dim>
				</port>
			</output>
		</layer>
		<layer id="224" name="Mul1_6532/Fused_Mul_80468048_const" precision="FP32" type="Const">
			<output>
				<port id="1">
					<dim>192</dim>
					<dim>32</dim>
					<dim>1</dim>
					<dim>1</dim>
				</port>
			</output>
			<blobs>
				<custom offset="168064" size="24576"/>
			</blobs>
		</layer>
		<layer id="225" name="1315113155_const" precision="FP32" type="Const">
			<output>
				<port id="1">
					<dim>192</dim>
				</port>
			</output>
			<blobs>
				<custom offset="192640" size="768"/>
			</blobs>
		</layer>
		<layer id="226" name="1315213156_const" precision="FP32" type="Const">
			<output>
				<port id="1">
					<dim>192</dim>
				</port>
			</output>
			<blobs>
				<custom offset="193408" size="768"/>
			</blobs>
		</layer>
		<layer id="227" name="1315313157_const" precision="FP32" type="Const">
			<output>
				<port id="1">
					<dim>192</dim>
				</port>
			</output>
			<blobs>
				<custom offset="192640" size="768"/>
			</blobs>
		</layer>
		<layer id="228" name="1315413158_const" precision="FP32" type="Const">
			<output>
				<port id="1">
					<dim>192</dim>
				</port>
			</output>
			<blobs>
				<custom offset="193408" size="768"/>
			</blobs>
		</layer>
		<layer id="229" name="357/fq_weights_1" precision="FP32" type="FakeQuantize">
			<data levels="255"/>
			<input>
				<port id="0">
					<dim>192</dim>
					<dim>32</dim>
					<dim>1</dim>
					<dim>1</dim>
				</port>
				<port id="1">
					<dim>192</dim>
				</port>
				<port id="2">
					<dim>192</dim>
				</port>
				<port id="3">
					<dim>192</dim>
				</port>
				<port id="4">
					<dim>192</dim>
				</port>
			</input>
			<output>
				<port id="5">
					<dim>192</dim>
					<dim>32</dim>
					<dim>1</dim>
					<dim>1</dim>
				</port>
			</output>
		</layer>
		<layer id="230" name="bias_data80498050_const" precision="FP32" type="Const">
			<output>
				<port id="1">
					<dim>192</dim>
				</port>
			</output>
			<blobs>
				<custom offset="194176" size="768"/>
			</blobs>
		</layer>
		<layer id="231" name="357" precision="FP32" type="Convolution">
			<data dilations="1,1" group="1" kernel="1,1" output="192" pads_begin="0,0" pads_end="0,0" strides="1,1"/>
			<input>
				<port id="0">
					<dim>1</dim>
					<dim>32</dim>
					<dim>28</dim>
					<dim>28</dim>
				</port>
				<port id="1">
					<dim>192</dim>
					<dim>32</dim>
					<dim>1</dim>
					<dim>1</dim>
				</port>
				<port id="2">
					<dim>192</dim>
				</port>
			</input>
			<output>
				<port id="3">
					<dim>1</dim>
					<dim>192</dim>
					<dim>28</dim>
					<dim>28</dim>
				</port>
			</output>
		</layer>
		<layer id="232" name="359" precision="FP32" type="Clamp">
			<data max="6.0" min="0.0"/>
			<input>
				<port id="0">
					<dim>1</dim>
					<dim>192</dim>
					<dim>28</dim>
					<dim>28</dim>
				</port>
			</input>
			<output>
				<port id="1">
					<dim>1</dim>
					<dim>192</dim>
					<dim>28</dim>
					<dim>28</dim>
				</port>
			</output>
		</layer>
		<layer id="233" name="1357113575_const" precision="FP32" type="Const">
			<output>
				<port id="1"/>
			</output>
			<blobs>
				<custom offset="3872" size="4"/>
			</blobs>
		</layer>
		<layer id="234" name="1357213576_const" precision="FP32" type="Const">
			<output>
				<port id="1"/>
			</output>
			<blobs>
				<custom offset="194944" size="4"/>
			</blobs>
		</layer>
		<layer id="235" name="1357313577_const" precision="FP32" type="Const">
			<output>
				<port id="1"/>
			</output>
			<blobs>
				<custom offset="3872" size="4"/>
			</blobs>
		</layer>
		<layer id="236" name="1357413578_const" precision="FP32" type="Const">
			<output>
				<port id="1"/>
			</output>
			<blobs>
				<custom offset="194944" size="4"/>
			</blobs>
		</layer>
		<layer id="237" name="360/fq_input_0" precision="FP32" type="FakeQuantize">
			<data levels="256.0"/>
			<input>
				<port id="0">
					<dim>1</dim>
					<dim>192</dim>
					<dim>28</dim>
					<dim>28</dim>
				</port>
				<port id="1"/>
				<port id="2"/>
				<port id="3"/>
				<port id="4"/>
			</input>
			<output>
				<port id="5">
					<dim>1</dim>
					<dim>192</dim>
					<dim>28</dim>
					<dim>28</dim>
				</port>
			</output>
		</layer>
		<layer id="238" name="Mul1_6508/Fused_Mul_80528054_const" precision="FP32" type="Const">
			<output>
				<port id="1">
					<dim>192</dim>
					<dim>1</dim>
					<dim>3</dim>
					<dim>3</dim>
				</port>
			</output>
			<blobs>
				<custom offset="194948" size="6912"/>
			</blobs>
		</layer>
		<layer id="239" name="1358113585_const" precision="FP32" type="Const">
			<output>
				<port id="1">
					<dim>192</dim>
				</port>
			</output>
			<blobs>
				<custom offset="201860" size="768"/>
			</blobs>
		</layer>
		<layer id="240" name="1358213586_const" precision="FP32" type="Const">
			<output>
				<port id="1">
					<dim>192</dim>
				</port>
			</output>
			<blobs>
				<custom offset="202628" size="768"/>
			</blobs>
		</layer>
		<layer id="241" name="1358313587_const" precision="FP32" type="Const">
			<output>
				<port id="1">
					<dim>192</dim>
				</port>
			</output>
			<blobs>
				<custom offset="201860" size="768"/>
			</blobs>
		</layer>
		<layer id="242" name="1358413588_const" precision="FP32" type="Const">
			<output>
				<port id="1">
					<dim>192</dim>
				</port>
			</output>
			<blobs>
				<custom offset="202628" size="768"/>
			</blobs>
		</layer>
		<layer id="243" name="360/fq_weights_1" precision="FP32" type="FakeQuantize">
			<data levels="255"/>
			<input>
				<port id="0">
					<dim>192</dim>
					<dim>1</dim>
					<dim>3</dim>
					<dim>3</dim>
				</port>
				<port id="1">
					<dim>192</dim>
				</port>
				<port id="2">
					<dim>192</dim>
				</port>
				<port id="3">
					<dim>192</dim>
				</port>
				<port id="4">
					<dim>192</dim>
				</port>
			</input>
			<output>
				<port id="5">
					<dim>192</dim>
					<dim>1</dim>
					<dim>3</dim>
					<dim>3</dim>
				</port>
			</output>
		</layer>
		<layer id="244" name="bias_data80558056_const" precision="FP32" type="Const">
			<output>
				<port id="1">
					<dim>192</dim>
				</port>
			</output>
			<blobs>
				<custom offset="203396" size="768"/>
			</blobs>
		</layer>
		<layer id="245" name="360" precision="FP32" type="Convolution">
			<data dilations="1,1" group="192" kernel="3,3" output="192" pads_begin="1,1" pads_end="1,1" strides="1,1"/>
			<input>
				<port id="0">
					<dim>1</dim>
					<dim>192</dim>
					<dim>28</dim>
					<dim>28</dim>
				</port>
				<port id="1">
					<dim>192</dim>
					<dim>1</dim>
					<dim>3</dim>
					<dim>3</dim>
				</port>
				<port id="2">
					<dim>192</dim>
				</port>
			</input>
			<output>
				<port id="3">
					<dim>1</dim>
					<dim>192</dim>
					<dim>28</dim>
					<dim>28</dim>
				</port>
			</output>
		</layer>
		<layer id="246" name="362" precision="FP32" type="Clamp">
			<data max="6.0" min="0.0"/>
			<input>
				<port id="0">
					<dim>1</dim>
					<dim>192</dim>
					<dim>28</dim>
					<dim>28</dim>
				</port>
			</input>
			<output>
				<port id="1">
					<dim>1</dim>
					<dim>192</dim>
					<dim>28</dim>
					<dim>28</dim>
				</port>
			</output>
		</layer>
		<layer id="247" name="1298112985_const" precision="FP32" type="Const">
			<output>
				<port id="1"/>
			</output>
			<blobs>
				<custom offset="3872" size="4"/>
			</blobs>
		</layer>
		<layer id="248" name="1298212986_const" precision="FP32" type="Const">
			<output>
				<port id="1"/>
			</output>
			<blobs>
				<custom offset="204164" size="4"/>
			</blobs>
		</layer>
		<layer id="249" name="1298312987_const" precision="FP32" type="Const">
			<output>
				<port id="1"/>
			</output>
			<blobs>
				<custom offset="3872" size="4"/>
			</blobs>
		</layer>
		<layer id="250" name="1298412988_const" precision="FP32" type="Const">
			<output>
				<port id="1"/>
			</output>
			<blobs>
				<custom offset="204164" size="4"/>
			</blobs>
		</layer>
		<layer id="251" name="363/fq_input_0" precision="FP32" type="FakeQuantize">
			<data levels="256.0"/>
			<input>
				<port id="0">
					<dim>1</dim>
					<dim>192</dim>
					<dim>28</dim>
					<dim>28</dim>
				</port>
				<port id="1"/>
				<port id="2"/>
				<port id="3"/>
				<port id="4"/>
			</input>
			<output>
				<port id="5">
					<dim>1</dim>
					<dim>192</dim>
					<dim>28</dim>
					<dim>28</dim>
				</port>
			</output>
		</layer>
		<layer id="252" name="Mul1_6292/Fused_Mul_80588060_const" precision="FP32" type="Const">
			<output>
				<port id="1">
					<dim>32</dim>
					<dim>192</dim>
					<dim>1</dim>
					<dim>1</dim>
				</port>
			</output>
			<blobs>
				<custom offset="204168" size="24576"/>
			</blobs>
		</layer>
		<layer id="253" name="1299112995_const" precision="FP32" type="Const">
			<output>
				<port id="1">
					<dim>32</dim>
				</port>
			</output>
			<blobs>
				<custom offset="228744" size="128"/>
			</blobs>
		</layer>
		<layer id="254" name="1299212996_const" precision="FP32" type="Const">
			<output>
				<port id="1">
					<dim>32</dim>
				</port>
			</output>
			<blobs>
				<custom offset="228872" size="128"/>
			</blobs>
		</layer>
		<layer id="255" name="1299312997_const" precision="FP32" type="Const">
			<output>
				<port id="1">
					<dim>32</dim>
				</port>
			</output>
			<blobs>
				<custom offset="228744" size="128"/>
			</blobs>
		</layer>
		<layer id="256" name="1299412998_const" precision="FP32" type="Const">
			<output>
				<port id="1">
					<dim>32</dim>
				</port>
			</output>
			<blobs>
				<custom offset="228872" size="128"/>
			</blobs>
		</layer>
		<layer id="257" name="363/fq_weights_1" precision="FP32" type="FakeQuantize">
			<data levels="255"/>
			<input>
				<port id="0">
					<dim>32</dim>
					<dim>192</dim>
					<dim>1</dim>
					<dim>1</dim>
				</port>
				<port id="1">
					<dim>32</dim>
				</port>
				<port id="2">
					<dim>32</dim>
				</port>
				<port id="3">
					<dim>32</dim>
				</port>
				<port id="4">
					<dim>32</dim>
				</port>
			</input>
			<output>
				<port id="5">
					<dim>32</dim>
					<dim>192</dim>
					<dim>1</dim>
					<dim>1</dim>
				</port>
			</output>
		</layer>
		<layer id="258" name="bias_data80618062_const" precision="FP32" type="Const">
			<output>
				<port id="1">
					<dim>32</dim>
				</port>
			</output>
			<blobs>
				<custom offset="229000" size="128"/>
			</blobs>
		</layer>
		<layer id="259" name="363" precision="FP32" type="Convolution">
			<data dilations="1,1" group="1" kernel="1,1" output="32" pads_begin="0,0" pads_end="0,0" strides="1,1"/>
			<input>
				<port id="0">
					<dim>1</dim>
					<dim>192</dim>
					<dim>28</dim>
					<dim>28</dim>
				</port>
				<port id="1">
					<dim>32</dim>
					<dim>192</dim>
					<dim>1</dim>
					<dim>1</dim>
				</port>
				<port id="2">
					<dim>32</dim>
				</port>
			</input>
			<output>
				<port id="3">
					<dim>1</dim>
					<dim>32</dim>
					<dim>28</dim>
					<dim>28</dim>
				</port>
			</output>
		</layer>
		<layer id="260" name="1346113465_const" precision="FP32" type="Const">
			<output>
				<port id="1"/>
			</output>
			<blobs>
				<custom offset="229128" size="4"/>
			</blobs>
		</layer>
		<layer id="261" name="1346213466_const" precision="FP32" type="Const">
			<output>
				<port id="1"/>
			</output>
			<blobs>
				<custom offset="229132" size="4"/>
			</blobs>
		</layer>
		<layer id="262" name="1346313467_const" precision="FP32" type="Const">
			<output>
				<port id="1"/>
			</output>
			<blobs>
				<custom offset="229128" size="4"/>
			</blobs>
		</layer>
		<layer id="263" name="1346413468_const" precision="FP32" type="Const">
			<output>
				<port id="1"/>
			</output>
			<blobs>
				<custom offset="229132" size="4"/>
			</blobs>
		</layer>
		<layer id="264" name="365/fq_input_1" precision="FP32" type="FakeQuantize">
			<data levels="256.0"/>
			<input>
				<port id="0">
					<dim>1</dim>
					<dim>32</dim>
					<dim>28</dim>
					<dim>28</dim>
				</port>
				<port id="1"/>
				<port id="2"/>
				<port id="3"/>
				<port id="4"/>
			</input>
			<output>
				<port id="5">
					<dim>1</dim>
					<dim>32</dim>
					<dim>28</dim>
					<dim>28</dim>
				</port>
			</output>
		</layer>
		<layer id="265" name="365" precision="FP32" type="Eltwise">
			<data operation="sum"/>
			<input>
				<port id="0">
					<dim>1</dim>
					<dim>32</dim>
					<dim>28</dim>
					<dim>28</dim>
				</port>
				<port id="1">
					<dim>1</dim>
					<dim>32</dim>
					<dim>28</dim>
					<dim>28</dim>
				</port>
			</input>
			<output>
				<port id="2">
					<dim>1</dim>
					<dim>32</dim>
					<dim>28</dim>
					<dim>28</dim>
				</port>
			</output>
		</layer>
		<layer id="266" name="1343113435_const" precision="FP32" type="Const">
			<output>
				<port id="1"/>
			</output>
			<blobs>
				<custom offset="229136" size="4"/>
			</blobs>
		</layer>
		<layer id="267" name="1343213436_const" precision="FP32" type="Const">
			<output>
				<port id="1"/>
			</output>
			<blobs>
				<custom offset="229140" size="4"/>
			</blobs>
		</layer>
		<layer id="268" name="1343313437_const" precision="FP32" type="Const">
			<output>
				<port id="1"/>
			</output>
			<blobs>
				<custom offset="229136" size="4"/>
			</blobs>
		</layer>
		<layer id="269" name="1343413438_const" precision="FP32" type="Const">
			<output>
				<port id="1"/>
			</output>
			<blobs>
				<custom offset="229140" size="4"/>
			</blobs>
		</layer>
		<layer id="270" name="366/fq_input_0" precision="FP32" type="FakeQuantize">
			<data levels="256.0"/>
			<input>
				<port id="0">
					<dim>1</dim>
					<dim>32</dim>
					<dim>28</dim>
					<dim>28</dim>
				</port>
				<port id="1"/>
				<port id="2"/>
				<port id="3"/>
				<port id="4"/>
			</input>
			<output>
				<port id="5">
					<dim>1</dim>
					<dim>32</dim>
					<dim>28</dim>
					<dim>28</dim>
				</port>
			</output>
		</layer>
		<layer id="271" name="Mul1_6172/Fused_Mul_80648066_const" precision="FP32" type="Const">
			<output>
				<port id="1">
					<dim>192</dim>
					<dim>32</dim>
					<dim>1</dim>
					<dim>1</dim>
				</port>
			</output>
			<blobs>
				<custom offset="229144" size="24576"/>
			</blobs>
		</layer>
		<layer id="272" name="1344113445_const" precision="FP32" type="Const">
			<output>
				<port id="1">
					<dim>192</dim>
				</port>
			</output>
			<blobs>
				<custom offset="253720" size="768"/>
			</blobs>
		</layer>
		<layer id="273" name="1344213446_const" precision="FP32" type="Const">
			<output>
				<port id="1">
					<dim>192</dim>
				</port>
			</output>
			<blobs>
				<custom offset="254488" size="768"/>
			</blobs>
		</layer>
		<layer id="274" name="1344313447_const" precision="FP32" type="Const">
			<output>
				<port id="1">
					<dim>192</dim>
				</port>
			</output>
			<blobs>
				<custom offset="253720" size="768"/>
			</blobs>
		</layer>
		<layer id="275" name="1344413448_const" precision="FP32" type="Const">
			<output>
				<port id="1">
					<dim>192</dim>
				</port>
			</output>
			<blobs>
				<custom offset="254488" size="768"/>
			</blobs>
		</layer>
		<layer id="276" name="366/fq_weights_1" precision="FP32" type="FakeQuantize">
			<data levels="255"/>
			<input>
				<port id="0">
					<dim>192</dim>
					<dim>32</dim>
					<dim>1</dim>
					<dim>1</dim>
				</port>
				<port id="1">
					<dim>192</dim>
				</port>
				<port id="2">
					<dim>192</dim>
				</port>
				<port id="3">
					<dim>192</dim>
				</port>
				<port id="4">
					<dim>192</dim>
				</port>
			</input>
			<output>
				<port id="5">
					<dim>192</dim>
					<dim>32</dim>
					<dim>1</dim>
					<dim>1</dim>
				</port>
			</output>
		</layer>
		<layer id="277" name="bias_data80678068_const" precision="FP32" type="Const">
			<output>
				<port id="1">
					<dim>192</dim>
				</port>
			</output>
			<blobs>
				<custom offset="255256" size="768"/>
			</blobs>
		</layer>
		<layer id="278" name="366" precision="FP32" type="Convolution">
			<data dilations="1,1" group="1" kernel="1,1" output="192" pads_begin="0,0" pads_end="0,0" strides="1,1"/>
			<input>
				<port id="0">
					<dim>1</dim>
					<dim>32</dim>
					<dim>28</dim>
					<dim>28</dim>
				</port>
				<port id="1">
					<dim>192</dim>
					<dim>32</dim>
					<dim>1</dim>
					<dim>1</dim>
				</port>
				<port id="2">
					<dim>192</dim>
				</port>
			</input>
			<output>
				<port id="3">
					<dim>1</dim>
					<dim>192</dim>
					<dim>28</dim>
					<dim>28</dim>
				</port>
			</output>
		</layer>
		<layer id="279" name="368" precision="FP32" type="Clamp">
			<data max="6.0" min="0.0"/>
			<input>
				<port id="0">
					<dim>1</dim>
					<dim>192</dim>
					<dim>28</dim>
					<dim>28</dim>
				</port>
			</input>
			<output>
				<port id="1">
					<dim>1</dim>
					<dim>192</dim>
					<dim>28</dim>
					<dim>28</dim>
				</port>
			</output>
		</layer>
		<layer id="280" name="1271112715_const" precision="FP32" type="Const">
			<output>
				<port id="1"/>
			</output>
			<blobs>
				<custom offset="3872" size="4"/>
			</blobs>
		</layer>
		<layer id="281" name="1271212716_const" precision="FP32" type="Const">
			<output>
				<port id="1"/>
			</output>
			<blobs>
				<custom offset="256024" size="4"/>
			</blobs>
		</layer>
		<layer id="282" name="1271312717_const" precision="FP32" type="Const">
			<output>
				<port id="1"/>
			</output>
			<blobs>
				<custom offset="3872" size="4"/>
			</blobs>
		</layer>
		<layer id="283" name="1271412718_const" precision="FP32" type="Const">
			<output>
				<port id="1"/>
			</output>
			<blobs>
				<custom offset="256024" size="4"/>
			</blobs>
		</layer>
		<layer id="284" name="369/fq_input_0" precision="FP32" type="FakeQuantize">
			<data levels="256.0"/>
			<input>
				<port id="0">
					<dim>1</dim>
					<dim>192</dim>
					<dim>28</dim>
					<dim>28</dim>
				</port>
				<port id="1"/>
				<port id="2"/>
				<port id="3"/>
				<port id="4"/>
			</input>
			<output>
				<port id="5">
					<dim>1</dim>
					<dim>192</dim>
					<dim>28</dim>
					<dim>28</dim>
				</port>
			</output>
		</layer>
		<layer id="285" name="Mul1_6544/Fused_Mul_80708072_const" precision="FP32" type="Const">
			<output>
				<port id="1">
					<dim>192</dim>
					<dim>1</dim>
					<dim>3</dim>
					<dim>3</dim>
				</port>
			</output>
			<blobs>
				<custom offset="256028" size="6912"/>
			</blobs>
		</layer>
		<layer id="286" name="1272112725_const" precision="FP32" type="Const">
			<output>
				<port id="1">
					<dim>192</dim>
				</port>
			</output>
			<blobs>
				<custom offset="262940" size="768"/>
			</blobs>
		</layer>
		<layer id="287" name="1272212726_const" precision="FP32" type="Const">
			<output>
				<port id="1">
					<dim>192</dim>
				</port>
			</output>
			<blobs>
				<custom offset="263708" size="768"/>
			</blobs>
		</layer>
		<layer id="288" name="1272312727_const" precision="FP32" type="Const">
			<output>
				<port id="1">
					<dim>192</dim>
				</port>
			</output>
			<blobs>
				<custom offset="262940" size="768"/>
			</blobs>
		</layer>
		<layer id="289" name="1272412728_const" precision="FP32" type="Const">
			<output>
				<port id="1">
					<dim>192</dim>
				</port>
			</output>
			<blobs>
				<custom offset="263708" size="768"/>
			</blobs>
		</layer>
		<layer id="290" name="369/fq_weights_1" precision="FP32" type="FakeQuantize">
			<data levels="255"/>
			<input>
				<port id="0">
					<dim>192</dim>
					<dim>1</dim>
					<dim>3</dim>
					<dim>3</dim>
				</port>
				<port id="1">
					<dim>192</dim>
				</port>
				<port id="2">
					<dim>192</dim>
				</port>
				<port id="3">
					<dim>192</dim>
				</port>
				<port id="4">
					<dim>192</dim>
				</port>
			</input>
			<output>
				<port id="5">
					<dim>192</dim>
					<dim>1</dim>
					<dim>3</dim>
					<dim>3</dim>
				</port>
			</output>
		</layer>
		<layer id="291" name="bias_data80738074_const" precision="FP32" type="Const">
			<output>
				<port id="1">
					<dim>192</dim>
				</port>
			</output>
			<blobs>
				<custom offset="264476" size="768"/>
			</blobs>
		</layer>
		<layer id="292" name="369" precision="FP32" type="Convolution">
			<data dilations="1,1" group="192" kernel="3,3" output="192" pads_begin="1,1" pads_end="1,1" strides="2,2"/>
			<input>
				<port id="0">
					<dim>1</dim>
					<dim>192</dim>
					<dim>28</dim>
					<dim>28</dim>
				</port>
				<port id="1">
					<dim>192</dim>
					<dim>1</dim>
					<dim>3</dim>
					<dim>3</dim>
				</port>
				<port id="2">
					<dim>192</dim>
				</port>
			</input>
			<output>
				<port id="3">
					<dim>1</dim>
					<dim>192</dim>
					<dim>14</dim>
					<dim>14</dim>
				</port>
			</output>
		</layer>
		<layer id="293" name="371" precision="FP32" type="Clamp">
			<data max="6.0" min="0.0"/>
			<input>
				<port id="0">
					<dim>1</dim>
					<dim>192</dim>
					<dim>14</dim>
					<dim>14</dim>
				</port>
			</input>
			<output>
				<port id="1">
					<dim>1</dim>
					<dim>192</dim>
					<dim>14</dim>
					<dim>14</dim>
				</port>
			</output>
		</layer>
		<layer id="294" name="1286112865_const" precision="FP32" type="Const">
			<output>
				<port id="1"/>
			</output>
			<blobs>
				<custom offset="3872" size="4"/>
			</blobs>
		</layer>
		<layer id="295" name="1286212866_const" precision="FP32" type="Const">
			<output>
				<port id="1"/>
			</output>
			<blobs>
				<custom offset="265244" size="4"/>
			</blobs>
		</layer>
		<layer id="296" name="1286312867_const" precision="FP32" type="Const">
			<output>
				<port id="1"/>
			</output>
			<blobs>
				<custom offset="3872" size="4"/>
			</blobs>
		</layer>
		<layer id="297" name="1286412868_const" precision="FP32" type="Const">
			<output>
				<port id="1"/>
			</output>
			<blobs>
				<custom offset="265244" size="4"/>
			</blobs>
		</layer>
		<layer id="298" name="372/fq_input_0" precision="FP32" type="FakeQuantize">
			<data levels="256.0"/>
			<input>
				<port id="0">
					<dim>1</dim>
					<dim>192</dim>
					<dim>14</dim>
					<dim>14</dim>
				</port>
				<port id="1"/>
				<port id="2"/>
				<port id="3"/>
				<port id="4"/>
			</input>
			<output>
				<port id="5">
					<dim>1</dim>
					<dim>192</dim>
					<dim>14</dim>
					<dim>14</dim>
				</port>
			</output>
		</layer>
		<layer id="299" name="Mul1_6388/Fused_Mul_80768078_const" precision="FP32" type="Const">
			<output>
				<port id="1">
					<dim>64</dim>
					<dim>192</dim>
					<dim>1</dim>
					<dim>1</dim>
				</port>
			</output>
			<blobs>
				<custom offset="265248" size="49152"/>
			</blobs>
		</layer>
		<layer id="300" name="1287112875_const" precision="FP32" type="Const">
			<output>
				<port id="1">
					<dim>64</dim>
				</port>
			</output>
			<blobs>
				<custom offset="314400" size="256"/>
			</blobs>
		</layer>
		<layer id="301" name="1287212876_const" precision="FP32" type="Const">
			<output>
				<port id="1">
					<dim>64</dim>
				</port>
			</output>
			<blobs>
				<custom offset="314656" size="256"/>
			</blobs>
		</layer>
		<layer id="302" name="1287312877_const" precision="FP32" type="Const">
			<output>
				<port id="1">
					<dim>64</dim>
				</port>
			</output>
			<blobs>
				<custom offset="314400" size="256"/>
			</blobs>
		</layer>
		<layer id="303" name="1287412878_const" precision="FP32" type="Const">
			<output>
				<port id="1">
					<dim>64</dim>
				</port>
			</output>
			<blobs>
				<custom offset="314656" size="256"/>
			</blobs>
		</layer>
		<layer id="304" name="372/fq_weights_1" precision="FP32" type="FakeQuantize">
			<data levels="255"/>
			<input>
				<port id="0">
					<dim>64</dim>
					<dim>192</dim>
					<dim>1</dim>
					<dim>1</dim>
				</port>
				<port id="1">
					<dim>64</dim>
				</port>
				<port id="2">
					<dim>64</dim>
				</port>
				<port id="3">
					<dim>64</dim>
				</port>
				<port id="4">
					<dim>64</dim>
				</port>
			</input>
			<output>
				<port id="5">
					<dim>64</dim>
					<dim>192</dim>
					<dim>1</dim>
					<dim>1</dim>
				</port>
			</output>
		</layer>
		<layer id="305" name="bias_data80798080_const" precision="FP32" type="Const">
			<output>
				<port id="1">
					<dim>64</dim>
				</port>
			</output>
			<blobs>
				<custom offset="314912" size="256"/>
			</blobs>
		</layer>
		<layer id="306" name="372" precision="FP32" type="Convolution">
			<data dilations="1,1" group="1" kernel="1,1" output="64" pads_begin="0,0" pads_end="0,0" strides="1,1"/>
			<input>
				<port id="0">
					<dim>1</dim>
					<dim>192</dim>
					<dim>14</dim>
					<dim>14</dim>
				</port>
				<port id="1">
					<dim>64</dim>
					<dim>192</dim>
					<dim>1</dim>
					<dim>1</dim>
				</port>
				<port id="2">
					<dim>64</dim>
				</port>
			</input>
			<output>
				<port id="3">
					<dim>1</dim>
					<dim>64</dim>
					<dim>14</dim>
					<dim>14</dim>
				</port>
			</output>
		</layer>
		<layer id="307" name="1245112455_const" precision="FP32" type="Const">
			<output>
				<port id="1"/>
			</output>
			<blobs>
				<custom offset="315168" size="4"/>
			</blobs>
		</layer>
		<layer id="308" name="1245212456_const" precision="FP32" type="Const">
			<output>
				<port id="1"/>
			</output>
			<blobs>
				<custom offset="315172" size="4"/>
			</blobs>
		</layer>
		<layer id="309" name="1245312457_const" precision="FP32" type="Const">
			<output>
				<port id="1"/>
			</output>
			<blobs>
				<custom offset="315168" size="4"/>
			</blobs>
		</layer>
		<layer id="310" name="1245412458_const" precision="FP32" type="Const">
			<output>
				<port id="1"/>
			</output>
			<blobs>
				<custom offset="315172" size="4"/>
			</blobs>
		</layer>
		<layer id="311" name="374/fq_input_0" precision="FP32" type="FakeQuantize">
			<data levels="256.0"/>
			<input>
				<port id="0">
					<dim>1</dim>
					<dim>64</dim>
					<dim>14</dim>
					<dim>14</dim>
				</port>
				<port id="1"/>
				<port id="2"/>
				<port id="3"/>
				<port id="4"/>
			</input>
			<output>
				<port id="5">
					<dim>1</dim>
					<dim>64</dim>
					<dim>14</dim>
					<dim>14</dim>
				</port>
			</output>
		</layer>
		<layer id="312" name="Mul1_6040/Fused_Mul_80828084_const" precision="FP32" type="Const">
			<output>
				<port id="1">
					<dim>384</dim>
					<dim>64</dim>
					<dim>1</dim>
					<dim>1</dim>
				</port>
			</output>
			<blobs>
				<custom offset="315176" size="98304"/>
			</blobs>
		</layer>
		<layer id="313" name="1246112465_const" precision="FP32" type="Const">
			<output>
				<port id="1">
					<dim>384</dim>
				</port>
			</output>
			<blobs>
				<custom offset="413480" size="1536"/>
			</blobs>
		</layer>
		<layer id="314" name="1246212466_const" precision="FP32" type="Const">
			<output>
				<port id="1">
					<dim>384</dim>
				</port>
			</output>
			<blobs>
				<custom offset="415016" size="1536"/>
			</blobs>
		</layer>
		<layer id="315" name="1246312467_const" precision="FP32" type="Const">
			<output>
				<port id="1">
					<dim>384</dim>
				</port>
			</output>
			<blobs>
				<custom offset="413480" size="1536"/>
			</blobs>
		</layer>
		<layer id="316" name="1246412468_const" precision="FP32" type="Const">
			<output>
				<port id="1">
					<dim>384</dim>
				</port>
			</output>
			<blobs>
				<custom offset="415016" size="1536"/>
			</blobs>
		</layer>
		<layer id="317" name="374/fq_weights_1" precision="FP32" type="FakeQuantize">
			<data levels="255"/>
			<input>
				<port id="0">
					<dim>384</dim>
					<dim>64</dim>
					<dim>1</dim>
					<dim>1</dim>
				</port>
				<port id="1">
					<dim>384</dim>
				</port>
				<port id="2">
					<dim>384</dim>
				</port>
				<port id="3">
					<dim>384</dim>
				</port>
				<port id="4">
					<dim>384</dim>
				</port>
			</input>
			<output>
				<port id="5">
					<dim>384</dim>
					<dim>64</dim>
					<dim>1</dim>
					<dim>1</dim>
				</port>
			</output>
		</layer>
		<layer id="318" name="bias_data80858086_const" precision="FP32" type="Const">
			<output>
				<port id="1">
					<dim>384</dim>
				</port>
			</output>
			<blobs>
				<custom offset="416552" size="1536"/>
			</blobs>
		</layer>
		<layer id="319" name="374" precision="FP32" type="Convolution">
			<data dilations="1,1" group="1" kernel="1,1" output="384" pads_begin="0,0" pads_end="0,0" strides="1,1"/>
			<input>
				<port id="0">
					<dim>1</dim>
					<dim>64</dim>
					<dim>14</dim>
					<dim>14</dim>
				</port>
				<port id="1">
					<dim>384</dim>
					<dim>64</dim>
					<dim>1</dim>
					<dim>1</dim>
				</port>
				<port id="2">
					<dim>384</dim>
				</port>
			</input>
			<output>
				<port id="3">
					<dim>1</dim>
					<dim>384</dim>
					<dim>14</dim>
					<dim>14</dim>
				</port>
			</output>
		</layer>
		<layer id="320" name="376" precision="FP32" type="Clamp">
			<data max="6.0" min="0.0"/>
			<input>
				<port id="0">
					<dim>1</dim>
					<dim>384</dim>
					<dim>14</dim>
					<dim>14</dim>
				</port>
			</input>
			<output>
				<port id="1">
					<dim>1</dim>
					<dim>384</dim>
					<dim>14</dim>
					<dim>14</dim>
				</port>
			</output>
		</layer>
		<layer id="321" name="1247112475_const" precision="FP32" type="Const">
			<output>
				<port id="1"/>
			</output>
			<blobs>
				<custom offset="3872" size="4"/>
			</blobs>
		</layer>
		<layer id="322" name="1247212476_const" precision="FP32" type="Const">
			<output>
				<port id="1"/>
			</output>
			<blobs>
				<custom offset="418088" size="4"/>
			</blobs>
		</layer>
		<layer id="323" name="1247312477_const" precision="FP32" type="Const">
			<output>
				<port id="1"/>
			</output>
			<blobs>
				<custom offset="3872" size="4"/>
			</blobs>
		</layer>
		<layer id="324" name="1247412478_const" precision="FP32" type="Const">
			<output>
				<port id="1"/>
			</output>
			<blobs>
				<custom offset="418088" size="4"/>
			</blobs>
		</layer>
		<layer id="325" name="377/fq_input_0" precision="FP32" type="FakeQuantize">
			<data levels="256.0"/>
			<input>
				<port id="0">
					<dim>1</dim>
					<dim>384</dim>
					<dim>14</dim>
					<dim>14</dim>
				</port>
				<port id="1"/>
				<port id="2"/>
				<port id="3"/>
				<port id="4"/>
			</input>
			<output>
				<port id="5">
					<dim>1</dim>
					<dim>384</dim>
					<dim>14</dim>
					<dim>14</dim>
				</port>
			</output>
		</layer>
		<layer id="326" name="Mul1_5980/Fused_Mul_80888090_const" precision="FP32" type="Const">
			<output>
				<port id="1">
					<dim>384</dim>
					<dim>1</dim>
					<dim>3</dim>
					<dim>3</dim>
				</port>
			</output>
			<blobs>
				<custom offset="418092" size="13824"/>
			</blobs>
		</layer>
		<layer id="327" name="1248112485_const" precision="FP32" type="Const">
			<output>
				<port id="1">
					<dim>384</dim>
				</port>
			</output>
			<blobs>
				<custom offset="431916" size="1536"/>
			</blobs>
		</layer>
		<layer id="328" name="1248212486_const" precision="FP32" type="Const">
			<output>
				<port id="1">
					<dim>384</dim>
				</port>
			</output>
			<blobs>
				<custom offset="433452" size="1536"/>
			</blobs>
		</layer>
		<layer id="329" name="1248312487_const" precision="FP32" type="Const">
			<output>
				<port id="1">
					<dim>384</dim>
				</port>
			</output>
			<blobs>
				<custom offset="431916" size="1536"/>
			</blobs>
		</layer>
		<layer id="330" name="1248412488_const" precision="FP32" type="Const">
			<output>
				<port id="1">
					<dim>384</dim>
				</port>
			</output>
			<blobs>
				<custom offset="433452" size="1536"/>
			</blobs>
		</layer>
		<layer id="331" name="377/fq_weights_1" precision="FP32" type="FakeQuantize">
			<data levels="255"/>
			<input>
				<port id="0">
					<dim>384</dim>
					<dim>1</dim>
					<dim>3</dim>
					<dim>3</dim>
				</port>
				<port id="1">
					<dim>384</dim>
				</port>
				<port id="2">
					<dim>384</dim>
				</port>
				<port id="3">
					<dim>384</dim>
				</port>
				<port id="4">
					<dim>384</dim>
				</port>
			</input>
			<output>
				<port id="5">
					<dim>384</dim>
					<dim>1</dim>
					<dim>3</dim>
					<dim>3</dim>
				</port>
			</output>
		</layer>
		<layer id="332" name="bias_data80918092_const" precision="FP32" type="Const">
			<output>
				<port id="1">
					<dim>384</dim>
				</port>
			</output>
			<blobs>
				<custom offset="434988" size="1536"/>
			</blobs>
		</layer>
		<layer id="333" name="377" precision="FP32" type="Convolution">
			<data dilations="1,1" group="384" kernel="3,3" output="384" pads_begin="1,1" pads_end="1,1" strides="1,1"/>
			<input>
				<port id="0">
					<dim>1</dim>
					<dim>384</dim>
					<dim>14</dim>
					<dim>14</dim>
				</port>
				<port id="1">
					<dim>384</dim>
					<dim>1</dim>
					<dim>3</dim>
					<dim>3</dim>
				</port>
				<port id="2">
					<dim>384</dim>
				</port>
			</input>
			<output>
				<port id="3">
					<dim>1</dim>
					<dim>384</dim>
					<dim>14</dim>
					<dim>14</dim>
				</port>
			</output>
		</layer>
		<layer id="334" name="379" precision="FP32" type="Clamp">
			<data max="6.0" min="0.0"/>
			<input>
				<port id="0">
					<dim>1</dim>
					<dim>384</dim>
					<dim>14</dim>
					<dim>14</dim>
				</port>
			</input>
			<output>
				<port id="1">
					<dim>1</dim>
					<dim>384</dim>
					<dim>14</dim>
					<dim>14</dim>
				</port>
			</output>
		</layer>
		<layer id="335" name="1251112515_const" precision="FP32" type="Const">
			<output>
				<port id="1"/>
			</output>
			<blobs>
				<custom offset="3872" size="4"/>
			</blobs>
		</layer>
		<layer id="336" name="1251212516_const" precision="FP32" type="Const">
			<output>
				<port id="1"/>
			</output>
			<blobs>
				<custom offset="436524" size="4"/>
			</blobs>
		</layer>
		<layer id="337" name="1251312517_const" precision="FP32" type="Const">
			<output>
				<port id="1"/>
			</output>
			<blobs>
				<custom offset="3872" size="4"/>
			</blobs>
		</layer>
		<layer id="338" name="1251412518_const" precision="FP32" type="Const">
			<output>
				<port id="1"/>
			</output>
			<blobs>
				<custom offset="436524" size="4"/>
			</blobs>
		</layer>
		<layer id="339" name="380/fq_input_0" precision="FP32" type="FakeQuantize">
			<data levels="256.0"/>
			<input>
				<port id="0">
					<dim>1</dim>
					<dim>384</dim>
					<dim>14</dim>
					<dim>14</dim>
				</port>
				<port id="1"/>
				<port id="2"/>
				<port id="3"/>
				<port id="4"/>
			</input>
			<output>
				<port id="5">
					<dim>1</dim>
					<dim>384</dim>
					<dim>14</dim>
					<dim>14</dim>
				</port>
			</output>
		</layer>
		<layer id="340" name="Mul1_6148/Fused_Mul_80948096_const" precision="FP32" type="Const">
			<output>
				<port id="1">
					<dim>64</dim>
					<dim>384</dim>
					<dim>1</dim>
					<dim>1</dim>
				</port>
			</output>
			<blobs>
				<custom offset="436528" size="98304"/>
			</blobs>
		</layer>
		<layer id="341" name="1252112525_const" precision="FP32" type="Const">
			<output>
				<port id="1">
					<dim>64</dim>
				</port>
			</output>
			<blobs>
				<custom offset="534832" size="256"/>
			</blobs>
		</layer>
		<layer id="342" name="1252212526_const" precision="FP32" type="Const">
			<output>
				<port id="1">
					<dim>64</dim>
				</port>
			</output>
			<blobs>
				<custom offset="535088" size="256"/>
			</blobs>
		</layer>
		<layer id="343" name="1252312527_const" precision="FP32" type="Const">
			<output>
				<port id="1">
					<dim>64</dim>
				</port>
			</output>
			<blobs>
				<custom offset="534832" size="256"/>
			</blobs>
		</layer>
		<layer id="344" name="1252412528_const" precision="FP32" type="Const">
			<output>
				<port id="1">
					<dim>64</dim>
				</port>
			</output>
			<blobs>
				<custom offset="535088" size="256"/>
			</blobs>
		</layer>
		<layer id="345" name="380/fq_weights_1" precision="FP32" type="FakeQuantize">
			<data levels="255"/>
			<input>
				<port id="0">
					<dim>64</dim>
					<dim>384</dim>
					<dim>1</dim>
					<dim>1</dim>
				</port>
				<port id="1">
					<dim>64</dim>
				</port>
				<port id="2">
					<dim>64</dim>
				</port>
				<port id="3">
					<dim>64</dim>
				</port>
				<port id="4">
					<dim>64</dim>
				</port>
			</input>
			<output>
				<port id="5">
					<dim>64</dim>
					<dim>384</dim>
					<dim>1</dim>
					<dim>1</dim>
				</port>
			</output>
		</layer>
		<layer id="346" name="bias_data80978098_const" precision="FP32" type="Const">
			<output>
				<port id="1">
					<dim>64</dim>
				</port>
			</output>
			<blobs>
				<custom offset="535344" size="256"/>
			</blobs>
		</layer>
		<layer id="347" name="380" precision="FP32" type="Convolution">
			<data dilations="1,1" group="1" kernel="1,1" output="64" pads_begin="0,0" pads_end="0,0" strides="1,1"/>
			<input>
				<port id="0">
					<dim>1</dim>
					<dim>384</dim>
					<dim>14</dim>
					<dim>14</dim>
				</port>
				<port id="1">
					<dim>64</dim>
					<dim>384</dim>
					<dim>1</dim>
					<dim>1</dim>
				</port>
				<port id="2">
					<dim>64</dim>
				</port>
			</input>
			<output>
				<port id="3">
					<dim>1</dim>
					<dim>64</dim>
					<dim>14</dim>
					<dim>14</dim>
				</port>
			</output>
		</layer>
		<layer id="348" name="1278112785_const" precision="FP32" type="Const">
			<output>
				<port id="1"/>
			</output>
			<blobs>
				<custom offset="535600" size="4"/>
			</blobs>
		</layer>
		<layer id="349" name="1278212786_const" precision="FP32" type="Const">
			<output>
				<port id="1"/>
			</output>
			<blobs>
				<custom offset="535604" size="4"/>
			</blobs>
		</layer>
		<layer id="350" name="1278312787_const" precision="FP32" type="Const">
			<output>
				<port id="1"/>
			</output>
			<blobs>
				<custom offset="535600" size="4"/>
			</blobs>
		</layer>
		<layer id="351" name="1278412788_const" precision="FP32" type="Const">
			<output>
				<port id="1"/>
			</output>
			<blobs>
				<custom offset="535604" size="4"/>
			</blobs>
		</layer>
		<layer id="352" name="382/fq_input_1" precision="FP32" type="FakeQuantize">
			<data levels="256.0"/>
			<input>
				<port id="0">
					<dim>1</dim>
					<dim>64</dim>
					<dim>14</dim>
					<dim>14</dim>
				</port>
				<port id="1"/>
				<port id="2"/>
				<port id="3"/>
				<port id="4"/>
			</input>
			<output>
				<port id="5">
					<dim>1</dim>
					<dim>64</dim>
					<dim>14</dim>
					<dim>14</dim>
				</port>
			</output>
		</layer>
		<layer id="353" name="382" precision="FP32" type="Eltwise">
			<data operation="sum"/>
			<input>
				<port id="0">
					<dim>1</dim>
					<dim>64</dim>
					<dim>14</dim>
					<dim>14</dim>
				</port>
				<port id="1">
					<dim>1</dim>
					<dim>64</dim>
					<dim>14</dim>
					<dim>14</dim>
				</port>
			</input>
			<output>
				<port id="2">
					<dim>1</dim>
					<dim>64</dim>
					<dim>14</dim>
					<dim>14</dim>
				</port>
			</output>
		</layer>
		<layer id="354" name="1318113185_const" precision="FP32" type="Const">
			<output>
				<port id="1"/>
			</output>
			<blobs>
				<custom offset="535608" size="4"/>
			</blobs>
		</layer>
		<layer id="355" name="1318213186_const" precision="FP32" type="Const">
			<output>
				<port id="1"/>
			</output>
			<blobs>
				<custom offset="535612" size="4"/>
			</blobs>
		</layer>
		<layer id="356" name="1318313187_const" precision="FP32" type="Const">
			<output>
				<port id="1"/>
			</output>
			<blobs>
				<custom offset="535608" size="4"/>
			</blobs>
		</layer>
		<layer id="357" name="1318413188_const" precision="FP32" type="Const">
			<output>
				<port id="1"/>
			</output>
			<blobs>
				<custom offset="535612" size="4"/>
			</blobs>
		</layer>
		<layer id="358" name="383/fq_input_0" precision="FP32" type="FakeQuantize">
			<data levels="256.0"/>
			<input>
				<port id="0">
					<dim>1</dim>
					<dim>64</dim>
					<dim>14</dim>
					<dim>14</dim>
				</port>
				<port id="1"/>
				<port id="2"/>
				<port id="3"/>
				<port id="4"/>
			</input>
			<output>
				<port id="5">
					<dim>1</dim>
					<dim>64</dim>
					<dim>14</dim>
					<dim>14</dim>
				</port>
			</output>
		</layer>
		<layer id="359" name="Mul1_6376/Fused_Mul_81008102_const" precision="FP32" type="Const">
			<output>
				<port id="1">
					<dim>384</dim>
					<dim>64</dim>
					<dim>1</dim>
					<dim>1</dim>
				</port>
			</output>
			<blobs>
				<custom offset="535616" size="98304"/>
			</blobs>
		</layer>
		<layer id="360" name="1319113195_const" precision="FP32" type="Const">
			<output>
				<port id="1">
					<dim>384</dim>
				</port>
			</output>
			<blobs>
				<custom offset="633920" size="1536"/>
			</blobs>
		</layer>
		<layer id="361" name="1319213196_const" precision="FP32" type="Const">
			<output>
				<port id="1">
					<dim>384</dim>
				</port>
			</output>
			<blobs>
				<custom offset="635456" size="1536"/>
			</blobs>
		</layer>
		<layer id="362" name="1319313197_const" precision="FP32" type="Const">
			<output>
				<port id="1">
					<dim>384</dim>
				</port>
			</output>
			<blobs>
				<custom offset="633920" size="1536"/>
			</blobs>
		</layer>
		<layer id="363" name="1319413198_const" precision="FP32" type="Const">
			<output>
				<port id="1">
					<dim>384</dim>
				</port>
			</output>
			<blobs>
				<custom offset="635456" size="1536"/>
			</blobs>
		</layer>
		<layer id="364" name="383/fq_weights_1" precision="FP32" type="FakeQuantize">
			<data levels="255"/>
			<input>
				<port id="0">
					<dim>384</dim>
					<dim>64</dim>
					<dim>1</dim>
					<dim>1</dim>
				</port>
				<port id="1">
					<dim>384</dim>
				</port>
				<port id="2">
					<dim>384</dim>
				</port>
				<port id="3">
					<dim>384</dim>
				</port>
				<port id="4">
					<dim>384</dim>
				</port>
			</input>
			<output>
				<port id="5">
					<dim>384</dim>
					<dim>64</dim>
					<dim>1</dim>
					<dim>1</dim>
				</port>
			</output>
		</layer>
		<layer id="365" name="bias_data81038104_const" precision="FP32" type="Const">
			<output>
				<port id="1">
					<dim>384</dim>
				</port>
			</output>
			<blobs>
				<custom offset="636992" size="1536"/>
			</blobs>
		</layer>
		<layer id="366" name="383" precision="FP32" type="Convolution">
			<data dilations="1,1" group="1" kernel="1,1" output="384" pads_begin="0,0" pads_end="0,0" strides="1,1"/>
			<input>
				<port id="0">
					<dim>1</dim>
					<dim>64</dim>
					<dim>14</dim>
					<dim>14</dim>
				</port>
				<port id="1">
					<dim>384</dim>
					<dim>64</dim>
					<dim>1</dim>
					<dim>1</dim>
				</port>
				<port id="2">
					<dim>384</dim>
				</port>
			</input>
			<output>
				<port id="3">
					<dim>1</dim>
					<dim>384</dim>
					<dim>14</dim>
					<dim>14</dim>
				</port>
			</output>
		</layer>
		<layer id="367" name="385" precision="FP32" type="Clamp">
			<data max="6.0" min="0.0"/>
			<input>
				<port id="0">
					<dim>1</dim>
					<dim>384</dim>
					<dim>14</dim>
					<dim>14</dim>
				</port>
			</input>
			<output>
				<port id="1">
					<dim>1</dim>
					<dim>384</dim>
					<dim>14</dim>
					<dim>14</dim>
				</port>
			</output>
		</layer>
		<layer id="368" name="1269112695_const" precision="FP32" type="Const">
			<output>
				<port id="1"/>
			</output>
			<blobs>
				<custom offset="3872" size="4"/>
			</blobs>
		</layer>
		<layer id="369" name="1269212696_const" precision="FP32" type="Const">
			<output>
				<port id="1"/>
			</output>
			<blobs>
				<custom offset="638528" size="4"/>
			</blobs>
		</layer>
		<layer id="370" name="1269312697_const" precision="FP32" type="Const">
			<output>
				<port id="1"/>
			</output>
			<blobs>
				<custom offset="3872" size="4"/>
			</blobs>
		</layer>
		<layer id="371" name="1269412698_const" precision="FP32" type="Const">
			<output>
				<port id="1"/>
			</output>
			<blobs>
				<custom offset="638528" size="4"/>
			</blobs>
		</layer>
		<layer id="372" name="386/fq_input_0" precision="FP32" type="FakeQuantize">
			<data levels="256.0"/>
			<input>
				<port id="0">
					<dim>1</dim>
					<dim>384</dim>
					<dim>14</dim>
					<dim>14</dim>
				</port>
				<port id="1"/>
				<port id="2"/>
				<port id="3"/>
				<port id="4"/>
			</input>
			<output>
				<port id="5">
					<dim>1</dim>
					<dim>384</dim>
					<dim>14</dim>
					<dim>14</dim>
				</port>
			</output>
		</layer>
		<layer id="373" name="Mul1_6328/Fused_Mul_81068108_const" precision="FP32" type="Const">
			<output>
				<port id="1">
					<dim>384</dim>
					<dim>1</dim>
					<dim>3</dim>
					<dim>3</dim>
				</port>
			</output>
			<blobs>
				<custom offset="638532" size="13824"/>
			</blobs>
		</layer>
		<layer id="374" name="1270112705_const" precision="FP32" type="Const">
			<output>
				<port id="1">
					<dim>384</dim>
				</port>
			</output>
			<blobs>
				<custom offset="652356" size="1536"/>
			</blobs>
		</layer>
		<layer id="375" name="1270212706_const" precision="FP32" type="Const">
			<output>
				<port id="1">
					<dim>384</dim>
				</port>
			</output>
			<blobs>
				<custom offset="653892" size="1536"/>
			</blobs>
		</layer>
		<layer id="376" name="1270312707_const" precision="FP32" type="Const">
			<output>
				<port id="1">
					<dim>384</dim>
				</port>
			</output>
			<blobs>
				<custom offset="652356" size="1536"/>
			</blobs>
		</layer>
		<layer id="377" name="1270412708_const" precision="FP32" type="Const">
			<output>
				<port id="1">
					<dim>384</dim>
				</port>
			</output>
			<blobs>
				<custom offset="653892" size="1536"/>
			</blobs>
		</layer>
		<layer id="378" name="386/fq_weights_1" precision="FP32" type="FakeQuantize">
			<data levels="255"/>
			<input>
				<port id="0">
					<dim>384</dim>
					<dim>1</dim>
					<dim>3</dim>
					<dim>3</dim>
				</port>
				<port id="1">
					<dim>384</dim>
				</port>
				<port id="2">
					<dim>384</dim>
				</port>
				<port id="3">
					<dim>384</dim>
				</port>
				<port id="4">
					<dim>384</dim>
				</port>
			</input>
			<output>
				<port id="5">
					<dim>384</dim>
					<dim>1</dim>
					<dim>3</dim>
					<dim>3</dim>
				</port>
			</output>
		</layer>
		<layer id="379" name="bias_data81098110_const" precision="FP32" type="Const">
			<output>
				<port id="1">
					<dim>384</dim>
				</port>
			</output>
			<blobs>
				<custom offset="655428" size="1536"/>
			</blobs>
		</layer>
		<layer id="380" name="386" precision="FP32" type="Convolution">
			<data dilations="1,1" group="384" kernel="3,3" output="384" pads_begin="1,1" pads_end="1,1" strides="1,1"/>
			<input>
				<port id="0">
					<dim>1</dim>
					<dim>384</dim>
					<dim>14</dim>
					<dim>14</dim>
				</port>
				<port id="1">
					<dim>384</dim>
					<dim>1</dim>
					<dim>3</dim>
					<dim>3</dim>
				</port>
				<port id="2">
					<dim>384</dim>
				</port>
			</input>
			<output>
				<port id="3">
					<dim>1</dim>
					<dim>384</dim>
					<dim>14</dim>
					<dim>14</dim>
				</port>
			</output>
		</layer>
		<layer id="381" name="388" precision="FP32" type="Clamp">
			<data max="6.0" min="0.0"/>
			<input>
				<port id="0">
					<dim>1</dim>
					<dim>384</dim>
					<dim>14</dim>
					<dim>14</dim>
				</port>
			</input>
			<output>
				<port id="1">
					<dim>1</dim>
					<dim>384</dim>
					<dim>14</dim>
					<dim>14</dim>
				</port>
			</output>
		</layer>
		<layer id="382" name="1275112755_const" precision="FP32" type="Const">
			<output>
				<port id="1"/>
			</output>
			<blobs>
				<custom offset="3872" size="4"/>
			</blobs>
		</layer>
		<layer id="383" name="1275212756_const" precision="FP32" type="Const">
			<output>
				<port id="1"/>
			</output>
			<blobs>
				<custom offset="656964" size="4"/>
			</blobs>
		</layer>
		<layer id="384" name="1275312757_const" precision="FP32" type="Const">
			<output>
				<port id="1"/>
			</output>
			<blobs>
				<custom offset="3872" size="4"/>
			</blobs>
		</layer>
		<layer id="385" name="1275412758_const" precision="FP32" type="Const">
			<output>
				<port id="1"/>
			</output>
			<blobs>
				<custom offset="656964" size="4"/>
			</blobs>
		</layer>
		<layer id="386" name="389/fq_input_0" precision="FP32" type="FakeQuantize">
			<data levels="256.0"/>
			<input>
				<port id="0">
					<dim>1</dim>
					<dim>384</dim>
					<dim>14</dim>
					<dim>14</dim>
				</port>
				<port id="1"/>
				<port id="2"/>
				<port id="3"/>
				<port id="4"/>
			</input>
			<output>
				<port id="5">
					<dim>1</dim>
					<dim>384</dim>
					<dim>14</dim>
					<dim>14</dim>
				</port>
			</output>
		</layer>
		<layer id="387" name="Mul1_6304/Fused_Mul_81128114_const" precision="FP32" type="Const">
			<output>
				<port id="1">
					<dim>64</dim>
					<dim>384</dim>
					<dim>1</dim>
					<dim>1</dim>
				</port>
			</output>
			<blobs>
				<custom offset="656968" size="98304"/>
			</blobs>
		</layer>
		<layer id="388" name="1276112765_const" precision="FP32" type="Const">
			<output>
				<port id="1">
					<dim>64</dim>
				</port>
			</output>
			<blobs>
				<custom offset="755272" size="256"/>
			</blobs>
		</layer>
		<layer id="389" name="1276212766_const" precision="FP32" type="Const">
			<output>
				<port id="1">
					<dim>64</dim>
				</port>
			</output>
			<blobs>
				<custom offset="755528" size="256"/>
			</blobs>
		</layer>
		<layer id="390" name="1276312767_const" precision="FP32" type="Const">
			<output>
				<port id="1">
					<dim>64</dim>
				</port>
			</output>
			<blobs>
				<custom offset="755272" size="256"/>
			</blobs>
		</layer>
		<layer id="391" name="1276412768_const" precision="FP32" type="Const">
			<output>
				<port id="1">
					<dim>64</dim>
				</port>
			</output>
			<blobs>
				<custom offset="755528" size="256"/>
			</blobs>
		</layer>
		<layer id="392" name="389/fq_weights_1" precision="FP32" type="FakeQuantize">
			<data levels="255"/>
			<input>
				<port id="0">
					<dim>64</dim>
					<dim>384</dim>
					<dim>1</dim>
					<dim>1</dim>
				</port>
				<port id="1">
					<dim>64</dim>
				</port>
				<port id="2">
					<dim>64</dim>
				</port>
				<port id="3">
					<dim>64</dim>
				</port>
				<port id="4">
					<dim>64</dim>
				</port>
			</input>
			<output>
				<port id="5">
					<dim>64</dim>
					<dim>384</dim>
					<dim>1</dim>
					<dim>1</dim>
				</port>
			</output>
		</layer>
		<layer id="393" name="bias_data81158116_const" precision="FP32" type="Const">
			<output>
				<port id="1">
					<dim>64</dim>
				</port>
			</output>
			<blobs>
				<custom offset="755784" size="256"/>
			</blobs>
		</layer>
		<layer id="394" name="389" precision="FP32" type="Convolution">
			<data dilations="1,1" group="1" kernel="1,1" output="64" pads_begin="0,0" pads_end="0,0" strides="1,1"/>
			<input>
				<port id="0">
					<dim>1</dim>
					<dim>384</dim>
					<dim>14</dim>
					<dim>14</dim>
				</port>
				<port id="1">
					<dim>64</dim>
					<dim>384</dim>
					<dim>1</dim>
					<dim>1</dim>
				</port>
				<port id="2">
					<dim>64</dim>
				</port>
			</input>
			<output>
				<port id="3">
					<dim>1</dim>
					<dim>64</dim>
					<dim>14</dim>
					<dim>14</dim>
				</port>
			</output>
		</layer>
		<layer id="395" name="1266112665_const" precision="FP32" type="Const">
			<output>
				<port id="1"/>
			</output>
			<blobs>
				<custom offset="756040" size="4"/>
			</blobs>
		</layer>
		<layer id="396" name="1266212666_const" precision="FP32" type="Const">
			<output>
				<port id="1"/>
			</output>
			<blobs>
				<custom offset="756044" size="4"/>
			</blobs>
		</layer>
		<layer id="397" name="1266312667_const" precision="FP32" type="Const">
			<output>
				<port id="1"/>
			</output>
			<blobs>
				<custom offset="756040" size="4"/>
			</blobs>
		</layer>
		<layer id="398" name="1266412668_const" precision="FP32" type="Const">
			<output>
				<port id="1"/>
			</output>
			<blobs>
				<custom offset="756044" size="4"/>
			</blobs>
		</layer>
		<layer id="399" name="391/fq_input_1" precision="FP32" type="FakeQuantize">
			<data levels="256.0"/>
			<input>
				<port id="0">
					<dim>1</dim>
					<dim>64</dim>
					<dim>14</dim>
					<dim>14</dim>
				</port>
				<port id="1"/>
				<port id="2"/>
				<port id="3"/>
				<port id="4"/>
			</input>
			<output>
				<port id="5">
					<dim>1</dim>
					<dim>64</dim>
					<dim>14</dim>
					<dim>14</dim>
				</port>
			</output>
		</layer>
		<layer id="400" name="391" precision="FP32" type="Eltwise">
			<data operation="sum"/>
			<input>
				<port id="0">
					<dim>1</dim>
					<dim>64</dim>
					<dim>14</dim>
					<dim>14</dim>
				</port>
				<port id="1">
					<dim>1</dim>
					<dim>64</dim>
					<dim>14</dim>
					<dim>14</dim>
				</port>
			</input>
			<output>
				<port id="2">
					<dim>1</dim>
					<dim>64</dim>
					<dim>14</dim>
					<dim>14</dim>
				</port>
			</output>
		</layer>
		<layer id="401" name="1279112795_const" precision="FP32" type="Const">
			<output>
				<port id="1"/>
			</output>
			<blobs>
				<custom offset="756048" size="4"/>
			</blobs>
		</layer>
		<layer id="402" name="1279212796_const" precision="FP32" type="Const">
			<output>
				<port id="1"/>
			</output>
			<blobs>
				<custom offset="756052" size="4"/>
			</blobs>
		</layer>
		<layer id="403" name="1279312797_const" precision="FP32" type="Const">
			<output>
				<port id="1"/>
			</output>
			<blobs>
				<custom offset="756048" size="4"/>
			</blobs>
		</layer>
		<layer id="404" name="1279412798_const" precision="FP32" type="Const">
			<output>
				<port id="1"/>
			</output>
			<blobs>
				<custom offset="756052" size="4"/>
			</blobs>
		</layer>
		<layer id="405" name="400/fq_input_0" precision="FP32" type="FakeQuantize">
			<data levels="256.0"/>
			<input>
				<port id="0">
					<dim>1</dim>
					<dim>64</dim>
					<dim>14</dim>
					<dim>14</dim>
				</port>
				<port id="1"/>
				<port id="2"/>
				<port id="3"/>
				<port id="4"/>
			</input>
			<output>
				<port id="5">
					<dim>1</dim>
					<dim>64</dim>
					<dim>14</dim>
					<dim>14</dim>
				</port>
			</output>
		</layer>
		<layer id="406" name="Mul1_6232/Fused_Mul_81188120_const" precision="FP32" type="Const">
			<output>
				<port id="1">
					<dim>384</dim>
					<dim>64</dim>
					<dim>1</dim>
					<dim>1</dim>
				</port>
			</output>
			<blobs>
				<custom offset="756056" size="98304"/>
			</blobs>
		</layer>
		<layer id="407" name="1244112445_const" precision="FP32" type="Const">
			<output>
				<port id="1">
					<dim>384</dim>
				</port>
			</output>
			<blobs>
				<custom offset="854360" size="1536"/>
			</blobs>
		</layer>
		<layer id="408" name="1244212446_const" precision="FP32" type="Const">
			<output>
				<port id="1">
					<dim>384</dim>
				</port>
			</output>
			<blobs>
				<custom offset="855896" size="1536"/>
			</blobs>
		</layer>
		<layer id="409" name="1244312447_const" precision="FP32" type="Const">
			<output>
				<port id="1">
					<dim>384</dim>
				</port>
			</output>
			<blobs>
				<custom offset="854360" size="1536"/>
			</blobs>
		</layer>
		<layer id="410" name="1244412448_const" precision="FP32" type="Const">
			<output>
				<port id="1">
					<dim>384</dim>
				</port>
			</output>
			<blobs>
				<custom offset="855896" size="1536"/>
			</blobs>
		</layer>
		<layer id="411" name="392/fq_weights_1" precision="FP32" type="FakeQuantize">
			<data levels="255"/>
			<input>
				<port id="0">
					<dim>384</dim>
					<dim>64</dim>
					<dim>1</dim>
					<dim>1</dim>
				</port>
				<port id="1">
					<dim>384</dim>
				</port>
				<port id="2">
					<dim>384</dim>
				</port>
				<port id="3">
					<dim>384</dim>
				</port>
				<port id="4">
					<dim>384</dim>
				</port>
			</input>
			<output>
				<port id="5">
					<dim>384</dim>
					<dim>64</dim>
					<dim>1</dim>
					<dim>1</dim>
				</port>
			</output>
		</layer>
		<layer id="412" name="bias_data81218122_const" precision="FP32" type="Const">
			<output>
				<port id="1">
					<dim>384</dim>
				</port>
			</output>
			<blobs>
				<custom offset="857432" size="1536"/>
			</blobs>
		</layer>
		<layer id="413" name="392" precision="FP32" type="Convolution">
			<data dilations="1,1" group="1" kernel="1,1" output="384" pads_begin="0,0" pads_end="0,0" strides="1,1"/>
			<input>
				<port id="0">
					<dim>1</dim>
					<dim>64</dim>
					<dim>14</dim>
					<dim>14</dim>
				</port>
				<port id="1">
					<dim>384</dim>
					<dim>64</dim>
					<dim>1</dim>
					<dim>1</dim>
				</port>
				<port id="2">
					<dim>384</dim>
				</port>
			</input>
			<output>
				<port id="3">
					<dim>1</dim>
					<dim>384</dim>
					<dim>14</dim>
					<dim>14</dim>
				</port>
			</output>
		</layer>
		<layer id="414" name="394" precision="FP32" type="Clamp">
			<data max="6.0" min="0.0"/>
			<input>
				<port id="0">
					<dim>1</dim>
					<dim>384</dim>
					<dim>14</dim>
					<dim>14</dim>
				</port>
			</input>
			<output>
				<port id="1">
					<dim>1</dim>
					<dim>384</dim>
					<dim>14</dim>
					<dim>14</dim>
				</port>
			</output>
		</layer>
		<layer id="415" name="1339113395_const" precision="FP32" type="Const">
			<output>
				<port id="1"/>
			</output>
			<blobs>
				<custom offset="3872" size="4"/>
			</blobs>
		</layer>
		<layer id="416" name="1339213396_const" precision="FP32" type="Const">
			<output>
				<port id="1"/>
			</output>
			<blobs>
				<custom offset="858968" size="4"/>
			</blobs>
		</layer>
		<layer id="417" name="1339313397_const" precision="FP32" type="Const">
			<output>
				<port id="1"/>
			</output>
			<blobs>
				<custom offset="3872" size="4"/>
			</blobs>
		</layer>
		<layer id="418" name="1339413398_const" precision="FP32" type="Const">
			<output>
				<port id="1"/>
			</output>
			<blobs>
				<custom offset="858968" size="4"/>
			</blobs>
		</layer>
		<layer id="419" name="395/fq_input_0" precision="FP32" type="FakeQuantize">
			<data levels="256.0"/>
			<input>
				<port id="0">
					<dim>1</dim>
					<dim>384</dim>
					<dim>14</dim>
					<dim>14</dim>
				</port>
				<port id="1"/>
				<port id="2"/>
				<port id="3"/>
				<port id="4"/>
			</input>
			<output>
				<port id="5">
					<dim>1</dim>
					<dim>384</dim>
					<dim>14</dim>
					<dim>14</dim>
				</port>
			</output>
		</layer>
		<layer id="420" name="Mul1_6520/Fused_Mul_81248126_const" precision="FP32" type="Const">
			<output>
				<port id="1">
					<dim>384</dim>
					<dim>1</dim>
					<dim>3</dim>
					<dim>3</dim>
				</port>
			</output>
			<blobs>
				<custom offset="858972" size="13824"/>
			</blobs>
		</layer>
		<layer id="421" name="1340113405_const" precision="FP32" type="Const">
			<output>
				<port id="1">
					<dim>384</dim>
				</port>
			</output>
			<blobs>
				<custom offset="872796" size="1536"/>
			</blobs>
		</layer>
		<layer id="422" name="1340213406_const" precision="FP32" type="Const">
			<output>
				<port id="1">
					<dim>384</dim>
				</port>
			</output>
			<blobs>
				<custom offset="874332" size="1536"/>
			</blobs>
		</layer>
		<layer id="423" name="1340313407_const" precision="FP32" type="Const">
			<output>
				<port id="1">
					<dim>384</dim>
				</port>
			</output>
			<blobs>
				<custom offset="872796" size="1536"/>
			</blobs>
		</layer>
		<layer id="424" name="1340413408_const" precision="FP32" type="Const">
			<output>
				<port id="1">
					<dim>384</dim>
				</port>
			</output>
			<blobs>
				<custom offset="874332" size="1536"/>
			</blobs>
		</layer>
		<layer id="425" name="395/fq_weights_1" precision="FP32" type="FakeQuantize">
			<data levels="255"/>
			<input>
				<port id="0">
					<dim>384</dim>
					<dim>1</dim>
					<dim>3</dim>
					<dim>3</dim>
				</port>
				<port id="1">
					<dim>384</dim>
				</port>
				<port id="2">
					<dim>384</dim>
				</port>
				<port id="3">
					<dim>384</dim>
				</port>
				<port id="4">
					<dim>384</dim>
				</port>
			</input>
			<output>
				<port id="5">
					<dim>384</dim>
					<dim>1</dim>
					<dim>3</dim>
					<dim>3</dim>
				</port>
			</output>
		</layer>
		<layer id="426" name="bias_data81278128_const" precision="FP32" type="Const">
			<output>
				<port id="1">
					<dim>384</dim>
				</port>
			</output>
			<blobs>
				<custom offset="875868" size="1536"/>
			</blobs>
		</layer>
		<layer id="427" name="395" precision="FP32" type="Convolution">
			<data dilations="1,1" group="384" kernel="3,3" output="384" pads_begin="1,1" pads_end="1,1" strides="1,1"/>
			<input>
				<port id="0">
					<dim>1</dim>
					<dim>384</dim>
					<dim>14</dim>
					<dim>14</dim>
				</port>
				<port id="1">
					<dim>384</dim>
					<dim>1</dim>
					<dim>3</dim>
					<dim>3</dim>
				</port>
				<port id="2">
					<dim>384</dim>
				</port>
			</input>
			<output>
				<port id="3">
					<dim>1</dim>
					<dim>384</dim>
					<dim>14</dim>
					<dim>14</dim>
				</port>
			</output>
		</layer>
		<layer id="428" name="397" precision="FP32" type="Clamp">
			<data max="6.0" min="0.0"/>
			<input>
				<port id="0">
					<dim>1</dim>
					<dim>384</dim>
					<dim>14</dim>
					<dim>14</dim>
				</port>
			</input>
			<output>
				<port id="1">
					<dim>1</dim>
					<dim>384</dim>
					<dim>14</dim>
					<dim>14</dim>
				</port>
			</output>
		</layer>
		<layer id="429" name="1337113375_const" precision="FP32" type="Const">
			<output>
				<port id="1"/>
			</output>
			<blobs>
				<custom offset="3872" size="4"/>
			</blobs>
		</layer>
		<layer id="430" name="1337213376_const" precision="FP32" type="Const">
			<output>
				<port id="1"/>
			</output>
			<blobs>
				<custom offset="877404" size="4"/>
			</blobs>
		</layer>
		<layer id="431" name="1337313377_const" precision="FP32" type="Const">
			<output>
				<port id="1"/>
			</output>
			<blobs>
				<custom offset="3872" size="4"/>
			</blobs>
		</layer>
		<layer id="432" name="1337413378_const" precision="FP32" type="Const">
			<output>
				<port id="1"/>
			</output>
			<blobs>
				<custom offset="877404" size="4"/>
			</blobs>
		</layer>
		<layer id="433" name="398/fq_input_0" precision="FP32" type="FakeQuantize">
			<data levels="256.0"/>
			<input>
				<port id="0">
					<dim>1</dim>
					<dim>384</dim>
					<dim>14</dim>
					<dim>14</dim>
				</port>
				<port id="1"/>
				<port id="2"/>
				<port id="3"/>
				<port id="4"/>
			</input>
			<output>
				<port id="5">
					<dim>1</dim>
					<dim>384</dim>
					<dim>14</dim>
					<dim>14</dim>
				</port>
			</output>
		</layer>
		<layer id="434" name="Mul1_6184/Fused_Mul_81308132_const" precision="FP32" type="Const">
			<output>
				<port id="1">
					<dim>64</dim>
					<dim>384</dim>
					<dim>1</dim>
					<dim>1</dim>
				</port>
			</output>
			<blobs>
				<custom offset="877408" size="98304"/>
			</blobs>
		</layer>
		<layer id="435" name="1338113385_const" precision="FP32" type="Const">
			<output>
				<port id="1">
					<dim>64</dim>
				</port>
			</output>
			<blobs>
				<custom offset="975712" size="256"/>
			</blobs>
		</layer>
		<layer id="436" name="1338213386_const" precision="FP32" type="Const">
			<output>
				<port id="1">
					<dim>64</dim>
				</port>
			</output>
			<blobs>
				<custom offset="975968" size="256"/>
			</blobs>
		</layer>
		<layer id="437" name="1338313387_const" precision="FP32" type="Const">
			<output>
				<port id="1">
					<dim>64</dim>
				</port>
			</output>
			<blobs>
				<custom offset="975712" size="256"/>
			</blobs>
		</layer>
		<layer id="438" name="1338413388_const" precision="FP32" type="Const">
			<output>
				<port id="1">
					<dim>64</dim>
				</port>
			</output>
			<blobs>
				<custom offset="975968" size="256"/>
			</blobs>
		</layer>
		<layer id="439" name="398/fq_weights_1" precision="FP32" type="FakeQuantize">
			<data levels="255"/>
			<input>
				<port id="0">
					<dim>64</dim>
					<dim>384</dim>
					<dim>1</dim>
					<dim>1</dim>
				</port>
				<port id="1">
					<dim>64</dim>
				</port>
				<port id="2">
					<dim>64</dim>
				</port>
				<port id="3">
					<dim>64</dim>
				</port>
				<port id="4">
					<dim>64</dim>
				</port>
			</input>
			<output>
				<port id="5">
					<dim>64</dim>
					<dim>384</dim>
					<dim>1</dim>
					<dim>1</dim>
				</port>
			</output>
		</layer>
		<layer id="440" name="bias_data81338134_const" precision="FP32" type="Const">
			<output>
				<port id="1">
					<dim>64</dim>
				</port>
			</output>
			<blobs>
				<custom offset="976224" size="256"/>
			</blobs>
		</layer>
		<layer id="441" name="398" precision="FP32" type="Convolution">
			<data dilations="1,1" group="1" kernel="1,1" output="64" pads_begin="0,0" pads_end="0,0" strides="1,1"/>
			<input>
				<port id="0">
					<dim>1</dim>
					<dim>384</dim>
					<dim>14</dim>
					<dim>14</dim>
				</port>
				<port id="1">
					<dim>64</dim>
					<dim>384</dim>
					<dim>1</dim>
					<dim>1</dim>
				</port>
				<port id="2">
					<dim>64</dim>
				</port>
			</input>
			<output>
				<port id="3">
					<dim>1</dim>
					<dim>64</dim>
					<dim>14</dim>
					<dim>14</dim>
				</port>
			</output>
		</layer>
		<layer id="442" name="1280112805_const" precision="FP32" type="Const">
			<output>
				<port id="1"/>
			</output>
			<blobs>
				<custom offset="976480" size="4"/>
			</blobs>
		</layer>
		<layer id="443" name="1280212806_const" precision="FP32" type="Const">
			<output>
				<port id="1"/>
			</output>
			<blobs>
				<custom offset="976484" size="4"/>
			</blobs>
		</layer>
		<layer id="444" name="1280312807_const" precision="FP32" type="Const">
			<output>
				<port id="1"/>
			</output>
			<blobs>
				<custom offset="976480" size="4"/>
			</blobs>
		</layer>
		<layer id="445" name="1280412808_const" precision="FP32" type="Const">
			<output>
				<port id="1"/>
			</output>
			<blobs>
				<custom offset="976484" size="4"/>
			</blobs>
		</layer>
		<layer id="446" name="400/fq_input_1" precision="FP32" type="FakeQuantize">
			<data levels="256.0"/>
			<input>
				<port id="0">
					<dim>1</dim>
					<dim>64</dim>
					<dim>14</dim>
					<dim>14</dim>
				</port>
				<port id="1"/>
				<port id="2"/>
				<port id="3"/>
				<port id="4"/>
			</input>
			<output>
				<port id="5">
					<dim>1</dim>
					<dim>64</dim>
					<dim>14</dim>
					<dim>14</dim>
				</port>
			</output>
		</layer>
		<layer id="447" name="400" precision="FP32" type="Eltwise">
			<data operation="sum"/>
			<input>
				<port id="0">
					<dim>1</dim>
					<dim>64</dim>
					<dim>14</dim>
					<dim>14</dim>
				</port>
				<port id="1">
					<dim>1</dim>
					<dim>64</dim>
					<dim>14</dim>
					<dim>14</dim>
				</port>
			</input>
			<output>
				<port id="2">
					<dim>1</dim>
					<dim>64</dim>
					<dim>14</dim>
					<dim>14</dim>
				</port>
			</output>
		</layer>
		<layer id="448" name="1341113415_const" precision="FP32" type="Const">
			<output>
				<port id="1"/>
			</output>
			<blobs>
				<custom offset="976488" size="4"/>
			</blobs>
		</layer>
		<layer id="449" name="1341213416_const" precision="FP32" type="Const">
			<output>
				<port id="1"/>
			</output>
			<blobs>
				<custom offset="976492" size="4"/>
			</blobs>
		</layer>
		<layer id="450" name="1341313417_const" precision="FP32" type="Const">
			<output>
				<port id="1"/>
			</output>
			<blobs>
				<custom offset="976488" size="4"/>
			</blobs>
		</layer>
		<layer id="451" name="1341413418_const" precision="FP32" type="Const">
			<output>
				<port id="1"/>
			</output>
			<blobs>
				<custom offset="976492" size="4"/>
			</blobs>
		</layer>
		<layer id="452" name="401/fq_input_0" precision="FP32" type="FakeQuantize">
			<data levels="256.0"/>
			<input>
				<port id="0">
					<dim>1</dim>
					<dim>64</dim>
					<dim>14</dim>
					<dim>14</dim>
				</port>
				<port id="1"/>
				<port id="2"/>
				<port id="3"/>
				<port id="4"/>
			</input>
			<output>
				<port id="5">
					<dim>1</dim>
					<dim>64</dim>
					<dim>14</dim>
					<dim>14</dim>
				</port>
			</output>
		</layer>
		<layer id="453" name="Mul1_6076/Fused_Mul_81368138_const" precision="FP32" type="Const">
			<output>
				<port id="1">
					<dim>384</dim>
					<dim>64</dim>
					<dim>1</dim>
					<dim>1</dim>
				</port>
			</output>
			<blobs>
				<custom offset="976496" size="98304"/>
			</blobs>
		</layer>
		<layer id="454" name="1342113425_const" precision="FP32" type="Const">
			<output>
				<port id="1">
					<dim>384</dim>
				</port>
			</output>
			<blobs>
				<custom offset="1074800" size="1536"/>
			</blobs>
		</layer>
		<layer id="455" name="1342213426_const" precision="FP32" type="Const">
			<output>
				<port id="1">
					<dim>384</dim>
				</port>
			</output>
			<blobs>
				<custom offset="1076336" size="1536"/>
			</blobs>
		</layer>
		<layer id="456" name="1342313427_const" precision="FP32" type="Const">
			<output>
				<port id="1">
					<dim>384</dim>
				</port>
			</output>
			<blobs>
				<custom offset="1074800" size="1536"/>
			</blobs>
		</layer>
		<layer id="457" name="1342413428_const" precision="FP32" type="Const">
			<output>
				<port id="1">
					<dim>384</dim>
				</port>
			</output>
			<blobs>
				<custom offset="1076336" size="1536"/>
			</blobs>
		</layer>
		<layer id="458" name="401/fq_weights_1" precision="FP32" type="FakeQuantize">
			<data levels="255"/>
			<input>
				<port id="0">
					<dim>384</dim>
					<dim>64</dim>
					<dim>1</dim>
					<dim>1</dim>
				</port>
				<port id="1">
					<dim>384</dim>
				</port>
				<port id="2">
					<dim>384</dim>
				</port>
				<port id="3">
					<dim>384</dim>
				</port>
				<port id="4">
					<dim>384</dim>
				</port>
			</input>
			<output>
				<port id="5">
					<dim>384</dim>
					<dim>64</dim>
					<dim>1</dim>
					<dim>1</dim>
				</port>
			</output>
		</layer>
		<layer id="459" name="bias_data81398140_const" precision="FP32" type="Const">
			<output>
				<port id="1">
					<dim>384</dim>
				</port>
			</output>
			<blobs>
				<custom offset="1077872" size="1536"/>
			</blobs>
		</layer>
		<layer id="460" name="401" precision="FP32" type="Convolution">
			<data dilations="1,1" group="1" kernel="1,1" output="384" pads_begin="0,0" pads_end="0,0" strides="1,1"/>
			<input>
				<port id="0">
					<dim>1</dim>
					<dim>64</dim>
					<dim>14</dim>
					<dim>14</dim>
				</port>
				<port id="1">
					<dim>384</dim>
					<dim>64</dim>
					<dim>1</dim>
					<dim>1</dim>
				</port>
				<port id="2">
					<dim>384</dim>
				</port>
			</input>
			<output>
				<port id="3">
					<dim>1</dim>
					<dim>384</dim>
					<dim>14</dim>
					<dim>14</dim>
				</port>
			</output>
		</layer>
		<layer id="461" name="403" precision="FP32" type="Clamp">
			<data max="6.0" min="0.0"/>
			<input>
				<port id="0">
					<dim>1</dim>
					<dim>384</dim>
					<dim>14</dim>
					<dim>14</dim>
				</port>
			</input>
			<output>
				<port id="1">
					<dim>1</dim>
					<dim>384</dim>
					<dim>14</dim>
					<dim>14</dim>
				</port>
			</output>
		</layer>
		<layer id="462" name="1230112305_const" precision="FP32" type="Const">
			<output>
				<port id="1"/>
			</output>
			<blobs>
				<custom offset="3872" size="4"/>
			</blobs>
		</layer>
		<layer id="463" name="1230212306_const" precision="FP32" type="Const">
			<output>
				<port id="1"/>
			</output>
			<blobs>
				<custom offset="1079408" size="4"/>
			</blobs>
		</layer>
		<layer id="464" name="1230312307_const" precision="FP32" type="Const">
			<output>
				<port id="1"/>
			</output>
			<blobs>
				<custom offset="3872" size="4"/>
			</blobs>
		</layer>
		<layer id="465" name="1230412308_const" precision="FP32" type="Const">
			<output>
				<port id="1"/>
			</output>
			<blobs>
				<custom offset="1079408" size="4"/>
			</blobs>
		</layer>
		<layer id="466" name="404/fq_input_0" precision="FP32" type="FakeQuantize">
			<data levels="256.0"/>
			<input>
				<port id="0">
					<dim>1</dim>
					<dim>384</dim>
					<dim>14</dim>
					<dim>14</dim>
				</port>
				<port id="1"/>
				<port id="2"/>
				<port id="3"/>
				<port id="4"/>
			</input>
			<output>
				<port id="5">
					<dim>1</dim>
					<dim>384</dim>
					<dim>14</dim>
					<dim>14</dim>
				</port>
			</output>
		</layer>
		<layer id="467" name="Mul1_6052/Fused_Mul_81428144_const" precision="FP32" type="Const">
			<output>
				<port id="1">
					<dim>384</dim>
					<dim>1</dim>
					<dim>3</dim>
					<dim>3</dim>
				</port>
			</output>
			<blobs>
				<custom offset="1079412" size="13824"/>
			</blobs>
		</layer>
		<layer id="468" name="1231112315_const" precision="FP32" type="Const">
			<output>
				<port id="1">
					<dim>384</dim>
				</port>
			</output>
			<blobs>
				<custom offset="1093236" size="1536"/>
			</blobs>
		</layer>
		<layer id="469" name="1231212316_const" precision="FP32" type="Const">
			<output>
				<port id="1">
					<dim>384</dim>
				</port>
			</output>
			<blobs>
				<custom offset="1094772" size="1536"/>
			</blobs>
		</layer>
		<layer id="470" name="1231312317_const" precision="FP32" type="Const">
			<output>
				<port id="1">
					<dim>384</dim>
				</port>
			</output>
			<blobs>
				<custom offset="1093236" size="1536"/>
			</blobs>
		</layer>
		<layer id="471" name="1231412318_const" precision="FP32" type="Const">
			<output>
				<port id="1">
					<dim>384</dim>
				</port>
			</output>
			<blobs>
				<custom offset="1094772" size="1536"/>
			</blobs>
		</layer>
		<layer id="472" name="404/fq_weights_1" precision="FP32" type="FakeQuantize">
			<data levels="255"/>
			<input>
				<port id="0">
					<dim>384</dim>
					<dim>1</dim>
					<dim>3</dim>
					<dim>3</dim>
				</port>
				<port id="1">
					<dim>384</dim>
				</port>
				<port id="2">
					<dim>384</dim>
				</port>
				<port id="3">
					<dim>384</dim>
				</port>
				<port id="4">
					<dim>384</dim>
				</port>
			</input>
			<output>
				<port id="5">
					<dim>384</dim>
					<dim>1</dim>
					<dim>3</dim>
					<dim>3</dim>
				</port>
			</output>
		</layer>
		<layer id="473" name="bias_data81458146_const" precision="FP32" type="Const">
			<output>
				<port id="1">
					<dim>384</dim>
				</port>
			</output>
			<blobs>
				<custom offset="1096308" size="1536"/>
			</blobs>
		</layer>
		<layer id="474" name="404" precision="FP32" type="Convolution">
			<data dilations="1,1" group="384" kernel="3,3" output="384" pads_begin="1,1" pads_end="1,1" strides="1,1"/>
			<input>
				<port id="0">
					<dim>1</dim>
					<dim>384</dim>
					<dim>14</dim>
					<dim>14</dim>
				</port>
				<port id="1">
					<dim>384</dim>
					<dim>1</dim>
					<dim>3</dim>
					<dim>3</dim>
				</port>
				<port id="2">
					<dim>384</dim>
				</port>
			</input>
			<output>
				<port id="3">
					<dim>1</dim>
					<dim>384</dim>
					<dim>14</dim>
					<dim>14</dim>
				</port>
			</output>
		</layer>
		<layer id="475" name="406" precision="FP32" type="Clamp">
			<data max="6.0" min="0.0"/>
			<input>
				<port id="0">
					<dim>1</dim>
					<dim>384</dim>
					<dim>14</dim>
					<dim>14</dim>
				</port>
			</input>
			<output>
				<port id="1">
					<dim>1</dim>
					<dim>384</dim>
					<dim>14</dim>
					<dim>14</dim>
				</port>
			</output>
		</layer>
		<layer id="476" name="1259112595_const" precision="FP32" type="Const">
			<output>
				<port id="1"/>
			</output>
			<blobs>
				<custom offset="3872" size="4"/>
			</blobs>
		</layer>
		<layer id="477" name="1259212596_const" precision="FP32" type="Const">
			<output>
				<port id="1"/>
			</output>
			<blobs>
				<custom offset="1097844" size="4"/>
			</blobs>
		</layer>
		<layer id="478" name="1259312597_const" precision="FP32" type="Const">
			<output>
				<port id="1"/>
			</output>
			<blobs>
				<custom offset="3872" size="4"/>
			</blobs>
		</layer>
		<layer id="479" name="1259412598_const" precision="FP32" type="Const">
			<output>
				<port id="1"/>
			</output>
			<blobs>
				<custom offset="1097844" size="4"/>
			</blobs>
		</layer>
		<layer id="480" name="407/fq_input_0" precision="FP32" type="FakeQuantize">
			<data levels="256.0"/>
			<input>
				<port id="0">
					<dim>1</dim>
					<dim>384</dim>
					<dim>14</dim>
					<dim>14</dim>
				</port>
				<port id="1"/>
				<port id="2"/>
				<port id="3"/>
				<port id="4"/>
			</input>
			<output>
				<port id="5">
					<dim>1</dim>
					<dim>384</dim>
					<dim>14</dim>
					<dim>14</dim>
				</port>
			</output>
		</layer>
		<layer id="481" name="Mul1_6088/Fused_Mul_81488150_const" precision="FP32" type="Const">
			<output>
				<port id="1">
					<dim>96</dim>
					<dim>384</dim>
					<dim>1</dim>
					<dim>1</dim>
				</port>
			</output>
			<blobs>
				<custom offset="1097848" size="147456"/>
			</blobs>
		</layer>
		<layer id="482" name="1260112605_const" precision="FP32" type="Const">
			<output>
				<port id="1">
					<dim>96</dim>
				</port>
			</output>
			<blobs>
				<custom offset="1245304" size="384"/>
			</blobs>
		</layer>
		<layer id="483" name="1260212606_const" precision="FP32" type="Const">
			<output>
				<port id="1">
					<dim>96</dim>
				</port>
			</output>
			<blobs>
				<custom offset="1245688" size="384"/>
			</blobs>
		</layer>
		<layer id="484" name="1260312607_const" precision="FP32" type="Const">
			<output>
				<port id="1">
					<dim>96</dim>
				</port>
			</output>
			<blobs>
				<custom offset="1245304" size="384"/>
			</blobs>
		</layer>
		<layer id="485" name="1260412608_const" precision="FP32" type="Const">
			<output>
				<port id="1">
					<dim>96</dim>
				</port>
			</output>
			<blobs>
				<custom offset="1245688" size="384"/>
			</blobs>
		</layer>
		<layer id="486" name="407/fq_weights_1" precision="FP32" type="FakeQuantize">
			<data levels="255"/>
			<input>
				<port id="0">
					<dim>96</dim>
					<dim>384</dim>
					<dim>1</dim>
					<dim>1</dim>
				</port>
				<port id="1">
					<dim>96</dim>
				</port>
				<port id="2">
					<dim>96</dim>
				</port>
				<port id="3">
					<dim>96</dim>
				</port>
				<port id="4">
					<dim>96</dim>
				</port>
			</input>
			<output>
				<port id="5">
					<dim>96</dim>
					<dim>384</dim>
					<dim>1</dim>
					<dim>1</dim>
				</port>
			</output>
		</layer>
		<layer id="487" name="bias_data81518152_const" precision="FP32" type="Const">
			<output>
				<port id="1">
					<dim>96</dim>
				</port>
			</output>
			<blobs>
				<custom offset="1246072" size="384"/>
			</blobs>
		</layer>
		<layer id="488" name="407" precision="FP32" type="Convolution">
			<data dilations="1,1" group="1" kernel="1,1" output="96" pads_begin="0,0" pads_end="0,0" strides="1,1"/>
			<input>
				<port id="0">
					<dim>1</dim>
					<dim>384</dim>
					<dim>14</dim>
					<dim>14</dim>
				</port>
				<port id="1">
					<dim>96</dim>
					<dim>384</dim>
					<dim>1</dim>
					<dim>1</dim>
				</port>
				<port id="2">
					<dim>96</dim>
				</port>
			</input>
			<output>
				<port id="3">
					<dim>1</dim>
					<dim>96</dim>
					<dim>14</dim>
					<dim>14</dim>
				</port>
			</output>
		</layer>
		<layer id="489" name="1304113045_const" precision="FP32" type="Const">
			<output>
				<port id="1"/>
			</output>
			<blobs>
				<custom offset="1246456" size="4"/>
			</blobs>
		</layer>
		<layer id="490" name="1304213046_const" precision="FP32" type="Const">
			<output>
				<port id="1"/>
			</output>
			<blobs>
				<custom offset="1246460" size="4"/>
			</blobs>
		</layer>
		<layer id="491" name="1304313047_const" precision="FP32" type="Const">
			<output>
				<port id="1"/>
			</output>
			<blobs>
				<custom offset="1246456" size="4"/>
			</blobs>
		</layer>
		<layer id="492" name="1304413048_const" precision="FP32" type="Const">
			<output>
				<port id="1"/>
			</output>
			<blobs>
				<custom offset="1246460" size="4"/>
			</blobs>
		</layer>
		<layer id="493" name="417/fq_input_0" precision="FP32" type="FakeQuantize">
			<data levels="256.0"/>
			<input>
				<port id="0">
					<dim>1</dim>
					<dim>96</dim>
					<dim>14</dim>
					<dim>14</dim>
				</port>
				<port id="1"/>
				<port id="2"/>
				<port id="3"/>
				<port id="4"/>
			</input>
			<output>
				<port id="5">
					<dim>1</dim>
					<dim>96</dim>
					<dim>14</dim>
					<dim>14</dim>
				</port>
			</output>
		</layer>
		<layer id="494" name="Mul1_6496/Fused_Mul_81548156_const" precision="FP32" type="Const">
			<output>
				<port id="1">
					<dim>576</dim>
					<dim>96</dim>
					<dim>1</dim>
					<dim>1</dim>
				</port>
			</output>
			<blobs>
				<custom offset="1246464" size="221184"/>
			</blobs>
		</layer>
		<layer id="495" name="1309113095_const" precision="FP32" type="Const">
			<output>
				<port id="1">
					<dim>576</dim>
				</port>
			</output>
			<blobs>
				<custom offset="1467648" size="2304"/>
			</blobs>
		</layer>
		<layer id="496" name="1309213096_const" precision="FP32" type="Const">
			<output>
				<port id="1">
					<dim>576</dim>
				</port>
			</output>
			<blobs>
				<custom offset="1469952" size="2304"/>
			</blobs>
		</layer>
		<layer id="497" name="1309313097_const" precision="FP32" type="Const">
			<output>
				<port id="1">
					<dim>576</dim>
				</port>
			</output>
			<blobs>
				<custom offset="1467648" size="2304"/>
			</blobs>
		</layer>
		<layer id="498" name="1309413098_const" precision="FP32" type="Const">
			<output>
				<port id="1">
					<dim>576</dim>
				</port>
			</output>
			<blobs>
				<custom offset="1469952" size="2304"/>
			</blobs>
		</layer>
		<layer id="499" name="409/fq_weights_1" precision="FP32" type="FakeQuantize">
			<data levels="255"/>
			<input>
				<port id="0">
					<dim>576</dim>
					<dim>96</dim>
					<dim>1</dim>
					<dim>1</dim>
				</port>
				<port id="1">
					<dim>576</dim>
				</port>
				<port id="2">
					<dim>576</dim>
				</port>
				<port id="3">
					<dim>576</dim>
				</port>
				<port id="4">
					<dim>576</dim>
				</port>
			</input>
			<output>
				<port id="5">
					<dim>576</dim>
					<dim>96</dim>
					<dim>1</dim>
					<dim>1</dim>
				</port>
			</output>
		</layer>
		<layer id="500" name="bias_data81578158_const" precision="FP32" type="Const">
			<output>
				<port id="1">
					<dim>576</dim>
				</port>
			</output>
			<blobs>
				<custom offset="1472256" size="2304"/>
			</blobs>
		</layer>
		<layer id="501" name="409" precision="FP32" type="Convolution">
			<data dilations="1,1" group="1" kernel="1,1" output="576" pads_begin="0,0" pads_end="0,0" strides="1,1"/>
			<input>
				<port id="0">
					<dim>1</dim>
					<dim>96</dim>
					<dim>14</dim>
					<dim>14</dim>
				</port>
				<port id="1">
					<dim>576</dim>
					<dim>96</dim>
					<dim>1</dim>
					<dim>1</dim>
				</port>
				<port id="2">
					<dim>576</dim>
				</port>
			</input>
			<output>
				<port id="3">
					<dim>1</dim>
					<dim>576</dim>
					<dim>14</dim>
					<dim>14</dim>
				</port>
			</output>
		</layer>
		<layer id="502" name="411" precision="FP32" type="Clamp">
			<data max="6.0" min="0.0"/>
			<input>
				<port id="0">
					<dim>1</dim>
					<dim>576</dim>
					<dim>14</dim>
					<dim>14</dim>
				</port>
			</input>
			<output>
				<port id="1">
					<dim>1</dim>
					<dim>576</dim>
					<dim>14</dim>
					<dim>14</dim>
				</port>
			</output>
		</layer>
		<layer id="503" name="1284112845_const" precision="FP32" type="Const">
			<output>
				<port id="1"/>
			</output>
			<blobs>
				<custom offset="3872" size="4"/>
			</blobs>
		</layer>
		<layer id="504" name="1284212846_const" precision="FP32" type="Const">
			<output>
				<port id="1"/>
			</output>
			<blobs>
				<custom offset="1474560" size="4"/>
			</blobs>
		</layer>
		<layer id="505" name="1284312847_const" precision="FP32" type="Const">
			<output>
				<port id="1"/>
			</output>
			<blobs>
				<custom offset="3872" size="4"/>
			</blobs>
		</layer>
		<layer id="506" name="1284412848_const" precision="FP32" type="Const">
			<output>
				<port id="1"/>
			</output>
			<blobs>
				<custom offset="1474560" size="4"/>
			</blobs>
		</layer>
		<layer id="507" name="412/fq_input_0" precision="FP32" type="FakeQuantize">
			<data levels="256.0"/>
			<input>
				<port id="0">
					<dim>1</dim>
					<dim>576</dim>
					<dim>14</dim>
					<dim>14</dim>
				</port>
				<port id="1"/>
				<port id="2"/>
				<port id="3"/>
				<port id="4"/>
			</input>
			<output>
				<port id="5">
					<dim>1</dim>
					<dim>576</dim>
					<dim>14</dim>
					<dim>14</dim>
				</port>
			</output>
		</layer>
		<layer id="508" name="Mul1_6460/Fused_Mul_81608162_const" precision="FP32" type="Const">
			<output>
				<port id="1">
					<dim>576</dim>
					<dim>1</dim>
					<dim>3</dim>
					<dim>3</dim>
				</port>
			</output>
			<blobs>
				<custom offset="1474564" size="20736"/>
			</blobs>
		</layer>
		<layer id="509" name="1285112855_const" precision="FP32" type="Const">
			<output>
				<port id="1">
					<dim>576</dim>
				</port>
			</output>
			<blobs>
				<custom offset="1495300" size="2304"/>
			</blobs>
		</layer>
		<layer id="510" name="1285212856_const" precision="FP32" type="Const">
			<output>
				<port id="1">
					<dim>576</dim>
				</port>
			</output>
			<blobs>
				<custom offset="1497604" size="2304"/>
			</blobs>
		</layer>
		<layer id="511" name="1285312857_const" precision="FP32" type="Const">
…
		<edge from-layer="81" from-port="5" to-layer="83" to-port="1"/>
		<edge from-layer="82" from-port="1" to-layer="83" to-port="2"/>
		<edge from-layer="83" from-port="3" to-layer="88" to-port="0"/>
		<edge from-layer="84" from-port="1" to-layer="88" to-port="1"/>
		<edge from-layer="85" from-port="1" to-layer="88" to-port="2"/>
		<edge from-layer="86" from-port="1" to-layer="88" to-port="3"/>
		<edge from-layer="87" from-port="1" to-layer="88" to-port="4"/>
		<edge from-layer="89" from-port="1" to-layer="94" to-port="0"/>
		<edge from-layer="90" from-port="1" to-layer="94" to-port="1"/>
		<edge from-layer="91" from-port="1" to-layer="94" to-port="2"/>
		<edge from-layer="92" from-port="1" to-layer="94" to-port="3"/>
		<edge from-layer="93" from-port="1" to-layer="94" to-port="4"/>
		<edge from-layer="88" from-port="5" to-layer="96" to-port="0"/>
		<edge from-layer="94" from-port="5" to-layer="96" to-port="1"/>
		<edge from-layer="95" from-port="1" to-layer="96" to-port="2"/>
		<edge from-layer="96" from-port="3" to-layer="97" to-port="0"/>
		<edge from-layer="97" from-port="1" to-layer="102" to-port="0"/>
		<edge from-layer="98" from-port="1" to-layer="102" to-port="1"/>
		<edge from-layer="99" from-port="1" to-layer="102" to-port="2"/>
		<edge from-layer="100" from-port="1" to-layer="102" to-port="3"/>
		<edge from-layer="101" from-port="1" to-layer="102" to-port="4"/>
		<edge from-layer="103" from-port="1" to-layer="108" to-port="0"/>
		<edge from-layer="104" from-port="1" to-layer="108" to-port="1"/>
		<edge from-layer="105" from-port="1" to-layer="108" to-port="2"/>
		<edge from-layer="106" from-port="1" to-layer="108" to-port="3"/>
		<edge from-layer="107" from-port="1" to-layer="108" to-port="4"/>
		<edge from-layer="102" from-port="5" to-layer="110" to-port="0"/>
		<edge from-layer="108" from-port="5" to-layer="110" to-port="1"/>
		<edge from-layer="109" from-port="1" to-layer="110" to-port="2"/>
		<edge from-layer="110" from-port="3" to-layer="111" to-port="0"/>
		<edge from-layer="111" from-port="1" to-layer="116" to-port="0"/>
		<edge from-layer="112" from-port="1" to-layer="116" to-port="1"/>
		<edge from-layer="113" from-port="1" to-layer="116" to-port="2"/>
		<edge from-layer="114" from-port="1" to-layer="116" to-port="3"/>
		<edge from-layer="115" from-port="1" to-layer="116" to-port="4"/>
		<edge from-layer="117" from-port="1" to-layer="122" to-port="0"/>
		<edge from-layer="118" from-port="1" to-layer="122" to-port="1"/>
		<edge from-layer="119" from-port="1" to-layer="122" to-port="2"/>
		<edge from-layer="120" from-port="1" to-layer="122" to-port="3"/>
		<edge from-layer="121" from-port="1" to-layer="122" to-port="4"/>
		<edge from-layer="116" from-port="5" to-layer="124" to-port="0"/>
		<edge from-layer="122" from-port="5" to-layer="124" to-port="1"/>
		<edge from-layer="123" from-port="1" to-layer="124" to-port="2"/>
		<edge from-layer="124" from-port="3" to-layer="129" to-port="0"/>
		<edge from-layer="125" from-port="1" to-layer="129" to-port="1"/>
		<edge from-layer="126" from-port="1" to-layer="129" to-port="2"/>
		<edge from-layer="127" from-port="1" to-layer="129" to-port="3"/>
		<edge from-layer="128" from-port="1" to-layer="129" to-port="4"/>
		<edge from-layer="88" from-port="5" to-layer="130" to-port="0"/>
		<edge from-layer="129" from-port="5" to-layer="130" to-port="1"/>
		<edge from-layer="130" from-port="2" to-layer="135" to-port="0"/>
		<edge from-layer="131" from-port="1" to-layer="135" to-port="1"/>
		<edge from-layer="132" from-port="1" to-layer="135" to-port="2"/>
		<edge from-layer="133" from-port="1" to-layer="135" to-port="3"/>
		<edge from-layer="134" from-port="1" to-layer="135" to-port="4"/>
		<edge from-layer="136" from-port="1" to-layer="141" to-port="0"/>
		<edge from-layer="137" from-port="1" to-layer="141" to-port="1"/>
		<edge from-layer="138" from-port="1" to-layer="141" to-port="2"/>
		<edge from-layer="139" from-port="1" to-layer="141" to-port="3"/>
		<edge from-layer="140" from-port="1" to-layer="141" to-port="4"/>
		<edge from-layer="135" from-port="5" to-layer="143" to-port="0"/>
		<edge from-layer="141" from-port="5" to-layer="143" to-port="1"/>
		<edge from-layer="142" from-port="1" to-layer="143" to-port="2"/>
		<edge from-layer="143" from-port="3" to-layer="144" to-port="0"/>
		<edge from-layer="144" from-port="1" to-layer="149" to-port="0"/>
		<edge from-layer="145" from-port="1" to-layer="149" to-port="1"/>
		<edge from-layer="146" from-port="1" to-layer="149" to-port="2"/>
		<edge from-layer="147" from-port="1" to-layer="149" to-port="3"/>
		<edge from-layer="148" from-port="1" to-layer="149" to-port="4"/>
		<edge from-layer="150" from-port="1" to-layer="155" to-port="0"/>
		<edge from-layer="151" from-port="1" to-layer="155" to-port="1"/>
		<edge from-layer="152" from-port="1" to-layer="155" to-port="2"/>
		<edge from-layer="153" from-port="1" to-layer="155" to-port="3"/>
		<edge from-layer="154" from-port="1" to-layer="155" to-port="4"/>
		<edge from-layer="149" from-port="5" to-layer="157" to-port="0"/>
		<edge from-layer="155" from-port="5" to-layer="157" to-port="1"/>
		<edge from-layer="156" from-port="1" to-layer="157" to-port="2"/>
		<edge from-layer="157" from-port="3" to-layer="158" to-port="0"/>
		<edge from-layer="158" from-port="1" to-layer="163" to-port="0"/>
		<edge from-layer="159" from-port="1" to-layer="163" to-port="1"/>
		<edge from-layer="160" from-port="1" to-layer="163" to-port="2"/>
		<edge from-layer="161" from-port="1" to-layer="163" to-port="3"/>
		<edge from-layer="162" from-port="1" to-layer="163" to-port="4"/>
		<edge from-layer="164" from-port="1" to-layer="169" to-port="0"/>
		<edge from-layer="165" from-port="1" to-layer="169" to-port="1"/>
		<edge from-layer="166" from-port="1" to-layer="169" to-port="2"/>
		<edge from-layer="167" from-port="1" to-layer="169" to-port="3"/>
		<edge from-layer="168" from-port="1" to-layer="169" to-port="4"/>
		<edge from-layer="163" from-port="5" to-layer="171" to-port="0"/>
		<edge from-layer="169" from-port="5" to-layer="171" to-port="1"/>
		<edge from-layer="170" from-port="1" to-layer="171" to-port="2"/>
		<edge from-layer="171" from-port="3" to-layer="176" to-port="0"/>
		<edge from-layer="172" from-port="1" to-layer="176" to-port="1"/>
		<edge from-layer="173" from-port="1" to-layer="176" to-port="2"/>
		<edge from-layer="174" from-port="1" to-layer="176" to-port="3"/>
		<edge from-layer="175" from-port="1" to-layer="176" to-port="4"/>
		<edge from-layer="177" from-port="1" to-layer="182" to-port="0"/>
		<edge from-layer="178" from-port="1" to-layer="182" to-port="1"/>
		<edge from-layer="179" from-port="1" to-layer="182" to-port="2"/>
		<edge from-layer="180" from-port="1" to-layer="182" to-port="3"/>
		<edge from-layer="181" from-port="1" to-layer="182" to-port="4"/>
		<edge from-layer="176" from-port="5" to-layer="184" to-port="0"/>
		<edge from-layer="182" from-port="5" to-layer="184" to-port="1"/>
		<edge from-layer="183" from-port="1" to-layer="184" to-port="2"/>
		<edge from-layer="184" from-port="3" to-layer="185" to-port="0"/>
		<edge from-layer="185" from-port="1" to-layer="190" to-port="0"/>
		<edge from-layer="186" from-port="1" to-layer="190" to-port="1"/>
		<edge from-layer="187" from-port="1" to-layer="190" to-port="2"/>
		<edge from-layer="188" from-port="1" to-layer="190" to-port="3"/>
		<edge from-layer="189" from-port="1" to-layer="190" to-port="4"/>
		<edge from-layer="191" from-port="1" to-layer="196" to-port="0"/>
		<edge from-layer="192" from-port="1" to-layer="196" to-port="1"/>
		<edge from-layer="193" from-port="1" to-layer="196" to-port="2"/>
		<edge from-layer="194" from-port="1" to-layer="196" to-port="3"/>
		<edge from-layer="195" from-port="1" to-layer="196" to-port="4"/>
		<edge from-layer="190" from-port="5" to-layer="198" to-port="0"/>
		<edge from-layer="196" from-port="5" to-layer="198" to-port="1"/>
		<edge from-layer="197" from-port="1" to-layer="198" to-port="2"/>
		<edge from-layer="198" from-port="3" to-layer="199" to-port="0"/>
		<edge from-layer="199" from-port="1" to-layer="204" to-port="0"/>
		<edge from-layer="200" from-port="1" to-layer="204" to-port="1"/>
		<edge from-layer="201" from-port="1" to-layer="204" to-port="2"/>
		<edge from-layer="202" from-port="1" to-layer="204" to-port="3"/>
		<edge from-layer="203" from-port="1" to-layer="204" to-port="4"/>
		<edge from-layer="205" from-port="1" to-layer="210" to-port="0"/>
		<edge from-layer="206" from-port="1" to-layer="210" to-port="1"/>
		<edge from-layer="207" from-port="1" to-layer="210" to-port="2"/>
		<edge from-layer="208" from-port="1" to-layer="210" to-port="3"/>
		<edge from-layer="209" from-port="1" to-layer="210" to-port="4"/>
		<edge from-layer="204" from-port="5" to-layer="212" to-port="0"/>
		<edge from-layer="210" from-port="5" to-layer="212" to-port="1"/>
		<edge from-layer="211" from-port="1" to-layer="212" to-port="2"/>
		<edge from-layer="212" from-port="3" to-layer="217" to-port="0"/>
		<edge from-layer="213" from-port="1" to-layer="217" to-port="1"/>
		<edge from-layer="214" from-port="1" to-layer="217" to-port="2"/>
		<edge from-layer="215" from-port="1" to-layer="217" to-port="3"/>
		<edge from-layer="216" from-port="1" to-layer="217" to-port="4"/>
		<edge from-layer="176" from-port="5" to-layer="218" to-port="0"/>
		<edge from-layer="217" from-port="5" to-layer="218" to-port="1"/>
		<edge from-layer="218" from-port="2" to-layer="223" to-port="0"/>
		<edge from-layer="219" from-port="1" to-layer="223" to-port="1"/>
		<edge from-layer="220" from-port="1" to-layer="223" to-port="2"/>
		<edge from-layer="221" from-port="1" to-layer="223" to-port="3"/>
		<edge from-layer="222" from-port="1" to-layer="223" to-port="4"/>
		<edge from-layer="224" from-port="1" to-layer="229" to-port="0"/>
		<edge from-layer="225" from-port="1" to-layer="229" to-port="1"/>
		<edge from-layer="226" from-port="1" to-layer="229" to-port="2"/>
		<edge from-layer="227" from-port="1" to-layer="229" to-port="3"/>
		<edge from-layer="228" from-port="1" to-layer="229" to-port="4"/>
		<edge from-layer="223" from-port="5" to-layer="231" to-port="0"/>
		<edge from-layer="229" from-port="5" to-layer="231" to-port="1"/>
		<edge from-layer="230" from-port="1" to-layer="231" to-port="2"/>
		<edge from-layer="231" from-port="3" to-layer="232" to-port="0"/>
		<edge from-layer="232" from-port="1" to-layer="237" to-port="0"/>
		<edge from-layer="233" from-port="1" to-layer="237" to-port="1"/>
		<edge from-layer="234" from-port="1" to-layer="237" to-port="2"/>
		<edge from-layer="235" from-port="1" to-layer="237" to-port="3"/>
		<edge from-layer="236" from-port="1" to-layer="237" to-port="4"/>
		<edge from-layer="238" from-port="1" to-layer="243" to-port="0"/>
		<edge from-layer="239" from-port="1" to-layer="243" to-port="1"/>
		<edge from-layer="240" from-port="1" to-layer="243" to-port="2"/>
		<edge from-layer="241" from-port="1" to-layer="243" to-port="3"/>
		<edge from-layer="242" from-port="1" to-layer="243" to-port="4"/>
		<edge from-layer="237" from-port="5" to-layer="245" to-port="0"/>
		<edge from-layer="243" from-port="5" to-layer="245" to-port="1"/>
		<edge from-layer="244" from-port="1" to-layer="245" to-port="2"/>
		<edge from-layer="245" from-port="3" to-layer="246" to-port="0"/>
		<edge from-layer="246" from-port="1" to-layer="251" to-port="0"/>
		<edge from-layer="247" from-port="1" to-layer="251" to-port="1"/>
		<edge from-layer="248" from-port="1" to-layer="251" to-port="2"/>
		<edge from-layer="249" from-port="1" to-layer="251" to-port="3"/>
		<edge from-layer="250" from-port="1" to-layer="251" to-port="4"/>
		<edge from-layer="252" from-port="1" to-layer="257" to-port="0"/>
		<edge from-layer="253" from-port="1" to-layer="257" to-port="1"/>
		<edge from-layer="254" from-port="1" to-layer="257" to-port="2"/>
		<edge from-layer="255" from-port="1" to-layer="257" to-port="3"/>
		<edge from-layer="256" from-port="1" to-layer="257" to-port="4"/>
		<edge from-layer="251" from-port="5" to-layer="259" to-port="0"/>
		<edge from-layer="257" from-port="5" to-layer="259" to-port="1"/>
		<edge from-layer="258" from-port="1" to-layer="259" to-port="2"/>
		<edge from-layer="259" from-port="3" to-layer="264" to-port="0"/>
		<edge from-layer="260" from-port="1" to-layer="264" to-port="1"/>
		<edge from-layer="261" from-port="1" to-layer="264" to-port="2"/>
		<edge from-layer="262" from-port="1" to-layer="264" to-port="3"/>
		<edge from-layer="263" from-port="1" to-layer="264" to-port="4"/>
		<edge from-layer="223" from-port="5" to-layer="265" to-port="0"/>
		<edge from-layer="264" from-port="5" to-layer="265" to-port="1"/>
		<edge from-layer="265" from-port="2" to-layer="270" to-port="0"/>
		<edge from-layer="266" from-port="1" to-layer="270" to-port="1"/>
		<edge from-layer="267" from-port="1" to-layer="270" to-port="2"/>
		<edge from-layer="268" from-port="1" to-layer="270" to-port="3"/>
		<edge from-layer="269" from-port="1" to-layer="270" to-port="4"/>
		<edge from-layer="271" from-port="1" to-layer="276" to-port="0"/>
		<edge from-layer="272" from-port="1" to-layer="276" to-port="1"/>
		<edge from-layer="273" from-port="1" to-layer="276" to-port="2"/>
		<edge from-layer="274" from-port="1" to-layer="276" to-port="3"/>
		<edge from-layer="275" from-port="1" to-layer="276" to-port="4"/>
		<edge from-layer="270" from-port="5" to-layer="278" to-port="0"/>
		<edge from-layer="276" from-port="5" to-layer="278" to-port="1"/>
		<edge from-layer="277" from-port="1" to-layer="278" to-port="2"/>
		<edge from-layer="278" from-port="3" to-layer="279" to-port="0"/>
		<edge from-layer="279" from-port="1" to-layer="284" to-port="0"/>
		<edge from-layer="280" from-port="1" to-layer="284" to-port="1"/>
		<edge from-layer="281" from-port="1" to-layer="284" to-port="2"/>
		<edge from-layer="282" from-port="1" to-layer="284" to-port="3"/>
		<edge from-layer="283" from-port="1" to-layer="284" to-port="4"/>
		<edge from-layer="285" from-port="1" to-layer="290" to-port="0"/>
		<edge from-layer="286" from-port="1" to-layer="290" to-port="1"/>
		<edge from-layer="287" from-port="1" to-layer="290" to-port="2"/>
		<edge from-layer="288" from-port="1" to-layer="290" to-port="3"/>
		<edge from-layer="289" from-port="1" to-layer="290" to-port="4"/>
		<edge from-layer="284" from-port="5" to-layer="292" to-port="0"/>
		<edge from-layer="290" from-port="5" to-layer="292" to-port="1"/>
		<edge from-layer="291" from-port="1" to-layer="292" to-port="2"/>
		<edge from-layer="292" from-port="3" to-layer="293" to-port="0"/>
		<edge from-layer="293" from-port="1" to-layer="298" to-port="0"/>
		<edge from-layer="294" from-port="1" to-layer="298" to-port="1"/>
		<edge from-layer="295" from-port="1" to-layer="298" to-port="2"/>
		<edge from-layer="296" from-port="1" to-layer="298" to-port="3"/>
		<edge from-layer="297" from-port="1" to-layer="298" to-port="4"/>
		<edge from-layer="299" from-port="1" to-layer="304" to-port="0"/>
		<edge from-layer="300" from-port="1" to-layer="304" to-port="1"/>
		<edge from-layer="301" from-port="1" to-layer="304" to-port="2"/>
		<edge from-layer="302" from-port="1" to-layer="304" to-port="3"/>
		<edge from-layer="303" from-port="1" to-layer="304" to-port="4"/>
		<edge from-layer="298" from-port="5" to-layer="306" to-port="0"/>
		<edge from-layer="304" from-port="5" to-layer="306" to-port="1"/>
		<edge from-layer="305" from-port="1" to-layer="306" to-port="2"/>
		<edge from-layer="306" from-port="3" to-layer="311" to-port="0"/>
		<edge from-layer="307" from-port="1" to-layer="311" to-port="1"/>
		<edge from-layer="308" from-port="1" to-layer="311" to-port="2"/>
		<edge from-layer="309" from-port="1" to-layer="311" to-port="3"/>
		<edge from-layer="310" from-port="1" to-layer="311" to-port="4"/>
		<edge from-layer="312" from-port="1" to-layer="317" to-port="0"/>
		<edge from-layer="313" from-port="1" to-layer="317" to-port="1"/>
		<edge from-layer="314" from-port="1" to-layer="317" to-port="2"/>
		<edge from-layer="315" from-port="1" to-layer="317" to-port="3"/>
		<edge from-layer="316" from-port="1" to-layer="317" to-port="4"/>
		<edge from-layer="311" from-port="5" to-layer="319" to-port="0"/>
		<edge from-layer="317" from-port="5" to-layer="319" to-port="1"/>
		<edge from-layer="318" from-port="1" to-layer="319" to-port="2"/>
		<edge from-layer="319" from-port="3" to-layer="320" to-port="0"/>
		<edge from-layer="320" from-port="1" to-layer="325" to-port="0"/>
		<edge from-layer="321" from-port="1" to-layer="325" to-port="1"/>
		<edge from-layer="322" from-port="1" to-layer="325" to-port="2"/>
		<edge from-layer="323" from-port="1" to-layer="325" to-port="3"/>
		<edge from-layer="324" from-port="1" to-layer="325" to-port="4"/>
		<edge from-layer="326" from-port="1" to-layer="331" to-port="0"/>
		<edge from-layer="327" from-port="1" to-layer="331" to-port="1"/>
		<edge from-layer="328" from-port="1" to-layer="331" to-port="2"/>
		<edge from-layer="329" from-port="1" to-layer="331" to-port="3"/>
		<edge from-layer="330" from-port="1" to-layer="331" to-port="4"/>
		<edge from-layer="325" from-port="5" to-layer="333" to-port="0"/>
		<edge from-layer="331" from-port="5" to-layer="333" to-port="1"/>
		<edge from-layer="332" from-port="1" to-layer="333" to-port="2"/>
		<edge from-layer="333" from-port="3" to-layer="334" to-port="0"/>
		<edge from-layer="334" from-port="1" to-layer="339" to-port="0"/>
		<edge from-layer="335" from-port="1" to-layer="339" to-port="1"/>
		<edge from-layer="336" from-port="1" to-layer="339" to-port="2"/>
		<edge from-layer="337" from-port="1" to-layer="339" to-port="3"/>
		<edge from-layer="338" from-port="1" to-layer="339" to-port="4"/>
		<edge from-layer="340" from-port="1" to-layer="345" to-port="0"/>
		<edge from-layer="341" from-port="1" to-layer="345" to-port="1"/>
		<edge from-layer="342" from-port="1" to-layer="345" to-port="2"/>
		<edge from-layer="343" from-port="1" to-layer="345" to-port="3"/>
		<edge from-layer="344" from-port="1" to-layer="345" to-port="4"/>
		<edge from-layer="339" from-port="5" to-layer="347" to-port="0"/>
		<edge from-layer="345" from-port="5" to-layer="347" to-port="1"/>
		<edge from-layer="346" from-port="1" to-layer="347" to-port="2"/>
		<edge from-layer="347" from-port="3" to-layer="352" to-port="0"/>
		<edge from-layer="348" from-port="1" to-layer="352" to-port="1"/>
		<edge from-layer="349" from-port="1" to-layer="352" to-port="2"/>
		<edge from-layer="350" from-port="1" to-layer="352" to-port="3"/>
		<edge from-layer="351" from-port="1" to-layer="352" to-port="4"/>
		<edge from-layer="311" from-port="5" to-layer="353" to-port="0"/>
		<edge from-layer="352" from-port="5" to-layer="353" to-port="1"/>
		<edge from-layer="353" from-port="2" to-layer="358" to-port="0"/>
		<edge from-layer="354" from-port="1" to-layer="358" to-port="1"/>
		<edge from-layer="355" from-port="1" to-layer="358" to-port="2"/>
		<edge from-layer="356" from-port="1" to-layer="358" to-port="3"/>
		<edge from-layer="357" from-port="1" to-layer="358" to-port="4"/>
		<edge from-layer="359" from-port="1" to-layer="364" to-port="0"/>
		<edge from-layer="360" from-port="1" to-layer="364" to-port="1"/>
		<edge from-layer="361" from-port="1" to-layer="364" to-port="2"/>
		<edge from-layer="362" from-port="1" to-layer="364" to-port="3"/>
		<edge from-layer="363" from-port="1" to-layer="364" to-port="4"/>
		<edge from-layer="358" from-port="5" to-layer="366" to-port="0"/>
		<edge from-layer="364" from-port="5" to-layer="366" to-port="1"/>
		<edge from-layer="365" from-port="1" to-layer="366" to-port="2"/>
		<edge from-layer="366" from-port="3" to-layer="367" to-port="0"/>
		<edge from-layer="367" from-port="1" to-layer="372" to-port="0"/>
		<edge from-layer="368" from-port="1" to-layer="372" to-port="1"/>
		<edge from-layer="369" from-port="1" to-layer="372" to-port="2"/>
		<edge from-layer="370" from-port="1" to-layer="372" to-port="3"/>
		<edge from-layer="371" from-port="1" to-layer="372" to-port="4"/>
		<edge from-layer="373" from-port="1" to-layer="378" to-port="0"/>
		<edge from-layer="374" from-port="1" to-layer="378" to-port="1"/>
		<edge from-layer="375" from-port="1" to-layer="378" to-port="2"/>
		<edge from-layer="376" from-port="1" to-layer="378" to-port="3"/>
		<edge from-layer="377" from-port="1" to-layer="378" to-port="4"/>
		<edge from-layer="372" from-port="5" to-layer="380" to-port="0"/>
		<edge from-layer="378" from-port="5" to-layer="380" to-port="1"/>
		<edge from-layer="379" from-port="1" to-layer="380" to-port="2"/>
		<edge from-layer="380" from-port="3" to-layer="381" to-port="0"/>
		<edge from-layer="381" from-port="1" to-layer="386" to-port="0"/>
		<edge from-layer="382" from-port="1" to-layer="386" to-port="1"/>
		<edge from-layer="383" from-port="1" to-layer="386" to-port="2"/>
		<edge from-layer="384" from-port="1" to-layer="386" to-port="3"/>
		<edge from-layer="385" from-port="1" to-layer="386" to-port="4"/>
		<edge from-layer="387" from-port="1" to-layer="392" to-port="0"/>
		<edge from-layer="388" from-port="1" to-layer="392" to-port="1"/>
		<edge from-layer="389" from-port="1" to-layer="392" to-port="2"/>
		<edge from-layer="390" from-port="1" to-layer="392" to-port="3"/>
		<edge from-layer="391" from-port="1" to-layer="392" to-port="4"/>
		<edge from-layer="386" from-port="5" to-layer="394" to-port="0"/>
		<edge from-layer="392" from-port="5" to-layer="394" to-port="1"/>
		<edge from-layer="393" from-port="1" to-layer="394" to-port="2"/>
		<edge from-layer="394" from-port="3" to-layer="399" to-port="0"/>
		<edge from-layer="395" from-port="1" to-layer="399" to-port="1"/>
		<edge from-layer="396" from-port="1" to-layer="399" to-port="2"/>
		<edge from-layer="397" from-port="1" to-layer="399" to-port="3"/>
		<edge from-layer="398" from-port="1" to-layer="399" to-port="4"/>
		<edge from-layer="358" from-port="5" to-layer="400" to-port="0"/>
		<edge from-layer="399" from-port="5" to-layer="400" to-port="1"/>
		<edge from-layer="400" from-port="2" to-layer="405" to-port="0"/>
		<edge from-layer="401" from-port="1" to-layer="405" to-port="1"/>
		<edge from-layer="402" from-port="1" to-layer="405" to-port="2"/>
		<edge from-layer="403" from-port="1" to-layer="405" to-port="3"/>
		<edge from-layer="404" from-port="1" to-layer="405" to-port="4"/>
		<edge from-layer="406" from-port="1" to-layer="411" to-port="0"/>
		<edge from-layer="407" from-port="1" to-layer="411" to-port="1"/>
		<edge from-layer="408" from-port="1" to-layer="411" to-port="2"/>
		<edge from-layer="409" from-port="1" to-layer="411" to-port="3"/>
		<edge from-layer="410" from-port="1" to-layer="411" to-port="4"/>
		<edge from-layer="405" from-port="5" to-layer="413" to-port="0"/>
		<edge from-layer="411" from-port="5" to-layer="413" to-port="1"/>
		<edge from-layer="412" from-port="1" to-layer="413" to-port="2"/>
		<edge from-layer="413" from-port="3" to-layer="414" to-port="0"/>
		<edge from-layer="414" from-port="1" to-layer="419" to-port="0"/>
		<edge from-layer="415" from-port="1" to-layer="419" to-port="1"/>
		<edge from-layer="416" from-port="1" to-layer="419" to-port="2"/>
		<edge from-layer="417" from-port="1" to-layer="419" to-port="3"/>
		<edge from-layer="418" from-port="1" to-layer="419" to-port="4"/>
		<edge from-layer="420" from-port="1" to-layer="425" to-port="0"/>
		<edge from-layer="421" from-port="1" to-layer="425" to-port="1"/>
		<edge from-layer="422" from-port="1" to-layer="425" to-port="2"/>
		<edge from-layer="423" from-port="1" to-layer="425" to-port="3"/>
		<edge from-layer="424" from-port="1" to-layer="425" to-port="4"/>
		<edge from-layer="419" from-port="5" to-layer="427" to-port="0"/>
		<edge from-layer="425" from-port="5" to-layer="427" to-port="1"/>
		<edge from-layer="426" from-port="1" to-layer="427" to-port="2"/>
		<edge from-layer="427" from-port="3" to-layer="428" to-port="0"/>
		<edge from-layer="428" from-port="1" to-layer="433" to-port="0"/>
		<edge from-layer="429" from-port="1" to-layer="433" to-port="1"/>
		<edge from-layer="430" from-port="1" to-layer="433" to-port="2"/>
		<edge from-layer="431" from-port="1" to-layer="433" to-port="3"/>
		<edge from-layer="432" from-port="1" to-layer="433" to-port="4"/>
		<edge from-layer="434" from-port="1" to-layer="439" to-port="0"/>
		<edge from-layer="435" from-port="1" to-layer="439" to-port="1"/>
		<edge from-layer="436" from-port="1" to-layer="439" to-port="2"/>
		<edge from-layer="437" from-port="1" to-layer="439" to-port="3"/>
		<edge from-layer="438" from-port="1" to-layer="439" to-port="4"/>
		<edge from-layer="433" from-port="5" to-layer="441" to-port="0"/>
		<edge from-layer="439" from-port="5" to-layer="441" to-port="1"/>
		<edge from-layer="440" from-port="1" to-layer="441" to-port="2"/>
		<edge from-layer="441" from-port="3" to-layer="446" to-port="0"/>
		<edge from-layer="442" from-port="1" to-layer="446" to-port="1"/>
		<edge from-layer="443" from-port="1" to-layer="446" to-port="2"/>
		<edge from-layer="444" from-port="1" to-layer="446" to-port="3"/>
		<edge from-layer="445" from-port="1" to-layer="446" to-port="4"/>
		<edge from-layer="405" from-port="5" to-layer="447" to-port="0"/>
		<edge from-layer="446" from-port="5" to-layer="447" to-port="1"/>
		<edge from-layer="447" from-port="2" to-layer="452" to-port="0"/>
		<edge from-layer="448" from-port="1" to-layer="452" to-port="1"/>
		<edge from-layer="449" from-port="1" to-layer="452" to-port="2"/>
		<edge from-layer="450" from-port="1" to-layer="452" to-port="3"/>
		<edge from-layer="451" from-port="1" to-layer="452" to-port="4"/>
		<edge from-layer="453" from-port="1" to-layer="458" to-port="0"/>
		<edge from-layer="454" from-port="1" to-layer="458" to-port="1"/>
		<edge from-layer="455" from-port="1" to-layer="458" to-port="2"/>
		<edge from-layer="456" from-port="1" to-layer="458" to-port="3"/>
		<edge from-layer="457" from-port="1" to-layer="458" to-port="4"/>
		<edge from-layer="452" from-port="5" to-layer="460" to-port="0"/>
		<edge from-layer="458" from-port="5" to-layer="460" to-port="1"/>
		<edge from-layer="459" from-port="1" to-layer="460" to-port="2"/>
		<edge from-layer="460" from-port="3" to-layer="461" to-port="0"/>
		<edge from-layer="461" from-port="1" to-layer="466" to-port="0"/>
		<edge from-layer="462" from-port="1" to-layer="466" to-port="1"/>
		<edge from-layer="463" from-port="1" to-layer="466" to-port="2"/>
		<edge from-layer="464" from-port="1" to-layer="466" to-port="3"/>
		<edge from-layer="465" from-port="1" to-layer="466" to-port="4"/>
		<edge from-layer="467" from-port="1" to-layer="472" to-port="0"/>
		<edge from-layer="468" from-port="1" to-layer="472" to-port="1"/>
		<edge from-layer="469" from-port="1" to-layer="472" to-port="2"/>
		<edge from-layer="470" from-port="1" to-layer="472" to-port="3"/>
		<edge from-layer="471" from-port="1" to-layer="472" to-port="4"/>
		<edge from-layer="466" from-port="5" to-layer="474" to-port="0"/>
		<edge from-layer="472" from-port="5" to-layer="474" to-port="1"/>
		<edge from-layer="473" from-port="1" to-layer="474" to-port="2"/>
		<edge from-layer="474" from-port="3" to-layer="475" to-port="0"/>
		<edge from-layer="475" from-port="1" to-layer="480" to-port="0"/>
		<edge from-layer="476" from-port="1" to-layer="480" to-port="1"/>
		<edge from-layer="477" from-port="1" to-layer="480" to-port="2"/>
		<edge from-layer="478" from-port="1" to-layer="480" to-port="3"/>
		<edge from-layer="479" from-port="1" to-layer="480" to-port="4"/>
		<edge from-layer="481" from-port="1" to-layer="486" to-port="0"/>
		<edge from-layer="482" from-port="1" to-layer="486" to-port="1"/>
		<edge from-layer="483" from-port="1" to-layer="486" to-port="2"/>
		<edge from-layer="484" from-port="1" to-layer="486" to-port="3"/>
		<edge from-layer="485" from-port="1" to-layer="486" to-port="4"/>
		<edge from-layer="480" from-port="5" to-layer="488" to-port="0"/>
		<edge from-layer="486" from-port="5" to-layer="488" to-port="1"/>
		<edge from-layer="487" from-port="1" to-layer="488" to-port="2"/>
		<edge from-layer="488" from-port="3" to-layer="493" to-port="0"/>
		<edge from-layer="489" from-port="1" to-layer="493" to-port="1"/>
		<edge from-layer="490" from-port="1" to-layer="493" to-port="2"/>
		<edge from-layer="491" from-port="1" to-layer="493" to-port="3"/>
		<edge from-layer="492" from-port="1" to-layer="493" to-port="4"/>
		<edge from-layer="494" from-port="1" to-layer="499" to-port="0"/>
		<edge from-layer="495" from-port="1" to-layer="499" to-port="1"/>
		<edge from-layer="496" from-port="1" to-layer="499" to-port="2"/>
		<edge from-layer="497" from-port="1" to-layer="499" to-port="3"/>
		<edge from-layer="498" from-port="1" to-layer="499" to-port="4"/>
		<edge from-layer="493" from-port="5" to-layer="501" to-port="0"/>
		<edge from-layer="499" from-port="5" to-layer="501" to-port="1"/>
		<edge from-layer="500" from-port="1" to-layer="501" to-port="2"/>
		<edge from-layer="501" from-port="3" to-layer="502" to-port="0"/>
		<edge from-layer="502" from-port="1" to-layer="507" to-port="0"/>
		<edge from-layer="503" from-port="1" to-layer="507" to-port="1"/>
		<edge from-layer="504" from-port="1" to-layer="507" to-port="2"/>
		<edge from-layer="505" from-port="1" to-layer="507" to-port="3"/>
		<edge from-layer="506" from-port="1" to-layer="507" to-port="4"/>
		<edge from-layer="508" from-port="1" to-layer="513" to-port="0"/>
		<edge from-layer="509" from-port="1" to-layer="513" to-port="1"/>
		<edge from-layer="510" from-port="1" to-layer="513" to-port="2"/>
		<edge from-layer="511" from-port="1" to-layer="513" to-port="3"/>
		<edge from-layer="512" from-port="1" to-layer="513" to-port="4"/>
		<edge from-layer="507" from-port="5" to-layer="515" to-port="0"/>
		<edge from-layer="513" from-port="5" to-layer="515" to-port="1"/>
		<edge from-layer="514" from-port="1" to-layer="515" to-port="2"/>
		<edge from-layer="515" from-port="3" to-layer="516" to-port="0"/>
		<edge from-layer="516" from-port="1" to-layer="521" to-port="0"/>
		<edge from-layer="517" from-port="1" to-layer="521" to-port="1"/>
		<edge from-layer="518" from-port="1" to-layer="521" to-port="2"/>
		<edge from-layer="519" from-port="1" to-layer="521" to-port="3"/>
		<edge from-layer="520" from-port="1" to-layer="521" to-port="4"/>
		<edge from-layer="522" from-port="1" to-layer="527" to-port="0"/>
		<edge from-layer="523" from-port="1" to-layer="527" to-port="1"/>
		<edge from-layer="524" from-port="1" to-layer="527" to-port="2"/>
		<edge from-layer="525" from-port="1" to-layer="527" to-port="3"/>
		<edge from-layer="526" from-port="1" to-layer="527" to-port="4"/>
		<edge from-layer="521" from-port="5" to-layer="529" to-port="0"/>
		<edge from-layer="527" from-port="5" to-layer="529" to-port="1"/>
		<edge from-layer="528" from-port="1" to-layer="529" to-port="2"/>
		<edge from-layer="529" from-port="3" to-layer="534" to-port="0"/>
		<edge from-layer="530" from-port="1" to-layer="534" to-port="1"/>
		<edge from-layer="531" from-port="1" to-layer="534" to-port="2"/>
		<edge from-layer="532" from-port="1" to-layer="534" to-port="3"/>
		<edge from-layer="533" from-port="1" to-layer="534" to-port="4"/>
		<edge from-layer="493" from-port="5" to-layer="535" to-port="0"/>
		<edge from-layer="534" from-port="5" to-layer="535" to-port="1"/>
		<edge from-layer="535" from-port="2" to-layer="540" to-port="0"/>
		<edge from-layer="536" from-port="1" to-layer="540" to-port="1"/>
		<edge from-layer="537" from-port="1" to-layer="540" to-port="2"/>
		<edge from-layer="538" from-port="1" to-layer="540" to-port="3"/>
		<edge from-layer="539" from-port="1" to-layer="540" to-port="4"/>
		<edge from-layer="541" from-port="1" to-layer="546" to-port="0"/>
		<edge from-layer="542" from-port="1" to-layer="546" to-port="1"/>
		<edge from-layer="543" from-port="1" to-layer="546" to-port="2"/>
		<edge from-layer="544" from-port="1" to-layer="546" to-port="3"/>
		<edge from-layer="545" from-port="1" to-layer="546" to-port="4"/>
		<edge from-layer="540" from-port="5" to-layer="548" to-port="0"/>
		<edge from-layer="546" from-port="5" to-layer="548" to-port="1"/>
		<edge from-layer="547" from-port="1" to-layer="548" to-port="2"/>
		<edge from-layer="548" from-port="3" to-layer="549" to-port="0"/>
		<edge from-layer="549" from-port="1" to-layer="554" to-port="0"/>
		<edge from-layer="550" from-port="1" to-layer="554" to-port="1"/>
		<edge from-layer="551" from-port="1" to-layer="554" to-port="2"/>
		<edge from-layer="552" from-port="1" to-layer="554" to-port="3"/>
		<edge from-layer="553" from-port="1" to-layer="554" to-port="4"/>
		<edge from-layer="555" from-port="1" to-layer="560" to-port="0"/>
		<edge from-layer="556" from-port="1" to-layer="560" to-port="1"/>
		<edge from-layer="557" from-port="1" to-layer="560" to-port="2"/>
		<edge from-layer="558" from-port="1" to-layer="560" to-port="3"/>
		<edge from-layer="559" from-port="1" to-layer="560" to-port="4"/>
		<edge from-layer="554" from-port="5" to-layer="562" to-port="0"/>
		<edge from-layer="560" from-port="5" to-layer="562" to-port="1"/>
		<edge from-layer="561" from-port="1" to-layer="562" to-port="2"/>
		<edge from-layer="562" from-port="3" to-layer="563" to-port="0"/>
		<edge from-layer="563" from-port="1" to-layer="568" to-port="0"/>
		<edge from-layer="564" from-port="1" to-layer="568" to-port="1"/>
		<edge from-layer="565" from-port="1" to-layer="568" to-port="2"/>
		<edge from-layer="566" from-port="1" to-layer="568" to-port="3"/>
		<edge from-layer="567" from-port="1" to-layer="568" to-port="4"/>
		<edge from-layer="569" from-port="1" to-layer="574" to-port="0"/>
		<edge from-layer="570" from-port="1" to-layer="574" to-port="1"/>
		<edge from-layer="571" from-port="1" to-layer="574" to-port="2"/>
		<edge from-layer="572" from-port="1" to-layer="574" to-port="3"/>
		<edge from-layer="573" from-port="1" to-layer="574" to-port="4"/>
		<edge from-layer="568" from-port="5" to-layer="576" to-port="0"/>
		<edge from-layer="574" from-port="5" to-layer="576" to-port="1"/>
		<edge from-layer="575" from-port="1" to-layer="576" to-port="2"/>
		<edge from-layer="576" from-port="3" to-layer="581" to-port="0"/>
		<edge from-layer="577" from-port="1" to-layer="581" to-port="1"/>
		<edge from-layer="578" from-port="1" to-layer="581" to-port="2"/>
		<edge from-layer="579" from-port="1" to-layer="581" to-port="3"/>
		<edge from-layer="580" from-port="1" to-layer="581" to-port="4"/>
		<edge from-layer="540" from-port="5" to-layer="582" to-port="0"/>
		<edge from-layer="581" from-port="5" to-layer="582" to-port="1"/>
		<edge from-layer="582" from-port="2" to-layer="587" to-port="0"/>
		<edge from-layer="583" from-port="1" to-layer="587" to-port="1"/>
		<edge from-layer="584" from-port="1" to-layer="587" to-port="2"/>
		<edge from-layer="585" from-port="1" to-layer="587" to-port="3"/>
		<edge from-layer="586" from-port="1" to-layer="587" to-port="4"/>
		<edge from-layer="588" from-port="1" to-layer="593" to-port="0"/>
		<edge from-layer="589" from-port="1" to-layer="593" to-port="1"/>
		<edge from-layer="590" from-port="1" to-layer="593" to-port="2"/>
		<edge from-layer="591" from-port="1" to-layer="593" to-port="3"/>
		<edge from-layer="592" from-port="1" to-layer="593" to-port="4"/>
		<edge from-layer="587" from-port="5" to-layer="595" to-port="0"/>
		<edge from-layer="593" from-port="5" to-layer="595" to-port="1"/>
		<edge from-layer="594" from-port="1" to-layer="595" to-port="2"/>
		<edge from-layer="595" from-port="3" to-layer="596" to-port="0"/>
		<edge from-layer="596" from-port="1" to-layer="601" to-port="0"/>
		<edge from-layer="597" from-port="1" to-layer="601" to-port="1"/>
		<edge from-layer="598" from-port="1" to-layer="601" to-port="2"/>
		<edge from-layer="599" from-port="1" to-layer="601" to-port="3"/>
		<edge from-layer="600" from-port="1" to-layer="601" to-port="4"/>
		<edge from-layer="602" from-port="1" to-layer="607" to-port="0"/>
		<edge from-layer="603" from-port="1" to-layer="607" to-port="1"/>
		<edge from-layer="604" from-port="1" to-layer="607" to-port="2"/>
		<edge from-layer="605" from-port="1" to-layer="607" to-port="3"/>
		<edge from-layer="606" from-port="1" to-layer="607" to-port="4"/>
		<edge from-layer="601" from-port="5" to-layer="609" to-port="0"/>
		<edge from-layer="607" from-port="5" to-layer="609" to-port="1"/>
		<edge from-layer="608" from-port="1" to-layer="609" to-port="2"/>
		<edge from-layer="609" from-port="3" to-layer="610" to-port="0"/>
		<edge from-layer="610" from-port="1" to-layer="615" to-port="0"/>
		<edge from-layer="611" from-port="1" to-layer="615" to-port="1"/>
		<edge from-layer="612" from-port="1" to-layer="615" to-port="2"/>
		<edge from-layer="613" from-port="1" to-layer="615" to-port="3"/>
		<edge from-layer="614" from-port="1" to-layer="615" to-port="4"/>
		<edge from-layer="616" from-port="1" to-layer="621" to-port="0"/>
		<edge from-layer="617" from-port="1" to-layer="621" to-port="1"/>
		<edge from-layer="618" from-port="1" to-layer="621" to-port="2"/>
		<edge from-layer="619" from-port="1" to-layer="621" to-port="3"/>
		<edge from-layer="620" from-port="1" to-layer="621" to-port="4"/>
		<edge from-layer="615" from-port="5" to-layer="623" to-port="0"/>
		<edge from-layer="621" from-port="5" to-layer="623" to-port="1"/>
		<edge from-layer="622" from-port="1" to-layer="623" to-port="2"/>
		<edge from-layer="623" from-port="3" to-layer="628" to-port="0"/>
		<edge from-layer="624" from-port="1" to-layer="628" to-port="1"/>
		<edge from-layer="625" from-port="1" to-layer="628" to-port="2"/>
		<edge from-layer="626" from-port="1" to-layer="628" to-port="3"/>
		<edge from-layer="627" from-port="1" to-layer="628" to-port="4"/>
		<edge from-layer="629" from-port="1" to-layer="634" to-port="0"/>
		<edge from-layer="630" from-port="1" to-layer="634" to-port="1"/>
		<edge from-layer="631" from-port="1" to-layer="634" to-port="2"/>
		<edge from-layer="632" from-port="1" to-layer="634" to-port="3"/>
		<edge from-layer="633" from-port="1" to-layer="634" to-port="4"/>
		<edge from-layer="628" from-port="5" to-layer="636" to-port="0"/>
		<edge from-layer="634" from-port="5" to-layer="636" to-port="1"/>
		<edge from-layer="635" from-port="1" to-layer="636" to-port="2"/>
		<edge from-layer="636" from-port="3" to-layer="637" to-port="0"/>
		<edge from-layer="637" from-port="1" to-layer="642" to-port="0"/>
		<edge from-layer="638" from-port="1" to-layer="642" to-port="1"/>
		<edge from-layer="639" from-port="1" to-layer="642" to-port="2"/>
		<edge from-layer="640" from-port="1" to-layer="642" to-port="3"/>
		<edge from-layer="641" from-port="1" to-layer="642" to-port="4"/>
		<edge from-layer="643" from-port="1" to-layer="648" to-port="0"/>
		<edge from-layer="644" from-port="1" to-layer="648" to-port="1"/>
		<edge from-layer="645" from-port="1" to-layer="648" to-port="2"/>
		<edge from-layer="646" from-port="1" to-layer="648" to-port="3"/>
		<edge from-layer="647" from-port="1" to-layer="648" to-port="4"/>
		<edge from-layer="642" from-port="5" to-layer="650" to-port="0"/>
		<edge from-layer="648" from-port="5" to-layer="650" to-port="1"/>
		<edge from-layer="649" from-port="1" to-layer="650" to-port="2"/>
		<edge from-layer="650" from-port="3" to-layer="651" to-port="0"/>
		<edge from-layer="651" from-port="1" to-layer="656" to-port="0"/>
		<edge from-layer="652" from-port="1" to-layer="656" to-port="1"/>
		<edge from-layer="653" from-port="1" to-layer="656" to-port="2"/>
		<edge from-layer="654" from-port="1" to-layer="656" to-port="3"/>
		<edge from-layer="655" from-port="1" to-layer="656" to-port="4"/>
		<edge from-layer="657" from-port="1" to-layer="662" to-port="0"/>
		<edge from-layer="658" from-port="1" to-layer="662" to-port="1"/>
		<edge from-layer="659" from-port="1" to-layer="662" to-port="2"/>
		<edge from-layer="660" from-port="1" to-layer="662" to-port="3"/>
		<edge from-layer="661" from-port="1" to-layer="662" to-port="4"/>
		<edge from-layer="656" from-port="5" to-layer="664" to-port="0"/>
		<edge from-layer="662" from-port="5" to-layer="664" to-port="1"/>
		<edge from-layer="663" from-port="1" to-layer="664" to-port="2"/>
		<edge from-layer="664" from-port="3" to-layer="669" to-port="0"/>
		<edge from-layer="665" from-port="1" to-layer="669" to-port="1"/>
		<edge from-layer="666" from-port="1" to-layer="669" to-port="2"/>
		<edge from-layer="667" from-port="1" to-layer="669" to-port="3"/>
		<edge from-layer="668" from-port="1" to-layer="669" to-port="4"/>
		<edge from-layer="628" from-port="5" to-layer="670" to-port="0"/>
		<edge from-layer="669" from-port="5" to-layer="670" to-port="1"/>
		<edge from-layer="670" from-port="2" to-layer="675" to-port="0"/>
		<edge from-layer="671" from-port="1" to-layer="675" to-port="1"/>
		<edge from-layer="672" from-port="1" to-layer="675" to-port="2"/>
		<edge from-layer="673" from-port="1" to-layer="675" to-port="3"/>
		<edge from-layer="674" from-port="1" to-layer="675" to-port="4"/>
		<edge from-layer="676" from-port="1" to-layer="681" to-port="0"/>
		<edge from-layer="677" from-port="1" to-layer="681" to-port="1"/>
		<edge from-layer="678" from-port="1" to-layer="681" to-port="2"/>
		<edge from-layer="679" from-port="1" to-layer="681" to-port="3"/>
		<edge from-layer="680" from-port="1" to-layer="681" to-port="4"/>
		<edge from-layer="675" from-port="5" to-layer="683" to-port="0"/>
		<edge from-layer="681" from-port="5" to-layer="683" to-port="1"/>
		<edge from-layer="682" from-port="1" to-layer="683" to-port="2"/>
		<edge from-layer="683" from-port="3" to-layer="684" to-port="0"/>
		<edge from-layer="684" from-port="1" to-layer="689" to-port="0"/>
		<edge from-layer="685" from-port="1" to-layer="689" to-port="1"/>
		<edge from-layer="686" from-port="1" to-layer="689" to-port="2"/>
		<edge from-layer="687" from-port="1" to-layer="689" to-port="3"/>
		<edge from-layer="688" from-port="1" to-layer="689" to-port="4"/>
		<edge from-layer="690" from-port="1" to-layer="695" to-port="0"/>
		<edge from-layer="691" from-port="1" to-layer="695" to-port="1"/>
		<edge from-layer="692" from-port="1" to-layer="695" to-port="2"/>
		<edge from-layer="693" from-port="1" to-layer="695" to-port="3"/>
		<edge from-layer="694" from-port="1" to-layer="695" to-port="4"/>
		<edge from-layer="689" from-port="5" to-layer="697" to-port="0"/>
		<edge from-layer="695" from-port="5" to-layer="697" to-port="1"/>
		<edge from-layer="696" from-port="1" to-layer="697" to-port="2"/>
		<edge from-layer="697" from-port="3" to-layer="698" to-port="0"/>
		<edge from-layer="698" from-port="1" to-layer="703" to-port="0"/>
		<edge from-layer="699" from-port="1" to-layer="703" to-port="1"/>
		<edge from-layer="700" from-port="1" to-layer="703" to-port="2"/>
		<edge from-layer="701" from-port="1" to-layer="703" to-port="3"/>
		<edge from-layer="702" from-port="1" to-layer="703" to-port="4"/>
		<edge from-layer="704" from-port="1" to-layer="709" to-port="0"/>
		<edge from-layer="705" from-port="1" to-layer="709" to-port="1"/>
		<edge from-layer="706" from-port="1" to-layer="709" to-port="2"/>
		<edge from-layer="707" from-port="1" to-layer="709" to-port="3"/>
		<edge from-layer="708" from-port="1" to-layer="709" to-port="4"/>
		<edge from-layer="703" from-port="5" to-layer="711" to-port="0"/>
		<edge from-layer="709" from-port="5" to-layer="711" to-port="1"/>
		<edge from-layer="710" from-port="1" to-layer="711" to-port="2"/>
		<edge from-layer="711" from-port="3" to-layer="716" to-port="0"/>
		<edge from-layer="712" from-port="1" to-layer="716" to-port="1"/>
		<edge from-layer="713" from-port="1" to-layer="716" to-port="2"/>
		<edge from-layer="714" from-port="1" to-layer="716" to-port="3"/>
		<edge from-layer="715" from-port="1" to-layer="716" to-port="4"/>
		<edge from-layer="675" from-port="5" to-layer="717" to-port="0"/>
		<edge from-layer="716" from-port="5" to-layer="717" to-port="1"/>
		<edge from-layer="717" from-port="2" to-layer="722" to-port="0"/>
		<edge from-layer="718" from-port="1" to-layer="722" to-port="1"/>
		<edge from-layer="719" from-port="1" to-layer="722" to-port="2"/>
		<edge from-layer="720" from-port="1" to-layer="722" to-port="3"/>
		<edge from-layer="721" from-port="1" to-layer="722" to-port="4"/>
		<edge from-layer="723" from-port="1" to-layer="728" to-port="0"/>
		<edge from-layer="724" from-port="1" to-layer="728" to-port="1"/>
		<edge from-layer="725" from-port="1" to-layer="728" to-port="2"/>
		<edge from-layer="726" from-port="1" to-layer="728" to-port="3"/>
		<edge from-layer="727" from-port="1" to-layer="728" to-port="4"/>
		<edge from-layer="722" from-port="5" to-layer="730" to-port="0"/>
		<edge from-layer="728" from-port="5" to-layer="730" to-port="1"/>
		<edge from-layer="729" from-port="1" to-layer="730" to-port="2"/>
		<edge from-layer="730" from-port="3" to-layer="731" to-port="0"/>
		<edge from-layer="731" from-port="1" to-layer="736" to-port="0"/>
		<edge from-layer="732" from-port="1" to-layer="736" to-port="1"/>
		<edge from-layer="733" from-port="1" to-layer="736" to-port="2"/>
		<edge from-layer="734" from-port="1" to-layer="736" to-port="3"/>
		<edge from-layer="735" from-port="1" to-layer="736" to-port="4"/>
		<edge from-layer="737" from-port="1" to-layer="742" to-port="0"/>
		<edge from-layer="738" from-port="1" to-layer="742" to-port="1"/>
		<edge from-layer="739" from-port="1" to-layer="742" to-port="2"/>
		<edge from-layer="740" from-port="1" to-layer="742" to-port="3"/>
		<edge from-layer="741" from-port="1" to-layer="742" to-port="4"/>
		<edge from-layer="736" from-port="5" to-layer="744" to-port="0"/>
		<edge from-layer="742" from-port="5" to-layer="744" to-port="1"/>
		<edge from-layer="743" from-port="1" to-layer="744" to-port="2"/>
		<edge from-layer="744" from-port="3" to-layer="745" to-port="0"/>
		<edge from-layer="745" from-port="1" to-layer="750" to-port="0"/>
		<edge from-layer="746" from-port="1" to-layer="750" to-port="1"/>
		<edge from-layer="747" from-port="1" to-layer="750" to-port="2"/>
		<edge from-layer="748" from-port="1" to-layer="750" to-port="3"/>
		<edge from-layer="749" from-port="1" to-layer="750" to-port="4"/>
		<edge from-layer="751" from-port="1" to-layer="756" to-port="0"/>
		<edge from-layer="752" from-port="1" to-layer="756" to-port="1"/>
		<edge from-layer="753" from-port="1" to-layer="756" to-port="2"/>
		<edge from-layer="754" from-port="1" to-layer="756" to-port="3"/>
		<edge from-layer="755" from-port="1" to-layer="756" to-port="4"/>
		<edge from-layer="750" from-port="5" to-layer="758" to-port="0"/>
		<edge from-layer="756" from-port="5" to-layer="758" to-port="1"/>
		<edge from-layer="757" from-port="1" to-layer="758" to-port="2"/>
		<edge from-layer="758" from-port="3" to-layer="763" to-port="0"/>
		<edge from-layer="759" from-port="1" to-layer="763" to-port="1"/>
		<edge from-layer="760" from-port="1" to-layer="763" to-port="2"/>
		<edge from-layer="761" from-port="1" to-layer="763" to-port="3"/>
		<edge from-layer="762" from-port="1" to-layer="763" to-port="4"/>
		<edge from-layer="764" from-port="1" to-layer="769" to-port="0"/>
		<edge from-layer="765" from-port="1" to-layer="769" to-port="1"/>
		<edge from-layer="766" from-port="1" to-layer="769" to-port="2"/>
		<edge from-layer="767" from-port="1" to-layer="769" to-port="3"/>
		<edge from-layer="768" from-port="1" to-layer="769" to-port="4"/>
		<edge from-layer="763" from-port="5" to-layer="771" to-port="0"/>
		<edge from-layer="769" from-port="5" to-layer="771" to-port="1"/>
		<edge from-layer="770" from-port="1" to-layer="771" to-port="2"/>
		<edge from-layer="771" from-port="3" to-layer="772" to-port="0"/>
		<edge from-layer="772" from-port="1" to-layer="777" to-port="0"/>
		<edge from-layer="773" from-port="1" to-layer="777" to-port="1"/>
		<edge from-layer="774" from-port="1" to-layer="777" to-port="2"/>
		<edge from-layer="775" from-port="1" to-layer="777" to-port="3"/>
		<edge from-layer="776" from-port="1" to-layer="777" to-port="4"/>
		<edge from-layer="777" from-port="5" to-layer="779" to-port="0"/>
		<edge from-layer="778" from-port="1" to-layer="779" to-port="1"/>
		<edge from-layer="779" from-port="2" to-layer="780" to-port="0"/>
		<edge from-layer="780" from-port="1" to-layer="785" to-port="0"/>
		<edge from-layer="781" from-port="1" to-layer="785" to-port="1"/>
		<edge from-layer="782" from-port="1" to-layer="785" to-port="2"/>
		<edge from-layer="783" from-port="1" to-layer="785" to-port="3"/>
		<edge from-layer="784" from-port="1" to-layer="785" to-port="4"/>
		<edge from-layer="785" from-port="5" to-layer="787" to-port="0"/>
		<edge from-layer="786" from-port="1" to-layer="787" to-port="1"/>
		<edge from-layer="787" from-port="2" to-layer="789" to-port="0"/>
		<edge from-layer="788" from-port="1" to-layer="789" to-port="1"/>
		<edge from-layer="789" from-port="2" to-layer="790" to-port="0"/>
		<edge from-layer="790" from-port="1" to-layer="795" to-port="0"/>
		<edge from-layer="791" from-port="1" to-layer="795" to-port="1"/>
		<edge from-layer="792" from-port="1" to-layer="795" to-port="2"/>
		<edge from-layer="793" from-port="1" to-layer="795" to-port="3"/>
		<edge from-layer="794" from-port="1" to-layer="795" to-port="4"/>
		<edge from-layer="795" from-port="5" to-layer="797" to-port="0"/>
		<edge from-layer="796" from-port="1" to-layer="797" to-port="1"/>
		<edge from-layer="798" from-port="1" to-layer="803" to-port="0"/>
		<edge from-layer="799" from-port="1" to-layer="803" to-port="1"/>
		<edge from-layer="800" from-port="1" to-layer="803" to-port="2"/>
		<edge from-layer="801" from-port="1" to-layer="803" to-port="3"/>
		<edge from-layer="802" from-port="1" to-layer="803" to-port="4"/>
		<edge from-layer="797" from-port="2" to-layer="805" to-port="0"/>
		<edge from-layer="803" from-port="5" to-layer="805" to-port="1"/>
		<edge from-layer="804" from-port="1" to-layer="805" to-port="2"/>
	</edges>
	<meta_data>
		<MO_version value="unknown version"/>
		<cli_parameters>
			<unset unset_cli_parameters=""/>
		</cli_parameters>
	</meta_data>
</net>
