<?xml version="1.0" ?>
<net batch="1" name="resnet50_int8" version="6">
	<layers>
		<layer id="0" name="data" precision="FP32" type="Input">
			<output>
				<port id="0">
					<dim>1</dim>
					<dim>3</dim>
					<dim>224</dim>
					<dim>224</dim>
				</port>
			</output>
		</layer>
		<layer id="1" name="Mul_/Fused_Mul_/FusedScaleShift_" precision="FP32" type="ScaleShift">
			<input>
				<port id="0">
					<dim>1</dim>
					<dim>3</dim>
					<dim>224</dim>
					<dim>224</dim>
				</port>
			</input>
			<output>
				<port id="3">
					<dim>1</dim>
					<dim>3</dim>
					<dim>224</dim>
					<dim>224</dim>
				</port>
			</output>
			<blobs>
				<weights offset="0" size="12"/>
				<biases offset="12" size="12"/>
			</blobs>
		</layer>
		<layer id="2" name="1306613070_const" precision="FP32" type="Const">
			<output>
				<port id="1"/>
			</output>
			<blobs>
				<custom offset="24" size="4"/>
			</blobs>
		</layer>
		<layer id="3" name="1306713071_const" precision="FP32" type="Const">
			<output>
				<port id="1"/>
			</output>
			<blobs>
				<custom offset="28" size="4"/>
			</blobs>
		</layer>
		<layer id="4" name="1306813072_const" precision="FP32" type="Const">
			<output>
				<port id="1"/>
			</output>
			<blobs>
				<custom offset="24" size="4"/>
			</blobs>
		</layer>
		<layer id="5" name="1306913073_const" precision="FP32" type="Const">
			<output>
				<port id="1"/>
			</output>
			<blobs>
				<custom offset="28" size="4"/>
			</blobs>
		</layer>
		<layer id="6" name="321/fq_input_0" precision="FP32" type="FakeQuantize">
			<data levels="256.0"/>
			<input>
				<port id="0">
					<dim>1</dim>
					<dim>3</dim>
					<dim>224</dim>
					<dim>224</dim>
				</port>
				<port id="1"/>
				<port id="2"/>
				<port id="3"/>
				<port id="4"/>
			</input>
			<output>
				<port id="5">
					<dim>1</dim>
					<dim>3</dim>
					<dim>224</dim>
					<dim>224</dim>
				</port>
			</output>
		</layer>
		<layer id="7" name="Mul1_6343/Fused_Mul_81378139_const" precision="FP32" type="Const">
			<output>
				<port id="1">
					<dim>64</dim>
					<dim>3</dim>
					<dim>7</dim>
					<dim>7</dim>
				</port>
			</output>
			<blobs>
				<custom offset="32" size="37632"/>
			</blobs>
		</layer>
		<layer id="8" name="1307613080_const" precision="FP32" type="Const">
			<output>
				<port id="1"/>
			</output>
			<blobs>
				<custom offset="37664" size="4"/>
			</blobs>
		</layer>
		<layer id="9" name="1307713081_const" precision="FP32" type="Const">
			<output>
				<port id="1"/>
			</output>
			<blobs>
				<custom offset="37668" size="4"/>
			</blobs>
		</layer>
		<layer id="10" name="1307813082_const" precision="FP32" type="Const">
			<output>
				<port id="1"/>
			</output>
			<blobs>
				<custom offset="37664" size="4"/>
			</blobs>
		</layer>
		<layer id="11" name="1307913083_const" precision="FP32" type="Const">
			<output>
				<port id="1"/>
			</output>
			<blobs>
				<custom offset="37668" size="4"/>
			</blobs>
		</layer>
		<layer id="12" name="321/fq_weights_1" precision="FP32" type="FakeQuantize">
			<data levels="255.0"/>
			<input>
				<port id="0">
					<dim>64</dim>
					<dim>3</dim>
					<dim>7</dim>
					<dim>7</dim>
				</port>
				<port id="1"/>
				<port id="2"/>
				<port id="3"/>
				<port id="4"/>
			</input>
			<output>
				<port id="5">
					<dim>64</dim>
					<dim>3</dim>
					<dim>7</dim>
					<dim>7</dim>
				</port>
			</output>
		</layer>
		<layer id="13" name="bias_data8141_const" precision="FP32" type="Const">
			<output>
				<port id="1">
					<dim>64</dim>
				</port>
			</output>
			<blobs>
				<custom offset="37672" size="256"/>
			</blobs>
		</layer>
		<layer id="14" name="321" precision="FP32" type="Convolution">
			<data dilations="1,1" group="1" kernel="7,7" output="64" pads_begin="3,3" pads_end="3,3" strides="2,2"/>
			<input>
				<port id="0">
					<dim>1</dim>
					<dim>3</dim>
					<dim>224</dim>
					<dim>224</dim>
				</port>
				<port id="1">
					<dim>64</dim>
					<dim>3</dim>
					<dim>7</dim>
					<dim>7</dim>
				</port>
				<port id="2">
					<dim>64</dim>
				</port>
			</input>
			<output>
				<port id="3">
					<dim>1</dim>
					<dim>64</dim>
					<dim>112</dim>
					<dim>112</dim>
				</port>
			</output>
		</layer>
		<layer id="15" name="323" precision="FP32" type="ReLU">
			<input>
				<port id="0">
					<dim>1</dim>
					<dim>64</dim>
					<dim>112</dim>
					<dim>112</dim>
				</port>
			</input>
			<output>
				<port id="1">
					<dim>1</dim>
					<dim>64</dim>
					<dim>112</dim>
					<dim>112</dim>
				</port>
			</output>
		</layer>
		<layer id="16" name="1457514579_const" precision="FP32" type="Const">
			<output>
				<port id="1"/>
			</output>
			<blobs>
				<custom offset="37928" size="4"/>
			</blobs>
		</layer>
		<layer id="17" name="1457614580_const" precision="FP32" type="Const">
			<output>
				<port id="1"/>
			</output>
			<blobs>
				<custom offset="37932" size="4"/>
			</blobs>
		</layer>
		<layer id="18" name="1457714581_const" precision="FP32" type="Const">
			<output>
				<port id="1"/>
			</output>
			<blobs>
				<custom offset="37928" size="4"/>
			</blobs>
		</layer>
		<layer id="19" name="1457814582_const" precision="FP32" type="Const">
			<output>
				<port id="1"/>
			</output>
			<blobs>
				<custom offset="37932" size="4"/>
			</blobs>
		</layer>
		<layer id="20" name="324/fq_input_0" precision="FP32" type="FakeQuantize">
			<data levels="256.0"/>
			<input>
				<port id="0">
					<dim>1</dim>
					<dim>64</dim>
					<dim>112</dim>
					<dim>112</dim>
				</port>
				<port id="1"/>
				<port id="2"/>
				<port id="3"/>
				<port id="4"/>
			</input>
			<output>
				<port id="5">
					<dim>1</dim>
					<dim>64</dim>
					<dim>112</dim>
					<dim>112</dim>
				</port>
			</output>
		</layer>
		<layer id="21" name="324" precision="FP32" type="Pooling">
			<data exclude-pad="true" kernel="3,3" pads_begin="1,1" pads_end="1,1" pool-method="max" rounding_type="floor" strides="2,2"/>
			<input>
				<port id="0">
					<dim>1</dim>
					<dim>64</dim>
					<dim>112</dim>
					<dim>112</dim>
				</port>
			</input>
			<output>
				<port id="1">
					<dim>1</dim>
					<dim>64</dim>
					<dim>56</dim>
					<dim>56</dim>
				</port>
			</output>
		</layer>
		<layer id="22" name="Mul1_6211/Fused_Mul_81438145_const" precision="FP32" type="Const">
			<output>
				<port id="1">
					<dim>64</dim>
					<dim>64</dim>
					<dim>1</dim>
					<dim>1</dim>
				</port>
			</output>
			<blobs>
				<custom offset="37936" size="16384"/>
			</blobs>
		</layer>
		<layer id="23" name="1259612600_const" precision="FP32" type="Const">
			<output>
				<port id="1"/>
			</output>
			<blobs>
				<custom offset="54320" size="4"/>
			</blobs>
		</layer>
		<layer id="24" name="1259712601_const" precision="FP32" type="Const">
			<output>
				<port id="1"/>
			</output>
			<blobs>
				<custom offset="54324" size="4"/>
			</blobs>
		</layer>
		<layer id="25" name="1259812602_const" precision="FP32" type="Const">
			<output>
				<port id="1"/>
			</output>
			<blobs>
				<custom offset="54320" size="4"/>
			</blobs>
		</layer>
		<layer id="26" name="1259912603_const" precision="FP32" type="Const">
			<output>
				<port id="1"/>
			</output>
			<blobs>
				<custom offset="54324" size="4"/>
			</blobs>
		</layer>
		<layer id="27" name="325/fq_weights_1" precision="FP32" type="FakeQuantize">
			<data levels="255.0"/>
			<input>
				<port id="0">
					<dim>64</dim>
					<dim>64</dim>
					<dim>1</dim>
					<dim>1</dim>
				</port>
				<port id="1"/>
				<port id="2"/>
				<port id="3"/>
				<port id="4"/>
			</input>
			<output>
				<port id="5">
					<dim>64</dim>
					<dim>64</dim>
					<dim>1</dim>
					<dim>1</dim>
				</port>
			</output>
		</layer>
		<layer id="28" name="bias_data81468147_const" precision="FP32" type="Const">
			<output>
				<port id="1">
					<dim>64</dim>
				</port>
			</output>
			<blobs>
				<custom offset="54328" size="256"/>
			</blobs>
		</layer>
		<layer id="29" name="325" precision="FP32" type="Convolution">
			<data dilations="1,1" group="1" kernel="1,1" output="64" pads_begin="0,0" pads_end="0,0" strides="1,1"/>
			<input>
				<port id="0">
					<dim>1</dim>
					<dim>64</dim>
					<dim>56</dim>
					<dim>56</dim>
				</port>
				<port id="1">
					<dim>64</dim>
					<dim>64</dim>
					<dim>1</dim>
					<dim>1</dim>
				</port>
				<port id="2">
					<dim>64</dim>
				</port>
			</input>
			<output>
				<port id="3">
					<dim>1</dim>
					<dim>64</dim>
					<dim>56</dim>
					<dim>56</dim>
				</port>
			</output>
		</layer>
		<layer id="30" name="327" precision="FP32" type="ReLU">
			<input>
				<port id="0">
					<dim>1</dim>
					<dim>64</dim>
					<dim>56</dim>
					<dim>56</dim>
				</port>
			</input>
			<output>
				<port id="1">
					<dim>1</dim>
					<dim>64</dim>
					<dim>56</dim>
					<dim>56</dim>
				</port>
			</output>
		</layer>
		<layer id="31" name="1386613870_const" precision="FP32" type="Const">
			<output>
				<port id="1"/>
			</output>
			<blobs>
				<custom offset="37928" size="4"/>
			</blobs>
		</layer>
		<layer id="32" name="1386713871_const" precision="FP32" type="Const">
			<output>
				<port id="1"/>
			</output>
			<blobs>
				<custom offset="54584" size="4"/>
			</blobs>
		</layer>
		<layer id="33" name="1386813872_const" precision="FP32" type="Const">
			<output>
				<port id="1"/>
			</output>
			<blobs>
				<custom offset="37928" size="4"/>
			</blobs>
		</layer>
		<layer id="34" name="1386913873_const" precision="FP32" type="Const">
			<output>
				<port id="1"/>
			</output>
			<blobs>
				<custom offset="54584" size="4"/>
			</blobs>
		</layer>
		<layer id="35" name="328/fq_input_0" precision="FP32" type="FakeQuantize">
			<data levels="256.0"/>
			<input>
				<port id="0">
					<dim>1</dim>
					<dim>64</dim>
					<dim>56</dim>
					<dim>56</dim>
				</port>
				<port id="1"/>
				<port id="2"/>
				<port id="3"/>
				<port id="4"/>
			</input>
			<output>
				<port id="5">
					<dim>1</dim>
					<dim>64</dim>
					<dim>56</dim>
					<dim>56</dim>
				</port>
			</output>
		</layer>
		<layer id="36" name="Mul1_6223/Fused_Mul_81498151_const" precision="FP32" type="Const">
			<output>
				<port id="1">
					<dim>64</dim>
					<dim>64</dim>
					<dim>3</dim>
					<dim>3</dim>
				</port>
			</output>
			<blobs>
				<custom offset="54588" size="147456"/>
			</blobs>
		</layer>
		<layer id="37" name="1387613880_const" precision="FP32" type="Const">
			<output>
				<port id="1"/>
			</output>
			<blobs>
				<custom offset="202044" size="4"/>
			</blobs>
		</layer>
		<layer id="38" name="1387713881_const" precision="FP32" type="Const">
			<output>
				<port id="1"/>
			</output>
			<blobs>
				<custom offset="202048" size="4"/>
			</blobs>
		</layer>
		<layer id="39" name="1387813882_const" precision="FP32" type="Const">
			<output>
				<port id="1"/>
			</output>
			<blobs>
				<custom offset="202044" size="4"/>
			</blobs>
		</layer>
		<layer id="40" name="1387913883_const" precision="FP32" type="Const">
			<output>
				<port id="1"/>
			</output>
			<blobs>
				<custom offset="202048" size="4"/>
			</blobs>
		</layer>
		<layer id="41" name="328/fq_weights_1" precision="FP32" type="FakeQuantize">
			<data levels="255.0"/>
			<input>
				<port id="0">
					<dim>64</dim>
					<dim>64</dim>
					<dim>3</dim>
					<dim>3</dim>
				</port>
				<port id="1"/>
				<port id="2"/>
				<port id="3"/>
				<port id="4"/>
			</input>
			<output>
				<port id="5">
					<dim>64</dim>
					<dim>64</dim>
					<dim>3</dim>
					<dim>3</dim>
				</port>
			</output>
		</layer>
		<layer id="42" name="bias_data81528153_const" precision="FP32" type="Const">
			<output>
				<port id="1">
					<dim>64</dim>
				</port>
			</output>
			<blobs>
				<custom offset="202052" size="256"/>
			</blobs>
		</layer>
		<layer id="43" name="328" precision="FP32" type="Convolution">
			<data dilations="1,1" group="1" kernel="3,3" output="64" pads_begin="1,1" pads_end="1,1" strides="1,1"/>
			<input>
				<port id="0">
					<dim>1</dim>
					<dim>64</dim>
					<dim>56</dim>
					<dim>56</dim>
				</port>
				<port id="1">
					<dim>64</dim>
					<dim>64</dim>
					<dim>3</dim>
					<dim>3</dim>
				</port>
				<port id="2">
					<dim>64</dim>
				</port>
			</input>
			<output>
				<port id="3">
					<dim>1</dim>
					<dim>64</dim>
					<dim>56</dim>
					<dim>56</dim>
				</port>
			</output>
		</layer>
		<layer id="44" name="330" precision="FP32" type="ReLU">
			<input>
				<port id="0">
					<dim>1</dim>
					<dim>64</dim>
					<dim>56</dim>
					<dim>56</dim>
				</port>
			</input>
			<output>
				<port id="1">
					<dim>1</dim>
					<dim>64</dim>
					<dim>56</dim>
					<dim>56</dim>
				</port>
			</output>
		</layer>
		<layer id="45" name="1254612550_const" precision="FP32" type="Const">
			<output>
				<port id="1"/>
			</output>
			<blobs>
				<custom offset="37928" size="4"/>
			</blobs>
		</layer>
		<layer id="46" name="1254712551_const" precision="FP32" type="Const">
			<output>
				<port id="1"/>
			</output>
			<blobs>
				<custom offset="202308" size="4"/>
			</blobs>
		</layer>
		<layer id="47" name="1254812552_const" precision="FP32" type="Const">
			<output>
				<port id="1"/>
			</output>
			<blobs>
				<custom offset="37928" size="4"/>
			</blobs>
		</layer>
		<layer id="48" name="1254912553_const" precision="FP32" type="Const">
			<output>
				<port id="1"/>
			</output>
			<blobs>
				<custom offset="202308" size="4"/>
			</blobs>
		</layer>
		<layer id="49" name="331/fq_input_0" precision="FP32" type="FakeQuantize">
			<data levels="256.0"/>
			<input>
				<port id="0">
					<dim>1</dim>
					<dim>64</dim>
					<dim>56</dim>
					<dim>56</dim>
				</port>
				<port id="1"/>
				<port id="2"/>
				<port id="3"/>
				<port id="4"/>
			</input>
			<output>
				<port id="5">
					<dim>1</dim>
					<dim>64</dim>
					<dim>56</dim>
					<dim>56</dim>
				</port>
			</output>
		</layer>
		<layer id="50" name="Mul1_6667/Fused_Mul_81558157_const" precision="FP32" type="Const">
			<output>
				<port id="1">
					<dim>256</dim>
					<dim>64</dim>
					<dim>1</dim>
					<dim>1</dim>
				</port>
			</output>
			<blobs>
				<custom offset="202312" size="65536"/>
			</blobs>
		</layer>
		<layer id="51" name="1255612560_const" precision="FP32" type="Const">
			<output>
				<port id="1"/>
			</output>
			<blobs>
				<custom offset="267848" size="4"/>
			</blobs>
		</layer>
		<layer id="52" name="1255712561_const" precision="FP32" type="Const">
			<output>
				<port id="1"/>
			</output>
			<blobs>
				<custom offset="267852" size="4"/>
			</blobs>
		</layer>
		<layer id="53" name="1255812562_const" precision="FP32" type="Const">
			<output>
				<port id="1"/>
			</output>
			<blobs>
				<custom offset="267848" size="4"/>
			</blobs>
		</layer>
		<layer id="54" name="1255912563_const" precision="FP32" type="Const">
			<output>
				<port id="1"/>
			</output>
			<blobs>
				<custom offset="267852" size="4"/>
			</blobs>
		</layer>
		<layer id="55" name="331/fq_weights_1" precision="FP32" type="FakeQuantize">
			<data levels="255.0"/>
			<input>
				<port id="0">
					<dim>256</dim>
					<dim>64</dim>
					<dim>1</dim>
					<dim>1</dim>
				</port>
				<port id="1"/>
				<port id="2"/>
				<port id="3"/>
				<port id="4"/>
			</input>
			<output>
				<port id="5">
					<dim>256</dim>
					<dim>64</dim>
					<dim>1</dim>
					<dim>1</dim>
				</port>
			</output>
		</layer>
		<layer id="56" name="bias_data81588159_const" precision="FP32" type="Const">
			<output>
				<port id="1">
					<dim>256</dim>
				</port>
			</output>
			<blobs>
				<custom offset="267856" size="1024"/>
			</blobs>
		</layer>
		<layer id="57" name="331" precision="FP32" type="Convolution">
			<data dilations="1,1" group="1" kernel="1,1" output="256" pads_begin="0,0" pads_end="0,0" strides="1,1"/>
			<input>
				<port id="0">
					<dim>1</dim>
					<dim>64</dim>
					<dim>56</dim>
					<dim>56</dim>
				</port>
				<port id="1">
					<dim>256</dim>
					<dim>64</dim>
					<dim>1</dim>
					<dim>1</dim>
				</port>
				<port id="2">
					<dim>256</dim>
				</port>
			</input>
			<output>
				<port id="3">
					<dim>1</dim>
					<dim>256</dim>
					<dim>56</dim>
					<dim>56</dim>
				</port>
			</output>
		</layer>
		<layer id="58" name="1380613810_const" precision="FP32" type="Const">
			<output>
				<port id="1"/>
			</output>
			<blobs>
				<custom offset="268880" size="4"/>
			</blobs>
		</layer>
		<layer id="59" name="1380713811_const" precision="FP32" type="Const">
			<output>
				<port id="1"/>
			</output>
			<blobs>
				<custom offset="268884" size="4"/>
			</blobs>
		</layer>
		<layer id="60" name="1380813812_const" precision="FP32" type="Const">
			<output>
				<port id="1"/>
			</output>
			<blobs>
				<custom offset="268880" size="4"/>
			</blobs>
		</layer>
		<layer id="61" name="1380913813_const" precision="FP32" type="Const">
			<output>
				<port id="1"/>
			</output>
			<blobs>
				<custom offset="268884" size="4"/>
			</blobs>
		</layer>
		<layer id="62" name="335/fq_input_0" precision="FP32" type="FakeQuantize">
			<data levels="256.0"/>
			<input>
				<port id="0">
					<dim>1</dim>
					<dim>256</dim>
					<dim>56</dim>
					<dim>56</dim>
				</port>
				<port id="1"/>
				<port id="2"/>
				<port id="3"/>
				<port id="4"/>
			</input>
			<output>
				<port id="5">
					<dim>1</dim>
					<dim>256</dim>
					<dim>56</dim>
					<dim>56</dim>
				</port>
			</output>
		</layer>
		<layer id="63" name="Mul1_6607/Fused_Mul_81618163_const" precision="FP32" type="Const">
			<output>
				<port id="1">
					<dim>256</dim>
					<dim>64</dim>
					<dim>1</dim>
					<dim>1</dim>
				</port>
			</output>
			<blobs>
				<custom offset="268888" size="65536"/>
			</blobs>
		</layer>
		<layer id="64" name="1366613670_const" precision="FP32" type="Const">
			<output>
				<port id="1"/>
			</output>
			<blobs>
				<custom offset="334424" size="4"/>
			</blobs>
		</layer>
		<layer id="65" name="1366713671_const" precision="FP32" type="Const">
			<output>
				<port id="1"/>
			</output>
			<blobs>
				<custom offset="334428" size="4"/>
			</blobs>
		</layer>
		<layer id="66" name="1366813672_const" precision="FP32" type="Const">
			<output>
				<port id="1"/>
			</output>
			<blobs>
				<custom offset="334424" size="4"/>
			</blobs>
		</layer>
		<layer id="67" name="1366913673_const" precision="FP32" type="Const">
			<output>
				<port id="1"/>
			</output>
			<blobs>
				<custom offset="334428" size="4"/>
			</blobs>
		</layer>
		<layer id="68" name="333/fq_weights_1" precision="FP32" type="FakeQuantize">
			<data levels="255.0"/>
			<input>
				<port id="0">
					<dim>256</dim>
					<dim>64</dim>
					<dim>1</dim>
					<dim>1</dim>
				</port>
				<port id="1"/>
				<port id="2"/>
				<port id="3"/>
				<port id="4"/>
			</input>
			<output>
				<port id="5">
					<dim>256</dim>
					<dim>64</dim>
					<dim>1</dim>
					<dim>1</dim>
				</port>
			</output>
		</layer>
		<layer id="69" name="bias_data81648165_const" precision="FP32" type="Const">
			<output>
				<port id="1">
					<dim>256</dim>
				</port>
			</output>
			<blobs>
				<custom offset="334432" size="1024"/>
			</blobs>
		</layer>
		<layer id="70" name="333" precision="FP32" type="Convolution">
			<data dilations="1,1" group="1" kernel="1,1" output="256" pads_begin="0,0" pads_end="0,0" strides="1,1"/>
			<input>
				<port id="0">
					<dim>1</dim>
					<dim>64</dim>
					<dim>56</dim>
					<dim>56</dim>
				</port>
				<port id="1">
					<dim>256</dim>
					<dim>64</dim>
					<dim>1</dim>
					<dim>1</dim>
				</port>
				<port id="2">
					<dim>256</dim>
				</port>
			</input>
			<output>
				<port id="3">
					<dim>1</dim>
					<dim>256</dim>
					<dim>56</dim>
					<dim>56</dim>
				</port>
			</output>
		</layer>
		<layer id="71" name="1381613820_const" precision="FP32" type="Const">
			<output>
				<port id="1"/>
			</output>
			<blobs>
				<custom offset="335456" size="4"/>
			</blobs>
		</layer>
		<layer id="72" name="1381713821_const" precision="FP32" type="Const">
			<output>
				<port id="1"/>
			</output>
			<blobs>
				<custom offset="335460" size="4"/>
			</blobs>
		</layer>
		<layer id="73" name="1381813822_const" precision="FP32" type="Const">
			<output>
				<port id="1"/>
			</output>
			<blobs>
				<custom offset="335456" size="4"/>
			</blobs>
		</layer>
		<layer id="74" name="1381913823_const" precision="FP32" type="Const">
			<output>
				<port id="1"/>
			</output>
			<blobs>
				<custom offset="335460" size="4"/>
			</blobs>
		</layer>
		<layer id="75" name="335/fq_input_1" precision="FP32" type="FakeQuantize">
			<data levels="256.0"/>
			<input>
				<port id="0">
					<dim>1</dim>
					<dim>256</dim>
					<dim>56</dim>
					<dim>56</dim>
				</port>
				<port id="1"/>
				<port id="2"/>
				<port id="3"/>
				<port id="4"/>
			</input>
			<output>
				<port id="5">
					<dim>1</dim>
					<dim>256</dim>
					<dim>56</dim>
					<dim>56</dim>
				</port>
			</output>
		</layer>
		<layer id="76" name="335" precision="FP32" type="Eltwise">
			<data operation="sum"/>
			<input>
				<port id="0">
					<dim>1</dim>
					<dim>256</dim>
					<dim>56</dim>
					<dim>56</dim>
				</port>
				<port id="1">
					<dim>1</dim>
					<dim>256</dim>
					<dim>56</dim>
					<dim>56</dim>
				</port>
			</input>
			<output>
				<port id="2">
					<dim>1</dim>
					<dim>256</dim>
					<dim>56</dim>
					<dim>56</dim>
				</port>
			</output>
		</layer>
		<layer id="77" name="336" precision="FP32" type="ReLU">
			<input>
				<port id="0">
					<dim>1</dim>
					<dim>256</dim>
					<dim>56</dim>
					<dim>56</dim>
				</port>
			</input>
			<output>
				<port id="1">
					<dim>1</dim>
					<dim>256</dim>
					<dim>56</dim>
					<dim>56</dim>
				</port>
			</output>
		</layer>
		<layer id="78" name="1308613090_const" precision="FP32" type="Const">
			<output>
				<port id="1"/>
			</output>
			<blobs>
				<custom offset="37928" size="4"/>
			</blobs>
		</layer>
		<layer id="79" name="1308713091_const" precision="FP32" type="Const">
			<output>
				<port id="1"/>
			</output>
			<blobs>
				<custom offset="335464" size="4"/>
			</blobs>
		</layer>
		<layer id="80" name="1308813092_const" precision="FP32" type="Const">
			<output>
				<port id="1"/>
			</output>
			<blobs>
				<custom offset="37928" size="4"/>
			</blobs>
		</layer>
		<layer id="81" name="1308913093_const" precision="FP32" type="Const">
			<output>
				<port id="1"/>
			</output>
			<blobs>
				<custom offset="335464" size="4"/>
			</blobs>
		</layer>
		<layer id="82" name="337/fq_input_0" precision="FP32" type="FakeQuantize">
			<data levels="256.0"/>
			<input>
				<port id="0">
					<dim>1</dim>
					<dim>256</dim>
					<dim>56</dim>
					<dim>56</dim>
				</port>
				<port id="1"/>
				<port id="2"/>
				<port id="3"/>
				<port id="4"/>
			</input>
			<output>
				<port id="5">
					<dim>1</dim>
					<dim>256</dim>
					<dim>56</dim>
					<dim>56</dim>
				</port>
			</output>
		</layer>
		<layer id="83" name="Mul1_6583/Fused_Mul_81678169_const" precision="FP32" type="Const">
			<output>
				<port id="1">
					<dim>64</dim>
					<dim>256</dim>
					<dim>1</dim>
					<dim>1</dim>
				</port>
			</output>
			<blobs>
				<custom offset="335468" size="65536"/>
			</blobs>
		</layer>
		<layer id="84" name="1309613100_const" precision="FP32" type="Const">
			<output>
				<port id="1"/>
			</output>
			<blobs>
				<custom offset="401004" size="4"/>
			</blobs>
		</layer>
		<layer id="85" name="1309713101_const" precision="FP32" type="Const">
			<output>
				<port id="1"/>
			</output>
			<blobs>
				<custom offset="401008" size="4"/>
			</blobs>
		</layer>
		<layer id="86" name="1309813102_const" precision="FP32" type="Const">
			<output>
				<port id="1"/>
			</output>
			<blobs>
				<custom offset="401004" size="4"/>
			</blobs>
		</layer>
		<layer id="87" name="1309913103_const" precision="FP32" type="Const">
			<output>
				<port id="1"/>
			</output>
			<blobs>
				<custom offset="401008" size="4"/>
			</blobs>
		</layer>
		<layer id="88" name="337/fq_weights_1" precision="FP32" type="FakeQuantize">
			<data levels="255.0"/>
			<input>
				<port id="0">
					<dim>64</dim>
					<dim>256</dim>
					<dim>1</dim>
					<dim>1</dim>
				</port>
				<port id="1"/>
				<port id="2"/>
				<port id="3"/>
				<port id="4"/>
			</input>
			<output>
				<port id="5">
					<dim>64</dim>
					<dim>256</dim>
					<dim>1</dim>
					<dim>1</dim>
				</port>
			</output>
		</layer>
		<layer id="89" name="bias_data81708171_const" precision="FP32" type="Const">
			<output>
				<port id="1">
					<dim>64</dim>
				</port>
			</output>
			<blobs>
				<custom offset="401012" size="256"/>
			</blobs>
		</layer>
		<layer id="90" name="337" precision="FP32" type="Convolution">
			<data dilations="1,1" group="1" kernel="1,1" output="64" pads_begin="0,0" pads_end="0,0" strides="1,1"/>
			<input>
				<port id="0">
					<dim>1</dim>
					<dim>256</dim>
					<dim>56</dim>
					<dim>56</dim>
				</port>
				<port id="1">
					<dim>64</dim>
					<dim>256</dim>
					<dim>1</dim>
					<dim>1</dim>
				</port>
				<port id="2">
					<dim>64</dim>
				</port>
			</input>
			<output>
				<port id="3">
					<dim>1</dim>
					<dim>64</dim>
					<dim>56</dim>
					<dim>56</dim>
				</port>
			</output>
		</layer>
		<layer id="91" name="339" precision="FP32" type="ReLU">
			<input>
				<port id="0">
					<dim>1</dim>
					<dim>64</dim>
					<dim>56</dim>
					<dim>56</dim>
				</port>
			</input>
			<output>
				<port id="1">
					<dim>1</dim>
					<dim>64</dim>
					<dim>56</dim>
					<dim>56</dim>
				</port>
			</output>
		</layer>
		<layer id="92" name="1377613780_const" precision="FP32" type="Const">
			<output>
				<port id="1"/>
			</output>
			<blobs>
				<custom offset="37928" size="4"/>
			</blobs>
		</layer>
		<layer id="93" name="1377713781_const" precision="FP32" type="Const">
			<output>
				<port id="1"/>
			</output>
			<blobs>
				<custom offset="401268" size="4"/>
			</blobs>
		</layer>
		<layer id="94" name="1377813782_const" precision="FP32" type="Const">
			<output>
				<port id="1"/>
			</output>
			<blobs>
				<custom offset="37928" size="4"/>
			</blobs>
		</layer>
		<layer id="95" name="1377913783_const" precision="FP32" type="Const">
			<output>
				<port id="1"/>
			</output>
			<blobs>
				<custom offset="401268" size="4"/>
			</blobs>
		</layer>
		<layer id="96" name="340/fq_input_0" precision="FP32" type="FakeQuantize">
			<data levels="256.0"/>
			<input>
				<port id="0">
					<dim>1</dim>
					<dim>64</dim>
					<dim>56</dim>
					<dim>56</dim>
				</port>
				<port id="1"/>
				<port id="2"/>
				<port id="3"/>
				<port id="4"/>
			</input>
			<output>
				<port id="5">
					<dim>1</dim>
					<dim>64</dim>
					<dim>56</dim>
					<dim>56</dim>
				</port>
			</output>
		</layer>
		<layer id="97" name="Mul1_6247/Fused_Mul_81738175_const" precision="FP32" type="Const">
			<output>
				<port id="1">
					<dim>64</dim>
					<dim>64</dim>
					<dim>3</dim>
					<dim>3</dim>
				</port>
			</output>
			<blobs>
				<custom offset="401272" size="147456"/>
			</blobs>
		</layer>
		<layer id="98" name="1378613790_const" precision="FP32" type="Const">
			<output>
				<port id="1"/>
			</output>
			<blobs>
				<custom offset="548728" size="4"/>
			</blobs>
		</layer>
		<layer id="99" name="1378713791_const" precision="FP32" type="Const">
			<output>
				<port id="1"/>
			</output>
			<blobs>
				<custom offset="548732" size="4"/>
			</blobs>
		</layer>
		<layer id="100" name="1378813792_const" precision="FP32" type="Const">
			<output>
				<port id="1"/>
			</output>
			<blobs>
				<custom offset="548728" size="4"/>
			</blobs>
		</layer>
		<layer id="101" name="1378913793_const" precision="FP32" type="Const">
			<output>
				<port id="1"/>
			</output>
			<blobs>
				<custom offset="548732" size="4"/>
			</blobs>
		</layer>
		<layer id="102" name="340/fq_weights_1" precision="FP32" type="FakeQuantize">
			<data levels="255.0"/>
			<input>
				<port id="0">
					<dim>64</dim>
					<dim>64</dim>
					<dim>3</dim>
					<dim>3</dim>
				</port>
				<port id="1"/>
				<port id="2"/>
				<port id="3"/>
				<port id="4"/>
			</input>
			<output>
				<port id="5">
					<dim>64</dim>
					<dim>64</dim>
					<dim>3</dim>
					<dim>3</dim>
				</port>
			</output>
		</layer>
		<layer id="103" name="bias_data81768177_const" precision="FP32" type="Const">
			<output>
				<port id="1">
					<dim>64</dim>
				</port>
			</output>
			<blobs>
				<custom offset="548736" size="256"/>
			</blobs>
		</layer>
		<layer id="104" name="340" precision="FP32" type="Convolution">
			<data dilations="1,1" group="1" kernel="3,3" output="64" pads_begin="1,1" pads_end="1,1" strides="1,1"/>
			<input>
				<port id="0">
					<dim>1</dim>
					<dim>64</dim>
					<dim>56</dim>
					<dim>56</dim>
				</port>
				<port id="1">
					<dim>64</dim>
					<dim>64</dim>
					<dim>3</dim>
					<dim>3</dim>
				</port>
				<port id="2">
					<dim>64</dim>
				</port>
			</input>
			<output>
				<port id="3">
					<dim>1</dim>
					<dim>64</dim>
					<dim>56</dim>
					<dim>56</dim>
				</port>
			</output>
		</layer>
		<layer id="105" name="342" precision="FP32" type="ReLU">
			<input>
				<port id="0">
					<dim>1</dim>
					<dim>64</dim>
					<dim>56</dim>
					<dim>56</dim>
				</port>
			</input>
			<output>
				<port id="1">
					<dim>1</dim>
					<dim>64</dim>
					<dim>56</dim>
					<dim>56</dim>
				</port>
			</output>
		</layer>
		<layer id="106" name="1375613760_const" precision="FP32" type="Const">
			<output>
				<port id="1"/>
			</output>
			<blobs>
				<custom offset="37928" size="4"/>
			</blobs>
		</layer>
		<layer id="107" name="1375713761_const" precision="FP32" type="Const">
			<output>
				<port id="1"/>
			</output>
			<blobs>
				<custom offset="548992" size="4"/>
			</blobs>
		</layer>
		<layer id="108" name="1375813762_const" precision="FP32" type="Const">
			<output>
				<port id="1"/>
			</output>
			<blobs>
				<custom offset="37928" size="4"/>
			</blobs>
		</layer>
		<layer id="109" name="1375913763_const" precision="FP32" type="Const">
			<output>
				<port id="1"/>
			</output>
			<blobs>
				<custom offset="548992" size="4"/>
			</blobs>
		</layer>
		<layer id="110" name="343/fq_input_0" precision="FP32" type="FakeQuantize">
			<data levels="256.0"/>
			<input>
				<port id="0">
					<dim>1</dim>
					<dim>64</dim>
					<dim>56</dim>
					<dim>56</dim>
				</port>
				<port id="1"/>
				<port id="2"/>
				<port id="3"/>
				<port id="4"/>
			</input>
			<output>
				<port id="5">
					<dim>1</dim>
					<dim>64</dim>
					<dim>56</dim>
					<dim>56</dim>
				</port>
			</output>
		</layer>
		<layer id="111" name="Mul1_6427/Fused_Mul_81798181_const" precision="FP32" type="Const">
			<output>
				<port id="1">
					<dim>256</dim>
					<dim>64</dim>
					<dim>1</dim>
					<dim>1</dim>
				</port>
			</output>
			<blobs>
				<custom offset="548996" size="65536"/>
			</blobs>
		</layer>
		<layer id="112" name="1376613770_const" precision="FP32" type="Const">
			<output>
				<port id="1"/>
			</output>
			<blobs>
				<custom offset="614532" size="4"/>
			</blobs>
		</layer>
		<layer id="113" name="1376713771_const" precision="FP32" type="Const">
			<output>
				<port id="1"/>
			</output>
			<blobs>
				<custom offset="614536" size="4"/>
			</blobs>
		</layer>
		<layer id="114" name="1376813772_const" precision="FP32" type="Const">
			<output>
				<port id="1"/>
			</output>
			<blobs>
				<custom offset="614532" size="4"/>
			</blobs>
		</layer>
		<layer id="115" name="1376913773_const" precision="FP32" type="Const">
			<output>
				<port id="1"/>
			</output>
			<blobs>
				<custom offset="614536" size="4"/>
			</blobs>
		</layer>
		<layer id="116" name="343/fq_weights_1" precision="FP32" type="FakeQuantize">
			<data levels="255.0"/>
			<input>
				<port id="0">
					<dim>256</dim>
					<dim>64</dim>
					<dim>1</dim>
					<dim>1</dim>
				</port>
				<port id="1"/>
				<port id="2"/>
				<port id="3"/>
				<port id="4"/>
			</input>
			<output>
				<port id="5">
					<dim>256</dim>
					<dim>64</dim>
					<dim>1</dim>
					<dim>1</dim>
				</port>
			</output>
		</layer>
		<layer id="117" name="bias_data81828183_const" precision="FP32" type="Const">
			<output>
				<port id="1">
					<dim>256</dim>
				</port>
			</output>
			<blobs>
				<custom offset="614540" size="1024"/>
			</blobs>
		</layer>
		<layer id="118" name="343" precision="FP32" type="Convolution">
			<data dilations="1,1" group="1" kernel="1,1" output="256" pads_begin="0,0" pads_end="0,0" strides="1,1"/>
			<input>
				<port id="0">
					<dim>1</dim>
					<dim>64</dim>
					<dim>56</dim>
					<dim>56</dim>
				</port>
				<port id="1">
					<dim>256</dim>
					<dim>64</dim>
					<dim>1</dim>
					<dim>1</dim>
				</port>
				<port id="2">
					<dim>256</dim>
				</port>
			</input>
			<output>
				<port id="3">
					<dim>1</dim>
					<dim>256</dim>
					<dim>56</dim>
					<dim>56</dim>
				</port>
			</output>
		</layer>
		<layer id="119" name="1329613300_const" precision="FP32" type="Const">
			<output>
				<port id="1"/>
			</output>
			<blobs>
				<custom offset="615564" size="4"/>
			</blobs>
		</layer>
		<layer id="120" name="1329713301_const" precision="FP32" type="Const">
			<output>
				<port id="1"/>
			</output>
			<blobs>
				<custom offset="615568" size="4"/>
			</blobs>
		</layer>
		<layer id="121" name="1329813302_const" precision="FP32" type="Const">
			<output>
				<port id="1"/>
			</output>
			<blobs>
				<custom offset="615564" size="4"/>
			</blobs>
		</layer>
		<layer id="122" name="1329913303_const" precision="FP32" type="Const">
			<output>
				<port id="1"/>
			</output>
			<blobs>
				<custom offset="615568" size="4"/>
			</blobs>
		</layer>
		<layer id="123" name="345/fq_input_0" precision="FP32" type="FakeQuantize">
			<data levels="256.0"/>
			<input>
				<port id="0">
					<dim>1</dim>
					<dim>256</dim>
					<dim>56</dim>
					<dim>56</dim>
				</port>
				<port id="1"/>
				<port id="2"/>
				<port id="3"/>
				<port id="4"/>
			</input>
			<output>
				<port id="5">
					<dim>1</dim>
					<dim>256</dim>
					<dim>56</dim>
					<dim>56</dim>
				</port>
			</output>
		</layer>
		<layer id="124" name="345" precision="FP32" type="Eltwise">
			<data operation="sum"/>
			<input>
				<port id="0">
					<dim>1</dim>
					<dim>256</dim>
					<dim>56</dim>
					<dim>56</dim>
				</port>
				<port id="1">
					<dim>1</dim>
					<dim>256</dim>
					<dim>56</dim>
					<dim>56</dim>
				</port>
			</input>
			<output>
				<port id="2">
					<dim>1</dim>
					<dim>256</dim>
					<dim>56</dim>
					<dim>56</dim>
				</port>
			</output>
		</layer>
		<layer id="125" name="346" precision="FP32" type="ReLU">
			<input>
				<port id="0">
					<dim>1</dim>
					<dim>256</dim>
					<dim>56</dim>
					<dim>56</dim>
				</port>
			</input>
			<output>
				<port id="1">
					<dim>1</dim>
					<dim>256</dim>
					<dim>56</dim>
					<dim>56</dim>
				</port>
			</output>
		</layer>
		<layer id="126" name="1269612700_const" precision="FP32" type="Const">
			<output>
				<port id="1"/>
			</output>
			<blobs>
				<custom offset="37928" size="4"/>
			</blobs>
		</layer>
		<layer id="127" name="1269712701_const" precision="FP32" type="Const">
			<output>
				<port id="1"/>
			</output>
			<blobs>
				<custom offset="615572" size="4"/>
			</blobs>
		</layer>
		<layer id="128" name="1269812702_const" precision="FP32" type="Const">
			<output>
				<port id="1"/>
			</output>
			<blobs>
				<custom offset="37928" size="4"/>
			</blobs>
		</layer>
		<layer id="129" name="1269912703_const" precision="FP32" type="Const">
			<output>
				<port id="1"/>
			</output>
			<blobs>
				<custom offset="615572" size="4"/>
			</blobs>
		</layer>
		<layer id="130" name="355/fq_input_1" precision="FP32" type="FakeQuantize">
			<data levels="256.0"/>
			<input>
				<port id="0">
					<dim>1</dim>
					<dim>256</dim>
					<dim>56</dim>
					<dim>56</dim>
				</port>
				<port id="1"/>
				<port id="2"/>
				<port id="3"/>
				<port id="4"/>
			</input>
			<output>
				<port id="5">
					<dim>1</dim>
					<dim>256</dim>
					<dim>56</dim>
					<dim>56</dim>
				</port>
			</output>
		</layer>
		<layer id="131" name="Mul1_6643/Fused_Mul_81858187_const" precision="FP32" type="Const">
			<output>
				<port id="1">
					<dim>64</dim>
					<dim>256</dim>
					<dim>1</dim>
					<dim>1</dim>
				</port>
			</output>
			<blobs>
				<custom offset="615576" size="65536"/>
			</blobs>
		</layer>
		<layer id="132" name="1362613630_const" precision="FP32" type="Const">
			<output>
				<port id="1"/>
			</output>
			<blobs>
				<custom offset="681112" size="4"/>
			</blobs>
		</layer>
		<layer id="133" name="1362713631_const" precision="FP32" type="Const">
			<output>
				<port id="1"/>
			</output>
			<blobs>
				<custom offset="681116" size="4"/>
			</blobs>
		</layer>
		<layer id="134" name="1362813632_const" precision="FP32" type="Const">
			<output>
				<port id="1"/>
			</output>
			<blobs>
				<custom offset="681112" size="4"/>
			</blobs>
		</layer>
		<layer id="135" name="1362913633_const" precision="FP32" type="Const">
			<output>
				<port id="1"/>
			</output>
			<blobs>
				<custom offset="681116" size="4"/>
			</blobs>
		</layer>
		<layer id="136" name="347/fq_weights_1" precision="FP32" type="FakeQuantize">
			<data levels="255.0"/>
			<input>
				<port id="0">
					<dim>64</dim>
					<dim>256</dim>
					<dim>1</dim>
					<dim>1</dim>
				</port>
				<port id="1"/>
				<port id="2"/>
				<port id="3"/>
				<port id="4"/>
			</input>
			<output>
				<port id="5">
					<dim>64</dim>
					<dim>256</dim>
					<dim>1</dim>
					<dim>1</dim>
				</port>
			</output>
		</layer>
		<layer id="137" name="bias_data81888189_const" precision="FP32" type="Const">
			<output>
				<port id="1">
					<dim>64</dim>
				</port>
			</output>
			<blobs>
				<custom offset="681120" size="256"/>
			</blobs>
		</layer>
		<layer id="138" name="347" precision="FP32" type="Convolution">
			<data dilations="1,1" group="1" kernel="1,1" output="64" pads_begin="0,0" pads_end="0,0" strides="1,1"/>
			<input>
				<port id="0">
					<dim>1</dim>
					<dim>256</dim>
					<dim>56</dim>
					<dim>56</dim>
				</port>
				<port id="1">
					<dim>64</dim>
					<dim>256</dim>
					<dim>1</dim>
					<dim>1</dim>
				</port>
				<port id="2">
					<dim>64</dim>
				</port>
			</input>
			<output>
				<port id="3">
					<dim>1</dim>
					<dim>64</dim>
					<dim>56</dim>
					<dim>56</dim>
				</port>
			</output>
		</layer>
		<layer id="139" name="349" precision="FP32" type="ReLU">
			<input>
				<port id="0">
					<dim>1</dim>
					<dim>64</dim>
					<dim>56</dim>
					<dim>56</dim>
				</port>
			</input>
			<output>
				<port id="1">
					<dim>1</dim>
					<dim>64</dim>
					<dim>56</dim>
					<dim>56</dim>
				</port>
			</output>
		</layer>
		<layer id="140" name="1262612630_const" precision="FP32" type="Const">
			<output>
				<port id="1"/>
			</output>
			<blobs>
				<custom offset="37928" size="4"/>
			</blobs>
		</layer>
		<layer id="141" name="1262712631_const" precision="FP32" type="Const">
			<output>
				<port id="1"/>
			</output>
			<blobs>
				<custom offset="681376" size="4"/>
			</blobs>
		</layer>
		<layer id="142" name="1262812632_const" precision="FP32" type="Const">
			<output>
				<port id="1"/>
			</output>
			<blobs>
				<custom offset="37928" size="4"/>
			</blobs>
		</layer>
		<layer id="143" name="1262912633_const" precision="FP32" type="Const">
			<output>
				<port id="1"/>
			</output>
			<blobs>
				<custom offset="681376" size="4"/>
			</blobs>
		</layer>
		<layer id="144" name="350/fq_input_0" precision="FP32" type="FakeQuantize">
			<data levels="256.0"/>
			<input>
				<port id="0">
					<dim>1</dim>
					<dim>64</dim>
					<dim>56</dim>
					<dim>56</dim>
				</port>
				<port id="1"/>
				<port id="2"/>
				<port id="3"/>
				<port id="4"/>
			</input>
			<output>
				<port id="5">
					<dim>1</dim>
					<dim>64</dim>
					<dim>56</dim>
					<dim>56</dim>
				</port>
			</output>
		</layer>
		<layer id="145" name="Mul1_6679/Fused_Mul_81918193_const" precision="FP32" type="Const">
			<output>
				<port id="1">
					<dim>64</dim>
					<dim>64</dim>
					<dim>3</dim>
					<dim>3</dim>
				</port>
			</output>
			<blobs>
				<custom offset="681380" size="147456"/>
			</blobs>
		</layer>
		<layer id="146" name="1263612640_const" precision="FP32" type="Const">
			<output>
				<port id="1"/>
			</output>
			<blobs>
				<custom offset="828836" size="4"/>
			</blobs>
		</layer>
		<layer id="147" name="1263712641_const" precision="FP32" type="Const">
			<output>
				<port id="1"/>
			</output>
			<blobs>
				<custom offset="828840" size="4"/>
			</blobs>
		</layer>
		<layer id="148" name="1263812642_const" precision="FP32" type="Const">
			<output>
				<port id="1"/>
			</output>
			<blobs>
				<custom offset="828836" size="4"/>
			</blobs>
		</layer>
		<layer id="149" name="1263912643_const" precision="FP32" type="Const">
			<output>
				<port id="1"/>
			</output>
			<blobs>
				<custom offset="828840" size="4"/>
			</blobs>
		</layer>
		<layer id="150" name="350/fq_weights_1" precision="FP32" type="FakeQuantize">
			<data levels="255.0"/>
			<input>
				<port id="0">
					<dim>64</dim>
					<dim>64</dim>
					<dim>3</dim>
					<dim>3</dim>
				</port>
				<port id="1"/>
				<port id="2"/>
				<port id="3"/>
				<port id="4"/>
			</input>
			<output>
				<port id="5">
					<dim>64</dim>
					<dim>64</dim>
					<dim>3</dim>
					<dim>3</dim>
				</port>
			</output>
		</layer>
		<layer id="151" name="bias_data81948195_const" precision="FP32" type="Const">
			<output>
				<port id="1">
					<dim>64</dim>
				</port>
			</output>
			<blobs>
				<custom offset="828844" size="256"/>
			</blobs>
		</layer>
		<layer id="152" name="350" precision="FP32" type="Convolution">
			<data dilations="1,1" group="1" kernel="3,3" output="64" pads_begin="1,1" pads_end="1,1" strides="1,1"/>
			<input>
				<port id="0">
					<dim>1</dim>
					<dim>64</dim>
					<dim>56</dim>
					<dim>56</dim>
				</port>
				<port id="1">
					<dim>64</dim>
					<dim>64</dim>
					<dim>3</dim>
					<dim>3</dim>
				</port>
				<port id="2">
					<dim>64</dim>
				</port>
			</input>
			<output>
				<port id="3">
					<dim>1</dim>
					<dim>64</dim>
					<dim>56</dim>
					<dim>56</dim>
				</port>
			</output>
		</layer>
		<layer id="153" name="352" precision="FP32" type="ReLU">
			<input>
				<port id="0">
					<dim>1</dim>
					<dim>64</dim>
					<dim>56</dim>
					<dim>56</dim>
				</port>
			</input>
			<output>
				<port id="1">
					<dim>1</dim>
					<dim>64</dim>
					<dim>56</dim>
					<dim>56</dim>
				</port>
			</output>
		</layer>
		<layer id="154" name="1288612890_const" precision="FP32" type="Const">
			<output>
				<port id="1"/>
			</output>
			<blobs>
				<custom offset="37928" size="4"/>
			</blobs>
		</layer>
		<layer id="155" name="1288712891_const" precision="FP32" type="Const">
			<output>
				<port id="1"/>
			</output>
			<blobs>
				<custom offset="829100" size="4"/>
			</blobs>
		</layer>
		<layer id="156" name="1288812892_const" precision="FP32" type="Const">
			<output>
				<port id="1"/>
			</output>
			<blobs>
				<custom offset="37928" size="4"/>
			</blobs>
		</layer>
		<layer id="157" name="1288912893_const" precision="FP32" type="Const">
			<output>
				<port id="1"/>
			</output>
			<blobs>
				<custom offset="829100" size="4"/>
			</blobs>
		</layer>
		<layer id="158" name="353/fq_input_0" precision="FP32" type="FakeQuantize">
			<data levels="256.0"/>
			<input>
				<port id="0">
					<dim>1</dim>
					<dim>64</dim>
					<dim>56</dim>
					<dim>56</dim>
				</port>
				<port id="1"/>
				<port id="2"/>
				<port id="3"/>
				<port id="4"/>
			</input>
			<output>
				<port id="5">
					<dim>1</dim>
					<dim>64</dim>
					<dim>56</dim>
					<dim>56</dim>
				</port>
			</output>
		</layer>
		<layer id="159" name="Mul1_6259/Fused_Mul_81978199_const" precision="FP32" type="Const">
			<output>
				<port id="1">
					<dim>256</dim>
					<dim>64</dim>
					<dim>1</dim>
					<dim>1</dim>
				</port>
			</output>
			<blobs>
				<custom offset="829104" size="65536"/>
			</blobs>
		</layer>
		<layer id="160" name="1289612900_const" precision="FP32" type="Const">
			<output>
				<port id="1"/>
			</output>
			<blobs>
				<custom offset="894640" size="4"/>
			</blobs>
		</layer>
		<layer id="161" name="1289712901_const" precision="FP32" type="Const">
			<output>
				<port id="1"/>
			</output>
			<blobs>
				<custom offset="894644" size="4"/>
			</blobs>
		</layer>
		<layer id="162" name="1289812902_const" precision="FP32" type="Const">
			<output>
				<port id="1"/>
			</output>
			<blobs>
				<custom offset="894640" size="4"/>
			</blobs>
		</layer>
		<layer id="163" name="1289912903_const" precision="FP32" type="Const">
			<output>
				<port id="1"/>
			</output>
			<blobs>
				<custom offset="894644" size="4"/>
			</blobs>
		</layer>
		<layer id="164" name="353/fq_weights_1" precision="FP32" type="FakeQuantize">
			<data levels="255.0"/>
			<input>
				<port id="0">
					<dim>256</dim>
					<dim>64</dim>
					<dim>1</dim>
					<dim>1</dim>
				</port>
				<port id="1"/>
				<port id="2"/>
				<port id="3"/>
				<port id="4"/>
			</input>
			<output>
				<port id="5">
					<dim>256</dim>
					<dim>64</dim>
					<dim>1</dim>
					<dim>1</dim>
				</port>
			</output>
		</layer>
		<layer id="165" name="bias_data82008201_const" precision="FP32" type="Const">
			<output>
				<port id="1">
					<dim>256</dim>
				</port>
			</output>
			<blobs>
				<custom offset="894648" size="1024"/>
			</blobs>
		</layer>
		<layer id="166" name="353" precision="FP32" type="Convolution">
			<data dilations="1,1" group="1" kernel="1,1" output="256" pads_begin="0,0" pads_end="0,0" strides="1,1"/>
			<input>
				<port id="0">
					<dim>1</dim>
					<dim>64</dim>
					<dim>56</dim>
					<dim>56</dim>
				</port>
				<port id="1">
					<dim>256</dim>
					<dim>64</dim>
					<dim>1</dim>
					<dim>1</dim>
				</port>
				<port id="2">
					<dim>256</dim>
				</port>
			</input>
			<output>
				<port id="3">
					<dim>1</dim>
					<dim>256</dim>
					<dim>56</dim>
					<dim>56</dim>
				</port>
			</output>
		</layer>
		<layer id="167" name="1268612690_const" precision="FP32" type="Const">
			<output>
				<port id="1"/>
			</output>
			<blobs>
				<custom offset="895672" size="4"/>
			</blobs>
		</layer>
		<layer id="168" name="1268712691_const" precision="FP32" type="Const">
			<output>
				<port id="1"/>
			</output>
			<blobs>
				<custom offset="895676" size="4"/>
			</blobs>
		</layer>
		<layer id="169" name="1268812692_const" precision="FP32" type="Const">
			<output>
				<port id="1"/>
			</output>
			<blobs>
				<custom offset="895672" size="4"/>
			</blobs>
		</layer>
		<layer id="170" name="1268912693_const" precision="FP32" type="Const">
			<output>
				<port id="1"/>
			</output>
			<blobs>
				<custom offset="895676" size="4"/>
			</blobs>
		</layer>
		<layer id="171" name="355/fq_input_0" precision="FP32" type="FakeQuantize">
			<data levels="256.0"/>
			<input>
				<port id="0">
					<dim>1</dim>
					<dim>256</dim>
					<dim>56</dim>
					<dim>56</dim>
				</port>
				<port id="1"/>
				<port id="2"/>
				<port id="3"/>
				<port id="4"/>
			</input>
			<output>
				<port id="5">
					<dim>1</dim>
					<dim>256</dim>
					<dim>56</dim>
					<dim>56</dim>
				</port>
			</output>
		</layer>
		<layer id="172" name="355" precision="FP32" type="Eltwise">
			<data operation="sum"/>
			<input>
				<port id="0">
					<dim>1</dim>
					<dim>256</dim>
					<dim>56</dim>
					<dim>56</dim>
				</port>
				<port id="1">
					<dim>1</dim>
					<dim>256</dim>
					<dim>56</dim>
					<dim>56</dim>
				</port>
			</input>
			<output>
				<port id="2">
					<dim>1</dim>
					<dim>256</dim>
					<dim>56</dim>
					<dim>56</dim>
				</port>
			</output>
		</layer>
		<layer id="173" name="356" precision="FP32" type="ReLU">
			<input>
				<port id="0">
					<dim>1</dim>
					<dim>256</dim>
					<dim>56</dim>
					<dim>56</dim>
				</port>
			</input>
			<output>
				<port id="1">
					<dim>1</dim>
					<dim>256</dim>
					<dim>56</dim>
					<dim>56</dim>
				</port>
			</output>
		</layer>
		<layer id="174" name="1345613460_const" precision="FP32" type="Const">
			<output>
				<port id="1"/>
			</output>
			<blobs>
				<custom offset="37928" size="4"/>
			</blobs>
		</layer>
		<layer id="175" name="1345713461_const" precision="FP32" type="Const">
			<output>
				<port id="1"/>
			</output>
			<blobs>
				<custom offset="895680" size="4"/>
			</blobs>
		</layer>
		<layer id="176" name="1345813462_const" precision="FP32" type="Const">
			<output>
				<port id="1"/>
			</output>
			<blobs>
				<custom offset="37928" size="4"/>
			</blobs>
		</layer>
		<layer id="177" name="1345913463_const" precision="FP32" type="Const">
			<output>
				<port id="1"/>
			</output>
			<blobs>
				<custom offset="895680" size="4"/>
			</blobs>
		</layer>
		<layer id="178" name="357/fq_input_0" precision="FP32" type="FakeQuantize">
			<data levels="256.0"/>
			<input>
				<port id="0">
					<dim>1</dim>
					<dim>256</dim>
					<dim>56</dim>
					<dim>56</dim>
				</port>
				<port id="1"/>
				<port id="2"/>
				<port id="3"/>
				<port id="4"/>
			</input>
			<output>
				<port id="5">
					<dim>1</dim>
					<dim>256</dim>
					<dim>56</dim>
					<dim>56</dim>
				</port>
			</output>
		</layer>
		<layer id="179" name="Mul1_6595/Fused_Mul_82098211_const" precision="FP32" type="Const">
			<output>
				<port id="1">
					<dim>128</dim>
					<dim>256</dim>
					<dim>1</dim>
					<dim>1</dim>
				</port>
			</output>
			<blobs>
				<custom offset="895684" size="131072"/>
			</blobs>
		</layer>
		<layer id="180" name="1346613470_const" precision="FP32" type="Const">
			<output>
				<port id="1"/>
			</output>
			<blobs>
				<custom offset="1026756" size="4"/>
			</blobs>
		</layer>
		<layer id="181" name="1346713471_const" precision="FP32" type="Const">
			<output>
				<port id="1"/>
			</output>
			<blobs>
				<custom offset="1026760" size="4"/>
			</blobs>
		</layer>
		<layer id="182" name="1346813472_const" precision="FP32" type="Const">
			<output>
				<port id="1"/>
			</output>
			<blobs>
				<custom offset="1026756" size="4"/>
			</blobs>
		</layer>
		<layer id="183" name="1346913473_const" precision="FP32" type="Const">
			<output>
				<port id="1"/>
			</output>
			<blobs>
				<custom offset="1026760" size="4"/>
			</blobs>
		</layer>
		<layer id="184" name="357/fq_weights_1" precision="FP32" type="FakeQuantize">
			<data levels="255.0"/>
			<input>
				<port id="0">
					<dim>128</dim>
					<dim>256</dim>
					<dim>1</dim>
					<dim>1</dim>
				</port>
				<port id="1"/>
				<port id="2"/>
				<port id="3"/>
				<port id="4"/>
			</input>
			<output>
				<port id="5">
					<dim>128</dim>
					<dim>256</dim>
					<dim>1</dim>
					<dim>1</dim>
				</port>
			</output>
		</layer>
		<layer id="185" name="bias_data82128213_const" precision="FP32" type="Const">
			<output>
				<port id="1">
					<dim>128</dim>
				</port>
			</output>
			<blobs>
				<custom offset="1026764" size="512"/>
			</blobs>
		</layer>
		<layer id="186" name="357" precision="FP32" type="Convolution">
			<data dilations="1,1" group="1" kernel="1,1" output="128" pads_begin="0,0" pads_end="0,0" strides="1,1"/>
			<input>
				<port id="0">
					<dim>1</dim>
					<dim>256</dim>
					<dim>56</dim>
					<dim>56</dim>
				</port>
				<port id="1">
					<dim>128</dim>
					<dim>256</dim>
					<dim>1</dim>
					<dim>1</dim>
				</port>
				<port id="2">
					<dim>128</dim>
				</port>
			</input>
			<output>
				<port id="3">
					<dim>1</dim>
					<dim>128</dim>
					<dim>56</dim>
					<dim>56</dim>
				</port>
			</output>
		</layer>
		<layer id="187" name="359" precision="FP32" type="ReLU">
			<input>
				<port id="0">
					<dim>1</dim>
					<dim>128</dim>
					<dim>56</dim>
					<dim>56</dim>
				</port>
			</input>
			<output>
				<port id="1">
					<dim>1</dim>
					<dim>128</dim>
					<dim>56</dim>
					<dim>56</dim>
				</port>
			</output>
		</layer>
		<layer id="188" name="1382613830_const" precision="FP32" type="Const">
			<output>
				<port id="1"/>
			</output>
			<blobs>
				<custom offset="37928" size="4"/>
			</blobs>
		</layer>
		<layer id="189" name="1382713831_const" precision="FP32" type="Const">
			<output>
				<port id="1"/>
			</output>
			<blobs>
				<custom offset="1027276" size="4"/>
			</blobs>
		</layer>
		<layer id="190" name="1382813832_const" precision="FP32" type="Const">
			<output>
				<port id="1"/>
			</output>
			<blobs>
				<custom offset="37928" size="4"/>
			</blobs>
		</layer>
		<layer id="191" name="1382913833_const" precision="FP32" type="Const">
			<output>
				<port id="1"/>
			</output>
			<blobs>
				<custom offset="1027276" size="4"/>
			</blobs>
		</layer>
		<layer id="192" name="360/fq_input_0" precision="FP32" type="FakeQuantize">
			<data levels="256.0"/>
			<input>
				<port id="0">
					<dim>1</dim>
					<dim>128</dim>
					<dim>56</dim>
					<dim>56</dim>
				</port>
				<port id="1"/>
				<port id="2"/>
				<port id="3"/>
				<port id="4"/>
			</input>
			<output>
				<port id="5">
					<dim>1</dim>
					<dim>128</dim>
					<dim>56</dim>
					<dim>56</dim>
				</port>
			</output>
		</layer>
		<layer id="193" name="Mul1_6187/Fused_Mul_82158217_const" precision="FP32" type="Const">
			<output>
				<port id="1">
					<dim>128</dim>
					<dim>128</dim>
					<dim>3</dim>
					<dim>3</dim>
				</port>
			</output>
			<blobs>
				<custom offset="1027280" size="589824"/>
			</blobs>
		</layer>
		<layer id="194" name="1383613840_const" precision="FP32" type="Const">
			<output>
				<port id="1"/>
			</output>
			<blobs>
				<custom offset="1617104" size="4"/>
			</blobs>
		</layer>
		<layer id="195" name="1383713841_const" precision="FP32" type="Const">
			<output>
				<port id="1"/>
			</output>
			<blobs>
				<custom offset="1617108" size="4"/>
			</blobs>
		</layer>
		<layer id="196" name="1383813842_const" precision="FP32" type="Const">
			<output>
				<port id="1"/>
			</output>
			<blobs>
				<custom offset="1617104" size="4"/>
			</blobs>
		</layer>
		<layer id="197" name="1383913843_const" precision="FP32" type="Const">
			<output>
				<port id="1"/>
			</output>
			<blobs>
				<custom offset="1617108" size="4"/>
			</blobs>
		</layer>
		<layer id="198" name="360/fq_weights_1" precision="FP32" type="FakeQuantize">
			<data levels="255.0"/>
			<input>
				<port id="0">
					<dim>128</dim>
					<dim>128</dim>
					<dim>3</dim>
					<dim>3</dim>
				</port>
				<port id="1"/>
				<port id="2"/>
				<port id="3"/>
				<port id="4"/>
			</input>
			<output>
				<port id="5">
					<dim>128</dim>
					<dim>128</dim>
					<dim>3</dim>
					<dim>3</dim>
				</port>
			</output>
		</layer>
		<layer id="199" name="bias_data82188219_const" precision="FP32" type="Const">
			<output>
				<port id="1">
					<dim>128</dim>
				</port>
			</output>
			<blobs>
				<custom offset="1617112" size="512"/>
			</blobs>
		</layer>
		<layer id="200" name="360" precision="FP32" type="Convolution">
			<data dilations="1,1" group="1" kernel="3,3" output="128" pads_begin="1,1" pads_end="1,1" strides="2,2"/>
			<input>
				<port id="0">
					<dim>1</dim>
					<dim>128</dim>
					<dim>56</dim>
					<dim>56</dim>
				</port>
				<port id="1">
					<dim>128</dim>
					<dim>128</dim>
					<dim>3</dim>
					<dim>3</dim>
				</port>
				<port id="2">
					<dim>128</dim>
				</port>
			</input>
			<output>
				<port id="3">
					<dim>1</dim>
					<dim>128</dim>
					<dim>28</dim>
					<dim>28</dim>
				</port>
			</output>
		</layer>
		<layer id="201" name="362" precision="FP32" type="ReLU">
			<input>
				<port id="0">
					<dim>1</dim>
					<dim>128</dim>
					<dim>28</dim>
					<dim>28</dim>
				</port>
			</input>
			<output>
				<port id="1">
					<dim>1</dim>
					<dim>128</dim>
					<dim>28</dim>
					<dim>28</dim>
				</port>
			</output>
		</layer>
		<layer id="202" name="1341613420_const" precision="FP32" type="Const">
			<output>
				<port id="1"/>
			</output>
			<blobs>
				<custom offset="37928" size="4"/>
			</blobs>
		</layer>
		<layer id="203" name="1341713421_const" precision="FP32" type="Const">
			<output>
				<port id="1"/>
			</output>
			<blobs>
				<custom offset="1617624" size="4"/>
			</blobs>
		</layer>
		<layer id="204" name="1341813422_const" precision="FP32" type="Const">
			<output>
				<port id="1"/>
			</output>
			<blobs>
				<custom offset="37928" size="4"/>
			</blobs>
		</layer>
		<layer id="205" name="1341913423_const" precision="FP32" type="Const">
			<output>
				<port id="1"/>
			</output>
			<blobs>
				<custom offset="1617624" size="4"/>
			</blobs>
		</layer>
		<layer id="206" name="363/fq_input_0" precision="FP32" type="FakeQuantize">
			<data levels="256.0"/>
			<input>
				<port id="0">
					<dim>1</dim>
					<dim>128</dim>
					<dim>28</dim>
					<dim>28</dim>
				</port>
				<port id="1"/>
				<port id="2"/>
				<port id="3"/>
				<port id="4"/>
			</input>
			<output>
				<port id="5">
					<dim>1</dim>
					<dim>128</dim>
					<dim>28</dim>
					<dim>28</dim>
				</port>
			</output>
		</layer>
		<layer id="207" name="Mul1_6115/Fused_Mul_82218223_const" precision="FP32" type="Const">
			<output>
				<port id="1">
					<dim>512</dim>
					<dim>128</dim>
					<dim>1</dim>
					<dim>1</dim>
				</port>
			</output>
			<blobs>
				<custom offset="1617628" size="262144"/>
			</blobs>
		</layer>
		<layer id="208" name="1342613430_const" precision="FP32" type="Const">
			<output>
				<port id="1"/>
			</output>
			<blobs>
				<custom offset="1879772" size="4"/>
			</blobs>
		</layer>
		<layer id="209" name="1342713431_const" precision="FP32" type="Const">
			<output>
				<port id="1"/>
			</output>
			<blobs>
				<custom offset="1879776" size="4"/>
			</blobs>
		</layer>
		<layer id="210" name="1342813432_const" precision="FP32" type="Const">
			<output>
				<port id="1"/>
			</output>
			<blobs>
				<custom offset="1879772" size="4"/>
			</blobs>
		</layer>
		<layer id="211" name="1342913433_const" precision="FP32" type="Const">
			<output>
				<port id="1"/>
			</output>
			<blobs>
				<custom offset="1879776" size="4"/>
			</blobs>
		</layer>
		<layer id="212" name="363/fq_weights_1" precision="FP32" type="FakeQuantize">
			<data levels="255.0"/>
			<input>
				<port id="0">
					<dim>512</dim>
					<dim>128</dim>
					<dim>1</dim>
					<dim>1</dim>
				</port>
				<port id="1"/>
				<port id="2"/>
				<port id="3"/>
				<port id="4"/>
			</input>
			<output>
				<port id="5">
					<dim>512</dim>
					<dim>128</dim>
					<dim>1</dim>
					<dim>1</dim>
				</port>
			</output>
		</layer>
		<layer id="213" name="bias_data82248225_const" precision="FP32" type="Const">
			<output>
				<port id="1">
					<dim>512</dim>
				</port>
			</output>
			<blobs>
				<custom offset="1879780" size="2048"/>
			</blobs>
		</layer>
		<layer id="214" name="363" precision="FP32" type="Convolution">
			<data dilations="1,1" group="1" kernel="1,1" output="512" pads_begin="0,0" pads_end="0,0" strides="1,1"/>
			<input>
				<port id="0">
					<dim>1</dim>
					<dim>128</dim>
					<dim>28</dim>
					<dim>28</dim>
				</port>
				<port id="1">
					<dim>512</dim>
					<dim>128</dim>
					<dim>1</dim>
					<dim>1</dim>
				</port>
				<port id="2">
					<dim>512</dim>
				</port>
			</input>
			<output>
				<port id="3">
					<dim>1</dim>
					<dim>512</dim>
					<dim>28</dim>
					<dim>28</dim>
				</port>
			</output>
		</layer>
		<layer id="215" name="1331613320_const" precision="FP32" type="Const">
			<output>
				<port id="1"/>
			</output>
			<blobs>
				<custom offset="1881828" size="4"/>
			</blobs>
		</layer>
		<layer id="216" name="1331713321_const" precision="FP32" type="Const">
			<output>
				<port id="1"/>
			</output>
			<blobs>
				<custom offset="1881832" size="4"/>
			</blobs>
		</layer>
		<layer id="217" name="1331813322_const" precision="FP32" type="Const">
			<output>
				<port id="1"/>
			</output>
			<blobs>
				<custom offset="1881828" size="4"/>
			</blobs>
		</layer>
		<layer id="218" name="1331913323_const" precision="FP32" type="Const">
			<output>
				<port id="1"/>
			</output>
			<blobs>
				<custom offset="1881832" size="4"/>
			</blobs>
		</layer>
		<layer id="219" name="367/fq_input_0" precision="FP32" type="FakeQuantize">
			<data levels="256.0"/>
			<input>
				<port id="0">
					<dim>1</dim>
					<dim>512</dim>
					<dim>28</dim>
					<dim>28</dim>
				</port>
				<port id="1"/>
				<port id="2"/>
				<port id="3"/>
				<port id="4"/>
			</input>
			<output>
				<port id="5">
					<dim>1</dim>
					<dim>512</dim>
					<dim>28</dim>
					<dim>28</dim>
				</port>
			</output>
		</layer>
		<layer id="220" name="Mul1_6547/Fused_Mul_82038205_const" precision="FP32" type="Const">
			<output>
				<port id="1">
					<dim>512</dim>
					<dim>256</dim>
					<dim>1</dim>
					<dim>1</dim>
				</port>
			</output>
			<blobs>
				<custom offset="1881836" size="524288"/>
			</blobs>
		</layer>
		<layer id="221" name="1354613550_const" precision="FP32" type="Const">
			<output>
				<port id="1"/>
			</output>
			<blobs>
				<custom offset="2406124" size="4"/>
			</blobs>
		</layer>
		<layer id="222" name="1354713551_const" precision="FP32" type="Const">
			<output>
				<port id="1"/>
			</output>
			<blobs>
				<custom offset="2406128" size="4"/>
			</blobs>
		</layer>
		<layer id="223" name="1354813552_const" precision="FP32" type="Const">
			<output>
				<port id="1"/>
			</output>
			<blobs>
				<custom offset="2406124" size="4"/>
			</blobs>
		</layer>
		<layer id="224" name="1354913553_const" precision="FP32" type="Const">
			<output>
				<port id="1"/>
			</output>
			<blobs>
				<custom offset="2406128" size="4"/>
			</blobs>
		</layer>
		<layer id="225" name="365/fq_weights_1" precision="FP32" type="FakeQuantize">
			<data levels="255.0"/>
			<input>
				<port id="0">
					<dim>512</dim>
					<dim>256</dim>
					<dim>1</dim>
					<dim>1</dim>
				</port>
				<port id="1"/>
				<port id="2"/>
				<port id="3"/>
				<port id="4"/>
			</input>
			<output>
				<port id="5">
					<dim>512</dim>
					<dim>256</dim>
					<dim>1</dim>
					<dim>1</dim>
				</port>
			</output>
		</layer>
		<layer id="226" name="bias_data82068207_const" precision="FP32" type="Const">
			<output>
				<port id="1">
					<dim>512</dim>
				</port>
			</output>
			<blobs>
				<custom offset="2406132" size="2048"/>
			</blobs>
		</layer>
		<layer id="227" name="365" precision="FP32" type="Convolution">
			<data dilations="1,1" group="1" kernel="1,1" output="512" pads_begin="0,0" pads_end="0,0" strides="2,2"/>
			<input>
				<port id="0">
					<dim>1</dim>
					<dim>256</dim>
					<dim>56</dim>
					<dim>56</dim>
				</port>
				<port id="1">
					<dim>512</dim>
					<dim>256</dim>
					<dim>1</dim>
					<dim>1</dim>
				</port>
				<port id="2">
					<dim>512</dim>
				</port>
			</input>
			<output>
				<port id="3">
					<dim>1</dim>
					<dim>512</dim>
					<dim>28</dim>
					<dim>28</dim>
				</port>
			</output>
		</layer>
		<layer id="228" name="1332613330_const" precision="FP32" type="Const">
			<output>
				<port id="1"/>
			</output>
			<blobs>
				<custom offset="2408180" size="4"/>
			</blobs>
		</layer>
		<layer id="229" name="1332713331_const" precision="FP32" type="Const">
			<output>
				<port id="1"/>
			</output>
			<blobs>
				<custom offset="2408184" size="4"/>
			</blobs>
		</layer>
		<layer id="230" name="1332813332_const" precision="FP32" type="Const">
			<output>
				<port id="1"/>
			</output>
			<blobs>
				<custom offset="2408180" size="4"/>
			</blobs>
		</layer>
		<layer id="231" name="1332913333_const" precision="FP32" type="Const">
			<output>
				<port id="1"/>
			</output>
			<blobs>
				<custom offset="2408184" size="4"/>
			</blobs>
		</layer>
		<layer id="232" name="367/fq_input_1" precision="FP32" type="FakeQuantize">
			<data levels="256.0"/>
			<input>
				<port id="0">
					<dim>1</dim>
					<dim>512</dim>
					<dim>28</dim>
					<dim>28</dim>
				</port>
				<port id="1"/>
				<port id="2"/>
				<port id="3"/>
				<port id="4"/>
			</input>
			<output>
				<port id="5">
					<dim>1</dim>
					<dim>512</dim>
					<dim>28</dim>
					<dim>28</dim>
				</port>
			</output>
		</layer>
		<layer id="233" name="367" precision="FP32" type="Eltwise">
			<data operation="sum"/>
			<input>
				<port id="0">
					<dim>1</dim>
					<dim>512</dim>
					<dim>28</dim>
					<dim>28</dim>
				</port>
				<port id="1">
					<dim>1</dim>
					<dim>512</dim>
					<dim>28</dim>
					<dim>28</dim>
				</port>
			</input>
			<output>
				<port id="2">
					<dim>1</dim>
					<dim>512</dim>
					<dim>28</dim>
					<dim>28</dim>
				</port>
			</output>
		</layer>
		<layer id="234" name="368" precision="FP32" type="ReLU">
			<input>
				<port id="0">
					<dim>1</dim>
					<dim>512</dim>
					<dim>28</dim>
					<dim>28</dim>
				</port>
			</input>
			<output>
				<port id="1">
					<dim>1</dim>
					<dim>512</dim>
					<dim>28</dim>
					<dim>28</dim>
				</port>
			</output>
		</layer>
		<layer id="235" name="1359613600_const" precision="FP32" type="Const">
			<output>
				<port id="1"/>
			</output>
			<blobs>
				<custom offset="37928" size="4"/>
			</blobs>
		</layer>
		<layer id="236" name="1359713601_const" precision="FP32" type="Const">
			<output>
				<port id="1"/>
			</output>
			<blobs>
				<custom offset="2408188" size="4"/>
			</blobs>
		</layer>
		<layer id="237" name="1359813602_const" precision="FP32" type="Const">
			<output>
				<port id="1"/>
			</output>
			<blobs>
				<custom offset="37928" size="4"/>
			</blobs>
		</layer>
		<layer id="238" name="1359913603_const" precision="FP32" type="Const">
			<output>
				<port id="1"/>
			</output>
			<blobs>
				<custom offset="2408188" size="4"/>
			</blobs>
		</layer>
		<layer id="239" name="369/fq_input_0" precision="FP32" type="FakeQuantize">
			<data levels="256.0"/>
			<input>
				<port id="0">
					<dim>1</dim>
					<dim>512</dim>
					<dim>28</dim>
					<dim>28</dim>
				</port>
				<port id="1"/>
				<port id="2"/>
				<port id="3"/>
				<port id="4"/>
			</input>
			<output>
				<port id="5">
					<dim>1</dim>
					<dim>512</dim>
					<dim>28</dim>
					<dim>28</dim>
				</port>
			</output>
		</layer>
		<layer id="240" name="Mul1_6415/Fused_Mul_82278229_const" precision="FP32" type="Const">
			<output>
				<port id="1">
					<dim>128</dim>
					<dim>512</dim>
					<dim>1</dim>
					<dim>1</dim>
				</port>
			</output>
			<blobs>
				<custom offset="2408192" size="262144"/>
			</blobs>
		</layer>
		<layer id="241" name="1360613610_const" precision="FP32" type="Const">
			<output>
				<port id="1"/>
			</output>
			<blobs>
				<custom offset="2670336" size="4"/>
			</blobs>
		</layer>
		<layer id="242" name="1360713611_const" precision="FP32" type="Const">
			<output>
				<port id="1"/>
			</output>
			<blobs>
				<custom offset="2670340" size="4"/>
			</blobs>
		</layer>
		<layer id="243" name="1360813612_const" precision="FP32" type="Const">
			<output>
				<port id="1"/>
			</output>
			<blobs>
				<custom offset="2670336" size="4"/>
			</blobs>
		</layer>
		<layer id="244" name="1360913613_const" precision="FP32" type="Const">
			<output>
				<port id="1"/>
			</output>
			<blobs>
				<custom offset="2670340" size="4"/>
			</blobs>
		</layer>
		<layer id="245" name="369/fq_weights_1" precision="FP32" type="FakeQuantize">
			<data levels="255.0"/>
			<input>
				<port id="0">
					<dim>128</dim>
					<dim>512</dim>
					<dim>1</dim>
					<dim>1</dim>
				</port>
				<port id="1"/>
				<port id="2"/>
				<port id="3"/>
				<port id="4"/>
			</input>
			<output>
				<port id="5">
					<dim>128</dim>
					<dim>512</dim>
					<dim>1</dim>
					<dim>1</dim>
				</port>
			</output>
		</layer>
		<layer id="246" name="bias_data82308231_const" precision="FP32" type="Const">
			<output>
				<port id="1">
					<dim>128</dim>
				</port>
			</output>
			<blobs>
				<custom offset="2670344" size="512"/>
			</blobs>
		</layer>
		<layer id="247" name="369" precision="FP32" type="Convolution">
			<data dilations="1,1" group="1" kernel="1,1" output="128" pads_begin="0,0" pads_end="0,0" strides="1,1"/>
			<input>
				<port id="0">
					<dim>1</dim>
					<dim>512</dim>
					<dim>28</dim>
					<dim>28</dim>
				</port>
				<port id="1">
					<dim>128</dim>
					<dim>512</dim>
					<dim>1</dim>
					<dim>1</dim>
				</port>
				<port id="2">
					<dim>128</dim>
				</port>
			</input>
			<output>
				<port id="3">
					<dim>1</dim>
					<dim>128</dim>
					<dim>28</dim>
					<dim>28</dim>
				</port>
			</output>
		</layer>
		<layer id="248" name="371" precision="FP32" type="ReLU">
			<input>
				<port id="0">
					<dim>1</dim>
					<dim>128</dim>
					<dim>28</dim>
					<dim>28</dim>
				</port>
			</input>
			<output>
				<port id="1">
					<dim>1</dim>
					<dim>128</dim>
					<dim>28</dim>
					<dim>28</dim>
				</port>
			</output>
		</layer>
		<layer id="249" name="1343613440_const" precision="FP32" type="Const">
			<output>
				<port id="1"/>
			</output>
			<blobs>
				<custom offset="37928" size="4"/>
			</blobs>
		</layer>
		<layer id="250" name="1343713441_const" precision="FP32" type="Const">
			<output>
				<port id="1"/>
			</output>
			<blobs>
				<custom offset="2670856" size="4"/>
			</blobs>
		</layer>
		<layer id="251" name="1343813442_const" precision="FP32" type="Const">
			<output>
				<port id="1"/>
			</output>
			<blobs>
				<custom offset="37928" size="4"/>
			</blobs>
		</layer>
		<layer id="252" name="1343913443_const" precision="FP32" type="Const">
			<output>
				<port id="1"/>
			</output>
			<blobs>
				<custom offset="2670856" size="4"/>
			</blobs>
		</layer>
		<layer id="253" name="372/fq_input_0" precision="FP32" type="FakeQuantize">
			<data levels="256.0"/>
			<input>
				<port id="0">
					<dim>1</dim>
					<dim>128</dim>
					<dim>28</dim>
					<dim>28</dim>
				</port>
				<port id="1"/>
				<port id="2"/>
				<port id="3"/>
				<port id="4"/>
			</input>
			<output>
				<port id="5">
					<dim>1</dim>
					<dim>128</dim>
					<dim>28</dim>
					<dim>28</dim>
				</port>
			</output>
		</layer>
		<layer id="254" name="Mul1_6535/Fused_Mul_82338235_const" precision="FP32" type="Const">
			<output>
				<port id="1">
					<dim>128</dim>
					<dim>128</dim>
					<dim>3</dim>
					<dim>3</dim>
				</port>
			</output>
			<blobs>
				<custom offset="2670860" size="589824"/>
			</blobs>
		</layer>
		<layer id="255" name="1344613450_const" precision="FP32" type="Const">
			<output>
				<port id="1"/>
			</output>
			<blobs>
				<custom offset="3260684" size="4"/>
			</blobs>
		</layer>
		<layer id="256" name="1344713451_const" precision="FP32" type="Const">
			<output>
				<port id="1"/>
			</output>
			<blobs>
				<custom offset="3260688" size="4"/>
			</blobs>
		</layer>
		<layer id="257" name="1344813452_const" precision="FP32" type="Const">
			<output>
				<port id="1"/>
			</output>
			<blobs>
				<custom offset="3260684" size="4"/>
			</blobs>
		</layer>
		<layer id="258" name="1344913453_const" precision="FP32" type="Const">
			<output>
				<port id="1"/>
			</output>
			<blobs>
				<custom offset="3260688" size="4"/>
			</blobs>
		</layer>
		<layer id="259" name="372/fq_weights_1" precision="FP32" type="FakeQuantize">
			<data levels="255.0"/>
			<input>
				<port id="0">
					<dim>128</dim>
					<dim>128</dim>
					<dim>3</dim>
					<dim>3</dim>
				</port>
				<port id="1"/>
				<port id="2"/>
				<port id="3"/>
				<port id="4"/>
			</input>
			<output>
				<port id="5">
					<dim>128</dim>
					<dim>128</dim>
					<dim>3</dim>
					<dim>3</dim>
				</port>
			</output>
		</layer>
		<layer id="260" name="bias_data82368237_const" precision="FP32" type="Const">
			<output>
				<port id="1">
					<dim>128</dim>
				</port>
			</output>
			<blobs>
				<custom offset="3260692" size="512"/>
			</blobs>
		</layer>
		<layer id="261" name="372" precision="FP32" type="Convolution">
			<data dilations="1,1" group="1" kernel="3,3" output="128" pads_begin="1,1" pads_end="1,1" strides="1,1"/>
			<input>
				<port id="0">
					<dim>1</dim>
					<dim>128</dim>
					<dim>28</dim>
					<dim>28</dim>
				</port>
				<port id="1">
					<dim>128</dim>
					<dim>128</dim>
					<dim>3</dim>
					<dim>3</dim>
				</port>
				<port id="2">
					<dim>128</dim>
				</port>
			</input>
			<output>
				<port id="3">
					<dim>1</dim>
					<dim>128</dim>
					<dim>28</dim>
					<dim>28</dim>
				</port>
			</output>
		</layer>
		<layer id="262" name="374" precision="FP32" type="ReLU">
			<input>
				<port id="0">
					<dim>1</dim>
					<dim>128</dim>
					<dim>28</dim>
					<dim>28</dim>
				</port>
			</input>
			<output>
				<port id="1">
					<dim>1</dim>
					<dim>128</dim>
					<dim>28</dim>
					<dim>28</dim>
				</port>
			</output>
		</layer>
		<layer id="263" name="1317613180_const" precision="FP32" type="Const">
			<output>
				<port id="1"/>
			</output>
			<blobs>
				<custom offset="37928" size="4"/>
			</blobs>
		</layer>
		<layer id="264" name="1317713181_const" precision="FP32" type="Const">
			<output>
				<port id="1"/>
			</output>
			<blobs>
				<custom offset="3261204" size="4"/>
			</blobs>
		</layer>
		<layer id="265" name="1317813182_const" precision="FP32" type="Const">
			<output>
				<port id="1"/>
			</output>
			<blobs>
				<custom offset="37928" size="4"/>
			</blobs>
		</layer>
		<layer id="266" name="1317913183_const" precision="FP32" type="Const">
			<output>
				<port id="1"/>
			</output>
			<blobs>
				<custom offset="3261204" size="4"/>
			</blobs>
		</layer>
		<layer id="267" name="375/fq_input_0" precision="FP32" type="FakeQuantize">
			<data levels="256.0"/>
			<input>
				<port id="0">
					<dim>1</dim>
					<dim>128</dim>
					<dim>28</dim>
					<dim>28</dim>
				</port>
				<port id="1"/>
				<port id="2"/>
				<port id="3"/>
				<port id="4"/>
			</input>
			<output>
				<port id="5">
					<dim>1</dim>
					<dim>128</dim>
					<dim>28</dim>
					<dim>28</dim>
				</port>
			</output>
		</layer>
		<layer id="268" name="Mul1_6499/Fused_Mul_82398241_const" precision="FP32" type="Const">
			<output>
				<port id="1">
					<dim>512</dim>
					<dim>128</dim>
					<dim>1</dim>
					<dim>1</dim>
				</port>
			</output>
			<blobs>
				<custom offset="3261208" size="262144"/>
			</blobs>
		</layer>
		<layer id="269" name="1318613190_const" precision="FP32" type="Const">
			<output>
				<port id="1"/>
			</output>
			<blobs>
				<custom offset="3523352" size="4"/>
			</blobs>
		</layer>
		<layer id="270" name="1318713191_const" precision="FP32" type="Const">
			<output>
				<port id="1"/>
			</output>
			<blobs>
				<custom offset="3523356" size="4"/>
			</blobs>
		</layer>
		<layer id="271" name="1318813192_const" precision="FP32" type="Const">
			<output>
				<port id="1"/>
			</output>
			<blobs>
				<custom offset="3523352" size="4"/>
			</blobs>
		</layer>
		<layer id="272" name="1318913193_const" precision="FP32" type="Const">
			<output>
				<port id="1"/>
			</output>
			<blobs>
				<custom offset="3523356" size="4"/>
			</blobs>
		</layer>
		<layer id="273" name="375/fq_weights_1" precision="FP32" type="FakeQuantize">
			<data levels="255.0"/>
			<input>
				<port id="0">
					<dim>512</dim>
					<dim>128</dim>
					<dim>1</dim>
					<dim>1</dim>
				</port>
				<port id="1"/>
				<port id="2"/>
				<port id="3"/>
				<port id="4"/>
			</input>
			<output>
				<port id="5">
					<dim>512</dim>
					<dim>128</dim>
					<dim>1</dim>
					<dim>1</dim>
				</port>
			</output>
		</layer>
		<layer id="274" name="bias_data82428243_const" precision="FP32" type="Const">
			<output>
				<port id="1">
					<dim>512</dim>
				</port>
			</output>
			<blobs>
				<custom offset="3523360" size="2048"/>
			</blobs>
		</layer>
		<layer id="275" name="375" precision="FP32" type="Convolution">
			<data dilations="1,1" group="1" kernel="1,1" output="512" pads_begin="0,0" pads_end="0,0" strides="1,1"/>
			<input>
				<port id="0">
					<dim>1</dim>
					<dim>128</dim>
					<dim>28</dim>
					<dim>28</dim>
				</port>
				<port id="1">
					<dim>512</dim>
					<dim>128</dim>
					<dim>1</dim>
					<dim>1</dim>
				</port>
				<port id="2">
					<dim>512</dim>
				</port>
			</input>
			<output>
				<port id="3">
					<dim>1</dim>
					<dim>512</dim>
					<dim>28</dim>
					<dim>28</dim>
				</port>
			</output>
		</layer>
		<layer id="276" name="1319613200_const" precision="FP32" type="Const">
			<output>
				<port id="1"/>
			</output>
			<blobs>
				<custom offset="3525408" size="4"/>
			</blobs>
		</layer>
		<layer id="277" name="1319713201_const" precision="FP32" type="Const">
			<output>
				<port id="1"/>
			</output>
			<blobs>
				<custom offset="3525412" size="4"/>
			</blobs>
		</layer>
		<layer id="278" name="1319813202_const" precision="FP32" type="Const">
			<output>
				<port id="1"/>
			</output>
			<blobs>
				<custom offset="3525408" size="4"/>
			</blobs>
		</layer>
		<layer id="279" name="1319913203_const" precision="FP32" type="Const">
			<output>
				<port id="1"/>
			</output>
			<blobs>
				<custom offset="3525412" size="4"/>
			</blobs>
		</layer>
		<layer id="280" name="377/fq_input_0" precision="FP32" type="FakeQuantize">
			<data levels="256.0"/>
			<input>
				<port id="0">
					<dim>1</dim>
					<dim>512</dim>
					<dim>28</dim>
					<dim>28</dim>
				</port>
				<port id="1"/>
				<port id="2"/>
				<port id="3"/>
				<port id="4"/>
			</input>
			<output>
				<port id="5">
					<dim>1</dim>
					<dim>512</dim>
					<dim>28</dim>
					<dim>28</dim>
				</port>
			</output>
		</layer>
		<layer id="281" name="377" precision="FP32" type="Eltwise">
			<data operation="sum"/>
			<input>
				<port id="0">
					<dim>1</dim>
					<dim>512</dim>
					<dim>28</dim>
					<dim>28</dim>
				</port>
				<port id="1">
					<dim>1</dim>
					<dim>512</dim>
					<dim>28</dim>
					<dim>28</dim>
				</port>
			</input>
			<output>
				<port id="2">
					<dim>1</dim>
					<dim>512</dim>
					<dim>28</dim>
					<dim>28</dim>
				</port>
			</output>
		</layer>
		<layer id="282" name="378" precision="FP32" type="ReLU">
			<input>
				<port id="0">
					<dim>1</dim>
					<dim>512</dim>
					<dim>28</dim>
					<dim>28</dim>
				</port>
			</input>
			<output>
				<port id="1">
					<dim>1</dim>
					<dim>512</dim>
					<dim>28</dim>
					<dim>28</dim>
				</port>
			</output>
		</layer>
		<layer id="283" name="1368613690_const" precision="FP32" type="Const">
			<output>
				<port id="1"/>
			</output>
			<blobs>
				<custom offset="37928" size="4"/>
			</blobs>
		</layer>
		<layer id="284" name="1368713691_const" precision="FP32" type="Const">
			<output>
				<port id="1"/>
			</output>
			<blobs>
				<custom offset="3525416" size="4"/>
			</blobs>
		</layer>
		<layer id="285" name="1368813692_const" precision="FP32" type="Const">
			<output>
				<port id="1"/>
			</output>
			<blobs>
				<custom offset="37928" size="4"/>
			</blobs>
		</layer>
		<layer id="286" name="1368913693_const" precision="FP32" type="Const">
			<output>
				<port id="1"/>
			</output>
			<blobs>
				<custom offset="3525416" size="4"/>
			</blobs>
		</layer>
		<layer id="287" name="387/fq_input_1" precision="FP32" type="FakeQuantize">
			<data levels="256.0"/>
			<input>
				<port id="0">
					<dim>1</dim>
					<dim>512</dim>
					<dim>28</dim>
					<dim>28</dim>
				</port>
				<port id="1"/>
				<port id="2"/>
				<port id="3"/>
				<port id="4"/>
			</input>
			<output>
				<port id="5">
					<dim>1</dim>
					<dim>512</dim>
					<dim>28</dim>
					<dim>28</dim>
				</port>
			</output>
		</layer>
		<layer id="288" name="Mul1_6631/Fused_Mul_82458247_const" precision="FP32" type="Const">
			<output>
				<port id="1">
					<dim>128</dim>
					<dim>512</dim>
					<dim>1</dim>
					<dim>1</dim>
				</port>
			</output>
			<blobs>
				<custom offset="3525420" size="262144"/>
			</blobs>
		</layer>
		<layer id="289" name="1313613140_const" precision="FP32" type="Const">
			<output>
				<port id="1"/>
			</output>
			<blobs>
				<custom offset="3787564" size="4"/>
			</blobs>
		</layer>
		<layer id="290" name="1313713141_const" precision="FP32" type="Const">
			<output>
				<port id="1"/>
			</output>
			<blobs>
				<custom offset="3787568" size="4"/>
			</blobs>
		</layer>
		<layer id="291" name="1313813142_const" precision="FP32" type="Const">
			<output>
				<port id="1"/>
			</output>
			<blobs>
				<custom offset="3787564" size="4"/>
			</blobs>
		</layer>
		<layer id="292" name="1313913143_const" precision="FP32" type="Const">
			<output>
				<port id="1"/>
			</output>
			<blobs>
				<custom offset="3787568" size="4"/>
			</blobs>
		</layer>
		<layer id="293" name="379/fq_weights_1" precision="FP32" type="FakeQuantize">
			<data levels="255.0"/>
			<input>
				<port id="0">
					<dim>128</dim>
					<dim>512</dim>
					<dim>1</dim>
					<dim>1</dim>
				</port>
				<port id="1"/>
				<port id="2"/>
				<port id="3"/>
				<port id="4"/>
			</input>
			<output>
				<port id="5">
					<dim>128</dim>
					<dim>512</dim>
					<dim>1</dim>
					<dim>1</dim>
				</port>
			</output>
		</layer>
		<layer id="294" name="bias_data82488249_const" precision="FP32" type="Const">
			<output>
				<port id="1">
					<dim>128</dim>
				</port>
			</output>
			<blobs>
				<custom offset="3787572" size="512"/>
			</blobs>
		</layer>
		<layer id="295" name="379" precision="FP32" type="Convolution">
			<data dilations="1,1" group="1" kernel="1,1" output="128" pads_begin="0,0" pads_end="0,0" strides="1,1"/>
			<input>
				<port id="0">
					<dim>1</dim>
					<dim>512</dim>
					<dim>28</dim>
					<dim>28</dim>
				</port>
				<port id="1">
					<dim>128</dim>
					<dim>512</dim>
					<dim>1</dim>
					<dim>1</dim>
				</port>
				<port id="2">
					<dim>128</dim>
				</port>
			</input>
			<output>
				<port id="3">
					<dim>1</dim>
					<dim>128</dim>
					<dim>28</dim>
					<dim>28</dim>
				</port>
			</output>
		</layer>
		<layer id="296" name="381" precision="FP32" type="ReLU">
			<input>
				<port id="0">
					<dim>1</dim>
					<dim>128</dim>
					<dim>28</dim>
					<dim>28</dim>
				</port>
			</input>
			<output>
				<port id="1">
					<dim>1</dim>
					<dim>128</dim>
					<dim>28</dim>
					<dim>28</dim>
				</port>
			</output>
		</layer>
		<layer id="297" name="1373613740_const" precision="FP32" type="Const">
			<output>
				<port id="1"/>
			</output>
			<blobs>
				<custom offset="37928" size="4"/>
			</blobs>
		</layer>
		<layer id="298" name="1373713741_const" precision="FP32" type="Const">
			<output>
				<port id="1"/>
			</output>
			<blobs>
				<custom offset="3788084" size="4"/>
			</blobs>
		</layer>
		<layer id="299" name="1373813742_const" precision="FP32" type="Const">
			<output>
				<port id="1"/>
			</output>
			<blobs>
				<custom offset="37928" size="4"/>
			</blobs>
		</layer>
		<layer id="300" name="1373913743_const" precision="FP32" type="Const">
			<output>
				<port id="1"/>
			</output>
			<blobs>
				<custom offset="3788084" size="4"/>
			</blobs>
		</layer>
		<layer id="301" name="382/fq_input_0" precision="FP32" type="FakeQuantize">
			<data levels="256.0"/>
			<input>
				<port id="0">
					<dim>1</dim>
					<dim>128</dim>
					<dim>28</dim>
					<dim>28</dim>
				</port>
				<port id="1"/>
				<port id="2"/>
				<port id="3"/>
				<port id="4"/>
			</input>
			<output>
				<port id="5">
					<dim>1</dim>
					<dim>128</dim>
					<dim>28</dim>
					<dim>28</dim>
				</port>
			</output>
		</layer>
		<layer id="302" name="Mul1_6103/Fused_Mul_82518253_const" precision="FP32" type="Const">
			<output>
				<port id="1">
					<dim>128</dim>
					<dim>128</dim>
					<dim>3</dim>
					<dim>3</dim>
				</port>
			</output>
			<blobs>
				<custom offset="3788088" size="589824"/>
			</blobs>
		</layer>
		<layer id="303" name="1374613750_const" precision="FP32" type="Const">
			<output>
				<port id="1"/>
			</output>
			<blobs>
				<custom offset="4377912" size="4"/>
			</blobs>
		</layer>
		<layer id="304" name="1374713751_const" precision="FP32" type="Const">
			<output>
				<port id="1"/>
			</output>
			<blobs>
				<custom offset="4377916" size="4"/>
			</blobs>
		</layer>
		<layer id="305" name="1374813752_const" precision="FP32" type="Const">
			<output>
				<port id="1"/>
			</output>
			<blobs>
				<custom offset="4377912" size="4"/>
			</blobs>
		</layer>
		<layer id="306" name="1374913753_const" precision="FP32" type="Const">
			<output>
				<port id="1"/>
			</output>
			<blobs>
				<custom offset="4377916" size="4"/>
			</blobs>
		</layer>
		<layer id="307" name="382/fq_weights_1" precision="FP32" type="FakeQuantize">
			<data levels="255.0"/>
			<input>
				<port id="0">
					<dim>128</dim>
					<dim>128</dim>
					<dim>3</dim>
					<dim>3</dim>
				</port>
				<port id="1"/>
				<port id="2"/>
				<port id="3"/>
				<port id="4"/>
			</input>
			<output>
				<port id="5">
					<dim>128</dim>
					<dim>128</dim>
					<dim>3</dim>
					<dim>3</dim>
				</port>
			</output>
		</layer>
		<layer id="308" name="bias_data82548255_const" precision="FP32" type="Const">
			<output>
				<port id="1">
					<dim>128</dim>
				</port>
			</output>
			<blobs>
				<custom offset="4377920" size="512"/>
			</blobs>
		</layer>
		<layer id="309" name="382" precision="FP32" type="Convolution">
			<data dilations="1,1" group="1" kernel="3,3" output="128" pads_begin="1,1" pads_end="1,1" strides="1,1"/>
			<input>
				<port id="0">
					<dim>1</dim>
					<dim>128</dim>
					<dim>28</dim>
					<dim>28</dim>
				</port>
				<port id="1">
					<dim>128</dim>
					<dim>128</dim>
					<dim>3</dim>
					<dim>3</dim>
				</port>
				<port id="2">
					<dim>128</dim>
				</port>
			</input>
			<output>
				<port id="3">
					<dim>1</dim>
					<dim>128</dim>
					<dim>28</dim>
					<dim>28</dim>
				</port>
			</output>
		</layer>
		<layer id="310" name="384" precision="FP32" type="ReLU">
			<input>
				<port id="0">
					<dim>1</dim>
					<dim>128</dim>
					<dim>28</dim>
					<dim>28</dim>
				</port>
			</input>
			<output>
				<port id="1">
					<dim>1</dim>
					<dim>128</dim>
					<dim>28</dim>
					<dim>28</dim>
				</port>
			</output>
		</layer>
		<layer id="311" name="1335613360_const" precision="FP32" type="Const">
			<output>
				<port id="1"/>
			</output>
			<blobs>
				<custom offset="37928" size="4"/>
			</blobs>
		</layer>
		<layer id="312" name="1335713361_const" precision="FP32" type="Const">
			<output>
				<port id="1"/>
			</output>
			<blobs>
				<custom offset="4378432" size="4"/>
			</blobs>
		</layer>
		<layer id="313" name="1335813362_const" precision="FP32" type="Const">
			<output>
				<port id="1"/>
			</output>
			<blobs>
				<custom offset="37928" size="4"/>
			</blobs>
		</layer>
		<layer id="314" name="1335913363_const" precision="FP32" type="Const">
			<output>
				<port id="1"/>
			</output>
			<blobs>
				<custom offset="4378432" size="4"/>
			</blobs>
		</layer>
		<layer id="315" name="385/fq_input_0" precision="FP32" type="FakeQuantize">
			<data levels="256.0"/>
			<input>
				<port id="0">
					<dim>1</dim>
					<dim>128</dim>
					<dim>28</dim>
					<dim>28</dim>
				</port>
				<port id="1"/>
				<port id="2"/>
				<port id="3"/>
				<port id="4"/>
			</input>
			<output>
				<port id="5">
					<dim>1</dim>
					<dim>128</dim>
					<dim>28</dim>
					<dim>28</dim>
				</port>
			</output>
		</layer>
		<layer id="316" name="Mul1_6199/Fused_Mul_82578259_const" precision="FP32" type="Const">
			<output>
				<port id="1">
					<dim>512</dim>
					<dim>128</dim>
					<dim>1</dim>
					<dim>1</dim>
				</port>
			</output>
			<blobs>
				<custom offset="4378436" size="262144"/>
			</blobs>
		</layer>
		<layer id="317" name="1336613370_const" precision="FP32" type="Const">
			<output>
				<port id="1"/>
			</output>
			<blobs>
				<custom offset="4640580" size="4"/>
			</blobs>
		</layer>
		<layer id="318" name="1336713371_const" precision="FP32" type="Const">
			<output>
				<port id="1"/>
			</output>
			<blobs>
				<custom offset="4640584" size="4"/>
			</blobs>
		</layer>
		<layer id="319" name="1336813372_const" precision="FP32" type="Const">
			<output>
				<port id="1"/>
			</output>
			<blobs>
				<custom offset="4640580" size="4"/>
			</blobs>
		</layer>
		<layer id="320" name="1336913373_const" precision="FP32" type="Const">
			<output>
				<port id="1"/>
			</output>
			<blobs>
				<custom offset="4640584" size="4"/>
			</blobs>
		</layer>
		<layer id="321" name="385/fq_weights_1" precision="FP32" type="FakeQuantize">
			<data levels="255.0"/>
			<input>
				<port id="0">
					<dim>512</dim>
					<dim>128</dim>
					<dim>1</dim>
					<dim>1</dim>
				</port>
				<port id="1"/>
				<port id="2"/>
				<port id="3"/>
				<port id="4"/>
			</input>
			<output>
				<port id="5">
					<dim>512</dim>
					<dim>128</dim>
					<dim>1</dim>
					<dim>1</dim>
				</port>
			</output>
		</layer>
		<layer id="322" name="bias_data82608261_const" precision="FP32" type="Const">
			<output>
				<port id="1">
					<dim>512</dim>
				</port>
			</output>
			<blobs>
				<custom offset="4640588" size="2048"/>
			</blobs>
		</layer>
		<layer id="323" name="385" precision="FP32" type="Convolution">
			<data dilations="1,1" group="1" kernel="1,1" output="512" pads_begin="0,0" pads_end="0,0" strides="1,1"/>
			<input>
				<port id="0">
					<dim>1</dim>
					<dim>128</dim>
					<dim>28</dim>
					<dim>28</dim>
				</port>
				<port id="1">
					<dim>512</dim>
					<dim>128</dim>
					<dim>1</dim>
					<dim>1</dim>
				</port>
				<port id="2">
					<dim>512</dim>
				</port>
			</input>
			<output>
				<port id="3">
					<dim>1</dim>
					<dim>512</dim>
					<dim>28</dim>
					<dim>28</dim>
				</port>
			</output>
		</layer>
		<layer id="324" name="1367613680_const" precision="FP32" type="Const">
			<output>
				<port id="1"/>
			</output>
			<blobs>
				<custom offset="4642636" size="4"/>
			</blobs>
		</layer>
		<layer id="325" name="1367713681_const" precision="FP32" type="Const">
			<output>
				<port id="1"/>
			</output>
			<blobs>
				<custom offset="4642640" size="4"/>
			</blobs>
		</layer>
		<layer id="326" name="1367813682_const" precision="FP32" type="Const">
			<output>
				<port id="1"/>
			</output>
			<blobs>
				<custom offset="4642636" size="4"/>
			</blobs>
		</layer>
		<layer id="327" name="1367913683_const" precision="FP32" type="Const">
			<output>
				<port id="1"/>
			</output>
			<blobs>
				<custom offset="4642640" size="4"/>
			</blobs>
		</layer>
		<layer id="328" name="387/fq_input_0" precision="FP32" type="FakeQuantize">
			<data levels="256.0"/>
			<input>
				<port id="0">
					<dim>1</dim>
					<dim>512</dim>
					<dim>28</dim>
					<dim>28</dim>
				</port>
				<port id="1"/>
				<port id="2"/>
				<port id="3"/>
				<port id="4"/>
			</input>
			<output>
				<port id="5">
					<dim>1</dim>
					<dim>512</dim>
					<dim>28</dim>
					<dim>28</dim>
				</port>
			</output>
		</layer>
		<layer id="329" name="387" precision="FP32" type="Eltwise">
			<data operation="sum"/>
			<input>
				<port id="0">
					<dim>1</dim>
					<dim>512</dim>
					<dim>28</dim>
					<dim>28</dim>
				</port>
				<port id="1">
					<dim>1</dim>
					<dim>512</dim>
					<dim>28</dim>
					<dim>28</dim>
				</port>
			</input>
			<output>
				<port id="2">
					<dim>1</dim>
					<dim>512</dim>
					<dim>28</dim>
					<dim>28</dim>
				</port>
			</output>
		</layer>
		<layer id="330" name="388" precision="FP32" type="ReLU">
			<input>
				<port id="0">
					<dim>1</dim>
					<dim>512</dim>
					<dim>28</dim>
					<dim>28</dim>
				</port>
			</input>
			<output>
				<port id="1">
					<dim>1</dim>
					<dim>512</dim>
					<dim>28</dim>
					<dim>28</dim>
				</port>
			</output>
		</layer>
		<layer id="331" name="1260612610_const" precision="FP32" type="Const">
			<output>
				<port id="1"/>
			</output>
			<blobs>
				<custom offset="37928" size="4"/>
			</blobs>
		</layer>
		<layer id="332" name="1260712611_const" precision="FP32" type="Const">
			<output>
				<port id="1"/>
			</output>
			<blobs>
				<custom offset="4642644" size="4"/>
			</blobs>
		</layer>
		<layer id="333" name="1260812612_const" precision="FP32" type="Const">
			<output>
				<port id="1"/>
			</output>
			<blobs>
				<custom offset="37928" size="4"/>
			</blobs>
		</layer>
		<layer id="334" name="1260912613_const" precision="FP32" type="Const">
			<output>
				<port id="1"/>
			</output>
			<blobs>
				<custom offset="4642644" size="4"/>
			</blobs>
		</layer>
		<layer id="335" name="389/fq_input_0" precision="FP32" type="FakeQuantize">
			<data levels="256.0"/>
			<input>
				<port id="0">
					<dim>1</dim>
					<dim>512</dim>
					<dim>28</dim>
					<dim>28</dim>
				</port>
				<port id="1"/>
				<port id="2"/>
				<port id="3"/>
				<port id="4"/>
			</input>
			<output>
				<port id="5">
					<dim>1</dim>
					<dim>512</dim>
					<dim>28</dim>
					<dim>28</dim>
				</port>
			</output>
		</layer>
		<layer id="336" name="Mul1_6523/Fused_Mul_82638265_const" precision="FP32" type="Const">
			<output>
				<port id="1">
					<dim>128</dim>
					<dim>512</dim>
					<dim>1</dim>
					<dim>1</dim>
				</port>
			</output>
			<blobs>
				<custom offset="4642648" size="262144"/>
			</blobs>
		</layer>
		<layer id="337" name="1261612620_const" precision="FP32" type="Const">
			<output>
				<port id="1"/>
			</output>
			<blobs>
				<custom offset="4904792" size="4"/>
			</blobs>
		</layer>
		<layer id="338" name="1261712621_const" precision="FP32" type="Const">
			<output>
				<port id="1"/>
			</output>
			<blobs>
				<custom offset="4904796" size="4"/>
			</blobs>
		</layer>
		<layer id="339" name="1261812622_const" precision="FP32" type="Const">
			<output>
				<port id="1"/>
			</output>
			<blobs>
				<custom offset="4904792" size="4"/>
			</blobs>
		</layer>
		<layer id="340" name="1261912623_const" precision="FP32" type="Const">
			<output>
				<port id="1"/>
			</output>
			<blobs>
				<custom offset="4904796" size="4"/>
			</blobs>
		</layer>
		<layer id="341" name="389/fq_weights_1" precision="FP32" type="FakeQuantize">
			<data levels="255.0"/>
			<input>
				<port id="0">
					<dim>128</dim>
					<dim>512</dim>
					<dim>1</dim>
					<dim>1</dim>
				</port>
				<port id="1"/>
				<port id="2"/>
				<port id="3"/>
				<port id="4"/>
			</input>
			<output>
				<port id="5">
					<dim>128</dim>
					<dim>512</dim>
					<dim>1</dim>
					<dim>1</dim>
				</port>
			</output>
		</layer>
		<layer id="342" name="bias_data82668267_const" precision="FP32" type="Const">
			<output>
				<port id="1">
					<dim>128</dim>
				</port>
			</output>
			<blobs>
				<custom offset="4904800" size="512"/>
			</blobs>
		</layer>
		<layer id="343" name="389" precision="FP32" type="Convolution">
			<data dilations="1,1" group="1" kernel="1,1" output="128" pads_begin="0,0" pads_end="0,0" strides="1,1"/>
			<input>
				<port id="0">
					<dim>1</dim>
					<dim>512</dim>
					<dim>28</dim>
					<dim>28</dim>
				</port>
				<port id="1">
					<dim>128</dim>
					<dim>512</dim>
					<dim>1</dim>
					<dim>1</dim>
				</port>
				<port id="2">
					<dim>128</dim>
				</port>
			</input>
			<output>
				<port id="3">
					<dim>1</dim>
					<dim>128</dim>
					<dim>28</dim>
					<dim>28</dim>
				</port>
			</output>
		</layer>
		<layer id="344" name="391" precision="FP32" type="ReLU">
			<input>
				<port id="0">
					<dim>1</dim>
					<dim>128</dim>
					<dim>28</dim>
					<dim>28</dim>
				</port>
			</input>
			<output>
				<port id="1">
					<dim>1</dim>
					<dim>128</dim>
					<dim>28</dim>
					<dim>28</dim>
				</port>
			</output>
		</layer>
		<layer id="345" name="1282612830_const" precision="FP32" type="Const">
			<output>
				<port id="1"/>
			</output>
			<blobs>
				<custom offset="37928" size="4"/>
			</blobs>
		</layer>
		<layer id="346" name="1282712831_const" precision="FP32" type="Const">
			<output>
				<port id="1"/>
			</output>
			<blobs>
				<custom offset="4905312" size="4"/>
			</blobs>
		</layer>
		<layer id="347" name="1282812832_const" precision="FP32" type="Const">
			<output>
				<port id="1"/>
			</output>
			<blobs>
				<custom offset="37928" size="4"/>
			</blobs>
		</layer>
		<layer id="348" name="1282912833_const" precision="FP32" type="Const">
			<output>
				<port id="1"/>
			</output>
			<blobs>
				<custom offset="4905312" size="4"/>
			</blobs>
		</layer>
		<layer id="349" name="392/fq_input_0" precision="FP32" type="FakeQuantize">
			<data levels="256.0"/>
			<input>
				<port id="0">
					<dim>1</dim>
					<dim>128</dim>
					<dim>28</dim>
					<dim>28</dim>
				</port>
				<port id="1"/>
				<port id="2"/>
				<port id="3"/>
				<port id="4"/>
			</input>
			<output>
				<port id="5">
					<dim>1</dim>
					<dim>128</dim>
					<dim>28</dim>
					<dim>28</dim>
				</port>
			</output>
		</layer>
		<layer id="350" name="Mul1_6451/Fused_Mul_82698271_const" precision="FP32" type="Const">
			<output>
				<port id="1">
					<dim>128</dim>
					<dim>128</dim>
					<dim>3</dim>
					<dim>3</dim>
				</port>
			</output>
			<blobs>
				<custom offset="4905316" size="589824"/>
			</blobs>
		</layer>
		<layer id="351" name="1283612840_const" precision="FP32" type="Const">
			<output>
				<port id="1"/>
			</output>
			<blobs>
				<custom offset="5495140" size="4"/>
			</blobs>
		</layer>
		<layer id="352" name="1283712841_const" precision="FP32" type="Const">
			<output>
				<port id="1"/>
			</output>
			<blobs>
				<custom offset="5495144" size="4"/>
			</blobs>
		</layer>
		<layer id="353" name="1283812842_const" precision="FP32" type="Const">
			<output>
				<port id="1"/>
			</output>
			<blobs>
				<custom offset="5495140" size="4"/>
			</blobs>
		</layer>
		<layer id="354" name="1283912843_const" precision="FP32" type="Const">
			<output>
				<port id="1"/>
			</output>
			<blobs>
				<custom offset="5495144" size="4"/>
			</blobs>
		</layer>
		<layer id="355" name="392/fq_weights_1" precision="FP32" type="FakeQuantize">
			<data levels="255.0"/>
			<input>
				<port id="0">
					<dim>128</dim>
					<dim>128</dim>
					<dim>3</dim>
					<dim>3</dim>
				</port>
				<port id="1"/>
				<port id="2"/>
				<port id="3"/>
				<port id="4"/>
			</input>
			<output>
				<port id="5">
					<dim>128</dim>
					<dim>128</dim>
					<dim>3</dim>
					<dim>3</dim>
				</port>
			</output>
		</layer>
		<layer id="356" name="bias_data82728273_const" precision="FP32" type="Const">
			<output>
				<port id="1">
					<dim>128</dim>
				</port>
			</output>
			<blobs>
				<custom offset="5495148" size="512"/>
			</blobs>
		</layer>
		<layer id="357" name="392" precision="FP32" type="Convolution">
			<data dilations="1,1" group="1" kernel="3,3" output="128" pads_begin="1,1" pads_end="1,1" strides="1,1"/>
			<input>
				<port id="0">
					<dim>1</dim>
					<dim>128</dim>
					<dim>28</dim>
					<dim>28</dim>
				</port>
				<port id="1">
					<dim>128</dim>
					<dim>128</dim>
					<dim>3</dim>
					<dim>3</dim>
				</port>
				<port id="2">
					<dim>128</dim>
				</port>
			</input>
			<output>
				<port id="3">
					<dim>1</dim>
					<dim>128</dim>
					<dim>28</dim>
					<dim>28</dim>
				</port>
			</output>
		</layer>
		<layer id="358" name="394" precision="FP32" type="ReLU">
			<input>
				<port id="0">
					<dim>1</dim>
					<dim>128</dim>
					<dim>28</dim>
					<dim>28</dim>
				</port>
			</input>
			<output>
				<port id="1">
					<dim>1</dim>
					<dim>128</dim>
					<dim>28</dim>
					<dim>28</dim>
				</port>
			</output>
		</layer>
		<layer id="359" name="1304613050_const" precision="FP32" type="Const">
			<output>
				<port id="1"/>
			</output>
			<blobs>
				<custom offset="37928" size="4"/>
			</blobs>
		</layer>
		<layer id="360" name="1304713051_const" precision="FP32" type="Const">
			<output>
				<port id="1"/>
			</output>
			<blobs>
				<custom offset="5495660" size="4"/>
			</blobs>
		</layer>
		<layer id="361" name="1304813052_const" precision="FP32" type="Const">
			<output>
				<port id="1"/>
			</output>
			<blobs>
				<custom offset="37928" size="4"/>
			</blobs>
		</layer>
		<layer id="362" name="1304913053_const" precision="FP32" type="Const">
			<output>
				<port id="1"/>
			</output>
			<blobs>
				<custom offset="5495660" size="4"/>
			</blobs>
		</layer>
		<layer id="363" name="395/fq_input_0" precision="FP32" type="FakeQuantize">
			<data levels="256.0"/>
			<input>
				<port id="0">
					<dim>1</dim>
					<dim>128</dim>
					<dim>28</dim>
					<dim>28</dim>
				</port>
				<port id="1"/>
				<port id="2"/>
				<port id="3"/>
				<port id="4"/>
			</input>
			<output>
				<port id="5">
					<dim>1</dim>
					<dim>128</dim>
					<dim>28</dim>
					<dim>28</dim>
				</port>
			</output>
		</layer>
		<layer id="364" name="Mul1_6715/Fused_Mul_82758277_const" precision="FP32" type="Const">
			<output>
				<port id="1">
					<dim>512</dim>
					<dim>128</dim>
					<dim>1</dim>
					<dim>1</dim>
				</port>
			</output>
			<blobs>
				<custom offset="5495664" size="262144"/>
			</blobs>
		</layer>
		<layer id="365" name="1305613060_const" precision="FP32" type="Const">
			<output>
				<port id="1"/>
			</output>
			<blobs>
				<custom offset="5757808" size="4"/>
			</blobs>
		</layer>
		<layer id="366" name="1305713061_const" precision="FP32" type="Const">
			<output>
				<port id="1"/>
			</output>
			<blobs>
				<custom offset="5757812" size="4"/>
			</blobs>
		</layer>
		<layer id="367" name="1305813062_const" precision="FP32" type="Const">
			<output>
				<port id="1"/>
			</output>
			<blobs>
				<custom offset="5757808" size="4"/>
			</blobs>
		</layer>
		<layer id="368" name="1305913063_const" precision="FP32" type="Const">
			<output>
				<port id="1"/>
			</output>
			<blobs>
				<custom offset="5757812" size="4"/>
			</blobs>
		</layer>
		<layer id="369" name="395/fq_weights_1" precision="FP32" type="FakeQuantize">
			<data levels="255.0"/>
			<input>
				<port id="0">
					<dim>512</dim>
					<dim>128</dim>
					<dim>1</dim>
					<dim>1</dim>
				</port>
				<port id="1"/>
				<port id="2"/>
				<port id="3"/>
				<port id="4"/>
			</input>
			<output>
				<port id="5">
					<dim>512</dim>
					<dim>128</dim>
					<dim>1</dim>
					<dim>1</dim>
				</port>
			</output>
		</layer>
		<layer id="370" name="bias_data82788279_const" precision="FP32" type="Const">
			<output>
				<port id="1">
					<dim>512</dim>
				</port>
			</output>
			<blobs>
				<custom offset="5757816" size="2048"/>
			</blobs>
		</layer>
		<layer id="371" name="395" precision="FP32" type="Convolution">
			<data dilations="1,1" group="1" kernel="1,1" output="512" pads_begin="0,0" pads_end="0,0" strides="1,1"/>
			<input>
				<port id="0">
					<dim>1</dim>
					<dim>128</dim>
					<dim>28</dim>
					<dim>28</dim>
				</port>
				<port id="1">
					<dim>512</dim>
					<dim>128</dim>
					<dim>1</dim>
					<dim>1</dim>
				</port>
				<port id="2">
					<dim>512</dim>
				</port>
			</input>
			<output>
				<port id="3">
					<dim>1</dim>
					<dim>512</dim>
					<dim>28</dim>
					<dim>28</dim>
				</port>
			</output>
		</layer>
		<layer id="372" name="1327613280_const" precision="FP32" type="Const">
			<output>
				<port id="1"/>
			</output>
			<blobs>
				<custom offset="5759864" size="4"/>
			</blobs>
		</layer>
		<layer id="373" name="1327713281_const" precision="FP32" type="Const">
			<output>
				<port id="1"/>
			</output>
			<blobs>
				<custom offset="5759868" size="4"/>
			</blobs>
		</layer>
		<layer id="374" name="1327813282_const" precision="FP32" type="Const">
			<output>
				<port id="1"/>
			</output>
			<blobs>
				<custom offset="5759864" size="4"/>
			</blobs>
		</layer>
		<layer id="375" name="1327913283_const" precision="FP32" type="Const">
			<output>
				<port id="1"/>
			</output>
			<blobs>
				<custom offset="5759868" size="4"/>
			</blobs>
		</layer>
		<layer id="376" name="397/fq_input_0" precision="FP32" type="FakeQuantize">
			<data levels="256.0"/>
			<input>
				<port id="0">
					<dim>1</dim>
					<dim>512</dim>
					<dim>28</dim>
					<dim>28</dim>
				</port>
				<port id="1"/>
				<port id="2"/>
				<port id="3"/>
				<port id="4"/>
			</input>
			<output>
				<port id="5">
					<dim>1</dim>
					<dim>512</dim>
					<dim>28</dim>
					<dim>28</dim>
				</port>
			</output>
		</layer>
		<layer id="377" name="397" precision="FP32" type="Eltwise">
			<data operation="sum"/>
			<input>
				<port id="0">
					<dim>1</dim>
					<dim>512</dim>
					<dim>28</dim>
					<dim>28</dim>
				</port>
				<port id="1">
					<dim>1</dim>
					<dim>512</dim>
					<dim>28</dim>
					<dim>28</dim>
				</port>
			</input>
			<output>
				<port id="2">
					<dim>1</dim>
					<dim>512</dim>
					<dim>28</dim>
					<dim>28</dim>
				</port>
			</output>
		</layer>
		<layer id="378" name="398" precision="FP32" type="ReLU">
			<input>
				<port id="0">
					<dim>1</dim>
					<dim>512</dim>
					<dim>28</dim>
					<dim>28</dim>
				</port>
			</input>
			<output>
				<port id="1">
					<dim>1</dim>
					<dim>512</dim>
					<dim>28</dim>
					<dim>28</dim>
				</port>
			</output>
		</layer>
		<layer id="379" name="1351613520_const" precision="FP32" type="Const">
			<output>
				<port id="1"/>
			</output>
			<blobs>
				<custom offset="37928" size="4"/>
			</blobs>
		</layer>
		<layer id="380" name="1351713521_const" precision="FP32" type="Const">
			<output>
				<port id="1"/>
			</output>
			<blobs>
				<custom offset="5759872" size="4"/>
			</blobs>
		</layer>
		<layer id="381" name="1351813522_const" precision="FP32" type="Const">
			<output>
				<port id="1"/>
			</output>
			<blobs>
				<custom offset="37928" size="4"/>
			</blobs>
		</layer>
		<layer id="382" name="1351913523_const" precision="FP32" type="Const">
			<output>
				<port id="1"/>
			</output>
			<blobs>
				<custom offset="5759872" size="4"/>
			</blobs>
		</layer>
		<layer id="383" name="399/fq_input_0" precision="FP32" type="FakeQuantize">
			<data levels="256.0"/>
			<input>
				<port id="0">
					<dim>1</dim>
					<dim>512</dim>
					<dim>28</dim>
					<dim>28</dim>
				</port>
				<port id="1"/>
				<port id="2"/>
				<port id="3"/>
				<port id="4"/>
			</input>
			<output>
				<port id="5">
					<dim>1</dim>
					<dim>512</dim>
					<dim>28</dim>
					<dim>28</dim>
				</port>
			</output>
		</layer>
		<layer id="384" name="Mul1_6235/Fused_Mul_82878289_const" precision="FP32" type="Const">
			<output>
				<port id="1">
					<dim>256</dim>
					<dim>512</dim>
					<dim>1</dim>
					<dim>1</dim>
				</port>
			</output>
			<blobs>
				<custom offset="5759876" size="524288"/>
			</blobs>
		</layer>
		<layer id="385" name="1352613530_const" precision="FP32" type="Const">
			<output>
				<port id="1"/>
			</output>
			<blobs>
				<custom offset="6284164" size="4"/>
			</blobs>
		</layer>
		<layer id="386" name="1352713531_const" precision="FP32" type="Const">
			<output>
				<port id="1"/>
			</output>
			<blobs>
				<custom offset="6284168" size="4"/>
			</blobs>
		</layer>
		<layer id="387" name="1352813532_const" precision="FP32" type="Const">
			<output>
				<port id="1"/>
			</output>
			<blobs>
				<custom offset="6284164" size="4"/>
			</blobs>
		</layer>
		<layer id="388" name="1352913533_const" precision="FP32" type="Const">
			<output>
				<port id="1"/>
			</output>
			<blobs>
				<custom offset="6284168" size="4"/>
			</blobs>
		</layer>
		<layer id="389" name="399/fq_weights_1" precision="FP32" type="FakeQuantize">
			<data levels="255.0"/>
			<input>
				<port id="0">
					<dim>256</dim>
					<dim>512</dim>
					<dim>1</dim>
					<dim>1</dim>
				</port>
				<port id="1"/>
				<port id="2"/>
				<port id="3"/>
				<port id="4"/>
			</input>
			<output>
				<port id="5">
					<dim>256</dim>
					<dim>512</dim>
					<dim>1</dim>
					<dim>1</dim>
				</port>
			</output>
		</layer>
		<layer id="390" name="bias_data82908291_const" precision="FP32" type="Const">
			<output>
				<port id="1">
					<dim>256</dim>
				</port>
			</output>
			<blobs>
				<custom offset="6284172" size="1024"/>
			</blobs>
		</layer>
		<layer id="391" name="399" precision="FP32" type="Convolution">
			<data dilations="1,1" group="1" kernel="1,1" output="256" pads_begin="0,0" pads_end="0,0" strides="1,1"/>
			<input>
				<port id="0">
					<dim>1</dim>
					<dim>512</dim>
					<dim>28</dim>
					<dim>28</dim>
				</port>
				<port id="1">
					<dim>256</dim>
					<dim>512</dim>
					<dim>1</dim>
					<dim>1</dim>
				</port>
				<port id="2">
					<dim>256</dim>
				</port>
			</input>
			<output>
				<port id="3">
					<dim>1</dim>
					<dim>256</dim>
					<dim>28</dim>
					<dim>28</dim>
				</port>
			</output>
		</layer>
		<layer id="392" name="401" precision="FP32" type="ReLU">
			<input>
				<port id="0">
					<dim>1</dim>
					<dim>256</dim>
					<dim>28</dim>
					<dim>28</dim>
				</port>
			</input>
			<output>
				<port id="1">
					<dim>1</dim>
					<dim>256</dim>
					<dim>28</dim>
					<dim>28</dim>
				</port>
			</output>
		</layer>
		<layer id="393" name="1333613340_const" precision="FP32" type="Const">
			<output>
				<port id="1"/>
			</output>
			<blobs>
				<custom offset="37928" size="4"/>
			</blobs>
		</layer>
		<layer id="394" name="1333713341_const" precision="FP32" type="Const">
			<output>
				<port id="1"/>
			</output>
			<blobs>
				<custom offset="6285196" size="4"/>
			</blobs>
		</layer>
		<layer id="395" name="1333813342_const" precision="FP32" type="Const">
			<output>
				<port id="1"/>
			</output>
			<blobs>
				<custom offset="37928" size="4"/>
			</blobs>
		</layer>
		<layer id="396" name="1333913343_const" precision="FP32" type="Const">
			<output>
				<port id="1"/>
			</output>
			<blobs>
				<custom offset="6285196" size="4"/>
			</blobs>
		</layer>
		<layer id="397" name="402/fq_input_0" precision="FP32" type="FakeQuantize">
			<data levels="256.0"/>
			<input>
				<port id="0">
					<dim>1</dim>
					<dim>256</dim>
					<dim>28</dim>
					<dim>28</dim>
				</port>
				<port id="1"/>
				<port id="2"/>
				<port id="3"/>
				<port id="4"/>
			</input>
			<output>
				<port id="5">
					<dim>1</dim>
					<dim>256</dim>
					<dim>28</dim>
					<dim>28</dim>
				</port>
			</output>
		</layer>
		<layer id="398" name="Mul1_6151/Fused_Mul_82938295_const" precision="FP32" type="Const">
			<output>
				<port id="1">
					<dim>256</dim>
					<dim>256</dim>
					<dim>3</dim>
					<dim>3</dim>
				</port>
			</output>
			<blobs>
				<custom offset="6285200" size="2359296"/>
			</blobs>
		</layer>
		<layer id="399" name="1334613350_const" precision="FP32" type="Const">
			<output>
				<port id="1"/>
			</output>
			<blobs>
				<custom offset="8644496" size="4"/>
			</blobs>
		</layer>
		<layer id="400" name="1334713351_const" precision="FP32" type="Const">
			<output>
				<port id="1"/>
			</output>
			<blobs>
				<custom offset="8644500" size="4"/>
			</blobs>
		</layer>
		<layer id="401" name="1334813352_const" precision="FP32" type="Const">
			<output>
				<port id="1"/>
			</output>
			<blobs>
				<custom offset="8644496" size="4"/>
			</blobs>
		</layer>
		<layer id="402" name="1334913353_const" precision="FP32" type="Const">
			<output>
				<port id="1"/>
			</output>
			<blobs>
				<custom offset="8644500" size="4"/>
			</blobs>
		</layer>
		<layer id="403" name="402/fq_weights_1" precision="FP32" type="FakeQuantize">
			<data levels="255.0"/>
			<input>
				<port id="0">
					<dim>256</dim>
					<dim>256</dim>
					<dim>3</dim>
					<dim>3</dim>
				</port>
				<port id="1"/>
				<port id="2"/>
				<port id="3"/>
				<port id="4"/>
			</input>
			<output>
				<port id="5">
					<dim>256</dim>
					<dim>256</dim>
					<dim>3</dim>
					<dim>3</dim>
				</port>
			</output>
		</layer>
		<layer id="404" name="bias_data82968297_const" precision="FP32" type="Const">
			<output>
				<port id="1">
					<dim>256</dim>
				</port>
			</output>
			<blobs>
				<custom offset="8644504" size="1024"/>
			</blobs>
		</layer>
		<layer id="405" name="402" precision="FP32" type="Convolution">
			<data dilations="1,1" group="1" kernel="3,3" output="256" pads_begin="1,1" pads_end="1,1" strides="2,2"/>
			<input>
				<port id="0">
					<dim>1</dim>
					<dim>256</dim>
					<dim>28</dim>
					<dim>28</dim>
				</port>
				<port id="1">
					<dim>256</dim>
					<dim>256</dim>
					<dim>3</dim>
					<dim>3</dim>
				</port>
				<port id="2">
					<dim>256</dim>
				</port>
			</input>
			<output>
				<port id="3">
					<dim>1</dim>
					<dim>256</dim>
					<dim>14</dim>
					<dim>14</dim>
				</port>
			</output>
		</layer>
		<layer id="406" name="404" precision="FP32" type="ReLU">
			<input>
				<port id="0">
					<dim>1</dim>
					<dim>256</dim>
					<dim>14</dim>
					<dim>14</dim>
				</port>
			</input>
			<output>
				<port id="1">
					<dim>1</dim>
					<dim>256</dim>
					<dim>14</dim>
					<dim>14</dim>
				</port>
			</output>
		</layer>
		<layer id="407" name="1321613220_const" precision="FP32" type="Const">
			<output>
				<port id="1"/>
			</output>
			<blobs>
				<custom offset="37928" size="4"/>
			</blobs>
		</layer>
		<layer id="408" name="1321713221_const" precision="FP32" type="Const">
			<output>
				<port id="1"/>
			</output>
			<blobs>
				<custom offset="8645528" size="4"/>
			</blobs>
		</layer>
		<layer id="409" name="1321813222_const" precision="FP32" type="Const">
			<output>
				<port id="1"/>
			</output>
			<blobs>
				<custom offset="37928" size="4"/>
			</blobs>
		</layer>
		<layer id="410" name="1321913223_const" precision="FP32" type="Const">
			<output>
				<port id="1"/>
			</output>
			<blobs>
				<custom offset="8645528" size="4"/>
			</blobs>
		</layer>
		<layer id="411" name="405/fq_input_0" precision="FP32" type="FakeQuantize">
			<data levels="256.0"/>
			<input>
				<port id="0">
					<dim>1</dim>
					<dim>256</dim>
					<dim>14</dim>
					<dim>14</dim>
				</port>
				<port id="1"/>
				<port id="2"/>
				<port id="3"/>
				<port id="4"/>
			</input>
			<output>
				<port id="5">
					<dim>1</dim>
					<dim>256</dim>
					<dim>14</dim>
					<dim>14</dim>
				</port>
			</output>
		</layer>
		<layer id="412" name="Mul1_6619/Fused_Mul_82998301_const" precision="FP32" type="Const">
			<output>
				<port id="1">
					<dim>1024</dim>
					<dim>256</dim>
					<dim>1</dim>
					<dim>1</dim>
				</port>
			</output>
			<blobs>
				<custom offset="8645532" size="1048576"/>
			</blobs>
		</layer>
		<layer id="413" name="1322613230_const" precision="FP32" type="Const">
			<output>
				<port id="1"/>
			</output>
			<blobs>
				<custom offset="9694108" size="4"/>
			</blobs>
		</layer>
		<layer id="414" name="1322713231_const" precision="FP32" type="Const">
			<output>
				<port id="1"/>
			</output>
			<blobs>
				<custom offset="9694112" size="4"/>
			</blobs>
		</layer>
		<layer id="415" name="1322813232_const" precision="FP32" type="Const">
			<output>
				<port id="1"/>
			</output>
			<blobs>
				<custom offset="9694108" size="4"/>
			</blobs>
		</layer>
		<layer id="416" name="1322913233_const" precision="FP32" type="Const">
			<output>
				<port id="1"/>
			</output>
			<blobs>
				<custom offset="9694112" size="4"/>
			</blobs>
		</layer>
		<layer id="417" name="405/fq_weights_1" precision="FP32" type="FakeQuantize">
			<data levels="255.0"/>
			<input>
				<port id="0">
					<dim>1024</dim>
					<dim>256</dim>
					<dim>1</dim>
					<dim>1</dim>
				</port>
				<port id="1"/>
				<port id="2"/>
				<port id="3"/>
				<port id="4"/>
			</input>
			<output>
				<port id="5">
					<dim>1024</dim>
					<dim>256</dim>
					<dim>1</dim>
					<dim>1</dim>
				</port>
			</output>
		</layer>
		<layer id="418" name="bias_data83028303_const" precision="FP32" type="Const">
			<output>
				<port id="1">
					<dim>1024</dim>
				</port>
			</output>
			<blobs>
				<custom offset="9694116" size="4096"/>
			</blobs>
		</layer>
		<layer id="419" name="405" precision="FP32" type="Convolution">
			<data dilations="1,1" group="1" kernel="1,1" output="1024" pads_begin="0,0" pads_end="0,0" strides="1,1"/>
			<input>
				<port id="0">
					<dim>1</dim>
					<dim>256</dim>
					<dim>14</dim>
					<dim>14</dim>
				</port>
				<port id="1">
					<dim>1024</dim>
					<dim>256</dim>
					<dim>1</dim>
					<dim>1</dim>
				</port>
				<port id="2">
					<dim>1024</dim>
				</port>
			</input>
			<output>
				<port id="3">
					<dim>1</dim>
					<dim>1024</dim>
					<dim>14</dim>
					<dim>14</dim>
				</port>
			</output>
		</layer>
		<layer id="420" name="1323613240_const" precision="FP32" type="Const">
			<output>
				<port id="1"/>
			</output>
			<blobs>
				<custom offset="9698212" size="4"/>
			</blobs>
		</layer>
		<layer id="421" name="1323713241_const" precision="FP32" type="Const">
			<output>
				<port id="1"/>
			</output>
			<blobs>
				<custom offset="9698216" size="4"/>
			</blobs>
		</layer>
		<layer id="422" name="1323813242_const" precision="FP32" type="Const">
			<output>
				<port id="1"/>
			</output>
			<blobs>
				<custom offset="9698212" size="4"/>
			</blobs>
		</layer>
		<layer id="423" name="1323913243_const" precision="FP32" type="Const">
			<output>
				<port id="1"/>
			</output>
			<blobs>
				<custom offset="9698216" size="4"/>
			</blobs>
		</layer>
		<layer id="424" name="409/fq_input_0" precision="FP32" type="FakeQuantize">
			<data levels="256.0"/>
			<input>
				<port id="0">
					<dim>1</dim>
					<dim>1024</dim>
					<dim>14</dim>
					<dim>14</dim>
				</port>
				<port id="1"/>
				<port id="2"/>
				<port id="3"/>
				<port id="4"/>
			</input>
			<output>
				<port id="5">
					<dim>1</dim>
					<dim>1024</dim>
					<dim>14</dim>
					<dim>14</dim>
				</port>
			</output>
		</layer>
		<layer id="425" name="Mul1_6391/Fused_Mul_82818283_const" precision="FP32" type="Const">
			<output>
				<port id="1">
					<dim>1024</dim>
					<dim>512</dim>
					<dim>1</dim>
					<dim>1</dim>
				</port>
			</output>
			<blobs>
				<custom offset="9698220" size="2097152"/>
			</blobs>
		</layer>
		<layer id="426" name="1297612980_const" precision="FP32" type="Const">
			<output>
				<port id="1"/>
			</output>
			<blobs>
				<custom offset="11795372" size="4"/>
			</blobs>
		</layer>
		<layer id="427" name="1297712981_const" precision="FP32" type="Const">
			<output>
				<port id="1"/>
			</output>
			<blobs>
				<custom offset="11795376" size="4"/>
			</blobs>
		</layer>
		<layer id="428" name="1297812982_const" precision="FP32" type="Const">
			<output>
				<port id="1"/>
			</output>
			<blobs>
				<custom offset="11795372" size="4"/>
			</blobs>
		</layer>
		<layer id="429" name="1297912983_const" precision="FP32" type="Const">
			<output>
				<port id="1"/>
			</output>
			<blobs>
				<custom offset="11795376" size="4"/>
			</blobs>
		</layer>
		<layer id="430" name="407/fq_weights_1" precision="FP32" type="FakeQuantize">
			<data levels="255.0"/>
			<input>
				<port id="0">
					<dim>1024</dim>
					<dim>512</dim>
					<dim>1</dim>
					<dim>1</dim>
				</port>
				<port id="1"/>
				<port id="2"/>
				<port id="3"/>
				<port id="4"/>
			</input>
			<output>
				<port id="5">
					<dim>1024</dim>
					<dim>512</dim>
					<dim>1</dim>
					<dim>1</dim>
				</port>
			</output>
		</layer>
		<layer id="431" name="bias_data82848285_const" precision="FP32" type="Const">
			<output>
				<port id="1">
					<dim>1024</dim>
				</port>
			</output>
			<blobs>
				<custom offset="11795380" size="4096"/>
			</blobs>
		</layer>
		<layer id="432" name="407" precision="FP32" type="Convolution">
			<data dilations="1,1" group="1" kernel="1,1" output="1024" pads_begin="0,0" pads_end="0,0" strides="2,2"/>
			<input>
				<port id="0">
					<dim>1</dim>
					<dim>512</dim>
					<dim>28</dim>
					<dim>28</dim>
				</port>
				<port id="1">
					<dim>1024</dim>
					<dim>512</dim>
					<dim>1</dim>
					<dim>1</dim>
				</port>
				<port id="2">
					<dim>1024</dim>
				</port>
			</input>
			<output>
				<port id="3">
					<dim>1</dim>
					<dim>1024</dim>
					<dim>14</dim>
					<dim>14</dim>
				</port>
			</output>
		</layer>
		<layer id="433" name="1324613250_const" precision="FP32" type="Const">
			<output>
				<port id="1"/>
			</output>
			<blobs>
				<custom offset="11799476" size="4"/>
			</blobs>
		</layer>
		<layer id="434" name="1324713251_const" precision="FP32" type="Const">
			<output>
				<port id="1"/>
			</output>
			<blobs>
				<custom offset="11799480" size="4"/>
			</blobs>
		</layer>
		<layer id="435" name="1324813252_const" precision="FP32" type="Const">
			<output>
				<port id="1"/>
			</output>
			<blobs>
				<custom offset="11799476" size="4"/>
			</blobs>
		</layer>
		<layer id="436" name="1324913253_const" precision="FP32" type="Const">
			<output>
				<port id="1"/>
			</output>
			<blobs>
				<custom offset="11799480" size="4"/>
			</blobs>
		</layer>
		<layer id="437" name="409/fq_input_1" precision="FP32" type="FakeQuantize">
			<data levels="256.0"/>
			<input>
				<port id="0">
					<dim>1</dim>
					<dim>1024</dim>
					<dim>14</dim>
					<dim>14</dim>
				</port>
				<port id="1"/>
				<port id="2"/>
				<port id="3"/>
				<port id="4"/>
			</input>
			<output>
				<port id="5">
					<dim>1</dim>
					<dim>1024</dim>
					<dim>14</dim>
					<dim>14</dim>
				</port>
			</output>
		</layer>
		<layer id="438" name="409" precision="FP32" type="Eltwise">
			<data operation="sum"/>
			<input>
				<port id="0">
					<dim>1</dim>
					<dim>1024</dim>
					<dim>14</dim>
					<dim>14</dim>
				</port>
				<port id="1">
					<dim>1</dim>
					<dim>1024</dim>
					<dim>14</dim>
					<dim>14</dim>
				</port>
			</input>
			<output>
				<port id="2">
					<dim>1</dim>
					<dim>1024</dim>
					<dim>14</dim>
					<dim>14</dim>
				</port>
			</output>
		</layer>
		<layer id="439" name="410" precision="FP32" type="ReLU">
			<input>
				<port id="0">
					<dim>1</dim>
					<dim>1024</dim>
					<dim>14</dim>
					<dim>14</dim>
				</port>
			</input>
			<output>
				<port id="1">
					<dim>1</dim>
					<dim>1024</dim>
					<dim>14</dim>
					<dim>14</dim>
				</port>
			</output>
		</layer>
		<layer id="440" name="1299613000_const" precision="FP32" type="Const">
			<output>
				<port id="1"/>
			</output>
			<blobs>
				<custom offset="37928" size="4"/>
			</blobs>
		</layer>
		<layer id="441" name="1299713001_const" precision="FP32" type="Const">
			<output>
				<port id="1"/>
			</output>
			<blobs>
				<custom offset="11799484" size="4"/>
			</blobs>
		</layer>
		<layer id="442" name="1299813002_const" precision="FP32" type="Const">
			<output>
				<port id="1"/>
			</output>
			<blobs>
				<custom offset="37928" size="4"/>
			</blobs>
		</layer>
		<layer id="443" name="1299913003_const" precision="FP32" type="Const">
			<output>
				<port id="1"/>
			</output>
			<blobs>
				<custom offset="11799484" size="4"/>
			</blobs>
		</layer>
		<layer id="444" name="419/fq_input_1" precision="FP32" type="FakeQuantize">
			<data levels="256.0"/>
			<input>
				<port id="0">
					<dim>1</dim>
					<dim>1024</dim>
					<dim>14</dim>
					<dim>14</dim>
				</port>
				<port id="1"/>
				<port id="2"/>
				<port id="3"/>
				<port id="4"/>
			</input>
			<output>
				<port id="5">
					<dim>1</dim>
					<dim>1024</dim>
					<dim>14</dim>
					<dim>14</dim>
				</port>
			</output>
		</layer>
		<layer id="445" name="Mul1_6463/Fused_Mul_83058307_const" precision="FP32" type="Const">
			<output>
				<port id="1">
					<dim>256</dim>
					<dim>1024</dim>
					<dim>1</dim>
					<dim>1</dim>
				</port>
			</output>
			<blobs>
				<custom offset="11799488" size="1048576"/>
			</blobs>
		</layer>
		<layer id="446" name="1315613160_const" precision="FP32" type="Const">
			<output>
				<port id="1"/>
			</output>
			<blobs>
				<custom offset="12848064" size="4"/>
			</blobs>
		</layer>
		<layer id="447" name="1315713161_const" precision="FP32" type="Const">
			<output>
				<port id="1"/>
			</output>
			<blobs>
				<custom offset="12848068" size="4"/>
			</blobs>
		</layer>
		<layer id="448" name="1315813162_const" precision="FP32" type="Const">
			<output>
				<port id="1"/>
			</output>
			<blobs>
				<custom offset="12848064" size="4"/>
			</blobs>
		</layer>
		<layer id="449" name="1315913163_const" precision="FP32" type="Const">
			<output>
				<port id="1"/>
			</output>
			<blobs>
				<custom offset="12848068" size="4"/>
			</blobs>
		</layer>
		<layer id="450" name="411/fq_weights_1" precision="FP32" type="FakeQuantize">
			<data levels="255.0"/>
			<input>
				<port id="0">
					<dim>256</dim>
					<dim>1024</dim>
					<dim>1</dim>
					<dim>1</dim>
				</port>
				<port id="1"/>
				<port id="2"/>
				<port id="3"/>
				<port id="4"/>
			</input>
			<output>
				<port id="5">
					<dim>256</dim>
					<dim>1024</dim>
					<dim>1</dim>
					<dim>1</dim>
				</port>
			</output>
		</layer>
		<layer id="451" name="bias_data83088309_const" precision="FP32" type="Const">
			<output>
				<port id="1">
					<dim>256</dim>
				</port>
			</output>
			<blobs>
				<custom offset="12848072" size="1024"/>
			</blobs>
		</layer>
		<layer id="452" name="411" precision="FP32" type="Convolution">
			<data dilations="1,1" group="1" kernel="1,1" output="256" pads_begin="0,0" pads_end="0,0" strides="1,1"/>
			<input>
				<port id="0">
					<dim>1</dim>
					<dim>1024</dim>
					<dim>14</dim>
					<dim>14</dim>
				</port>
				<port id="1">
					<dim>256</dim>
					<dim>1024</dim>
					<dim>1</dim>
					<dim>1</dim>
				</port>
				<port id="2">
					<dim>256</dim>
				</port>
			</input>
			<output>
				<port id="3">
					<dim>1</dim>
					<dim>256</dim>
					<dim>14</dim>
					<dim>14</dim>
				</port>
			</output>
		</layer>
		<layer id="453" name="413" precision="FP32" type="ReLU">
			<input>
				<port id="0">
					<dim>1</dim>
					<dim>256</dim>
					<dim>14</dim>
					<dim>14</dim>
				</port>
			</input>
			<output>
				<port id="1">
					<dim>1</dim>
					<dim>256</dim>
					<dim>14</dim>
					<dim>14</dim>
				</port>
			</output>
		</layer>
		<layer id="454" name="1355613560_const" precision="FP32" type="Const">
			<output>
				<port id="1"/>
			</output>
			<blobs>
				<custom offset="37928" size="4"/>
			</blobs>
		</layer>
		<layer id="455" name="1355713561_const" precision="FP32" type="Const">
			<output>
				<port id="1"/>
			</output>
			<blobs>
				<custom offset="12849096" size="4"/>
			</blobs>
		</layer>
		<layer id="456" name="1355813562_const" precision="FP32" type="Const">
			<output>
				<port id="1"/>
			</output>
			<blobs>
				<custom offset="37928" size="4"/>
			</blobs>
		</layer>
		<layer id="457" name="1355913563_const" precision="FP32" type="Const">
			<output>
				<port id="1"/>
			</output>
			<blobs>
				<custom offset="12849096" size="4"/>
			</blobs>
		</layer>
		<layer id="458" name="414/fq_input_0" precision="FP32" type="FakeQuantize">
			<data levels="256.0"/>
			<input>
				<port id="0">
					<dim>1</dim>
					<dim>256</dim>
					<dim>14</dim>
					<dim>14</dim>
				</port>
				<port id="1"/>
				<port id="2"/>
				<port id="3"/>
				<port id="4"/>
			</input>
			<output>
				<port id="5">
					<dim>1</dim>
					<dim>256</dim>
					<dim>14</dim>
					<dim>14</dim>
				</port>
			</output>
		</layer>
		<layer id="459" name="Mul1_/Fused_Mul_83118313_const" precision="FP32" type="Const">
			<output>
				<port id="1">
					<dim>256</dim>
					<dim>256</dim>
					<dim>3</dim>
					<dim>3</dim>
				</port>
			</output>
			<blobs>
				<custom offset="12849100" size="2359296"/>
			</blobs>
		</layer>
		<layer id="460" name="1356613570_const" precision="FP32" type="Const">
			<output>
				<port id="1"/>
			</output>
			<blobs>
				<custom offset="15208396" size="4"/>
			</blobs>
		</layer>
		<layer id="461" name="1356713571_const" precision="FP32" type="Const">
			<output>
				<port id="1"/>
			</output>
			<blobs>
				<custom offset="15208400" size="4"/>
			</blobs>
		</layer>
		<layer id="462" name="1356813572_const" precision="FP32" type="Const">
			<output>
				<port id="1"/>
			</output>
			<blobs>
				<custom offset="15208396" size="4"/>
			</blobs>
		</layer>
		<layer id="463" name="1356913573_const" precision="FP32" type="Const">
			<output>
				<port id="1"/>
			</output>
			<blobs>
				<custom offset="15208400" size="4"/>
			</blobs>
		</layer>
		<layer id="464" name="414/fq_weights_1" precision="FP32" type="FakeQuantize">
			<data levels="255.0"/>
			<input>
				<port id="0">
					<dim>256</dim>
					<dim>256</dim>
					<dim>3</dim>
					<dim>3</dim>
				</port>
				<port id="1"/>
				<port id="2"/>
				<port id="3"/>
				<port id="4"/>
			</input>
			<output>
				<port id="5">
					<dim>256</dim>
					<dim>256</dim>
					<dim>3</dim>
					<dim>3</dim>
				</port>
			</output>
		</layer>
		<layer id="465" name="bias_data83148315_const" precision="FP32" type="Const">
			<output>
				<port id="1">
					<dim>256</dim>
				</port>
			</output>
			<blobs>
				<custom offset="15208404" size="1024"/>
			</blobs>
		</layer>
		<layer id="466" name="414" precision="FP32" type="Convolution">
			<data dilations="1,1" group="1" kernel="3,3" output="256" pads_begin="1,1" pads_end="1,1" strides="1,1"/>
			<input>
				<port id="0">
					<dim>1</dim>
					<dim>256</dim>
					<dim>14</dim>
					<dim>14</dim>
				</port>
				<port id="1">
					<dim>256</dim>
					<dim>256</dim>
					<dim>3</dim>
					<dim>3</dim>
				</port>
				<port id="2">
					<dim>256</dim>
				</port>
			</input>
			<output>
				<port id="3">
					<dim>1</dim>
					<dim>256</dim>
					<dim>14</dim>
					<dim>14</dim>
				</port>
			</output>
		</layer>
		<layer id="467" name="416" precision="FP32" type="ReLU">
			<input>
				<port id="0">
					<dim>1</dim>
					<dim>256</dim>
					<dim>14</dim>
					<dim>14</dim>
				</port>
			</input>
			<output>
				<port id="1">
					<dim>1</dim>
					<dim>256</dim>
					<dim>14</dim>
					<dim>14</dim>
				</port>
			</output>
		</layer>
		<layer id="468" name="1286612870_const" precision="FP32" type="Const">
			<output>
				<port id="1"/>
			</output>
			<blobs>
				<custom offset="37928" size="4"/>
			</blobs>
		</layer>
		<layer id="469" name="1286712871_const" precision="FP32" type="Const">
			<output>
				<port id="1"/>
			</output>
			<blobs>
				<custom offset="15209428" size="4"/>
			</blobs>
		</layer>
		<layer id="470" name="1286812872_const" precision="FP32" type="Const">
			<output>
				<port id="1"/>
			</output>
			<blobs>
				<custom offset="37928" size="4"/>
			</blobs>
		</layer>
		<layer id="471" name="1286912873_const" precision="FP32" type="Const">
			<output>
				<port id="1"/>
			</output>
			<blobs>
				<custom offset="15209428" size="4"/>
			</blobs>
		</layer>
		<layer id="472" name="417/fq_input_0" precision="FP32" type="FakeQuantize">
			<data levels="256.0"/>
			<input>
				<port id="0">
					<dim>1</dim>
					<dim>256</dim>
					<dim>14</dim>
					<dim>14</dim>
				</port>
				<port id="1"/>
				<port id="2"/>
				<port id="3"/>
				<port id="4"/>
			</input>
			<output>
				<port id="5">
					<dim>1</dim>
					<dim>256</dim>
					<dim>14</dim>
					<dim>14</dim>
				</port>
			</output>
		</layer>
		<layer id="473" name="Mul1_6319/Fused_Mul_83178319_const" precision="FP32" type="Const">
			<output>
				<port id="1">
					<dim>1024</dim>
					<dim>256</dim>
					<dim>1</dim>
					<dim>1</dim>
				</port>
			</output>
			<blobs>
				<custom offset="15209432" size="1048576"/>
			</blobs>
		</layer>
		<layer id="474" name="1287612880_const" precision="FP32" type="Const">
			<output>
				<port id="1"/>
			</output>
			<blobs>
				<custom offset="16258008" size="4"/>
			</blobs>
		</layer>
		<layer id="475" name="1287712881_const" precision="FP32" type="Const">
			<output>
				<port id="1"/>
			</output>
			<blobs>
				<custom offset="16258012" size="4"/>
			</blobs>
		</layer>
		<layer id="476" name="1287812882_const" precision="FP32" type="Const">
			<output>
				<port id="1"/>
			</output>
			<blobs>
				<custom offset="16258008" size="4"/>
			</blobs>
		</layer>
		<layer id="477" name="1287912883_const" precision="FP32" type="Const">
			<output>
				<port id="1"/>
			</output>
			<blobs>
				<custom offset="16258012" size="4"/>
			</blobs>
		</layer>
		<layer id="478" name="417/fq_weights_1" precision="FP32" type="FakeQuantize">
			<data levels="255.0"/>
			<input>
				<port id="0">
					<dim>1024</dim>
					<dim>256</dim>
					<dim>1</dim>
					<dim>1</dim>
				</port>
				<port id="1"/>
				<port id="2"/>
				<port id="3"/>
				<port id="4"/>
			</input>
			<output>
				<port id="5">
					<dim>1024</dim>
					<dim>256</dim>
					<dim>1</dim>
					<dim>1</dim>
				</port>
			</output>
		</layer>
		<layer id="479" name="bias_data83208321_const" precision="FP32" type="Const">
			<output>
				<port id="1">
					<dim>1024</dim>
				</port>
			</output>
			<blobs>
				<custom offset="16258016" size="4096"/>
			</blobs>
		</layer>
		<layer id="480" name="417" precision="FP32" type="Convolution">
			<data dilations="1,1" group="1" kernel="1,1" output="1024" pads_begin="0,0" pads_end="0,0" strides="1,1"/>
			<input>
				<port id="0">
					<dim>1</dim>
					<dim>256</dim>
					<dim>14</dim>
					<dim>14</dim>
				</port>
				<port id="1">
					<dim>1024</dim>
					<dim>256</dim>
					<dim>1</dim>
					<dim>1</dim>
				</port>
				<port id="2">
					<dim>1024</dim>
				</port>
			</input>
			<output>
				<port id="3">
					<dim>1</dim>
					<dim>1024</dim>
					<dim>14</dim>
					<dim>14</dim>
				</port>
			</output>
		</layer>
		<layer id="481" name="1298612990_const" precision="FP32" type="Const">
			<output>
				<port id="1"/>
			</output>
			<blobs>
				<custom offset="16262112" size="4"/>
			</blobs>
		</layer>
		<layer id="482" name="1298712991_const" precision="FP32" type="Const">
			<output>
				<port id="1"/>
			</output>
			<blobs>
				<custom offset="16262116" size="4"/>
			</blobs>
		</layer>
		<layer id="483" name="1298812992_const" precision="FP32" type="Const">
			<output>
				<port id="1"/>
			</output>
			<blobs>
				<custom offset="16262112" size="4"/>
			</blobs>
		</layer>
		<layer id="484" name="1298912993_const" precision="FP32" type="Const">
			<output>
				<port id="1"/>
			</output>
			<blobs>
				<custom offset="16262116" size="4"/>
			</blobs>
		</layer>
		<layer id="485" name="419/fq_input_0" precision="FP32" type="FakeQuantize">
			<data levels="256.0"/>
			<input>
				<port id="0">
					<dim>1</dim>
					<dim>1024</dim>
					<dim>14</dim>
					<dim>14</dim>
				</port>
				<port id="1"/>
				<port id="2"/>
				<port id="3"/>
				<port id="4"/>
			</input>
			<output>
				<port id="5">
					<dim>1</dim>
					<dim>1024</dim>
					<dim>14</dim>
					<dim>14</dim>
				</port>
			</output>
		</layer>
		<layer id="486" name="419" precision="FP32" type="Eltwise">
			<data operation="sum"/>
			<input>
				<port id="0">
					<dim>1</dim>
					<dim>1024</dim>
					<dim>14</dim>
					<dim>14</dim>
				</port>
				<port id="1">
					<dim>1</dim>
					<dim>1024</dim>
					<dim>14</dim>
					<dim>14</dim>
				</port>
			</input>
			<output>
				<port id="2">
					<dim>1</dim>
					<dim>1024</dim>
					<dim>14</dim>
					<dim>14</dim>
				</port>
			</output>
		</layer>
		<layer id="487" name="420" precision="FP32" type="ReLU">
			<input>
				<port id="0">
					<dim>1</dim>
					<dim>1024</dim>
					<dim>14</dim>
					<dim>14</dim>
				</port>
			</input>
			<output>
				<port id="1">
					<dim>1</dim>
					<dim>1024</dim>
					<dim>14</dim>
					<dim>14</dim>
				</port>
			</output>
		</layer>
		<layer id="488" name="1246612470_const" precision="FP32" type="Const">
			<output>
				<port id="1"/>
			</output>
			<blobs>
				<custom offset="37928" size="4"/>
			</blobs>
		</layer>
		<layer id="489" name="1246712471_const" precision="FP32" type="Const">
			<output>
				<port id="1"/>
			</output>
			<blobs>
				<custom offset="16262120" size="4"/>
			</blobs>
		</layer>
		<layer id="490" name="1246812472_const" precision="FP32" type="Const">
			<output>
				<port id="1"/>
			</output>
			<blobs>
				<custom offset="37928" size="4"/>
			</blobs>
		</layer>
		<layer id="491" name="1246912473_const" precision="FP32" type="Const">
			<output>
				<port id="1"/>
			</output>
			<blobs>
				<custom offset="16262120" size="4"/>
			</blobs>
		</layer>
		<layer id="492" name="421/fq_input_0" precision="FP32" type="FakeQuantize">
			<data levels="256.0"/>
			<input>
				<port id="0">
					<dim>1</dim>
					<dim>1024</dim>
					<dim>14</dim>
					<dim>14</dim>
				</port>
				<port id="1"/>
				<port id="2"/>
				<port id="3"/>
				<port id="4"/>
			</input>
			<output>
				<port id="5">
					<dim>1</dim>
					<dim>1024</dim>
					<dim>14</dim>
					<dim>14</dim>
				</port>
			</output>
		</layer>
		<layer id="493" name="Mul1_6475/Fused_Mul_83238325_const" precision="FP32" type="Const">
			<output>
				<port id="1">
					<dim>256</dim>
					<dim>1024</dim>
					<dim>1</dim>
					<dim>1</dim>
				</port>
			</output>
			<blobs>
				<custom offset="16262124" size="1048576"/>
			</blobs>
		</layer>
		<layer id="494" name="1247612480_const" precision="FP32" type="Const">
			<output>
				<port id="1"/>
			</output>
			<blobs>
				<custom offset="17310700" size="4"/>
			</blobs>
		</layer>
		<layer id="495" name="1247712481_const" precision="FP32" type="Const">
			<output>
				<port id="1"/>
			</output>
			<blobs>
				<custom offset="17310704" size="4"/>
			</blobs>
		</layer>
		<layer id="496" name="1247812482_const" precision="FP32" type="Const">
			<output>
				<port id="1"/>
			</output>
			<blobs>
				<custom offset="17310700" size="4"/>
			</blobs>
		</layer>
		<layer id="497" name="1247912483_const" precision="FP32" type="Const">
			<output>
				<port id="1"/>
			</output>
			<blobs>
				<custom offset="17310704" size="4"/>
			</blobs>
		</layer>
		<layer id="498" name="421/fq_weights_1" precision="FP32" type="FakeQuantize">
			<data levels="255.0"/>
			<input>
				<port id="0">
					<dim>256</dim>
					<dim>1024</dim>
					<dim>1</dim>
					<dim>1</dim>
				</port>
				<port id="1"/>
				<port id="2"/>
				<port id="3"/>
				<port id="4"/>
			</input>
			<output>
				<port id="5">
					<dim>256</dim>
					<dim>1024</dim>
					<dim>1</dim>
					<dim>1</dim>
				</port>
			</output>
		</layer>
		<layer id="499" name="bias_data83268327_const" precision="FP32" type="Const">
			<output>
				<port id="1">
					<dim>256</dim>
				</port>
			</output>
			<blobs>
				<custom offset="17310708" size="1024"/>
			</blobs>
		</layer>
		<layer id="500" name="421" precision="FP32" type="Convolution">
			<data dilations="1,1" group="1" kernel="1,1" output="256" pads_begin="0,0" pads_end="0,0" strides="1,1"/>
			<input>
				<port id="0">
					<dim>1</dim>
					<dim>1024</dim>
					<dim>14</dim>
					<dim>14</dim>
				</port>
				<port id="1">
					<dim>256</dim>
					<dim>1024</dim>
					<dim>1</dim>
					<dim>1</dim>
				</port>
				<port id="2">
					<dim>256</dim>
				</port>
			</input>
			<output>
				<port id="3">
					<dim>1</dim>
					<dim>256</dim>
					<dim>14</dim>
					<dim>14</dim>
				</port>
			</output>
		</layer>
		<layer id="501" name="423" precision="FP32" type="ReLU">
			<input>
				<port id="0">
					<dim>1</dim>
					<dim>256</dim>
					<dim>14</dim>
					<dim>14</dim>
				</port>
			</input>
			<output>
				<port id="1">
					<dim>1</dim>
					<dim>256</dim>
					<dim>14</dim>
					<dim>14</dim>
				</port>
			</output>
		</layer>
		<layer id="502" name="1264612650_const" precision="FP32" type="Const">
			<output>
				<port id="1"/>
			</output>
			<blobs>
				<custom offset="37928" size="4"/>
			</blobs>
		</layer>
		<layer id="503" name="1264712651_const" precision="FP32" type="Const">
			<output>
				<port id="1"/>
			</output>
			<blobs>
				<custom offset="17311732" size="4"/>
			</blobs>
		</layer>
		<layer id="504" name="1264812652_const" precision="FP32" type="Const">
			<output>
				<port id="1"/>
			</output>
			<blobs>
				<custom offset="37928" size="4"/>
			</blobs>
		</layer>
		<layer id="505" name="1264912653_const" precision="FP32" type="Const">
			<output>
				<port id="1"/>
			</output>
			<blobs>
				<custom offset="17311732" size="4"/>
			</blobs>
		</layer>
		<layer id="506" name="424/fq_input_0" precision="FP32" type="FakeQuantize">
			<data levels="256.0"/>
			<input>
				<port id="0">
					<dim>1</dim>
					<dim>256</dim>
					<dim>14</dim>
					<dim>14</dim>
				</port>
				<port id="1"/>
				<port id="2"/>
				<port id="3"/>
				<port id="4"/>
			</input>
			<output>
				<port id="5">
					<dim>1</dim>
					<dim>256</dim>
					<dim>14</dim>
					<dim>14</dim>
				</port>
			</output>
		</layer>
		<layer id="507" name="Mul1_6379/Fused_Mul_83298331_const" precision="FP32" type="Const">
			<output>
				<port id="1">
					<dim>256</dim>
					<dim>256</dim>
					<dim>3</dim>
					<dim>3</dim>
				</port>
			</output>
			<blobs>
				<custom offset="17311736" size="2359296"/>
			</blobs>
		</layer>
		<layer id="508" name="1265612660_const" precision="FP32" type="Const">
			<output>
				<port id="1"/>
			</output>
			<blobs>
				<custom offset="19671032" size="4"/>
			</blobs>
		</layer>
		<layer id="509" name="1265712661_const" precision="FP32" type="Const">
			<output>
				<port id="1"/>
			</output>
			<blobs>
				<custom offset="19671036" size="4"/>
			</blobs>
		</layer>
		<layer id="510" name="1265812662_const" precision="FP32" type="Const">
			<output>
				<port id="1"/>
			</output>
			<blobs>
				<custom offset="19671032" size="4"/>
			</blobs>
		</layer>
		<layer id="511" name="1265912663_const" precision="FP32" type="Const">
			<output>
				<port id="1"/>
			</output>
			<blobs>
				<custom offset="19671036" size="4"/>
			</blobs>
		</layer>
		<layer id="512" name="424/fq_weights_1" precision="FP32" type="FakeQuantize">
			<data levels="255.0"/>
			<input>
				<port id="0">
					<dim>256</dim>
					<dim>256</dim>
					<dim>3</dim>
					<dim>3</dim>
				</port>
				<port id="1"/>
				<port id="2"/>
				<port id="3"/>
				<port id="4"/>
			</input>
			<output>
				<port id="5">
					<dim>256</dim>
					<dim>256</dim>
					<dim>3</dim>
					<dim>3</dim>
				</port>
			</output>
		</layer>
		<layer id="513" name="bias_data83328333_const" precision="FP32" type="Const">
			<output>
				<port id="1">
					<dim>256</dim>
				</port>
			</output>
			<blobs>
				<custom offset="19671040" size="1024"/>
			</blobs>
		</layer>
		<layer id="514" name="424" precision="FP32" type="Convolution">
			<data dilations="1,1" group="1" kernel="3,3" output="256" pads_begin="1,1" pads_end="1,1" strides="1,1"/>
			<input>
				<port id="0">
					<dim>1</dim>
					<dim>256</dim>
					<dim>14</dim>
					<dim>14</dim>
				</port>
				<port id="1">
					<dim>256</dim>
					<dim>256</dim>
					<dim>3</dim>
					<dim>3</dim>
				</port>
				<port id="2">
					<dim>256</dim>
				</port>
			</input>
			<output>
				<port id="3">
					<dim>1</dim>
					<dim>256</dim>
					<dim>14</dim>
					<dim>14</dim>
				</port>
			</output>
		</layer>
		<layer id="515" name="426" precision="FP32" type="ReLU">
			<input>
				<port id="0">
					<dim>1</dim>
					<dim>256</dim>
					<dim>14</dim>
					<dim>14</dim>
				</port>
			</input>
			<output>
				<port id="1">
					<dim>1</dim>
					<dim>256</dim>
					<dim>14</dim>
					<dim>14</dim>
				</port>
			</output>
		</layer>
		<layer id="516" name="1325613260_const" precision="FP32" type="Const">
			<output>
				<port id="1"/>
			</output>
			<blobs>
				<custom offset="37928" size="4"/>
			</blobs>
		</layer>
		<layer id="517" name="1325713261_const" precision="FP32" type="Const">
			<output>
				<port id="1"/>
			</output>
			<blobs>
				<custom offset="19672064" size="4"/>
			</blobs>
		</layer>
		<layer id="518" name="1325813262_const" precision="FP32" type="Const">
			<output>
				<port id="1"/>
			</output>
			<blobs>
				<custom offset="37928" size="4"/>
			</blobs>
		</layer>
		<layer id="519" name="1325913263_const" precision="FP32" type="Const">
			<output>
				<port id="1"/>
			</output>
			<blobs>
				<custom offset="19672064" size="4"/>
			</blobs>
		</layer>
		<layer id="520" name="427/fq_input_0" precision="FP32" type="FakeQuantize">
			<data levels="256.0"/>
			<input>
				<port id="0">
					<dim>1</dim>
					<dim>256</dim>
					<dim>14</dim>
					<dim>14</dim>
				</port>
				<port id="1"/>
				<port id="2"/>
				<port id="3"/>
				<port id="4"/>
			</input>
			<output>
				<port id="5">
					<dim>1</dim>
					<dim>256</dim>
					<dim>14</dim>
					<dim>14</dim>
				</port>
			</output>
		</layer>
		<layer id="521" name="Mul1_6331/Fused_Mul_83358337_const" precision="FP32" type="Const">
			<output>
				<port id="1">
					<dim>1024</dim>
					<dim>256</dim>
					<dim>1</dim>
					<dim>1</dim>
				</port>
			</output>
			<blobs>
				<custom offset="19672068" size="1048576"/>
			</blobs>
		</layer>
		<layer id="522" name="1326613270_const" precision="FP32" type="Const">
			<output>
				<port id="1"/>
			</output>
			<blobs>
				<custom offset="20720644" size="4"/>
			</blobs>
		</layer>
		<layer id="523" name="1326713271_const" precision="FP32" type="Const">
			<output>
				<port id="1"/>
			</output>
			<blobs>
				<custom offset="20720648" size="4"/>
			</blobs>
		</layer>
		<layer id="524" name="1326813272_const" precision="FP32" type="Const">
			<output>
				<port id="1"/>
			</output>
			<blobs>
				<custom offset="20720644" size="4"/>
			</blobs>
		</layer>
		<layer id="525" name="1326913273_const" precision="FP32" type="Const">
			<output>
				<port id="1"/>
			</output>
			<blobs>
				<custom offset="20720648" size="4"/>
			</blobs>
		</layer>
		<layer id="526" name="427/fq_weights_1" precision="FP32" type="FakeQuantize">
			<data levels="255.0"/>
			<input>
				<port id="0">
					<dim>1024</dim>
					<dim>256</dim>
					<dim>1</dim>
					<dim>1</dim>
				</port>
				<port id="1"/>
				<port id="2"/>
				<port id="3"/>
				<port id="4"/>
			</input>
			<output>
				<port id="5">
					<dim>1024</dim>
					<dim>256</dim>
					<dim>1</dim>
					<dim>1</dim>
				</port>
			</output>
		</layer>
		<layer id="527" name="bias_data83388339_const" precision="FP32" type="Const">
			<output>
				<port id="1">
					<dim>1024</dim>
				</port>
			</output>
			<blobs>
				<custom offset="20720652" size="4096"/>
			</blobs>
		</layer>
		<layer id="528" name="427" precision="FP32" type="Convolution">
			<data dilations="1,1" group="1" kernel="1,1" output="1024" pads_begin="0,0" pads_end="0,0" strides="1,1"/>
			<input>
				<port id="0">
					<dim>1</dim>
					<dim>256</dim>
					<dim>14</dim>
					<dim>14</dim>
				</port>
				<port id="1">
					<dim>1024</dim>
					<dim>256</dim>
					<dim>1</dim>
					<dim>1</dim>
				</port>
				<port id="2">
					<dim>1024</dim>
				</port>
			</input>
			<output>
				<port id="3">
					<dim>1</dim>
					<dim>1024</dim>
					<dim>14</dim>
					<dim>14</dim>
				</port>
			</output>
		</layer>
		<layer id="529" name="1270612710_const" precision="FP32" type="Const">
			<output>
				<port id="1"/>
			</output>
			<blobs>
				<custom offset="20724748" size="4"/>
			</blobs>
		</layer>
		<layer id="530" name="1270712711_const" precision="FP32" type="Const">
			<output>
				<port id="1"/>
			</output>
			<blobs>
				<custom offset="20724752" size="4"/>
			</blobs>
		</layer>
		<layer id="531" name="1270812712_const" precision="FP32" type="Const">
			<output>
				<port id="1"/>
			</output>
			<blobs>
				<custom offset="20724748" size="4"/>
			</blobs>
		</layer>
		<layer id="532" name="1270912713_const" precision="FP32" type="Const">
			<output>
				<port id="1"/>
			</output>
			<blobs>
				<custom offset="20724752" size="4"/>
			</blobs>
		</layer>
		<layer id="533" name="429/fq_input_0" precision="FP32" type="FakeQuantize">
			<data levels="256.0"/>
			<input>
				<port id="0">
					<dim>1</dim>
					<dim>1024</dim>
					<dim>14</dim>
					<dim>14</dim>
				</port>
				<port id="1"/>
				<port id="2"/>
				<port id="3"/>
				<port id="4"/>
			</input>
			<output>
				<port id="5">
					<dim>1</dim>
					<dim>1024</dim>
					<dim>14</dim>
					<dim>14</dim>
				</port>
			</output>
		</layer>
		<layer id="534" name="429" precision="FP32" type="Eltwise">
			<data operation="sum"/>
			<input>
				<port id="0">
					<dim>1</dim>
					<dim>1024</dim>
					<dim>14</dim>
					<dim>14</dim>
				</port>
				<port id="1">
					<dim>1</dim>
					<dim>1024</dim>
					<dim>14</dim>
					<dim>14</dim>
				</port>
			</input>
			<output>
				<port id="2">
					<dim>1</dim>
					<dim>1024</dim>
					<dim>14</dim>
					<dim>14</dim>
				</port>
			</output>
		</layer>
		<layer id="535" name="430" precision="FP32" type="ReLU">
			<input>
				<port id="0">
					<dim>1</dim>
					<dim>1024</dim>
					<dim>14</dim>
					<dim>14</dim>
				</port>
			</input>
			<output>
				<port id="1">
					<dim>1</dim>
					<dim>1024</dim>
					<dim>14</dim>
					<dim>14</dim>
				</port>
			</output>
		</layer>
		<layer id="536" name="1274612750_const" precision="FP32" type="Const">
			<output>
				<port id="1"/>
			</output>
			<blobs>
				<custom offset="37928" size="4"/>
			</blobs>
		</layer>
		<layer id="537" name="1274712751_const" precision="FP32" type="Const">
			<output>
				<port id="1"/>
			</output>
			<blobs>
				<custom offset="20724756" size="4"/>
			</blobs>
		</layer>
		<layer id="538" name="1274812752_const" precision="FP32" type="Const">
			<output>
				<port id="1"/>
			</output>
			<blobs>
				<custom offset="37928" size="4"/>
			</blobs>
		</layer>
		<layer id="539" name="1274912753_const" precision="FP32" type="Const">
			<output>
				<port id="1"/>
			</output>
			<blobs>
				<custom offset="20724756" size="4"/>
			</blobs>
		</layer>
		<layer id="540" name="431/fq_input_0" precision="FP32" type="FakeQuantize">
…
		<edge from-layer="138" from-port="3" to-layer="139" to-port="0"/>
		<edge from-layer="139" from-port="1" to-layer="144" to-port="0"/>
		<edge from-layer="140" from-port="1" to-layer="144" to-port="1"/>
		<edge from-layer="141" from-port="1" to-layer="144" to-port="2"/>
		<edge from-layer="142" from-port="1" to-layer="144" to-port="3"/>
		<edge from-layer="143" from-port="1" to-layer="144" to-port="4"/>
		<edge from-layer="145" from-port="1" to-layer="150" to-port="0"/>
		<edge from-layer="146" from-port="1" to-layer="150" to-port="1"/>
		<edge from-layer="147" from-port="1" to-layer="150" to-port="2"/>
		<edge from-layer="148" from-port="1" to-layer="150" to-port="3"/>
		<edge from-layer="149" from-port="1" to-layer="150" to-port="4"/>
		<edge from-layer="144" from-port="5" to-layer="152" to-port="0"/>
		<edge from-layer="150" from-port="5" to-layer="152" to-port="1"/>
		<edge from-layer="151" from-port="1" to-layer="152" to-port="2"/>
		<edge from-layer="152" from-port="3" to-layer="153" to-port="0"/>
		<edge from-layer="153" from-port="1" to-layer="158" to-port="0"/>
		<edge from-layer="154" from-port="1" to-layer="158" to-port="1"/>
		<edge from-layer="155" from-port="1" to-layer="158" to-port="2"/>
		<edge from-layer="156" from-port="1" to-layer="158" to-port="3"/>
		<edge from-layer="157" from-port="1" to-layer="158" to-port="4"/>
		<edge from-layer="159" from-port="1" to-layer="164" to-port="0"/>
		<edge from-layer="160" from-port="1" to-layer="164" to-port="1"/>
		<edge from-layer="161" from-port="1" to-layer="164" to-port="2"/>
		<edge from-layer="162" from-port="1" to-layer="164" to-port="3"/>
		<edge from-layer="163" from-port="1" to-layer="164" to-port="4"/>
		<edge from-layer="158" from-port="5" to-layer="166" to-port="0"/>
		<edge from-layer="164" from-port="5" to-layer="166" to-port="1"/>
		<edge from-layer="165" from-port="1" to-layer="166" to-port="2"/>
		<edge from-layer="166" from-port="3" to-layer="171" to-port="0"/>
		<edge from-layer="167" from-port="1" to-layer="171" to-port="1"/>
		<edge from-layer="168" from-port="1" to-layer="171" to-port="2"/>
		<edge from-layer="169" from-port="1" to-layer="171" to-port="3"/>
		<edge from-layer="170" from-port="1" to-layer="171" to-port="4"/>
		<edge from-layer="171" from-port="5" to-layer="172" to-port="0"/>
		<edge from-layer="130" from-port="5" to-layer="172" to-port="1"/>
		<edge from-layer="172" from-port="2" to-layer="173" to-port="0"/>
		<edge from-layer="173" from-port="1" to-layer="178" to-port="0"/>
		<edge from-layer="174" from-port="1" to-layer="178" to-port="1"/>
		<edge from-layer="175" from-port="1" to-layer="178" to-port="2"/>
		<edge from-layer="176" from-port="1" to-layer="178" to-port="3"/>
		<edge from-layer="177" from-port="1" to-layer="178" to-port="4"/>
		<edge from-layer="179" from-port="1" to-layer="184" to-port="0"/>
		<edge from-layer="180" from-port="1" to-layer="184" to-port="1"/>
		<edge from-layer="181" from-port="1" to-layer="184" to-port="2"/>
		<edge from-layer="182" from-port="1" to-layer="184" to-port="3"/>
		<edge from-layer="183" from-port="1" to-layer="184" to-port="4"/>
		<edge from-layer="178" from-port="5" to-layer="186" to-port="0"/>
		<edge from-layer="184" from-port="5" to-layer="186" to-port="1"/>
		<edge from-layer="185" from-port="1" to-layer="186" to-port="2"/>
		<edge from-layer="186" from-port="3" to-layer="187" to-port="0"/>
		<edge from-layer="187" from-port="1" to-layer="192" to-port="0"/>
		<edge from-layer="188" from-port="1" to-layer="192" to-port="1"/>
		<edge from-layer="189" from-port="1" to-layer="192" to-port="2"/>
		<edge from-layer="190" from-port="1" to-layer="192" to-port="3"/>
		<edge from-layer="191" from-port="1" to-layer="192" to-port="4"/>
		<edge from-layer="193" from-port="1" to-layer="198" to-port="0"/>
		<edge from-layer="194" from-port="1" to-layer="198" to-port="1"/>
		<edge from-layer="195" from-port="1" to-layer="198" to-port="2"/>
		<edge from-layer="196" from-port="1" to-layer="198" to-port="3"/>
		<edge from-layer="197" from-port="1" to-layer="198" to-port="4"/>
		<edge from-layer="192" from-port="5" to-layer="200" to-port="0"/>
		<edge from-layer="198" from-port="5" to-layer="200" to-port="1"/>
		<edge from-layer="199" from-port="1" to-layer="200" to-port="2"/>
		<edge from-layer="200" from-port="3" to-layer="201" to-port="0"/>
		<edge from-layer="201" from-port="1" to-layer="206" to-port="0"/>
		<edge from-layer="202" from-port="1" to-layer="206" to-port="1"/>
		<edge from-layer="203" from-port="1" to-layer="206" to-port="2"/>
		<edge from-layer="204" from-port="1" to-layer="206" to-port="3"/>
		<edge from-layer="205" from-port="1" to-layer="206" to-port="4"/>
		<edge from-layer="207" from-port="1" to-layer="212" to-port="0"/>
		<edge from-layer="208" from-port="1" to-layer="212" to-port="1"/>
		<edge from-layer="209" from-port="1" to-layer="212" to-port="2"/>
		<edge from-layer="210" from-port="1" to-layer="212" to-port="3"/>
		<edge from-layer="211" from-port="1" to-layer="212" to-port="4"/>
		<edge from-layer="206" from-port="5" to-layer="214" to-port="0"/>
		<edge from-layer="212" from-port="5" to-layer="214" to-port="1"/>
		<edge from-layer="213" from-port="1" to-layer="214" to-port="2"/>
		<edge from-layer="214" from-port="3" to-layer="219" to-port="0"/>
		<edge from-layer="215" from-port="1" to-layer="219" to-port="1"/>
		<edge from-layer="216" from-port="1" to-layer="219" to-port="2"/>
		<edge from-layer="217" from-port="1" to-layer="219" to-port="3"/>
		<edge from-layer="218" from-port="1" to-layer="219" to-port="4"/>
		<edge from-layer="220" from-port="1" to-layer="225" to-port="0"/>
		<edge from-layer="221" from-port="1" to-layer="225" to-port="1"/>
		<edge from-layer="222" from-port="1" to-layer="225" to-port="2"/>
		<edge from-layer="223" from-port="1" to-layer="225" to-port="3"/>
		<edge from-layer="224" from-port="1" to-layer="225" to-port="4"/>
		<edge from-layer="178" from-port="5" to-layer="227" to-port="0"/>
		<edge from-layer="225" from-port="5" to-layer="227" to-port="1"/>
		<edge from-layer="226" from-port="1" to-layer="227" to-port="2"/>
		<edge from-layer="227" from-port="3" to-layer="232" to-port="0"/>
		<edge from-layer="228" from-port="1" to-layer="232" to-port="1"/>
		<edge from-layer="229" from-port="1" to-layer="232" to-port="2"/>
		<edge from-layer="230" from-port="1" to-layer="232" to-port="3"/>
		<edge from-layer="231" from-port="1" to-layer="232" to-port="4"/>
		<edge from-layer="219" from-port="5" to-layer="233" to-port="0"/>
		<edge from-layer="232" from-port="5" to-layer="233" to-port="1"/>
		<edge from-layer="233" from-port="2" to-layer="234" to-port="0"/>
		<edge from-layer="234" from-port="1" to-layer="239" to-port="0"/>
		<edge from-layer="235" from-port="1" to-layer="239" to-port="1"/>
		<edge from-layer="236" from-port="1" to-layer="239" to-port="2"/>
		<edge from-layer="237" from-port="1" to-layer="239" to-port="3"/>
		<edge from-layer="238" from-port="1" to-layer="239" to-port="4"/>
		<edge from-layer="240" from-port="1" to-layer="245" to-port="0"/>
		<edge from-layer="241" from-port="1" to-layer="245" to-port="1"/>
		<edge from-layer="242" from-port="1" to-layer="245" to-port="2"/>
		<edge from-layer="243" from-port="1" to-layer="245" to-port="3"/>
		<edge from-layer="244" from-port="1" to-layer="245" to-port="4"/>
		<edge from-layer="239" from-port="5" to-layer="247" to-port="0"/>
		<edge from-layer="245" from-port="5" to-layer="247" to-port="1"/>
		<edge from-layer="246" from-port="1" to-layer="247" to-port="2"/>
		<edge from-layer="247" from-port="3" to-layer="248" to-port="0"/>
		<edge from-layer="248" from-port="1" to-layer="253" to-port="0"/>
		<edge from-layer="249" from-port="1" to-layer="253" to-port="1"/>
		<edge from-layer="250" from-port="1" to-layer="253" to-port="2"/>
		<edge from-layer="251" from-port="1" to-layer="253" to-port="3"/>
		<edge from-layer="252" from-port="1" to-layer="253" to-port="4"/>
		<edge from-layer="254" from-port="1" to-layer="259" to-port="0"/>
		<edge from-layer="255" from-port="1" to-layer="259" to-port="1"/>
		<edge from-layer="256" from-port="1" to-layer="259" to-port="2"/>
		<edge from-layer="257" from-port="1" to-layer="259" to-port="3"/>
		<edge from-layer="258" from-port="1" to-layer="259" to-port="4"/>
		<edge from-layer="253" from-port="5" to-layer="261" to-port="0"/>
		<edge from-layer="259" from-port="5" to-layer="261" to-port="1"/>
		<edge from-layer="260" from-port="1" to-layer="261" to-port="2"/>
		<edge from-layer="261" from-port="3" to-layer="262" to-port="0"/>
		<edge from-layer="262" from-port="1" to-layer="267" to-port="0"/>
		<edge from-layer="263" from-port="1" to-layer="267" to-port="1"/>
		<edge from-layer="264" from-port="1" to-layer="267" to-port="2"/>
		<edge from-layer="265" from-port="1" to-layer="267" to-port="3"/>
		<edge from-layer="266" from-port="1" to-layer="267" to-port="4"/>
		<edge from-layer="268" from-port="1" to-layer="273" to-port="0"/>
		<edge from-layer="269" from-port="1" to-layer="273" to-port="1"/>
		<edge from-layer="270" from-port="1" to-layer="273" to-port="2"/>
		<edge from-layer="271" from-port="1" to-layer="273" to-port="3"/>
		<edge from-layer="272" from-port="1" to-layer="273" to-port="4"/>
		<edge from-layer="267" from-port="5" to-layer="275" to-port="0"/>
		<edge from-layer="273" from-port="5" to-layer="275" to-port="1"/>
		<edge from-layer="274" from-port="1" to-layer="275" to-port="2"/>
		<edge from-layer="275" from-port="3" to-layer="280" to-port="0"/>
		<edge from-layer="276" from-port="1" to-layer="280" to-port="1"/>
		<edge from-layer="277" from-port="1" to-layer="280" to-port="2"/>
		<edge from-layer="278" from-port="1" to-layer="280" to-port="3"/>
		<edge from-layer="279" from-port="1" to-layer="280" to-port="4"/>
		<edge from-layer="280" from-port="5" to-layer="281" to-port="0"/>
		<edge from-layer="239" from-port="5" to-layer="281" to-port="1"/>
		<edge from-layer="281" from-port="2" to-layer="282" to-port="0"/>
		<edge from-layer="282" from-port="1" to-layer="287" to-port="0"/>
		<edge from-layer="283" from-port="1" to-layer="287" to-port="1"/>
		<edge from-layer="284" from-port="1" to-layer="287" to-port="2"/>
		<edge from-layer="285" from-port="1" to-layer="287" to-port="3"/>
		<edge from-layer="286" from-port="1" to-layer="287" to-port="4"/>
		<edge from-layer="288" from-port="1" to-layer="293" to-port="0"/>
		<edge from-layer="289" from-port="1" to-layer="293" to-port="1"/>
		<edge from-layer="290" from-port="1" to-layer="293" to-port="2"/>
		<edge from-layer="291" from-port="1" to-layer="293" to-port="3"/>
		<edge from-layer="292" from-port="1" to-layer="293" to-port="4"/>
		<edge from-layer="287" from-port="5" to-layer="295" to-port="0"/>
		<edge from-layer="293" from-port="5" to-layer="295" to-port="1"/>
		<edge from-layer="294" from-port="1" to-layer="295" to-port="2"/>
		<edge from-layer="295" from-port="3" to-layer="296" to-port="0"/>
		<edge from-layer="296" from-port="1" to-layer="301" to-port="0"/>
		<edge from-layer="297" from-port="1" to-layer="301" to-port="1"/>
		<edge from-layer="298" from-port="1" to-layer="301" to-port="2"/>
		<edge from-layer="299" from-port="1" to-layer="301" to-port="3"/>
		<edge from-layer="300" from-port="1" to-layer="301" to-port="4"/>
		<edge from-layer="302" from-port="1" to-layer="307" to-port="0"/>
		<edge from-layer="303" from-port="1" to-layer="307" to-port="1"/>
		<edge from-layer="304" from-port="1" to-layer="307" to-port="2"/>
		<edge from-layer="305" from-port="1" to-layer="307" to-port="3"/>
		<edge from-layer="306" from-port="1" to-layer="307" to-port="4"/>
		<edge from-layer="301" from-port="5" to-layer="309" to-port="0"/>
		<edge from-layer="307" from-port="5" to-layer="309" to-port="1"/>
		<edge from-layer="308" from-port="1" to-layer="309" to-port="2"/>
		<edge from-layer="309" from-port="3" to-layer="310" to-port="0"/>
		<edge from-layer="310" from-port="1" to-layer="315" to-port="0"/>
		<edge from-layer="311" from-port="1" to-layer="315" to-port="1"/>
		<edge from-layer="312" from-port="1" to-layer="315" to-port="2"/>
		<edge from-layer="313" from-port="1" to-layer="315" to-port="3"/>
		<edge from-layer="314" from-port="1" to-layer="315" to-port="4"/>
		<edge from-layer="316" from-port="1" to-layer="321" to-port="0"/>
		<edge from-layer="317" from-port="1" to-layer="321" to-port="1"/>
		<edge from-layer="318" from-port="1" to-layer="321" to-port="2"/>
		<edge from-layer="319" from-port="1" to-layer="321" to-port="3"/>
		<edge from-layer="320" from-port="1" to-layer="321" to-port="4"/>
		<edge from-layer="315" from-port="5" to-layer="323" to-port="0"/>
		<edge from-layer="321" from-port="5" to-layer="323" to-port="1"/>
		<edge from-layer="322" from-port="1" to-layer="323" to-port="2"/>
		<edge from-layer="323" from-port="3" to-layer="328" to-port="0"/>
		<edge from-layer="324" from-port="1" to-layer="328" to-port="1"/>
		<edge from-layer="325" from-port="1" to-layer="328" to-port="2"/>
		<edge from-layer="326" from-port="1" to-layer="328" to-port="3"/>
		<edge from-layer="327" from-port="1" to-layer="328" to-port="4"/>
		<edge from-layer="328" from-port="5" to-layer="329" to-port="0"/>
		<edge from-layer="287" from-port="5" to-layer="329" to-port="1"/>
		<edge from-layer="329" from-port="2" to-layer="330" to-port="0"/>
		<edge from-layer="330" from-port="1" to-layer="335" to-port="0"/>
		<edge from-layer="331" from-port="1" to-layer="335" to-port="1"/>
		<edge from-layer="332" from-port="1" to-layer="335" to-port="2"/>
		<edge from-layer="333" from-port="1" to-layer="335" to-port="3"/>
		<edge from-layer="334" from-port="1" to-layer="335" to-port="4"/>
		<edge from-layer="336" from-port="1" to-layer="341" to-port="0"/>
		<edge from-layer="337" from-port="1" to-layer="341" to-port="1"/>
		<edge from-layer="338" from-port="1" to-layer="341" to-port="2"/>
		<edge from-layer="339" from-port="1" to-layer="341" to-port="3"/>
		<edge from-layer="340" from-port="1" to-layer="341" to-port="4"/>
		<edge from-layer="335" from-port="5" to-layer="343" to-port="0"/>
		<edge from-layer="341" from-port="5" to-layer="343" to-port="1"/>
		<edge from-layer="342" from-port="1" to-layer="343" to-port="2"/>
		<edge from-layer="343" from-port="3" to-layer="344" to-port="0"/>
		<edge from-layer="344" from-port="1" to-layer="349" to-port="0"/>
		<edge from-layer="345" from-port="1" to-layer="349" to-port="1"/>
		<edge from-layer="346" from-port="1" to-layer="349" to-port="2"/>
		<edge from-layer="347" from-port="1" to-layer="349" to-port="3"/>
		<edge from-layer="348" from-port="1" to-layer="349" to-port="4"/>
		<edge from-layer="350" from-port="1" to-layer="355" to-port="0"/>
		<edge from-layer="351" from-port="1" to-layer="355" to-port="1"/>
		<edge from-layer="352" from-port="1" to-layer="355" to-port="2"/>
		<edge from-layer="353" from-port="1" to-layer="355" to-port="3"/>
		<edge from-layer="354" from-port="1" to-layer="355" to-port="4"/>
		<edge from-layer="349" from-port="5" to-layer="357" to-port="0"/>
		<edge from-layer="355" from-port="5" to-layer="357" to-port="1"/>
		<edge from-layer="356" from-port="1" to-layer="357" to-port="2"/>
		<edge from-layer="357" from-port="3" to-layer="358" to-port="0"/>
		<edge from-layer="358" from-port="1" to-layer="363" to-port="0"/>
		<edge from-layer="359" from-port="1" to-layer="363" to-port="1"/>
		<edge from-layer="360" from-port="1" to-layer="363" to-port="2"/>
		<edge from-layer="361" from-port="1" to-layer="363" to-port="3"/>
		<edge from-layer="362" from-port="1" to-layer="363" to-port="4"/>
		<edge from-layer="364" from-port="1" to-layer="369" to-port="0"/>
		<edge from-layer="365" from-port="1" to-layer="369" to-port="1"/>
		<edge from-layer="366" from-port="1" to-layer="369" to-port="2"/>
		<edge from-layer="367" from-port="1" to-layer="369" to-port="3"/>
		<edge from-layer="368" from-port="1" to-layer="369" to-port="4"/>
		<edge from-layer="363" from-port="5" to-layer="371" to-port="0"/>
		<edge from-layer="369" from-port="5" to-layer="371" to-port="1"/>
		<edge from-layer="370" from-port="1" to-layer="371" to-port="2"/>
		<edge from-layer="371" from-port="3" to-layer="376" to-port="0"/>
		<edge from-layer="372" from-port="1" to-layer="376" to-port="1"/>
		<edge from-layer="373" from-port="1" to-layer="376" to-port="2"/>
		<edge from-layer="374" from-port="1" to-layer="376" to-port="3"/>
		<edge from-layer="375" from-port="1" to-layer="376" to-port="4"/>
		<edge from-layer="376" from-port="5" to-layer="377" to-port="0"/>
		<edge from-layer="335" from-port="5" to-layer="377" to-port="1"/>
		<edge from-layer="377" from-port="2" to-layer="378" to-port="0"/>
		<edge from-layer="378" from-port="1" to-layer="383" to-port="0"/>
		<edge from-layer="379" from-port="1" to-layer="383" to-port="1"/>
		<edge from-layer="380" from-port="1" to-layer="383" to-port="2"/>
		<edge from-layer="381" from-port="1" to-layer="383" to-port="3"/>
		<edge from-layer="382" from-port="1" to-layer="383" to-port="4"/>
		<edge from-layer="384" from-port="1" to-layer="389" to-port="0"/>
		<edge from-layer="385" from-port="1" to-layer="389" to-port="1"/>
		<edge from-layer="386" from-port="1" to-layer="389" to-port="2"/>
		<edge from-layer="387" from-port="1" to-layer="389" to-port="3"/>
		<edge from-layer="388" from-port="1" to-layer="389" to-port="4"/>
		<edge from-layer="383" from-port="5" to-layer="391" to-port="0"/>
		<edge from-layer="389" from-port="5" to-layer="391" to-port="1"/>
		<edge from-layer="390" from-port="1" to-layer="391" to-port="2"/>
		<edge from-layer="391" from-port="3" to-layer="392" to-port="0"/>
		<edge from-layer="392" from-port="1" to-layer="397" to-port="0"/>
		<edge from-layer="393" from-port="1" to-layer="397" to-port="1"/>
		<edge from-layer="394" from-port="1" to-layer="397" to-port="2"/>
		<edge from-layer="395" from-port="1" to-layer="397" to-port="3"/>
		<edge from-layer="396" from-port="1" to-layer="397" to-port="4"/>
		<edge from-layer="398" from-port="1" to-layer="403" to-port="0"/>
		<edge from-layer="399" from-port="1" to-layer="403" to-port="1"/>
		<edge from-layer="400" from-port="1" to-layer="403" to-port="2"/>
		<edge from-layer="401" from-port="1" to-layer="403" to-port="3"/>
		<edge from-layer="402" from-port="1" to-layer="403" to-port="4"/>
		<edge from-layer="397" from-port="5" to-layer="405" to-port="0"/>
		<edge from-layer="403" from-port="5" to-layer="405" to-port="1"/>
		<edge from-layer="404" from-port="1" to-layer="405" to-port="2"/>
		<edge from-layer="405" from-port="3" to-layer="406" to-port="0"/>
		<edge from-layer="406" from-port="1" to-layer="411" to-port="0"/>
		<edge from-layer="407" from-port="1" to-layer="411" to-port="1"/>
		<edge from-layer="408" from-port="1" to-layer="411" to-port="2"/>
		<edge from-layer="409" from-port="1" to-layer="411" to-port="3"/>
		<edge from-layer="410" from-port="1" to-layer="411" to-port="4"/>
		<edge from-layer="412" from-port="1" to-layer="417" to-port="0"/>
		<edge from-layer="413" from-port="1" to-layer="417" to-port="1"/>
		<edge from-layer="414" from-port="1" to-layer="417" to-port="2"/>
		<edge from-layer="415" from-port="1" to-layer="417" to-port="3"/>
		<edge from-layer="416" from-port="1" to-layer="417" to-port="4"/>
		<edge from-layer="411" from-port="5" to-layer="419" to-port="0"/>
		<edge from-layer="417" from-port="5" to-layer="419" to-port="1"/>
		<edge from-layer="418" from-port="1" to-layer="419" to-port="2"/>
		<edge from-layer="419" from-port="3" to-layer="424" to-port="0"/>
		<edge from-layer="420" from-port="1" to-layer="424" to-port="1"/>
		<edge from-layer="421" from-port="1" to-layer="424" to-port="2"/>
		<edge from-layer="422" from-port="1" to-layer="424" to-port="3"/>
		<edge from-layer="423" from-port="1" to-layer="424" to-port="4"/>
		<edge from-layer="425" from-port="1" to-layer="430" to-port="0"/>
		<edge from-layer="426" from-port="1" to-layer="430" to-port="1"/>
		<edge from-layer="427" from-port="1" to-layer="430" to-port="2"/>
		<edge from-layer="428" from-port="1" to-layer="430" to-port="3"/>
		<edge from-layer="429" from-port="1" to-layer="430" to-port="4"/>
		<edge from-layer="383" from-port="5" to-layer="432" to-port="0"/>
		<edge from-layer="430" from-port="5" to-layer="432" to-port="1"/>
		<edge from-layer="431" from-port="1" to-layer="432" to-port="2"/>
		<edge from-layer="432" from-port="3" to-layer="437" to-port="0"/>
		<edge from-layer="433" from-port="1" to-layer="437" to-port="1"/>
		<edge from-layer="434" from-port="1" to-layer="437" to-port="2"/>
		<edge from-layer="435" from-port="1" to-layer="437" to-port="3"/>
		<edge from-layer="436" from-port="1" to-layer="437" to-port="4"/>
		<edge from-layer="424" from-port="5" to-layer="438" to-port="0"/>
		<edge from-layer="437" from-port="5" to-layer="438" to-port="1"/>
		<edge from-layer="438" from-port="2" to-layer="439" to-port="0"/>
		<edge from-layer="439" from-port="1" to-layer="444" to-port="0"/>
		<edge from-layer="440" from-port="1" to-layer="444" to-port="1"/>
		<edge from-layer="441" from-port="1" to-layer="444" to-port="2"/>
		<edge from-layer="442" from-port="1" to-layer="444" to-port="3"/>
		<edge from-layer="443" from-port="1" to-layer="444" to-port="4"/>
		<edge from-layer="445" from-port="1" to-layer="450" to-port="0"/>
		<edge from-layer="446" from-port="1" to-layer="450" to-port="1"/>
		<edge from-layer="447" from-port="1" to-layer="450" to-port="2"/>
		<edge from-layer="448" from-port="1" to-layer="450" to-port="3"/>
		<edge from-layer="449" from-port="1" to-layer="450" to-port="4"/>
		<edge from-layer="444" from-port="5" to-layer="452" to-port="0"/>
		<edge from-layer="450" from-port="5" to-layer="452" to-port="1"/>
		<edge from-layer="451" from-port="1" to-layer="452" to-port="2"/>
		<edge from-layer="452" from-port="3" to-layer="453" to-port="0"/>
		<edge from-layer="453" from-port="1" to-layer="458" to-port="0"/>
		<edge from-layer="454" from-port="1" to-layer="458" to-port="1"/>
		<edge from-layer="455" from-port="1" to-layer="458" to-port="2"/>
		<edge from-layer="456" from-port="1" to-layer="458" to-port="3"/>
		<edge from-layer="457" from-port="1" to-layer="458" to-port="4"/>
		<edge from-layer="459" from-port="1" to-layer="464" to-port="0"/>
		<edge from-layer="460" from-port="1" to-layer="464" to-port="1"/>
		<edge from-layer="461" from-port="1" to-layer="464" to-port="2"/>
		<edge from-layer="462" from-port="1" to-layer="464" to-port="3"/>
		<edge from-layer="463" from-port="1" to-layer="464" to-port="4"/>
		<edge from-layer="458" from-port="5" to-layer="466" to-port="0"/>
		<edge from-layer="464" from-port="5" to-layer="466" to-port="1"/>
		<edge from-layer="465" from-port="1" to-layer="466" to-port="2"/>
		<edge from-layer="466" from-port="3" to-layer="467" to-port="0"/>
		<edge from-layer="467" from-port="1" to-layer="472" to-port="0"/>
		<edge from-layer="468" from-port="1" to-layer="472" to-port="1"/>
		<edge from-layer="469" from-port="1" to-layer="472" to-port="2"/>
		<edge from-layer="470" from-port="1" to-layer="472" to-port="3"/>
		<edge from-layer="471" from-port="1" to-layer="472" to-port="4"/>
		<edge from-layer="473" from-port="1" to-layer="478" to-port="0"/>
		<edge from-layer="474" from-port="1" to-layer="478" to-port="1"/>
		<edge from-layer="475" from-port="1" to-layer="478" to-port="2"/>
		<edge from-layer="476" from-port="1" to-layer="478" to-port="3"/>
		<edge from-layer="477" from-port="1" to-layer="478" to-port="4"/>
		<edge from-layer="472" from-port="5" to-layer="480" to-port="0"/>
		<edge from-layer="478" from-port="5" to-layer="480" to-port="1"/>
		<edge from-layer="479" from-port="1" to-layer="480" to-port="2"/>
		<edge from-layer="480" from-port="3" to-layer="485" to-port="0"/>
		<edge from-layer="481" from-port="1" to-layer="485" to-port="1"/>
		<edge from-layer="482" from-port="1" to-layer="485" to-port="2"/>
		<edge from-layer="483" from-port="1" to-layer="485" to-port="3"/>
		<edge from-layer="484" from-port="1" to-layer="485" to-port="4"/>
		<edge from-layer="485" from-port="5" to-layer="486" to-port="0"/>
		<edge from-layer="444" from-port="5" to-layer="486" to-port="1"/>
		<edge from-layer="486" from-port="2" to-layer="487" to-port="0"/>
		<edge from-layer="487" from-port="1" to-layer="492" to-port="0"/>
		<edge from-layer="488" from-port="1" to-layer="492" to-port="1"/>
		<edge from-layer="489" from-port="1" to-layer="492" to-port="2"/>
		<edge from-layer="490" from-port="1" to-layer="492" to-port="3"/>
		<edge from-layer="491" from-port="1" to-layer="492" to-port="4"/>
		<edge from-layer="493" from-port="1" to-layer="498" to-port="0"/>
		<edge from-layer="494" from-port="1" to-layer="498" to-port="1"/>
		<edge from-layer="495" from-port="1" to-layer="498" to-port="2"/>
		<edge from-layer="496" from-port="1" to-layer="498" to-port="3"/>
		<edge from-layer="497" from-port="1" to-layer="498" to-port="4"/>
		<edge from-layer="492" from-port="5" to-layer="500" to-port="0"/>
		<edge from-layer="498" from-port="5" to-layer="500" to-port="1"/>
		<edge from-layer="499" from-port="1" to-layer="500" to-port="2"/>
		<edge from-layer="500" from-port="3" to-layer="501" to-port="0"/>
		<edge from-layer="501" from-port="1" to-layer="506" to-port="0"/>
		<edge from-layer="502" from-port="1" to-layer="506" to-port="1"/>
		<edge from-layer="503" from-port="1" to-layer="506" to-port="2"/>
		<edge from-layer="504" from-port="1" to-layer="506" to-port="3"/>
		<edge from-layer="505" from-port="1" to-layer="506" to-port="4"/>
		<edge from-layer="507" from-port="1" to-layer="512" to-port="0"/>
		<edge from-layer="508" from-port="1" to-layer="512" to-port="1"/>
		<edge from-layer="509" from-port="1" to-layer="512" to-port="2"/>
		<edge from-layer="510" from-port="1" to-layer="512" to-port="3"/>
		<edge from-layer="511" from-port="1" to-layer="512" to-port="4"/>
		<edge from-layer="506" from-port="5" to-layer="514" to-port="0"/>
		<edge from-layer="512" from-port="5" to-layer="514" to-port="1"/>
		<edge from-layer="513" from-port="1" to-layer="514" to-port="2"/>
		<edge from-layer="514" from-port="3" to-layer="515" to-port="0"/>
		<edge from-layer="515" from-port="1" to-layer="520" to-port="0"/>
		<edge from-layer="516" from-port="1" to-layer="520" to-port="1"/>
		<edge from-layer="517" from-port="1" to-layer="520" to-port="2"/>
		<edge from-layer="518" from-port="1" to-layer="520" to-port="3"/>
		<edge from-layer="519" from-port="1" to-layer="520" to-port="4"/>
		<edge from-layer="521" from-port="1" to-layer="526" to-port="0"/>
		<edge from-layer="522" from-port="1" to-layer="526" to-port="1"/>
		<edge from-layer="523" from-port="1" to-layer="526" to-port="2"/>
		<edge from-layer="524" from-port="1" to-layer="526" to-port="3"/>
		<edge from-layer="525" from-port="1" to-layer="526" to-port="4"/>
		<edge from-layer="520" from-port="5" to-layer="528" to-port="0"/>
		<edge from-layer="526" from-port="5" to-layer="528" to-port="1"/>
		<edge from-layer="527" from-port="1" to-layer="528" to-port="2"/>
		<edge from-layer="528" from-port="3" to-layer="533" to-port="0"/>
		<edge from-layer="529" from-port="1" to-layer="533" to-port="1"/>
		<edge from-layer="530" from-port="1" to-layer="533" to-port="2"/>
		<edge from-layer="531" from-port="1" to-layer="533" to-port="3"/>
		<edge from-layer="532" from-port="1" to-layer="533" to-port="4"/>
		<edge from-layer="533" from-port="5" to-layer="534" to-port="0"/>
		<edge from-layer="492" from-port="5" to-layer="534" to-port="1"/>
		<edge from-layer="534" from-port="2" to-layer="535" to-port="0"/>
		<edge from-layer="535" from-port="1" to-layer="540" to-port="0"/>
		<edge from-layer="536" from-port="1" to-layer="540" to-port="1"/>
		<edge from-layer="537" from-port="1" to-layer="540" to-port="2"/>
		<edge from-layer="538" from-port="1" to-layer="540" to-port="3"/>
		<edge from-layer="539" from-port="1" to-layer="540" to-port="4"/>
		<edge from-layer="541" from-port="1" to-layer="546" to-port="0"/>
		<edge from-layer="542" from-port="1" to-layer="546" to-port="1"/>
		<edge from-layer="543" from-port="1" to-layer="546" to-port="2"/>
		<edge from-layer="544" from-port="1" to-layer="546" to-port="3"/>
		<edge from-layer="545" from-port="1" to-layer="546" to-port="4"/>
		<edge from-layer="540" from-port="5" to-layer="548" to-port="0"/>
		<edge from-layer="546" from-port="5" to-layer="548" to-port="1"/>
		<edge from-layer="547" from-port="1" to-layer="548" to-port="2"/>
		<edge from-layer="548" from-port="3" to-layer="549" to-port="0"/>
		<edge from-layer="549" from-port="1" to-layer="554" to-port="0"/>
		<edge from-layer="550" from-port="1" to-layer="554" to-port="1"/>
		<edge from-layer="551" from-port="1" to-layer="554" to-port="2"/>
		<edge from-layer="552" from-port="1" to-layer="554" to-port="3"/>
		<edge from-layer="553" from-port="1" to-layer="554" to-port="4"/>
		<edge from-layer="555" from-port="1" to-layer="560" to-port="0"/>
		<edge from-layer="556" from-port="1" to-layer="560" to-port="1"/>
		<edge from-layer="557" from-port="1" to-layer="560" to-port="2"/>
		<edge from-layer="558" from-port="1" to-layer="560" to-port="3"/>
		<edge from-layer="559" from-port="1" to-layer="560" to-port="4"/>
		<edge from-layer="554" from-port="5" to-layer="562" to-port="0"/>
		<edge from-layer="560" from-port="5" to-layer="562" to-port="1"/>
		<edge from-layer="561" from-port="1" to-layer="562" to-port="2"/>
		<edge from-layer="562" from-port="3" to-layer="563" to-port="0"/>
		<edge from-layer="563" from-port="1" to-layer="568" to-port="0"/>
		<edge from-layer="564" from-port="1" to-layer="568" to-port="1"/>
		<edge from-layer="565" from-port="1" to-layer="568" to-port="2"/>
		<edge from-layer="566" from-port="1" to-layer="568" to-port="3"/>
		<edge from-layer="567" from-port="1" to-layer="568" to-port="4"/>
		<edge from-layer="569" from-port="1" to-layer="574" to-port="0"/>
		<edge from-layer="570" from-port="1" to-layer="574" to-port="1"/>
		<edge from-layer="571" from-port="1" to-layer="574" to-port="2"/>
		<edge from-layer="572" from-port="1" to-layer="574" to-port="3"/>
		<edge from-layer="573" from-port="1" to-layer="574" to-port="4"/>
		<edge from-layer="568" from-port="5" to-layer="576" to-port="0"/>
		<edge from-layer="574" from-port="5" to-layer="576" to-port="1"/>
		<edge from-layer="575" from-port="1" to-layer="576" to-port="2"/>
		<edge from-layer="576" from-port="3" to-layer="581" to-port="0"/>
		<edge from-layer="577" from-port="1" to-layer="581" to-port="1"/>
		<edge from-layer="578" from-port="1" to-layer="581" to-port="2"/>
		<edge from-layer="579" from-port="1" to-layer="581" to-port="3"/>
		<edge from-layer="580" from-port="1" to-layer="581" to-port="4"/>
		<edge from-layer="581" from-port="5" to-layer="582" to-port="0"/>
		<edge from-layer="540" from-port="5" to-layer="582" to-port="1"/>
		<edge from-layer="582" from-port="2" to-layer="583" to-port="0"/>
		<edge from-layer="583" from-port="1" to-layer="588" to-port="0"/>
		<edge from-layer="584" from-port="1" to-layer="588" to-port="1"/>
		<edge from-layer="585" from-port="1" to-layer="588" to-port="2"/>
		<edge from-layer="586" from-port="1" to-layer="588" to-port="3"/>
		<edge from-layer="587" from-port="1" to-layer="588" to-port="4"/>
		<edge from-layer="589" from-port="1" to-layer="594" to-port="0"/>
		<edge from-layer="590" from-port="1" to-layer="594" to-port="1"/>
		<edge from-layer="591" from-port="1" to-layer="594" to-port="2"/>
		<edge from-layer="592" from-port="1" to-layer="594" to-port="3"/>
		<edge from-layer="593" from-port="1" to-layer="594" to-port="4"/>
		<edge from-layer="588" from-port="5" to-layer="596" to-port="0"/>
		<edge from-layer="594" from-port="5" to-layer="596" to-port="1"/>
		<edge from-layer="595" from-port="1" to-layer="596" to-port="2"/>
		<edge from-layer="596" from-port="3" to-layer="597" to-port="0"/>
		<edge from-layer="597" from-port="1" to-layer="602" to-port="0"/>
		<edge from-layer="598" from-port="1" to-layer="602" to-port="1"/>
		<edge from-layer="599" from-port="1" to-layer="602" to-port="2"/>
		<edge from-layer="600" from-port="1" to-layer="602" to-port="3"/>
		<edge from-layer="601" from-port="1" to-layer="602" to-port="4"/>
		<edge from-layer="603" from-port="1" to-layer="608" to-port="0"/>
		<edge from-layer="604" from-port="1" to-layer="608" to-port="1"/>
		<edge from-layer="605" from-port="1" to-layer="608" to-port="2"/>
		<edge from-layer="606" from-port="1" to-layer="608" to-port="3"/>
		<edge from-layer="607" from-port="1" to-layer="608" to-port="4"/>
		<edge from-layer="602" from-port="5" to-layer="610" to-port="0"/>
		<edge from-layer="608" from-port="5" to-layer="610" to-port="1"/>
		<edge from-layer="609" from-port="1" to-layer="610" to-port="2"/>
		<edge from-layer="610" from-port="3" to-layer="611" to-port="0"/>
		<edge from-layer="611" from-port="1" to-layer="616" to-port="0"/>
		<edge from-layer="612" from-port="1" to-layer="616" to-port="1"/>
		<edge from-layer="613" from-port="1" to-layer="616" to-port="2"/>
		<edge from-layer="614" from-port="1" to-layer="616" to-port="3"/>
		<edge from-layer="615" from-port="1" to-layer="616" to-port="4"/>
		<edge from-layer="617" from-port="1" to-layer="622" to-port="0"/>
		<edge from-layer="618" from-port="1" to-layer="622" to-port="1"/>
		<edge from-layer="619" from-port="1" to-layer="622" to-port="2"/>
		<edge from-layer="620" from-port="1" to-layer="622" to-port="3"/>
		<edge from-layer="621" from-port="1" to-layer="622" to-port="4"/>
		<edge from-layer="616" from-port="5" to-layer="624" to-port="0"/>
		<edge from-layer="622" from-port="5" to-layer="624" to-port="1"/>
		<edge from-layer="623" from-port="1" to-layer="624" to-port="2"/>
		<edge from-layer="624" from-port="3" to-layer="629" to-port="0"/>
		<edge from-layer="625" from-port="1" to-layer="629" to-port="1"/>
		<edge from-layer="626" from-port="1" to-layer="629" to-port="2"/>
		<edge from-layer="627" from-port="1" to-layer="629" to-port="3"/>
		<edge from-layer="628" from-port="1" to-layer="629" to-port="4"/>
		<edge from-layer="629" from-port="5" to-layer="630" to-port="0"/>
		<edge from-layer="588" from-port="5" to-layer="630" to-port="1"/>
		<edge from-layer="630" from-port="2" to-layer="631" to-port="0"/>
		<edge from-layer="631" from-port="1" to-layer="636" to-port="0"/>
		<edge from-layer="632" from-port="1" to-layer="636" to-port="1"/>
		<edge from-layer="633" from-port="1" to-layer="636" to-port="2"/>
		<edge from-layer="634" from-port="1" to-layer="636" to-port="3"/>
		<edge from-layer="635" from-port="1" to-layer="636" to-port="4"/>
		<edge from-layer="637" from-port="1" to-layer="642" to-port="0"/>
		<edge from-layer="638" from-port="1" to-layer="642" to-port="1"/>
		<edge from-layer="639" from-port="1" to-layer="642" to-port="2"/>
		<edge from-layer="640" from-port="1" to-layer="642" to-port="3"/>
		<edge from-layer="641" from-port="1" to-layer="642" to-port="4"/>
		<edge from-layer="636" from-port="5" to-layer="644" to-port="0"/>
		<edge from-layer="642" from-port="5" to-layer="644" to-port="1"/>
		<edge from-layer="643" from-port="1" to-layer="644" to-port="2"/>
		<edge from-layer="644" from-port="3" to-layer="645" to-port="0"/>
		<edge from-layer="645" from-port="1" to-layer="650" to-port="0"/>
		<edge from-layer="646" from-port="1" to-layer="650" to-port="1"/>
		<edge from-layer="647" from-port="1" to-layer="650" to-port="2"/>
		<edge from-layer="648" from-port="1" to-layer="650" to-port="3"/>
		<edge from-layer="649" from-port="1" to-layer="650" to-port="4"/>
		<edge from-layer="651" from-port="1" to-layer="656" to-port="0"/>
		<edge from-layer="652" from-port="1" to-layer="656" to-port="1"/>
		<edge from-layer="653" from-port="1" to-layer="656" to-port="2"/>
		<edge from-layer="654" from-port="1" to-layer="656" to-port="3"/>
		<edge from-layer="655" from-port="1" to-layer="656" to-port="4"/>
		<edge from-layer="650" from-port="5" to-layer="658" to-port="0"/>
		<edge from-layer="656" from-port="5" to-layer="658" to-port="1"/>
		<edge from-layer="657" from-port="1" to-layer="658" to-port="2"/>
		<edge from-layer="658" from-port="3" to-layer="659" to-port="0"/>
		<edge from-layer="659" from-port="1" to-layer="664" to-port="0"/>
		<edge from-layer="660" from-port="1" to-layer="664" to-port="1"/>
		<edge from-layer="661" from-port="1" to-layer="664" to-port="2"/>
		<edge from-layer="662" from-port="1" to-layer="664" to-port="3"/>
		<edge from-layer="663" from-port="1" to-layer="664" to-port="4"/>
		<edge from-layer="665" from-port="1" to-layer="670" to-port="0"/>
		<edge from-layer="666" from-port="1" to-layer="670" to-port="1"/>
		<edge from-layer="667" from-port="1" to-layer="670" to-port="2"/>
		<edge from-layer="668" from-port="1" to-layer="670" to-port="3"/>
		<edge from-layer="669" from-port="1" to-layer="670" to-port="4"/>
		<edge from-layer="664" from-port="5" to-layer="672" to-port="0"/>
		<edge from-layer="670" from-port="5" to-layer="672" to-port="1"/>
		<edge from-layer="671" from-port="1" to-layer="672" to-port="2"/>
		<edge from-layer="672" from-port="3" to-layer="677" to-port="0"/>
		<edge from-layer="673" from-port="1" to-layer="677" to-port="1"/>
		<edge from-layer="674" from-port="1" to-layer="677" to-port="2"/>
		<edge from-layer="675" from-port="1" to-layer="677" to-port="3"/>
		<edge from-layer="676" from-port="1" to-layer="677" to-port="4"/>
		<edge from-layer="677" from-port="5" to-layer="678" to-port="0"/>
		<edge from-layer="636" from-port="5" to-layer="678" to-port="1"/>
		<edge from-layer="678" from-port="2" to-layer="679" to-port="0"/>
		<edge from-layer="679" from-port="1" to-layer="684" to-port="0"/>
		<edge from-layer="680" from-port="1" to-layer="684" to-port="1"/>
		<edge from-layer="681" from-port="1" to-layer="684" to-port="2"/>
		<edge from-layer="682" from-port="1" to-layer="684" to-port="3"/>
		<edge from-layer="683" from-port="1" to-layer="684" to-port="4"/>
		<edge from-layer="685" from-port="1" to-layer="690" to-port="0"/>
		<edge from-layer="686" from-port="1" to-layer="690" to-port="1"/>
		<edge from-layer="687" from-port="1" to-layer="690" to-port="2"/>
		<edge from-layer="688" from-port="1" to-layer="690" to-port="3"/>
		<edge from-layer="689" from-port="1" to-layer="690" to-port="4"/>
		<edge from-layer="684" from-port="5" to-layer="692" to-port="0"/>
		<edge from-layer="690" from-port="5" to-layer="692" to-port="1"/>
		<edge from-layer="691" from-port="1" to-layer="692" to-port="2"/>
		<edge from-layer="692" from-port="3" to-layer="693" to-port="0"/>
		<edge from-layer="693" from-port="1" to-layer="698" to-port="0"/>
		<edge from-layer="694" from-port="1" to-layer="698" to-port="1"/>
		<edge from-layer="695" from-port="1" to-layer="698" to-port="2"/>
		<edge from-layer="696" from-port="1" to-layer="698" to-port="3"/>
		<edge from-layer="697" from-port="1" to-layer="698" to-port="4"/>
		<edge from-layer="699" from-port="1" to-layer="704" to-port="0"/>
		<edge from-layer="700" from-port="1" to-layer="704" to-port="1"/>
		<edge from-layer="701" from-port="1" to-layer="704" to-port="2"/>
		<edge from-layer="702" from-port="1" to-layer="704" to-port="3"/>
		<edge from-layer="703" from-port="1" to-layer="704" to-port="4"/>
		<edge from-layer="698" from-port="5" to-layer="706" to-port="0"/>
		<edge from-layer="704" from-port="5" to-layer="706" to-port="1"/>
		<edge from-layer="705" from-port="1" to-layer="706" to-port="2"/>
		<edge from-layer="706" from-port="3" to-layer="707" to-port="0"/>
		<edge from-layer="707" from-port="1" to-layer="712" to-port="0"/>
		<edge from-layer="708" from-port="1" to-layer="712" to-port="1"/>
		<edge from-layer="709" from-port="1" to-layer="712" to-port="2"/>
		<edge from-layer="710" from-port="1" to-layer="712" to-port="3"/>
		<edge from-layer="711" from-port="1" to-layer="712" to-port="4"/>
		<edge from-layer="713" from-port="1" to-layer="718" to-port="0"/>
		<edge from-layer="714" from-port="1" to-layer="718" to-port="1"/>
		<edge from-layer="715" from-port="1" to-layer="718" to-port="2"/>
		<edge from-layer="716" from-port="1" to-layer="718" to-port="3"/>
		<edge from-layer="717" from-port="1" to-layer="718" to-port="4"/>
		<edge from-layer="712" from-port="5" to-layer="720" to-port="0"/>
		<edge from-layer="718" from-port="5" to-layer="720" to-port="1"/>
		<edge from-layer="719" from-port="1" to-layer="720" to-port="2"/>
		<edge from-layer="720" from-port="3" to-layer="725" to-port="0"/>
		<edge from-layer="721" from-port="1" to-layer="725" to-port="1"/>
		<edge from-layer="722" from-port="1" to-layer="725" to-port="2"/>
		<edge from-layer="723" from-port="1" to-layer="725" to-port="3"/>
		<edge from-layer="724" from-port="1" to-layer="725" to-port="4"/>
		<edge from-layer="726" from-port="1" to-layer="731" to-port="0"/>
		<edge from-layer="727" from-port="1" to-layer="731" to-port="1"/>
		<edge from-layer="728" from-port="1" to-layer="731" to-port="2"/>
		<edge from-layer="729" from-port="1" to-layer="731" to-port="3"/>
		<edge from-layer="730" from-port="1" to-layer="731" to-port="4"/>
		<edge from-layer="684" from-port="5" to-layer="733" to-port="0"/>
		<edge from-layer="731" from-port="5" to-layer="733" to-port="1"/>
		<edge from-layer="732" from-port="1" to-layer="733" to-port="2"/>
		<edge from-layer="733" from-port="3" to-layer="738" to-port="0"/>
		<edge from-layer="734" from-port="1" to-layer="738" to-port="1"/>
		<edge from-layer="735" from-port="1" to-layer="738" to-port="2"/>
		<edge from-layer="736" from-port="1" to-layer="738" to-port="3"/>
		<edge from-layer="737" from-port="1" to-layer="738" to-port="4"/>
		<edge from-layer="725" from-port="5" to-layer="739" to-port="0"/>
		<edge from-layer="738" from-port="5" to-layer="739" to-port="1"/>
		<edge from-layer="739" from-port="2" to-layer="740" to-port="0"/>
		<edge from-layer="740" from-port="1" to-layer="745" to-port="0"/>
		<edge from-layer="741" from-port="1" to-layer="745" to-port="1"/>
		<edge from-layer="742" from-port="1" to-layer="745" to-port="2"/>
		<edge from-layer="743" from-port="1" to-layer="745" to-port="3"/>
		<edge from-layer="744" from-port="1" to-layer="745" to-port="4"/>
		<edge from-layer="746" from-port="1" to-layer="751" to-port="0"/>
		<edge from-layer="747" from-port="1" to-layer="751" to-port="1"/>
		<edge from-layer="748" from-port="1" to-layer="751" to-port="2"/>
		<edge from-layer="749" from-port="1" to-layer="751" to-port="3"/>
		<edge from-layer="750" from-port="1" to-layer="751" to-port="4"/>
		<edge from-layer="745" from-port="5" to-layer="753" to-port="0"/>
		<edge from-layer="751" from-port="5" to-layer="753" to-port="1"/>
		<edge from-layer="752" from-port="1" to-layer="753" to-port="2"/>
		<edge from-layer="753" from-port="3" to-layer="754" to-port="0"/>
		<edge from-layer="754" from-port="1" to-layer="759" to-port="0"/>
		<edge from-layer="755" from-port="1" to-layer="759" to-port="1"/>
		<edge from-layer="756" from-port="1" to-layer="759" to-port="2"/>
		<edge from-layer="757" from-port="1" to-layer="759" to-port="3"/>
		<edge from-layer="758" from-port="1" to-layer="759" to-port="4"/>
		<edge from-layer="760" from-port="1" to-layer="765" to-port="0"/>
		<edge from-layer="761" from-port="1" to-layer="765" to-port="1"/>
		<edge from-layer="762" from-port="1" to-layer="765" to-port="2"/>
		<edge from-layer="763" from-port="1" to-layer="765" to-port="3"/>
		<edge from-layer="764" from-port="1" to-layer="765" to-port="4"/>
		<edge from-layer="759" from-port="5" to-layer="767" to-port="0"/>
		<edge from-layer="765" from-port="5" to-layer="767" to-port="1"/>
		<edge from-layer="766" from-port="1" to-layer="767" to-port="2"/>
		<edge from-layer="767" from-port="3" to-layer="768" to-port="0"/>
		<edge from-layer="768" from-port="1" to-layer="773" to-port="0"/>
		<edge from-layer="769" from-port="1" to-layer="773" to-port="1"/>
		<edge from-layer="770" from-port="1" to-layer="773" to-port="2"/>
		<edge from-layer="771" from-port="1" to-layer="773" to-port="3"/>
		<edge from-layer="772" from-port="1" to-layer="773" to-port="4"/>
		<edge from-layer="774" from-port="1" to-layer="779" to-port="0"/>
		<edge from-layer="775" from-port="1" to-layer="779" to-port="1"/>
		<edge from-layer="776" from-port="1" to-layer="779" to-port="2"/>
		<edge from-layer="777" from-port="1" to-layer="779" to-port="3"/>
		<edge from-layer="778" from-port="1" to-layer="779" to-port="4"/>
		<edge from-layer="773" from-port="5" to-layer="781" to-port="0"/>
		<edge from-layer="779" from-port="5" to-layer="781" to-port="1"/>
		<edge from-layer="780" from-port="1" to-layer="781" to-port="2"/>
		<edge from-layer="781" from-port="3" to-layer="786" to-port="0"/>
		<edge from-layer="782" from-port="1" to-layer="786" to-port="1"/>
		<edge from-layer="783" from-port="1" to-layer="786" to-port="2"/>
		<edge from-layer="784" from-port="1" to-layer="786" to-port="3"/>
		<edge from-layer="785" from-port="1" to-layer="786" to-port="4"/>
		<edge from-layer="786" from-port="5" to-layer="787" to-port="0"/>
		<edge from-layer="745" from-port="5" to-layer="787" to-port="1"/>
		<edge from-layer="787" from-port="2" to-layer="788" to-port="0"/>
		<edge from-layer="788" from-port="1" to-layer="793" to-port="0"/>
		<edge from-layer="789" from-port="1" to-layer="793" to-port="1"/>
		<edge from-layer="790" from-port="1" to-layer="793" to-port="2"/>
		<edge from-layer="791" from-port="1" to-layer="793" to-port="3"/>
		<edge from-layer="792" from-port="1" to-layer="793" to-port="4"/>
		<edge from-layer="794" from-port="1" to-layer="799" to-port="0"/>
		<edge from-layer="795" from-port="1" to-layer="799" to-port="1"/>
		<edge from-layer="796" from-port="1" to-layer="799" to-port="2"/>
		<edge from-layer="797" from-port="1" to-layer="799" to-port="3"/>
		<edge from-layer="798" from-port="1" to-layer="799" to-port="4"/>
		<edge from-layer="793" from-port="5" to-layer="801" to-port="0"/>
		<edge from-layer="799" from-port="5" to-layer="801" to-port="1"/>
		<edge from-layer="800" from-port="1" to-layer="801" to-port="2"/>
		<edge from-layer="801" from-port="3" to-layer="802" to-port="0"/>
		<edge from-layer="802" from-port="1" to-layer="807" to-port="0"/>
		<edge from-layer="803" from-port="1" to-layer="807" to-port="1"/>
		<edge from-layer="804" from-port="1" to-layer="807" to-port="2"/>
		<edge from-layer="805" from-port="1" to-layer="807" to-port="3"/>
		<edge from-layer="806" from-port="1" to-layer="807" to-port="4"/>
		<edge from-layer="808" from-port="1" to-layer="813" to-port="0"/>
		<edge from-layer="809" from-port="1" to-layer="813" to-port="1"/>
		<edge from-layer="810" from-port="1" to-layer="813" to-port="2"/>
		<edge from-layer="811" from-port="1" to-layer="813" to-port="3"/>
		<edge from-layer="812" from-port="1" to-layer="813" to-port="4"/>
		<edge from-layer="807" from-port="5" to-layer="815" to-port="0"/>
		<edge from-layer="813" from-port="5" to-layer="815" to-port="1"/>
		<edge from-layer="814" from-port="1" to-layer="815" to-port="2"/>
		<edge from-layer="815" from-port="3" to-layer="816" to-port="0"/>
		<edge from-layer="816" from-port="1" to-layer="821" to-port="0"/>
		<edge from-layer="817" from-port="1" to-layer="821" to-port="1"/>
		<edge from-layer="818" from-port="1" to-layer="821" to-port="2"/>
		<edge from-layer="819" from-port="1" to-layer="821" to-port="3"/>
		<edge from-layer="820" from-port="1" to-layer="821" to-port="4"/>
		<edge from-layer="822" from-port="1" to-layer="827" to-port="0"/>
		<edge from-layer="823" from-port="1" to-layer="827" to-port="1"/>
		<edge from-layer="824" from-port="1" to-layer="827" to-port="2"/>
		<edge from-layer="825" from-port="1" to-layer="827" to-port="3"/>
		<edge from-layer="826" from-port="1" to-layer="827" to-port="4"/>
		<edge from-layer="821" from-port="5" to-layer="829" to-port="0"/>
		<edge from-layer="827" from-port="5" to-layer="829" to-port="1"/>
		<edge from-layer="828" from-port="1" to-layer="829" to-port="2"/>
		<edge from-layer="829" from-port="3" to-layer="834" to-port="0"/>
		<edge from-layer="830" from-port="1" to-layer="834" to-port="1"/>
		<edge from-layer="831" from-port="1" to-layer="834" to-port="2"/>
		<edge from-layer="832" from-port="1" to-layer="834" to-port="3"/>
		<edge from-layer="833" from-port="1" to-layer="834" to-port="4"/>
		<edge from-layer="834" from-port="5" to-layer="835" to-port="0"/>
		<edge from-layer="793" from-port="5" to-layer="835" to-port="1"/>
		<edge from-layer="835" from-port="2" to-layer="836" to-port="0"/>
		<edge from-layer="836" from-port="1" to-layer="841" to-port="0"/>
		<edge from-layer="837" from-port="1" to-layer="841" to-port="1"/>
		<edge from-layer="838" from-port="1" to-layer="841" to-port="2"/>
		<edge from-layer="839" from-port="1" to-layer="841" to-port="3"/>
		<edge from-layer="840" from-port="1" to-layer="841" to-port="4"/>
		<edge from-layer="841" from-port="5" to-layer="842" to-port="0"/>
		<edge from-layer="842" from-port="1" to-layer="847" to-port="0"/>
		<edge from-layer="843" from-port="1" to-layer="847" to-port="1"/>
		<edge from-layer="844" from-port="1" to-layer="847" to-port="2"/>
		<edge from-layer="845" from-port="1" to-layer="847" to-port="3"/>
		<edge from-layer="846" from-port="1" to-layer="847" to-port="4"/>
		<edge from-layer="847" from-port="5" to-layer="849" to-port="0"/>
		<edge from-layer="848" from-port="1" to-layer="849" to-port="1"/>
		<edge from-layer="850" from-port="1" to-layer="855" to-port="0"/>
		<edge from-layer="851" from-port="1" to-layer="855" to-port="1"/>
		<edge from-layer="852" from-port="1" to-layer="855" to-port="2"/>
		<edge from-layer="853" from-port="1" to-layer="855" to-port="3"/>
		<edge from-layer="854" from-port="1" to-layer="855" to-port="4"/>
		<edge from-layer="849" from-port="2" to-layer="857" to-port="0"/>
		<edge from-layer="855" from-port="5" to-layer="857" to-port="1"/>
		<edge from-layer="856" from-port="1" to-layer="857" to-port="2"/>
	</edges>
	<meta_data>
		<MO_version value="unknown version"/>
		<cli_parameters>
			<unset unset_cli_parameters=""/>
		</cli_parameters>
	</meta_data>
</net>
