<?xml version="1.0" ?>
<net batch="1" name="squeezenet1_1_pytorch_uint8_int8_weights_pertensor" version="6">
	<layers>
		<layer id="0" name="input.1" precision="FP32" type="Input">
			<output>
				<port id="0">
					<dim>1</dim>
					<dim>3</dim>
					<dim>224</dim>
					<dim>224</dim>
				</port>
			</output>
		</layer>
		<layer id="1" name="Mul_/Fused_Mul_/FusedScaleShift_" precision="FP32" type="ScaleShift">
			<input>
				<port id="0">
					<dim>1</dim>
					<dim>3</dim>
					<dim>224</dim>
					<dim>224</dim>
				</port>
			</input>
			<output>
				<port id="3">
					<dim>1</dim>
					<dim>3</dim>
					<dim>224</dim>
					<dim>224</dim>
				</port>
			</output>
			<blobs>
				<weights offset="0" size="12"/>
				<biases offset="12" size="12"/>
			</blobs>
		</layer>
		<layer id="2" name="38233827_const" precision="FP32" type="Const">
			<output>
				<port id="1"/>
			</output>
			<blobs>
				<custom offset="24" size="4"/>
			</blobs>
		</layer>
		<layer id="3" name="38243828_const" precision="FP32" type="Const">
			<output>
				<port id="1"/>
			</output>
			<blobs>
				<custom offset="28" size="4"/>
			</blobs>
		</layer>
		<layer id="4" name="38253829_const" precision="FP32" type="Const">
			<output>
				<port id="1"/>
			</output>
			<blobs>
				<custom offset="24" size="4"/>
			</blobs>
		</layer>
		<layer id="5" name="38263830_const" precision="FP32" type="Const">
			<output>
				<port id="1"/>
			</output>
			<blobs>
				<custom offset="28" size="4"/>
			</blobs>
		</layer>
		<layer id="6" name="53/fq_input_0" precision="FP32" type="FakeQuantize">
			<data levels="256.0"/>
			<input>
				<port id="0">
					<dim>1</dim>
					<dim>3</dim>
					<dim>224</dim>
					<dim>224</dim>
				</port>
				<port id="1"/>
				<port id="2"/>
				<port id="3"/>
				<port id="4"/>
			</input>
			<output>
				<port id="5">
					<dim>1</dim>
					<dim>3</dim>
					<dim>224</dim>
					<dim>224</dim>
				</port>
			</output>
		</layer>
		<layer id="7" name="features.0.weight/Output_0/Data__const" precision="FP32" type="Const">
			<output>
				<port id="1">
					<dim>64</dim>
					<dim>3</dim>
					<dim>3</dim>
					<dim>3</dim>
				</port>
			</output>
			<blobs>
				<custom offset="32" size="6912"/>
			</blobs>
		</layer>
		<layer id="8" name="38333837_const" precision="FP32" type="Const">
			<output>
				<port id="1"/>
			</output>
			<blobs>
				<custom offset="6944" size="4"/>
			</blobs>
		</layer>
		<layer id="9" name="38343838_const" precision="FP32" type="Const">
			<output>
				<port id="1"/>
			</output>
			<blobs>
				<custom offset="6948" size="4"/>
			</blobs>
		</layer>
		<layer id="10" name="38353839_const" precision="FP32" type="Const">
			<output>
				<port id="1"/>
			</output>
			<blobs>
				<custom offset="6944" size="4"/>
			</blobs>
		</layer>
		<layer id="11" name="38363840_const" precision="FP32" type="Const">
			<output>
				<port id="1"/>
			</output>
			<blobs>
				<custom offset="6948" size="4"/>
			</blobs>
		</layer>
		<layer id="12" name="53/fq_weights_1" precision="FP32" type="FakeQuantize">
			<data levels="255.0"/>
			<input>
				<port id="0">
					<dim>64</dim>
					<dim>3</dim>
					<dim>3</dim>
					<dim>3</dim>
				</port>
				<port id="1"/>
				<port id="2"/>
				<port id="3"/>
				<port id="4"/>
			</input>
			<output>
				<port id="5">
					<dim>64</dim>
					<dim>3</dim>
					<dim>3</dim>
					<dim>3</dim>
				</port>
			</output>
		</layer>
		<layer id="13" name="features.0.bias/Output_0/Data__const" precision="FP32" type="Const">
			<output>
				<port id="1">
					<dim>64</dim>
				</port>
			</output>
			<blobs>
				<custom offset="6952" size="256"/>
			</blobs>
		</layer>
		<layer id="14" name="53" precision="FP32" type="Convolution">
			<data dilations="1,1" group="1" kernel="3,3" output="64" pads_begin="0,0" pads_end="0,0" strides="2,2"/>
			<input>
				<port id="0">
					<dim>1</dim>
					<dim>3</dim>
					<dim>224</dim>
					<dim>224</dim>
				</port>
				<port id="1">
					<dim>64</dim>
					<dim>3</dim>
					<dim>3</dim>
					<dim>3</dim>
				</port>
				<port id="2">
					<dim>64</dim>
				</port>
			</input>
			<output>
				<port id="3">
					<dim>1</dim>
					<dim>64</dim>
					<dim>111</dim>
					<dim>111</dim>
				</port>
			</output>
		</layer>
		<layer id="15" name="54" precision="FP32" type="ReLU">
			<input>
				<port id="0">
					<dim>1</dim>
					<dim>64</dim>
					<dim>111</dim>
					<dim>111</dim>
				</port>
			</input>
			<output>
				<port id="1">
					<dim>1</dim>
					<dim>64</dim>
					<dim>111</dim>
					<dim>111</dim>
				</port>
			</output>
		</layer>
		<layer id="16" name="44144418_const" precision="FP32" type="Const">
			<output>
				<port id="1"/>
			</output>
			<blobs>
				<custom offset="7208" size="4"/>
			</blobs>
		</layer>
		<layer id="17" name="44154419_const" precision="FP32" type="Const">
			<output>
				<port id="1"/>
			</output>
			<blobs>
				<custom offset="7212" size="4"/>
			</blobs>
		</layer>
		<layer id="18" name="44164420_const" precision="FP32" type="Const">
			<output>
				<port id="1"/>
			</output>
			<blobs>
				<custom offset="7208" size="4"/>
			</blobs>
		</layer>
		<layer id="19" name="44174421_const" precision="FP32" type="Const">
			<output>
				<port id="1"/>
			</output>
			<blobs>
				<custom offset="7212" size="4"/>
			</blobs>
		</layer>
		<layer id="20" name="55/fq_input_0" precision="FP32" type="FakeQuantize">
			<data levels="256.0"/>
			<input>
				<port id="0">
					<dim>1</dim>
					<dim>64</dim>
					<dim>111</dim>
					<dim>111</dim>
				</port>
				<port id="1"/>
				<port id="2"/>
				<port id="3"/>
				<port id="4"/>
			</input>
			<output>
				<port id="5">
					<dim>1</dim>
					<dim>64</dim>
					<dim>111</dim>
					<dim>111</dim>
				</port>
			</output>
		</layer>
		<layer id="21" name="55" precision="FP32" type="Pooling">
			<data exclude-pad="true" kernel="3,3" pads_begin="0,0" pads_end="0,0" pool-method="max" rounding_type="floor" strides="2,2"/>
			<input>
				<port id="0">
					<dim>1</dim>
					<dim>64</dim>
					<dim>111</dim>
					<dim>111</dim>
				</port>
			</input>
			<output>
				<port id="1">
					<dim>1</dim>
					<dim>64</dim>
					<dim>55</dim>
					<dim>55</dim>
				</port>
			</output>
		</layer>
		<layer id="22" name="features.3.squeeze.weight/Output_0/Data__const" precision="FP32" type="Const">
			<output>
				<port id="1">
					<dim>16</dim>
					<dim>64</dim>
					<dim>1</dim>
					<dim>1</dim>
				</port>
			</output>
			<blobs>
				<custom offset="7216" size="4096"/>
			</blobs>
		</layer>
		<layer id="23" name="36133617_const" precision="FP32" type="Const">
			<output>
				<port id="1"/>
			</output>
			<blobs>
				<custom offset="11312" size="4"/>
			</blobs>
		</layer>
		<layer id="24" name="36143618_const" precision="FP32" type="Const">
			<output>
				<port id="1"/>
			</output>
			<blobs>
				<custom offset="11316" size="4"/>
			</blobs>
		</layer>
		<layer id="25" name="36153619_const" precision="FP32" type="Const">
			<output>
				<port id="1"/>
			</output>
			<blobs>
				<custom offset="11312" size="4"/>
			</blobs>
		</layer>
		<layer id="26" name="36163620_const" precision="FP32" type="Const">
			<output>
				<port id="1"/>
			</output>
			<blobs>
				<custom offset="11316" size="4"/>
			</blobs>
		</layer>
		<layer id="27" name="56/fq_weights_1" precision="FP32" type="FakeQuantize">
			<data levels="255.0"/>
			<input>
				<port id="0">
					<dim>16</dim>
					<dim>64</dim>
					<dim>1</dim>
					<dim>1</dim>
				</port>
				<port id="1"/>
				<port id="2"/>
				<port id="3"/>
				<port id="4"/>
			</input>
			<output>
				<port id="5">
					<dim>16</dim>
					<dim>64</dim>
					<dim>1</dim>
					<dim>1</dim>
				</port>
			</output>
		</layer>
		<layer id="28" name="features.3.squeeze.bias/Output_0/Data__const" precision="FP32" type="Const">
			<output>
				<port id="1">
					<dim>16</dim>
				</port>
			</output>
			<blobs>
				<custom offset="11320" size="64"/>
			</blobs>
		</layer>
		<layer id="29" name="56" precision="FP32" type="Convolution">
			<data dilations="1,1" group="1" kernel="1,1" output="16" pads_begin="0,0" pads_end="0,0" strides="1,1"/>
			<input>
				<port id="0">
					<dim>1</dim>
					<dim>64</dim>
					<dim>55</dim>
					<dim>55</dim>
				</port>
				<port id="1">
					<dim>16</dim>
					<dim>64</dim>
					<dim>1</dim>
					<dim>1</dim>
				</port>
				<port id="2">
					<dim>16</dim>
				</port>
			</input>
			<output>
				<port id="3">
					<dim>1</dim>
					<dim>16</dim>
					<dim>55</dim>
					<dim>55</dim>
				</port>
			</output>
		</layer>
		<layer id="30" name="57" precision="FP32" type="ReLU">
			<input>
				<port id="0">
					<dim>1</dim>
					<dim>16</dim>
					<dim>55</dim>
					<dim>55</dim>
				</port>
			</input>
			<output>
				<port id="1">
					<dim>1</dim>
					<dim>16</dim>
					<dim>55</dim>
					<dim>55</dim>
				</port>
			</output>
		</layer>
		<layer id="31" name="35533557_const" precision="FP32" type="Const">
			<output>
				<port id="1"/>
			</output>
			<blobs>
				<custom offset="7208" size="4"/>
			</blobs>
		</layer>
		<layer id="32" name="35543558_const" precision="FP32" type="Const">
			<output>
				<port id="1"/>
			</output>
			<blobs>
				<custom offset="11384" size="4"/>
			</blobs>
		</layer>
		<layer id="33" name="35553559_const" precision="FP32" type="Const">
			<output>
				<port id="1"/>
			</output>
			<blobs>
				<custom offset="7208" size="4"/>
			</blobs>
		</layer>
		<layer id="34" name="35563560_const" precision="FP32" type="Const">
			<output>
				<port id="1"/>
			</output>
			<blobs>
				<custom offset="11384" size="4"/>
			</blobs>
		</layer>
		<layer id="35" name="58/fq_input_0" precision="FP32" type="FakeQuantize">
			<data levels="256.0"/>
			<input>
				<port id="0">
					<dim>1</dim>
					<dim>16</dim>
					<dim>55</dim>
					<dim>55</dim>
				</port>
				<port id="1"/>
				<port id="2"/>
				<port id="3"/>
				<port id="4"/>
			</input>
			<output>
				<port id="5">
					<dim>1</dim>
					<dim>16</dim>
					<dim>55</dim>
					<dim>55</dim>
				</port>
			</output>
		</layer>
		<layer id="36" name="features.3.expand1x1.weight/Output_0/Data__const" precision="FP32" type="Const">
			<output>
				<port id="1">
					<dim>64</dim>
					<dim>16</dim>
					<dim>1</dim>
					<dim>1</dim>
				</port>
			</output>
			<blobs>
				<custom offset="11388" size="4096"/>
			</blobs>
		</layer>
		<layer id="37" name="35633567_const" precision="FP32" type="Const">
			<output>
				<port id="1"/>
			</output>
			<blobs>
				<custom offset="15484" size="4"/>
			</blobs>
		</layer>
		<layer id="38" name="35643568_const" precision="FP32" type="Const">
			<output>
				<port id="1"/>
			</output>
			<blobs>
				<custom offset="15488" size="4"/>
			</blobs>
		</layer>
		<layer id="39" name="35653569_const" precision="FP32" type="Const">
			<output>
				<port id="1"/>
			</output>
			<blobs>
				<custom offset="15484" size="4"/>
			</blobs>
		</layer>
		<layer id="40" name="35663570_const" precision="FP32" type="Const">
			<output>
				<port id="1"/>
			</output>
			<blobs>
				<custom offset="15488" size="4"/>
			</blobs>
		</layer>
		<layer id="41" name="58/fq_weights_1" precision="FP32" type="FakeQuantize">
			<data levels="255.0"/>
			<input>
				<port id="0">
					<dim>64</dim>
					<dim>16</dim>
					<dim>1</dim>
					<dim>1</dim>
				</port>
				<port id="1"/>
				<port id="2"/>
				<port id="3"/>
				<port id="4"/>
			</input>
			<output>
				<port id="5">
					<dim>64</dim>
					<dim>16</dim>
					<dim>1</dim>
					<dim>1</dim>
				</port>
			</output>
		</layer>
		<layer id="42" name="features.3.expand1x1.bias/Output_0/Data__const" precision="FP32" type="Const">
			<output>
				<port id="1">
					<dim>64</dim>
				</port>
			</output>
			<blobs>
				<custom offset="15492" size="256"/>
			</blobs>
		</layer>
		<layer id="43" name="58" precision="FP32" type="Convolution">
			<data dilations="1,1" group="1" kernel="1,1" output="64" pads_begin="0,0" pads_end="0,0" strides="1,1"/>
			<input>
				<port id="0">
					<dim>1</dim>
					<dim>16</dim>
					<dim>55</dim>
					<dim>55</dim>
				</port>
				<port id="1">
					<dim>64</dim>
					<dim>16</dim>
					<dim>1</dim>
					<dim>1</dim>
				</port>
				<port id="2">
					<dim>64</dim>
				</port>
			</input>
			<output>
				<port id="3">
					<dim>1</dim>
					<dim>64</dim>
					<dim>55</dim>
					<dim>55</dim>
				</port>
			</output>
		</layer>
		<layer id="44" name="59" precision="FP32" type="ReLU">
			<input>
				<port id="0">
					<dim>1</dim>
					<dim>64</dim>
					<dim>55</dim>
					<dim>55</dim>
				</port>
			</input>
			<output>
				<port id="1">
					<dim>1</dim>
					<dim>64</dim>
					<dim>55</dim>
					<dim>55</dim>
				</port>
			</output>
		</layer>
		<layer id="45" name="43944398_const" precision="FP32" type="Const">
			<output>
				<port id="1"/>
			</output>
			<blobs>
				<custom offset="7208" size="4"/>
			</blobs>
		</layer>
		<layer id="46" name="43954399_const" precision="FP32" type="Const">
			<output>
				<port id="1"/>
			</output>
			<blobs>
				<custom offset="15748" size="4"/>
			</blobs>
		</layer>
		<layer id="47" name="43964400_const" precision="FP32" type="Const">
			<output>
				<port id="1"/>
			</output>
			<blobs>
				<custom offset="7208" size="4"/>
			</blobs>
		</layer>
		<layer id="48" name="43974401_const" precision="FP32" type="Const">
			<output>
				<port id="1"/>
			</output>
			<blobs>
				<custom offset="15748" size="4"/>
			</blobs>
		</layer>
		<layer id="49" name="62/fq_input_0" precision="FP32" type="FakeQuantize">
			<data levels="256.0"/>
			<input>
				<port id="0">
					<dim>1</dim>
					<dim>64</dim>
					<dim>55</dim>
					<dim>55</dim>
				</port>
				<port id="1"/>
				<port id="2"/>
				<port id="3"/>
				<port id="4"/>
			</input>
			<output>
				<port id="5">
					<dim>1</dim>
					<dim>64</dim>
					<dim>55</dim>
					<dim>55</dim>
				</port>
			</output>
		</layer>
		<layer id="50" name="features.3.expand3x3.weight/Output_0/Data__const" precision="FP32" type="Const">
			<output>
				<port id="1">
					<dim>64</dim>
					<dim>16</dim>
					<dim>3</dim>
					<dim>3</dim>
				</port>
			</output>
			<blobs>
				<custom offset="15752" size="36864"/>
			</blobs>
		</layer>
		<layer id="51" name="39033907_const" precision="FP32" type="Const">
			<output>
				<port id="1"/>
			</output>
			<blobs>
				<custom offset="52616" size="4"/>
			</blobs>
		</layer>
		<layer id="52" name="39043908_const" precision="FP32" type="Const">
			<output>
				<port id="1"/>
			</output>
			<blobs>
				<custom offset="52620" size="4"/>
			</blobs>
		</layer>
		<layer id="53" name="39053909_const" precision="FP32" type="Const">
			<output>
				<port id="1"/>
			</output>
			<blobs>
				<custom offset="52616" size="4"/>
			</blobs>
		</layer>
		<layer id="54" name="39063910_const" precision="FP32" type="Const">
			<output>
				<port id="1"/>
			</output>
			<blobs>
				<custom offset="52620" size="4"/>
			</blobs>
		</layer>
		<layer id="55" name="60/fq_weights_1" precision="FP32" type="FakeQuantize">
			<data levels="255.0"/>
			<input>
				<port id="0">
					<dim>64</dim>
					<dim>16</dim>
					<dim>3</dim>
					<dim>3</dim>
				</port>
				<port id="1"/>
				<port id="2"/>
				<port id="3"/>
				<port id="4"/>
			</input>
			<output>
				<port id="5">
					<dim>64</dim>
					<dim>16</dim>
					<dim>3</dim>
					<dim>3</dim>
				</port>
			</output>
		</layer>
		<layer id="56" name="features.3.expand3x3.bias/Output_0/Data__const" precision="FP32" type="Const">
			<output>
				<port id="1">
					<dim>64</dim>
				</port>
			</output>
			<blobs>
				<custom offset="52624" size="256"/>
			</blobs>
		</layer>
		<layer id="57" name="60" precision="FP32" type="Convolution">
			<data dilations="1,1" group="1" kernel="3,3" output="64" pads_begin="1,1" pads_end="1,1" strides="1,1"/>
			<input>
				<port id="0">
					<dim>1</dim>
					<dim>16</dim>
					<dim>55</dim>
					<dim>55</dim>
				</port>
				<port id="1">
					<dim>64</dim>
					<dim>16</dim>
					<dim>3</dim>
					<dim>3</dim>
				</port>
				<port id="2">
					<dim>64</dim>
				</port>
			</input>
			<output>
				<port id="3">
					<dim>1</dim>
					<dim>64</dim>
					<dim>55</dim>
					<dim>55</dim>
				</port>
			</output>
		</layer>
		<layer id="58" name="61" precision="FP32" type="ReLU">
			<input>
				<port id="0">
					<dim>1</dim>
					<dim>64</dim>
					<dim>55</dim>
					<dim>55</dim>
				</port>
			</input>
			<output>
				<port id="1">
					<dim>1</dim>
					<dim>64</dim>
					<dim>55</dim>
					<dim>55</dim>
				</port>
			</output>
		</layer>
		<layer id="59" name="44044408_const" precision="FP32" type="Const">
			<output>
				<port id="1"/>
			</output>
			<blobs>
				<custom offset="7208" size="4"/>
			</blobs>
		</layer>
		<layer id="60" name="44054409_const" precision="FP32" type="Const">
			<output>
				<port id="1"/>
			</output>
			<blobs>
				<custom offset="52880" size="4"/>
			</blobs>
		</layer>
		<layer id="61" name="44064410_const" precision="FP32" type="Const">
			<output>
				<port id="1"/>
			</output>
			<blobs>
				<custom offset="7208" size="4"/>
			</blobs>
		</layer>
		<layer id="62" name="44074411_const" precision="FP32" type="Const">
			<output>
				<port id="1"/>
			</output>
			<blobs>
				<custom offset="52880" size="4"/>
			</blobs>
		</layer>
		<layer id="63" name="62/fq_input_1" precision="FP32" type="FakeQuantize">
			<data levels="256.0"/>
			<input>
				<port id="0">
					<dim>1</dim>
					<dim>64</dim>
					<dim>55</dim>
					<dim>55</dim>
				</port>
				<port id="1"/>
				<port id="2"/>
				<port id="3"/>
				<port id="4"/>
			</input>
			<output>
				<port id="5">
					<dim>1</dim>
					<dim>64</dim>
					<dim>55</dim>
					<dim>55</dim>
				</port>
			</output>
		</layer>
		<layer id="64" name="62" precision="FP32" type="Concat">
			<data axis="1"/>
			<input>
				<port id="0">
					<dim>1</dim>
					<dim>64</dim>
					<dim>55</dim>
					<dim>55</dim>
				</port>
				<port id="1">
					<dim>1</dim>
					<dim>64</dim>
					<dim>55</dim>
					<dim>55</dim>
				</port>
			</input>
			<output>
				<port id="2">
					<dim>1</dim>
					<dim>128</dim>
					<dim>55</dim>
					<dim>55</dim>
				</port>
			</output>
		</layer>
		<layer id="65" name="features.4.squeeze.weight/Output_0/Data__const" precision="FP32" type="Const">
			<output>
				<port id="1">
					<dim>16</dim>
					<dim>128</dim>
					<dim>1</dim>
					<dim>1</dim>
				</port>
			</output>
			<blobs>
				<custom offset="52884" size="8192"/>
			</blobs>
		</layer>
		<layer id="66" name="39433947_const" precision="FP32" type="Const">
			<output>
				<port id="1"/>
			</output>
			<blobs>
				<custom offset="61076" size="4"/>
			</blobs>
		</layer>
		<layer id="67" name="39443948_const" precision="FP32" type="Const">
			<output>
				<port id="1"/>
			</output>
			<blobs>
				<custom offset="61080" size="4"/>
			</blobs>
		</layer>
		<layer id="68" name="39453949_const" precision="FP32" type="Const">
			<output>
				<port id="1"/>
			</output>
			<blobs>
				<custom offset="61076" size="4"/>
			</blobs>
		</layer>
		<layer id="69" name="39463950_const" precision="FP32" type="Const">
			<output>
				<port id="1"/>
			</output>
			<blobs>
				<custom offset="61080" size="4"/>
			</blobs>
		</layer>
		<layer id="70" name="63/fq_weights_1" precision="FP32" type="FakeQuantize">
			<data levels="255.0"/>
			<input>
				<port id="0">
					<dim>16</dim>
					<dim>128</dim>
					<dim>1</dim>
					<dim>1</dim>
				</port>
				<port id="1"/>
				<port id="2"/>
				<port id="3"/>
				<port id="4"/>
			</input>
			<output>
				<port id="5">
					<dim>16</dim>
					<dim>128</dim>
					<dim>1</dim>
					<dim>1</dim>
				</port>
			</output>
		</layer>
		<layer id="71" name="features.4.squeeze.bias/Output_0/Data__const" precision="FP32" type="Const">
			<output>
				<port id="1">
					<dim>16</dim>
				</port>
			</output>
			<blobs>
				<custom offset="61084" size="64"/>
			</blobs>
		</layer>
		<layer id="72" name="63" precision="FP32" type="Convolution">
			<data dilations="1,1" group="1" kernel="1,1" output="16" pads_begin="0,0" pads_end="0,0" strides="1,1"/>
			<input>
				<port id="0">
					<dim>1</dim>
					<dim>128</dim>
					<dim>55</dim>
					<dim>55</dim>
				</port>
				<port id="1">
					<dim>16</dim>
					<dim>128</dim>
					<dim>1</dim>
					<dim>1</dim>
				</port>
				<port id="2">
					<dim>16</dim>
				</port>
			</input>
			<output>
				<port id="3">
					<dim>1</dim>
					<dim>16</dim>
					<dim>55</dim>
					<dim>55</dim>
				</port>
			</output>
		</layer>
		<layer id="73" name="64" precision="FP32" type="ReLU">
			<input>
				<port id="0">
					<dim>1</dim>
					<dim>16</dim>
					<dim>55</dim>
					<dim>55</dim>
				</port>
			</input>
			<output>
				<port id="1">
					<dim>1</dim>
					<dim>16</dim>
					<dim>55</dim>
					<dim>55</dim>
				</port>
			</output>
		</layer>
		<layer id="74" name="40134017_const" precision="FP32" type="Const">
			<output>
				<port id="1"/>
			</output>
			<blobs>
				<custom offset="7208" size="4"/>
			</blobs>
		</layer>
		<layer id="75" name="40144018_const" precision="FP32" type="Const">
			<output>
				<port id="1"/>
			</output>
			<blobs>
				<custom offset="61148" size="4"/>
			</blobs>
		</layer>
		<layer id="76" name="40154019_const" precision="FP32" type="Const">
			<output>
				<port id="1"/>
			</output>
			<blobs>
				<custom offset="7208" size="4"/>
			</blobs>
		</layer>
		<layer id="77" name="40164020_const" precision="FP32" type="Const">
			<output>
				<port id="1"/>
			</output>
			<blobs>
				<custom offset="61148" size="4"/>
			</blobs>
		</layer>
		<layer id="78" name="65/fq_input_0" precision="FP32" type="FakeQuantize">
			<data levels="256.0"/>
			<input>
				<port id="0">
					<dim>1</dim>
					<dim>16</dim>
					<dim>55</dim>
					<dim>55</dim>
				</port>
				<port id="1"/>
				<port id="2"/>
				<port id="3"/>
				<port id="4"/>
			</input>
			<output>
				<port id="5">
					<dim>1</dim>
					<dim>16</dim>
					<dim>55</dim>
					<dim>55</dim>
				</port>
			</output>
		</layer>
		<layer id="79" name="features.4.expand1x1.weight/Output_0/Data__const" precision="FP32" type="Const">
			<output>
				<port id="1">
					<dim>64</dim>
					<dim>16</dim>
					<dim>1</dim>
					<dim>1</dim>
				</port>
			</output>
			<blobs>
				<custom offset="61152" size="4096"/>
			</blobs>
		</layer>
		<layer id="80" name="40234027_const" precision="FP32" type="Const">
			<output>
				<port id="1"/>
			</output>
			<blobs>
				<custom offset="65248" size="4"/>
			</blobs>
		</layer>
		<layer id="81" name="40244028_const" precision="FP32" type="Const">
			<output>
				<port id="1"/>
			</output>
			<blobs>
				<custom offset="65252" size="4"/>
			</blobs>
		</layer>
		<layer id="82" name="40254029_const" precision="FP32" type="Const">
			<output>
				<port id="1"/>
			</output>
			<blobs>
				<custom offset="65248" size="4"/>
			</blobs>
		</layer>
		<layer id="83" name="40264030_const" precision="FP32" type="Const">
			<output>
				<port id="1"/>
			</output>
			<blobs>
				<custom offset="65252" size="4"/>
			</blobs>
		</layer>
		<layer id="84" name="65/fq_weights_1" precision="FP32" type="FakeQuantize">
			<data levels="255.0"/>
			<input>
				<port id="0">
					<dim>64</dim>
					<dim>16</dim>
					<dim>1</dim>
					<dim>1</dim>
				</port>
				<port id="1"/>
				<port id="2"/>
				<port id="3"/>
				<port id="4"/>
			</input>
			<output>
				<port id="5">
					<dim>64</dim>
					<dim>16</dim>
					<dim>1</dim>
					<dim>1</dim>
				</port>
			</output>
		</layer>
		<layer id="85" name="features.4.expand1x1.bias/Output_0/Data__const" precision="FP32" type="Const">
			<output>
				<port id="1">
					<dim>64</dim>
				</port>
			</output>
			<blobs>
				<custom offset="65256" size="256"/>
			</blobs>
		</layer>
		<layer id="86" name="65" precision="FP32" type="Convolution">
			<data dilations="1,1" group="1" kernel="1,1" output="64" pads_begin="0,0" pads_end="0,0" strides="1,1"/>
			<input>
				<port id="0">
					<dim>1</dim>
					<dim>16</dim>
					<dim>55</dim>
					<dim>55</dim>
				</port>
				<port id="1">
					<dim>64</dim>
					<dim>16</dim>
					<dim>1</dim>
					<dim>1</dim>
				</port>
				<port id="2">
					<dim>64</dim>
				</port>
			</input>
			<output>
				<port id="3">
					<dim>1</dim>
					<dim>64</dim>
					<dim>55</dim>
					<dim>55</dim>
				</port>
			</output>
		</layer>
		<layer id="87" name="66" precision="FP32" type="ReLU">
			<input>
				<port id="0">
					<dim>1</dim>
					<dim>64</dim>
					<dim>55</dim>
					<dim>55</dim>
				</port>
			</input>
			<output>
				<port id="1">
					<dim>1</dim>
					<dim>64</dim>
					<dim>55</dim>
					<dim>55</dim>
				</port>
			</output>
		</layer>
		<layer id="88" name="43344338_const" precision="FP32" type="Const">
			<output>
				<port id="1"/>
			</output>
			<blobs>
				<custom offset="7208" size="4"/>
			</blobs>
		</layer>
		<layer id="89" name="43354339_const" precision="FP32" type="Const">
			<output>
				<port id="1"/>
			</output>
			<blobs>
				<custom offset="65512" size="4"/>
			</blobs>
		</layer>
		<layer id="90" name="43364340_const" precision="FP32" type="Const">
			<output>
				<port id="1"/>
			</output>
			<blobs>
				<custom offset="7208" size="4"/>
			</blobs>
		</layer>
		<layer id="91" name="43374341_const" precision="FP32" type="Const">
			<output>
				<port id="1"/>
			</output>
			<blobs>
				<custom offset="65512" size="4"/>
			</blobs>
		</layer>
		<layer id="92" name="69/fq_input_0" precision="FP32" type="FakeQuantize">
			<data levels="256.0"/>
			<input>
				<port id="0">
					<dim>1</dim>
					<dim>64</dim>
					<dim>55</dim>
					<dim>55</dim>
				</port>
				<port id="1"/>
				<port id="2"/>
				<port id="3"/>
				<port id="4"/>
			</input>
			<output>
				<port id="5">
					<dim>1</dim>
					<dim>64</dim>
					<dim>55</dim>
					<dim>55</dim>
				</port>
			</output>
		</layer>
		<layer id="93" name="features.4.expand3x3.weight/Output_0/Data__const" precision="FP32" type="Const">
			<output>
				<port id="1">
					<dim>64</dim>
					<dim>16</dim>
					<dim>3</dim>
					<dim>3</dim>
				</port>
			</output>
			<blobs>
				<custom offset="65516" size="36864"/>
			</blobs>
		</layer>
		<layer id="94" name="36733677_const" precision="FP32" type="Const">
			<output>
				<port id="1"/>
			</output>
			<blobs>
				<custom offset="102380" size="4"/>
			</blobs>
		</layer>
		<layer id="95" name="36743678_const" precision="FP32" type="Const">
			<output>
				<port id="1"/>
			</output>
			<blobs>
				<custom offset="102384" size="4"/>
			</blobs>
		</layer>
		<layer id="96" name="36753679_const" precision="FP32" type="Const">
			<output>
				<port id="1"/>
			</output>
			<blobs>
				<custom offset="102380" size="4"/>
			</blobs>
		</layer>
		<layer id="97" name="36763680_const" precision="FP32" type="Const">
			<output>
				<port id="1"/>
			</output>
			<blobs>
				<custom offset="102384" size="4"/>
			</blobs>
		</layer>
		<layer id="98" name="67/fq_weights_1" precision="FP32" type="FakeQuantize">
			<data levels="255.0"/>
			<input>
				<port id="0">
					<dim>64</dim>
					<dim>16</dim>
					<dim>3</dim>
					<dim>3</dim>
				</port>
				<port id="1"/>
				<port id="2"/>
				<port id="3"/>
				<port id="4"/>
			</input>
			<output>
				<port id="5">
					<dim>64</dim>
					<dim>16</dim>
					<dim>3</dim>
					<dim>3</dim>
				</port>
			</output>
		</layer>
		<layer id="99" name="features.4.expand3x3.bias/Output_0/Data__const" precision="FP32" type="Const">
			<output>
				<port id="1">
					<dim>64</dim>
				</port>
			</output>
			<blobs>
				<custom offset="102388" size="256"/>
			</blobs>
		</layer>
		<layer id="100" name="67" precision="FP32" type="Convolution">
			<data dilations="1,1" group="1" kernel="3,3" output="64" pads_begin="1,1" pads_end="1,1" strides="1,1"/>
			<input>
				<port id="0">
					<dim>1</dim>
					<dim>16</dim>
					<dim>55</dim>
					<dim>55</dim>
				</port>
				<port id="1">
					<dim>64</dim>
					<dim>16</dim>
					<dim>3</dim>
					<dim>3</dim>
				</port>
				<port id="2">
					<dim>64</dim>
				</port>
			</input>
			<output>
				<port id="3">
					<dim>1</dim>
					<dim>64</dim>
					<dim>55</dim>
					<dim>55</dim>
				</port>
			</output>
		</layer>
		<layer id="101" name="68" precision="FP32" type="ReLU">
			<input>
				<port id="0">
					<dim>1</dim>
					<dim>64</dim>
					<dim>55</dim>
					<dim>55</dim>
				</port>
			</input>
			<output>
				<port id="1">
					<dim>1</dim>
					<dim>64</dim>
					<dim>55</dim>
					<dim>55</dim>
				</port>
			</output>
		</layer>
		<layer id="102" name="43444348_const" precision="FP32" type="Const">
			<output>
				<port id="1"/>
			</output>
			<blobs>
				<custom offset="7208" size="4"/>
			</blobs>
		</layer>
		<layer id="103" name="43454349_const" precision="FP32" type="Const">
			<output>
				<port id="1"/>
			</output>
			<blobs>
				<custom offset="102644" size="4"/>
			</blobs>
		</layer>
		<layer id="104" name="43464350_const" precision="FP32" type="Const">
			<output>
				<port id="1"/>
			</output>
			<blobs>
				<custom offset="7208" size="4"/>
			</blobs>
		</layer>
		<layer id="105" name="43474351_const" precision="FP32" type="Const">
			<output>
				<port id="1"/>
			</output>
			<blobs>
				<custom offset="102644" size="4"/>
			</blobs>
		</layer>
		<layer id="106" name="69/fq_input_1" precision="FP32" type="FakeQuantize">
			<data levels="256.0"/>
			<input>
				<port id="0">
					<dim>1</dim>
					<dim>64</dim>
					<dim>55</dim>
					<dim>55</dim>
				</port>
				<port id="1"/>
				<port id="2"/>
				<port id="3"/>
				<port id="4"/>
			</input>
			<output>
				<port id="5">
					<dim>1</dim>
					<dim>64</dim>
					<dim>55</dim>
					<dim>55</dim>
				</port>
			</output>
		</layer>
		<layer id="107" name="69" precision="FP32" type="Concat">
			<data axis="1"/>
			<input>
				<port id="0">
					<dim>1</dim>
					<dim>64</dim>
					<dim>55</dim>
					<dim>55</dim>
				</port>
				<port id="1">
					<dim>1</dim>
					<dim>64</dim>
					<dim>55</dim>
					<dim>55</dim>
				</port>
			</input>
			<output>
				<port id="2">
					<dim>1</dim>
					<dim>128</dim>
					<dim>55</dim>
					<dim>55</dim>
				</port>
			</output>
		</layer>
		<layer id="108" name="70" precision="FP32" type="Pooling">
			<data exclude-pad="true" kernel="3,3" pads_begin="0,0" pads_end="0,0" pool-method="max" rounding_type="floor" strides="2,2"/>
			<input>
				<port id="0">
					<dim>1</dim>
					<dim>128</dim>
					<dim>55</dim>
					<dim>55</dim>
				</port>
			</input>
			<output>
				<port id="1">
					<dim>1</dim>
					<dim>128</dim>
					<dim>27</dim>
					<dim>27</dim>
				</port>
			</output>
		</layer>
		<layer id="109" name="features.6.squeeze.weight/Output_0/Data__const" precision="FP32" type="Const">
			<output>
				<port id="1">
					<dim>32</dim>
					<dim>128</dim>
					<dim>1</dim>
					<dim>1</dim>
				</port>
			</output>
			<blobs>
				<custom offset="102648" size="16384"/>
			</blobs>
		</layer>
		<layer id="110" name="35433547_const" precision="FP32" type="Const">
			<output>
				<port id="1"/>
			</output>
			<blobs>
				<custom offset="119032" size="4"/>
			</blobs>
		</layer>
		<layer id="111" name="35443548_const" precision="FP32" type="Const">
			<output>
				<port id="1"/>
			</output>
			<blobs>
				<custom offset="119036" size="4"/>
			</blobs>
		</layer>
		<layer id="112" name="35453549_const" precision="FP32" type="Const">
			<output>
				<port id="1"/>
			</output>
			<blobs>
				<custom offset="119032" size="4"/>
			</blobs>
		</layer>
		<layer id="113" name="35463550_const" precision="FP32" type="Const">
			<output>
				<port id="1"/>
			</output>
			<blobs>
				<custom offset="119036" size="4"/>
			</blobs>
		</layer>
		<layer id="114" name="71/fq_weights_1" precision="FP32" type="FakeQuantize">
			<data levels="255.0"/>
			<input>
				<port id="0">
					<dim>32</dim>
					<dim>128</dim>
					<dim>1</dim>
					<dim>1</dim>
				</port>
				<port id="1"/>
				<port id="2"/>
				<port id="3"/>
				<port id="4"/>
			</input>
			<output>
				<port id="5">
					<dim>32</dim>
					<dim>128</dim>
					<dim>1</dim>
					<dim>1</dim>
				</port>
			</output>
		</layer>
		<layer id="115" name="features.6.squeeze.bias/Output_0/Data__const" precision="FP32" type="Const">
			<output>
				<port id="1">
					<dim>32</dim>
				</port>
			</output>
			<blobs>
				<custom offset="119040" size="128"/>
			</blobs>
		</layer>
		<layer id="116" name="71" precision="FP32" type="Convolution">
			<data dilations="1,1" group="1" kernel="1,1" output="32" pads_begin="0,0" pads_end="0,0" strides="1,1"/>
			<input>
				<port id="0">
					<dim>1</dim>
					<dim>128</dim>
					<dim>27</dim>
					<dim>27</dim>
				</port>
				<port id="1">
					<dim>32</dim>
					<dim>128</dim>
					<dim>1</dim>
					<dim>1</dim>
				</port>
				<port id="2">
					<dim>32</dim>
				</port>
			</input>
			<output>
				<port id="3">
					<dim>1</dim>
					<dim>32</dim>
					<dim>27</dim>
					<dim>27</dim>
				</port>
			</output>
		</layer>
		<layer id="117" name="72" precision="FP32" type="ReLU">
			<input>
				<port id="0">
					<dim>1</dim>
					<dim>32</dim>
					<dim>27</dim>
					<dim>27</dim>
				</port>
			</input>
			<output>
				<port id="1">
					<dim>1</dim>
					<dim>32</dim>
					<dim>27</dim>
					<dim>27</dim>
				</port>
			</output>
		</layer>
		<layer id="118" name="37633767_const" precision="FP32" type="Const">
			<output>
				<port id="1"/>
			</output>
			<blobs>
				<custom offset="7208" size="4"/>
			</blobs>
		</layer>
		<layer id="119" name="37643768_const" precision="FP32" type="Const">
			<output>
				<port id="1"/>
			</output>
			<blobs>
				<custom offset="119168" size="4"/>
			</blobs>
		</layer>
		<layer id="120" name="37653769_const" precision="FP32" type="Const">
			<output>
				<port id="1"/>
			</output>
			<blobs>
				<custom offset="7208" size="4"/>
			</blobs>
		</layer>
		<layer id="121" name="37663770_const" precision="FP32" type="Const">
			<output>
				<port id="1"/>
			</output>
			<blobs>
				<custom offset="119168" size="4"/>
			</blobs>
		</layer>
		<layer id="122" name="75/fq_input_0" precision="FP32" type="FakeQuantize">
			<data levels="256.0"/>
			<input>
				<port id="0">
					<dim>1</dim>
					<dim>32</dim>
					<dim>27</dim>
					<dim>27</dim>
				</port>
				<port id="1"/>
				<port id="2"/>
				<port id="3"/>
				<port id="4"/>
			</input>
			<output>
				<port id="5">
					<dim>1</dim>
					<dim>32</dim>
					<dim>27</dim>
					<dim>27</dim>
				</port>
			</output>
		</layer>
		<layer id="123" name="features.6.expand1x1.weight/Output_0/Data__const" precision="FP32" type="Const">
			<output>
				<port id="1">
					<dim>128</dim>
					<dim>32</dim>
					<dim>1</dim>
					<dim>1</dim>
				</port>
			</output>
			<blobs>
				<custom offset="119172" size="16384"/>
			</blobs>
		</layer>
		<layer id="124" name="40034007_const" precision="FP32" type="Const">
			<output>
				<port id="1"/>
			</output>
			<blobs>
				<custom offset="135556" size="4"/>
			</blobs>
		</layer>
		<layer id="125" name="40044008_const" precision="FP32" type="Const">
			<output>
				<port id="1"/>
			</output>
			<blobs>
				<custom offset="135560" size="4"/>
			</blobs>
		</layer>
		<layer id="126" name="40054009_const" precision="FP32" type="Const">
			<output>
				<port id="1"/>
			</output>
			<blobs>
				<custom offset="135556" size="4"/>
			</blobs>
		</layer>
		<layer id="127" name="40064010_const" precision="FP32" type="Const">
			<output>
				<port id="1"/>
			</output>
			<blobs>
				<custom offset="135560" size="4"/>
			</blobs>
		</layer>
		<layer id="128" name="73/fq_weights_1" precision="FP32" type="FakeQuantize">
			<data levels="255.0"/>
			<input>
				<port id="0">
					<dim>128</dim>
					<dim>32</dim>
					<dim>1</dim>
					<dim>1</dim>
				</port>
				<port id="1"/>
				<port id="2"/>
				<port id="3"/>
				<port id="4"/>
			</input>
			<output>
				<port id="5">
					<dim>128</dim>
					<dim>32</dim>
					<dim>1</dim>
					<dim>1</dim>
				</port>
			</output>
		</layer>
		<layer id="129" name="features.6.expand1x1.bias/Output_0/Data__const" precision="FP32" type="Const">
			<output>
				<port id="1">
					<dim>128</dim>
				</port>
			</output>
			<blobs>
				<custom offset="135564" size="512"/>
			</blobs>
		</layer>
		<layer id="130" name="73" precision="FP32" type="Convolution">
			<data dilations="1,1" group="1" kernel="1,1" output="128" pads_begin="0,0" pads_end="0,0" strides="1,1"/>
			<input>
				<port id="0">
					<dim>1</dim>
					<dim>32</dim>
					<dim>27</dim>
					<dim>27</dim>
				</port>
				<port id="1">
					<dim>128</dim>
					<dim>32</dim>
					<dim>1</dim>
					<dim>1</dim>
				</port>
				<port id="2">
					<dim>128</dim>
				</port>
			</input>
			<output>
				<port id="3">
					<dim>1</dim>
					<dim>128</dim>
					<dim>27</dim>
					<dim>27</dim>
				</port>
			</output>
		</layer>
		<layer id="131" name="74" precision="FP32" type="ReLU">
			<input>
				<port id="0">
					<dim>1</dim>
					<dim>128</dim>
					<dim>27</dim>
					<dim>27</dim>
				</port>
			</input>
			<output>
				<port id="1">
					<dim>1</dim>
					<dim>128</dim>
					<dim>27</dim>
					<dim>27</dim>
				</port>
			</output>
		</layer>
		<layer id="132" name="43744378_const" precision="FP32" type="Const">
			<output>
				<port id="1"/>
			</output>
			<blobs>
				<custom offset="7208" size="4"/>
			</blobs>
		</layer>
		<layer id="133" name="43754379_const" precision="FP32" type="Const">
			<output>
				<port id="1"/>
			</output>
			<blobs>
				<custom offset="136076" size="4"/>
			</blobs>
		</layer>
		<layer id="134" name="43764380_const" precision="FP32" type="Const">
			<output>
				<port id="1"/>
			</output>
			<blobs>
				<custom offset="7208" size="4"/>
			</blobs>
		</layer>
		<layer id="135" name="43774381_const" precision="FP32" type="Const">
			<output>
				<port id="1"/>
			</output>
			<blobs>
				<custom offset="136076" size="4"/>
			</blobs>
		</layer>
		<layer id="136" name="77/fq_input_0" precision="FP32" type="FakeQuantize">
			<data levels="256.0"/>
			<input>
				<port id="0">
					<dim>1</dim>
					<dim>128</dim>
					<dim>27</dim>
					<dim>27</dim>
				</port>
				<port id="1"/>
				<port id="2"/>
				<port id="3"/>
				<port id="4"/>
			</input>
			<output>
				<port id="5">
					<dim>1</dim>
					<dim>128</dim>
					<dim>27</dim>
					<dim>27</dim>
				</port>
			</output>
		</layer>
		<layer id="137" name="features.6.expand3x3.weight/Output_0/Data__const" precision="FP32" type="Const">
			<output>
				<port id="1">
					<dim>128</dim>
					<dim>32</dim>
					<dim>3</dim>
					<dim>3</dim>
				</port>
			</output>
			<blobs>
				<custom offset="136080" size="147456"/>
			</blobs>
		</layer>
		<layer id="138" name="37733777_const" precision="FP32" type="Const">
			<output>
				<port id="1"/>
			</output>
			<blobs>
				<custom offset="283536" size="4"/>
			</blobs>
		</layer>
		<layer id="139" name="37743778_const" precision="FP32" type="Const">
			<output>
				<port id="1"/>
			</output>
			<blobs>
				<custom offset="283540" size="4"/>
			</blobs>
		</layer>
		<layer id="140" name="37753779_const" precision="FP32" type="Const">
			<output>
				<port id="1"/>
			</output>
			<blobs>
				<custom offset="283536" size="4"/>
			</blobs>
		</layer>
		<layer id="141" name="37763780_const" precision="FP32" type="Const">
			<output>
				<port id="1"/>
			</output>
			<blobs>
				<custom offset="283540" size="4"/>
			</blobs>
		</layer>
		<layer id="142" name="75/fq_weights_1" precision="FP32" type="FakeQuantize">
			<data levels="255.0"/>
			<input>
				<port id="0">
					<dim>128</dim>
					<dim>32</dim>
					<dim>3</dim>
					<dim>3</dim>
				</port>
				<port id="1"/>
				<port id="2"/>
				<port id="3"/>
				<port id="4"/>
			</input>
			<output>
				<port id="5">
					<dim>128</dim>
					<dim>32</dim>
					<dim>3</dim>
					<dim>3</dim>
				</port>
			</output>
		</layer>
		<layer id="143" name="features.6.expand3x3.bias/Output_0/Data__const" precision="FP32" type="Const">
			<output>
				<port id="1">
					<dim>128</dim>
				</port>
			</output>
			<blobs>
				<custom offset="283544" size="512"/>
			</blobs>
		</layer>
		<layer id="144" name="75" precision="FP32" type="Convolution">
			<data dilations="1,1" group="1" kernel="3,3" output="128" pads_begin="1,1" pads_end="1,1" strides="1,1"/>
			<input>
				<port id="0">
					<dim>1</dim>
					<dim>32</dim>
					<dim>27</dim>
					<dim>27</dim>
				</port>
				<port id="1">
					<dim>128</dim>
					<dim>32</dim>
					<dim>3</dim>
					<dim>3</dim>
				</port>
				<port id="2">
					<dim>128</dim>
				</port>
			</input>
			<output>
				<port id="3">
					<dim>1</dim>
					<dim>128</dim>
					<dim>27</dim>
					<dim>27</dim>
				</port>
			</output>
		</layer>
		<layer id="145" name="76" precision="FP32" type="ReLU">
			<input>
				<port id="0">
					<dim>1</dim>
					<dim>128</dim>
					<dim>27</dim>
					<dim>27</dim>
				</port>
			</input>
			<output>
				<port id="1">
					<dim>1</dim>
					<dim>128</dim>
					<dim>27</dim>
					<dim>27</dim>
				</port>
			</output>
		</layer>
		<layer id="146" name="43844388_const" precision="FP32" type="Const">
			<output>
				<port id="1"/>
			</output>
			<blobs>
				<custom offset="7208" size="4"/>
			</blobs>
		</layer>
		<layer id="147" name="43854389_const" precision="FP32" type="Const">
			<output>
				<port id="1"/>
			</output>
			<blobs>
				<custom offset="284056" size="4"/>
			</blobs>
		</layer>
		<layer id="148" name="43864390_const" precision="FP32" type="Const">
			<output>
				<port id="1"/>
			</output>
			<blobs>
				<custom offset="7208" size="4"/>
			</blobs>
		</layer>
		<layer id="149" name="43874391_const" precision="FP32" type="Const">
			<output>
				<port id="1"/>
			</output>
			<blobs>
				<custom offset="284056" size="4"/>
			</blobs>
		</layer>
		<layer id="150" name="77/fq_input_1" precision="FP32" type="FakeQuantize">
			<data levels="256.0"/>
			<input>
				<port id="0">
					<dim>1</dim>
					<dim>128</dim>
					<dim>27</dim>
					<dim>27</dim>
				</port>
				<port id="1"/>
				<port id="2"/>
				<port id="3"/>
				<port id="4"/>
			</input>
			<output>
				<port id="5">
					<dim>1</dim>
					<dim>128</dim>
					<dim>27</dim>
					<dim>27</dim>
				</port>
			</output>
		</layer>
		<layer id="151" name="77" precision="FP32" type="Concat">
			<data axis="1"/>
			<input>
				<port id="0">
					<dim>1</dim>
					<dim>128</dim>
					<dim>27</dim>
					<dim>27</dim>
				</port>
				<port id="1">
					<dim>1</dim>
					<dim>128</dim>
					<dim>27</dim>
					<dim>27</dim>
				</port>
			</input>
			<output>
				<port id="2">
					<dim>1</dim>
					<dim>256</dim>
					<dim>27</dim>
					<dim>27</dim>
				</port>
			</output>
		</layer>
		<layer id="152" name="features.7.squeeze.weight/Output_0/Data__const" precision="FP32" type="Const">
			<output>
				<port id="1">
					<dim>32</dim>
					<dim>256</dim>
					<dim>1</dim>
					<dim>1</dim>
				</port>
			</output>
			<blobs>
				<custom offset="284060" size="32768"/>
			</blobs>
		</layer>
		<layer id="153" name="39633967_const" precision="FP32" type="Const">
			<output>
				<port id="1"/>
			</output>
			<blobs>
				<custom offset="316828" size="4"/>
			</blobs>
		</layer>
		<layer id="154" name="39643968_const" precision="FP32" type="Const">
			<output>
				<port id="1"/>
			</output>
			<blobs>
				<custom offset="316832" size="4"/>
			</blobs>
		</layer>
		<layer id="155" name="39653969_const" precision="FP32" type="Const">
			<output>
				<port id="1"/>
			</output>
			<blobs>
				<custom offset="316828" size="4"/>
			</blobs>
		</layer>
		<layer id="156" name="39663970_const" precision="FP32" type="Const">
			<output>
				<port id="1"/>
			</output>
			<blobs>
				<custom offset="316832" size="4"/>
			</blobs>
		</layer>
		<layer id="157" name="78/fq_weights_1" precision="FP32" type="FakeQuantize">
			<data levels="255.0"/>
			<input>
				<port id="0">
					<dim>32</dim>
					<dim>256</dim>
					<dim>1</dim>
					<dim>1</dim>
				</port>
				<port id="1"/>
				<port id="2"/>
				<port id="3"/>
				<port id="4"/>
			</input>
			<output>
				<port id="5">
					<dim>32</dim>
					<dim>256</dim>
					<dim>1</dim>
					<dim>1</dim>
				</port>
			</output>
		</layer>
		<layer id="158" name="features.7.squeeze.bias/Output_0/Data__const" precision="FP32" type="Const">
			<output>
				<port id="1">
					<dim>32</dim>
				</port>
			</output>
			<blobs>
				<custom offset="316836" size="128"/>
			</blobs>
		</layer>
		<layer id="159" name="78" precision="FP32" type="Convolution">
			<data dilations="1,1" group="1" kernel="1,1" output="32" pads_begin="0,0" pads_end="0,0" strides="1,1"/>
			<input>
				<port id="0">
					<dim>1</dim>
					<dim>256</dim>
					<dim>27</dim>
					<dim>27</dim>
				</port>
				<port id="1">
					<dim>32</dim>
					<dim>256</dim>
					<dim>1</dim>
					<dim>1</dim>
				</port>
				<port id="2">
					<dim>32</dim>
				</port>
			</input>
			<output>
				<port id="3">
					<dim>1</dim>
					<dim>32</dim>
					<dim>27</dim>
					<dim>27</dim>
				</port>
			</output>
		</layer>
		<layer id="160" name="79" precision="FP32" type="ReLU">
			<input>
				<port id="0">
					<dim>1</dim>
					<dim>32</dim>
					<dim>27</dim>
					<dim>27</dim>
				</port>
			</input>
			<output>
				<port id="1">
					<dim>1</dim>
					<dim>32</dim>
					<dim>27</dim>
					<dim>27</dim>
				</port>
			</output>
		</layer>
		<layer id="161" name="38433847_const" precision="FP32" type="Const">
			<output>
				<port id="1"/>
			</output>
			<blobs>
				<custom offset="7208" size="4"/>
			</blobs>
		</layer>
		<layer id="162" name="38443848_const" precision="FP32" type="Const">
			<output>
				<port id="1"/>
			</output>
			<blobs>
				<custom offset="316964" size="4"/>
			</blobs>
		</layer>
		<layer id="163" name="38453849_const" precision="FP32" type="Const">
			<output>
				<port id="1"/>
			</output>
			<blobs>
				<custom offset="7208" size="4"/>
			</blobs>
		</layer>
		<layer id="164" name="38463850_const" precision="FP32" type="Const">
			<output>
				<port id="1"/>
			</output>
			<blobs>
				<custom offset="316964" size="4"/>
			</blobs>
		</layer>
		<layer id="165" name="82/fq_input_0" precision="FP32" type="FakeQuantize">
			<data levels="256.0"/>
			<input>
				<port id="0">
					<dim>1</dim>
					<dim>32</dim>
					<dim>27</dim>
					<dim>27</dim>
				</port>
				<port id="1"/>
				<port id="2"/>
				<port id="3"/>
				<port id="4"/>
			</input>
			<output>
				<port id="5">
					<dim>1</dim>
					<dim>32</dim>
					<dim>27</dim>
					<dim>27</dim>
				</port>
			</output>
		</layer>
		<layer id="166" name="features.7.expand1x1.weight/Output_0/Data__const" precision="FP32" type="Const">
			<output>
				<port id="1">
					<dim>128</dim>
					<dim>32</dim>
					<dim>1</dim>
					<dim>1</dim>
				</port>
			</output>
			<blobs>
				<custom offset="316968" size="16384"/>
			</blobs>
		</layer>
		<layer id="167" name="35233527_const" precision="FP32" type="Const">
			<output>
				<port id="1"/>
			</output>
			<blobs>
				<custom offset="333352" size="4"/>
			</blobs>
		</layer>
		<layer id="168" name="35243528_const" precision="FP32" type="Const">
			<output>
				<port id="1"/>
			</output>
			<blobs>
				<custom offset="333356" size="4"/>
			</blobs>
		</layer>
		<layer id="169" name="35253529_const" precision="FP32" type="Const">
			<output>
				<port id="1"/>
			</output>
			<blobs>
				<custom offset="333352" size="4"/>
			</blobs>
		</layer>
		<layer id="170" name="35263530_const" precision="FP32" type="Const">
			<output>
				<port id="1"/>
			</output>
			<blobs>
				<custom offset="333356" size="4"/>
			</blobs>
		</layer>
		<layer id="171" name="80/fq_weights_1" precision="FP32" type="FakeQuantize">
			<data levels="255.0"/>
			<input>
				<port id="0">
					<dim>128</dim>
					<dim>32</dim>
					<dim>1</dim>
					<dim>1</dim>
				</port>
				<port id="1"/>
				<port id="2"/>
				<port id="3"/>
				<port id="4"/>
			</input>
			<output>
				<port id="5">
					<dim>128</dim>
					<dim>32</dim>
					<dim>1</dim>
					<dim>1</dim>
				</port>
			</output>
		</layer>
		<layer id="172" name="features.7.expand1x1.bias/Output_0/Data__const" precision="FP32" type="Const">
			<output>
				<port id="1">
					<dim>128</dim>
				</port>
			</output>
			<blobs>
				<custom offset="333360" size="512"/>
			</blobs>
		</layer>
		<layer id="173" name="80" precision="FP32" type="Convolution">
			<data dilations="1,1" group="1" kernel="1,1" output="128" pads_begin="0,0" pads_end="0,0" strides="1,1"/>
			<input>
				<port id="0">
					<dim>1</dim>
					<dim>32</dim>
					<dim>27</dim>
					<dim>27</dim>
				</port>
				<port id="1">
					<dim>128</dim>
					<dim>32</dim>
					<dim>1</dim>
					<dim>1</dim>
				</port>
				<port id="2">
					<dim>128</dim>
				</port>
			</input>
			<output>
				<port id="3">
					<dim>1</dim>
					<dim>128</dim>
					<dim>27</dim>
					<dim>27</dim>
				</port>
			</output>
		</layer>
		<layer id="174" name="81" precision="FP32" type="ReLU">
			<input>
				<port id="0">
					<dim>1</dim>
					<dim>128</dim>
					<dim>27</dim>
					<dim>27</dim>
				</port>
			</input>
			<output>
				<port id="1">
					<dim>1</dim>
					<dim>128</dim>
					<dim>27</dim>
					<dim>27</dim>
				</port>
			</output>
		</layer>
		<layer id="175" name="44744478_const" precision="FP32" type="Const">
			<output>
				<port id="1"/>
			</output>
			<blobs>
				<custom offset="7208" size="4"/>
			</blobs>
		</layer>
		<layer id="176" name="44754479_const" precision="FP32" type="Const">
			<output>
				<port id="1"/>
			</output>
			<blobs>
				<custom offset="333872" size="4"/>
			</blobs>
		</layer>
		<layer id="177" name="44764480_const" precision="FP32" type="Const">
			<output>
				<port id="1"/>
			</output>
			<blobs>
				<custom offset="7208" size="4"/>
			</blobs>
		</layer>
		<layer id="178" name="44774481_const" precision="FP32" type="Const">
			<output>
				<port id="1"/>
			</output>
			<blobs>
				<custom offset="333872" size="4"/>
			</blobs>
		</layer>
		<layer id="179" name="84/fq_input_0" precision="FP32" type="FakeQuantize">
			<data levels="256.0"/>
			<input>
				<port id="0">
					<dim>1</dim>
					<dim>128</dim>
					<dim>27</dim>
					<dim>27</dim>
				</port>
				<port id="1"/>
				<port id="2"/>
				<port id="3"/>
				<port id="4"/>
			</input>
			<output>
				<port id="5">
					<dim>1</dim>
					<dim>128</dim>
					<dim>27</dim>
					<dim>27</dim>
				</port>
			</output>
		</layer>
		<layer id="180" name="features.7.expand3x3.weight/Output_0/Data__const" precision="FP32" type="Const">
			<output>
				<port id="1">
					<dim>128</dim>
					<dim>32</dim>
					<dim>3</dim>
					<dim>3</dim>
				</port>
			</output>
			<blobs>
				<custom offset="333876" size="147456"/>
			</blobs>
		</layer>
		<layer id="181" name="38533857_const" precision="FP32" type="Const">
			<output>
				<port id="1"/>
			</output>
			<blobs>
				<custom offset="481332" size="4"/>
			</blobs>
		</layer>
		<layer id="182" name="38543858_const" precision="FP32" type="Const">
			<output>
				<port id="1"/>
			</output>
			<blobs>
				<custom offset="481336" size="4"/>
			</blobs>
		</layer>
		<layer id="183" name="38553859_const" precision="FP32" type="Const">
			<output>
				<port id="1"/>
			</output>
			<blobs>
				<custom offset="481332" size="4"/>
			</blobs>
		</layer>
		<layer id="184" name="38563860_const" precision="FP32" type="Const">
			<output>
				<port id="1"/>
			</output>
			<blobs>
				<custom offset="481336" size="4"/>
			</blobs>
		</layer>
		<layer id="185" name="82/fq_weights_1" precision="FP32" type="FakeQuantize">
			<data levels="255.0"/>
			<input>
				<port id="0">
					<dim>128</dim>
					<dim>32</dim>
					<dim>3</dim>
					<dim>3</dim>
				</port>
				<port id="1"/>
				<port id="2"/>
				<port id="3"/>
				<port id="4"/>
			</input>
			<output>
				<port id="5">
					<dim>128</dim>
					<dim>32</dim>
					<dim>3</dim>
					<dim>3</dim>
				</port>
			</output>
		</layer>
		<layer id="186" name="features.7.expand3x3.bias/Output_0/Data__const" precision="FP32" type="Const">
			<output>
				<port id="1">
					<dim>128</dim>
				</port>
			</output>
			<blobs>
				<custom offset="481340" size="512"/>
			</blobs>
		</layer>
		<layer id="187" name="82" precision="FP32" type="Convolution">
			<data dilations="1,1" group="1" kernel="3,3" output="128" pads_begin="1,1" pads_end="1,1" strides="1,1"/>
			<input>
				<port id="0">
					<dim>1</dim>
					<dim>32</dim>
					<dim>27</dim>
					<dim>27</dim>
				</port>
				<port id="1">
					<dim>128</dim>
					<dim>32</dim>
					<dim>3</dim>
					<dim>3</dim>
				</port>
				<port id="2">
					<dim>128</dim>
				</port>
			</input>
			<output>
				<port id="3">
					<dim>1</dim>
					<dim>128</dim>
					<dim>27</dim>
					<dim>27</dim>
				</port>
			</output>
		</layer>
		<layer id="188" name="83" precision="FP32" type="ReLU">
			<input>
				<port id="0">
					<dim>1</dim>
					<dim>128</dim>
					<dim>27</dim>
					<dim>27</dim>
				</port>
			</input>
			<output>
				<port id="1">
					<dim>1</dim>
					<dim>128</dim>
					<dim>27</dim>
					<dim>27</dim>
				</port>
			</output>
		</layer>
		<layer id="189" name="44844488_const" precision="FP32" type="Const">
			<output>
				<port id="1"/>
			</output>
			<blobs>
				<custom offset="7208" size="4"/>
			</blobs>
		</layer>
		<layer id="190" name="44854489_const" precision="FP32" type="Const">
			<output>
				<port id="1"/>
			</output>
			<blobs>
				<custom offset="481852" size="4"/>
			</blobs>
		</layer>
		<layer id="191" name="44864490_const" precision="FP32" type="Const">
			<output>
				<port id="1"/>
			</output>
			<blobs>
				<custom offset="7208" size="4"/>
			</blobs>
		</layer>
		<layer id="192" name="44874491_const" precision="FP32" type="Const">
			<output>
				<port id="1"/>
			</output>
			<blobs>
				<custom offset="481852" size="4"/>
			</blobs>
		</layer>
		<layer id="193" name="84/fq_input_1" precision="FP32" type="FakeQuantize">
			<data levels="256.0"/>
			<input>
				<port id="0">
					<dim>1</dim>
					<dim>128</dim>
					<dim>27</dim>
					<dim>27</dim>
				</port>
				<port id="1"/>
				<port id="2"/>
				<port id="3"/>
				<port id="4"/>
			</input>
			<output>
				<port id="5">
					<dim>1</dim>
					<dim>128</dim>
					<dim>27</dim>
					<dim>27</dim>
				</port>
			</output>
		</layer>
		<layer id="194" name="84" precision="FP32" type="Concat">
			<data axis="1"/>
			<input>
				<port id="0">
					<dim>1</dim>
					<dim>128</dim>
					<dim>27</dim>
					<dim>27</dim>
				</port>
				<port id="1">
					<dim>1</dim>
					<dim>128</dim>
					<dim>27</dim>
					<dim>27</dim>
				</port>
			</input>
			<output>
				<port id="2">
					<dim>1</dim>
					<dim>256</dim>
					<dim>27</dim>
					<dim>27</dim>
				</port>
			</output>
		</layer>
		<layer id="195" name="85" precision="FP32" type="Pooling">
			<data exclude-pad="true" kernel="3,3" pads_begin="0,0" pads_end="0,0" pool-method="max" rounding_type="floor" strides="2,2"/>
			<input>
				<port id="0">
					<dim>1</dim>
					<dim>256</dim>
					<dim>27</dim>
					<dim>27</dim>
				</port>
			</input>
			<output>
				<port id="1">
					<dim>1</dim>
					<dim>256</dim>
					<dim>13</dim>
					<dim>13</dim>
				</port>
			</output>
		</layer>
		<layer id="196" name="features.9.squeeze.weight/Output_0/Data__const" precision="FP32" type="Const">
			<output>
				<port id="1">
					<dim>48</dim>
					<dim>256</dim>
					<dim>1</dim>
					<dim>1</dim>
				</port>
			</output>
			<blobs>
				<custom offset="481856" size="49152"/>
			</blobs>
		</layer>
		<layer id="197" name="37933797_const" precision="FP32" type="Const">
			<output>
				<port id="1"/>
			</output>
			<blobs>
				<custom offset="531008" size="4"/>
			</blobs>
		</layer>
		<layer id="198" name="37943798_const" precision="FP32" type="Const">
			<output>
				<port id="1"/>
			</output>
			<blobs>
				<custom offset="531012" size="4"/>
			</blobs>
		</layer>
		<layer id="199" name="37953799_const" precision="FP32" type="Const">
			<output>
				<port id="1"/>
			</output>
			<blobs>
				<custom offset="531008" size="4"/>
			</blobs>
		</layer>
		<layer id="200" name="37963800_const" precision="FP32" type="Const">
			<output>
				<port id="1"/>
			</output>
			<blobs>
				<custom offset="531012" size="4"/>
			</blobs>
		</layer>
		<layer id="201" name="86/fq_weights_1" precision="FP32" type="FakeQuantize">
			<data levels="255.0"/>
			<input>
				<port id="0">
					<dim>48</dim>
					<dim>256</dim>
					<dim>1</dim>
					<dim>1</dim>
				</port>
				<port id="1"/>
				<port id="2"/>
				<port id="3"/>
				<port id="4"/>
			</input>
			<output>
				<port id="5">
					<dim>48</dim>
					<dim>256</dim>
					<dim>1</dim>
					<dim>1</dim>
				</port>
			</output>
		</layer>
		<layer id="202" name="features.9.squeeze.bias/Output_0/Data__const" precision="FP32" type="Const">
			<output>
				<port id="1">
					<dim>48</dim>
				</port>
			</output>
			<blobs>
				<custom offset="531016" size="192"/>
			</blobs>
		</layer>
		<layer id="203" name="86" precision="FP32" type="Convolution">
			<data dilations="1,1" group="1" kernel="1,1" output="48" pads_begin="0,0" pads_end="0,0" strides="1,1"/>
			<input>
				<port id="0">
					<dim>1</dim>
					<dim>256</dim>
					<dim>13</dim>
					<dim>13</dim>
				</port>
				<port id="1">
					<dim>48</dim>
					<dim>256</dim>
					<dim>1</dim>
					<dim>1</dim>
				</port>
				<port id="2">
					<dim>48</dim>
				</port>
			</input>
			<output>
				<port id="3">
					<dim>1</dim>
					<dim>48</dim>
					<dim>13</dim>
					<dim>13</dim>
				</port>
			</output>
		</layer>
		<layer id="204" name="87" precision="FP32" type="ReLU">
			<input>
				<port id="0">
					<dim>1</dim>
					<dim>48</dim>
					<dim>13</dim>
					<dim>13</dim>
				</port>
			</input>
			<output>
				<port id="1">
					<dim>1</dim>
					<dim>48</dim>
					<dim>13</dim>
					<dim>13</dim>
				</port>
			</output>
		</layer>
		<layer id="205" name="38033807_const" precision="FP32" type="Const">
			<output>
				<port id="1"/>
			</output>
			<blobs>
				<custom offset="7208" size="4"/>
			</blobs>
		</layer>
		<layer id="206" name="38043808_const" precision="FP32" type="Const">
			<output>
				<port id="1"/>
			</output>
			<blobs>
				<custom offset="531208" size="4"/>
			</blobs>
		</layer>
		<layer id="207" name="38053809_const" precision="FP32" type="Const">
			<output>
				<port id="1"/>
			</output>
			<blobs>
				<custom offset="7208" size="4"/>
			</blobs>
		</layer>
		<layer id="208" name="38063810_const" precision="FP32" type="Const">
			<output>
				<port id="1"/>
			</output>
			<blobs>
				<custom offset="531208" size="4"/>
			</blobs>
		</layer>
		<layer id="209" name="88/fq_input_0" precision="FP32" type="FakeQuantize">
			<data levels="256.0"/>
			<input>
				<port id="0">
					<dim>1</dim>
					<dim>48</dim>
					<dim>13</dim>
					<dim>13</dim>
				</port>
				<port id="1"/>
				<port id="2"/>
				<port id="3"/>
				<port id="4"/>
			</input>
			<output>
				<port id="5">
					<dim>1</dim>
					<dim>48</dim>
					<dim>13</dim>
					<dim>13</dim>
				</port>
			</output>
		</layer>
		<layer id="210" name="features.9.expand1x1.weight/Output_0/Data__const" precision="FP32" type="Const">
			<output>
				<port id="1">
					<dim>192</dim>
					<dim>48</dim>
					<dim>1</dim>
					<dim>1</dim>
				</port>
			</output>
			<blobs>
				<custom offset="531212" size="36864"/>
			</blobs>
		</layer>
		<layer id="211" name="38133817_const" precision="FP32" type="Const">
			<output>
				<port id="1"/>
			</output>
			<blobs>
				<custom offset="568076" size="4"/>
			</blobs>
		</layer>
		<layer id="212" name="38143818_const" precision="FP32" type="Const">
			<output>
				<port id="1"/>
			</output>
			<blobs>
				<custom offset="568080" size="4"/>
			</blobs>
		</layer>
		<layer id="213" name="38153819_const" precision="FP32" type="Const">
			<output>
				<port id="1"/>
			</output>
			<blobs>
				<custom offset="568076" size="4"/>
			</blobs>
		</layer>
		<layer id="214" name="38163820_const" precision="FP32" type="Const">
			<output>
				<port id="1"/>
			</output>
			<blobs>
				<custom offset="568080" size="4"/>
			</blobs>
		</layer>
		<layer id="215" name="88/fq_weights_1" precision="FP32" type="FakeQuantize">
			<data levels="255.0"/>
			<input>
				<port id="0">
					<dim>192</dim>
					<dim>48</dim>
					<dim>1</dim>
					<dim>1</dim>
				</port>
				<port id="1"/>
				<port id="2"/>
				<port id="3"/>
				<port id="4"/>
			</input>
			<output>
				<port id="5">
					<dim>192</dim>
					<dim>48</dim>
					<dim>1</dim>
					<dim>1</dim>
				</port>
			</output>
		</layer>
		<layer id="216" name="features.9.expand1x1.bias/Output_0/Data__const" precision="FP32" type="Const">
			<output>
				<port id="1">
					<dim>192</dim>
				</port>
			</output>
			<blobs>
				<custom offset="568084" size="768"/>
			</blobs>
		</layer>
		<layer id="217" name="88" precision="FP32" type="Convolution">
			<data dilations="1,1" group="1" kernel="1,1" output="192" pads_begin="0,0" pads_end="0,0" strides="1,1"/>
			<input>
				<port id="0">
					<dim>1</dim>
					<dim>48</dim>
					<dim>13</dim>
					<dim>13</dim>
				</port>
				<port id="1">
					<dim>192</dim>
					<dim>48</dim>
					<dim>1</dim>
					<dim>1</dim>
				</port>
				<port id="2">
					<dim>192</dim>
				</port>
			</input>
			<output>
				<port id="3">
					<dim>1</dim>
					<dim>192</dim>
					<dim>13</dim>
					<dim>13</dim>
				</port>
			</output>
		</layer>
		<layer id="218" name="89" precision="FP32" type="ReLU">
			<input>
				<port id="0">
					<dim>1</dim>
					<dim>192</dim>
					<dim>13</dim>
					<dim>13</dim>
				</port>
			</input>
			<output>
				<port id="1">
					<dim>1</dim>
					<dim>192</dim>
					<dim>13</dim>
					<dim>13</dim>
				</port>
			</output>
		</layer>
		<layer id="219" name="44944498_const" precision="FP32" type="Const">
			<output>
				<port id="1"/>
			</output>
			<blobs>
				<custom offset="7208" size="4"/>
			</blobs>
		</layer>
		<layer id="220" name="44954499_const" precision="FP32" type="Const">
			<output>
				<port id="1"/>
			</output>
			<blobs>
				<custom offset="568852" size="4"/>
			</blobs>
		</layer>
		<layer id="221" name="44964500_const" precision="FP32" type="Const">
			<output>
				<port id="1"/>
			</output>
			<blobs>
				<custom offset="7208" size="4"/>
			</blobs>
		</layer>
		<layer id="222" name="44974501_const" precision="FP32" type="Const">
			<output>
				<port id="1"/>
			</output>
			<blobs>
				<custom offset="568852" size="4"/>
			</blobs>
		</layer>
		<layer id="223" name="92/fq_input_0" precision="FP32" type="FakeQuantize">
			<data levels="256.0"/>
			<input>
				<port id="0">
					<dim>1</dim>
					<dim>192</dim>
					<dim>13</dim>
					<dim>13</dim>
				</port>
				<port id="1"/>
				<port id="2"/>
				<port id="3"/>
				<port id="4"/>
			</input>
			<output>
				<port id="5">
					<dim>1</dim>
					<dim>192</dim>
					<dim>13</dim>
					<dim>13</dim>
				</port>
			</output>
		</layer>
		<layer id="224" name="features.9.expand3x3.weight/Output_0/Data__const" precision="FP32" type="Const">
			<output>
				<port id="1">
					<dim>192</dim>
					<dim>48</dim>
					<dim>3</dim>
					<dim>3</dim>
				</port>
			</output>
			<blobs>
				<custom offset="568856" size="331776"/>
			</blobs>
		</layer>
		<layer id="225" name="36533657_const" precision="FP32" type="Const">
			<output>
				<port id="1"/>
			</output>
			<blobs>
				<custom offset="900632" size="4"/>
			</blobs>
		</layer>
		<layer id="226" name="36543658_const" precision="FP32" type="Const">
			<output>
				<port id="1"/>
			</output>
			<blobs>
				<custom offset="900636" size="4"/>
			</blobs>
		</layer>
		<layer id="227" name="36553659_const" precision="FP32" type="Const">
			<output>
				<port id="1"/>
			</output>
			<blobs>
				<custom offset="900632" size="4"/>
			</blobs>
		</layer>
		<layer id="228" name="36563660_const" precision="FP32" type="Const">
			<output>
				<port id="1"/>
			</output>
			<blobs>
				<custom offset="900636" size="4"/>
			</blobs>
		</layer>
		<layer id="229" name="90/fq_weights_1" precision="FP32" type="FakeQuantize">
			<data levels="255.0"/>
			<input>
				<port id="0">
					<dim>192</dim>
					<dim>48</dim>
					<dim>3</dim>
					<dim>3</dim>
				</port>
				<port id="1"/>
				<port id="2"/>
				<port id="3"/>
				<port id="4"/>
			</input>
			<output>
				<port id="5">
					<dim>192</dim>
					<dim>48</dim>
					<dim>3</dim>
					<dim>3</dim>
				</port>
			</output>
		</layer>
		<layer id="230" name="features.9.expand3x3.bias/Output_0/Data__const" precision="FP32" type="Const">
			<output>
				<port id="1">
					<dim>192</dim>
				</port>
			</output>
			<blobs>
				<custom offset="900640" size="768"/>
			</blobs>
		</layer>
		<layer id="231" name="90" precision="FP32" type="Convolution">
			<data dilations="1,1" group="1" kernel="3,3" output="192" pads_begin="1,1" pads_end="1,1" strides="1,1"/>
			<input>
				<port id="0">
					<dim>1</dim>
					<dim>48</dim>
					<dim>13</dim>
					<dim>13</dim>
				</port>
				<port id="1">
					<dim>192</dim>
					<dim>48</dim>
					<dim>3</dim>
					<dim>3</dim>
				</port>
				<port id="2">
					<dim>192</dim>
				</port>
			</input>
			<output>
				<port id="3">
					<dim>1</dim>
					<dim>192</dim>
					<dim>13</dim>
					<dim>13</dim>
				</port>
			</output>
		</layer>
		<layer id="232" name="91" precision="FP32" type="ReLU">
			<input>
				<port id="0">
					<dim>1</dim>
					<dim>192</dim>
					<dim>13</dim>
					<dim>13</dim>
				</port>
			</input>
			<output>
				<port id="1">
					<dim>1</dim>
					<dim>192</dim>
					<dim>13</dim>
					<dim>13</dim>
				</port>
			</output>
		</layer>
		<layer id="233" name="45044508_const" precision="FP32" type="Const">
			<output>
				<port id="1"/>
			</output>
			<blobs>
				<custom offset="7208" size="4"/>
			</blobs>
		</layer>
		<layer id="234" name="45054509_const" precision="FP32" type="Const">
			<output>
				<port id="1"/>
			</output>
			<blobs>
				<custom offset="901408" size="4"/>
			</blobs>
		</layer>
		<layer id="235" name="45064510_const" precision="FP32" type="Const">
			<output>
				<port id="1"/>
			</output>
			<blobs>
				<custom offset="7208" size="4"/>
			</blobs>
		</layer>
		<layer id="236" name="45074511_const" precision="FP32" type="Const">
			<output>
				<port id="1"/>
			</output>
			<blobs>
				<custom offset="901408" size="4"/>
			</blobs>
		</layer>
		<layer id="237" name="92/fq_input_1" precision="FP32" type="FakeQuantize">
			<data levels="256.0"/>
			<input>
				<port id="0">
					<dim>1</dim>
					<dim>192</dim>
					<dim>13</dim>
					<dim>13</dim>
				</port>
				<port id="1"/>
				<port id="2"/>
				<port id="3"/>
				<port id="4"/>
			</input>
			<output>
				<port id="5">
					<dim>1</dim>
					<dim>192</dim>
					<dim>13</dim>
					<dim>13</dim>
				</port>
			</output>
		</layer>
		<layer id="238" name="92" precision="FP32" type="Concat">
			<data axis="1"/>
			<input>
				<port id="0">
					<dim>1</dim>
					<dim>192</dim>
					<dim>13</dim>
					<dim>13</dim>
				</port>
				<port id="1">
					<dim>1</dim>
					<dim>192</dim>
					<dim>13</dim>
					<dim>13</dim>
				</port>
			</input>
			<output>
				<port id="2">
					<dim>1</dim>
					<dim>384</dim>
					<dim>13</dim>
					<dim>13</dim>
				</port>
			</output>
		</layer>
		<layer id="239" name="features.10.squeeze.weight/Output_0/Data__const" precision="FP32" type="Const">
			<output>
				<port id="1">
					<dim>48</dim>
					<dim>384</dim>
					<dim>1</dim>
					<dim>1</dim>
				</port>
			</output>
			<blobs>
				<custom offset="901412" size="73728"/>
			</blobs>
		</layer>
		<layer id="240" name="37133717_const" precision="FP32" type="Const">
			<output>
				<port id="1"/>
			</output>
			<blobs>
				<custom offset="975140" size="4"/>
			</blobs>
		</layer>
		<layer id="241" name="37143718_const" precision="FP32" type="Const">
			<output>
				<port id="1"/>
			</output>
			<blobs>
				<custom offset="975144" size="4"/>
			</blobs>
		</layer>
		<layer id="242" name="37153719_const" precision="FP32" type="Const">
			<output>
				<port id="1"/>
			</output>
			<blobs>
				<custom offset="975140" size="4"/>
			</blobs>
		</layer>
		<layer id="243" name="37163720_const" precision="FP32" type="Const">
			<output>
				<port id="1"/>
			</output>
			<blobs>
				<custom offset="975144" size="4"/>
			</blobs>
		</layer>
		<layer id="244" name="93/fq_weights_1" precision="FP32" type="FakeQuantize">
			<data levels="255.0"/>
			<input>
				<port id="0">
					<dim>48</dim>
					<dim>384</dim>
					<dim>1</dim>
					<dim>1</dim>
				</port>
				<port id="1"/>
				<port id="2"/>
				<port id="3"/>
				<port id="4"/>
			</input>
			<output>
				<port id="5">
					<dim>48</dim>
					<dim>384</dim>
					<dim>1</dim>
					<dim>1</dim>
				</port>
			</output>
		</layer>
		<layer id="245" name="features.10.squeeze.bias/Output_0/Data__const" precision="FP32" type="Const">
			<output>
				<port id="1">
					<dim>48</dim>
				</port>
			</output>
			<blobs>
				<custom offset="975148" size="192"/>
			</blobs>
		</layer>
		<layer id="246" name="93" precision="FP32" type="Convolution">
			<data dilations="1,1" group="1" kernel="1,1" output="48" pads_begin="0,0" pads_end="0,0" strides="1,1"/>
			<input>
				<port id="0">
					<dim>1</dim>
					<dim>384</dim>
					<dim>13</dim>
					<dim>13</dim>
				</port>
				<port id="1">
					<dim>48</dim>
					<dim>384</dim>
					<dim>1</dim>
					<dim>1</dim>
				</port>
				<port id="2">
					<dim>48</dim>
				</port>
			</input>
			<output>
				<port id="3">
					<dim>1</dim>
					<dim>48</dim>
					<dim>13</dim>
					<dim>13</dim>
				</port>
			</output>
		</layer>
		<layer id="247" name="94" precision="FP32" type="ReLU">
			<input>
				<port id="0">
					<dim>1</dim>
					<dim>48</dim>
					<dim>13</dim>
					<dim>13</dim>
				</port>
			</input>
			<output>
				<port id="1">
					<dim>1</dim>
					<dim>48</dim>
					<dim>13</dim>
					<dim>13</dim>
				</port>
			</output>
		</layer>
		<layer id="248" name="39133917_const" precision="FP32" type="Const">
			<output>
				<port id="1"/>
			</output>
			<blobs>
				<custom offset="7208" size="4"/>
			</blobs>
		</layer>
		<layer id="249" name="39143918_const" precision="FP32" type="Const">
			<output>
				<port id="1"/>
			</output>
			<blobs>
				<custom offset="975340" size="4"/>
			</blobs>
		</layer>
		<layer id="250" name="39153919_const" precision="FP32" type="Const">
			<output>
				<port id="1"/>
			</output>
			<blobs>
				<custom offset="7208" size="4"/>
			</blobs>
		</layer>
		<layer id="251" name="39163920_const" precision="FP32" type="Const">
			<output>
				<port id="1"/>
			</output>
			<blobs>
				<custom offset="975340" size="4"/>
			</blobs>
		</layer>
		<layer id="252" name="97/fq_input_0" precision="FP32" type="FakeQuantize">
			<data levels="256.0"/>
			<input>
				<port id="0">
					<dim>1</dim>
					<dim>48</dim>
					<dim>13</dim>
					<dim>13</dim>
				</port>
				<port id="1"/>
				<port id="2"/>
				<port id="3"/>
				<port id="4"/>
			</input>
			<output>
				<port id="5">
					<dim>1</dim>
					<dim>48</dim>
					<dim>13</dim>
					<dim>13</dim>
				</port>
			</output>
		</layer>
		<layer id="253" name="features.10.expand1x1.weight/Output_0/Data__const" precision="FP32" type="Const">
			<output>
				<port id="1">
					<dim>192</dim>
					<dim>48</dim>
					<dim>1</dim>
					<dim>1</dim>
				</port>
			</output>
			<blobs>
				<custom offset="975344" size="36864"/>
			</blobs>
		</layer>
		<layer id="254" name="37333737_const" precision="FP32" type="Const">
			<output>
				<port id="1"/>
			</output>
			<blobs>
				<custom offset="1012208" size="4"/>
			</blobs>
		</layer>
		<layer id="255" name="37343738_const" precision="FP32" type="Const">
			<output>
				<port id="1"/>
			</output>
			<blobs>
				<custom offset="1012212" size="4"/>
			</blobs>
		</layer>
		<layer id="256" name="37353739_const" precision="FP32" type="Const">
			<output>
				<port id="1"/>
			</output>
			<blobs>
				<custom offset="1012208" size="4"/>
			</blobs>
		</layer>
		<layer id="257" name="37363740_const" precision="FP32" type="Const">
			<output>
				<port id="1"/>
			</output>
			<blobs>
				<custom offset="1012212" size="4"/>
			</blobs>
		</layer>
		<layer id="258" name="95/fq_weights_1" precision="FP32" type="FakeQuantize">
			<data levels="255.0"/>
			<input>
				<port id="0">
					<dim>192</dim>
					<dim>48</dim>
					<dim>1</dim>
					<dim>1</dim>
				</port>
				<port id="1"/>
				<port id="2"/>
				<port id="3"/>
				<port id="4"/>
			</input>
			<output>
				<port id="5">
					<dim>192</dim>
					<dim>48</dim>
					<dim>1</dim>
					<dim>1</dim>
				</port>
			</output>
		</layer>
		<layer id="259" name="features.10.expand1x1.bias/Output_0/Data__const" precision="FP32" type="Const">
			<output>
				<port id="1">
					<dim>192</dim>
				</port>
			</output>
			<blobs>
				<custom offset="1012216" size="768"/>
			</blobs>
		</layer>
		<layer id="260" name="95" precision="FP32" type="Convolution">
			<data dilations="1,1" group="1" kernel="1,1" output="192" pads_begin="0,0" pads_end="0,0" strides="1,1"/>
			<input>
				<port id="0">
					<dim>1</dim>
					<dim>48</dim>
					<dim>13</dim>
					<dim>13</dim>
				</port>
				<port id="1">
					<dim>192</dim>
					<dim>48</dim>
					<dim>1</dim>
					<dim>1</dim>
				</port>
				<port id="2">
					<dim>192</dim>
				</port>
			</input>
			<output>
				<port id="3">
					<dim>1</dim>
					<dim>192</dim>
					<dim>13</dim>
					<dim>13</dim>
				</port>
			</output>
		</layer>
		<layer id="261" name="96" precision="FP32" type="ReLU">
			<input>
				<port id="0">
					<dim>1</dim>
					<dim>192</dim>
					<dim>13</dim>
					<dim>13</dim>
				</port>
			</input>
			<output>
				<port id="1">
					<dim>1</dim>
					<dim>192</dim>
					<dim>13</dim>
					<dim>13</dim>
				</port>
			</output>
		</layer>
		<layer id="262" name="44244428_const" precision="FP32" type="Const">
			<output>
				<port id="1"/>
			</output>
			<blobs>
				<custom offset="7208" size="4"/>
			</blobs>
		</layer>
		<layer id="263" name="44254429_const" precision="FP32" type="Const">
			<output>
				<port id="1"/>
			</output>
			<blobs>
				<custom offset="1012984" size="4"/>
			</blobs>
		</layer>
		<layer id="264" name="44264430_const" precision="FP32" type="Const">
			<output>
				<port id="1"/>
			</output>
			<blobs>
				<custom offset="7208" size="4"/>
			</blobs>
		</layer>
		<layer id="265" name="44274431_const" precision="FP32" type="Const">
			<output>
				<port id="1"/>
			</output>
			<blobs>
				<custom offset="1012984" size="4"/>
			</blobs>
		</layer>
		<layer id="266" name="99/fq_input_0" precision="FP32" type="FakeQuantize">
			<data levels="256.0"/>
			<input>
				<port id="0">
					<dim>1</dim>
					<dim>192</dim>
					<dim>13</dim>
					<dim>13</dim>
				</port>
				<port id="1"/>
				<port id="2"/>
				<port id="3"/>
				<port id="4"/>
			</input>
			<output>
				<port id="5">
					<dim>1</dim>
					<dim>192</dim>
					<dim>13</dim>
					<dim>13</dim>
				</port>
			</output>
		</layer>
		<layer id="267" name="features.10.expand3x3.weight/Output_0/Data__const" precision="FP32" type="Const">
			<output>
				<port id="1">
					<dim>192</dim>
					<dim>48</dim>
					<dim>3</dim>
					<dim>3</dim>
				</port>
			</output>
			<blobs>
				<custom offset="1012988" size="331776"/>
			</blobs>
		</layer>
		<layer id="268" name="39233927_const" precision="FP32" type="Const">
			<output>
				<port id="1"/>
			</output>
			<blobs>
				<custom offset="1344764" size="4"/>
			</blobs>
		</layer>
		<layer id="269" name="39243928_const" precision="FP32" type="Const">
			<output>
				<port id="1"/>
			</output>
			<blobs>
				<custom offset="1344768" size="4"/>
			</blobs>
		</layer>
		<layer id="270" name="39253929_const" precision="FP32" type="Const">
			<output>
				<port id="1"/>
			</output>
			<blobs>
				<custom offset="1344764" size="4"/>
			</blobs>
		</layer>
		<layer id="271" name="39263930_const" precision="FP32" type="Const">
			<output>
				<port id="1"/>
			</output>
			<blobs>
				<custom offset="1344768" size="4"/>
			</blobs>
		</layer>
		<layer id="272" name="97/fq_weights_1" precision="FP32" type="FakeQuantize">
			<data levels="255.0"/>
			<input>
				<port id="0">
					<dim>192</dim>
					<dim>48</dim>
					<dim>3</dim>
					<dim>3</dim>
				</port>
				<port id="1"/>
				<port id="2"/>
				<port id="3"/>
				<port id="4"/>
			</input>
			<output>
				<port id="5">
					<dim>192</dim>
					<dim>48</dim>
					<dim>3</dim>
					<dim>3</dim>
				</port>
			</output>
		</layer>
		<layer id="273" name="features.10.expand3x3.bias/Output_0/Data__const" precision="FP32" type="Const">
			<output>
				<port id="1">
					<dim>192</dim>
				</port>
			</output>
			<blobs>
				<custom offset="1344772" size="768"/>
			</blobs>
		</layer>
		<layer id="274" name="97" precision="FP32" type="Convolution">
			<data dilations="1,1" group="1" kernel="3,3" output="192" pads_begin="1,1" pads_end="1,1" strides="1,1"/>
			<input>
				<port id="0">
					<dim>1</dim>
					<dim>48</dim>
					<dim>13</dim>
					<dim>13</dim>
				</port>
				<port id="1">
					<dim>192</dim>
					<dim>48</dim>
					<dim>3</dim>
					<dim>3</dim>
				</port>
				<port id="2">
					<dim>192</dim>
				</port>
			</input>
			<output>
				<port id="3">
					<dim>1</dim>
					<dim>192</dim>
					<dim>13</dim>
					<dim>13</dim>
				</port>
			</output>
		</layer>
		<layer id="275" name="98" precision="FP32" type="ReLU">
			<input>
				<port id="0">
					<dim>1</dim>
					<dim>192</dim>
					<dim>13</dim>
					<dim>13</dim>
				</port>
			</input>
			<output>
				<port id="1">
					<dim>1</dim>
					<dim>192</dim>
					<dim>13</dim>
					<dim>13</dim>
				</port>
			</output>
		</layer>
		<layer id="276" name="44344438_const" precision="FP32" type="Const">
			<output>
				<port id="1"/>
			</output>
			<blobs>
				<custom offset="7208" size="4"/>
			</blobs>
		</layer>
		<layer id="277" name="44354439_const" precision="FP32" type="Const">
			<output>
				<port id="1"/>
			</output>
			<blobs>
				<custom offset="1345540" size="4"/>
			</blobs>
		</layer>
		<layer id="278" name="44364440_const" precision="FP32" type="Const">
			<output>
				<port id="1"/>
			</output>
			<blobs>
				<custom offset="7208" size="4"/>
			</blobs>
		</layer>
		<layer id="279" name="44374441_const" precision="FP32" type="Const">
			<output>
				<port id="1"/>
			</output>
			<blobs>
				<custom offset="1345540" size="4"/>
			</blobs>
		</layer>
		<layer id="280" name="99/fq_input_1" precision="FP32" type="FakeQuantize">
			<data levels="256.0"/>
			<input>
				<port id="0">
					<dim>1</dim>
					<dim>192</dim>
					<dim>13</dim>
					<dim>13</dim>
				</port>
				<port id="1"/>
				<port id="2"/>
				<port id="3"/>
				<port id="4"/>
			</input>
			<output>
				<port id="5">
					<dim>1</dim>
					<dim>192</dim>
					<dim>13</dim>
					<dim>13</dim>
				</port>
			</output>
		</layer>
		<layer id="281" name="99" precision="FP32" type="Concat">
			<data axis="1"/>
			<input>
				<port id="0">
					<dim>1</dim>
					<dim>192</dim>
					<dim>13</dim>
					<dim>13</dim>
				</port>
				<port id="1">
					<dim>1</dim>
					<dim>192</dim>
					<dim>13</dim>
					<dim>13</dim>
				</port>
			</input>
			<output>
				<port id="2">
					<dim>1</dim>
					<dim>384</dim>
					<dim>13</dim>
					<dim>13</dim>
				</port>
			</output>
		</layer>
		<layer id="282" name="features.11.squeeze.weight/Output_0/Data__const" precision="FP32" type="Const">
			<output>
				<port id="1">
					<dim>64</dim>
					<dim>384</dim>
					<dim>1</dim>
					<dim>1</dim>
				</port>
			</output>
			<blobs>
				<custom offset="1345544" size="98304"/>
			</blobs>
		</layer>
		<layer id="283" name="35933597_const" precision="FP32" type="Const">
			<output>
				<port id="1"/>
			</output>
			<blobs>
				<custom offset="1443848" size="4"/>
			</blobs>
		</layer>
		<layer id="284" name="35943598_const" precision="FP32" type="Const">
			<output>
				<port id="1"/>
			</output>
			<blobs>
				<custom offset="1443852" size="4"/>
			</blobs>
		</layer>
		<layer id="285" name="35953599_const" precision="FP32" type="Const">
			<output>
				<port id="1"/>
			</output>
			<blobs>
				<custom offset="1443848" size="4"/>
			</blobs>
		</layer>
		<layer id="286" name="35963600_const" precision="FP32" type="Const">
			<output>
				<port id="1"/>
			</output>
			<blobs>
				<custom offset="1443852" size="4"/>
			</blobs>
		</layer>
		<layer id="287" name="100/fq_weights_1" precision="FP32" type="FakeQuantize">
			<data levels="255.0"/>
			<input>
				<port id="0">
					<dim>64</dim>
					<dim>384</dim>
					<dim>1</dim>
					<dim>1</dim>
				</port>
				<port id="1"/>
				<port id="2"/>
				<port id="3"/>
				<port id="4"/>
			</input>
			<output>
				<port id="5">
					<dim>64</dim>
					<dim>384</dim>
					<dim>1</dim>
					<dim>1</dim>
				</port>
			</output>
		</layer>
		<layer id="288" name="features.11.squeeze.bias/Output_0/Data__const" precision="FP32" type="Const">
			<output>
				<port id="1">
					<dim>64</dim>
				</port>
			</output>
			<blobs>
				<custom offset="1443856" size="256"/>
			</blobs>
		</layer>
		<layer id="289" name="100" precision="FP32" type="Convolution">
			<data dilations="1,1" group="1" kernel="1,1" output="64" pads_begin="0,0" pads_end="0,0" strides="1,1"/>
			<input>
				<port id="0">
					<dim>1</dim>
					<dim>384</dim>
					<dim>13</dim>
					<dim>13</dim>
				</port>
				<port id="1">
					<dim>64</dim>
					<dim>384</dim>
					<dim>1</dim>
					<dim>1</dim>
				</port>
				<port id="2">
					<dim>64</dim>
				</port>
			</input>
			<output>
				<port id="3">
					<dim>1</dim>
					<dim>64</dim>
					<dim>13</dim>
					<dim>13</dim>
				</port>
			</output>
		</layer>
		<layer id="290" name="101" precision="FP32" type="ReLU">
			<input>
				<port id="0">
					<dim>1</dim>
					<dim>64</dim>
					<dim>13</dim>
					<dim>13</dim>
				</port>
			</input>
			<output>
				<port id="1">
					<dim>1</dim>
					<dim>64</dim>
					<dim>13</dim>
					<dim>13</dim>
				</port>
			</output>
		</layer>
		<layer id="291" name="38733877_const" precision="FP32" type="Const">
			<output>
				<port id="1"/>
			</output>
			<blobs>
				<custom offset="7208" size="4"/>
			</blobs>
		</layer>
		<layer id="292" name="38743878_const" precision="FP32" type="Const">
			<output>
				<port id="1"/>
			</output>
			<blobs>
				<custom offset="1444112" size="4"/>
			</blobs>
		</layer>
		<layer id="293" name="38753879_const" precision="FP32" type="Const">
			<output>
				<port id="1"/>
			</output>
			<blobs>
				<custom offset="7208" size="4"/>
			</blobs>
		</layer>
		<layer id="294" name="38763880_const" precision="FP32" type="Const">
			<output>
				<port id="1"/>
			</output>
			<blobs>
				<custom offset="1444112" size="4"/>
			</blobs>
		</layer>
		<layer id="295" name="104/fq_input_0" precision="FP32" type="FakeQuantize">
			<data levels="256.0"/>
			<input>
				<port id="0">
					<dim>1</dim>
					<dim>64</dim>
					<dim>13</dim>
					<dim>13</dim>
				</port>
				<port id="1"/>
				<port id="2"/>
				<port id="3"/>
				<port id="4"/>
			</input>
			<output>
				<port id="5">
					<dim>1</dim>
					<dim>64</dim>
					<dim>13</dim>
					<dim>13</dim>
				</port>
			</output>
		</layer>
		<layer id="296" name="features.11.expand1x1.weight/Output_0/Data__const" precision="FP32" type="Const">
			<output>
				<port id="1">
					<dim>256</dim>
					<dim>64</dim>
					<dim>1</dim>
					<dim>1</dim>
				</port>
			</output>
			<blobs>
				<custom offset="1444116" size="65536"/>
			</blobs>
		</layer>
		<layer id="297" name="40434047_const" precision="FP32" type="Const">
			<output>
				<port id="1"/>
			</output>
			<blobs>
				<custom offset="1509652" size="4"/>
			</blobs>
		</layer>
		<layer id="298" name="40444048_const" precision="FP32" type="Const">
			<output>
				<port id="1"/>
			</output>
			<blobs>
				<custom offset="1509656" size="4"/>
			</blobs>
		</layer>
		<layer id="299" name="40454049_const" precision="FP32" type="Const">
			<output>
				<port id="1"/>
			</output>
			<blobs>
				<custom offset="1509652" size="4"/>
			</blobs>
		</layer>
		<layer id="300" name="40464050_const" precision="FP32" type="Const">
			<output>
				<port id="1"/>
			</output>
			<blobs>
				<custom offset="1509656" size="4"/>
			</blobs>
		</layer>
		<layer id="301" name="102/fq_weights_1" precision="FP32" type="FakeQuantize">
			<data levels="255.0"/>
			<input>
				<port id="0">
					<dim>256</dim>
					<dim>64</dim>
					<dim>1</dim>
					<dim>1</dim>
				</port>
				<port id="1"/>
				<port id="2"/>
				<port id="3"/>
				<port id="4"/>
			</input>
			<output>
				<port id="5">
					<dim>256</dim>
					<dim>64</dim>
					<dim>1</dim>
					<dim>1</dim>
				</port>
			</output>
		</layer>
		<layer id="302" name="features.11.expand1x1.bias/Output_0/Data__const" precision="FP32" type="Const">
			<output>
				<port id="1">
					<dim>256</dim>
				</port>
			</output>
			<blobs>
				<custom offset="1509660" size="1024"/>
			</blobs>
		</layer>
		<layer id="303" name="102" precision="FP32" type="Convolution">
			<data dilations="1,1" group="1" kernel="1,1" output="256" pads_begin="0,0" pads_end="0,0" strides="1,1"/>
			<input>
				<port id="0">
					<dim>1</dim>
					<dim>64</dim>
					<dim>13</dim>
					<dim>13</dim>
				</port>
				<port id="1">
					<dim>256</dim>
					<dim>64</dim>
					<dim>1</dim>
					<dim>1</dim>
				</port>
				<port id="2">
					<dim>256</dim>
				</port>
			</input>
			<output>
				<port id="3">
					<dim>1</dim>
					<dim>256</dim>
					<dim>13</dim>
					<dim>13</dim>
				</port>
			</output>
		</layer>
		<layer id="304" name="103" precision="FP32" type="ReLU">
			<input>
				<port id="0">
					<dim>1</dim>
					<dim>256</dim>
					<dim>13</dim>
					<dim>13</dim>
				</port>
			</input>
			<output>
				<port id="1">
					<dim>1</dim>
					<dim>256</dim>
					<dim>13</dim>
					<dim>13</dim>
				</port>
			</output>
		</layer>
		<layer id="305" name="44444448_const" precision="FP32" type="Const">
			<output>
				<port id="1"/>
			</output>
			<blobs>
				<custom offset="7208" size="4"/>
			</blobs>
		</layer>
		<layer id="306" name="44454449_const" precision="FP32" type="Const">
			<output>
				<port id="1"/>
			</output>
			<blobs>
				<custom offset="1510684" size="4"/>
			</blobs>
		</layer>
		<layer id="307" name="44464450_const" precision="FP32" type="Const">
			<output>
				<port id="1"/>
			</output>
			<blobs>
				<custom offset="7208" size="4"/>
			</blobs>
		</layer>
		<layer id="308" name="44474451_const" precision="FP32" type="Const">
			<output>
				<port id="1"/>
			</output>
			<blobs>
				<custom offset="1510684" size="4"/>
			</blobs>
		</layer>
		<layer id="309" name="106/fq_input_0" precision="FP32" type="FakeQuantize">
			<data levels="256.0"/>
			<input>
				<port id="0">
					<dim>1</dim>
					<dim>256</dim>
					<dim>13</dim>
					<dim>13</dim>
				</port>
				<port id="1"/>
				<port id="2"/>
				<port id="3"/>
				<port id="4"/>
			</input>
			<output>
				<port id="5">
					<dim>1</dim>
					<dim>256</dim>
					<dim>13</dim>
					<dim>13</dim>
				</port>
			</output>
		</layer>
		<layer id="310" name="features.11.expand3x3.weight/Output_0/Data__const" precision="FP32" type="Const">
			<output>
				<port id="1">
					<dim>256</dim>
					<dim>64</dim>
					<dim>3</dim>
					<dim>3</dim>
				</port>
			</output>
			<blobs>
				<custom offset="1510688" size="589824"/>
			</blobs>
		</layer>
		<layer id="311" name="38833887_const" precision="FP32" type="Const">
			<output>
				<port id="1"/>
			</output>
			<blobs>
				<custom offset="2100512" size="4"/>
			</blobs>
		</layer>
		<layer id="312" name="38843888_const" precision="FP32" type="Const">
			<output>
				<port id="1"/>
			</output>
			<blobs>
				<custom offset="2100516" size="4"/>
			</blobs>
		</layer>
		<layer id="313" name="38853889_const" precision="FP32" type="Const">
			<output>
				<port id="1"/>
			</output>
			<blobs>
				<custom offset="2100512" size="4"/>
			</blobs>
		</layer>
		<layer id="314" name="38863890_const" precision="FP32" type="Const">
			<output>
				<port id="1"/>
			</output>
			<blobs>
				<custom offset="2100516" size="4"/>
			</blobs>
		</layer>
		<layer id="315" name="104/fq_weights_1" precision="FP32" type="FakeQuantize">
			<data levels="255.0"/>
			<input>
				<port id="0">
					<dim>256</dim>
					<dim>64</dim>
					<dim>3</dim>
					<dim>3</dim>
				</port>
				<port id="1"/>
				<port id="2"/>
				<port id="3"/>
				<port id="4"/>
			</input>
			<output>
				<port id="5">
					<dim>256</dim>
					<dim>64</dim>
					<dim>3</dim>
					<dim>3</dim>
				</port>
			</output>
		</layer>
		<layer id="316" name="features.11.expand3x3.bias/Output_0/Data__const" precision="FP32" type="Const">
			<output>
				<port id="1">
					<dim>256</dim>
				</port>
			</output>
			<blobs>
				<custom offset="2100520" size="1024"/>
			</blobs>
		</layer>
		<layer id="317" name="104" precision="FP32" type="Convolution">
			<data dilations="1,1" group="1" kernel="3,3" output="256" pads_begin="1,1" pads_end="1,1" strides="1,1"/>
			<input>
				<port id="0">
					<dim>1</dim>
					<dim>64</dim>
					<dim>13</dim>
					<dim>13</dim>
				</port>
				<port id="1">
					<dim>256</dim>
					<dim>64</dim>
					<dim>3</dim>
					<dim>3</dim>
				</port>
				<port id="2">
					<dim>256</dim>
				</port>
			</input>
			<output>
				<port id="3">
					<dim>1</dim>
					<dim>256</dim>
					<dim>13</dim>
					<dim>13</dim>
				</port>
			</output>
		</layer>
		<layer id="318" name="105" precision="FP32" type="ReLU">
			<input>
				<port id="0">
					<dim>1</dim>
					<dim>256</dim>
					<dim>13</dim>
					<dim>13</dim>
				</port>
			</input>
			<output>
				<port id="1">
					<dim>1</dim>
					<dim>256</dim>
					<dim>13</dim>
					<dim>13</dim>
				</port>
			</output>
		</layer>
		<layer id="319" name="44544458_const" precision="FP32" type="Const">
			<output>
				<port id="1"/>
			</output>
			<blobs>
				<custom offset="7208" size="4"/>
			</blobs>
		</layer>
		<layer id="320" name="44554459_const" precision="FP32" type="Const">
			<output>
				<port id="1"/>
			</output>
			<blobs>
				<custom offset="2101544" size="4"/>
			</blobs>
		</layer>
		<layer id="321" name="44564460_const" precision="FP32" type="Const">
			<output>
				<port id="1"/>
			</output>
			<blobs>
				<custom offset="7208" size="4"/>
			</blobs>
		</layer>
		<layer id="322" name="44574461_const" precision="FP32" type="Const">
			<output>
				<port id="1"/>
			</output>
			<blobs>
				<custom offset="2101544" size="4"/>
			</blobs>
		</layer>
		<layer id="323" name="106/fq_input_1" precision="FP32" type="FakeQuantize">
			<data levels="256.0"/>
			<input>
				<port id="0">
					<dim>1</dim>
					<dim>256</dim>
					<dim>13</dim>
					<dim>13</dim>
				</port>
				<port id="1"/>
				<port id="2"/>
				<port id="3"/>
				<port id="4"/>
			</input>
			<output>
				<port id="5">
					<dim>1</dim>
					<dim>256</dim>
					<dim>13</dim>
					<dim>13</dim>
				</port>
			</output>
		</layer>
		<layer id="324" name="106" precision="FP32" type="Concat">
			<data axis="1"/>
			<input>
				<port id="0">
					<dim>1</dim>
					<dim>256</dim>
					<dim>13</dim>
					<dim>13</dim>
				</port>
				<port id="1">
					<dim>1</dim>
					<dim>256</dim>
					<dim>13</dim>
					<dim>13</dim>
				</port>
			</input>
			<output>
				<port id="2">
					<dim>1</dim>
					<dim>512</dim>
					<dim>13</dim>
					<dim>13</dim>
				</port>
			</output>
		</layer>
		<layer id="325" name="features.12.squeeze.weight/Output_0/Data__const" precision="FP32" type="Const">
			<output>
				<port id="1">
					<dim>64</dim>
					<dim>512</dim>
					<dim>1</dim>
					<dim>1</dim>
				</port>
			</output>
			<blobs>
				<custom offset="2101548" size="131072"/>
			</blobs>
		</layer>
		<layer id="326" name="36333637_const" precision="FP32" type="Const">
			<output>
				<port id="1"/>
			</output>
			<blobs>
				<custom offset="2232620" size="4"/>
			</blobs>
		</layer>
		<layer id="327" name="36343638_const" precision="FP32" type="Const">
			<output>
				<port id="1"/>
			</output>
			<blobs>
				<custom offset="2232624" size="4"/>
			</blobs>
		</layer>
		<layer id="328" name="36353639_const" precision="FP32" type="Const">
			<output>
				<port id="1"/>
			</output>
			<blobs>
				<custom offset="2232620" size="4"/>
			</blobs>
		</layer>
		<layer id="329" name="36363640_const" precision="FP32" type="Const">
			<output>
				<port id="1"/>
			</output>
			<blobs>
				<custom offset="2232624" size="4"/>
			</blobs>
		</layer>
		<layer id="330" name="107/fq_weights_1" precision="FP32" type="FakeQuantize">
			<data levels="255.0"/>
			<input>
				<port id="0">
					<dim>64</dim>
					<dim>512</dim>
					<dim>1</dim>
					<dim>1</dim>
				</port>
				<port id="1"/>
				<port id="2"/>
				<port id="3"/>
				<port id="4"/>
			</input>
			<output>
				<port id="5">
					<dim>64</dim>
					<dim>512</dim>
					<dim>1</dim>
					<dim>1</dim>
				</port>
			</output>
		</layer>
		<layer id="331" name="features.12.squeeze.bias/Output_0/Data__const" precision="FP32" type="Const">
			<output>
				<port id="1">
					<dim>64</dim>
				</port>
			</output>
			<blobs>
				<custom offset="2232628" size="256"/>
			</blobs>
		</layer>
		<layer id="332" name="107" precision="FP32" type="Convolution">
			<data dilations="1,1" group="1" kernel="1,1" output="64" pads_begin="0,0" pads_end="0,0" strides="1,1"/>
			<input>
				<port id="0">
					<dim>1</dim>
					<dim>512</dim>
					<dim>13</dim>
					<dim>13</dim>
				</port>
				<port id="1">
					<dim>64</dim>
					<dim>512</dim>
					<dim>1</dim>
					<dim>1</dim>
				</port>
				<port id="2">
					<dim>64</dim>
				</port>
			</input>
			<output>
				<port id="3">
					<dim>1</dim>
					<dim>64</dim>
					<dim>13</dim>
					<dim>13</dim>
				</port>
			</output>
		</layer>
		<layer id="333" name="108" precision="FP32" type="ReLU">
			<input>
				<port id="0">
					<dim>1</dim>
					<dim>64</dim>
					<dim>13</dim>
					<dim>13</dim>
				</port>
			</input>
			<output>
				<port id="1">
					<dim>1</dim>
					<dim>64</dim>
					<dim>13</dim>
					<dim>13</dim>
				</port>
			</output>
		</layer>
		<layer id="334" name="36833687_const" precision="FP32" type="Const">
			<output>
				<port id="1"/>
			</output>
			<blobs>
				<custom offset="7208" size="4"/>
			</blobs>
		</layer>
		<layer id="335" name="36843688_const" precision="FP32" type="Const">
			<output>
				<port id="1"/>
			</output>
			<blobs>
				<custom offset="2232884" size="4"/>
			</blobs>
		</layer>
		<layer id="336" name="36853689_const" precision="FP32" type="Const">
			<output>
				<port id="1"/>
			</output>
			<blobs>
				<custom offset="7208" size="4"/>
			</blobs>
		</layer>
		<layer id="337" name="36863690_const" precision="FP32" type="Const">
			<output>
				<port id="1"/>
			</output>
			<blobs>
				<custom offset="2232884" size="4"/>
			</blobs>
		</layer>
		<layer id="338" name="109/fq_input_0" precision="FP32" type="FakeQuantize">
			<data levels="256.0"/>
			<input>
				<port id="0">
					<dim>1</dim>
					<dim>64</dim>
					<dim>13</dim>
					<dim>13</dim>
				</port>
				<port id="1"/>
				<port id="2"/>
				<port id="3"/>
				<port id="4"/>
			</input>
			<output>
				<port id="5">
					<dim>1</dim>
					<dim>64</dim>
					<dim>13</dim>
					<dim>13</dim>
				</port>
			</output>
		</layer>
		<layer id="339" name="features.12.expand1x1.weight/Output_0/Data__const" precision="FP32" type="Const">
			<output>
				<port id="1">
					<dim>256</dim>
					<dim>64</dim>
					<dim>1</dim>
					<dim>1</dim>
				</port>
			</output>
			<blobs>
				<custom offset="2232888" size="65536"/>
			</blobs>
		</layer>
		<layer id="340" name="36933697_const" precision="FP32" type="Const">
			<output>
				<port id="1"/>
			</output>
			<blobs>
				<custom offset="2298424" size="4"/>
			</blobs>
		</layer>
		<layer id="341" name="36943698_const" precision="FP32" type="Const">
			<output>
				<port id="1"/>
			</output>
			<blobs>
				<custom offset="2298428" size="4"/>
			</blobs>
		</layer>
		<layer id="342" name="36953699_const" precision="FP32" type="Const">
			<output>
				<port id="1"/>
			</output>
			<blobs>
				<custom offset="2298424" size="4"/>
			</blobs>
		</layer>
		<layer id="343" name="36963700_const" precision="FP32" type="Const">
			<output>
				<port id="1"/>
			</output>
			<blobs>
				<custom offset="2298428" size="4"/>
			</blobs>
		</layer>
		<layer id="344" name="109/fq_weights_1" precision="FP32" type="FakeQuantize">
			<data levels="255.0"/>
			<input>
				<port id="0">
					<dim>256</dim>
					<dim>64</dim>
					<dim>1</dim>
					<dim>1</dim>
				</port>
				<port id="1"/>
				<port id="2"/>
				<port id="3"/>
				<port id="4"/>
			</input>
			<output>
				<port id="5">
					<dim>256</dim>
					<dim>64</dim>
					<dim>1</dim>
					<dim>1</dim>
				</port>
			</output>
		</layer>
		<layer id="345" name="features.12.expand1x1.bias/Output_0/Data__const" precision="FP32" type="Const">
			<output>
				<port id="1">
					<dim>256</dim>
				</port>
			</output>
			<blobs>
				<custom offset="2298432" size="1024"/>
			</blobs>
		</layer>
		<layer id="346" name="109" precision="FP32" type="Convolution">
			<data dilations="1,1" group="1" kernel="1,1" output="256" pads_begin="0,0" pads_end="0,0" strides="1,1"/>
			<input>
				<port id="0">
					<dim>1</dim>
					<dim>64</dim>
					<dim>13</dim>
					<dim>13</dim>
				</port>
				<port id="1">
					<dim>256</dim>
					<dim>64</dim>
					<dim>1</dim>
					<dim>1</dim>
				</port>
				<port id="2">
					<dim>256</dim>
				</port>
			</input>
			<output>
				<port id="3">
					<dim>1</dim>
					<dim>256</dim>
					<dim>13</dim>
					<dim>13</dim>
				</port>
			</output>
		</layer>
		<layer id="347" name="110" precision="FP32" type="ReLU">
			<input>
				<port id="0">
					<dim>1</dim>
					<dim>256</dim>
					<dim>13</dim>
					<dim>13</dim>
				</port>
			</input>
			<output>
				<port id="1">
					<dim>1</dim>
					<dim>256</dim>
					<dim>13</dim>
					<dim>13</dim>
				</port>
			</output>
		</layer>
		<layer id="348" name="43544358_const" precision="FP32" type="Const">
			<output>
				<port id="1"/>
			</output>
			<blobs>
				<custom offset="7208" size="4"/>
			</blobs>
		</layer>
		<layer id="349" name="43554359_const" precision="FP32" type="Const">
			<output>
				<port id="1"/>
			</output>
			<blobs>
				<custom offset="2299456" size="4"/>
			</blobs>
		</layer>
		<layer id="350" name="43564360_const" precision="FP32" type="Const">
			<output>
				<port id="1"/>
			</output>
			<blobs>
				<custom offset="7208" size="4"/>
			</blobs>
		</layer>
		<layer id="351" name="43574361_const" precision="FP32" type="Const">
			<output>
				<port id="1"/>
			</output>
			<blobs>
				<custom offset="2299456" size="4"/>
			</blobs>
		</layer>
		<layer id="352" name="113/fq_input_0" precision="FP32" type="FakeQuantize">
			<data levels="256.0"/>
			<input>
				<port id="0">
					<dim>1</dim>
					<dim>256</dim>
					<dim>13</dim>
					<dim>13</dim>
				</port>
				<port id="1"/>
				<port id="2"/>
				<port id="3"/>
				<port id="4"/>
			</input>
			<output>
				<port id="5">
					<dim>1</dim>
					<dim>256</dim>
					<dim>13</dim>
					<dim>13</dim>
				</port>
			</output>
		</layer>
		<layer id="353" name="features.12.expand3x3.weight/Output_0/Data__const" precision="FP32" type="Const">
			<output>
				<port id="1">
					<dim>256</dim>
					<dim>64</dim>
					<dim>3</dim>
					<dim>3</dim>
				</port>
			</output>
			<blobs>
				<custom offset="2299460" size="589824"/>
			</blobs>
		</layer>
		<layer id="354" name="39833987_const" precision="FP32" type="Const">
			<output>
				<port id="1"/>
			</output>
			<blobs>
				<custom offset="2889284" size="4"/>
			</blobs>
		</layer>
		<layer id="355" name="39843988_const" precision="FP32" type="Const">
			<output>
				<port id="1"/>
			</output>
			<blobs>
				<custom offset="2889288" size="4"/>
			</blobs>
		</layer>
		<layer id="356" name="39853989_const" precision="FP32" type="Const">
			<output>
				<port id="1"/>
			</output>
			<blobs>
				<custom offset="2889284" size="4"/>
			</blobs>
		</layer>
		<layer id="357" name="39863990_const" precision="FP32" type="Const">
			<output>
				<port id="1"/>
			</output>
			<blobs>
				<custom offset="2889288" size="4"/>
			</blobs>
		</layer>
		<layer id="358" name="111/fq_weights_1" precision="FP32" type="FakeQuantize">
			<data levels="255.0"/>
			<input>
				<port id="0">
					<dim>256</dim>
					<dim>64</dim>
					<dim>3</dim>
					<dim>3</dim>
				</port>
				<port id="1"/>
				<port id="2"/>
				<port id="3"/>
				<port id="4"/>
			</input>
			<output>
				<port id="5">
					<dim>256</dim>
					<dim>64</dim>
					<dim>3</dim>
					<dim>3</dim>
				</port>
			</output>
		</layer>
		<layer id="359" name="features.12.expand3x3.bias/Output_0/Data__const" precision="FP32" type="Const">
			<output>
				<port id="1">
					<dim>256</dim>
				</port>
			</output>
			<blobs>
				<custom offset="2889292" size="1024"/>
			</blobs>
		</layer>
		<layer id="360" name="111" precision="FP32" type="Convolution">
			<data dilations="1,1" group="1" kernel="3,3" output="256" pads_begin="1,1" pads_end="1,1" strides="1,1"/>
			<input>
				<port id="0">
					<dim>1</dim>
					<dim>64</dim>
					<dim>13</dim>
					<dim>13</dim>
				</port>
				<port id="1">
					<dim>256</dim>
					<dim>64</dim>
					<dim>3</dim>
					<dim>3</dim>
				</port>
				<port id="2">
					<dim>256</dim>
				</port>
			</input>
			<output>
				<port id="3">
					<dim>1</dim>
					<dim>256</dim>
					<dim>13</dim>
					<dim>13</dim>
				</port>
			</output>
		</layer>
		<layer id="361" name="112" precision="FP32" type="ReLU">
			<input>
				<port id="0">
					<dim>1</dim>
					<dim>256</dim>
					<dim>13</dim>
					<dim>13</dim>
				</port>
			</input>
			<output>
				<port id="1">
					<dim>1</dim>
					<dim>256</dim>
					<dim>13</dim>
					<dim>13</dim>
				</port>
			</output>
		</layer>
		<layer id="362" name="43644368_const" precision="FP32" type="Const">
			<output>
				<port id="1"/>
			</output>
			<blobs>
				<custom offset="7208" size="4"/>
			</blobs>
		</layer>
		<layer id="363" name="43654369_const" precision="FP32" type="Const">
			<output>
				<port id="1"/>
			</output>
			<blobs>
				<custom offset="2890316" size="4"/>
			</blobs>
		</layer>
		<layer id="364" name="43664370_const" precision="FP32" type="Const">
			<output>
				<port id="1"/>
			</output>
			<blobs>
				<custom offset="7208" size="4"/>
			</blobs>
		</layer>
		<layer id="365" name="43674371_const" precision="FP32" type="Const">
			<output>
				<port id="1"/>
			</output>
			<blobs>
				<custom offset="2890316" size="4"/>
			</blobs>
		</layer>
		<layer id="366" name="113/fq_input_1" precision="FP32" type="FakeQuantize">
			<data levels="256.0"/>
			<input>
				<port id="0">
					<dim>1</dim>
					<dim>256</dim>
					<dim>13</dim>
					<dim>13</dim>
				</port>
				<port id="1"/>
				<port id="2"/>
				<port id="3"/>
				<port id="4"/>
			</input>
			<output>
				<port id="5">
					<dim>1</dim>
					<dim>256</dim>
					<dim>13</dim>
					<dim>13</dim>
				</port>
			</output>
		</layer>
		<layer id="367" name="113" precision="FP32" type="Concat">
			<data axis="1"/>
			<input>
				<port id="0">
					<dim>1</dim>
					<dim>256</dim>
					<dim>13</dim>
					<dim>13</dim>
				</port>
				<port id="1">
					<dim>1</dim>
					<dim>256</dim>
					<dim>13</dim>
					<dim>13</dim>
				</port>
			</input>
			<output>
				<port id="2">
					<dim>1</dim>
					<dim>512</dim>
					<dim>13</dim>
					<dim>13</dim>
				</port>
			</output>
		</layer>
		<layer id="368" name="classifier.1.weight/Output_0/Data__const" precision="FP32" type="Const">
			<output>
				<port id="1">
					<dim>1000</dim>
					<dim>512</dim>
					<dim>1</dim>
					<dim>1</dim>
				</port>
			</output>
			<blobs>
				<custom offset="2890320" size="2048000"/>
			</blobs>
		</layer>
		<layer id="369" name="37533757_const" precision="FP32" type="Const">
			<output>
				<port id="1"/>
			</output>
			<blobs>
				<custom offset="4938320" size="4"/>
			</blobs>
		</layer>
		<layer id="370" name="37543758_const" precision="FP32" type="Const">
			<output>
				<port id="1"/>
			</output>
			<blobs>
				<custom offset="4938324" size="4"/>
			</blobs>
		</layer>
		<layer id="371" name="37553759_const" precision="FP32" type="Const">
			<output>
				<port id="1"/>
			</output>
			<blobs>
				<custom offset="4938320" size="4"/>
			</blobs>
		</layer>
		<layer id="372" name="37563760_const" precision="FP32" type="Const">
			<output>
				<port id="1"/>
			</output>
			<blobs>
				<custom offset="4938324" size="4"/>
			</blobs>
		</layer>
		<layer id="373" name="114/fq_weights_1" precision="FP32" type="FakeQuantize">
			<data levels="255.0"/>
			<input>
				<port id="0">
					<dim>1000</dim>
					<dim>512</dim>
					<dim>1</dim>
					<dim>1</dim>
				</port>
				<port id="1"/>
				<port id="2"/>
				<port id="3"/>
				<port id="4"/>
			</input>
			<output>
				<port id="5">
					<dim>1000</dim>
					<dim>512</dim>
					<dim>1</dim>
					<dim>1</dim>
				</port>
			</output>
		</layer>
		<layer id="374" name="classifier.1.bias/Output_0/Data__const" precision="FP32" type="Const">
			<output>
				<port id="1">
					<dim>1000</dim>
				</port>
			</output>
			<blobs>
				<custom offset="4938328" size="4000"/>
			</blobs>
		</layer>
		<layer id="375" name="114" precision="FP32" type="Convolution">
			<data dilations="1,1" group="1" kernel="1,1" output="1000" pads_begin="0,0" pads_end="0,0" strides="1,1"/>
			<input>
				<port id="0">
					<dim>1</dim>
					<dim>512</dim>
					<dim>13</dim>
					<dim>13</dim>
				</port>
				<port id="1">
					<dim>1000</dim>
					<dim>512</dim>
					<dim>1</dim>
					<dim>1</dim>
				</port>
				<port id="2">
					<dim>1000</dim>
				</port>
			</input>
			<output>
				<port id="3">
					<dim>1</dim>
					<dim>1000</dim>
					<dim>13</dim>
					<dim>13</dim>
				</port>
			</output>
		</layer>
		<layer id="376" name="115" precision="FP32" type="ReLU">
			<input>
				<port id="0">
					<dim>1</dim>
					<dim>1000</dim>
					<dim>13</dim>
					<dim>13</dim>
				</port>
			</input>
			<output>
				<port id="1">
					<dim>1</dim>
					<dim>1000</dim>
					<dim>13</dim>
					<dim>13</dim>
				</port>
			</output>
		</layer>
		<layer id="377" name="35733577_const" precision="FP32" type="Const">
			<output>
				<port id="1"/>
			</output>
			<blobs>
				<custom offset="7208" size="4"/>
			</blobs>
		</layer>
		<layer id="378" name="35743578_const" precision="FP32" type="Const">
			<output>
				<port id="1"/>
			</output>
			<blobs>
				<custom offset="4942328" size="4"/>
			</blobs>
		</layer>
		<layer id="379" name="35753579_const" precision="FP32" type="Const">
			<output>
				<port id="1"/>
			</output>
			<blobs>
				<custom offset="7208" size="4"/>
			</blobs>
		</layer>
		<layer id="380" name="35763580_const" precision="FP32" type="Const">
			<output>
				<port id="1"/>
			</output>
			<blobs>
				<custom offset="4942328" size="4"/>
			</blobs>
		</layer>
		<layer id="381" name="116/fq_input_0" precision="FP32" type="FakeQuantize">
			<data levels="256.0"/>
			<input>
				<port id="0">
					<dim>1</dim>
					<dim>1000</dim>
					<dim>13</dim>
					<dim>13</dim>
				</port>
				<port id="1"/>
				<port id="2"/>
				<port id="3"/>
				<port id="4"/>
			</input>
			<output>
				<port id="5">
					<dim>1</dim>
					<dim>1000</dim>
					<dim>13</dim>
					<dim>13</dim>
				</port>
			</output>
		</layer>
		<layer id="382" name="116" precision="FP32" type="Pooling">
			<data exclude-pad="true" kernel="13,13" pads_begin="0,0" pads_end="0,0" pool-method="avg" rounding_type="floor" strides="1,1"/>
			<input>
				<port id="0">
					<dim>1</dim>
					<dim>1000</dim>
					<dim>13</dim>
					<dim>13</dim>
				</port>
			</input>
			<output>
				<port id="1">
					<dim>1</dim>
					<dim>1000</dim>
					<dim>1</dim>
					<dim>1</dim>
				</port>
			</output>
		</layer>
		<layer id="383" name="123/Output_0/Data__const" precision="I32" type="Const">
			<output>
				<port id="1">
					<dim>2</dim>
				</port>
			</output>
			<blobs>
				<custom offset="4942332" size="8"/>
			</blobs>
		</layer>
		<layer id="384" name="124" precision="FP32" type="Reshape">
			<input>
				<port id="0">
					<dim>1</dim>
					<dim>1000</dim>
					<dim>1</dim>
					<dim>1</dim>
				</port>
				<port id="1">
					<dim>2</dim>
				</port>
			</input>
			<output>
				<port id="2">
					<dim>1</dim>
					<dim>1000</dim>
				</port>
			</output>
		</layer>
	</layers>
	<edges>
		<edge from-layer="0" from-port="0" to-layer="1" to-port="0"/>
		<edge from-layer="1" from-port="3" to-layer="6" to-port="0"/>
		<edge from-layer="2" from-port="1" to-layer="6" to-port="1"/>
		<edge from-layer="3" from-port="1" to-layer="6" to-port="2"/>
		<edge from-layer="4" from-port="1" to-layer="6" to-port="3"/>
		<edge from-layer="5" from-port="1" to-layer="6" to-port="4"/>
		<edge from-layer="7" from-port="1" to-layer="12" to-port="0"/>
		<edge from-layer="8" from-port="1" to-layer="12" to-port="1"/>
		<edge from-layer="9" from-port="1" to-layer="12" to-port="2"/>
		<edge from-layer="10" from-port="1" to-layer="12" to-port="3"/>
		<edge from-layer="11" from-port="1" to-layer="12" to-port="4"/>
		<edge from-layer="6" from-port="5" to-layer="14" to-port="0"/>
		<edge from-layer="12" from-port="5" to-layer="14" to-port="1"/>
		<edge from-layer="13" from-port="1" to-layer="14" to-port="2"/>
		<edge from-layer="14" from-port="3" to-layer="15" to-port="0"/>
		<edge from-layer="15" from-port="1" to-layer="20" to-port="0"/>
		<edge from-layer="16" from-port="1" to-layer="20" to-port="1"/>
		<edge from-layer="17" from-port="1" to-layer="20" to-port="2"/>
		<edge from-layer="18" from-port="1" to-layer="20" to-port="3"/>
		<edge from-layer="19" from-port="1" to-layer="20" to-port="4"/>
		<edge from-layer="20" from-port="5" to-layer="21" to-port="0"/>
		<edge from-layer="22" from-port="1" to-layer="27" to-port="0"/>
		<edge from-layer="23" from-port="1" to-layer="27" to-port="1"/>
		<edge from-layer="24" from-port="1" to-layer="27" to-port="2"/>
		<edge from-layer="25" from-port="1" to-layer="27" to-port="3"/>
		<edge from-layer="26" from-port="1" to-layer="27" to-port="4"/>
		<edge from-layer="21" from-port="1" to-layer="29" to-port="0"/>
		<edge from-layer="27" from-port="5" to-layer="29" to-port="1"/>
		<edge from-layer="28" from-port="1" to-layer="29" to-port="2"/>
		<edge from-layer="29" from-port="3" to-layer="30" to-port="0"/>
		<edge from-layer="30" from-port="1" to-layer="35" to-port="0"/>
		<edge from-layer="31" from-port="1" to-layer="35" to-port="1"/>
		<edge from-layer="32" from-port="1" to-layer="35" to-port="2"/>
		<edge from-layer="33" from-port="1" to-layer="35" to-port="3"/>
		<edge from-layer="34" from-port="1" to-layer="35" to-port="4"/>
		<edge from-layer="36" from-port="1" to-layer="41" to-port="0"/>
		<edge from-layer="37" from-port="1" to-layer="41" to-port="1"/>
		<edge from-layer="38" from-port="1" to-layer="41" to-port="2"/>
		<edge from-layer="39" from-port="1" to-layer="41" to-port="3"/>
		<edge from-layer="40" from-port="1" to-layer="41" to-port="4"/>
		<edge from-layer="35" from-port="5" to-layer="43" to-port="0"/>
		<edge from-layer="41" from-port="5" to-layer="43" to-port="1"/>
		<edge from-layer="42" from-port="1" to-layer="43" to-port="2"/>
		<edge from-layer="43" from-port="3" to-layer="44" to-port="0"/>
		<edge from-layer="44" from-port="1" to-layer="49" to-port="0"/>
		<edge from-layer="45" from-port="1" to-layer="49" to-port="1"/>
		<edge from-layer="46" from-port="1" to-layer="49" to-port="2"/>
		<edge from-layer="47" from-port="1" to-layer="49" to-port="3"/>
		<edge from-layer="48" from-port="1" to-layer="49" to-port="4"/>
		<edge from-layer="50" from-port="1" to-layer="55" to-port="0"/>
		<edge from-layer="51" from-port="1" to-layer="55" to-port="1"/>
		<edge from-layer="52" from-port="1" to-layer="55" to-port="2"/>
		<edge from-layer="53" from-port="1" to-layer="55" to-port="3"/>
		<edge from-layer="54" from-port="1" to-layer="55" to-port="4"/>
		<edge from-layer="35" from-port="5" to-layer="57" to-port="0"/>
		<edge from-layer="55" from-port="5" to-layer="57" to-port="1"/>
		<edge from-layer="56" from-port="1" to-layer="57" to-port="2"/>
		<edge from-layer="57" from-port="3" to-layer="58" to-port="0"/>
		<edge from-layer="58" from-port="1" to-layer="63" to-port="0"/>
		<edge from-layer="59" from-port="1" to-layer="63" to-port="1"/>
		<edge from-layer="60" from-port="1" to-layer="63" to-port="2"/>
		<edge from-layer="61" from-port="1" to-layer="63" to-port="3"/>
		<edge from-layer="62" from-port="1" to-layer="63" to-port="4"/>
		<edge from-layer="49" from-port="5" to-layer="64" to-port="0"/>
		<edge from-layer="63" from-port="5" to-layer="64" to-port="1"/>
		<edge from-layer="65" from-port="1" to-layer="70" to-port="0"/>
		<edge from-layer="66" from-port="1" to-layer="70" to-port="1"/>
		<edge from-layer="67" from-port="1" to-layer="70" to-port="2"/>
		<edge from-layer="68" from-port="1" to-layer="70" to-port="3"/>
		<edge from-layer="69" from-port="1" to-layer="70" to-port="4"/>
		<edge from-layer="64" from-port="2" to-layer="72" to-port="0"/>
		<edge from-layer="70" from-port="5" to-layer="72" to-port="1"/>
		<edge from-layer="71" from-port="1" to-layer="72" to-port="2"/>
		<edge from-layer="72" from-port="3" to-layer="73" to-port="0"/>
		<edge from-layer="73" from-port="1" to-layer="78" to-port="0"/>
		<edge from-layer="74" from-port="1" to-layer="78" to-port="1"/>
		<edge from-layer="75" from-port="1" to-layer="78" to-port="2"/>
		<edge from-layer="76" from-port="1" to-layer="78" to-port="3"/>
		<edge from-layer="77" from-port="1" to-layer="78" to-port="4"/>
		<edge from-layer="79" from-port="1" to-layer="84" to-port="0"/>
		<edge from-layer="80" from-port="1" to-layer="84" to-port="1"/>
		<edge from-layer="81" from-port="1" to-layer="84" to-port="2"/>
		<edge from-layer="82" from-port="1" to-layer="84" to-port="3"/>
		<edge from-layer="83" from-port="1" to-layer="84" to-port="4"/>
		<edge from-layer="78" from-port="5" to-layer="86" to-port="0"/>
		<edge from-layer="84" from-port="5" to-layer="86" to-port="1"/>
		<edge from-layer="85" from-port="1" to-layer="86" to-port="2"/>
		<edge from-layer="86" from-port="3" to-layer="87" to-port="0"/>
		<edge from-layer="87" from-port="1" to-layer="92" to-port="0"/>
		<edge from-layer="88" from-port="1" to-layer="92" to-port="1"/>
		<edge from-layer="89" from-port="1" to-layer="92" to-port="2"/>
		<edge from-layer="90" from-port="1" to-layer="92" to-port="3"/>
		<edge from-layer="91" from-port="1" to-layer="92" to-port="4"/>
		<edge from-layer="93" from-port="1" to-layer="98" to-port="0"/>
		<edge from-layer="94" from-port="1" to-layer="98" to-port="1"/>
		<edge from-layer="95" from-port="1" to-layer="98" to-port="2"/>
		<edge from-layer="96" from-port="1" to-layer="98" to-port="3"/>
		<edge from-layer="97" from-port="1" to-layer="98" to-port="4"/>
		<edge from-layer="78" from-port="5" to-layer="100" to-port="0"/>
		<edge from-layer="98" from-port="5" to-layer="100" to-port="1"/>
		<edge from-layer="99" from-port="1" to-layer="100" to-port="2"/>
		<edge from-layer="100" from-port="3" to-layer="101" to-port="0"/>
		<edge from-layer="101" from-port="1" to-layer="106" to-port="0"/>
		<edge from-layer="102" from-port="1" to-layer="106" to-port="1"/>
		<edge from-layer="103" from-port="1" to-layer="106" to-port="2"/>
		<edge from-layer="104" from-port="1" to-layer="106" to-port="3"/>
		<edge from-layer="105" from-port="1" to-layer="106" to-port="4"/>
		<edge from-layer="92" from-port="5" to-layer="107" to-port="0"/>
		<edge from-layer="106" from-port="5" to-layer="107" to-port="1"/>
		<edge from-layer="107" from-port="2" to-layer="108" to-port="0"/>
		<edge from-layer="109" from-port="1" to-layer="114" to-port="0"/>
		<edge from-layer="110" from-port="1" to-layer="114" to-port="1"/>
		<edge from-layer="111" from-port="1" to-layer="114" to-port="2"/>
		<edge from-layer="112" from-port="1" to-layer="114" to-port="3"/>
		<edge from-layer="113" from-port="1" to-layer="114" to-port="4"/>
		<edge from-layer="108" from-port="1" to-layer="116" to-port="0"/>
		<edge from-layer="114" from-port="5" to-layer="116" to-port="1"/>
		<edge from-layer="115" from-port="1" to-layer="116" to-port="2"/>
		<edge from-layer="116" from-port="3" to-layer="117" to-port="0"/>
		<edge from-layer="117" from-port="1" to-layer="122" to-port="0"/>
		<edge from-layer="118" from-port="1" to-layer="122" to-port="1"/>
		<edge from-layer="119" from-port="1" to-layer="122" to-port="2"/>
		<edge from-layer="120" from-port="1" to-layer="122" to-port="3"/>
		<edge from-layer="121" from-port="1" to-layer="122" to-port="4"/>
		<edge from-layer="123" from-port="1" to-layer="128" to-port="0"/>
		<edge from-layer="124" from-port="1" to-layer="128" to-port="1"/>
		<edge from-layer="125" from-port="1" to-layer="128" to-port="2"/>
		<edge from-layer="126" from-port="1" to-layer="128" to-port="3"/>
		<edge from-layer="127" from-port="1" to-layer="128" to-port="4"/>
		<edge from-layer="122" from-port="5" to-layer="130" to-port="0"/>
		<edge from-layer="128" from-port="5" to-layer="130" to-port="1"/>
		<edge from-layer="129" from-port="1" to-layer="130" to-port="2"/>
		<edge from-layer="130" from-port="3" to-layer="131" to-port="0"/>
		<edge from-layer="131" from-port="1" to-layer="136" to-port="0"/>
		<edge from-layer="132" from-port="1" to-layer="136" to-port="1"/>
		<edge from-layer="133" from-port="1" to-layer="136" to-port="2"/>
		<edge from-layer="134" from-port="1" to-layer="136" to-port="3"/>
		<edge from-layer="135" from-port="1" to-layer="136" to-port="4"/>
		<edge from-layer="137" from-port="1" to-layer="142" to-port="0"/>
		<edge from-layer="138" from-port="1" to-layer="142" to-port="1"/>
		<edge from-layer="139" from-port="1" to-layer="142" to-port="2"/>
		<edge from-layer="140" from-port="1" to-layer="142" to-port="3"/>
		<edge from-layer="141" from-port="1" to-layer="142" to-port="4"/>
		<edge from-layer="122" from-port="5" to-layer="144" to-port="0"/>
		<edge from-layer="142" from-port="5" to-layer="144" to-port="1"/>
		<edge from-layer="143" from-port="1" to-layer="144" to-port="2"/>
		<edge from-layer="144" from-port="3" to-layer="145" to-port="0"/>
		<edge from-layer="145" from-port="1" to-layer="150" to-port="0"/>
		<edge from-layer="146" from-port="1" to-layer="150" to-port="1"/>
		<edge from-layer="147" from-port="1" to-layer="150" to-port="2"/>
		<edge from-layer="148" from-port="1" to-layer="150" to-port="3"/>
		<edge from-layer="149" from-port="1" to-layer="150" to-port="4"/>
		<edge from-layer="136" from-port="5" to-layer="151" to-port="0"/>
		<edge from-layer="150" from-port="5" to-layer="151" to-port="1"/>
		<edge from-layer="152" from-port="1" to-layer="157" to-port="0"/>
		<edge from-layer="153" from-port="1" to-layer="157" to-port="1"/>
		<edge from-layer="154" from-port="1" to-layer="157" to-port="2"/>
		<edge from-layer="155" from-port="1" to-layer="157" to-port="3"/>
		<edge from-layer="156" from-port="1" to-layer="157" to-port="4"/>
		<edge from-layer="151" from-port="2" to-layer="159" to-port="0"/>
		<edge from-layer="157" from-port="5" to-layer="159" to-port="1"/>
		<edge from-layer="158" from-port="1" to-layer="159" to-port="2"/>
		<edge from-layer="159" from-port="3" to-layer="160" to-port="0"/>
		<edge from-layer="160" from-port="1" to-layer="165" to-port="0"/>
		<edge from-layer="161" from-port="1" to-layer="165" to-port="1"/>
		<edge from-layer="162" from-port="1" to-layer="165" to-port="2"/>
		<edge from-layer="163" from-port="1" to-layer="165" to-port="3"/>
		<edge from-layer="164" from-port="1" to-layer="165" to-port="4"/>
		<edge from-layer="166" from-port="1" to-layer="171" to-port="0"/>
		<edge from-layer="167" from-port="1" to-layer="171" to-port="1"/>
		<edge from-layer="168" from-port="1" to-layer="171" to-port="2"/>
		<edge from-layer="169" from-port="1" to-layer="171" to-port="3"/>
		<edge from-layer="170" from-port="1" to-layer="171" to-port="4"/>
		<edge from-layer="165" from-port="5" to-layer="173" to-port="0"/>
		<edge from-layer="171" from-port="5" to-layer="173" to-port="1"/>
		<edge from-layer="172" from-port="1" to-layer="173" to-port="2"/>
		<edge from-layer="173" from-port="3" to-layer="174" to-port="0"/>
		<edge from-layer="174" from-port="1" to-layer="179" to-port="0"/>
		<edge from-layer="175" from-port="1" to-layer="179" to-port="1"/>
		<edge from-layer="176" from-port="1" to-layer="179" to-port="2"/>
		<edge from-layer="177" from-port="1" to-layer="179" to-port="3"/>
		<edge from-layer="178" from-port="1" to-layer="179" to-port="4"/>
		<edge from-layer="180" from-port="1" to-layer="185" to-port="0"/>
		<edge from-layer="181" from-port="1" to-layer="185" to-port="1"/>
		<edge from-layer="182" from-port="1" to-layer="185" to-port="2"/>
		<edge from-layer="183" from-port="1" to-layer="185" to-port="3"/>
		<edge from-layer="184" from-port="1" to-layer="185" to-port="4"/>
		<edge from-layer="165" from-port="5" to-layer="187" to-port="0"/>
		<edge from-layer="185" from-port="5" to-layer="187" to-port="1"/>
		<edge from-layer="186" from-port="1" to-layer="187" to-port="2"/>
		<edge from-layer="187" from-port="3" to-layer="188" to-port="0"/>
		<edge from-layer="188" from-port="1" to-layer="193" to-port="0"/>
		<edge from-layer="189" from-port="1" to-layer="193" to-port="1"/>
		<edge from-layer="190" from-port="1" to-layer="193" to-port="2"/>
		<edge from-layer="191" from-port="1" to-layer="193" to-port="3"/>
		<edge from-layer="192" from-port="1" to-layer="193" to-port="4"/>
		<edge from-layer="179" from-port="5" to-layer="194" to-port="0"/>
		<edge from-layer="193" from-port="5" to-layer="194" to-port="1"/>
		<edge from-layer="194" from-port="2" to-layer="195" to-port="0"/>
		<edge from-layer="196" from-port="1" to-layer="201" to-port="0"/>
		<edge from-layer="197" from-port="1" to-layer="201" to-port="1"/>
		<edge from-layer="198" from-port="1" to-layer="201" to-port="2"/>
		<edge from-layer="199" from-port="1" to-layer="201" to-port="3"/>
		<edge from-layer="200" from-port="1" to-layer="201" to-port="4"/>
		<edge from-layer="195" from-port="1" to-layer="203" to-port="0"/>
		<edge from-layer="201" from-port="5" to-layer="203" to-port="1"/>
		<edge from-layer="202" from-port="1" to-layer="203" to-port="2"/>
		<edge from-layer="203" from-port="3" to-layer="204" to-port="0"/>
		<edge from-layer="204" from-port="1" to-layer="209" to-port="0"/>
		<edge from-layer="205" from-port="1" to-layer="209" to-port="1"/>
		<edge from-layer="206" from-port="1" to-layer="209" to-port="2"/>
		<edge from-layer="207" from-port="1" to-layer="209" to-port="3"/>
		<edge from-layer="208" from-port="1" to-layer="209" to-port="4"/>
		<edge from-layer="210" from-port="1" to-layer="215" to-port="0"/>
		<edge from-layer="211" from-port="1" to-layer="215" to-port="1"/>
		<edge from-layer="212" from-port="1" to-layer="215" to-port="2"/>
		<edge from-layer="213" from-port="1" to-layer="215" to-port="3"/>
		<edge from-layer="214" from-port="1" to-layer="215" to-port="4"/>
		<edge from-layer="209" from-port="5" to-layer="217" to-port="0"/>
		<edge from-layer="215" from-port="5" to-layer="217" to-port="1"/>
		<edge from-layer="216" from-port="1" to-layer="217" to-port="2"/>
		<edge from-layer="217" from-port="3" to-layer="218" to-port="0"/>
		<edge from-layer="218" from-port="1" to-layer="223" to-port="0"/>
		<edge from-layer="219" from-port="1" to-layer="223" to-port="1"/>
		<edge from-layer="220" from-port="1" to-layer="223" to-port="2"/>
		<edge from-layer="221" from-port="1" to-layer="223" to-port="3"/>
		<edge from-layer="222" from-port="1" to-layer="223" to-port="4"/>
		<edge from-layer="224" from-port="1" to-layer="229" to-port="0"/>
		<edge from-layer="225" from-port="1" to-layer="229" to-port="1"/>
		<edge from-layer="226" from-port="1" to-layer="229" to-port="2"/>
		<edge from-layer="227" from-port="1" to-layer="229" to-port="3"/>
		<edge from-layer="228" from-port="1" to-layer="229" to-port="4"/>
		<edge from-layer="209" from-port="5" to-layer="231" to-port="0"/>
		<edge from-layer="229" from-port="5" to-layer="231" to-port="1"/>
		<edge from-layer="230" from-port="1" to-layer="231" to-port="2"/>
		<edge from-layer="231" from-port="3" to-layer="232" to-port="0"/>
		<edge from-layer="232" from-port="1" to-layer="237" to-port="0"/>
		<edge from-layer="233" from-port="1" to-layer="237" to-port="1"/>
		<edge from-layer="234" from-port="1" to-layer="237" to-port="2"/>
		<edge from-layer="235" from-port="1" to-layer="237" to-port="3"/>
		<edge from-layer="236" from-port="1" to-layer="237" to-port="4"/>
		<edge from-layer="223" from-port="5" to-layer="238" to-port="0"/>
		<edge from-layer="237" from-port="5" to-layer="238" to-port="1"/>
		<edge from-layer="239" from-port="1" to-layer="244" to-port="0"/>
		<edge from-layer="240" from-port="1" to-layer="244" to-port="1"/>
		<edge from-layer="241" from-port="1" to-layer="244" to-port="2"/>
		<edge from-layer="242" from-port="1" to-layer="244" to-port="3"/>
		<edge from-layer="243" from-port="1" to-layer="244" to-port="4"/>
		<edge from-layer="238" from-port="2" to-layer="246" to-port="0"/>
		<edge from-layer="244" from-port="5" to-layer="246" to-port="1"/>
		<edge from-layer="245" from-port="1" to-layer="246" to-port="2"/>
		<edge from-layer="246" from-port="3" to-layer="247" to-port="0"/>
		<edge from-layer="247" from-port="1" to-layer="252" to-port="0"/>
		<edge from-layer="248" from-port="1" to-layer="252" to-port="1"/>
		<edge from-layer="249" from-port="1" to-layer="252" to-port="2"/>
		<edge from-layer="250" from-port="1" to-layer="252" to-port="3"/>
		<edge from-layer="251" from-port="1" to-layer="252" to-port="4"/>
		<edge from-layer="253" from-port="1" to-layer="258" to-port="0"/>
		<edge from-layer="254" from-port="1" to-layer="258" to-port="1"/>
		<edge from-layer="255" from-port="1" to-layer="258" to-port="2"/>
		<edge from-layer="256" from-port="1" to-layer="258" to-port="3"/>
		<edge from-layer="257" from-port="1" to-layer="258" to-port="4"/>
		<edge from-layer="252" from-port="5" to-layer="260" to-port="0"/>
		<edge from-layer="258" from-port="5" to-layer="260" to-port="1"/>
		<edge from-layer="259" from-port="1" to-layer="260" to-port="2"/>
		<edge from-layer="260" from-port="3" to-layer="261" to-port="0"/>
		<edge from-layer="261" from-port="1" to-layer="266" to-port="0"/>
		<edge from-layer="262" from-port="1" to-layer="266" to-port="1"/>
		<edge from-layer="263" from-port="1" to-layer="266" to-port="2"/>
		<edge from-layer="264" from-port="1" to-layer="266" to-port="3"/>
		<edge from-layer="265" from-port="1" to-layer="266" to-port="4"/>
		<edge from-layer="267" from-port="1" to-layer="272" to-port="0"/>
		<edge from-layer="268" from-port="1" to-layer="272" to-port="1"/>
		<edge from-layer="269" from-port="1" to-layer="272" to-port="2"/>
		<edge from-layer="270" from-port="1" to-layer="272" to-port="3"/>
		<edge from-layer="271" from-port="1" to-layer="272" to-port="4"/>
		<edge from-layer="252" from-port="5" to-layer="274" to-port="0"/>
		<edge from-layer="272" from-port="5" to-layer="274" to-port="1"/>
		<edge from-layer="273" from-port="1" to-layer="274" to-port="2"/>
		<edge from-layer="274" from-port="3" to-layer="275" to-port="0"/>
		<edge from-layer="275" from-port="1" to-layer="280" to-port="0"/>
		<edge from-layer="276" from-port="1" to-layer="280" to-port="1"/>
		<edge from-layer="277" from-port="1" to-layer="280" to-port="2"/>
		<edge from-layer="278" from-port="1" to-layer="280" to-port="3"/>
		<edge from-layer="279" from-port="1" to-layer="280" to-port="4"/>
		<edge from-layer="266" from-port="5" to-layer="281" to-port="0"/>
		<edge from-layer="280" from-port="5" to-layer="281" to-port="1"/>
		<edge from-layer="282" from-port="1" to-layer="287" to-port="0"/>
		<edge from-layer="283" from-port="1" to-layer="287" to-port="1"/>
		<edge from-layer="284" from-port="1" to-layer="287" to-port="2"/>
		<edge from-layer="285" from-port="1" to-layer="287" to-port="3"/>
		<edge from-layer="286" from-port="1" to-layer="287" to-port="4"/>
		<edge from-layer="281" from-port="2" to-layer="289" to-port="0"/>
		<edge from-layer="287" from-port="5" to-layer="289" to-port="1"/>
		<edge from-layer="288" from-port="1" to-layer="289" to-port="2"/>
		<edge from-layer="289" from-port="3" to-layer="290" to-port="0"/>
		<edge from-layer="290" from-port="1" to-layer="295" to-port="0"/>
		<edge from-layer="291" from-port="1" to-layer="295" to-port="1"/>
		<edge from-layer="292" from-port="1" to-layer="295" to-port="2"/>
		<edge from-layer="293" from-port="1" to-layer="295" to-port="3"/>
		<edge from-layer="294" from-port="1" to-layer="295" to-port="4"/>
		<edge from-layer="296" from-port="1" to-layer="301" to-port="0"/>
		<edge from-layer="297" from-port="1" to-layer="301" to-port="1"/>
		<edge from-layer="298" from-port="1" to-layer="301" to-port="2"/>
		<edge from-layer="299" from-port="1" to-layer="301" to-port="3"/>
		<edge from-layer="300" from-port="1" to-layer="301" to-port="4"/>
		<edge from-layer="295" from-port="5" to-layer="303" to-port="0"/>
		<edge from-layer="301" from-port="5" to-layer="303" to-port="1"/>
		<edge from-layer="302" from-port="1" to-layer="303" to-port="2"/>
		<edge from-layer="303" from-port="3" to-layer="304" to-port="0"/>
		<edge from-layer="304" from-port="1" to-layer="309" to-port="0"/>
		<edge from-layer="305" from-port="1" to-layer="309" to-port="1"/>
		<edge from-layer="306" from-port="1" to-layer="309" to-port="2"/>
		<edge from-layer="307" from-port="1" to-layer="309" to-port="3"/>
		<edge from-layer="308" from-port="1" to-layer="309" to-port="4"/>
		<edge from-layer="310" from-port="1" to-layer="315" to-port="0"/>
		<edge from-layer="311" from-port="1" to-layer="315" to-port="1"/>
		<edge from-layer="312" from-port="1" to-layer="315" to-port="2"/>
		<edge from-layer="313" from-port="1" to-layer="315" to-port="3"/>
		<edge from-layer="314" from-port="1" to-layer="315" to-port="4"/>
		<edge from-layer="295" from-port="5" to-layer="317" to-port="0"/>
		<edge from-layer="315" from-port="5" to-layer="317" to-port="1"/>
		<edge from-layer="316" from-port="1" to-layer="317" to-port="2"/>
		<edge from-layer="317" from-port="3" to-layer="318" to-port="0"/>
		<edge from-layer="318" from-port="1" to-layer="323" to-port="0"/>
		<edge from-layer="319" from-port="1" to-layer="323" to-port="1"/>
		<edge from-layer="320" from-port="1" to-layer="323" to-port="2"/>
		<edge from-layer="321" from-port="1" to-layer="323" to-port="3"/>
		<edge from-layer="322" from-port="1" to-layer="323" to-port="4"/>
		<edge from-layer="309" from-port="5" to-layer="324" to-port="0"/>
		<edge from-layer="323" from-port="5" to-layer="324" to-port="1"/>
		<edge from-layer="325" from-port="1" to-layer="330" to-port="0"/>
		<edge from-layer="326" from-port="1" to-layer="330" to-port="1"/>
		<edge from-layer="327" from-port="1" to-layer="330" to-port="2"/>
		<edge from-layer="328" from-port="1" to-layer="330" to-port="3"/>
		<edge from-layer="329" from-port="1" to-layer="330" to-port="4"/>
		<edge from-layer="324" from-port="2" to-layer="332" to-port="0"/>
		<edge from-layer="330" from-port="5" to-layer="332" to-port="1"/>
		<edge from-layer="331" from-port="1" to-layer="332" to-port="2"/>
		<edge from-layer="332" from-port="3" to-layer="333" to-port="0"/>
		<edge from-layer="333" from-port="1" to-layer="338" to-port="0"/>
		<edge from-layer="334" from-port="1" to-layer="338" to-port="1"/>
		<edge from-layer="335" from-port="1" to-layer="338" to-port="2"/>
		<edge from-layer="336" from-port="1" to-layer="338" to-port="3"/>
		<edge from-layer="337" from-port="1" to-layer="338" to-port="4"/>
		<edge from-layer="339" from-port="1" to-layer="344" to-port="0"/>
		<edge from-layer="340" from-port="1" to-layer="344" to-port="1"/>
		<edge from-layer="341" from-port="1" to-layer="344" to-port="2"/>
		<edge from-layer="342" from-port="1" to-layer="344" to-port="3"/>
		<edge from-layer="343" from-port="1" to-layer="344" to-port="4"/>
		<edge from-layer="338" from-port="5" to-layer="346" to-port="0"/>
		<edge from-layer="344" from-port="5" to-layer="346" to-port="1"/>
		<edge from-layer="345" from-port="1" to-layer="346" to-port="2"/>
		<edge from-layer="346" from-port="3" to-layer="347" to-port="0"/>
		<edge from-layer="347" from-port="1" to-layer="352" to-port="0"/>
		<edge from-layer="348" from-port="1" to-layer="352" to-port="1"/>
		<edge from-layer="349" from-port="1" to-layer="352" to-port="2"/>
		<edge from-layer="350" from-port="1" to-layer="352" to-port="3"/>
		<edge from-layer="351" from-port="1" to-layer="352" to-port="4"/>
		<edge from-layer="353" from-port="1" to-layer="358" to-port="0"/>
		<edge from-layer="354" from-port="1" to-layer="358" to-port="1"/>
		<edge from-layer="355" from-port="1" to-layer="358" to-port="2"/>
		<edge from-layer="356" from-port="1" to-layer="358" to-port="3"/>
		<edge from-layer="357" from-port="1" to-layer="358" to-port="4"/>
		<edge from-layer="338" from-port="5" to-layer="360" to-port="0"/>
		<edge from-layer="358" from-port="5" to-layer="360" to-port="1"/>
		<edge from-layer="359" from-port="1" to-layer="360" to-port="2"/>
		<edge from-layer="360" from-port="3" to-layer="361" to-port="0"/>
		<edge from-layer="361" from-port="1" to-layer="366" to-port="0"/>
		<edge from-layer="362" from-port="1" to-layer="366" to-port="1"/>
		<edge from-layer="363" from-port="1" to-layer="366" to-port="2"/>
		<edge from-layer="364" from-port="1" to-layer="366" to-port="3"/>
		<edge from-layer="365" from-port="1" to-layer="366" to-port="4"/>
		<edge from-layer="352" from-port="5" to-layer="367" to-port="0"/>
		<edge from-layer="366" from-port="5" to-layer="367" to-port="1"/>
		<edge from-layer="368" from-port="1" to-layer="373" to-port="0"/>
		<edge from-layer="369" from-port="1" to-layer="373" to-port="1"/>
		<edge from-layer="370" from-port="1" to-layer="373" to-port="2"/>
		<edge from-layer="371" from-port="1" to-layer="373" to-port="3"/>
		<edge from-layer="372" from-port="1" to-layer="373" to-port="4"/>
		<edge from-layer="367" from-port="2" to-layer="375" to-port="0"/>
		<edge from-layer="373" from-port="5" to-layer="375" to-port="1"/>
		<edge from-layer="374" from-port="1" to-layer="375" to-port="2"/>
		<edge from-layer="375" from-port="3" to-layer="376" to-port="0"/>
		<edge from-layer="376" from-port="1" to-layer="381" to-port="0"/>
		<edge from-layer="377" from-port="1" to-layer="381" to-port="1"/>
		<edge from-layer="378" from-port="1" to-layer="381" to-port="2"/>
		<edge from-layer="379" from-port="1" to-layer="381" to-port="3"/>
		<edge from-layer="380" from-port="1" to-layer="381" to-port="4"/>
		<edge from-layer="381" from-port="5" to-layer="382" to-port="0"/>
		<edge from-layer="382" from-port="1" to-layer="384" to-port="0"/>
		<edge from-layer="383" from-port="1" to-layer="384" to-port="1"/>
	</edges>
	<meta_data>
		<MO_version value="unknown version"/>
		<cli_parameters>
			<unset unset_cli_parameters=""/>
		</cli_parameters>
	</meta_data>
</net>
