<?xml version="1.0" ?>
<net batch="1" name="yolo_v2_uint8_int8_weights_pertensor" precision="FP32" version="7">
	<layers>
		<layer id="0" name="data" type="Input">
			<output>
				<port id="0" precision="FP32">
					<dim>1</dim>
					<dim>3</dim>
					<dim>416</dim>
					<dim>416</dim>
				</port>
			</output>
		</layer>
		<layer id="1" name="image_preprocess/truediv/mul_/FusedScaleShift_" type="ScaleShift">
			<input>
				<port id="0">
					<dim>1</dim>
					<dim>3</dim>
					<dim>416</dim>
					<dim>416</dim>
				</port>
			</input>
			<output>
				<port id="3" precision="FP32">
					<dim>1</dim>
					<dim>3</dim>
					<dim>416</dim>
					<dim>416</dim>
				</port>
			</output>
			<blobs>
				<weights offset="0" precision="FP32" size="12"/>
				<biases offset="12" precision="FP32" size="12"/>
			</blobs>
		</layer>
		<layer id="2" name="72447248_const" type="Const">
			<output>
				<port id="1" precision="FP32"/>
			</output>
			<blobs>
				<custom offset="24" precision="FP32" size="4"/>
			</blobs>
		</layer>
		<layer id="3" name="72457249_const" type="Const">
			<output>
				<port id="1" precision="FP32"/>
			</output>
			<blobs>
				<custom offset="28" precision="FP32" size="4"/>
			</blobs>
		</layer>
		<layer id="4" name="72467250_const" type="Const">
			<output>
				<port id="1" precision="FP32"/>
			</output>
			<blobs>
				<custom offset="24" precision="FP32" size="4"/>
			</blobs>
		</layer>
		<layer id="5" name="72477251_const" type="Const">
			<output>
				<port id="1" precision="FP32"/>
			</output>
			<blobs>
				<custom offset="28" precision="FP32" size="4"/>
			</blobs>
		</layer>
		<layer id="6" name="yolov2/darknet19_model/conv1/Conv2D/fq_input_0" type="FakeQuantize">
			<data levels="256.0"/>
			<input>
				<port id="0">
					<dim>1</dim>
					<dim>3</dim>
					<dim>416</dim>
					<dim>416</dim>
				</port>
				<port id="1"/>
				<port id="2"/>
				<port id="3"/>
				<port id="4"/>
			</input>
			<output>
				<port id="5" precision="FP32">
					<dim>1</dim>
					<dim>3</dim>
					<dim>416</dim>
					<dim>416</dim>
				</port>
			</output>
		</layer>
		<layer id="7" name="Mul1_3897/Fused_Mul_46474649_const" type="Const">
			<output>
				<port id="1" precision="FP32">
					<dim>32</dim>
					<dim>3</dim>
					<dim>3</dim>
					<dim>3</dim>
				</port>
			</output>
			<blobs>
				<custom offset="32" precision="FP32" size="3456"/>
			</blobs>
		</layer>
		<layer id="8" name="72547258_const" type="Const">
			<output>
				<port id="1" precision="FP32"/>
			</output>
			<blobs>
				<custom offset="3488" precision="FP32" size="4"/>
			</blobs>
		</layer>
		<layer id="9" name="72557259_const" type="Const">
			<output>
				<port id="1" precision="FP32"/>
			</output>
			<blobs>
				<custom offset="3492" precision="FP32" size="4"/>
			</blobs>
		</layer>
		<layer id="10" name="72567260_const" type="Const">
			<output>
				<port id="1" precision="FP32"/>
			</output>
			<blobs>
				<custom offset="3488" precision="FP32" size="4"/>
			</blobs>
		</layer>
		<layer id="11" name="72577261_const" type="Const">
			<output>
				<port id="1" precision="FP32"/>
			</output>
			<blobs>
				<custom offset="3492" precision="FP32" size="4"/>
			</blobs>
		</layer>
		<layer id="12" name="yolov2/darknet19_model/conv1/Conv2D/fq_weights_1" type="FakeQuantize">
			<data levels="255.0"/>
			<input>
				<port id="0">
					<dim>32</dim>
					<dim>3</dim>
					<dim>3</dim>
					<dim>3</dim>
				</port>
				<port id="1"/>
				<port id="2"/>
				<port id="3"/>
				<port id="4"/>
			</input>
			<output>
				<port id="5" precision="FP32">
					<dim>32</dim>
					<dim>3</dim>
					<dim>3</dim>
					<dim>3</dim>
				</port>
			</output>
		</layer>
		<layer id="13" name="bias_data4651_const" type="Const">
			<output>
				<port id="1" precision="FP32">
					<dim>32</dim>
				</port>
			</output>
			<blobs>
				<custom offset="3496" precision="FP32" size="128"/>
			</blobs>
		</layer>
		<layer id="14" name="yolov2/darknet19_model/conv1/Conv2D" type="Convolution">
			<data auto_pad="same_upper" dilations="1,1" group="1" kernel="3,3" output="32" pads_begin="1,1" pads_end="1,1" strides="1,1"/>
			<input>
				<port id="0">
					<dim>1</dim>
					<dim>3</dim>
					<dim>416</dim>
					<dim>416</dim>
				</port>
				<port id="1">
					<dim>32</dim>
					<dim>3</dim>
					<dim>3</dim>
					<dim>3</dim>
				</port>
				<port id="2">
					<dim>32</dim>
				</port>
			</input>
			<output>
				<port id="3" precision="FP32">
					<dim>1</dim>
					<dim>32</dim>
					<dim>416</dim>
					<dim>416</dim>
				</port>
			</output>
		</layer>
		<layer id="15" name="LeakyReLU_5353" type="ReLU">
			<data negative_slope="0.10000000149011612"/>
			<input>
				<port id="0">
					<dim>1</dim>
					<dim>32</dim>
					<dim>416</dim>
					<dim>416</dim>
				</port>
			</input>
			<output>
				<port id="1" precision="FP32">
					<dim>1</dim>
					<dim>32</dim>
					<dim>416</dim>
					<dim>416</dim>
				</port>
			</output>
		</layer>
		<layer id="16" name="77607764_const" type="Const">
			<output>
				<port id="1" precision="FP32"/>
			</output>
			<blobs>
				<custom offset="3624" precision="FP32" size="4"/>
			</blobs>
		</layer>
		<layer id="17" name="77617765_const" type="Const">
			<output>
				<port id="1" precision="FP32"/>
			</output>
			<blobs>
				<custom offset="3628" precision="FP32" size="4"/>
			</blobs>
		</layer>
		<layer id="18" name="77627766_const" type="Const">
			<output>
				<port id="1" precision="FP32"/>
			</output>
			<blobs>
				<custom offset="3624" precision="FP32" size="4"/>
			</blobs>
		</layer>
		<layer id="19" name="77637767_const" type="Const">
			<output>
				<port id="1" precision="FP32"/>
			</output>
			<blobs>
				<custom offset="3628" precision="FP32" size="4"/>
			</blobs>
		</layer>
		<layer id="20" name="yolov2/darknet19_model/max_pool1/MaxPool/fq_input_0" type="FakeQuantize">
			<data levels="256.0"/>
			<input>
				<port id="0">
					<dim>1</dim>
					<dim>32</dim>
					<dim>416</dim>
					<dim>416</dim>
				</port>
				<port id="1"/>
				<port id="2"/>
				<port id="3"/>
				<port id="4"/>
			</input>
			<output>
				<port id="5" precision="FP32">
					<dim>1</dim>
					<dim>32</dim>
					<dim>416</dim>
					<dim>416</dim>
				</port>
			</output>
		</layer>
		<layer id="21" name="yolov2/darknet19_model/max_pool1/MaxPool" type="Pooling">
			<data auto_pad="valid" exclude-pad="true" kernel="2,2" pads_begin="0,0" pads_end="0,0" pool-method="max" strides="2,2"/>
			<input>
				<port id="0">
					<dim>1</dim>
					<dim>32</dim>
					<dim>416</dim>
					<dim>416</dim>
				</port>
			</input>
			<output>
				<port id="1" precision="FP32">
					<dim>1</dim>
					<dim>32</dim>
					<dim>208</dim>
					<dim>208</dim>
				</port>
			</output>
		</layer>
		<layer id="22" name="Mul1_3753/Fused_Mul_46534655_const" type="Const">
			<output>
				<port id="1" precision="FP32">
					<dim>64</dim>
					<dim>32</dim>
					<dim>3</dim>
					<dim>3</dim>
				</port>
			</output>
			<blobs>
				<custom offset="3632" precision="FP32" size="73728"/>
			</blobs>
		</layer>
		<layer id="23" name="70947098_const" type="Const">
			<output>
				<port id="1" precision="FP32"/>
			</output>
			<blobs>
				<custom offset="77360" precision="FP32" size="4"/>
			</blobs>
		</layer>
		<layer id="24" name="70957099_const" type="Const">
			<output>
				<port id="1" precision="FP32"/>
			</output>
			<blobs>
				<custom offset="77364" precision="FP32" size="4"/>
			</blobs>
		</layer>
		<layer id="25" name="70967100_const" type="Const">
			<output>
				<port id="1" precision="FP32"/>
			</output>
			<blobs>
				<custom offset="77360" precision="FP32" size="4"/>
			</blobs>
		</layer>
		<layer id="26" name="70977101_const" type="Const">
			<output>
				<port id="1" precision="FP32"/>
			</output>
			<blobs>
				<custom offset="77364" precision="FP32" size="4"/>
			</blobs>
		</layer>
		<layer id="27" name="yolov2/darknet19_model/conv2/Conv2D/fq_weights_1" type="FakeQuantize">
			<data levels="255.0"/>
			<input>
				<port id="0">
					<dim>64</dim>
					<dim>32</dim>
					<dim>3</dim>
					<dim>3</dim>
				</port>
				<port id="1"/>
				<port id="2"/>
				<port id="3"/>
				<port id="4"/>
			</input>
			<output>
				<port id="5" precision="FP32">
					<dim>64</dim>
					<dim>32</dim>
					<dim>3</dim>
					<dim>3</dim>
				</port>
			</output>
		</layer>
		<layer id="28" name="bias_data46564657_const" type="Const">
			<output>
				<port id="1" precision="FP32">
					<dim>64</dim>
				</port>
			</output>
			<blobs>
				<custom offset="77368" precision="FP32" size="256"/>
			</blobs>
		</layer>
		<layer id="29" name="yolov2/darknet19_model/conv2/Conv2D" type="Convolution">
			<data auto_pad="same_upper" dilations="1,1" group="1" kernel="3,3" output="64" pads_begin="1,1" pads_end="1,1" strides="1,1"/>
			<input>
				<port id="0">
					<dim>1</dim>
					<dim>32</dim>
					<dim>208</dim>
					<dim>208</dim>
				</port>
				<port id="1">
					<dim>64</dim>
					<dim>32</dim>
					<dim>3</dim>
					<dim>3</dim>
				</port>
				<port id="2">
					<dim>64</dim>
				</port>
			</input>
			<output>
				<port id="3" precision="FP32">
					<dim>1</dim>
					<dim>64</dim>
					<dim>208</dim>
					<dim>208</dim>
				</port>
			</output>
		</layer>
		<layer id="30" name="LeakyReLU_" type="ReLU">
			<data negative_slope="0.10000000149011612"/>
			<input>
				<port id="0">
					<dim>1</dim>
					<dim>64</dim>
					<dim>208</dim>
					<dim>208</dim>
				</port>
			</input>
			<output>
				<port id="1" precision="FP32">
					<dim>1</dim>
					<dim>64</dim>
					<dim>208</dim>
					<dim>208</dim>
				</port>
			</output>
		</layer>
		<layer id="31" name="77707774_const" type="Const">
			<output>
				<port id="1" precision="FP32"/>
			</output>
			<blobs>
				<custom offset="77624" precision="FP32" size="4"/>
			</blobs>
		</layer>
		<layer id="32" name="77717775_const" type="Const">
			<output>
				<port id="1" precision="FP32"/>
			</output>
			<blobs>
				<custom offset="77628" precision="FP32" size="4"/>
			</blobs>
		</layer>
		<layer id="33" name="77727776_const" type="Const">
			<output>
				<port id="1" precision="FP32"/>
			</output>
			<blobs>
				<custom offset="77624" precision="FP32" size="4"/>
			</blobs>
		</layer>
		<layer id="34" name="77737777_const" type="Const">
			<output>
				<port id="1" precision="FP32"/>
			</output>
			<blobs>
				<custom offset="77628" precision="FP32" size="4"/>
			</blobs>
		</layer>
		<layer id="35" name="yolov2/darknet19_model/max_pool2/MaxPool/fq_input_0" type="FakeQuantize">
			<data levels="256.0"/>
			<input>
				<port id="0">
					<dim>1</dim>
					<dim>64</dim>
					<dim>208</dim>
					<dim>208</dim>
				</port>
				<port id="1"/>
				<port id="2"/>
				<port id="3"/>
				<port id="4"/>
			</input>
			<output>
				<port id="5" precision="FP32">
					<dim>1</dim>
					<dim>64</dim>
					<dim>208</dim>
					<dim>208</dim>
				</port>
			</output>
		</layer>
		<layer id="36" name="yolov2/darknet19_model/max_pool2/MaxPool" type="Pooling">
			<data auto_pad="valid" exclude-pad="true" kernel="2,2" pads_begin="0,0" pads_end="0,0" pool-method="max" strides="2,2"/>
			<input>
				<port id="0">
					<dim>1</dim>
					<dim>64</dim>
					<dim>208</dim>
					<dim>208</dim>
				</port>
			</input>
			<output>
				<port id="1" precision="FP32">
					<dim>1</dim>
					<dim>64</dim>
					<dim>104</dim>
					<dim>104</dim>
				</port>
			</output>
		</layer>
		<layer id="37" name="Mul1_3777/Fused_Mul_46594661_const" type="Const">
			<output>
				<port id="1" precision="FP32">
					<dim>128</dim>
					<dim>64</dim>
					<dim>3</dim>
					<dim>3</dim>
				</port>
			</output>
			<blobs>
				<custom offset="77632" precision="FP32" size="294912"/>
			</blobs>
		</layer>
		<layer id="38" name="71547158_const" type="Const">
			<output>
				<port id="1" precision="FP32"/>
			</output>
			<blobs>
				<custom offset="372544" precision="FP32" size="4"/>
			</blobs>
		</layer>
		<layer id="39" name="71557159_const" type="Const">
			<output>
				<port id="1" precision="FP32"/>
			</output>
			<blobs>
				<custom offset="372548" precision="FP32" size="4"/>
			</blobs>
		</layer>
		<layer id="40" name="71567160_const" type="Const">
			<output>
				<port id="1" precision="FP32"/>
			</output>
			<blobs>
				<custom offset="372544" precision="FP32" size="4"/>
			</blobs>
		</layer>
		<layer id="41" name="71577161_const" type="Const">
			<output>
				<port id="1" precision="FP32"/>
			</output>
			<blobs>
				<custom offset="372548" precision="FP32" size="4"/>
			</blobs>
		</layer>
		<layer id="42" name="yolov2/darknet19_model/conv3/Conv2D/fq_weights_1" type="FakeQuantize">
			<data levels="255.0"/>
			<input>
				<port id="0">
					<dim>128</dim>
					<dim>64</dim>
					<dim>3</dim>
					<dim>3</dim>
				</port>
				<port id="1"/>
				<port id="2"/>
				<port id="3"/>
				<port id="4"/>
			</input>
			<output>
				<port id="5" precision="FP32">
					<dim>128</dim>
					<dim>64</dim>
					<dim>3</dim>
					<dim>3</dim>
				</port>
			</output>
		</layer>
		<layer id="43" name="bias_data46624663_const" type="Const">
			<output>
				<port id="1" precision="FP32">
					<dim>128</dim>
				</port>
			</output>
			<blobs>
				<custom offset="372552" precision="FP32" size="512"/>
			</blobs>
		</layer>
		<layer id="44" name="yolov2/darknet19_model/conv3/Conv2D" type="Convolution">
			<data auto_pad="same_upper" dilations="1,1" group="1" kernel="3,3" output="128" pads_begin="1,1" pads_end="1,1" strides="1,1"/>
			<input>
				<port id="0">
					<dim>1</dim>
					<dim>64</dim>
					<dim>104</dim>
					<dim>104</dim>
				</port>
				<port id="1">
					<dim>128</dim>
					<dim>64</dim>
					<dim>3</dim>
					<dim>3</dim>
				</port>
				<port id="2">
					<dim>128</dim>
				</port>
			</input>
			<output>
				<port id="3" precision="FP32">
					<dim>1</dim>
					<dim>128</dim>
					<dim>104</dim>
					<dim>104</dim>
				</port>
			</output>
		</layer>
		<layer id="45" name="LeakyReLU_5347" type="ReLU">
			<data negative_slope="0.10000000149011612"/>
			<input>
				<port id="0">
					<dim>1</dim>
					<dim>128</dim>
					<dim>104</dim>
					<dim>104</dim>
				</port>
			</input>
			<output>
				<port id="1" precision="FP32">
					<dim>1</dim>
					<dim>128</dim>
					<dim>104</dim>
					<dim>104</dim>
				</port>
			</output>
		</layer>
		<layer id="46" name="70647068_const" type="Const">
			<output>
				<port id="1" precision="FP32"/>
			</output>
			<blobs>
				<custom offset="373064" precision="FP32" size="4"/>
			</blobs>
		</layer>
		<layer id="47" name="70657069_const" type="Const">
			<output>
				<port id="1" precision="FP32"/>
			</output>
			<blobs>
				<custom offset="373068" precision="FP32" size="4"/>
			</blobs>
		</layer>
		<layer id="48" name="70667070_const" type="Const">
			<output>
				<port id="1" precision="FP32"/>
			</output>
			<blobs>
				<custom offset="373064" precision="FP32" size="4"/>
			</blobs>
		</layer>
		<layer id="49" name="70677071_const" type="Const">
			<output>
				<port id="1" precision="FP32"/>
			</output>
			<blobs>
				<custom offset="373068" precision="FP32" size="4"/>
			</blobs>
		</layer>
		<layer id="50" name="yolov2/darknet19_model/conv4/Conv2D/fq_input_0" type="FakeQuantize">
			<data levels="256.0"/>
			<input>
				<port id="0">
					<dim>1</dim>
					<dim>128</dim>
					<dim>104</dim>
					<dim>104</dim>
				</port>
				<port id="1"/>
				<port id="2"/>
				<port id="3"/>
				<port id="4"/>
			</input>
			<output>
				<port id="5" precision="FP32">
					<dim>1</dim>
					<dim>128</dim>
					<dim>104</dim>
					<dim>104</dim>
				</port>
			</output>
		</layer>
		<layer id="51" name="Mul1_3765/Fused_Mul_46654667_const" type="Const">
			<output>
				<port id="1" precision="FP32">
					<dim>64</dim>
					<dim>128</dim>
					<dim>1</dim>
					<dim>1</dim>
				</port>
			</output>
			<blobs>
				<custom offset="373072" precision="FP32" size="32768"/>
			</blobs>
		</layer>
		<layer id="52" name="70747078_const" type="Const">
			<output>
				<port id="1" precision="FP32"/>
			</output>
			<blobs>
				<custom offset="405840" precision="FP32" size="4"/>
			</blobs>
		</layer>
		<layer id="53" name="70757079_const" type="Const">
			<output>
				<port id="1" precision="FP32"/>
			</output>
			<blobs>
				<custom offset="405844" precision="FP32" size="4"/>
			</blobs>
		</layer>
		<layer id="54" name="70767080_const" type="Const">
			<output>
				<port id="1" precision="FP32"/>
			</output>
			<blobs>
				<custom offset="405840" precision="FP32" size="4"/>
			</blobs>
		</layer>
		<layer id="55" name="70777081_const" type="Const">
			<output>
				<port id="1" precision="FP32"/>
			</output>
			<blobs>
				<custom offset="405844" precision="FP32" size="4"/>
			</blobs>
		</layer>
		<layer id="56" name="yolov2/darknet19_model/conv4/Conv2D/fq_weights_1" type="FakeQuantize">
			<data levels="255.0"/>
			<input>
				<port id="0">
					<dim>64</dim>
					<dim>128</dim>
					<dim>1</dim>
					<dim>1</dim>
				</port>
				<port id="1"/>
				<port id="2"/>
				<port id="3"/>
				<port id="4"/>
			</input>
			<output>
				<port id="5" precision="FP32">
					<dim>64</dim>
					<dim>128</dim>
					<dim>1</dim>
					<dim>1</dim>
				</port>
			</output>
		</layer>
		<layer id="57" name="bias_data46684669_const" type="Const">
			<output>
				<port id="1" precision="FP32">
					<dim>64</dim>
				</port>
			</output>
			<blobs>
				<custom offset="405848" precision="FP32" size="256"/>
			</blobs>
		</layer>
		<layer id="58" name="yolov2/darknet19_model/conv4/Conv2D" type="Convolution">
			<data auto_pad="same_upper" dilations="1,1" group="1" kernel="1,1" output="64" pads_begin="0,0" pads_end="0,0" strides="1,1"/>
			<input>
				<port id="0">
					<dim>1</dim>
					<dim>128</dim>
					<dim>104</dim>
					<dim>104</dim>
				</port>
				<port id="1">
					<dim>64</dim>
					<dim>128</dim>
					<dim>1</dim>
					<dim>1</dim>
				</port>
				<port id="2">
					<dim>64</dim>
				</port>
			</input>
			<output>
				<port id="3" precision="FP32">
					<dim>1</dim>
					<dim>64</dim>
					<dim>104</dim>
					<dim>104</dim>
				</port>
			</output>
		</layer>
		<layer id="59" name="LeakyReLU_5346" type="ReLU">
			<data negative_slope="0.10000000149011612"/>
			<input>
				<port id="0">
					<dim>1</dim>
					<dim>64</dim>
					<dim>104</dim>
					<dim>104</dim>
				</port>
			</input>
			<output>
				<port id="1" precision="FP32">
					<dim>1</dim>
					<dim>64</dim>
					<dim>104</dim>
					<dim>104</dim>
				</port>
			</output>
		</layer>
		<layer id="60" name="73047308_const" type="Const">
			<output>
				<port id="1" precision="FP32"/>
			</output>
			<blobs>
				<custom offset="406104" precision="FP32" size="4"/>
			</blobs>
		</layer>
		<layer id="61" name="73057309_const" type="Const">
			<output>
				<port id="1" precision="FP32"/>
			</output>
			<blobs>
				<custom offset="406108" precision="FP32" size="4"/>
			</blobs>
		</layer>
		<layer id="62" name="73067310_const" type="Const">
			<output>
				<port id="1" precision="FP32"/>
			</output>
			<blobs>
				<custom offset="406104" precision="FP32" size="4"/>
			</blobs>
		</layer>
		<layer id="63" name="73077311_const" type="Const">
			<output>
				<port id="1" precision="FP32"/>
			</output>
			<blobs>
				<custom offset="406108" precision="FP32" size="4"/>
			</blobs>
		</layer>
		<layer id="64" name="yolov2/darknet19_model/conv5/Conv2D/fq_input_0" type="FakeQuantize">
			<data levels="256.0"/>
			<input>
				<port id="0">
					<dim>1</dim>
					<dim>64</dim>
					<dim>104</dim>
					<dim>104</dim>
				</port>
				<port id="1"/>
				<port id="2"/>
				<port id="3"/>
				<port id="4"/>
			</input>
			<output>
				<port id="5" precision="FP32">
					<dim>1</dim>
					<dim>64</dim>
					<dim>104</dim>
					<dim>104</dim>
				</port>
			</output>
		</layer>
		<layer id="65" name="Mul1_3801/Fused_Mul_46714673_const" type="Const">
			<output>
				<port id="1" precision="FP32">
					<dim>128</dim>
					<dim>64</dim>
					<dim>3</dim>
					<dim>3</dim>
				</port>
			</output>
			<blobs>
				<custom offset="406112" precision="FP32" size="294912"/>
			</blobs>
		</layer>
		<layer id="66" name="73147318_const" type="Const">
			<output>
				<port id="1" precision="FP32"/>
			</output>
			<blobs>
				<custom offset="701024" precision="FP32" size="4"/>
			</blobs>
		</layer>
		<layer id="67" name="73157319_const" type="Const">
			<output>
				<port id="1" precision="FP32"/>
			</output>
			<blobs>
				<custom offset="701028" precision="FP32" size="4"/>
			</blobs>
		</layer>
		<layer id="68" name="73167320_const" type="Const">
			<output>
				<port id="1" precision="FP32"/>
			</output>
			<blobs>
				<custom offset="701024" precision="FP32" size="4"/>
			</blobs>
		</layer>
		<layer id="69" name="73177321_const" type="Const">
			<output>
				<port id="1" precision="FP32"/>
			</output>
			<blobs>
				<custom offset="701028" precision="FP32" size="4"/>
			</blobs>
		</layer>
		<layer id="70" name="yolov2/darknet19_model/conv5/Conv2D/fq_weights_1" type="FakeQuantize">
			<data levels="255.0"/>
			<input>
				<port id="0">
					<dim>128</dim>
					<dim>64</dim>
					<dim>3</dim>
					<dim>3</dim>
				</port>
				<port id="1"/>
				<port id="2"/>
				<port id="3"/>
				<port id="4"/>
			</input>
			<output>
				<port id="5" precision="FP32">
					<dim>128</dim>
					<dim>64</dim>
					<dim>3</dim>
					<dim>3</dim>
				</port>
			</output>
		</layer>
		<layer id="71" name="bias_data46744675_const" type="Const">
			<output>
				<port id="1" precision="FP32">
					<dim>128</dim>
				</port>
			</output>
			<blobs>
				<custom offset="701032" precision="FP32" size="512"/>
			</blobs>
		</layer>
		<layer id="72" name="yolov2/darknet19_model/conv5/Conv2D" type="Convolution">
			<data auto_pad="same_upper" dilations="1,1" group="1" kernel="3,3" output="128" pads_begin="1,1" pads_end="1,1" strides="1,1"/>
			<input>
				<port id="0">
					<dim>1</dim>
					<dim>64</dim>
					<dim>104</dim>
					<dim>104</dim>
				</port>
				<port id="1">
					<dim>128</dim>
					<dim>64</dim>
					<dim>3</dim>
					<dim>3</dim>
				</port>
				<port id="2">
					<dim>128</dim>
				</port>
			</input>
			<output>
				<port id="3" precision="FP32">
					<dim>1</dim>
					<dim>128</dim>
					<dim>104</dim>
					<dim>104</dim>
				</port>
			</output>
		</layer>
		<layer id="73" name="LeakyReLU_5344" type="ReLU">
			<data negative_slope="0.10000000149011612"/>
			<input>
				<port id="0">
					<dim>1</dim>
					<dim>128</dim>
					<dim>104</dim>
					<dim>104</dim>
				</port>
			</input>
			<output>
				<port id="1" precision="FP32">
					<dim>1</dim>
					<dim>128</dim>
					<dim>104</dim>
					<dim>104</dim>
				</port>
			</output>
		</layer>
		<layer id="74" name="77807784_const" type="Const">
			<output>
				<port id="1" precision="FP32"/>
			</output>
			<blobs>
				<custom offset="701544" precision="FP32" size="4"/>
			</blobs>
		</layer>
		<layer id="75" name="77817785_const" type="Const">
			<output>
				<port id="1" precision="FP32"/>
			</output>
			<blobs>
				<custom offset="701548" precision="FP32" size="4"/>
			</blobs>
		</layer>
		<layer id="76" name="77827786_const" type="Const">
			<output>
				<port id="1" precision="FP32"/>
			</output>
			<blobs>
				<custom offset="701544" precision="FP32" size="4"/>
			</blobs>
		</layer>
		<layer id="77" name="77837787_const" type="Const">
			<output>
				<port id="1" precision="FP32"/>
			</output>
			<blobs>
				<custom offset="701548" precision="FP32" size="4"/>
			</blobs>
		</layer>
		<layer id="78" name="yolov2/darknet19_model/max_pool3/MaxPool/fq_input_0" type="FakeQuantize">
			<data levels="256.0"/>
			<input>
				<port id="0">
					<dim>1</dim>
					<dim>128</dim>
					<dim>104</dim>
					<dim>104</dim>
				</port>
				<port id="1"/>
				<port id="2"/>
				<port id="3"/>
				<port id="4"/>
			</input>
			<output>
				<port id="5" precision="FP32">
					<dim>1</dim>
					<dim>128</dim>
					<dim>104</dim>
					<dim>104</dim>
				</port>
			</output>
		</layer>
		<layer id="79" name="yolov2/darknet19_model/max_pool3/MaxPool" type="Pooling">
			<data auto_pad="valid" exclude-pad="true" kernel="2,2" pads_begin="0,0" pads_end="0,0" pool-method="max" strides="2,2"/>
			<input>
				<port id="0">
					<dim>1</dim>
					<dim>128</dim>
					<dim>104</dim>
					<dim>104</dim>
				</port>
			</input>
			<output>
				<port id="1" precision="FP32">
					<dim>1</dim>
					<dim>128</dim>
					<dim>52</dim>
					<dim>52</dim>
				</port>
			</output>
		</layer>
		<layer id="80" name="Mul1_3693/Fused_Mul_46774679_const" type="Const">
			<output>
				<port id="1" precision="FP32">
					<dim>256</dim>
					<dim>128</dim>
					<dim>3</dim>
					<dim>3</dim>
				</port>
			</output>
			<blobs>
				<custom offset="701552" precision="FP32" size="1179648"/>
			</blobs>
		</layer>
		<layer id="81" name="71347138_const" type="Const">
			<output>
				<port id="1" precision="FP32"/>
			</output>
			<blobs>
				<custom offset="1881200" precision="FP32" size="4"/>
			</blobs>
		</layer>
		<layer id="82" name="71357139_const" type="Const">
			<output>
				<port id="1" precision="FP32"/>
			</output>
			<blobs>
				<custom offset="1881204" precision="FP32" size="4"/>
			</blobs>
		</layer>
		<layer id="83" name="71367140_const" type="Const">
			<output>
				<port id="1" precision="FP32"/>
			</output>
			<blobs>
				<custom offset="1881200" precision="FP32" size="4"/>
			</blobs>
		</layer>
		<layer id="84" name="71377141_const" type="Const">
			<output>
				<port id="1" precision="FP32"/>
			</output>
			<blobs>
				<custom offset="1881204" precision="FP32" size="4"/>
			</blobs>
		</layer>
		<layer id="85" name="yolov2/darknet19_model/conv6/Conv2D/fq_weights_1" type="FakeQuantize">
			<data levels="255.0"/>
			<input>
				<port id="0">
					<dim>256</dim>
					<dim>128</dim>
					<dim>3</dim>
					<dim>3</dim>
				</port>
				<port id="1"/>
				<port id="2"/>
				<port id="3"/>
				<port id="4"/>
			</input>
			<output>
				<port id="5" precision="FP32">
					<dim>256</dim>
					<dim>128</dim>
					<dim>3</dim>
					<dim>3</dim>
				</port>
			</output>
		</layer>
		<layer id="86" name="bias_data46804681_const" type="Const">
			<output>
				<port id="1" precision="FP32">
					<dim>256</dim>
				</port>
			</output>
			<blobs>
				<custom offset="1881208" precision="FP32" size="1024"/>
			</blobs>
		</layer>
		<layer id="87" name="yolov2/darknet19_model/conv6/Conv2D" type="Convolution">
			<data auto_pad="same_upper" dilations="1,1" group="1" kernel="3,3" output="256" pads_begin="1,1" pads_end="1,1" strides="1,1"/>
			<input>
				<port id="0">
					<dim>1</dim>
					<dim>128</dim>
					<dim>52</dim>
					<dim>52</dim>
				</port>
				<port id="1">
					<dim>256</dim>
					<dim>128</dim>
					<dim>3</dim>
					<dim>3</dim>
				</port>
				<port id="2">
					<dim>256</dim>
				</port>
			</input>
			<output>
				<port id="3" precision="FP32">
					<dim>1</dim>
					<dim>256</dim>
					<dim>52</dim>
					<dim>52</dim>
				</port>
			</output>
		</layer>
		<layer id="88" name="LeakyReLU_5351" type="ReLU">
			<data negative_slope="0.10000000149011612"/>
			<input>
				<port id="0">
					<dim>1</dim>
					<dim>256</dim>
					<dim>52</dim>
					<dim>52</dim>
				</port>
			</input>
			<output>
				<port id="1" precision="FP32">
					<dim>1</dim>
					<dim>256</dim>
					<dim>52</dim>
					<dim>52</dim>
				</port>
			</output>
		</layer>
		<layer id="89" name="74347438_const" type="Const">
			<output>
				<port id="1" precision="FP32"/>
			</output>
			<blobs>
				<custom offset="1882232" precision="FP32" size="4"/>
			</blobs>
		</layer>
		<layer id="90" name="74357439_const" type="Const">
			<output>
				<port id="1" precision="FP32"/>
			</output>
			<blobs>
				<custom offset="1882236" precision="FP32" size="4"/>
			</blobs>
		</layer>
		<layer id="91" name="74367440_const" type="Const">
			<output>
				<port id="1" precision="FP32"/>
			</output>
			<blobs>
				<custom offset="1882232" precision="FP32" size="4"/>
			</blobs>
		</layer>
		<layer id="92" name="74377441_const" type="Const">
			<output>
				<port id="1" precision="FP32"/>
			</output>
			<blobs>
				<custom offset="1882236" precision="FP32" size="4"/>
			</blobs>
		</layer>
		<layer id="93" name="yolov2/darknet19_model/conv7/Conv2D/fq_input_0" type="FakeQuantize">
			<data levels="256.0"/>
			<input>
				<port id="0">
					<dim>1</dim>
					<dim>256</dim>
					<dim>52</dim>
					<dim>52</dim>
				</port>
				<port id="1"/>
				<port id="2"/>
				<port id="3"/>
				<port id="4"/>
			</input>
			<output>
				<port id="5" precision="FP32">
					<dim>1</dim>
					<dim>256</dim>
					<dim>52</dim>
					<dim>52</dim>
				</port>
			</output>
		</layer>
		<layer id="94" name="Mul1_3849/Fused_Mul_46834685_const" type="Const">
			<output>
				<port id="1" precision="FP32">
					<dim>128</dim>
					<dim>256</dim>
					<dim>1</dim>
					<dim>1</dim>
				</port>
			</output>
			<blobs>
				<custom offset="1882240" precision="FP32" size="131072"/>
			</blobs>
		</layer>
		<layer id="95" name="74447448_const" type="Const">
			<output>
				<port id="1" precision="FP32"/>
			</output>
			<blobs>
				<custom offset="2013312" precision="FP32" size="4"/>
			</blobs>
		</layer>
		<layer id="96" name="74457449_const" type="Const">
			<output>
				<port id="1" precision="FP32"/>
			</output>
			<blobs>
				<custom offset="2013316" precision="FP32" size="4"/>
			</blobs>
		</layer>
		<layer id="97" name="74467450_const" type="Const">
			<output>
				<port id="1" precision="FP32"/>
			</output>
			<blobs>
				<custom offset="2013312" precision="FP32" size="4"/>
			</blobs>
		</layer>
		<layer id="98" name="74477451_const" type="Const">
			<output>
				<port id="1" precision="FP32"/>
			</output>
			<blobs>
				<custom offset="2013316" precision="FP32" size="4"/>
			</blobs>
		</layer>
		<layer id="99" name="yolov2/darknet19_model/conv7/Conv2D/fq_weights_1" type="FakeQuantize">
			<data levels="255.0"/>
			<input>
				<port id="0">
					<dim>128</dim>
					<dim>256</dim>
					<dim>1</dim>
					<dim>1</dim>
				</port>
				<port id="1"/>
				<port id="2"/>
				<port id="3"/>
				<port id="4"/>
			</input>
			<output>
				<port id="5" precision="FP32">
					<dim>128</dim>
					<dim>256</dim>
					<dim>1</dim>
					<dim>1</dim>
				</port>
			</output>
		</layer>
		<layer id="100" name="bias_data46864687_const" type="Const">
			<output>
				<port id="1" precision="FP32">
					<dim>128</dim>
				</port>
			</output>
			<blobs>
				<custom offset="2013320" precision="FP32" size="512"/>
			</blobs>
		</layer>
		<layer id="101" name="yolov2/darknet19_model/conv7/Conv2D" type="Convolution">
			<data auto_pad="same_upper" dilations="1,1" group="1" kernel="1,1" output="128" pads_begin="0,0" pads_end="0,0" strides="1,1"/>
			<input>
				<port id="0">
					<dim>1</dim>
					<dim>256</dim>
					<dim>52</dim>
					<dim>52</dim>
				</port>
				<port id="1">
					<dim>128</dim>
					<dim>256</dim>
					<dim>1</dim>
					<dim>1</dim>
				</port>
				<port id="2">
					<dim>128</dim>
				</port>
			</input>
			<output>
				<port id="3" precision="FP32">
					<dim>1</dim>
					<dim>128</dim>
					<dim>52</dim>
					<dim>52</dim>
				</port>
			</output>
		</layer>
		<layer id="102" name="LeakyReLU_5343" type="ReLU">
			<data negative_slope="0.10000000149011612"/>
			<input>
				<port id="0">
					<dim>1</dim>
					<dim>128</dim>
					<dim>52</dim>
					<dim>52</dim>
				</port>
			</input>
			<output>
				<port id="1" precision="FP32">
					<dim>1</dim>
					<dim>128</dim>
					<dim>52</dim>
					<dim>52</dim>
				</port>
			</output>
		</layer>
		<layer id="103" name="73247328_const" type="Const">
			<output>
				<port id="1" precision="FP32"/>
			</output>
			<blobs>
				<custom offset="2013832" precision="FP32" size="4"/>
			</blobs>
		</layer>
		<layer id="104" name="73257329_const" type="Const">
			<output>
				<port id="1" precision="FP32"/>
			</output>
			<blobs>
				<custom offset="2013836" precision="FP32" size="4"/>
			</blobs>
		</layer>
		<layer id="105" name="73267330_const" type="Const">
			<output>
				<port id="1" precision="FP32"/>
			</output>
			<blobs>
				<custom offset="2013832" precision="FP32" size="4"/>
			</blobs>
		</layer>
		<layer id="106" name="73277331_const" type="Const">
			<output>
				<port id="1" precision="FP32"/>
			</output>
			<blobs>
				<custom offset="2013836" precision="FP32" size="4"/>
			</blobs>
		</layer>
		<layer id="107" name="yolov2/darknet19_model/conv8/Conv2D/fq_input_0" type="FakeQuantize">
			<data levels="256.0"/>
			<input>
				<port id="0">
					<dim>1</dim>
					<dim>128</dim>
					<dim>52</dim>
					<dim>52</dim>
				</port>
				<port id="1"/>
				<port id="2"/>
				<port id="3"/>
				<port id="4"/>
			</input>
			<output>
				<port id="5" precision="FP32">
					<dim>1</dim>
					<dim>128</dim>
					<dim>52</dim>
					<dim>52</dim>
				</port>
			</output>
		</layer>
		<layer id="108" name="Mul1_3933/Fused_Mul_46894691_const" type="Const">
			<output>
				<port id="1" precision="FP32">
					<dim>256</dim>
					<dim>128</dim>
					<dim>3</dim>
					<dim>3</dim>
				</port>
			</output>
			<blobs>
				<custom offset="2013840" precision="FP32" size="1179648"/>
			</blobs>
		</layer>
		<layer id="109" name="73347338_const" type="Const">
			<output>
				<port id="1" precision="FP32"/>
			</output>
			<blobs>
				<custom offset="3193488" precision="FP32" size="4"/>
			</blobs>
		</layer>
		<layer id="110" name="73357339_const" type="Const">
			<output>
				<port id="1" precision="FP32"/>
			</output>
			<blobs>
				<custom offset="3193492" precision="FP32" size="4"/>
			</blobs>
		</layer>
		<layer id="111" name="73367340_const" type="Const">
			<output>
				<port id="1" precision="FP32"/>
			</output>
			<blobs>
				<custom offset="3193488" precision="FP32" size="4"/>
			</blobs>
		</layer>
		<layer id="112" name="73377341_const" type="Const">
			<output>
				<port id="1" precision="FP32"/>
			</output>
			<blobs>
				<custom offset="3193492" precision="FP32" size="4"/>
			</blobs>
		</layer>
		<layer id="113" name="yolov2/darknet19_model/conv8/Conv2D/fq_weights_1" type="FakeQuantize">
			<data levels="255.0"/>
			<input>
				<port id="0">
					<dim>256</dim>
					<dim>128</dim>
					<dim>3</dim>
					<dim>3</dim>
				</port>
				<port id="1"/>
				<port id="2"/>
				<port id="3"/>
				<port id="4"/>
			</input>
			<output>
				<port id="5" precision="FP32">
					<dim>256</dim>
					<dim>128</dim>
					<dim>3</dim>
					<dim>3</dim>
				</port>
			</output>
		</layer>
		<layer id="114" name="bias_data46924693_const" type="Const">
			<output>
				<port id="1" precision="FP32">
					<dim>256</dim>
				</port>
			</output>
			<blobs>
				<custom offset="3193496" precision="FP32" size="1024"/>
			</blobs>
		</layer>
		<layer id="115" name="yolov2/darknet19_model/conv8/Conv2D" type="Convolution">
			<data auto_pad="same_upper" dilations="1,1" group="1" kernel="3,3" output="256" pads_begin="1,1" pads_end="1,1" strides="1,1"/>
			<input>
				<port id="0">
					<dim>1</dim>
					<dim>128</dim>
					<dim>52</dim>
					<dim>52</dim>
				</port>
				<port id="1">
					<dim>256</dim>
					<dim>128</dim>
					<dim>3</dim>
					<dim>3</dim>
				</port>
				<port id="2">
					<dim>256</dim>
				</port>
			</input>
			<output>
				<port id="3" precision="FP32">
					<dim>1</dim>
					<dim>256</dim>
					<dim>52</dim>
					<dim>52</dim>
				</port>
			</output>
		</layer>
		<layer id="116" name="LeakyReLU_5356" type="ReLU">
			<data negative_slope="0.10000000149011612"/>
			<input>
				<port id="0">
					<dim>1</dim>
					<dim>256</dim>
					<dim>52</dim>
					<dim>52</dim>
				</port>
			</input>
			<output>
				<port id="1" precision="FP32">
					<dim>1</dim>
					<dim>256</dim>
					<dim>52</dim>
					<dim>52</dim>
				</port>
			</output>
		</layer>
		<layer id="117" name="77907794_const" type="Const">
			<output>
				<port id="1" precision="FP32"/>
			</output>
			<blobs>
				<custom offset="3194520" precision="FP32" size="4"/>
			</blobs>
		</layer>
		<layer id="118" name="77917795_const" type="Const">
			<output>
				<port id="1" precision="FP32"/>
			</output>
			<blobs>
				<custom offset="3194524" precision="FP32" size="4"/>
			</blobs>
		</layer>
		<layer id="119" name="77927796_const" type="Const">
			<output>
				<port id="1" precision="FP32"/>
			</output>
			<blobs>
				<custom offset="3194520" precision="FP32" size="4"/>
			</blobs>
		</layer>
		<layer id="120" name="77937797_const" type="Const">
			<output>
				<port id="1" precision="FP32"/>
			</output>
			<blobs>
				<custom offset="3194524" precision="FP32" size="4"/>
			</blobs>
		</layer>
		<layer id="121" name="yolov2/darknet19_model/max_pool4/MaxPool/fq_input_0" type="FakeQuantize">
			<data levels="256.0"/>
			<input>
				<port id="0">
					<dim>1</dim>
					<dim>256</dim>
					<dim>52</dim>
					<dim>52</dim>
				</port>
				<port id="1"/>
				<port id="2"/>
				<port id="3"/>
				<port id="4"/>
			</input>
			<output>
				<port id="5" precision="FP32">
					<dim>1</dim>
					<dim>256</dim>
					<dim>52</dim>
					<dim>52</dim>
				</port>
			</output>
		</layer>
		<layer id="122" name="yolov2/darknet19_model/max_pool4/MaxPool" type="Pooling">
			<data auto_pad="valid" exclude-pad="true" kernel="2,2" pads_begin="0,0" pads_end="0,0" pool-method="max" strides="2,2"/>
			<input>
				<port id="0">
					<dim>1</dim>
					<dim>256</dim>
					<dim>52</dim>
					<dim>52</dim>
				</port>
			</input>
			<output>
				<port id="1" precision="FP32">
					<dim>1</dim>
					<dim>256</dim>
					<dim>26</dim>
					<dim>26</dim>
				</port>
			</output>
		</layer>
		<layer id="123" name="Mul1_3717/Fused_Mul_46954697_const" type="Const">
			<output>
				<port id="1" precision="FP32">
					<dim>512</dim>
					<dim>256</dim>
					<dim>3</dim>
					<dim>3</dim>
				</port>
			</output>
			<blobs>
				<custom offset="3194528" precision="FP32" size="4718592"/>
			</blobs>
		</layer>
		<layer id="124" name="71747178_const" type="Const">
			<output>
				<port id="1" precision="FP32"/>
			</output>
			<blobs>
				<custom offset="7913120" precision="FP32" size="4"/>
			</blobs>
		</layer>
		<layer id="125" name="71757179_const" type="Const">
			<output>
				<port id="1" precision="FP32"/>
			</output>
			<blobs>
				<custom offset="7913124" precision="FP32" size="4"/>
			</blobs>
		</layer>
		<layer id="126" name="71767180_const" type="Const">
			<output>
				<port id="1" precision="FP32"/>
			</output>
			<blobs>
				<custom offset="7913120" precision="FP32" size="4"/>
			</blobs>
		</layer>
		<layer id="127" name="71777181_const" type="Const">
			<output>
				<port id="1" precision="FP32"/>
			</output>
			<blobs>
				<custom offset="7913124" precision="FP32" size="4"/>
			</blobs>
		</layer>
		<layer id="128" name="yolov2/darknet19_model/conv9/Conv2D/fq_weights_1" type="FakeQuantize">
			<data levels="255.0"/>
			<input>
				<port id="0">
					<dim>512</dim>
					<dim>256</dim>
					<dim>3</dim>
					<dim>3</dim>
				</port>
				<port id="1"/>
				<port id="2"/>
				<port id="3"/>
				<port id="4"/>
			</input>
			<output>
				<port id="5" precision="FP32">
					<dim>512</dim>
					<dim>256</dim>
					<dim>3</dim>
					<dim>3</dim>
				</port>
			</output>
		</layer>
		<layer id="129" name="bias_data46984699_const" type="Const">
			<output>
				<port id="1" precision="FP32">
					<dim>512</dim>
				</port>
			</output>
			<blobs>
				<custom offset="7913128" precision="FP32" size="2048"/>
			</blobs>
		</layer>
		<layer id="130" name="yolov2/darknet19_model/conv9/Conv2D" type="Convolution">
			<data auto_pad="same_upper" dilations="1,1" group="1" kernel="3,3" output="512" pads_begin="1,1" pads_end="1,1" strides="1,1"/>
			<input>
				<port id="0">
					<dim>1</dim>
					<dim>256</dim>
					<dim>26</dim>
					<dim>26</dim>
				</port>
				<port id="1">
					<dim>512</dim>
					<dim>256</dim>
					<dim>3</dim>
					<dim>3</dim>
				</port>
				<port id="2">
					<dim>512</dim>
				</port>
			</input>
			<output>
				<port id="3" precision="FP32">
					<dim>1</dim>
					<dim>512</dim>
					<dim>26</dim>
					<dim>26</dim>
				</port>
			</output>
		</layer>
		<layer id="131" name="LeakyReLU_5349" type="ReLU">
			<data negative_slope="0.10000000149011612"/>
			<input>
				<port id="0">
					<dim>1</dim>
					<dim>512</dim>
					<dim>26</dim>
					<dim>26</dim>
				</port>
			</input>
			<output>
				<port id="1" precision="FP32">
					<dim>1</dim>
					<dim>512</dim>
					<dim>26</dim>
					<dim>26</dim>
				</port>
			</output>
		</layer>
		<layer id="132" name="72247228_const" type="Const">
			<output>
				<port id="1" precision="FP32"/>
			</output>
			<blobs>
				<custom offset="7915176" precision="FP32" size="4"/>
			</blobs>
		</layer>
		<layer id="133" name="72257229_const" type="Const">
			<output>
				<port id="1" precision="FP32"/>
			</output>
			<blobs>
				<custom offset="7915180" precision="FP32" size="4"/>
			</blobs>
		</layer>
		<layer id="134" name="72267230_const" type="Const">
			<output>
				<port id="1" precision="FP32"/>
			</output>
			<blobs>
				<custom offset="7915176" precision="FP32" size="4"/>
			</blobs>
		</layer>
		<layer id="135" name="72277231_const" type="Const">
			<output>
				<port id="1" precision="FP32"/>
			</output>
			<blobs>
				<custom offset="7915180" precision="FP32" size="4"/>
			</blobs>
		</layer>
		<layer id="136" name="yolov2/darknet19_model/conv10/Conv2D/fq_input_0" type="FakeQuantize">
			<data levels="256.0"/>
			<input>
				<port id="0">
					<dim>1</dim>
					<dim>512</dim>
					<dim>26</dim>
					<dim>26</dim>
				</port>
				<port id="1"/>
				<port id="2"/>
				<port id="3"/>
				<port id="4"/>
			</input>
			<output>
				<port id="5" precision="FP32">
					<dim>1</dim>
					<dim>512</dim>
					<dim>26</dim>
					<dim>26</dim>
				</port>
			</output>
		</layer>
		<layer id="137" name="Mul1_3873/Fused_Mul_47014703_const" type="Const">
			<output>
				<port id="1" precision="FP32">
					<dim>256</dim>
					<dim>512</dim>
					<dim>1</dim>
					<dim>1</dim>
				</port>
			</output>
			<blobs>
				<custom offset="7915184" precision="FP32" size="524288"/>
			</blobs>
		</layer>
		<layer id="138" name="72347238_const" type="Const">
			<output>
				<port id="1" precision="FP32"/>
			</output>
			<blobs>
				<custom offset="8439472" precision="FP32" size="4"/>
			</blobs>
		</layer>
		<layer id="139" name="72357239_const" type="Const">
			<output>
				<port id="1" precision="FP32"/>
			</output>
			<blobs>
				<custom offset="8439476" precision="FP32" size="4"/>
			</blobs>
		</layer>
		<layer id="140" name="72367240_const" type="Const">
			<output>
				<port id="1" precision="FP32"/>
			</output>
			<blobs>
				<custom offset="8439472" precision="FP32" size="4"/>
			</blobs>
		</layer>
		<layer id="141" name="72377241_const" type="Const">
			<output>
				<port id="1" precision="FP32"/>
			</output>
			<blobs>
				<custom offset="8439476" precision="FP32" size="4"/>
			</blobs>
		</layer>
		<layer id="142" name="yolov2/darknet19_model/conv10/Conv2D/fq_weights_1" type="FakeQuantize">
			<data levels="255.0"/>
			<input>
				<port id="0">
					<dim>256</dim>
					<dim>512</dim>
					<dim>1</dim>
					<dim>1</dim>
				</port>
				<port id="1"/>
				<port id="2"/>
				<port id="3"/>
				<port id="4"/>
			</input>
			<output>
				<port id="5" precision="FP32">
					<dim>256</dim>
					<dim>512</dim>
					<dim>1</dim>
					<dim>1</dim>
				</port>
			</output>
		</layer>
		<layer id="143" name="bias_data47044705_const" type="Const">
			<output>
				<port id="1" precision="FP32">
					<dim>256</dim>
				</port>
			</output>
			<blobs>
				<custom offset="8439480" precision="FP32" size="1024"/>
			</blobs>
		</layer>
		<layer id="144" name="yolov2/darknet19_model/conv10/Conv2D" type="Convolution">
			<data auto_pad="same_upper" dilations="1,1" group="1" kernel="1,1" output="256" pads_begin="0,0" pads_end="0,0" strides="1,1"/>
			<input>
				<port id="0">
					<dim>1</dim>
					<dim>512</dim>
					<dim>26</dim>
					<dim>26</dim>
				</port>
				<port id="1">
					<dim>256</dim>
					<dim>512</dim>
					<dim>1</dim>
					<dim>1</dim>
				</port>
				<port id="2">
					<dim>256</dim>
				</port>
			</input>
			<output>
				<port id="3" precision="FP32">
					<dim>1</dim>
					<dim>256</dim>
					<dim>26</dim>
					<dim>26</dim>
				</port>
			</output>
		</layer>
		<layer id="145" name="LeakyReLU_5342" type="ReLU">
			<data negative_slope="0.10000000149011612"/>
			<input>
				<port id="0">
					<dim>1</dim>
					<dim>256</dim>
					<dim>26</dim>
					<dim>26</dim>
				</port>
			</input>
			<output>
				<port id="1" precision="FP32">
					<dim>1</dim>
					<dim>256</dim>
					<dim>26</dim>
					<dim>26</dim>
				</port>
			</output>
		</layer>
		<layer id="146" name="71847188_const" type="Const">
			<output>
				<port id="1" precision="FP32"/>
			</output>
			<blobs>
				<custom offset="8440504" precision="FP32" size="4"/>
			</blobs>
		</layer>
		<layer id="147" name="71857189_const" type="Const">
			<output>
				<port id="1" precision="FP32"/>
			</output>
			<blobs>
				<custom offset="8440508" precision="FP32" size="4"/>
			</blobs>
		</layer>
		<layer id="148" name="71867190_const" type="Const">
			<output>
				<port id="1" precision="FP32"/>
			</output>
			<blobs>
				<custom offset="8440504" precision="FP32" size="4"/>
			</blobs>
		</layer>
		<layer id="149" name="71877191_const" type="Const">
			<output>
				<port id="1" precision="FP32"/>
			</output>
			<blobs>
				<custom offset="8440508" precision="FP32" size="4"/>
			</blobs>
		</layer>
		<layer id="150" name="yolov2/darknet19_model/conv11/Conv2D/fq_input_0" type="FakeQuantize">
			<data levels="256.0"/>
			<input>
				<port id="0">
					<dim>1</dim>
					<dim>256</dim>
					<dim>26</dim>
					<dim>26</dim>
				</port>
				<port id="1"/>
				<port id="2"/>
				<port id="3"/>
				<port id="4"/>
			</input>
			<output>
				<port id="5" precision="FP32">
					<dim>1</dim>
					<dim>256</dim>
					<dim>26</dim>
					<dim>26</dim>
				</port>
			</output>
		</layer>
		<layer id="151" name="Mul1_3885/Fused_Mul_47074709_const" type="Const">
			<output>
				<port id="1" precision="FP32">
					<dim>512</dim>
					<dim>256</dim>
					<dim>3</dim>
					<dim>3</dim>
				</port>
			</output>
			<blobs>
				<custom offset="8440512" precision="FP32" size="4718592"/>
			</blobs>
		</layer>
		<layer id="152" name="71947198_const" type="Const">
			<output>
				<port id="1" precision="FP32"/>
			</output>
			<blobs>
				<custom offset="13159104" precision="FP32" size="4"/>
			</blobs>
		</layer>
		<layer id="153" name="71957199_const" type="Const">
			<output>
				<port id="1" precision="FP32"/>
			</output>
			<blobs>
				<custom offset="13159108" precision="FP32" size="4"/>
			</blobs>
		</layer>
		<layer id="154" name="71967200_const" type="Const">
			<output>
				<port id="1" precision="FP32"/>
			</output>
			<blobs>
				<custom offset="13159104" precision="FP32" size="4"/>
			</blobs>
		</layer>
		<layer id="155" name="71977201_const" type="Const">
			<output>
				<port id="1" precision="FP32"/>
			</output>
			<blobs>
				<custom offset="13159108" precision="FP32" size="4"/>
			</blobs>
		</layer>
		<layer id="156" name="yolov2/darknet19_model/conv11/Conv2D/fq_weights_1" type="FakeQuantize">
			<data levels="255.0"/>
			<input>
				<port id="0">
					<dim>512</dim>
					<dim>256</dim>
					<dim>3</dim>
					<dim>3</dim>
				</port>
				<port id="1"/>
				<port id="2"/>
				<port id="3"/>
				<port id="4"/>
			</input>
			<output>
				<port id="5" precision="FP32">
					<dim>512</dim>
					<dim>256</dim>
					<dim>3</dim>
					<dim>3</dim>
				</port>
			</output>
		</layer>
		<layer id="157" name="bias_data47104711_const" type="Const">
			<output>
				<port id="1" precision="FP32">
					<dim>512</dim>
				</port>
			</output>
			<blobs>
				<custom offset="13159112" precision="FP32" size="2048"/>
			</blobs>
		</layer>
		<layer id="158" name="yolov2/darknet19_model/conv11/Conv2D" type="Convolution">
			<data auto_pad="same_upper" dilations="1,1" group="1" kernel="3,3" output="512" pads_begin="1,1" pads_end="1,1" strides="1,1"/>
			<input>
				<port id="0">
					<dim>1</dim>
					<dim>256</dim>
					<dim>26</dim>
					<dim>26</dim>
				</port>
				<port id="1">
					<dim>512</dim>
					<dim>256</dim>
					<dim>3</dim>
					<dim>3</dim>
				</port>
				<port id="2">
					<dim>512</dim>
				</port>
			</input>
			<output>
				<port id="3" precision="FP32">
					<dim>1</dim>
					<dim>512</dim>
					<dim>26</dim>
					<dim>26</dim>
				</port>
			</output>
		</layer>
		<layer id="159" name="LeakyReLU_5354" type="ReLU">
			<data negative_slope="0.10000000149011612"/>
			<input>
				<port id="0">
					<dim>1</dim>
					<dim>512</dim>
					<dim>26</dim>
					<dim>26</dim>
				</port>
			</input>
			<output>
				<port id="1" precision="FP32">
					<dim>1</dim>
					<dim>512</dim>
					<dim>26</dim>
					<dim>26</dim>
				</port>
			</output>
		</layer>
		<layer id="160" name="74047408_const" type="Const">
			<output>
				<port id="1" precision="FP32"/>
			</output>
			<blobs>
				<custom offset="13161160" precision="FP32" size="4"/>
			</blobs>
		</layer>
		<layer id="161" name="74057409_const" type="Const">
			<output>
				<port id="1" precision="FP32"/>
			</output>
			<blobs>
				<custom offset="13161164" precision="FP32" size="4"/>
			</blobs>
		</layer>
		<layer id="162" name="74067410_const" type="Const">
			<output>
				<port id="1" precision="FP32"/>
			</output>
			<blobs>
				<custom offset="13161160" precision="FP32" size="4"/>
			</blobs>
		</layer>
		<layer id="163" name="74077411_const" type="Const">
			<output>
				<port id="1" precision="FP32"/>
			</output>
			<blobs>
				<custom offset="13161164" precision="FP32" size="4"/>
			</blobs>
		</layer>
		<layer id="164" name="yolov2/darknet19_model/conv12/Conv2D/fq_input_0" type="FakeQuantize">
			<data levels="256.0"/>
			<input>
				<port id="0">
					<dim>1</dim>
					<dim>512</dim>
					<dim>26</dim>
					<dim>26</dim>
				</port>
				<port id="1"/>
				<port id="2"/>
				<port id="3"/>
				<port id="4"/>
			</input>
			<output>
				<port id="5" precision="FP32">
					<dim>1</dim>
					<dim>512</dim>
					<dim>26</dim>
					<dim>26</dim>
				</port>
			</output>
		</layer>
		<layer id="165" name="Mul1_3729/Fused_Mul_47134715_const" type="Const">
			<output>
				<port id="1" precision="FP32">
					<dim>256</dim>
					<dim>512</dim>
					<dim>1</dim>
					<dim>1</dim>
				</port>
			</output>
			<blobs>
				<custom offset="13161168" precision="FP32" size="524288"/>
			</blobs>
		</layer>
		<layer id="166" name="74147418_const" type="Const">
			<output>
				<port id="1" precision="FP32"/>
			</output>
			<blobs>
				<custom offset="13685456" precision="FP32" size="4"/>
			</blobs>
		</layer>
		<layer id="167" name="74157419_const" type="Const">
			<output>
				<port id="1" precision="FP32"/>
			</output>
			<blobs>
				<custom offset="13685460" precision="FP32" size="4"/>
			</blobs>
		</layer>
		<layer id="168" name="74167420_const" type="Const">
			<output>
				<port id="1" precision="FP32"/>
			</output>
			<blobs>
				<custom offset="13685456" precision="FP32" size="4"/>
			</blobs>
		</layer>
		<layer id="169" name="74177421_const" type="Const">
			<output>
				<port id="1" precision="FP32"/>
			</output>
			<blobs>
				<custom offset="13685460" precision="FP32" size="4"/>
			</blobs>
		</layer>
		<layer id="170" name="yolov2/darknet19_model/conv12/Conv2D/fq_weights_1" type="FakeQuantize">
			<data levels="255.0"/>
			<input>
				<port id="0">
					<dim>256</dim>
					<dim>512</dim>
					<dim>1</dim>
					<dim>1</dim>
				</port>
				<port id="1"/>
				<port id="2"/>
				<port id="3"/>
				<port id="4"/>
			</input>
			<output>
				<port id="5" precision="FP32">
					<dim>256</dim>
					<dim>512</dim>
					<dim>1</dim>
					<dim>1</dim>
				</port>
			</output>
		</layer>
		<layer id="171" name="bias_data47164717_const" type="Const">
			<output>
				<port id="1" precision="FP32">
					<dim>256</dim>
				</port>
			</output>
			<blobs>
				<custom offset="13685464" precision="FP32" size="1024"/>
			</blobs>
		</layer>
		<layer id="172" name="yolov2/darknet19_model/conv12/Conv2D" type="Convolution">
			<data auto_pad="same_upper" dilations="1,1" group="1" kernel="1,1" output="256" pads_begin="0,0" pads_end="0,0" strides="1,1"/>
			<input>
				<port id="0">
					<dim>1</dim>
					<dim>512</dim>
					<dim>26</dim>
					<dim>26</dim>
				</port>
				<port id="1">
					<dim>256</dim>
					<dim>512</dim>
					<dim>1</dim>
					<dim>1</dim>
				</port>
				<port id="2">
					<dim>256</dim>
				</port>
			</input>
			<output>
				<port id="3" precision="FP32">
					<dim>1</dim>
					<dim>256</dim>
					<dim>26</dim>
					<dim>26</dim>
				</port>
			</output>
		</layer>
		<layer id="173" name="LeakyReLU_5359" type="ReLU">
			<data negative_slope="0.10000000149011612"/>
			<input>
				<port id="0">
					<dim>1</dim>
					<dim>256</dim>
					<dim>26</dim>
					<dim>26</dim>
				</port>
			</input>
			<output>
				<port id="1" precision="FP32">
					<dim>1</dim>
					<dim>256</dim>
					<dim>26</dim>
					<dim>26</dim>
				</port>
			</output>
		</layer>
		<layer id="174" name="70447048_const" type="Const">
			<output>
				<port id="1" precision="FP32"/>
			</output>
			<blobs>
				<custom offset="13686488" precision="FP32" size="4"/>
			</blobs>
		</layer>
		<layer id="175" name="70457049_const" type="Const">
			<output>
				<port id="1" precision="FP32"/>
			</output>
			<blobs>
				<custom offset="13686492" precision="FP32" size="4"/>
			</blobs>
		</layer>
		<layer id="176" name="70467050_const" type="Const">
			<output>
				<port id="1" precision="FP32"/>
			</output>
			<blobs>
				<custom offset="13686488" precision="FP32" size="4"/>
			</blobs>
		</layer>
		<layer id="177" name="70477051_const" type="Const">
			<output>
				<port id="1" precision="FP32"/>
			</output>
			<blobs>
				<custom offset="13686492" precision="FP32" size="4"/>
			</blobs>
		</layer>
		<layer id="178" name="yolov2/darknet19_model/conv13/Conv2D/fq_input_0" type="FakeQuantize">
			<data levels="256.0"/>
			<input>
				<port id="0">
					<dim>1</dim>
					<dim>256</dim>
					<dim>26</dim>
					<dim>26</dim>
				</port>
				<port id="1"/>
				<port id="2"/>
				<port id="3"/>
				<port id="4"/>
			</input>
			<output>
				<port id="5" precision="FP32">
					<dim>1</dim>
					<dim>256</dim>
					<dim>26</dim>
					<dim>26</dim>
				</port>
			</output>
		</layer>
		<layer id="179" name="Mul1_3837/Fused_Mul_47194721_const" type="Const">
			<output>
				<port id="1" precision="FP32">
					<dim>512</dim>
					<dim>256</dim>
					<dim>3</dim>
					<dim>3</dim>
				</port>
			</output>
			<blobs>
				<custom offset="13686496" precision="FP32" size="4718592"/>
			</blobs>
		</layer>
		<layer id="180" name="70547058_const" type="Const">
			<output>
				<port id="1" precision="FP32"/>
			</output>
			<blobs>
				<custom offset="18405088" precision="FP32" size="4"/>
			</blobs>
		</layer>
		<layer id="181" name="70557059_const" type="Const">
			<output>
				<port id="1" precision="FP32"/>
			</output>
			<blobs>
				<custom offset="18405092" precision="FP32" size="4"/>
			</blobs>
		</layer>
		<layer id="182" name="70567060_const" type="Const">
			<output>
				<port id="1" precision="FP32"/>
			</output>
			<blobs>
				<custom offset="18405088" precision="FP32" size="4"/>
			</blobs>
		</layer>
		<layer id="183" name="70577061_const" type="Const">
			<output>
				<port id="1" precision="FP32"/>
			</output>
			<blobs>
				<custom offset="18405092" precision="FP32" size="4"/>
			</blobs>
		</layer>
		<layer id="184" name="yolov2/darknet19_model/conv13/Conv2D/fq_weights_1" type="FakeQuantize">
			<data levels="255.0"/>
			<input>
				<port id="0">
					<dim>512</dim>
					<dim>256</dim>
					<dim>3</dim>
					<dim>3</dim>
				</port>
				<port id="1"/>
				<port id="2"/>
				<port id="3"/>
				<port id="4"/>
			</input>
			<output>
				<port id="5" precision="FP32">
					<dim>512</dim>
					<dim>256</dim>
					<dim>3</dim>
					<dim>3</dim>
				</port>
			</output>
		</layer>
		<layer id="185" name="bias_data47224723_const" type="Const">
			<output>
				<port id="1" precision="FP32">
					<dim>512</dim>
				</port>
			</output>
			<blobs>
				<custom offset="18405096" precision="FP32" size="2048"/>
			</blobs>
		</layer>
		<layer id="186" name="yolov2/darknet19_model/conv13/Conv2D" type="Convolution">
			<data auto_pad="same_upper" dilations="1,1" group="1" kernel="3,3" output="512" pads_begin="1,1" pads_end="1,1" strides="1,1"/>
			<input>
				<port id="0">
					<dim>1</dim>
					<dim>256</dim>
					<dim>26</dim>
					<dim>26</dim>
				</port>
				<port id="1">
					<dim>512</dim>
					<dim>256</dim>
					<dim>3</dim>
					<dim>3</dim>
				</port>
				<port id="2">
					<dim>512</dim>
				</port>
			</input>
			<output>
				<port id="3" precision="FP32">
					<dim>1</dim>
					<dim>512</dim>
					<dim>26</dim>
					<dim>26</dim>
				</port>
			</output>
		</layer>
		<layer id="187" name="LeakyReLU_5355" type="ReLU">
			<data negative_slope="0.10000000149011612"/>
			<input>
				<port id="0">
					<dim>1</dim>
					<dim>512</dim>
					<dim>26</dim>
					<dim>26</dim>
				</port>
			</input>
			<output>
				<port id="1" precision="FP32">
					<dim>1</dim>
					<dim>512</dim>
					<dim>26</dim>
					<dim>26</dim>
				</port>
			</output>
		</layer>
		<layer id="188" name="77507754_const" type="Const">
			<output>
				<port id="1" precision="FP32"/>
			</output>
			<blobs>
				<custom offset="18407144" precision="FP32" size="4"/>
			</blobs>
		</layer>
		<layer id="189" name="77517755_const" type="Const">
			<output>
				<port id="1" precision="FP32"/>
			</output>
			<blobs>
				<custom offset="18407148" precision="FP32" size="4"/>
			</blobs>
		</layer>
		<layer id="190" name="77527756_const" type="Const">
			<output>
				<port id="1" precision="FP32"/>
			</output>
			<blobs>
				<custom offset="18407144" precision="FP32" size="4"/>
			</blobs>
		</layer>
		<layer id="191" name="77537757_const" type="Const">
			<output>
				<port id="1" precision="FP32"/>
			</output>
			<blobs>
				<custom offset="18407148" precision="FP32" size="4"/>
			</blobs>
		</layer>
		<layer id="192" name="yolov2/darknet19_model/max_pool5/MaxPool/fq_input_0" type="FakeQuantize">
			<data levels="256.0"/>
			<input>
				<port id="0">
					<dim>1</dim>
					<dim>512</dim>
					<dim>26</dim>
					<dim>26</dim>
				</port>
				<port id="1"/>
				<port id="2"/>
				<port id="3"/>
				<port id="4"/>
			</input>
			<output>
				<port id="5" precision="FP32">
					<dim>1</dim>
					<dim>512</dim>
					<dim>26</dim>
					<dim>26</dim>
				</port>
			</output>
		</layer>
		<layer id="193" name="Mul1_3861/Fused_Mul_47254727_const" type="Const">
			<output>
				<port id="1" precision="FP32">
					<dim>64</dim>
					<dim>512</dim>
					<dim>1</dim>
					<dim>1</dim>
				</port>
			</output>
			<blobs>
				<custom offset="18407152" precision="FP32" size="131072"/>
			</blobs>
		</layer>
		<layer id="194" name="72147218_const" type="Const">
			<output>
				<port id="1" precision="FP32"/>
			</output>
			<blobs>
				<custom offset="18538224" precision="FP32" size="4"/>
			</blobs>
		</layer>
		<layer id="195" name="72157219_const" type="Const">
			<output>
				<port id="1" precision="FP32"/>
			</output>
			<blobs>
				<custom offset="18538228" precision="FP32" size="4"/>
			</blobs>
		</layer>
		<layer id="196" name="72167220_const" type="Const">
			<output>
				<port id="1" precision="FP32"/>
			</output>
			<blobs>
				<custom offset="18538224" precision="FP32" size="4"/>
			</blobs>
		</layer>
		<layer id="197" name="72177221_const" type="Const">
			<output>
				<port id="1" precision="FP32"/>
			</output>
			<blobs>
				<custom offset="18538228" precision="FP32" size="4"/>
			</blobs>
		</layer>
		<layer id="198" name="yolov2/yolov2_feature/lower_features/proj/Conv2D/fq_weights_1" type="FakeQuantize">
			<data levels="255.0"/>
			<input>
				<port id="0">
					<dim>64</dim>
					<dim>512</dim>
					<dim>1</dim>
					<dim>1</dim>
				</port>
				<port id="1"/>
				<port id="2"/>
				<port id="3"/>
				<port id="4"/>
			</input>
			<output>
				<port id="5" precision="FP32">
					<dim>64</dim>
					<dim>512</dim>
					<dim>1</dim>
					<dim>1</dim>
				</port>
			</output>
		</layer>
		<layer id="199" name="bias_data47284729_const" type="Const">
			<output>
				<port id="1" precision="FP32">
					<dim>64</dim>
				</port>
			</output>
			<blobs>
				<custom offset="18538232" precision="FP32" size="256"/>
			</blobs>
		</layer>
		<layer id="200" name="yolov2/yolov2_feature/lower_features/proj/Conv2D" type="Convolution">
			<data auto_pad="same_upper" dilations="1,1" group="1" kernel="1,1" output="64" pads_begin="0,0" pads_end="0,0" strides="1,1"/>
			<input>
				<port id="0">
					<dim>1</dim>
					<dim>512</dim>
					<dim>26</dim>
					<dim>26</dim>
				</port>
				<port id="1">
					<dim>64</dim>
					<dim>512</dim>
					<dim>1</dim>
					<dim>1</dim>
				</port>
				<port id="2">
					<dim>64</dim>
				</port>
			</input>
			<output>
				<port id="3" precision="FP32">
					<dim>1</dim>
					<dim>64</dim>
					<dim>26</dim>
					<dim>26</dim>
				</port>
			</output>
		</layer>
		<layer id="201" name="LeakyReLU_5360" type="ReLU">
			<data negative_slope="0.10000000149011612"/>
			<input>
				<port id="0">
					<dim>1</dim>
					<dim>64</dim>
					<dim>26</dim>
					<dim>26</dim>
				</port>
			</input>
			<output>
				<port id="1" precision="FP32">
					<dim>1</dim>
					<dim>64</dim>
					<dim>26</dim>
					<dim>26</dim>
				</port>
			</output>
		</layer>
		<layer id="202" name="yolov2/yolov2_feature/lower_features/downsample" type="ReorgYolo">
			<data stride="2"/>
			<input>
				<port id="0">
					<dim>1</dim>
					<dim>64</dim>
					<dim>26</dim>
					<dim>26</dim>
				</port>
			</input>
			<output>
				<port id="1" precision="FP32">
					<dim>1</dim>
					<dim>256</dim>
					<dim>13</dim>
					<dim>13</dim>
				</port>
			</output>
		</layer>
		<layer id="203" name="78007804_const" type="Const">
			<output>
				<port id="1" precision="FP32"/>
			</output>
			<blobs>
				<custom offset="18538488" precision="FP32" size="4"/>
			</blobs>
		</layer>
		<layer id="204" name="78017805_const" type="Const">
			<output>
				<port id="1" precision="FP32"/>
			</output>
			<blobs>
				<custom offset="18538492" precision="FP32" size="4"/>
			</blobs>
		</layer>
		<layer id="205" name="78027806_const" type="Const">
			<output>
				<port id="1" precision="FP32"/>
			</output>
			<blobs>
				<custom offset="18538488" precision="FP32" size="4"/>
			</blobs>
		</layer>
		<layer id="206" name="78037807_const" type="Const">
			<output>
				<port id="1" precision="FP32"/>
			</output>
			<blobs>
				<custom offset="18538492" precision="FP32" size="4"/>
			</blobs>
		</layer>
		<layer id="207" name="yolov2/yolov2_feature/hyper_features/concat/fq_input_0" type="FakeQuantize">
			<data levels="256.0"/>
			<input>
				<port id="0">
					<dim>1</dim>
					<dim>256</dim>
					<dim>13</dim>
					<dim>13</dim>
				</port>
				<port id="1"/>
				<port id="2"/>
				<port id="3"/>
				<port id="4"/>
			</input>
			<output>
				<port id="5" precision="FP32">
					<dim>1</dim>
					<dim>256</dim>
					<dim>13</dim>
					<dim>13</dim>
				</port>
			</output>
		</layer>
		<layer id="208" name="yolov2/darknet19_model/max_pool5/MaxPool" type="Pooling">
			<data auto_pad="valid" exclude-pad="true" kernel="2,2" pads_begin="0,0" pads_end="0,0" pool-method="max" strides="2,2"/>
			<input>
				<port id="0">
					<dim>1</dim>
					<dim>512</dim>
					<dim>26</dim>
					<dim>26</dim>
				</port>
			</input>
			<output>
				<port id="1" precision="FP32">
					<dim>1</dim>
					<dim>512</dim>
					<dim>13</dim>
					<dim>13</dim>
				</port>
			</output>
		</layer>
		<layer id="209" name="Mul1_3789/Fused_Mul_47314733_const" type="Const">
			<output>
				<port id="1" precision="FP32">
					<dim>1024</dim>
					<dim>512</dim>
					<dim>3</dim>
					<dim>3</dim>
				</port>
			</output>
			<blobs>
				<custom offset="18538496" precision="FP32" size="18874368"/>
			</blobs>
		</layer>
		<layer id="210" name="71147118_const" type="Const">
			<output>
				<port id="1" precision="FP32"/>
			</output>
			<blobs>
				<custom offset="37412864" precision="FP32" size="4"/>
			</blobs>
		</layer>
		<layer id="211" name="71157119_const" type="Const">
			<output>
				<port id="1" precision="FP32"/>
			</output>
			<blobs>
				<custom offset="37412868" precision="FP32" size="4"/>
			</blobs>
		</layer>
		<layer id="212" name="71167120_const" type="Const">
			<output>
				<port id="1" precision="FP32"/>
			</output>
			<blobs>
				<custom offset="37412864" precision="FP32" size="4"/>
			</blobs>
		</layer>
		<layer id="213" name="71177121_const" type="Const">
			<output>
				<port id="1" precision="FP32"/>
			</output>
			<blobs>
				<custom offset="37412868" precision="FP32" size="4"/>
			</blobs>
		</layer>
		<layer id="214" name="yolov2/darknet19_model/conv14/Conv2D/fq_weights_1" type="FakeQuantize">
			<data levels="255.0"/>
			<input>
				<port id="0">
					<dim>1024</dim>
					<dim>512</dim>
					<dim>3</dim>
					<dim>3</dim>
				</port>
				<port id="1"/>
				<port id="2"/>
				<port id="3"/>
				<port id="4"/>
			</input>
			<output>
				<port id="5" precision="FP32">
					<dim>1024</dim>
					<dim>512</dim>
					<dim>3</dim>
					<dim>3</dim>
				</port>
			</output>
		</layer>
		<layer id="215" name="bias_data47344735_const" type="Const">
			<output>
				<port id="1" precision="FP32">
					<dim>1024</dim>
				</port>
			</output>
			<blobs>
				<custom offset="37412872" precision="FP32" size="4096"/>
			</blobs>
		</layer>
		<layer id="216" name="yolov2/darknet19_model/conv14/Conv2D" type="Convolution">
			<data auto_pad="same_upper" dilations="1,1" group="1" kernel="3,3" output="1024" pads_begin="1,1" pads_end="1,1" strides="1,1"/>
			<input>
				<port id="0">
					<dim>1</dim>
					<dim>512</dim>
					<dim>13</dim>
					<dim>13</dim>
				</port>
				<port id="1">
					<dim>1024</dim>
					<dim>512</dim>
					<dim>3</dim>
					<dim>3</dim>
				</port>
				<port id="2">
					<dim>1024</dim>
				</port>
			</input>
			<output>
				<port id="3" precision="FP32">
					<dim>1</dim>
					<dim>1024</dim>
					<dim>13</dim>
					<dim>13</dim>
				</port>
			</output>
		</layer>
		<layer id="217" name="LeakyReLU_5341" type="ReLU">
			<data negative_slope="0.10000000149011612"/>
			<input>
				<port id="0">
					<dim>1</dim>
					<dim>1024</dim>
					<dim>13</dim>
					<dim>13</dim>
				</port>
			</input>
			<output>
				<port id="1" precision="FP32">
					<dim>1</dim>
					<dim>1024</dim>
					<dim>13</dim>
					<dim>13</dim>
				</port>
			</output>
		</layer>
		<layer id="218" name="73447348_const" type="Const">
			<output>
				<port id="1" precision="FP32"/>
			</output>
			<blobs>
				<custom offset="37416968" precision="FP32" size="4"/>
			</blobs>
		</layer>
		<layer id="219" name="73457349_const" type="Const">
			<output>
				<port id="1" precision="FP32"/>
			</output>
			<blobs>
				<custom offset="37416972" precision="FP32" size="4"/>
			</blobs>
		</layer>
		<layer id="220" name="73467350_const" type="Const">
			<output>
				<port id="1" precision="FP32"/>
			</output>
			<blobs>
				<custom offset="37416968" precision="FP32" size="4"/>
			</blobs>
		</layer>
		<layer id="221" name="73477351_const" type="Const">
			<output>
				<port id="1" precision="FP32"/>
			</output>
			<blobs>
				<custom offset="37416972" precision="FP32" size="4"/>
			</blobs>
		</layer>
		<layer id="222" name="yolov2/darknet19_model/conv15/Conv2D/fq_input_0" type="FakeQuantize">
			<data levels="256.0"/>
			<input>
				<port id="0">
					<dim>1</dim>
					<dim>1024</dim>
					<dim>13</dim>
					<dim>13</dim>
				</port>
				<port id="1"/>
				<port id="2"/>
				<port id="3"/>
				<port id="4"/>
			</input>
			<output>
				<port id="5" precision="FP32">
					<dim>1</dim>
					<dim>1024</dim>
					<dim>13</dim>
					<dim>13</dim>
				</port>
			</output>
		</layer>
		<layer id="223" name="Mul1_3741/Fused_Mul_47374739_const" type="Const">
			<output>
				<port id="1" precision="FP32">
					<dim>512</dim>
					<dim>1024</dim>
					<dim>1</dim>
					<dim>1</dim>
				</port>
			</output>
			<blobs>
				<custom offset="37416976" precision="FP32" size="2097152"/>
			</blobs>
		</layer>
		<layer id="224" name="73547358_const" type="Const">
			<output>
				<port id="1" precision="FP32"/>
			</output>
			<blobs>
				<custom offset="39514128" precision="FP32" size="4"/>
			</blobs>
		</layer>
		<layer id="225" name="73557359_const" type="Const">
			<output>
				<port id="1" precision="FP32"/>
			</output>
			<blobs>
				<custom offset="39514132" precision="FP32" size="4"/>
			</blobs>
		</layer>
		<layer id="226" name="73567360_const" type="Const">
			<output>
				<port id="1" precision="FP32"/>
			</output>
			<blobs>
				<custom offset="39514128" precision="FP32" size="4"/>
			</blobs>
		</layer>
		<layer id="227" name="73577361_const" type="Const">
			<output>
				<port id="1" precision="FP32"/>
			</output>
			<blobs>
				<custom offset="39514132" precision="FP32" size="4"/>
			</blobs>
		</layer>
		<layer id="228" name="yolov2/darknet19_model/conv15/Conv2D/fq_weights_1" type="FakeQuantize">
			<data levels="255.0"/>
			<input>
				<port id="0">
					<dim>512</dim>
					<dim>1024</dim>
					<dim>1</dim>
					<dim>1</dim>
				</port>
				<port id="1"/>
				<port id="2"/>
				<port id="3"/>
				<port id="4"/>
			</input>
			<output>
				<port id="5" precision="FP32">
					<dim>512</dim>
					<dim>1024</dim>
					<dim>1</dim>
					<dim>1</dim>
				</port>
			</output>
		</layer>
		<layer id="229" name="bias_data47404741_const" type="Const">
			<output>
				<port id="1" precision="FP32">
					<dim>512</dim>
				</port>
			</output>
			<blobs>
				<custom offset="39514136" precision="FP32" size="2048"/>
			</blobs>
		</layer>
		<layer id="230" name="yolov2/darknet19_model/conv15/Conv2D" type="Convolution">
			<data auto_pad="same_upper" dilations="1,1" group="1" kernel="1,1" output="512" pads_begin="0,0" pads_end="0,0" strides="1,1"/>
			<input>
				<port id="0">
					<dim>1</dim>
					<dim>1024</dim>
					<dim>13</dim>
					<dim>13</dim>
				</port>
				<port id="1">
					<dim>512</dim>
					<dim>1024</dim>
					<dim>1</dim>
					<dim>1</dim>
				</port>
				<port id="2">
					<dim>512</dim>
				</port>
			</input>
			<output>
				<port id="3" precision="FP32">
					<dim>1</dim>
					<dim>512</dim>
					<dim>13</dim>
					<dim>13</dim>
				</port>
			</output>
		</layer>
		<layer id="231" name="LeakyReLU_5357" type="ReLU">
			<data negative_slope="0.10000000149011612"/>
			<input>
				<port id="0">
					<dim>1</dim>
					<dim>512</dim>
					<dim>13</dim>
					<dim>13</dim>
				</port>
			</input>
			<output>
				<port id="1" precision="FP32">
					<dim>1</dim>
					<dim>512</dim>
					<dim>13</dim>
					<dim>13</dim>
				</port>
			</output>
		</layer>
		<layer id="232" name="73647368_const" type="Const">
			<output>
				<port id="1" precision="FP32"/>
			</output>
			<blobs>
				<custom offset="39516184" precision="FP32" size="4"/>
			</blobs>
		</layer>
		<layer id="233" name="73657369_const" type="Const">
			<output>
				<port id="1" precision="FP32"/>
			</output>
			<blobs>
				<custom offset="39516188" precision="FP32" size="4"/>
			</blobs>
		</layer>
		<layer id="234" name="73667370_const" type="Const">
			<output>
				<port id="1" precision="FP32"/>
			</output>
			<blobs>
				<custom offset="39516184" precision="FP32" size="4"/>
			</blobs>
		</layer>
		<layer id="235" name="73677371_const" type="Const">
			<output>
				<port id="1" precision="FP32"/>
			</output>
			<blobs>
				<custom offset="39516188" precision="FP32" size="4"/>
			</blobs>
		</layer>
		<layer id="236" name="yolov2/darknet19_model/conv16/Conv2D/fq_input_0" type="FakeQuantize">
			<data levels="256.0"/>
			<input>
				<port id="0">
					<dim>1</dim>
					<dim>512</dim>
					<dim>13</dim>
					<dim>13</dim>
				</port>
				<port id="1"/>
				<port id="2"/>
				<port id="3"/>
				<port id="4"/>
			</input>
			<output>
				<port id="5" precision="FP32">
					<dim>1</dim>
					<dim>512</dim>
					<dim>13</dim>
					<dim>13</dim>
				</port>
			</output>
		</layer>
		<layer id="237" name="Mul1_3909/Fused_Mul_47434745_const" type="Const">
			<output>
				<port id="1" precision="FP32">
					<dim>1024</dim>
					<dim>512</dim>
					<dim>3</dim>
					<dim>3</dim>
				</port>
			</output>
			<blobs>
				<custom offset="39516192" precision="FP32" size="18874368"/>
			</blobs>
		</layer>
		<layer id="238" name="73747378_const" type="Const">
			<output>
				<port id="1" precision="FP32"/>
			</output>
			<blobs>
				<custom offset="58390560" precision="FP32" size="4"/>
			</blobs>
		</layer>
		<layer id="239" name="73757379_const" type="Const">
			<output>
				<port id="1" precision="FP32"/>
			</output>
			<blobs>
				<custom offset="58390564" precision="FP32" size="4"/>
			</blobs>
		</layer>
		<layer id="240" name="73767380_const" type="Const">
			<output>
				<port id="1" precision="FP32"/>
			</output>
			<blobs>
				<custom offset="58390560" precision="FP32" size="4"/>
			</blobs>
		</layer>
		<layer id="241" name="73777381_const" type="Const">
			<output>
				<port id="1" precision="FP32"/>
			</output>
			<blobs>
				<custom offset="58390564" precision="FP32" size="4"/>
			</blobs>
		</layer>
		<layer id="242" name="yolov2/darknet19_model/conv16/Conv2D/fq_weights_1" type="FakeQuantize">
			<data levels="255.0"/>
			<input>
				<port id="0">
					<dim>1024</dim>
					<dim>512</dim>
					<dim>3</dim>
					<dim>3</dim>
				</port>
				<port id="1"/>
				<port id="2"/>
				<port id="3"/>
				<port id="4"/>
			</input>
			<output>
				<port id="5" precision="FP32">
					<dim>1024</dim>
					<dim>512</dim>
					<dim>3</dim>
					<dim>3</dim>
				</port>
			</output>
		</layer>
		<layer id="243" name="bias_data47464747_const" type="Const">
			<output>
				<port id="1" precision="FP32">
					<dim>1024</dim>
				</port>
			</output>
			<blobs>
				<custom offset="58390568" precision="FP32" size="4096"/>
			</blobs>
		</layer>
		<layer id="244" name="yolov2/darknet19_model/conv16/Conv2D" type="Convolution">
			<data auto_pad="same_upper" dilations="1,1" group="1" kernel="3,3" output="1024" pads_begin="1,1" pads_end="1,1" strides="1,1"/>
			<input>
				<port id="0">
					<dim>1</dim>
					<dim>512</dim>
					<dim>13</dim>
					<dim>13</dim>
				</port>
				<port id="1">
					<dim>1024</dim>
					<dim>512</dim>
					<dim>3</dim>
					<dim>3</dim>
				</port>
				<port id="2">
					<dim>1024</dim>
				</port>
			</input>
			<output>
				<port id="3" precision="FP32">
					<dim>1</dim>
					<dim>1024</dim>
					<dim>13</dim>
					<dim>13</dim>
				</port>
			</output>
		</layer>
		<layer id="245" name="LeakyReLU_5348" type="ReLU">
			<data negative_slope="0.10000000149011612"/>
			<input>
				<port id="0">
					<dim>1</dim>
					<dim>1024</dim>
					<dim>13</dim>
					<dim>13</dim>
				</port>
			</input>
			<output>
				<port id="1" precision="FP32">
					<dim>1</dim>
					<dim>1024</dim>
					<dim>13</dim>
					<dim>13</dim>
				</port>
			</output>
		</layer>
		<layer id="246" name="74547458_const" type="Const">
			<output>
				<port id="1" precision="FP32"/>
			</output>
			<blobs>
				<custom offset="58394664" precision="FP32" size="4"/>
			</blobs>
		</layer>
		<layer id="247" name="74557459_const" type="Const">
			<output>
				<port id="1" precision="FP32"/>
			</output>
			<blobs>
				<custom offset="58394668" precision="FP32" size="4"/>
			</blobs>
		</layer>
		<layer id="248" name="74567460_const" type="Const">
			<output>
				<port id="1" precision="FP32"/>
			</output>
			<blobs>
				<custom offset="58394664" precision="FP32" size="4"/>
			</blobs>
		</layer>
		<layer id="249" name="74577461_const" type="Const">
			<output>
				<port id="1" precision="FP32"/>
			</output>
			<blobs>
				<custom offset="58394668" precision="FP32" size="4"/>
			</blobs>
		</layer>
		<layer id="250" name="yolov2/darknet19_model/conv17/Conv2D/fq_input_0" type="FakeQuantize">
			<data levels="256.0"/>
			<input>
				<port id="0">
					<dim>1</dim>
					<dim>1024</dim>
					<dim>13</dim>
					<dim>13</dim>
				</port>
				<port id="1"/>
				<port id="2"/>
				<port id="3"/>
				<port id="4"/>
			</input>
			<output>
				<port id="5" precision="FP32">
					<dim>1</dim>
					<dim>1024</dim>
					<dim>13</dim>
					<dim>13</dim>
				</port>
			</output>
		</layer>
		<layer id="251" name="Mul1_3825/Fused_Mul_47494751_const" type="Const">
			<output>
				<port id="1" precision="FP32">
					<dim>512</dim>
					<dim>1024</dim>
					<dim>1</dim>
					<dim>1</dim>
				</port>
			</output>
			<blobs>
				<custom offset="58394672" precision="FP32" size="2097152"/>
			</blobs>
		</layer>
		<layer id="252" name="74647468_const" type="Const">
			<output>
				<port id="1" precision="FP32"/>
			</output>
			<blobs>
				<custom offset="60491824" precision="FP32" size="4"/>
			</blobs>
		</layer>
		<layer id="253" name="74657469_const" type="Const">
			<output>
				<port id="1" precision="FP32"/>
			</output>
			<blobs>
				<custom offset="60491828" precision="FP32" size="4"/>
			</blobs>
		</layer>
		<layer id="254" name="74667470_const" type="Const">
			<output>
				<port id="1" precision="FP32"/>
			</output>
			<blobs>
				<custom offset="60491824" precision="FP32" size="4"/>
			</blobs>
		</layer>
		<layer id="255" name="74677471_const" type="Const">
			<output>
				<port id="1" precision="FP32"/>
			</output>
			<blobs>
				<custom offset="60491828" precision="FP32" size="4"/>
			</blobs>
		</layer>
		<layer id="256" name="yolov2/darknet19_model/conv17/Conv2D/fq_weights_1" type="FakeQuantize">
			<data levels="255.0"/>
			<input>
				<port id="0">
					<dim>512</dim>
					<dim>1024</dim>
					<dim>1</dim>
					<dim>1</dim>
				</port>
				<port id="1"/>
				<port id="2"/>
				<port id="3"/>
				<port id="4"/>
			</input>
			<output>
				<port id="5" precision="FP32">
					<dim>512</dim>
					<dim>1024</dim>
					<dim>1</dim>
					<dim>1</dim>
				</port>
			</output>
		</layer>
		<layer id="257" name="bias_data47524753_const" type="Const">
			<output>
				<port id="1" precision="FP32">
					<dim>512</dim>
				</port>
			</output>
			<blobs>
				<custom offset="60491832" precision="FP32" size="2048"/>
			</blobs>
		</layer>
		<layer id="258" name="yolov2/darknet19_model/conv17/Conv2D" type="Convolution">
			<data auto_pad="same_upper" dilations="1,1" group="1" kernel="1,1" output="512" pads_begin="0,0" pads_end="0,0" strides="1,1"/>
			<input>
				<port id="0">
					<dim>1</dim>
					<dim>1024</dim>
					<dim>13</dim>
					<dim>13</dim>
				</port>
				<port id="1">
					<dim>512</dim>
					<dim>1024</dim>
					<dim>1</dim>
					<dim>1</dim>
				</port>
				<port id="2">
					<dim>512</dim>
				</port>
			</input>
			<output>
				<port id="3" precision="FP32">
					<dim>1</dim>
					<dim>512</dim>
					<dim>13</dim>
					<dim>13</dim>
				</port>
			</output>
		</layer>
		<layer id="259" name="LeakyReLU_5352" type="ReLU">
			<data negative_slope="0.10000000149011612"/>
			<input>
				<port id="0">
					<dim>1</dim>
					<dim>512</dim>
					<dim>13</dim>
					<dim>13</dim>
				</port>
			</input>
			<output>
				<port id="1" precision="FP32">
					<dim>1</dim>
					<dim>512</dim>
					<dim>13</dim>
					<dim>13</dim>
				</port>
			</output>
		</layer>
		<layer id="260" name="74947498_const" type="Const">
			<output>
				<port id="1" precision="FP32"/>
			</output>
			<blobs>
				<custom offset="60493880" precision="FP32" size="4"/>
			</blobs>
		</layer>
		<layer id="261" name="74957499_const" type="Const">
			<output>
				<port id="1" precision="FP32"/>
			</output>
			<blobs>
				<custom offset="60493884" precision="FP32" size="4"/>
			</blobs>
		</layer>
		<layer id="262" name="74967500_const" type="Const">
			<output>
				<port id="1" precision="FP32"/>
			</output>
			<blobs>
				<custom offset="60493880" precision="FP32" size="4"/>
			</blobs>
		</layer>
		<layer id="263" name="74977501_const" type="Const">
			<output>
				<port id="1" precision="FP32"/>
			</output>
			<blobs>
				<custom offset="60493884" precision="FP32" size="4"/>
			</blobs>
		</layer>
		<layer id="264" name="yolov2/darknet19_model/conv18/Conv2D/fq_input_0" type="FakeQuantize">
			<data levels="256.0"/>
			<input>
				<port id="0">
					<dim>1</dim>
					<dim>512</dim>
					<dim>13</dim>
					<dim>13</dim>
				</port>
				<port id="1"/>
				<port id="2"/>
				<port id="3"/>
				<port id="4"/>
			</input>
			<output>
				<port id="5" precision="FP32">
					<dim>1</dim>
					<dim>512</dim>
					<dim>13</dim>
					<dim>13</dim>
				</port>
			</output>
		</layer>
		<layer id="265" name="Mul1_3813/Fused_Mul_47554757_const" type="Const">
			<output>
				<port id="1" precision="FP32">
					<dim>1024</dim>
					<dim>512</dim>
					<dim>3</dim>
					<dim>3</dim>
				</port>
			</output>
			<blobs>
				<custom offset="60493888" precision="FP32" size="18874368"/>
			</blobs>
		</layer>
		<layer id="266" name="75047508_const" type="Const">
			<output>
				<port id="1" precision="FP32"/>
			</output>
			<blobs>
				<custom offset="79368256" precision="FP32" size="4"/>
			</blobs>
		</layer>
		<layer id="267" name="75057509_const" type="Const">
			<output>
				<port id="1" precision="FP32"/>
			</output>
			<blobs>
				<custom offset="79368260" precision="FP32" size="4"/>
			</blobs>
		</layer>
		<layer id="268" name="75067510_const" type="Const">
			<output>
				<port id="1" precision="FP32"/>
			</output>
			<blobs>
				<custom offset="79368256" precision="FP32" size="4"/>
			</blobs>
		</layer>
		<layer id="269" name="75077511_const" type="Const">
			<output>
				<port id="1" precision="FP32"/>
			</output>
			<blobs>
				<custom offset="79368260" precision="FP32" size="4"/>
			</blobs>
		</layer>
		<layer id="270" name="yolov2/darknet19_model/conv18/Conv2D/fq_weights_1" type="FakeQuantize">
			<data levels="255.0"/>
			<input>
				<port id="0">
					<dim>1024</dim>
					<dim>512</dim>
					<dim>3</dim>
					<dim>3</dim>
				</port>
				<port id="1"/>
				<port id="2"/>
				<port id="3"/>
				<port id="4"/>
			</input>
			<output>
				<port id="5" precision="FP32">
					<dim>1024</dim>
					<dim>512</dim>
					<dim>3</dim>
					<dim>3</dim>
				</port>
			</output>
		</layer>
		<layer id="271" name="bias_data47584759_const" type="Const">
			<output>
				<port id="1" precision="FP32">
					<dim>1024</dim>
				</port>
			</output>
			<blobs>
				<custom offset="79368264" precision="FP32" size="4096"/>
			</blobs>
		</layer>
		<layer id="272" name="yolov2/darknet19_model/conv18/Conv2D" type="Convolution">
			<data auto_pad="same_upper" dilations="1,1" group="1" kernel="3,3" output="1024" pads_begin="1,1" pads_end="1,1" strides="1,1"/>
			<input>
				<port id="0">
					<dim>1</dim>
					<dim>512</dim>
					<dim>13</dim>
					<dim>13</dim>
				</port>
				<port id="1">
					<dim>1024</dim>
					<dim>512</dim>
					<dim>3</dim>
					<dim>3</dim>
				</port>
				<port id="2">
					<dim>1024</dim>
				</port>
			</input>
			<output>
				<port id="3" precision="FP32">
					<dim>1</dim>
					<dim>1024</dim>
					<dim>13</dim>
					<dim>13</dim>
				</port>
			</output>
		</layer>
		<layer id="273" name="LeakyReLU_5350" type="ReLU">
			<data negative_slope="0.10000000149011612"/>
			<input>
				<port id="0">
					<dim>1</dim>
					<dim>1024</dim>
					<dim>13</dim>
					<dim>13</dim>
				</port>
			</input>
			<output>
				<port id="1" precision="FP32">
					<dim>1</dim>
					<dim>1024</dim>
					<dim>13</dim>
					<dim>13</dim>
				</port>
			</output>
		</layer>
		<layer id="274" name="73847388_const" type="Const">
			<output>
				<port id="1" precision="FP32"/>
			</output>
			<blobs>
				<custom offset="79372360" precision="FP32" size="4"/>
			</blobs>
		</layer>
		<layer id="275" name="73857389_const" type="Const">
			<output>
				<port id="1" precision="FP32"/>
			</output>
			<blobs>
				<custom offset="79372364" precision="FP32" size="4"/>
			</blobs>
		</layer>
		<layer id="276" name="73867390_const" type="Const">
			<output>
				<port id="1" precision="FP32"/>
			</output>
			<blobs>
				<custom offset="79372360" precision="FP32" size="4"/>
			</blobs>
		</layer>
		<layer id="277" name="73877391_const" type="Const">
			<output>
				<port id="1" precision="FP32"/>
			</output>
			<blobs>
				<custom offset="79372364" precision="FP32" size="4"/>
			</blobs>
		</layer>
		<layer id="278" name="yolov2/yolov2_feature/higher_features/conv1/Conv2D/fq_input_0" type="FakeQuantize">
			<data levels="256.0"/>
			<input>
				<port id="0">
					<dim>1</dim>
					<dim>1024</dim>
					<dim>13</dim>
					<dim>13</dim>
				</port>
				<port id="1"/>
				<port id="2"/>
				<port id="3"/>
				<port id="4"/>
			</input>
			<output>
				<port id="5" precision="FP32">
					<dim>1</dim>
					<dim>1024</dim>
					<dim>13</dim>
					<dim>13</dim>
				</port>
			</output>
		</layer>
		<layer id="279" name="Mul1_3705/Fused_Mul_47614763_const" type="Const">
			<output>
				<port id="1" precision="FP32">
					<dim>1024</dim>
					<dim>1024</dim>
					<dim>3</dim>
					<dim>3</dim>
				</port>
			</output>
			<blobs>
				<custom offset="79372368" precision="FP32" size="37748736"/>
			</blobs>
		</layer>
		<layer id="280" name="73947398_const" type="Const">
			<output>
				<port id="1" precision="FP32"/>
			</output>
			<blobs>
				<custom offset="117121104" precision="FP32" size="4"/>
			</blobs>
		</layer>
		<layer id="281" name="73957399_const" type="Const">
			<output>
				<port id="1" precision="FP32"/>
			</output>
			<blobs>
				<custom offset="117121108" precision="FP32" size="4"/>
			</blobs>
		</layer>
		<layer id="282" name="73967400_const" type="Const">
			<output>
				<port id="1" precision="FP32"/>
			</output>
			<blobs>
				<custom offset="117121104" precision="FP32" size="4"/>
			</blobs>
		</layer>
		<layer id="283" name="73977401_const" type="Const">
			<output>
				<port id="1" precision="FP32"/>
			</output>
			<blobs>
				<custom offset="117121108" precision="FP32" size="4"/>
			</blobs>
		</layer>
		<layer id="284" name="yolov2/yolov2_feature/higher_features/conv1/Conv2D/fq_weights_1" type="FakeQuantize">
			<data levels="255.0"/>
			<input>
				<port id="0">
					<dim>1024</dim>
					<dim>1024</dim>
					<dim>3</dim>
					<dim>3</dim>
				</port>
				<port id="1"/>
				<port id="2"/>
				<port id="3"/>
				<port id="4"/>
			</input>
			<output>
				<port id="5" precision="FP32">
					<dim>1024</dim>
					<dim>1024</dim>
					<dim>3</dim>
					<dim>3</dim>
				</port>
			</output>
		</layer>
		<layer id="285" name="bias_data47644765_const" type="Const">
			<output>
				<port id="1" precision="FP32">
					<dim>1024</dim>
				</port>
			</output>
			<blobs>
				<custom offset="117121112" precision="FP32" size="4096"/>
			</blobs>
		</layer>
		<layer id="286" name="yolov2/yolov2_feature/higher_features/conv1/Conv2D" type="Convolution">
			<data auto_pad="same_upper" dilations="1,1" group="1" kernel="3,3" output="1024" pads_begin="1,1" pads_end="1,1" strides="1,1"/>
			<input>
				<port id="0">
					<dim>1</dim>
					<dim>1024</dim>
					<dim>13</dim>
					<dim>13</dim>
				</port>
				<port id="1">
					<dim>1024</dim>
					<dim>1024</dim>
					<dim>3</dim>
					<dim>3</dim>
				</port>
				<port id="2">
					<dim>1024</dim>
				</port>
			</input>
			<output>
				<port id="3" precision="FP32">
					<dim>1</dim>
					<dim>1024</dim>
					<dim>13</dim>
					<dim>13</dim>
				</port>
			</output>
		</layer>
		<layer id="287" name="LeakyReLU_5361" type="ReLU">
			<data negative_slope="0.10000000149011612"/>
			<input>
				<port id="0">
					<dim>1</dim>
					<dim>1024</dim>
					<dim>13</dim>
					<dim>13</dim>
				</port>
			</input>
			<output>
				<port id="1" precision="FP32">
					<dim>1</dim>
					<dim>1024</dim>
					<dim>13</dim>
					<dim>13</dim>
				</port>
			</output>
		</layer>
		<layer id="288" name="72647268_const" type="Const">
			<output>
				<port id="1" precision="FP32"/>
			</output>
			<blobs>
				<custom offset="117125208" precision="FP32" size="4"/>
			</blobs>
		</layer>
		<layer id="289" name="72657269_const" type="Const">
			<output>
				<port id="1" precision="FP32"/>
			</output>
			<blobs>
				<custom offset="117125212" precision="FP32" size="4"/>
			</blobs>
		</layer>
		<layer id="290" name="72667270_const" type="Const">
			<output>
				<port id="1" precision="FP32"/>
			</output>
			<blobs>
				<custom offset="117125208" precision="FP32" size="4"/>
			</blobs>
		</layer>
		<layer id="291" name="72677271_const" type="Const">
			<output>
				<port id="1" precision="FP32"/>
			</output>
			<blobs>
				<custom offset="117125212" precision="FP32" size="4"/>
			</blobs>
		</layer>
		<layer id="292" name="yolov2/yolov2_feature/higher_features/conv2/Conv2D/fq_input_0" type="FakeQuantize">
			<data levels="256.0"/>
			<input>
				<port id="0">
					<dim>1</dim>
					<dim>1024</dim>
					<dim>13</dim>
					<dim>13</dim>
				</port>
				<port id="1"/>
				<port id="2"/>
				<port id="3"/>
				<port id="4"/>
			</input>
			<output>
				<port id="5" precision="FP32">
					<dim>1</dim>
					<dim>1024</dim>
					<dim>13</dim>
					<dim>13</dim>
				</port>
			</output>
		</layer>
		<layer id="293" name="Mul1_3921/Fused_Mul_47674769_const" type="Const">
			<output>
				<port id="1" precision="FP32">
					<dim>1024</dim>
					<dim>1024</dim>
					<dim>3</dim>
					<dim>3</dim>
				</port>
			</output>
			<blobs>
				<custom offset="117125216" precision="FP32" size="37748736"/>
			</blobs>
		</layer>
		<layer id="294" name="72747278_const" type="Const">
			<output>
				<port id="1" precision="FP32"/>
			</output>
			<blobs>
				<custom offset="154873952" precision="FP32" size="4"/>
			</blobs>
		</layer>
		<layer id="295" name="72757279_const" type="Const">
			<output>
				<port id="1" precision="FP32"/>
			</output>
			<blobs>
				<custom offset="154873956" precision="FP32" size="4"/>
			</blobs>
		</layer>
		<layer id="296" name="72767280_const" type="Const">
			<output>
				<port id="1" precision="FP32"/>
			</output>
			<blobs>
				<custom offset="154873952" precision="FP32" size="4"/>
			</blobs>
		</layer>
		<layer id="297" name="72777281_const" type="Const">
			<output>
				<port id="1" precision="FP32"/>
			</output>
			<blobs>
				<custom offset="154873956" precision="FP32" size="4"/>
			</blobs>
		</layer>
		<layer id="298" name="yolov2/yolov2_feature/higher_features/conv2/Conv2D/fq_weights_1" type="FakeQuantize">
			<data levels="255.0"/>
			<input>
				<port id="0">
					<dim>1024</dim>
					<dim>1024</dim>
					<dim>3</dim>
					<dim>3</dim>
				</port>
				<port id="1"/>
				<port id="2"/>
				<port id="3"/>
				<port id="4"/>
			</input>
			<output>
				<port id="5" precision="FP32">
					<dim>1024</dim>
					<dim>1024</dim>
					<dim>3</dim>
					<dim>3</dim>
				</port>
			</output>
		</layer>
		<layer id="299" name="bias_data47704771_const" type="Const">
			<output>
				<port id="1" precision="FP32">
					<dim>1024</dim>
				</port>
			</output>
			<blobs>
				<custom offset="154873960" precision="FP32" size="4096"/>
			</blobs>
		</layer>
		<layer id="300" name="yolov2/yolov2_feature/higher_features/conv2/Conv2D" type="Convolution">
			<data auto_pad="same_upper" dilations="1,1" group="1" kernel="3,3" output="1024" pads_begin="1,1" pads_end="1,1" strides="1,1"/>
			<input>
				<port id="0">
					<dim>1</dim>
					<dim>1024</dim>
					<dim>13</dim>
					<dim>13</dim>
				</port>
				<port id="1">
					<dim>1024</dim>
					<dim>1024</dim>
					<dim>3</dim>
					<dim>3</dim>
				</port>
				<port id="2">
					<dim>1024</dim>
				</port>
			</input>
			<output>
				<port id="3" precision="FP32">
					<dim>1</dim>
					<dim>1024</dim>
					<dim>13</dim>
					<dim>13</dim>
				</port>
			</output>
		</layer>
		<layer id="301" name="LeakyReLU_5345" type="ReLU">
			<data negative_slope="0.10000000149011612"/>
			<input>
				<port id="0">
					<dim>1</dim>
					<dim>1024</dim>
					<dim>13</dim>
					<dim>13</dim>
				</port>
			</input>
			<output>
				<port id="1" precision="FP32">
					<dim>1</dim>
					<dim>1024</dim>
					<dim>13</dim>
					<dim>13</dim>
				</port>
			</output>
		</layer>
		<layer id="302" name="78107814_const" type="Const">
			<output>
				<port id="1" precision="FP32"/>
			</output>
			<blobs>
				<custom offset="154878056" precision="FP32" size="4"/>
			</blobs>
		</layer>
		<layer id="303" name="78117815_const" type="Const">
			<output>
				<port id="1" precision="FP32"/>
			</output>
			<blobs>
				<custom offset="154878060" precision="FP32" size="4"/>
			</blobs>
		</layer>
		<layer id="304" name="78127816_const" type="Const">
			<output>
				<port id="1" precision="FP32"/>
			</output>
			<blobs>
				<custom offset="154878056" precision="FP32" size="4"/>
			</blobs>
		</layer>
		<layer id="305" name="78137817_const" type="Const">
			<output>
				<port id="1" precision="FP32"/>
			</output>
			<blobs>
				<custom offset="154878060" precision="FP32" size="4"/>
			</blobs>
		</layer>
		<layer id="306" name="yolov2/yolov2_feature/hyper_features/concat/fq_input_1" type="FakeQuantize">
			<data levels="256.0"/>
			<input>
				<port id="0">
					<dim>1</dim>
					<dim>1024</dim>
					<dim>13</dim>
					<dim>13</dim>
				</port>
				<port id="1"/>
				<port id="2"/>
				<port id="3"/>
				<port id="4"/>
			</input>
			<output>
				<port id="5" precision="FP32">
					<dim>1</dim>
					<dim>1024</dim>
					<dim>13</dim>
					<dim>13</dim>
				</port>
			</output>
		</layer>
		<layer id="307" name="yolov2/yolov2_feature/hyper_features/concat" type="Concat">
			<data axis="1"/>
			<input>
				<port id="0">
					<dim>1</dim>
					<dim>256</dim>
					<dim>13</dim>
					<dim>13</dim>
				</port>
				<port id="1">
					<dim>1</dim>
					<dim>1024</dim>
					<dim>13</dim>
					<dim>13</dim>
				</port>
			</input>
			<output>
				<port id="2" precision="FP32">
					<dim>1</dim>
					<dim>1280</dim>
					<dim>13</dim>
					<dim>13</dim>
				</port>
			</output>
		</layer>
		<layer id="308" name="Mul1_/Fused_Mul_47734775_const" type="Const">
			<output>
				<port id="1" precision="FP32">
					<dim>1024</dim>
					<dim>1280</dim>
					<dim>3</dim>
					<dim>3</dim>
				</port>
			</output>
			<blobs>
				<custom offset="154878064" precision="FP32" size="47185920"/>
			</blobs>
		</layer>
		<layer id="309" name="74847488_const" type="Const">
			<output>
				<port id="1" precision="FP32"/>
			</output>
			<blobs>
				<custom offset="202063984" precision="FP32" size="4"/>
			</blobs>
		</layer>
		<layer id="310" name="74857489_const" type="Const">
			<output>
				<port id="1" precision="FP32"/>
			</output>
			<blobs>
				<custom offset="202063988" precision="FP32" size="4"/>
			</blobs>
		</layer>
		<layer id="311" name="74867490_const" type="Const">
			<output>
				<port id="1" precision="FP32"/>
			</output>
			<blobs>
				<custom offset="202063984" precision="FP32" size="4"/>
			</blobs>
		</layer>
		<layer id="312" name="74877491_const" type="Const">
			<output>
				<port id="1" precision="FP32"/>
			</output>
			<blobs>
				<custom offset="202063988" precision="FP32" size="4"/>
			</blobs>
		</layer>
		<layer id="313" name="yolov2/yolov2_feature/hyper_features/conv/Conv2D/fq_weights_1" type="FakeQuantize">
			<data levels="255.0"/>
			<input>
				<port id="0">
					<dim>1024</dim>
					<dim>1280</dim>
					<dim>3</dim>
					<dim>3</dim>
				</port>
				<port id="1"/>
				<port id="2"/>
				<port id="3"/>
				<port id="4"/>
			</input>
			<output>
				<port id="5" precision="FP32">
					<dim>1024</dim>
					<dim>1280</dim>
					<dim>3</dim>
					<dim>3</dim>
				</port>
			</output>
		</layer>
		<layer id="314" name="bias_data47764777_const" type="Const">
			<output>
				<port id="1" precision="FP32">
					<dim>1024</dim>
				</port>
			</output>
			<blobs>
				<custom offset="202063992" precision="FP32" size="4096"/>
			</blobs>
		</layer>
		<layer id="315" name="yolov2/yolov2_feature/hyper_features/conv/Conv2D" type="Convolution">
			<data auto_pad="same_upper" dilations="1,1" group="1" kernel="3,3" output="1024" pads_begin="1,1" pads_end="1,1" strides="1,1"/>
			<input>
				<port id="0">
					<dim>1</dim>
					<dim>1280</dim>
					<dim>13</dim>
					<dim>13</dim>
				</port>
				<port id="1">
					<dim>1024</dim>
					<dim>1280</dim>
					<dim>3</dim>
					<dim>3</dim>
				</port>
				<port id="2">
					<dim>1024</dim>
				</port>
			</input>
			<output>
				<port id="3" precision="FP32">
					<dim>1</dim>
					<dim>1024</dim>
					<dim>13</dim>
					<dim>13</dim>
				</port>
			</output>
		</layer>
		<layer id="316" name="LeakyReLU_5358" type="ReLU">
			<data negative_slope="0.10000000149011612"/>
			<input>
				<port id="0">
					<dim>1</dim>
					<dim>1024</dim>
					<dim>13</dim>
					<dim>13</dim>
				</port>
			</input>
			<output>
				<port id="1" precision="FP32">
					<dim>1</dim>
					<dim>1024</dim>
					<dim>13</dim>
					<dim>13</dim>
				</port>
			</output>
		</layer>
		<layer id="317" name="72847288_const" type="Const">
			<output>
				<port id="1" precision="FP32"/>
			</output>
			<blobs>
				<custom offset="202068088" precision="FP32" size="4"/>
			</blobs>
		</layer>
		<layer id="318" name="72857289_const" type="Const">
			<output>
				<port id="1" precision="FP32"/>
			</output>
			<blobs>
				<custom offset="202068092" precision="FP32" size="4"/>
			</blobs>
		</layer>
		<layer id="319" name="72867290_const" type="Const">
			<output>
				<port id="1" precision="FP32"/>
			</output>
			<blobs>
				<custom offset="202068088" precision="FP32" size="4"/>
			</blobs>
		</layer>
		<layer id="320" name="72877291_const" type="Const">
			<output>
				<port id="1" precision="FP32"/>
			</output>
			<blobs>
				<custom offset="202068092" precision="FP32" size="4"/>
			</blobs>
		</layer>
		<layer id="321" name="yolov2/yolov2_outputs/output_raw/Conv2D/fq_input_0" type="FakeQuantize">
			<data levels="256.0"/>
			<input>
				<port id="0">
					<dim>1</dim>
					<dim>1024</dim>
					<dim>13</dim>
					<dim>13</dim>
				</port>
				<port id="1"/>
				<port id="2"/>
				<port id="3"/>
				<port id="4"/>
			</input>
			<output>
				<port id="5" precision="FP32">
					<dim>1</dim>
					<dim>1024</dim>
					<dim>13</dim>
					<dim>13</dim>
				</port>
			</output>
		</layer>
		<layer id="322" name="yolov2/output_raw/W/read/Output_0/Data__const" type="Const">
			<output>
				<port id="1" precision="FP32">
					<dim>125</dim>
					<dim>1024</dim>
					<dim>1</dim>
					<dim>1</dim>
				</port>
			</output>
			<blobs>
				<custom offset="202068096" precision="FP32" size="512000"/>
			</blobs>
		</layer>
		<layer id="323" name="72947298_const" type="Const">
			<output>
				<port id="1" precision="FP32"/>
			</output>
			<blobs>
				<custom offset="202580096" precision="FP32" size="4"/>
			</blobs>
		</layer>
		<layer id="324" name="72957299_const" type="Const">
			<output>
				<port id="1" precision="FP32"/>
			</output>
			<blobs>
				<custom offset="202580100" precision="FP32" size="4"/>
			</blobs>
		</layer>
		<layer id="325" name="72967300_const" type="Const">
			<output>
				<port id="1" precision="FP32"/>
			</output>
			<blobs>
				<custom offset="202580096" precision="FP32" size="4"/>
			</blobs>
		</layer>
		<layer id="326" name="72977301_const" type="Const">
			<output>
				<port id="1" precision="FP32"/>
			</output>
			<blobs>
				<custom offset="202580100" precision="FP32" size="4"/>
			</blobs>
		</layer>
		<layer id="327" name="yolov2/yolov2_outputs/output_raw/Conv2D/fq_weights_1" type="FakeQuantize">
			<data levels="255.0"/>
			<input>
				<port id="0">
					<dim>125</dim>
					<dim>1024</dim>
					<dim>1</dim>
					<dim>1</dim>
				</port>
				<port id="1"/>
				<port id="2"/>
				<port id="3"/>
				<port id="4"/>
			</input>
			<output>
				<port id="5" precision="FP32">
					<dim>125</dim>
					<dim>1024</dim>
					<dim>1</dim>
					<dim>1</dim>
				</port>
			</output>
		</layer>
		<layer id="328" name="bias_data47784779_const" type="Const">
			<output>
				<port id="1" precision="FP32">
					<dim>125</dim>
				</port>
			</output>
			<blobs>
				<custom offset="202580104" precision="FP32" size="500"/>
			</blobs>
		</layer>
		<layer id="329" name="yolov2/yolov2_outputs/output_raw/Conv2D" type="Convolution">
			<data auto_pad="same_upper" dilations="1,1" group="1" kernel="1,1" output="125" pads_begin="0,0" pads_end="0,0" strides="1,1"/>
			<input>
				<port id="0">
					<dim>1</dim>
					<dim>1024</dim>
					<dim>13</dim>
					<dim>13</dim>
				</port>
				<port id="1">
					<dim>125</dim>
					<dim>1024</dim>
					<dim>1</dim>
					<dim>1</dim>
				</port>
				<port id="2">
					<dim>125</dim>
				</port>
			</input>
			<output>
				<port id="3" precision="FP32">
					<dim>1</dim>
					<dim>125</dim>
					<dim>13</dim>
					<dim>13</dim>
				</port>
			</output>
		</layer>
		<layer id="330" name="output_openvino/YoloRegion" type="RegionYolo">
			<data axis="1" classes="20" coords="4" do_softmax="1" end_axis="3" num="5"/>
			<input>
				<port id="0">
					<dim>1</dim>
					<dim>125</dim>
					<dim>13</dim>
					<dim>13</dim>
				</port>
			</input>
			<output>
				<port id="1" precision="FP32">
					<dim>1</dim>
					<dim>21125</dim>
				</port>
			</output>
		</layer>
	</layers>
	<edges>
		<edge from-layer="0" from-port="0" to-layer="1" to-port="0"/>
		<edge from-layer="1" from-port="3" to-layer="6" to-port="0"/>
		<edge from-layer="2" from-port="1" to-layer="6" to-port="1"/>
		<edge from-layer="3" from-port="1" to-layer="6" to-port="2"/>
		<edge from-layer="4" from-port="1" to-layer="6" to-port="3"/>
		<edge from-layer="5" from-port="1" to-layer="6" to-port="4"/>
		<edge from-layer="7" from-port="1" to-layer="12" to-port="0"/>
		<edge from-layer="8" from-port="1" to-layer="12" to-port="1"/>
		<edge from-layer="9" from-port="1" to-layer="12" to-port="2"/>
		<edge from-layer="10" from-port="1" to-layer="12" to-port="3"/>
		<edge from-layer="11" from-port="1" to-layer="12" to-port="4"/>
		<edge from-layer="6" from-port="5" to-layer="14" to-port="0"/>
		<edge from-layer="12" from-port="5" to-layer="14" to-port="1"/>
		<edge from-layer="13" from-port="1" to-layer="14" to-port="2"/>
		<edge from-layer="14" from-port="3" to-layer="15" to-port="0"/>
		<edge from-layer="15" from-port="1" to-layer="20" to-port="0"/>
		<edge from-layer="16" from-port="1" to-layer="20" to-port="1"/>
		<edge from-layer="17" from-port="1" to-layer="20" to-port="2"/>
		<edge from-layer="18" from-port="1" to-layer="20" to-port="3"/>
		<edge from-layer="19" from-port="1" to-layer="20" to-port="4"/>
		<edge from-layer="20" from-port="5" to-layer="21" to-port="0"/>
		<edge from-layer="22" from-port="1" to-layer="27" to-port="0"/>
		<edge from-layer="23" from-port="1" to-layer="27" to-port="1"/>
		<edge from-layer="24" from-port="1" to-layer="27" to-port="2"/>
		<edge from-layer="25" from-port="1" to-layer="27" to-port="3"/>
		<edge from-layer="26" from-port="1" to-layer="27" to-port="4"/>
		<edge from-layer="21" from-port="1" to-layer="29" to-port="0"/>
		<edge from-layer="27" from-port="5" to-layer="29" to-port="1"/>
		<edge from-layer="28" from-port="1" to-layer="29" to-port="2"/>
		<edge from-layer="29" from-port="3" to-layer="30" to-port="0"/>
		<edge from-layer="30" from-port="1" to-layer="35" to-port="0"/>
		<edge from-layer="31" from-port="1" to-layer="35" to-port="1"/>
		<edge from-layer="32" from-port="1" to-layer="35" to-port="2"/>
		<edge from-layer="33" from-port="1" to-layer="35" to-port="3"/>
		<edge from-layer="34" from-port="1" to-layer="35" to-port="4"/>
		<edge from-layer="35" from-port="5" to-layer="36" to-port="0"/>
		<edge from-layer="37" from-port="1" to-layer="42" to-port="0"/>
		<edge from-layer="38" from-port="1" to-layer="42" to-port="1"/>
		<edge from-layer="39" from-port="1" to-layer="42" to-port="2"/>
		<edge from-layer="40" from-port="1" to-layer="42" to-port="3"/>
		<edge from-layer="41" from-port="1" to-layer="42" to-port="4"/>
		<edge from-layer="36" from-port="1" to-layer="44" to-port="0"/>
		<edge from-layer="42" from-port="5" to-layer="44" to-port="1"/>
		<edge from-layer="43" from-port="1" to-layer="44" to-port="2"/>
		<edge from-layer="44" from-port="3" to-layer="45" to-port="0"/>
		<edge from-layer="45" from-port="1" to-layer="50" to-port="0"/>
		<edge from-layer="46" from-port="1" to-layer="50" to-port="1"/>
		<edge from-layer="47" from-port="1" to-layer="50" to-port="2"/>
		<edge from-layer="48" from-port="1" to-layer="50" to-port="3"/>
		<edge from-layer="49" from-port="1" to-layer="50" to-port="4"/>
		<edge from-layer="51" from-port="1" to-layer="56" to-port="0"/>
		<edge from-layer="52" from-port="1" to-layer="56" to-port="1"/>
		<edge from-layer="53" from-port="1" to-layer="56" to-port="2"/>
		<edge from-layer="54" from-port="1" to-layer="56" to-port="3"/>
		<edge from-layer="55" from-port="1" to-layer="56" to-port="4"/>
		<edge from-layer="50" from-port="5" to-layer="58" to-port="0"/>
		<edge from-layer="56" from-port="5" to-layer="58" to-port="1"/>
		<edge from-layer="57" from-port="1" to-layer="58" to-port="2"/>
		<edge from-layer="58" from-port="3" to-layer="59" to-port="0"/>
		<edge from-layer="59" from-port="1" to-layer="64" to-port="0"/>
		<edge from-layer="60" from-port="1" to-layer="64" to-port="1"/>
		<edge from-layer="61" from-port="1" to-layer="64" to-port="2"/>
		<edge from-layer="62" from-port="1" to-layer="64" to-port="3"/>
		<edge from-layer="63" from-port="1" to-layer="64" to-port="4"/>
		<edge from-layer="65" from-port="1" to-layer="70" to-port="0"/>
		<edge from-layer="66" from-port="1" to-layer="70" to-port="1"/>
		<edge from-layer="67" from-port="1" to-layer="70" to-port="2"/>
		<edge from-layer="68" from-port="1" to-layer="70" to-port="3"/>
		<edge from-layer="69" from-port="1" to-layer="70" to-port="4"/>
		<edge from-layer="64" from-port="5" to-layer="72" to-port="0"/>
		<edge from-layer="70" from-port="5" to-layer="72" to-port="1"/>
		<edge from-layer="71" from-port="1" to-layer="72" to-port="2"/>
		<edge from-layer="72" from-port="3" to-layer="73" to-port="0"/>
		<edge from-layer="73" from-port="1" to-layer="78" to-port="0"/>
		<edge from-layer="74" from-port="1" to-layer="78" to-port="1"/>
		<edge from-layer="75" from-port="1" to-layer="78" to-port="2"/>
		<edge from-layer="76" from-port="1" to-layer="78" to-port="3"/>
		<edge from-layer="77" from-port="1" to-layer="78" to-port="4"/>
		<edge from-layer="78" from-port="5" to-layer="79" to-port="0"/>
		<edge from-layer="80" from-port="1" to-layer="85" to-port="0"/>
		<edge from-layer="81" from-port="1" to-layer="85" to-port="1"/>
		<edge from-layer="82" from-port="1" to-layer="85" to-port="2"/>
		<edge from-layer="83" from-port="1" to-layer="85" to-port="3"/>
		<edge from-layer="84" from-port="1" to-layer="85" to-port="4"/>
		<edge from-layer="79" from-port="1" to-layer="87" to-port="0"/>
		<edge from-layer="85" from-port="5" to-layer="87" to-port="1"/>
		<edge from-layer="86" from-port="1" to-layer="87" to-port="2"/>
		<edge from-layer="87" from-port="3" to-layer="88" to-port="0"/>
		<edge from-layer="88" from-port="1" to-layer="93" to-port="0"/>
		<edge from-layer="89" from-port="1" to-layer="93" to-port="1"/>
		<edge from-layer="90" from-port="1" to-layer="93" to-port="2"/>
		<edge from-layer="91" from-port="1" to-layer="93" to-port="3"/>
		<edge from-layer="92" from-port="1" to-layer="93" to-port="4"/>
		<edge from-layer="94" from-port="1" to-layer="99" to-port="0"/>
		<edge from-layer="95" from-port="1" to-layer="99" to-port="1"/>
		<edge from-layer="96" from-port="1" to-layer="99" to-port="2"/>
		<edge from-layer="97" from-port="1" to-layer="99" to-port="3"/>
		<edge from-layer="98" from-port="1" to-layer="99" to-port="4"/>
		<edge from-layer="93" from-port="5" to-layer="101" to-port="0"/>
		<edge from-layer="99" from-port="5" to-layer="101" to-port="1"/>
		<edge from-layer="100" from-port="1" to-layer="101" to-port="2"/>
		<edge from-layer="101" from-port="3" to-layer="102" to-port="0"/>
		<edge from-layer="102" from-port="1" to-layer="107" to-port="0"/>
		<edge from-layer="103" from-port="1" to-layer="107" to-port="1"/>
		<edge from-layer="104" from-port="1" to-layer="107" to-port="2"/>
		<edge from-layer="105" from-port="1" to-layer="107" to-port="3"/>
		<edge from-layer="106" from-port="1" to-layer="107" to-port="4"/>
		<edge from-layer="108" from-port="1" to-layer="113" to-port="0"/>
		<edge from-layer="109" from-port="1" to-layer="113" to-port="1"/>
		<edge from-layer="110" from-port="1" to-layer="113" to-port="2"/>
		<edge from-layer="111" from-port="1" to-layer="113" to-port="3"/>
		<edge from-layer="112" from-port="1" to-layer="113" to-port="4"/>
		<edge from-layer="107" from-port="5" to-layer="115" to-port="0"/>
		<edge from-layer="113" from-port="5" to-layer="115" to-port="1"/>
		<edge from-layer="114" from-port="1" to-layer="115" to-port="2"/>
		<edge from-layer="115" from-port="3" to-layer="116" to-port="0"/>
		<edge from-layer="116" from-port="1" to-layer="121" to-port="0"/>
		<edge from-layer="117" from-port="1" to-layer="121" to-port="1"/>
		<edge from-layer="118" from-port="1" to-layer="121" to-port="2"/>
		<edge from-layer="119" from-port="1" to-layer="121" to-port="3"/>
		<edge from-layer="120" from-port="1" to-layer="121" to-port="4"/>
		<edge from-layer="121" from-port="5" to-layer="122" to-port="0"/>
		<edge from-layer="123" from-port="1" to-layer="128" to-port="0"/>
		<edge from-layer="124" from-port="1" to-layer="128" to-port="1"/>
		<edge from-layer="125" from-port="1" to-layer="128" to-port="2"/>
		<edge from-layer="126" from-port="1" to-layer="128" to-port="3"/>
		<edge from-layer="127" from-port="1" to-layer="128" to-port="4"/>
		<edge from-layer="122" from-port="1" to-layer="130" to-port="0"/>
		<edge from-layer="128" from-port="5" to-layer="130" to-port="1"/>
		<edge from-layer="129" from-port="1" to-layer="130" to-port="2"/>
		<edge from-layer="130" from-port="3" to-layer="131" to-port="0"/>
		<edge from-layer="131" from-port="1" to-layer="136" to-port="0"/>
		<edge from-layer="132" from-port="1" to-layer="136" to-port="1"/>
		<edge from-layer="133" from-port="1" to-layer="136" to-port="2"/>
		<edge from-layer="134" from-port="1" to-layer="136" to-port="3"/>
		<edge from-layer="135" from-port="1" to-layer="136" to-port="4"/>
		<edge from-layer="137" from-port="1" to-layer="142" to-port="0"/>
		<edge from-layer="138" from-port="1" to-layer="142" to-port="1"/>
		<edge from-layer="139" from-port="1" to-layer="142" to-port="2"/>
		<edge from-layer="140" from-port="1" to-layer="142" to-port="3"/>
		<edge from-layer="141" from-port="1" to-layer="142" to-port="4"/>
		<edge from-layer="136" from-port="5" to-layer="144" to-port="0"/>
		<edge from-layer="142" from-port="5" to-layer="144" to-port="1"/>
		<edge from-layer="143" from-port="1" to-layer="144" to-port="2"/>
		<edge from-layer="144" from-port="3" to-layer="145" to-port="0"/>
		<edge from-layer="145" from-port="1" to-layer="150" to-port="0"/>
		<edge from-layer="146" from-port="1" to-layer="150" to-port="1"/>
		<edge from-layer="147" from-port="1" to-layer="150" to-port="2"/>
		<edge from-layer="148" from-port="1" to-layer="150" to-port="3"/>
		<edge from-layer="149" from-port="1" to-layer="150" to-port="4"/>
		<edge from-layer="151" from-port="1" to-layer="156" to-port="0"/>
		<edge from-layer="152" from-port="1" to-layer="156" to-port="1"/>
		<edge from-layer="153" from-port="1" to-layer="156" to-port="2"/>
		<edge from-layer="154" from-port="1" to-layer="156" to-port="3"/>
		<edge from-layer="155" from-port="1" to-layer="156" to-port="4"/>
		<edge from-layer="150" from-port="5" to-layer="158" to-port="0"/>
		<edge from-layer="156" from-port="5" to-layer="158" to-port="1"/>
		<edge from-layer="157" from-port="1" to-layer="158" to-port="2"/>
		<edge from-layer="158" from-port="3" to-layer="159" to-port="0"/>
		<edge from-layer="159" from-port="1" to-layer="164" to-port="0"/>
		<edge from-layer="160" from-port="1" to-layer="164" to-port="1"/>
		<edge from-layer="161" from-port="1" to-layer="164" to-port="2"/>
		<edge from-layer="162" from-port="1" to-layer="164" to-port="3"/>
		<edge from-layer="163" from-port="1" to-layer="164" to-port="4"/>
		<edge from-layer="165" from-port="1" to-layer="170" to-port="0"/>
		<edge from-layer="166" from-port="1" to-layer="170" to-port="1"/>
		<edge from-layer="167" from-port="1" to-layer="170" to-port="2"/>
		<edge from-layer="168" from-port="1" to-layer="170" to-port="3"/>
		<edge from-layer="169" from-port="1" to-layer="170" to-port="4"/>
		<edge from-layer="164" from-port="5" to-layer="172" to-port="0"/>
		<edge from-layer="170" from-port="5" to-layer="172" to-port="1"/>
		<edge from-layer="171" from-port="1" to-layer="172" to-port="2"/>
		<edge from-layer="172" from-port="3" to-layer="173" to-port="0"/>
		<edge from-layer="173" from-port="1" to-layer="178" to-port="0"/>
		<edge from-layer="174" from-port="1" to-layer="178" to-port="1"/>
		<edge from-layer="175" from-port="1" to-layer="178" to-port="2"/>
		<edge from-layer="176" from-port="1" to-layer="178" to-port="3"/>
		<edge from-layer="177" from-port="1" to-layer="178" to-port="4"/>
		<edge from-layer="179" from-port="1" to-layer="184" to-port="0"/>
		<edge from-layer="180" from-port="1" to-layer="184" to-port="1"/>
		<edge from-layer="181" from-port="1" to-layer="184" to-port="2"/>
		<edge from-layer="182" from-port="1" to-layer="184" to-port="3"/>
		<edge from-layer="183" from-port="1" to-layer="184" to-port="4"/>
		<edge from-layer="178" from-port="5" to-layer="186" to-port="0"/>
		<edge from-layer="184" from-port="5" to-layer="186" to-port="1"/>
		<edge from-layer="185" from-port="1" to-layer="186" to-port="2"/>
		<edge from-layer="186" from-port="3" to-layer="187" to-port="0"/>
		<edge from-layer="187" from-port="1" to-layer="192" to-port="0"/>
		<edge from-layer="188" from-port="1" to-layer="192" to-port="1"/>
		<edge from-layer="189" from-port="1" to-layer="192" to-port="2"/>
		<edge from-layer="190" from-port="1" to-layer="192" to-port="3"/>
		<edge from-layer="191" from-port="1" to-layer="192" to-port="4"/>
		<edge from-layer="193" from-port="1" to-layer="198" to-port="0"/>
		<edge from-layer="194" from-port="1" to-layer="198" to-port="1"/>
		<edge from-layer="195" from-port="1" to-layer="198" to-port="2"/>
		<edge from-layer="196" from-port="1" to-layer="198" to-port="3"/>
		<edge from-layer="197" from-port="1" to-layer="198" to-port="4"/>
		<edge from-layer="192" from-port="5" to-layer="200" to-port="0"/>
		<edge from-layer="198" from-port="5" to-layer="200" to-port="1"/>
		<edge from-layer="199" from-port="1" to-layer="200" to-port="2"/>
		<edge from-layer="200" from-port="3" to-layer="201" to-port="0"/>
		<edge from-layer="201" from-port="1" to-layer="202" to-port="0"/>
		<edge from-layer="202" from-port="1" to-layer="207" to-port="0"/>
		<edge from-layer="203" from-port="1" to-layer="207" to-port="1"/>
		<edge from-layer="204" from-port="1" to-layer="207" to-port="2"/>
		<edge from-layer="205" from-port="1" to-layer="207" to-port="3"/>
		<edge from-layer="206" from-port="1" to-layer="207" to-port="4"/>
		<edge from-layer="192" from-port="5" to-layer="208" to-port="0"/>
		<edge from-layer="209" from-port="1" to-layer="214" to-port="0"/>
		<edge from-layer="210" from-port="1" to-layer="214" to-port="1"/>
		<edge from-layer="211" from-port="1" to-layer="214" to-port="2"/>
		<edge from-layer="212" from-port="1" to-layer="214" to-port="3"/>
		<edge from-layer="213" from-port="1" to-layer="214" to-port="4"/>
		<edge from-layer="208" from-port="1" to-layer="216" to-port="0"/>
		<edge from-layer="214" from-port="5" to-layer="216" to-port="1"/>
		<edge from-layer="215" from-port="1" to-layer="216" to-port="2"/>
		<edge from-layer="216" from-port="3" to-layer="217" to-port="0"/>
		<edge from-layer="217" from-port="1" to-layer="222" to-port="0"/>
		<edge from-layer="218" from-port="1" to-layer="222" to-port="1"/>
		<edge from-layer="219" from-port="1" to-layer="222" to-port="2"/>
		<edge from-layer="220" from-port="1" to-layer="222" to-port="3"/>
		<edge from-layer="221" from-port="1" to-layer="222" to-port="4"/>
		<edge from-layer="223" from-port="1" to-layer="228" to-port="0"/>
		<edge from-layer="224" from-port="1" to-layer="228" to-port="1"/>
		<edge from-layer="225" from-port="1" to-layer="228" to-port="2"/>
		<edge from-layer="226" from-port="1" to-layer="228" to-port="3"/>
		<edge from-layer="227" from-port="1" to-layer="228" to-port="4"/>
		<edge from-layer="222" from-port="5" to-layer="230" to-port="0"/>
		<edge from-layer="228" from-port="5" to-layer="230" to-port="1"/>
		<edge from-layer="229" from-port="1" to-layer="230" to-port="2"/>
		<edge from-layer="230" from-port="3" to-layer="231" to-port="0"/>
		<edge from-layer="231" from-port="1" to-layer="236" to-port="0"/>
		<edge from-layer="232" from-port="1" to-layer="236" to-port="1"/>
		<edge from-layer="233" from-port="1" to-layer="236" to-port="2"/>
		<edge from-layer="234" from-port="1" to-layer="236" to-port="3"/>
		<edge from-layer="235" from-port="1" to-layer="236" to-port="4"/>
		<edge from-layer="237" from-port="1" to-layer="242" to-port="0"/>
		<edge from-layer="238" from-port="1" to-layer="242" to-port="1"/>
		<edge from-layer="239" from-port="1" to-layer="242" to-port="2"/>
		<edge from-layer="240" from-port="1" to-layer="242" to-port="3"/>
		<edge from-layer="241" from-port="1" to-layer="242" to-port="4"/>
		<edge from-layer="236" from-port="5" to-layer="244" to-port="0"/>
		<edge from-layer="242" from-port="5" to-layer="244" to-port="1"/>
		<edge from-layer="243" from-port="1" to-layer="244" to-port="2"/>
		<edge from-layer="244" from-port="3" to-layer="245" to-port="0"/>
		<edge from-layer="245" from-port="1" to-layer="250" to-port="0"/>
		<edge from-layer="246" from-port="1" to-layer="250" to-port="1"/>
		<edge from-layer="247" from-port="1" to-layer="250" to-port="2"/>
		<edge from-layer="248" from-port="1" to-layer="250" to-port="3"/>
		<edge from-layer="249" from-port="1" to-layer="250" to-port="4"/>
		<edge from-layer="251" from-port="1" to-layer="256" to-port="0"/>
		<edge from-layer="252" from-port="1" to-layer="256" to-port="1"/>
		<edge from-layer="253" from-port="1" to-layer="256" to-port="2"/>
		<edge from-layer="254" from-port="1" to-layer="256" to-port="3"/>
		<edge from-layer="255" from-port="1" to-layer="256" to-port="4"/>
		<edge from-layer="250" from-port="5" to-layer="258" to-port="0"/>
		<edge from-layer="256" from-port="5" to-layer="258" to-port="1"/>
		<edge from-layer="257" from-port="1" to-layer="258" to-port="2"/>
		<edge from-layer="258" from-port="3" to-layer="259" to-port="0"/>
		<edge from-layer="259" from-port="1" to-layer="264" to-port="0"/>
		<edge from-layer="260" from-port="1" to-layer="264" to-port="1"/>
		<edge from-layer="261" from-port="1" to-layer="264" to-port="2"/>
		<edge from-layer="262" from-port="1" to-layer="264" to-port="3"/>
		<edge from-layer="263" from-port="1" to-layer="264" to-port="4"/>
		<edge from-layer="265" from-port="1" to-layer="270" to-port="0"/>
		<edge from-layer="266" from-port="1" to-layer="270" to-port="1"/>
		<edge from-layer="267" from-port="1" to-layer="270" to-port="2"/>
		<edge from-layer="268" from-port="1" to-layer="270" to-port="3"/>
		<edge from-layer="269" from-port="1" to-layer="270" to-port="4"/>
		<edge from-layer="264" from-port="5" to-layer="272" to-port="0"/>
		<edge from-layer="270" from-port="5" to-layer="272" to-port="1"/>
		<edge from-layer="271" from-port="1" to-layer="272" to-port="2"/>
		<edge from-layer="272" from-port="3" to-layer="273" to-port="0"/>
		<edge from-layer="273" from-port="1" to-layer="278" to-port="0"/>
		<edge from-layer="274" from-port="1" to-layer="278" to-port="1"/>
		<edge from-layer="275" from-port="1" to-layer="278" to-port="2"/>
		<edge from-layer="276" from-port="1" to-layer="278" to-port="3"/>
		<edge from-layer="277" from-port="1" to-layer="278" to-port="4"/>
		<edge from-layer="279" from-port="1" to-layer="284" to-port="0"/>
		<edge from-layer="280" from-port="1" to-layer="284" to-port="1"/>
		<edge from-layer="281" from-port="1" to-layer="284" to-port="2"/>
		<edge from-layer="282" from-port="1" to-layer="284" to-port="3"/>
		<edge from-layer="283" from-port="1" to-layer="284" to-port="4"/>
		<edge from-layer="278" from-port="5" to-layer="286" to-port="0"/>
		<edge from-layer="284" from-port="5" to-layer="286" to-port="1"/>
		<edge from-layer="285" from-port="1" to-layer="286" to-port="2"/>
		<edge from-layer="286" from-port="3" to-layer="287" to-port="0"/>
		<edge from-layer="287" from-port="1" to-layer="292" to-port="0"/>
		<edge from-layer="288" from-port="1" to-layer="292" to-port="1"/>
		<edge from-layer="289" from-port="1" to-layer="292" to-port="2"/>
		<edge from-layer="290" from-port="1" to-layer="292" to-port="3"/>
		<edge from-layer="291" from-port="1" to-layer="292" to-port="4"/>
		<edge from-layer="293" from-port="1" to-layer="298" to-port="0"/>
		<edge from-layer="294" from-port="1" to-layer="298" to-port="1"/>
		<edge from-layer="295" from-port="1" to-layer="298" to-port="2"/>
		<edge from-layer="296" from-port="1" to-layer="298" to-port="3"/>
		<edge from-layer="297" from-port="1" to-layer="298" to-port="4"/>
		<edge from-layer="292" from-port="5" to-layer="300" to-port="0"/>
		<edge from-layer="298" from-port="5" to-layer="300" to-port="1"/>
		<edge from-layer="299" from-port="1" to-layer="300" to-port="2"/>
		<edge from-layer="300" from-port="3" to-layer="301" to-port="0"/>
		<edge from-layer="301" from-port="1" to-layer="306" to-port="0"/>
		<edge from-layer="302" from-port="1" to-layer="306" to-port="1"/>
		<edge from-layer="303" from-port="1" to-layer="306" to-port="2"/>
		<edge from-layer="304" from-port="1" to-layer="306" to-port="3"/>
		<edge from-layer="305" from-port="1" to-layer="306" to-port="4"/>
		<edge from-layer="207" from-port="5" to-layer="307" to-port="0"/>
		<edge from-layer="306" from-port="5" to-layer="307" to-port="1"/>
		<edge from-layer="308" from-port="1" to-layer="313" to-port="0"/>
		<edge from-layer="309" from-port="1" to-layer="313" to-port="1"/>
		<edge from-layer="310" from-port="1" to-layer="313" to-port="2"/>
		<edge from-layer="311" from-port="1" to-layer="313" to-port="3"/>
		<edge from-layer="312" from-port="1" to-layer="313" to-port="4"/>
		<edge from-layer="307" from-port="2" to-layer="315" to-port="0"/>
		<edge from-layer="313" from-port="5" to-layer="315" to-port="1"/>
		<edge from-layer="314" from-port="1" to-layer="315" to-port="2"/>
		<edge from-layer="315" from-port="3" to-layer="316" to-port="0"/>
		<edge from-layer="316" from-port="1" to-layer="321" to-port="0"/>
		<edge from-layer="317" from-port="1" to-layer="321" to-port="1"/>
		<edge from-layer="318" from-port="1" to-layer="321" to-port="2"/>
		<edge from-layer="319" from-port="1" to-layer="321" to-port="3"/>
		<edge from-layer="320" from-port="1" to-layer="321" to-port="4"/>
		<edge from-layer="322" from-port="1" to-layer="327" to-port="0"/>
		<edge from-layer="323" from-port="1" to-layer="327" to-port="1"/>
		<edge from-layer="324" from-port="1" to-layer="327" to-port="2"/>
		<edge from-layer="325" from-port="1" to-layer="327" to-port="3"/>
		<edge from-layer="326" from-port="1" to-layer="327" to-port="4"/>
		<edge from-layer="321" from-port="5" to-layer="329" to-port="0"/>
		<edge from-layer="327" from-port="5" to-layer="329" to-port="1"/>
		<edge from-layer="328" from-port="1" to-layer="329" to-port="2"/>
		<edge from-layer="329" from-port="3" to-layer="330" to-port="0"/>
	</edges>
	<meta_data>
		<MO_version value="unknown version"/>
		<cli_parameters>
			<unset unset_cli_parameters=""/>
		</cli_parameters>
	</meta_data>
</net>
